E-GraphSAGE/experiments/model/CPCA_GATE_MLP_NF-BoT-IoT_best_model.pth (torch, 760460 bytes, 54 tensors)

weight f4 [128, 16]
000000 9c 82 df 3d c8 75 92 bd 75 02 12 3e 41 21 60 bd
       0.10913584 -0.07151371 0.1425875 -0.054719213
000010 a4 6b 2f bd 57 5d 89 3e 5f 84 20 3e 12 25 09 3e
       -0.042827263 0.26829025 0.15675496 0.13393047
000020 24 60 c6 bc 49 df 1d be 30 7a 20 be 18 16 4b 3d
       -0.024215765 -0.15417208 -0.15671611 0.049581617
000030 3d 8b 0e be 21 26 66 be c8 26 ae be 1c 2a a6 bc
       -0.13920303 -0.22475483 -0.34013963 -0.020283751
000040 84 6d 77 3e 5c 3d 2b be 82 a2 48 be d1 24 fe 3d
       0.2416287 -0.16722625 -0.19593242 0.12409366
000050 0b d0 84 bd 5d c3 08 bc 50 80 62 be e0 a1 17 3e
       -0.064849935 -0.0083473595 -0.2211926 0.14807844
000060 79 c4 94 3e ff a9 94 be 7b ec 0e 3e 37 d1 03 bd
       0.29056147 -0.29035947 0.13957398 -0.032181945
000070 f8 22 0b 3d 3a a3 db 3d 8c 58 90 3e ef d7 ec bc
       0.033968896 0.10724492 0.28192556 -0.028911559
000080 37 74 81 3d de 7d 14 be 50 b0 e0 bb 8a 16 06 bc
       0.06320994 -0.1450114 -0.0068569556 -0.008184085
000090 16 2a c8 bd de 9f 0f be 41 b7 7e 3e c6 1e 98 3d
       -0.09773652 -0.14025828 0.24874593 0.074277446
0000a0 2e 94 91 3e 7f c8 eb 3d 1e 85 13 be 29 e1 3f 3e
       0.28433365 0.11512851 -0.14406249 0.18738236
0000b0 b0 f2 b3 bd 8e 59 c9 bd 35 b2 96 3e 1d bb 4e be
       -0.08786523 -0.09831534 0.29432836 -0.20188566
0000c0 e9 9c a6 bd 87 1b 37 be 55 f1 0e 3e 75 84 10 3e
       -0.08135397 -0.17881595 0.13959248 0.14113028
0000d0 ef c8 5f be 02 23 30 3d 77 59 1e be a8 9a fd bc
       -0.21853994 0.043002136 -0.15463816 -0.030957535
0000e0 49 b9 96 3e db cb 5f 3e fc e5 24 3e ab ec 69 3e
       0.29438236 0.21855108 0.16103357 0.22844188
0000f0 7c 69 1e 3d 55 3c 89 3e f4 e8 e2 3e 78 b5 32 3e
       0.038674816 0.26803842 0.44318354 0.17452037
000100 23 34 a4 3d 90 be 36 3e 15 31 bd bd 34 9b 2d 3e
       0.08017757 0.17846131 -0.09237877 0.16953737
000110 6e ea 56 be 84 18 2d 3e e7 9a a3 3d f2 fa 3a 3e
       -0.20987865 0.16903883 0.0798853 0.1825979
000120 0b 4c 27 3d 41 6a f3 3c 18 e9 7f bc ab 68 7d 3e
       0.040844005 0.029713752 -0.015619539 0.24746959
000130 58 53 3b 3e 4f b2 72 be 48 26 78 3e 35 01 1e be
       0.18293512 -0.23700832 0.24233353 -0.15430148
000140 8b b7 7b 3e 6f 38 46 3e 3c 4e 0b be e1 a3 19 be
       0.24581735 0.19357465 -0.13604063 -0.15003921
000150 d5 cf 1d bd 45 3c 24 3e 5f eb 6c be dc 4c e5 bd
       -0.038528282 0.16038616 -0.23136662 -0.111963004
000160 30 d5 49 be 06 c0 76 3e b1 34 6c be 2f 74 63 be
       -0.19710231 0.24096689 -0.23066975 -0.2221229
000170 2c 25 a4 bd 90 fd 30 bd f0 91 0c bd fd 38 78 3d
       -0.080149025 -0.043210566 -0.034318864 0.060601223
000180 c2 fa a7 bd 8b cc da bd d1 55 f7 3d 8e 84 dc 3d
       -0.08202125 -0.10683545 0.12076915 0.1076747
000190 4a 30 a5 bd dc aa 8b bd a7 27 28 be 47 a8 32 be
       -0.08065851 -0.06819698 -0.16421376 -0.17447005
0001a0 33 a6 66 3e 6c 50 2f 3e 8b 76 41 be 0a ab 59 be
       0.22524337 0.17120522 -0.18892877 -0.21256652
0001b0 41 ac 4a 3e ae 8f 27 3e ff 0a 12 be 33 91 4a be
       0.19792272 0.16363403 -0.14262007 -0.19781952
0001c0 b2 fc 71 3d 0f 3b e2 3d da 48 33 3e 53 88 ab bd
       0.05907888 0.11046421 0.1750826 -0.08375611
0001d0 13 e4 7c 3c 48 0c 4a be 8d b1 cc 3d 07 46 c9 bd
       0.0154352365 -0.19731247 0.099948026 -0.0982781
0001e0 a8 b6 39 3e c0 cb a5 bd 2b 85 69 3e 7f 70 ae bd
       0.18136084 -0.08095503 0.22804706 -0.08517551
0001f0 8b f0 4c 3e e2 a2 b6 bd a6 66 b1 3e b2 be 85 3e
       0.20013635 -0.08917786 0.34648627 0.2612205
000200 f2 b5 8f 3d a1 b0 d0 bd b0 5e 15 be 12 cb 09 3d
       0.07017125 -0.10189939 -0.14586902 0.03364093
000210 9d 9c 7a 3d 5e 64 27 3e 4a 0d 02 bd f1 7c dd bd
       0.061184514 0.16346881 -0.031750955 -0.10814846
000220 74 b7 3f be f2 17 1f 3e 49 c6 ec bd cc ec 59 be
       -0.18722326 0.15536478 -0.115612574 -0.21281737
000230 1e bb 57 be ed 25 da bc a1 87 ae be 5f 79 30 3e
       -0.21067473 -0.026629413 -0.34087852 0.172338
000240 f1 0f 8e be 8b a6 86 be c6 11 8c be aa 04 7c 3d
       -0.27746537 -0.26298937 -0.2735731 0.061527885
000250 e5 1f b5 bd 04 a0 34 be 6a 57 85 3d 5e 38 2c 3e
       -0.08843974 -0.17639166 0.065108135 0.16818377
000260 66 48 d7 3b a2 7c 6c bd f3 2f bc 3d 78 40 f9 3d
       0.00656991 -0.057736047 0.09188833 0.121704996
000270 eb 64 53 3e b0 e1 0c 3e 38 62 78 bd 27 7f 73 3e
       0.20643966 0.13757968 -0.060640544 0.23778974
000280 d2 b5 5a be cc e3 b4 bd 60 a7 fc bd 64 33 ac bd
       -0.21358421 -0.08832511 -0.12336612 -0.084082395
000290 2c 01 43 be d8 b0 bf 3d 31 30 22 bd 56 a2 4e 3e
       -0.19043416 0.09359902 -0.03959674 0.20179114
0002a0 3a b8 f6 bd e3 1c 33 be 0d 23 03 be 5c 2a b5 3d
       -0.12046857 -0.17491488 -0.1280634 0.0884597
0002b0 f4 e8 28 3e 51 7e 42 3e 63 80 bd 3e 07 75 9a 3e
       0.16495115 0.18993498 0.37012014 0.3016741
0002c0 72 a5 68 3d 0e d3 a9 3d 1d 29 d3 3c 12 fb e0 bd
       0.056798406 0.082922086 0.02577644 -0.10985388
0002d0 04 82 34 bd 0b b0 13 3e db a6 1a be 90 31 49 be
       -0.044069305 0.14422624 -0.15102713 -0.19647813
0002e0 c1 50 16 be 4c 96 75 be ea ea 34 3e cd 6b 4a be
       -0.14679243 -0.23983115 0.17667738 -0.19767685
0002f0 8e 32 0c 3e f0 0a 48 3e 41 3b ff bd f6 fb 42 3e
       0.1369116 0.19535422 -0.12462474 0.19041428
000300 96 4a 4b 3c c6 d0 13 3e 18 c9 5e be 7e 3e a8 bd
       0.012407919 0.1443511 -0.21756399 -0.082150444
000310 d4 c8 12 be 26 0e 14 3e 1a f9 35 3d b4 a7 79 be
       -0.14334422 0.14458522 0.044427015 -0.2438038
000320 36 e7 1d be 95 a4 36 be 71 af 55 bd c4 f7 4e be
       -0.15420231 -0.1783622 -0.052169267 -0.20211703
000330 4f 06 25 3e 48 71 41 3e 8a f7 b5 bd fa 76 32 be
       0.16115688 0.1889087 -0.08885105 -0.17428198
000340 cb c3 85 bc 63 45 eb bd 7d dd 5d 3e 50 ca 9f 3c
       -0.016328713 -0.11487844 0.21666522 0.01950565
000350 25 88 46 be c9 c9 38 bc 07 c7 e6 bd 05 52 27 be
       -0.19387873 -0.011278578 -0.1126843 -0.16339882
000360 0b 4c 45 bc f3 9f 61 be 2e 1a 8a bd 1b 66 83 be
       -0.012042056 -0.22033672 -0.06743275 -0.25663838
000370 4f ed 3c 3e 6c 2b 1c be e1 65 92 be 9d cf d2 bd
       0.18449901 -0.15250939 -0.28593352 -0.10293505
000380 c1 77 29 3e 3f 4f a0 3d 93 67 26 3e 3f b5 5b be
       0.16549589 0.07827615 0.16250448 -0.21455859
000390 73 f5 97 3d 69 15 67 3c e4 52 f5 3c a7 b2 d0 bc
       0.074198626 0.014104226 0.029946752 -0.025475813
0003a0 15 ec 8d be 49 b8 4c be 6b e3 4f be 96 27 34 bd
       -0.2771918 -0.19992174 -0.20301597 -0.043983065
0003b0 69 80 20 be 78 ac 7c be d4 5b 5c 3c db 51 2c be
       -0.15673985 -0.24675167 0.013449628 -0.168281
0003c0 23 11 07 3d 2a c7 18 3e ce 7f 1f 3c bc 5b 48 be
       0.032975327 0.14919725 0.009735061 -0.19566244
0003d0 a2 4b 70 be f8 a4 12 be cc 67 89 bc dc 4e 35 3e
       -0.23466352 -0.14320743 -0.016773127 0.17705864
0003e0 d0 84 9c be 58 b2 f0 3d 6b a6 11 3d bd c1 56 bd
       -0.30570078 0.11752766 0.0355591 -0.052430857
0003f0 c1 34 67 3e 38 d1 aa be f9 12 3d be 73 27 c8 bc
       0.22578718 -0.33362746 -0.18464269 -0.024432873

bias f4 [128]
000000 e0 f2 a1 bc c5 90 48 3e da ef 0c 3d ca 47 38 be
       -0.019769132 0.19586475 0.034408428 -0.17996135
000010 09 eb 2b be 9d 14 01 be a2 27 4e be 2b 02 6f 3e
       -0.16788878 -0.1260552 -0.20132306 0.23340671
000020 ef d4 0e be 7a a5 82 be 2d 13 b4 bd 6f eb e9 bb
       -0.13948415 -0.25516874 -0.0879272 -0.0071386616
000030 c6 c7 75 be ce fd 63 3e 58 15 df 3b c4 d5 50 3e
       -0.24001989 0.22264788 0.0068079643 0.20394045
000040 08 dc 00 be cd c1 a4 bd d4 74 9a 3d 1a 84 7e 3d
       -0.12583935 -0.08044777 0.075418144 0.0621377
000050 e6 73 86 bd 89 78 c0 3d 67 01 4e 3e 85 f1 30 3e
       -0.065650746 0.0939799 0.20117722 0.17279632
000060 66 96 5f be dd 5d 35 be 8e e1 75 be 2d 60 f8 3c
       -0.21834716 -0.17711587 -0.24011824 0.030319298
000070 57 d9 21 be 4e cd 24 be 49 13 76 be f1 6f 89 3e
       -0.15805565 -0.16093943 -0.24030794 0.26843217
000080 78 a2 37 be 5b b5 11 3e e1 06 73 bd 14 21 cc 3c
       -0.1793307 0.14229338 -0.059332732 0.024918117
000090 84 98 6e 3d dc 4c 9b 3d 84 fe ba bb ed 47 2f bd
       0.05825092 0.07583019 -0.00570661 -0.042793203
0000a0 6f 1d 09 be c0 56 9a 3c 47 e2 3d be 2f 4c 05 3d
       -0.13390134 0.018840194 -0.18543349 0.032543357
0000b0 4b ee 33 3e ba 3d 2d be fb 84 78 be 66 3d 45 3c
       0.1757137 -0.16918078 -0.24269478 0.012038564
0000c0 8f 40 ea bd 01 e7 5e 3e df 87 32 3d 04 4c 5a 3e
       -0.11438095 0.21767808 0.043586608 0.2131806
0000d0 47 26 43 be 21 22 36 3e 13 16 38 3d 0a de 26 be
       -0.1905757 0.17786457 0.044942927 -0.16295639
0000e0 01 ab af bd 21 5e 9e 3d f1 6d 4e 3e 93 14 67 3e
       -0.08577538 0.077327974 0.20159127 0.22566442
0000f0 6f 42 2e 3e 63 6d 81 bd 76 c0 83 bd b7 5b 51 be
       0.1701753 -0.06319692 -0.064331934 -0.20445143
000100 62 50 22 be 06 43 50 3e 77 c9 fb bc 68 d6 11 be
       -0.15850976 0.20338067 -0.030735714 -0.14241946
000110 e6 46 8a bd 8c fe 7e be 17 a0 fd 3d ee a3 e8 bd
       -0.06751804 -0.2490179 0.1238405 -0.11359392
000120 d1 9f a3 bd 18 02 73 3d 1f df 3e be 6b 48 79 be
       -0.07989467 0.05932817 -0.18639801 -0.24344032
000130 fd 07 25 3e 36 fb 0a be fd ba 40 be 57 9f 17 3d
       0.16116329 -0.13572392 -0.1882133 0.037017193
000140 65 08 46 be 3c 3b 1f 3e 4f d8 0b 3e d0 7a 41 be
       -0.1933914 0.1554994 0.13656734 -0.18894506
000150 39 c7 20 3d 6d 96 7f bd d8 dc 06 3e 49 33 29 be
       0.039252494 -0.062399317 0.13170183 -0.1652347
000160 d3 17 72 3e b9 a1 ee 3d 99 28 46 bd 5a d7 0f be
       0.236419 0.1165194 -0.04837856 -0.14046994
000170 68 79 f0 3c 4d 33 8c 3e 53 6c d3 3d c0 b7 5b be
       0.029354766 0.2738289 0.103233956 -0.21456814
000180 00 44 97 bd 00 ea 43 be da 37 fb 3c 03 bf 5f be
       -0.07386017 -0.19132233 0.03066628 -0.21850209
000190 51 a4 a7 bd d8 f9 6f be ca 08 82 3e 33 ad 8e 3e
       -0.08185638 -0.23435152 0.2539733 0.27866516
0001a0 f3 49 9a 3d ae 91 37 be de 30 48 3d 2a 20 38 3e
       0.07533636 -0.17926666 0.04887473 0.1798102
0001b0 03 1f 79 be 93 79 8c ba c4 03 91 bc 29 50 ab bd
       -0.24328236 -0.0010717384 -0.01770199 -0.08364899
0001c0 6e 24 2d 3e 11 11 02 be fa 27 27 be 6a 60 b7 3d
       0.16908428 -0.12701823 -0.16323844 0.089539364
0001d0 63 e5 03 bc cf 17 69 3e 43 96 ad bc 96 b0 28 3e
       -0.0080502955 0.22762989 -0.021189814 0.16473612
0001e0 30 a9 36 3d 3f db 58 be 92 e2 6b 3d e8 b3 5a bb
       0.044594944 -0.21177386 0.05758912 -0.0033371393
0001f0 7b 4f 52 be 89 68 01 be 48 fe 18 be 7d 7b 7a 3d
       -0.20538132 -0.12637533 -0.1494075 0.061152924

weight f4 [128, 136]
000000 d6 ec f4 bd 4e c3 06 be 9e 75 ef bc 8b 06 84 bd
       -0.11959235 -0.1316044 -0.029230889 -0.064465605
000010 42 b5 30 ba 7e 77 60 bc 02 48 9b bd cd ac b9 bd
       -0.00067408767 -0.013700364 -0.07582094 -0.09066162
000020 ad a0 83 bd 30 a0 4c 3d 7a 77 ac 3d 3a 1e af bc
       -0.06427131 0.049957454 0.08421226 -0.021376718
000030 a3 aa bb 39 ed 1d bb bb e7 dc 55 bd ac 0f f5 3c
       0.00035794554 -0.0057103545 -0.052212622 0.0299147
000040 ee ca 65 bd 79 59 44 bc b8 0d 2c bd f8 f8 30 3d
       -0.056101732 -0.011984223 -0.04200527 0.043206185
000050 dc 5d 04 3d df a3 b2 3d c7 5b 8b 3d 11 05 2e bd
       0.032316074 0.08722662 0.068046145 -0.0424853
000060 56 e2 c7 3d 81 be b8 bc c8 82 49 bd 83 d8 a8 bc
       0.09759967 -0.022551777 -0.04919699 -0.020611053
000070 c7 51 d4 3d 7b 8a da bc 23 d7 2a bd ca e7 63 3d
       0.1036716 -0.02667736 -0.041709077 0.055640973
000080 11 8d c0 bc 97 2d de bc 25 5f 0b bd ea b4 1c bd
       -0.023504766 -0.027121348 -0.034026284 -0.03825847
000090 63 d9 94 bd 78 c6 88 bc 03 4d a6 bc 99 c2 a1 3c
       -0.07268026 -0.0166962 -0.020300394 0.019746112
0000a0 a6 02 16 3d 73 a3 8d 3d f3 bf ff 3c 09 d1 02 bd
       0.03662362 0.06915941 0.031219458 -0.031937633
0000b0 4e af 9f 3d fc 0e 37 3d f2 52 a3 3d 74 e5 73 bc
       0.077971086 0.044692025 0.07974805 -0.014886249
0000c0 44 92 3c bd 4d 1d 14 3d fd 54 b5 3c d4 98 cd 3d
       -0.046037927 0.036160756 0.022135252 0.10038915
0000d0 47 c7 1b bd 64 51 ba 3c 48 d4 98 3d 78 2f ba bd
       -0.038031843 0.022743888 0.074623644 -0.09091085
0000e0 bf 2a d1 3c 18 c9 bd 3c e7 dc 1c 3e 43 a0 0d 3c
       0.025533078 0.023167178 0.15318643 0.008644166
0000f0 2c 94 12 3d 48 e3 b9 3c c2 76 e8 bd 6b 24 60 bd
       0.03578584 0.022691384 -0.11350776 -0.05472223
000100 16 15 e0 bb 55 73 98 3d 7f be 90 3d a1 50 80 bd
       -0.006838451 0.07443873 0.07067584 -0.06265379
000110 1f 6c 19 bd 35 34 43 3d 1d f2 07 3e 43 bd 81 3d
       -0.037456628 0.04765721 0.13275953 0.06334927
000120 d6 71 82 3d 8c a5 0a 3d 93 94 07 3d 93 81 9f bd
       0.06369369 0.033849284 0.033100676 -0.07788386
000130 3f 49 c9 bd 7d 9d 6a bd 4d 3c 2e 3c db cd ab bd
       -0.09828424 -0.0572791 0.010634494 -0.08388873
000140 11 38 52 3d d8 16 b3 bd 9d f6 26 3d 6a 11 79 bd
       0.051323 -0.087445915 0.040762533 -0.060807623
000150 87 bd fd bc 49 74 09 3e ea 3e 41 bd fa 2c e0 3d
       -0.030974163 0.13423266 -0.04717914 0.109460786
000160 5f b5 02 bd 76 91 43 bc 95 f7 88 3c 9e 27 60 3d
       -0.03191125 -0.011936536 0.016719619 0.054725282
000170 5f 31 72 3c 7f 14 83 3c 10 65 47 3c 94 1c 44 bd
       0.014782279 0.016000984 0.012170091 -0.047878817
000180 cc 18 74 3d 89 2f 59 bd c9 4c a9 bd ec e0 78 3c
       0.05959396 -0.05302385 -0.08266599 0.015190344
000190 16 5c 75 bd 2a 69 7d bd 3a 92 3f bc 0e 4c 99 3d
       -0.059902273 -0.06186787 -0.011692578 0.074852094
0001a0 9d 2d d1 3d bb 56 66 3d 41 b5 8e 3c c7 d3 90 3d
       0.10213778 0.056235056 0.017420413 0.07071643
0001b0 f8 ff f8 bd 91 dd 1c 3d 00 e6 dd bc fe fc 9a bc
       -0.12158197 0.03829724 -0.027087212 -0.018919464
0001c0 d5 d3 e7 bd 43 01 cb 3b 1a 4d 59 bd 85 5e ce ba
       -0.11319701 0.006195219 -0.053052045 -0.0015744722
0001d0 9f a3 e9 3d f5 45 a0 bd f4 dd e5 bd df 4c 53 bd
       0.11408161 -0.07825843 -0.11223975 -0.051586982
0001e0 7a 90 2d 3b d4 cc 27 bd ae 97 53 3b a4 b7 5c bc
       0.002648382 -0.040966824 0.0032286453 -0.013471518
0001f0 c0 86 18 bd f7 87 e2 bb cb c4 b7 bd 72 5b 71 3d
       -0.037237883 -0.006913181 -0.08973082 0.0589251
000200 99 21 90 bc 47 d0 97 3d a1 c4 16 bd c7 dd 7c bc
       -0.017594146 0.074127726 -0.036808614 -0.015433735
000210 9b 80 ff 3c d8 c5 33 3d ae 5d 01 bd 40 60 26 bd
       0.031189254 0.04388985 -0.03158348 -0.040619135
000220 d2 20 77 3d f6 11 5c 3d b2 c1 3e bd b0 11 0f bd
       0.060334034 0.053728066 -0.04657144 -0.034928977
000230 3a c3 86 3d d8 27 38 bd 59 b5 a5 3d b1 70 94 bc
       0.06580205 -0.044959873 0.0809123 -0.018120142
000240 04 15 95 bc 31 64 56 bb 09 3c a9 3b 83 b5 39 3d
       -0.018198498 -0.0032713527 0.0051646275 0.04533912
000250 14 28 55 bc a9 82 e1 3c 4c d6 18 bb 05 c8 ab bd
       -0.013010044 0.027528124 -0.002332109 -0.0838776
000260 7d ab bd 3d 38 b0 f7 bd 72 23 70 bc 05 2e d3 3d
       0.092612244 -0.12094158 -0.014656888 0.10311512
000270 c1 b6 2f 3d 29 cc c0 bc 8b 36 10 3d a7 e5 a2 3d
       0.042898897 -0.023534851 0.035208266 0.07953959
000280 77 48 46 3d f6 53 c3 bc b9 87 f9 3c a8 51 be bd
       0.04840895 -0.023843747 0.030460225 -0.092929184
000290 39 2a 3f bd d4 da 48 3b d1 a1 5b bd c0 57 86 bd
       -0.046671126 0.003064801 -0.053621117 -0.06559706
0002a0 0a ef 4a 3d 7b 08 9b 3d 0c 28 05 3e 88 18 17 3d
       0.04954437 0.07569977 0.13003558 0.03688863
0002b0 07 16 dd bb 7d fb f3 bc 96 91 81 bd 88 23 96 3d
       -0.0067470106 -0.029783005 -0.063265964 0.07330996
0002c0 45 eb ad bd 2f 16 a8 bd ad 9b 70 bc 10 06 c6 bd
       -0.0849214 -0.08207356 -0.0146855535 -0.09669125
0002d0 6e 5d 63 3c 6a b6 29 3d 98 70 4d 3d 45 10 fc bc
       0.013877256 0.04143373 0.050156206 -0.030769477
0002e0 c4 9f 69 bd 03 79 43 bc ae f9 65 3d b6 87 2b 3b
       -0.05703713 -0.011930707 0.056146316 0.002617342
0002f0 41 aa b6 3b 3d 11 b9 bd 00 c9 5f bd b2 9e 80 3b
       0.005574495 -0.09036491 -0.054635048 0.003925168
000300 b2 b0 c7 bb 57 a4 8e 3d d5 e5 89 3b e5 d1 ee 3c
       -0.006094062 0.06964939 0.0042083063 0.02915282
000310 a8 35 94 bc d4 ab 2b bd cd ee 8b 3d 55 da 88 3d
       -0.018091992 -0.041911915 0.06832657 0.066822685
000320 a2 65 00 bd b1 69 98 3c ff 25 bd bd 38 d3 cb bd
       -0.031346925 0.018605085 -0.09235763 -0.09952396
000330 03 e2 f6 3c 91 b7 10 be 28 68 e8 bd f3 0a b5 bd
       0.030137068 -0.14132525 -0.11347991 -0.08839979
000340 6b ef 8b 3d 08 ac dc 3d 1c 25 9b 3d 24 69 62 bd
       0.06832775 0.10775 0.075754374 -0.05527605
000350 0e 33 85 3d 9b 71 a9 3d 25 8a ed ba 7c 3f 5d 3c
       0.065038785 0.08273622 -0.0018122835 0.013503905
000360 0d 10 6d 3d fe 58 8b 3d 0a b2 67 3d 97 19 b6 bd
       0.057876635 0.06804083 0.056566276 -0.088915996
000370 68 19 e1 3d 6b 0e 74 bc bf b7 00 bd c2 c9 05 3d
       0.10991174 -0.014896016 -0.031425234 0.032663114
000380 82 38 cb 3d e7 91 e7 bc 13 41 18 3d dd db 92 bd
       0.099228874 -0.028267814 0.037171435 -0.07170842
000390 57 1e 8a 3c 2e 68 76 3d d9 d6 54 bd 66 4d 8d 3c
       0.01686017 0.060157947 -0.051962707 0.01724882
0003a0 8d 67 2a bd b4 4f 3d bd 0f 09 98 3d af 34 24 3d
       -0.04160266 -0.04621859 0.07423603 0.040089305
0003b0 e6 c1 c7 3d 50 de ae 3b ab 61 ff 3d fb 8e 87 bd
       0.0975378 0.0053365603 0.124698006 -0.06619068
0003c0 39 17 b0 3c 73 3a 59 3d ae 3d b9 bd 49 76 da bd
       0.021495448 0.053034257 -0.090449676 -0.10667092
0003d0 e5 27 89 3c 28 fd fa bc 00 26 d3 bd 4c 3e d1 bd
       0.016742656 -0.030638292 -0.10309982 -0.1021696
0003e0 9c ea cf 3d 76 8f b6 3b 26 60 a3 bd 59 23 2b bd
       0.1015217 0.005571301 -0.07977323 -0.041781757
0003f0 95 9c ec bc 79 47 9b bd df 06 1f 3c e3 ce ea 3d
       -0.028883258 -0.07581992 0.009706228 0.11465242

bias f4 [128]
000000 21 3a 34 bd a6 cf 98 bd 7b 8a d5 3b 81 9f 88 bd
       -0.04400075 -0.07461481 0.0065167523 -0.06671048
000010 47 d5 d9 bb 06 7c 87 bd b5 e8 2f ba 8d 97 29 bd
       -0.006647739 -0.066154525 -0.0006710396 -0.041404296
000020 c2 a7 8f bd df 57 a1 bd 95 1a 35 bd 4b f2 c6 3d
       -0.07014419 -0.07878088 -0.044214804 0.097141825
000030 fe ed 03 be 8e 80 a7 bd 49 c8 b8 bd ab b7 8c 3d
       -0.12883756 -0.08178817 -0.09022576 0.068709694
000040 1e d0 50 3d 05 0c 42 3b f9 26 b6 bd 9a 63 03 3d
       0.050979726 0.0029609215 -0.08894152 0.03207741
000050 e7 50 a1 bd 98 72 8c 3d 6e 8a 40 bd 0f 34 75 bc
       -0.07876759 0.068577945 -0.047007017 -0.014966025
000060 74 19 4f 3d 84 95 76 bc 4f b8 44 bd 97 02 17 3b
       0.050561383 -0.015050296 -0.048027333 0.0023042315
000070 c4 88 cc 3b b3 8d d4 bd 36 a9 92 bd 90 00 8e bc
       0.0062418897 -0.103785895 -0.07161181 -0.017334253
000080 6a 20 4b bd 4c 56 99 3d ee 6c 9b bd 07 42 0a bc
       -0.04959146 0.07487163 -0.07589136 -0.008438594
000090 b2 47 a1 3d 08 a7 c5 3d 73 0c 93 bc 01 de 79 3d
       0.07875003 0.09650999 -0.017950272 0.061002735
0000a0 52 b1 00 be 79 9b 80 3d 0c 31 ff bc 96 2d 4c bc
       -0.12567642 0.06279654 -0.031151317 -0.01246204
0000b0 65 62 8d bd 79 14 0a 3b d7 6d 30 3d c6 e6 8c bd
       -0.06903533 0.0021069332 0.0430735 -0.06879954
0000c0 93 75 8d 3c 86 d9 23 bd 67 21 af 3d b2 a9 80 bd
       0.017267978 -0.04000237 0.08551293 -0.06282367
0000d0 fd 56 42 bd a5 be cd 3b f5 b4 8d bd e0 9c cc bd
       -0.04744624 0.00627883 -0.069192804 -0.09990859
0000e0 18 5a 6b bd 9a 86 ef 3c 65 8d 4e 3d b5 43 ed 3c
       -0.057458967 0.029238988 0.050427813 0.02896295
0000f0 71 d4 5c bd 51 1c 47 3c 4c a9 c7 bd ad 25 d0 3c
       -0.053913537 0.012152747 -0.09749088 0.02540859
000100 2d 4f 82 bd 7e 46 eb bb 63 c9 bf bc b0 01 da 3c
       -0.06362758 -0.007180034 -0.023411458 0.026612133
000110 bf 4a 87 bd 28 cc 7a 3d 09 be 2c bd 38 b8 a0 3d
       -0.066060536 0.061229855 -0.04217342 0.07847637
000120 63 05 7b bd 34 b4 f4 3b 15 95 6f bd a4 f0 0f 3d
       -0.061284434 0.007467771 -0.058491785 0.035141602
000130 bc 10 5e 3c dc f1 04 bd be 18 89 3c 53 11 de 3d
       0.0135537945 -0.032457218 0.01673543 0.10843148
000140 64 af e2 bd eb 4b d7 3d fa 2f 8f 3c ee 7b a1 3d
       -0.11068609 0.10512527 0.017478932 0.07884966
000150 b5 8f 88 3a e9 40 94 bd 90 7a 37 3d 54 62 87 3d
       0.0010418805 -0.07238943 0.04479462 0.066105515
000160 da ee 52 bd 2a a3 9f 3d c9 01 1a bd 23 9a 4e bd
       -0.051497318 0.07794793 -0.03759936 -0.050439965
000170 14 80 b6 3d 79 e7 2a be 6a 61 b0 bd d5 03 83 bb
       0.08911148 -0.16689862 -0.0861233 -0.0039982595
000180 44 bc 81 3d 9f 26 4e 3d 1c 4e ca bc 5a e9 94 3c
       0.06334737 0.0503298 -0.024695449 0.018177677
000190 cd fc 2b bd 8d e4 50 bd 60 3c 73 bd 7b 5d 43 3d
       -0.041989136 -0.050999213 -0.05938375 0.04769657
0001a0 99 43 22 bd e9 d4 e8 bd ca 61 9f 3d e0 14 1b be
       -0.039615247 -0.113687344 0.07782324 -0.15144682
0001b0 c2 bc 23 3d 24 da 26 3d 12 02 d8 3d 17 1e 77 bd
       0.039974935 0.04073538 0.1054727 -0.06033143
0001c0 bc 96 c6 3d 90 9a 6a 3c c0 3f d4 bd b1 01 92 3c
       0.09696719 0.014319077 -0.10363722 0.017823072
0001d0 26 de 17 3d 28 8c 35 bd 62 b0 de bd 40 62 49 bd
       0.03707709 -0.044323117 -0.10873486 -0.049165964
0001e0 e2 2a 3f bd 36 a2 f8 3c 9d 1b b1 3b 8d 0e e4 3c
       -0.046671756 0.030350786 0.005404903 0.02783897
0001f0 bc ae 8d bc 5d ef 6e 3d 5a 3f 05 3c 93 fd 35 bd
       -0.017295234 0.058333743 0.00813278 -0.04443128

weight f4 [32, 128, 1, 1]
000000 d8 10 da bd 5d 3e 55 bd 28 e1 d8 3c bd 2e 0b 3c
       -0.10647744 -0.052061427 0.02647455 0.00849503
000010 5b 97 a8 3d d3 c2 c8 3d 33 1e c6 bd b3 28 a3 bd
       0.08231994 0.09802785 -0.09673729 -0.07966747
000020 8e 7b 08 bd c7 0a 84 bd 9f 9b 60 3d 1a 26 18 bd
       -0.033320956 -0.06447368 0.05483591 -0.03714571
000030 3f 8c 0b bb 1b 0d 00 bd d5 b8 87 bd f5 a1 13 ba
       -0.002129331 -0.0312625 -0.06627051 -0.00056317385
000040 fd e5 97 3c a0 cc 6c 3d fa 2d ac bc 7a 6b a9 3d
       0.018542284 0.057812333 -0.021018017 0.08272453
000050 b4 2d c2 bc 6e ff d1 bc ec 3c 20 bb e9 e0 76 bd
       -0.023703434 -0.025634494 -0.0024450375 -0.060273085
000060 60 5d 8d bd f5 bb 4c 3d 95 35 4f bd e7 57 7b bd
       -0.069025755 0.049983937 -0.05058821 -0.061363127
000070 1b 0f 4a 3d d0 32 5a bd 25 99 04 bd cc a2 d4 bd
       0.049330812 -0.053271115 -0.032372613 -0.103826135
000080 57 e4 af 3c 13 32 0f 3c fe 09 b1 bd f7 bf 35 bc
       0.021471186 0.008739966 -0.08644484 -0.011093131
000090 a1 9a 95 3d c8 3d 53 bd 63 32 2b bd 3a 8d f9 3b
       0.07304884 -0.05157259 -0.0417961 0.0076157125
0000a0 49 06 8d 3b b3 c6 57 bd c0 e5 b9 bd c8 cd ca 3b
       0.0043037278 -0.05267973 -0.090770245 0.006189082
0000b0 6a a2 34 be e8 37 52 bd 62 f1 0d 3c c8 18 65 bd
       -0.17640081 -0.051322848 0.008663507 -0.055931836
0000c0 68 7e 5b 3d 75 0c c7 3d 43 df ce bb ee 8d 9c 3d
       0.053587347 0.09719173 -0.006313236 0.076442584
0000d0 b8 28 6b bd 7e 1c bd 3d 3a 8d 93 bc c8 6f 76 bd
       -0.05741188 0.0923395 -0.018011678 -0.060165197
0000e0 2c 3e 5e 3d 35 69 47 3d d2 30 7a bd 05 01 5c bd
       0.05425851 0.048684318 -0.061081715 -0.05371191
0000f0 fc 38 b2 bd f8 01 51 3b 97 9e fa bc cd 77 1e bd
       -0.08702275 0.0031892043 -0.0305932 -0.03868847
000100 71 e8 72 bc c7 8d 99 bd de 79 f5 bc 6d 6b 0c bb
       -0.014825926 -0.07497745 -0.029965337 -0.0021426335
000110 82 cd ef bc 19 7e a6 bd 4c 0a 39 bc ae 8d 1d 3d
       -0.029272798 -0.0812952 -0.011293959 0.038465194
000120 7e 47 40 3d ba 24 01 3d 8d 87 d3 3d c9 37 4f 3d
       0.04694318 0.031529166 0.10328589 0.05059031
000130 ab cd 27 3d 2a e1 45 3d 9b 88 82 bd ce 6f 8e 3d
       0.040967625 0.048310436 -0.06373712 0.06954919
000140 22 02 d1 3d df 1d 83 bd 6b 70 fa bd b7 91 5a bd
       0.10205485 -0.06402182 -0.12228473 -0.05336162
000150 c4 a1 b5 bd 36 55 3b bd 40 ea ec bd 6d 5b b8 bc
       -0.08868745 -0.04573556 -0.11568117 -0.022504533
000160 55 bb 49 3d 94 44 85 bd ba 0d 17 bd ab 30 7b bd
       0.04925092 -0.06507221 -0.036878325 -0.06132571
000170 0f 9a c9 3d 07 a1 74 3c a1 e4 e2 3d a6 4c 24 bd
       0.098438375 0.01493097 0.11078764 -0.04011216
000180 e8 31 c6 bd 3f 72 82 bd a5 17 a4 bd a5 9b 02 bd
       -0.096774876 -0.06369447 -0.08012322 -0.031886715
000190 00 44 d2 bb fe 9b f2 bd e9 9a 13 3d e1 93 60 bd
       -0.0064167976 -0.118461594 0.036036406 -0.05482853
0001a0 db 41 85 3d 2f d1 22 3d 50 f2 56 3d 31 ce 5d 3d
       0.065067016 0.039750274 0.05247718 0.054151718
0001b0 bc 64 bc bd 41 5c 90 bd 17 d0 4d 3d 5a 80 9f bc
       -0.09198901 -0.07048846 0.050247278 -0.019470382
0001c0 17 aa 8e bc 4d e2 a2 3d 4d 7d da bc dc 80 c1 bd
       -0.01741509 0.0795332 -0.026671076 -0.09448406
0001d0 0d 26 03 be c0 e6 01 be de 3a d0 3d 66 06 f3 bd
       -0.12807484 -0.1268568 0.10167478 -0.11866455
0001e0 4c 4d 76 bd a5 04 ce bd 09 d9 85 3b d7 f0 b1 bd
       -0.06013231 -0.100594796 0.0040847105 -0.08688515
0001f0 25 71 84 bd 86 0a 9d bd 0c e8 f5 bc 8f f0 be bc
       -0.06466893 -0.07668023 -0.030017875 -0.023308067
000200 59 78 38 3d 64 9f 5f 3d c3 4e 40 3d 41 92 90 bd
       0.045036647 0.054595366 0.046950113 -0.07059146
000210 89 51 91 bd 2c c8 75 3c 9a 74 a0 bd 8c eb e6 bd
       -0.0709563 0.015001338 -0.0783474 -0.11275396
000220 07 e8 f2 3c c5 d9 ff 3d 6c fe 8d 3c c6 b4 de 3d
       0.029651655 0.12492708 0.017333232 0.108743235
000230 5d 4a 64 bd 3f 80 91 3a b8 70 cb bd d0 c7 b1 bd
       -0.05573498 0.0011100842 -0.09933609 -0.08680689
000240 b3 43 50 3c 4d 84 ec 3d f3 5c 1d bc 9e 02 30 bd
       0.012711453 0.11548672 -0.00960468 -0.042971246
000250 fa f5 6d bc 82 3d ec bc 9e a0 43 bd f6 f8 bc 3d
       -0.014523977 -0.028837923 -0.0477606 0.09227173
000260 1d ed c2 bd a4 75 87 bd 63 1a de 3c 65 b3 fc bd
       -0.09517882 -0.06614235 0.027112192 -0.12338904
000270 ff 78 d9 bc e7 23 c3 3a dc a7 f0 bc 9f 6b 4c 3d
       -0.026546953 0.0014888019 -0.029376917 0.049907323
000280 70 b3 b7 bd e2 d5 d6 3d ce 57 b7 bc c8 5e 99 3b
       -0.08969772 0.10490014 -0.022380736 0.0046804883
000290 4e c7 06 bd 50 36 8c bd 51 36 4c bd f1 77 12 3e
       -0.032904916 -0.06846297 -0.049856488 0.14303567
0002a0 13 22 11 be 31 ce 87 bd 1d 28 fc bc 51 80 65 bd
       -0.14173155 -0.06631125 -0.030780846 -0.056030575
0002b0 ba 47 f5 3c bc 13 98 bc 6b 00 e1 3d 8a c7 9b 3b
       0.029941428 -0.018564098 0.10986408 0.0047540115
0002c0 63 5b 4a bd 01 7e 8e 3d 08 70 fe bb fa 8e a5 b9
       -0.04940356 0.06957627 -0.00776482 -0.00031577778
0002d0 44 63 04 bd 23 ed ae bc 16 0c 4a bd d8 e1 61 3d
       -0.03232123 -0.02135331 -0.049327932 0.055147022
0002e0 31 54 db bc 4c 00 69 3d 84 98 a4 3d a9 8c a2 bc
       -0.026773544 0.05688505 0.080369025 -0.019842463
0002f0 08 38 0b be 51 96 93 3d b0 f6 22 3c 60 e5 d3 bd
       -0.13595593 0.07206405 0.00994651 -0.10346484
000300 3d 55 9e bd f4 fe 00 be ec 7f 8d 3d 45 05 97 3a
       -0.07731102 -0.12597257 0.06909165 0.0011521956
000310 ec 95 2f 3b 44 b5 93 3c 6f cc 9b bd 0c df 31 3d
       0.0026792241 0.01803077 -0.07607352 0.043425605
000320 94 26 b9 3c 84 a7 53 ba 34 7c 7d 3d 03 4b d1 3c
       0.022601403 -0.0008073973 0.061886027 0.025548464
000330 d5 f9 06 3e 66 05 e7 3b e5 6d d0 3b 20 35 8b bc
       0.13181241 0.007050204 0.0063607567 -0.016993105
000340 9a 32 8a bd d4 52 07 3d b6 d6 52 3d 07 5f 48 3c
       -0.06747933 0.033037975 0.051474296 0.0122296875
000350 1f ca e7 bc bb 2d e6 3d f8 a4 f2 3b 9f 8a 41 bc
       -0.028294621 0.11239191 0.0074049197 -0.011812835
000360 f8 0f 09 3d e9 a6 c7 3d cd 15 d7 bc 7c fb 48 3b
       0.033462495 0.097486325 -0.026255513 0.0030667474
000370 26 9b f2 bc 94 55 8c bd 7c 7d 7c bd 32 3f 26 bb
       -0.029614996 -0.0685226 -0.06164311 -0.0025367257
000380 b8 ce 8e bd 18 c3 e6 bd 57 a2 96 bd 67 0d bb 3d
       -0.06973022 -0.1126768 -0.073551826 0.09133416
000390 0f dd 43 3c 0f e8 db 3b a0 ae 06 3e 72 e1 63 bd
       0.01195456 0.006711013 0.13152552 -0.055634923
0003a0 74 48 1a bd 22 72 fe 3b b2 c9 e0 3c 92 29 d4 3c
       -0.037666753 0.0077650705 0.027439926 0.025898729
0003b0 cf 55 b5 bb 83 cd 44 3c a7 04 9e bd 82 1b 25 bc
       -0.005533911 0.012011888 -0.07715731 -0.010077359
0003c0 23 50 e7 bd ad 7a 80 3d 2e 7a 1b be 57 c6 0d 3d
       -0.11294582 0.062733985 -0.15183327 0.03461298
0003d0 dc 63 0c 3d 67 6f 95 3d ef 87 11 3d 7c 98 46 3d
       0.03427492 0.07296639 0.035530027 0.048485264
0003e0 75 8c e9 bc 31 51 84 3c 7f bc 70 3d 4a 46 8b 3d
       -0.028509358 0.016151996 0.058773514 0.06800516
0003f0 d6 6c 4b 3d f3 70 5e bd e1 c4 0b 3e aa 60 c5 bd
       0.04966434 -0.054306936 0.13649322 -0.09637578

bias f4 [32]
000000 0a 1a 6f 3d 97 e0 b2 3d 3e d7 89 3b 8f a8 23 bd
       0.058374442 0.08734243 0.004206567 -0.039955672
000010 36 2e 94 bc 91 57 a7 bd b8 bf 25 bd 44 94 18 3e
       -0.018088441 -0.08170999 -0.04046604 0.14900309
000020 0a be 2f 3d 38 b4 bb 3c 70 6c d6 3d a6 a5 07 3d
       0.042905845 0.022913083 0.104699016 0.03311696
000030 76 bf ff 3c 8b 4c 24 bd f5 a7 a5 bd b1 ba 9a 3a
       0.031219225 -0.04011206 -0.08088676 0.0011804906
000040 7f 62 51 3d 26 f0 8b bd 03 ef 19 3d 71 f7 ac 3d
       0.051119324 -0.06832914 0.037581455 0.08445633
000050 be 5d d4 bc 31 d9 86 bc 76 f3 58 3e fe 87 2b bd
       -0.025923606 -0.016460987 0.21186623 -0.04187774
000060 37 31 82 bd 57 31 4c 3d 19 45 de bd 0a 61 89 3d
       -0.06357043 0.04985174 -0.10853023 0.06707962
000070 46 2c 8c 3d 8d a2 a1 3d 5b 11 0e bd 07 7c ac bd
       0.06844382 0.07892332 -0.03468452 -0.08422094

weight f4 [128, 32, 1, 1]
000000 5c 16 20 3e 88 3c ef 3d c6 82 dc bd 52 66 5b 3d
       0.1563353 0.11681467 -0.107671306 0.053564377
000010 35 9f e4 bd c0 20 71 3d 5d 96 1c 3e a0 21 dd 3d
       -0.11163179 0.058869123 0.15291734 0.10797429
000020 d0 1e 5a 39 77 72 30 be 44 e9 22 3e 76 79 09 be
       0.00020801579 -0.17231165 0.15909296 -0.1342524
000030 23 c5 ee 3d 2d 75 3f 3e c6 06 d8 3c e5 e8 25 3e
       0.116586946 0.18697043 0.026370417 0.16202123
000040 fd 88 50 bd b7 1e 0e 3e b9 07 93 3d f2 56 f5 3d
       -0.050911892 0.13878904 0.07179207 0.11979474
000050 ac b6 da 3d db 3e 28 3d 0c d2 26 bd 75 22 3b 3e
       0.10679373 0.04107557 -0.04072766 0.18274863
000060 ce dc 18 3e 95 60 0f 3d df 97 be bd da cc 4f 3e
       0.1492798 0.035004217 -0.09306311 0.20292988
000070 15 da 50 bd 35 c6 34 bc 56 ba f4 3c ad 4f 8b ba
       -0.05098923 -0.011033584 0.029874008 -0.0010628604
000080 01 17 45 bd 37 9e 0f bd db 3c 46 be 29 b1 ab bd
       -0.04811764 -0.035062995 -0.19359152 -0.083834
000090 78 30 31 3e 37 ed 08 be 71 5e bd bd c9 6e c5 3e
       0.17303646 -0.1337174 -0.09246529 0.38561085
0000a0 18 5a fe bc e7 59 06 3c 38 3b c1 3d 95 91 69 3d
       -0.03104882 0.008200145 0.09435123 0.057023603
0000b0 16 98 ff 3d 9d c3 98 be ba cc 6c 3d 66 47 c8 3c
       0.1248018 -0.2983674 0.05781243 0.024448108
0000c0 b4 93 be 3d db 7b 16 bd e6 d6 d5 3d 99 e5 7c bd
       0.09305516 -0.03673921 0.10441379 -0.0617424
0000d0 69 16 d9 3d e8 2b 15 be c8 dc 44 3e a1 e0 a6 3d
       0.105999775 -0.1456753 0.19224846 0.08148313
0000e0 30 43 81 be ee 33 3a bd f5 03 84 bd c1 be 14 3d
       -0.25246572 -0.04545968 -0.06446067 0.03631473
0000f0 8b 2a 12 bd 56 06 42 bd 49 56 70 bc 18 33 c7 3d
       -0.035685103 -0.047369324 -0.0146690095 0.09726542
000100 a2 88 ae 3c 02 3d 2a 3d 19 3e 46 3b ea c7 a0 bd
       0.021305386 0.041562088 0.0030249415 -0.078506306
000110 d2 eb 92 3d c0 65 27 3e 14 db 1f 3e 5e 8c 05 3e
       0.071738854 0.16347408 0.15610915 0.13041827
000120 b5 ac 4b bd 6f b0 0c 3d 2b 48 ea 3d 03 27 9e 3c
       -0.049725253 0.034347948 0.11439546 0.019305712
000130 14 ae 01 be 78 e9 d1 3c 4a 77 74 3e 64 5d 58 bc
       -0.12664062 0.025624022 0.2387363 -0.01320586
000140 b5 a2 16 be 2b aa 84 bd 79 8f 01 3d 21 7b 34 bd
       -0.14710505 -0.064777695 0.031630967 -0.044062737
000150 a0 1a ff bd 0d f0 ed bc db e7 a0 3e 2c 06 df bd
       -0.1245625 -0.02904513 0.31426892 -0.10889849
000160 e9 b7 ce bc 32 c6 86 3d f3 1b 94 3c dd fb 72 bc
       -0.02523418 0.065807715 0.018079733 -0.014830557
000170 84 9b 52 bd 8d b3 01 bd e5 63 30 be 1c 78 fd bd
       -0.051417843 -0.031665374 -0.17225607 -0.12376425
000180 e2 7c 28 be ff d1 22 bd 7e 86 55 3d 90 ed 79 3d
       -0.16453889 -0.03975105 0.052130215 0.061017573
000190 af 27 18 be 84 ea 2e be cf ae 43 3e f6 81 f6 3d
       -0.14858888 -0.17081648 0.19109653 0.12036507
0001a0 9c 9d c1 bd e6 5e ca 3c 17 26 0a be 63 2f da bc
       -0.0945389 0.024703454 -0.13491093 -0.026633924
0001b0 1f 98 20 bd 21 fe 3a be c2 ac 01 be bc 06 d5 3a
       -0.039207574 -0.18261005 -0.12663558 0.0016252617
0001c0 d5 02 34 bd 81 07 d6 3c 6d 8f a9 bd c3 7e 5f 3b
       -0.043948013 0.026126625 -0.082793094 0.0034102655
0001d0 11 00 91 bd e8 2c cc bc 54 5c 46 3e 56 60 44 3c
       -0.07080091 -0.024923757 0.19371158 0.011985859
0001e0 ed c8 a8 bd 18 bc e6 bd 96 b4 07 be d5 b9 c4 3d
       -0.082414486 -0.11266345 -0.13252482 0.09605757
0001f0 7c d8 d0 3c 7f ec e7 3d 07 ab 6e 3d 0c 91 8a 3c
       0.025493853 0.11324405 0.058268573 0.016914867
000200 21 54 20 3e 72 0b b3 3d 0d a0 b9 bd 2d 3c 77 3d
       0.15657093 0.087424174 -0.090637304 0.060360122
000210 a4 cc 23 3e b2 e4 2d bd 2e 5c d6 3c e5 9a c8 3c
       0.15996033 -0.04245443 0.026167002 0.024487922
000220 bd 05 e1 bd 05 9a 6f 3e 0f 8e 5a 3e 4c ff 10 bc
       -0.109874226 0.23398598 0.21343254 -0.00884993
000230 5c 03 53 3e db 8d 20 3e e9 38 6a 3e f2 4f f3 bd
       0.2060675 0.15679114 0.22873272 -0.11880483
000240 2b 5c c2 bc a1 b9 e0 3d 58 06 5e 3c 27 ff c2 3d
       -0.02372559 0.10972906 0.013551317 0.09521323
000250 da 3e 76 3d a5 07 42 3e ea b8 36 3e c7 6d 1c 3e
       0.060118534 0.18948229 0.17843977 0.15276252
000260 24 a6 ad bd 3a f6 0c 3e f3 3b 2d 3e 12 bc 7e bd
       -0.084789544 0.13765803 0.169174 -0.062191077
000270 25 31 2b be 1e 7e 16 3e a1 6a 9d bd 2d b0 cd bd
       -0.16717966 0.14696547 -0.076863535 -0.100433685
000280 82 a8 d7 bd 6e a6 1e 3e 14 9a 33 be 5f 04 b3 bd
       -0.10530187 0.15493175 -0.17539245 -0.08741068
000290 7b 49 78 3d 7f 1a 36 3e 95 db 3b bc 0e 25 9a be
       0.06061695 0.17783545 -0.011465927 -0.30106395
0002a0 f2 ce 50 3d 81 ba 4e bb c4 84 cc bc 63 1d 2c bd
       0.05097861 -0.003154427 -0.024965651 -0.042020213
0002b0 65 ca b3 bd 39 51 ff bd 19 94 1d be c3 cb 96 bd
       -0.08778838 -0.12466664 -0.15388526 -0.07363083
0002c0 cb 16 2a 3d 87 15 c7 bd d3 66 3a bd b9 5b 32 be
       0.041525643 -0.09720903 -0.045508217 -0.17417802
0002d0 28 fc eb 3d c4 d8 c7 bc 80 68 d2 3c 42 63 d2 3d
       0.11522704 -0.024395354 0.025684595 0.10272838
0002e0 53 b0 9f bd 90 f4 68 3d 95 85 01 bd d9 89 24 be
       -0.07797303 0.056873858 -0.031621534 -0.1606821
0002f0 01 74 d8 3d 42 16 b8 3c 4b b6 6c bd ea 9f f3 3d
       0.10569001 0.02247155 -0.057791036 0.118957356
000300 f3 28 3f be 06 cb e8 3c 74 9d 06 be b2 af 80 3d
       -0.18667965 0.028417122 -0.13146001 0.06283511
000310 66 f4 9e bd d7 46 55 be 5c 16 08 bd fc 0a 4e be
       -0.07761459 -0.20827805 -0.03322445 -0.20121378
000320 af bc 9c 3a c3 19 48 be f5 68 64 b9 d4 02 88 be
       0.0011958088 -0.19541077 -0.00021782874 -0.26564658
000330 e8 dc 47 be 20 22 84 bd e3 22 2c bc 56 be 01 be
       -0.19517863 -0.06451821 -0.0105063645 -0.12670264
000340 b2 f0 11 bd 30 5b 03 3e 76 aa d4 3d 6f de a7 bd
       -0.035629936 0.12827754 0.10384075 -0.08196723
000350 80 94 64 bd 1d e9 3a 3d 67 02 b1 bc cd 23 82 bd
       -0.055805683 0.04563247 -0.02160759 -0.06354485
000360 75 8a 41 be 16 c7 0f be 46 b0 30 be 58 bc 66 bc
       -0.18900473 -0.14040789 -0.17254743 -0.014082991
000370 ee 84 12 be 3c 54 db bd 3b ee 4d 3d 4c 2e b3 3b
       -0.14308521 -0.10709426 0.050276022 0.0054681655
000380 f4 b7 33 38 58 40 3f 3e 85 12 52 be 3c a3 04 3c
       4.2848245e-05 0.18676889 -0.20514877 0.008095559
000390 06 69 39 3c 22 c8 6c bd c4 e7 78 3b ff 97 35 3e
       0.011316543 -0.05780805 0.003797994 0.17733763
0003a0 30 1d 13 be a9 60 0c 3e 99 07 30 3e 96 91 10 3e
       -0.14366603 0.13708748 0.17190398 0.14118037
0003b0 3a 1e a4 bd ca 95 31 be 81 83 f9 bd 1f 67 fa 3d
       -0.08013578 -0.17342296 -0.121832855 0.122267
0003c0 f2 12 f0 3d 28 97 8c 3d 56 6a e8 bd 26 6c 34 be
       0.117223635 0.06864768 -0.11348407 -0.1761938
0003d0 44 4e 63 bd 40 ed aa bd 5a 4c 90 bd c6 3a 13 3d
       -0.05549456 -0.08346033 -0.07045813 0.035944723
0003e0 6f 78 a3 3b af cd 00 3e 00 0c db 3d 1e 35 b9 bc
       0.004988722 0.12578462 0.10695648 -0.022608336
0003f0 02 34 a4 bc 00 3a 5b bd 06 e1 09 be 0e a2 7b 3d
       -0.02004433 -0.05352211 -0.13464746 0.061433844

bias f4 [128]
000000 79 f5 ed bd bc 88 40 3d 5b 5f c1 3d 24 76 e8 3c
       -0.11619086 0.0470054 0.09442016 0.028376646
000010 6b 3e d5 bd c2 53 12 3e 8d 65 e0 3d c3 e3 e7 bd
       -0.10412296 0.14289764 0.10956869 -0.11322739
000020 14 04 cc bc 42 2d 05 be 58 68 1d be 85 14 13 3d
       -0.024904288 -0.13005546 -0.15371835 0.03590824
000030 49 ae 06 3e 3b 2d eb bd 4d 95 8e 3d 58 84 f9 3d
       0.13152422 -0.114832364 0.069620706 0.12183446
000040 dd a2 ae 3c 8a cd 0b 3d 4e 19 d9 3d 18 24 1a be
       0.021317894 0.034131564 0.106005296 -0.15052831
000050 4a 64 83 3d 99 88 4b bc ec cc 06 be 7f c5 a3 bd
       0.06415613 -0.012422704 -0.13164109 -0.07996654
000060 79 59 02 be e3 a4 05 3d 9f 0a cd 3d 95 e3 36 be
       -0.12729444 0.03262795 0.100117914 -0.17860253
000070 eb 08 58 3d 37 c6 8d bb fe 36 8b 3d 6f 36 1d be
       0.05274288 -0.0043266076 0.06797598 -0.15352796
000080 30 98 97 bc c0 54 cb 3d d4 cb 2a 3e 87 6b ab bb
       -0.018505186 0.09928274 0.16679317 -0.005231324
000090 76 33 df 3b 81 21 e2 bd 13 c0 b9 3d 79 36 7b bd
       0.0068115545 -0.110415466 0.090698384 -0.061331246
0000a0 d9 a2 30 3e b9 9b 82 3d b9 8a 7f bd 99 73 c8 3d
       0.17249621 0.06377358 -0.062388156 0.097876735
0000b0 bd 8c 29 bd 0a 7c 79 3d 78 6c 85 3d a5 e3 ff bd
       -0.041393984 0.06090931 0.065148294 -0.124945916
0000c0 01 53 ce 3c 57 93 c5 bd 8c 67 c0 bb 2c 5e d6 3d
       0.025186064 -0.096472435 -0.0058717187 0.104671806
0000d0 6f ba 01 3e 4c d4 bc 3d 22 26 9d bd 96 f7 8b bd
       0.12668775 0.0922018 -0.07673289 -0.06834333
0000e0 21 68 2d be 85 ca 8a 3d 2c 06 19 bc 1a 9a 1c 3c
       -0.16934253 0.06776909 -0.00933985 0.009558225
0000f0 d5 40 8d 3d f5 c5 2d 3e 77 53 f2 bd 05 4c 68 bd
       0.06897131 0.16970046 -0.11832326 -0.056713123
000100 ae 18 d8 3c 2e d3 ca bd 1d a9 41 3c ba dd 0f be
       0.026378956 -0.099035606 0.011820105 -0.14049426
000110 52 ae 18 be fe a7 23 3d d6 5e c6 3c a8 c9 fb 3d
       -0.14910248 0.03995513 0.024215143 0.12294322
000120 eb 04 d2 bc 9b b3 5e 3e ff 66 d0 3c 41 92 fb 3d
       -0.02563711 0.21748202 0.025439737 0.12283755
000130 4f 0c 8e bd 04 8d ba 3d 01 05 18 be 21 40 c3 3d
       -0.069359414 0.09108928 -0.14845659 0.09533716
000140 7d 52 97 3d e7 38 50 bd dd 35 3b bd 6a aa 17 3e
       0.0738878 -0.050835516 -0.045705665 0.14811102
000150 e7 54 f0 bd 15 ec 90 be 28 71 32 3e 80 a5 b0 bd
       -0.11734944 -0.28305116 0.17425978 -0.086253166
000160 f6 c9 e3 3d eb 62 cf 3d ec c5 5e bd 8f 2e 2d bd
       0.11122505 0.10126289 -0.05438797 -0.04228073
000170 bf 68 d9 3d 75 de d4 bc f3 09 ce bc 59 99 83 bd
       0.10615682 -0.025984982 -0.025151229 -0.06425733
000180 c0 81 af bd c6 db a0 3c 89 72 53 bd 4d 26 c5 bd
       -0.0856967 0.019636046 -0.0516229 -0.09626446
000190 c8 81 4c 3e ef 71 02 3d c1 45 e9 3c 01 48 84 3d
       0.19971383 0.031846937 0.028475644 0.06459046
0001a0 5d df c7 3d 6b 00 21 3e f9 dd 34 be 1b 13 1d be
       0.097594 0.15722816 -0.17662801 -0.1533932
0001b0 e6 1f 1d bd e9 76 9f bc b5 cb 1f 3e f0 1a f8 3d
       -0.0383605 -0.01946588 0.15605052 0.12114513
0001c0 47 31 72 3a b3 4d 58 3d bd 71 3a 3e b9 3a 11 3e
       0.000923891 0.052808475 0.1820745 0.14182557
0001d0 32 38 81 3d 37 31 17 3d af 00 f0 bc b2 57 7b bd
       0.063095465 0.03691217 -0.029297201 -0.06136293
0001e0 89 ad 87 3d c1 a8 66 3d 8b b3 90 3d ac c6 37 bd
       0.06624896 0.05631328 0.07065495 -0.044867203
0001f0 ae cc 8a 3d 29 c4 cb bd 53 41 fe 3c e7 c7 80 bd
       0.06777321 -0.09949524 0.031037008 -0.06288128

weight f4 [128, 1, 5, 5]
000000 cd 60 cd bb 82 6e 05 be ad ca 0f bd 3a 7e de 3d
       -0.006267643 -0.13030437 -0.035105396 0.108639196
000010 bf 92 36 3e d0 fc 26 3e 5f 78 3d 3e ed 0b b0 3d
       0.17829417 0.16307378 0.18502949 0.08596025
000020 73 b2 d6 bc f7 18 28 be 3a e7 19 be f0 ce 15 3e
       -0.026208138 -0.16415773 -0.15029612 0.14629722
000030 05 1c e6 bd 47 b0 13 bd 57 2c 14 be 53 08 32 3e
       -0.11235813 -0.036056783 -0.1447004 0.17385988
000040 90 4b a1 bd 80 2a 30 bd 0d 1c 1a bd a2 34 15 3e
       -0.078757405 -0.04300928 -0.037624408 0.14570859
000050 40 e4 0f 3d ed 5c c1 bd e7 e2 6b 3c cd 9a c7 bd
       0.035129786 -0.09441552 0.014397359 -0.09746323
000060 43 0a d2 bd fa ac 3e bd 50 1f 0a be aa b1 d8 bd
       -0.102558635 -0.046551682 -0.13488507 -0.10580762
000070 87 ea 2f be 9f 0f 4b 3e 6a c7 22 be 33 f9 09 bb
       -0.17179309 0.19830178 -0.15896383 -0.0021053075
000080 9a 5d a4 3c 1a d7 03 3d 90 4d be bd da 4f dc bd
       0.020064164 0.03218756 -0.092921376 -0.10757418
000090 00 6d 4a 3d e8 cb 84 be e7 8b f5 bd 47 35 d6 bd
       0.049420357 -0.25936818 -0.11989575 -0.104593806
0000a0 8b b5 26 3e 57 4f a3 bd 33 c5 a0 3d ba 22 4d 3d
       0.1628019 -0.07974117 0.07850113 0.050081946
0000b0 da b5 e2 3d fd 59 c9 bd dd b5 d2 bd 65 80 21 be
       0.11069842 -0.09831617 -0.10288594 -0.15771635
0000c0 67 9f 47 3d fb af 30 be 6d ce 0f 3d 3a b6 36 3e
       0.048736002 -0.17254631 0.035108972 0.17842951
0000d0 47 57 fd 3d e7 ed ce 3d 00 5a 0b 3c d7 0e 15 3e
       0.123701625 0.1010397 0.008505344 0.14556442
0000e0 33 ba d6 bd 7a f7 72 3d 27 09 a5 bd f0 53 dc bd
       -0.104847334 0.059318043 -0.08058386 -0.10758197
0000f0 cd 19 bf 3d 6a 0b dc 3d aa 40 12 3e 9a 29 fc bb
       0.09331093 0.107443646 0.1428248 -0.007695389
000100 7d 17 c6 3d 73 09 6c 3d 1a 6a 29 3c 33 07 a4 3d
       0.09672449 0.0576262 0.010340238 0.08009186
000110 fb 19 32 3e ea cd 24 3e 53 fc 6d 3d 65 ba 31 be
       0.17392723 0.16094175 0.058101963 -0.1735626
000120 1d 57 91 bd 00 28 e7 3b 00 ed ca 3d a0 35 f7 3d
       -0.07096694 0.007054329 0.099084854 0.12070775
000130 b0 97 2e be b3 a2 52 bd f8 9c 0a 3e 57 e6 a4 bd
       -0.17050052 -0.051424693 0.13536441 -0.08051746
000140 7a 09 2a bd c8 27 48 3e 67 9e 4b bc 67 67 76 bd
       -0.041512944 0.19546425 -0.012427903 -0.060157206
000150 c3 30 c1 3d 9a 6f 9d bd 9a 2b d0 3c 12 e6 0d 3e
       0.09433129 -0.07687302 0.025411416 0.13857296
000160 4d 9d 40 bc 65 a0 4b be 23 02 cf 3d f3 c5 fe 3c
       -0.011756253 -0.19885404 0.101078294 0.031100249
000170 ed 96 dc bd 87 b7 e0 3d 5a a6 cd 3d 00 10 8d b9
       -0.10770974 0.10972505 0.10041495 -0.00026905537
000180 5a cc b9 3c 8d 27 76 3d 78 1e 1e be 75 52 1b be
       0.02268045 0.060096312 -0.1544131 -0.15168174
000190 30 bf 12 3e ab 71 40 3e 80 ea ce bd ba d0 95 bd
       0.14330745 0.18793361 -0.10103321 -0.07315202
0001a0 10 4c 46 be 0a 1b 13 be 0d c6 f2 3c d0 05 d8 bd
       -0.19364953 -0.14365783 0.029635454 -0.10547984
0001b0 9a a3 6f 3d 37 22 a7 3d da e5 b0 bd d0 fa 1a 3e
       0.058505632 0.08160823 -0.08637591 0.1513474
0001c0 08 74 01 3e 83 02 33 3e 08 a3 2d be 45 47 3c 3e
       0.12641919 0.17481427 -0.16956723 0.18386562
0001d0 27 e1 91 3d da 88 4f 3d 4f 46 15 be 27 2d ba 3d
       0.071230225 0.05066762 -0.14577602 0.090906434
0001e0 40 77 db bc cd 51 20 bd b0 21 82 3d 65 90 03 3e
       -0.026790261 -0.03914051 0.06354082 0.12848051
0001f0 10 52 20 be ab 16 3c be 67 ba ed bc cd f4 63 3d
       -0.15656304 -0.18368022 -0.029019548 0.055653382
000200 13 6d 15 be 5d eb c4 bd 2d d9 60 bd 7a 00 60 bd
       -0.1459239 -0.096152045 -0.054894615 -0.054687954
000210 9d 9c 97 3d 1a 73 14 bd e8 b0 3c be 62 eb 38 3e
       0.074029185 -0.036242582 -0.1842686 0.18058541
000220 ab e2 24 3e d5 dc a6 bd 5d 7b 07 3e ab 0d 05 be
       0.16102092 -0.08147589 0.13230653 -0.12993495
000230 43 f5 1e 3e 5a 2a 03 3d 13 f6 f1 3d 7a cc 11 3e
       0.15523247 0.03202281 0.11814513 0.14238158
000240 ca 50 a0 3d ad 6c 36 bd 73 6b d5 bd 9a f5 cd 3c
       0.07827909 -0.044537235 -0.10420885 0.025141526
000250 12 52 00 3e 00 fd 21 bc ad 1a 74 3d f0 51 9f 3d
       0.12531307 -0.00988698 0.059595753 0.077793
000260 3b ec 07 3e 6d 45 e6 bd 00 46 4d 3b ed ed f4 bd
       0.13273709 -0.11243711 0.003132224 -0.11959443
000270 1d d4 20 be 1b 50 45 3e cd 39 7d 3c 63 cd 06 be
       -0.15705915 0.19268839 0.015455675 -0.13164286
000280 a0 53 04 be c5 bd 2f 3e 73 3d 5f 3c 73 5c 41 bd
       -0.12922525 0.17162235 0.0136254905 -0.047207307
000290 37 2d 90 bd 1a fa 72 3c d7 0c 98 bd 1a f6 72 bc
       -0.07039874 0.014830137 -0.07424324 -0.014829183
0002a0 40 86 ce 3c cd e4 a2 bc 38 18 45 3e 03 10 8a 3d
       0.0252105 -0.019884491 0.1924752 0.06741335
0002b0 f3 45 57 3d eb 15 2c 3e 67 cc 85 3b 4d 44 c0 bc
       0.052556943 0.16805236 0.0040832045 -0.023470068
0002c0 73 10 da bd 33 cc 89 3c d7 9e 48 be 52 c7 44 3e
       -0.10647669 0.016821003 -0.19591843 0.1921666
0002d0 f0 9a d2 bd d7 72 b6 bd 3f be 38 3e 00 f0 3a 3a
       -0.10283458 -0.08908623 0.18041323 0.00071310997
0002e0 15 b7 31 3e af ee 31 3e 07 94 cb bd 61 a6 97 3d
       0.17354997 0.17376207 -0.09940343 0.07404781
0002f0 cd b0 5f bb e7 81 9f 3d 67 1a ff bc 77 74 b2 bd
       -0.003413248 0.07788449 -0.03114052 -0.0871362
000300 82 15 11 be 93 4c 64 bd 20 78 cd 3d 3a 90 17 be
       -0.14168361 -0.05573709 0.10032678 -0.14801112
000310 4d 30 1d 3e 1a 57 e9 bc e7 89 82 bc 57 5d db bd
       0.15350457 -0.028483916 -0.015934898 -0.107111625
000320 00 8f 1e bc 73 51 ba bd 5a a0 b9 bc f3 cf 23 3e
       -0.009677649 -0.090975665 -0.02265947 0.15997295
000330 1a 18 94 3d fb 84 15 be 9a f4 6b bd ba 13 1c bd
       0.072311595 -0.1460151 -0.057606317 -0.03810475
000340 38 11 47 be 33 64 49 3d 67 35 93 3d aa b2 c4 3d
       -0.19440162 0.049167823 0.0718792 0.0960439
000350 ba 3e 9b 3d ed 69 51 bd 0d da 87 bd 67 4c bc 3c
       0.075803235 -0.05112641 -0.06633387 0.02298565
000360 57 0e b8 3d 68 1b 38 be a0 7a 0f 3d 77 d4 2c be
       0.0898711 -0.17979205 0.035029054 -0.16877924
000370 77 87 03 be 5b 01 44 be d0 e8 27 be 0d 55 19 3d
       -0.12844644 -0.19141142 -0.16397405 0.037434626
000380 90 de be bd bd b4 d0 3d 8b aa 33 be 27 f9 65 bd
       -0.09319794 0.10190723 -0.17545526 -0.056145813
000390 b3 fc e9 bd 4d 1f 64 3c d2 ba 1b be e0 7a 15 3e
       -0.11425152 0.013923478 -0.15207985 0.14597654
0003a0 33 cf 86 ba 7a 31 a9 3d 55 fe 15 3e 77 54 48 3e
       -0.0010285139 0.0826139 0.14647801 0.19563471
0003b0 da c4 25 be 52 91 31 3e e7 a7 e9 3c 85 27 26 be
       -0.16188374 0.17340592 0.028522445 -0.16226013
0003c0 92 a4 1c 3e 73 a2 dd bc cd ef 16 3e d0 3a 45 be
       0.15297154 -0.027055 0.14739914 -0.19260716
0003d0 33 28 5c 3d e2 8f 37 be e5 8d 1c 3e 4d 03 2b 3c
       0.053749274 -0.1792598 0.15288503 0.010437799
0003e0 67 76 2b 3b c3 d0 2e 3e 72 05 3a 3e 20 f1 55 3d
       0.0026163103 0.17071824 0.1816614 0.052231908
0003f0 8d b5 0d 3e bd fe 9c bd a8 2f 1a be 37 b7 f4 bd
       0.13838787 -0.07665775 -0.15057242 -0.11949008

bias f4 [128]
000000 bc 6c aa 3d 5b 9d 7f bd 67 1a 1a be 4e 39 5a 3b
       0.08321521 -0.062405925 -0.15049134 0.0033298316
000010 c4 c6 ae bd 4f e6 12 bd 3f ad 81 bd f2 74 14 3e
       -0.08534005 -0.03586417 -0.06331872 0.14497736
000020 fe 0e 31 3e 9c c8 be 3c bc 1a ca 3d 3f 8a dd 3d
       0.17290875 0.023289017 0.098683804 0.10817384
000030 be 98 52 3e 9f 1e 26 3e fe 97 ff 3d 36 48 b4 3c
       0.20566079 0.16222619 0.12480162 0.02200709
000040 1d 6d 54 3e 77 6a dc 3d 59 b2 e8 3d 36 80 1e 3e
       0.20744748 0.10762494 0.11362142 0.15478596
000050 3d 51 2d be b6 a2 b9 3d a3 f1 8e 3d 4d 03 0e be
       -0.16925521 0.09064238 0.06979682 -0.13868447
000060 29 03 28 3e 2f a2 b7 bd bb 1e 01 3d cd dd 3c 3e
       0.16407456 -0.08966481 0.031523447 0.18443985
000070 fe 93 45 3e 18 72 44 be a3 3d 43 3e 7c a2 20 3e
       0.19294736 -0.19184148 0.19066481 0.15686983
000080 1d b0 3a 3e c2 35 dc bd 4b cb 29 be 3e be 6a be
       0.18231244 -0.10752441 -0.16581456 -0.22924134
000090 6c ed 27 be 56 39 74 3e 58 4e 2b be ec d0 d8 bd
       -0.16399163 0.23849997 -0.16729105 -0.10586724
0000a0 1b 92 12 be 59 b2 3b be 6c 6f 9f 3d 24 0f 3b 3e
       -0.14313547 -0.18329753 0.07784924 0.18267494
0000b0 bd 66 bd 3d 60 34 2f bd ab 38 78 be 4e 44 d1 3d
       0.092481114 -0.042774558 -0.24240367 0.10218106
0000c0 fd 16 26 3e 15 14 35 3e f4 16 da 3c c5 45 dd 3d
       0.16219707 0.17683442 0.026622273 0.10804323
0000d0 73 8d 0b bd 60 91 bd bd ac c4 0e 3e 50 0c f8 3c
       -0.034070443 -0.09256244 0.13942212 0.030279309
0000e0 ec 0e 5f bb ff 04 bf bd 82 5f 8f bd 37 c6 a2 bd
       -0.0034035994 -0.09327125 -0.070006385 -0.07947963
0000f0 3d ea 02 bd d3 6f f2 bd 88 50 b2 bd a2 97 4b bd
       -0.03196167 -0.11837735 -0.08706766 -0.049705155
000100 41 84 7a 3e 94 ad 65 3c 3b 62 3f 3e 9e 1b 05 be
       0.24464513 0.014018435 0.18689816 -0.12998816
000110 9b 1d cb 3c 56 c3 0d be 81 5b 1d 3e b7 11 a5 3d
       0.02479439 -0.13844046 0.15366937 0.080600195
000120 0e 13 18 bd 4a dd 13 3e 37 89 a6 3d c8 8d 52 be
       -0.037127547 0.14439884 0.081316404 -0.20561898
000130 19 03 0d 3e 16 7a 11 be bd ce 0d be 0c 81 14 3e
       0.13770713 -0.14206728 -0.13848396 0.14502352
000140 97 73 37 bc 9a 3e 14 3e e0 f3 ba 3d 1e dc 1f 3e
       -0.011196992 0.14477006 0.09128547 0.15611312
000150 98 ca 3d be e2 69 99 bd c3 c8 e7 3c f8 5a 1d 3d
       -0.18534315 -0.07490899 0.028293973 0.038416833
000160 61 20 5c 3d 02 17 ed bc e3 e0 23 be 59 d1 85 3e
       0.053741816 -0.028941635 -0.16003756 0.26136282
000170 a5 7f ba 3d c6 15 cc bd 6d d6 6d 3b 1e 28 37 be
       0.091063775 -0.099650905 0.0036291138 -0.17886397
000180 f8 58 ec bd f7 b9 5b bb 3a e4 19 3d 81 a9 cb bd
       -0.11540407 -0.0033527592 0.03757117 -0.0994444
000190 73 13 8d 3d 46 c0 5b 3e 52 ae 10 bc cb c3 92 bd
       0.06888475 0.21460065 -0.008830624 -0.07166251
0001a0 df 83 05 be 88 d6 0d be 2a 74 5b 3e 9e 3b 12 be
       -0.13038586 -0.13851368 0.21431032 -0.14280555
0001b0 c0 b4 08 3e e7 cf e2 bb a2 ac ff bc 84 49 31 be
       0.133502 -0.0069217565 -0.031210247 -0.173132
0001c0 5b e7 59 be 34 d9 40 3e 57 e5 4b 3c 09 3c ca 3d
       -0.21279661 0.18832856 0.012444816 0.09874732
0001d0 40 80 bd bd 4e 0f 5e bd d7 d0 9c 3d 9d 77 44 3e
       -0.09252977 -0.054213814 0.076570205 0.19186254
0001e0 a8 3a f2 3d 2f f6 04 be fd 11 43 3d 92 de 9c 3d
       0.11827594 -0.12984537 0.047624577 0.076596394
0001f0 5f 0f 22 be 4c cb d2 3d e7 22 f7 3c 67 ee 4f 3e
       -0.15826176 0.10292682 0.03016801 0.20305787
