E-GraphSAGE/experiments/model/CPCA_None_MLP_NF-BoT-IoT_best_model.pth (torch, 626408 bytes, 50 tensors)

weight f4 [128, 16]
0.24094357 0.01967416 0.02388991 -0.17261074 -0.035088144 0.13203233 0.19092529 0.078168906
0.25167975 0.09222593 -0.10230876 0.13938998 0.102696694 0.30126342 0.013354735 0.23434691
-0.0016439699 0.094915405 -0.2229724 -0.14770225 0.21839187 -0.057361815 0.19331118 0.0643855
0.18450366 -0.19253866 0.2793855 0.19591221 -0.2379484 -0.053883124 -0.24997683 -0.04242363
0.05390419 0.13156612 0.093217276 0.24301408 0.1723047 0.09140473 -0.10792426 0.047840938
-0.06708996 0.042295102 0.013075867 0.07274527 0.12314681 -0.23578583 -0.17912748 -0.22457553
0.07911756 0.19830385 -0.08345858 -0.17725983 -0.16075957 -0.095094986 -0.007412422 -0.23067647
0.17181577 0.15769374 0.18049729 -0.2793729 -0.11298744 -0.17854485 -0.026468469 -0.09131448
-0.024992386 -0.027154451 0.13564284 -0.19469632 0.1072801 0.13931619 -0.044672173 -0.08332614
-0.18185551 -0.20776094 0.16300276 -0.008364013 -0.24007685 0.1388862 0.084121406 -0.18157585
-0.13966104 -0.07433526 -0.17466182 0.049276344 -0.0134584615 -0.22969332 -0.12587643 -0.214564
0.06558368 -0.10772731 0.20905848 -0.185187 -0.2620527 0.07774467 -0.031589616 -0.067331
0.1391541 -0.01667099 0.08297904 -0.028441051 -0.13220148 -0.14006403 0.16853964 -0.116266325
0.15212148 -0.17406893 0.13005932 -0.08535344 0.26030946 0.016940972 0.3153766 0.22972286
-0.12744805 0.23700307 0.08738554 -0.0979616 0.16015281 -0.048478235 -0.18002503 0.23419245
-0.1503309 -0.01742683 -0.26120096 0.06738483 -0.06531194 0.049045444 -0.102875255 -0.108489804
0.22647204 0.16836222 -0.21226238 0.05666652 0.09913591 -0.18981715 -0.08019509 0.10642136
0.04185393 -0.27954128 -0.21502662 0.27242348 0.03642135 -0.0072748344 0.1094872 -0.21024865
-0.07578754 0.031827755 0.20637836 0.0687064 0.032252256 0.23360573 0.07825757 -0.02436435
0.20643324 -0.09181753 0.14791359 -0.18350945 0.16677006 -0.1782222 -0.16457331 0.0510452
-0.20135586 -0.06562173 0.2637381 -0.21680398 0.10584267 0.2302124 0.1542422 -0.19043659
-0.016663458 0.03914341 0.12340887 0.27605653 -0.30285075 0.16573182 -0.05024043 -0.18780155
0.232257 0.09959997 0.21318994 0.048920553 0.14039673 -0.12908377 -0.07142557 -0.20126463
0.13715303 -0.22720006 -0.15205808 0.20836553 0.046239708 -0.035731863 0.13043006 0.0059499242
0.16771205 0.065093555 0.19243173 0.08485255 -0.12121696 0.079811275 -0.013169933 0.2088456
-0.29532886 -0.14667803 0.19754057 -0.22363335 -0.19667545 -0.22275783 -0.028117865 0.15513584
-0.24454166 -0.025659183 -0.060669936 -0.08204874 -0.24050574 0.16905151 -0.120843485 0.11128039
0.18309273 0.03001306 0.06754042 -0.1332288 0.23667012 0.0828475 0.37911844 0.25075158
0.08111835 0.047759406 0.15756698 -0.017267512 0.03996899 0.13239558 -0.07416987 -0.030156927
-0.17394102 0.17719834 -0.094745986 -0.21220769 -0.19953722 -0.11934755 -0.09557748 -0.11271756
-0.11303991 0.19898695 -0.106044345 -0.16302702 -0.22052503 -0.083241574 -0.10372504 0.03485803
0.051487807 -0.02021573 -0.26482022 0.094699405 0.26946342 -0.24218321 0.15497 0.046448868
00000000: e9b9 763e b42b a13c c6b4 c33c dfc0 30be
00000010: 96b8 0fbd 7c33 073e eb81 433e 0517 a03d
00000020: 2bdc 803e f3e0 bc3d 4187 d1bd 3fbc 0e3e
00000030: a552 d23d 333f 9a3e d2cd 5a3c a3f8 6f3e
00000040: 7a7a d7ba 0263 c23d e052 64be 423f 17be
00000050: 1ea2 5f3e 39f4 6abd 5ef3 453e 8cdc 833d
00000060: 87ee 3c3e db28 45be 9e0b 8f3e 369d 483e
00000070: bfa8 73be 8db4 5cbd edf9 7fbe 66c4 2dbd
00000080: a4ca 5c3d 45b9 063e b3e8 be3d afd8 783e
00000090: a570 303e 6732 bb3d 6507 ddbd dcf4 433d
000000a0: 7666 89bd a13d 2d3d 293c 563c 79fb 943d
000000b0: 6534 fc3d d771 71be 326d 37be 21f7 65be
000000c0: 6308 a23d 2a10 4b3e 55ec aabd 9a83 35be
000000d0: 289e 24be 29c1 c2bd e7e3 f2bb 7436 6cbe
000000e0: 79f0 2f3e 787a 213e 48d4 383e f709 8fbe
000000f0: f565 e7bd 76d4 36be 67d4 d8bc 1603 bbbd
00000100: d5bc ccbc 0373 debc f5e5 0a3e 795e 47be
00000110: abb5 db3d e7a8 0e3e 2bfa 36bd e5a6 aabd
00000120: 5538 3abe 49bf 54be 32ea 263e 3709 09bc
00000130: b5d6 75be 2f38 0e3e d847 ac3d 05ef 39be
00000140: 4e03 0fbe 163d 98bd 8cda 32be fed5 493d
00000150: e180 5cbc ba34 6bbe c0e5 00be aab6 5bbe
00000160: bd50 863d 23a0 dcbd 6d13 563e a9a1 3dbe
00000170: c62b 86be 9938 9f3d 1d64 01bd d6e4 89bd
00000180: 6a7e 0e3e 9a91 88bc eaf0 a93d 35fd e8bc
00000190: d35f 07be f26c 0fbe a895 2c3e 0a1d eebd
000001a0: bcc5 1b3e 203f 32be 452e 053e c9cd aebd
000001b0: 4847 853e cbc7 8a3c 0b79 a13e 783c 6b3e
000001c0: be81 02be efb0 723e 31f7 b23d 17a0 c8bd
000001d0: 19ff 233e 1d91 46bd 7b58 38be 25d0 6f3e
000001e0: 58f0 19be b6c2 8ebc 22bc 85be 0f01 8a3d
000001f0: 44c2 85bd e0e3 483d 43b0 d2bd e72f debd
00000200: 49e8 673e 2567 2c3e 4f5b 59be 271b 683d
00000210: c507 cb3d 6d5f 42be 533d a4bd 71f3 d93d
00000220: 076f 2b3d 0920 8fbe f02f 5cbe 177b 8b3e
00000230: 8e2e 153d bc61 eebb d33a e03d 6c4b 57be
00000240: 7f36 9bbd d25d 023d d954 533e f1b5 8c3d
00000250: f11a 043d 5736 6f3e 8145 a03d bf97 c7bc
00000260: 3c63 533e d40a bcbd a976 173e e7e9 3bbe
00000270: c5c5 2a3e e17f 36be e885 28be c614 513d
00000280: 3b30 4ebe b064 86bd ae08 873e dd01 5ebe
00000290: 0bc4 d83d cdbc 6b3e abf1 1d3e cf01 43be
000002a0: ce81 88bc d754 203d cabd fc3d 4857 8d3e
000002b0: 410f 9bbe 9ab5 293e e9c8 4dbd 0d4f 40be
000002c0: c7d4 6d3e 12fb cb3d 774e 5a3e eb60 483d
000002d0: 29c4 0f3e 892e 04be 9247 92bd 5118 4ebe
000002e0: d871 0c3e 22a7 68be 1db5 1bbe c65d 553e
000002f0: d965 3d3d 935b 12bd 758f 053e 95f7 c23b
00000300: b5bc 2b3e c54f 853d d30c 453e 2cc7 ad3d
00000310: 9940 f8bd 1874 a33d b4c6 57bc 9fdb 553e
00000320: 5835 97be c432 16be 1348 4a3e 2400 65be
00000330: 4a65 49be a11a 64be 7057 e6bc eedb 1e3e
00000340: 2169 7abe 3533 d2bc 0a81 78bd 2b09 a8bd
00000350: 2347 76be d71b 2d3e ca7c f7bd f9e6 e33d
00000360: a97c 3b3e f3dd f53c a252 8a3d 216d 08be
00000370: a759 723e f3ab a93d d01b c23e 8362 803e
00000380: 6121 a63d 5e9f 433d 3d59 213e 9974 8dbc
00000390: 86b6 233d b592 073e 5fe6 97bd a90b f7bc
000003a0: 981d 32be 7b73 353e 2f0a c2bd f94c 59be
000003b0: 7c53 4cbe 7d6c f4bd 20be c3bd 77d8 e6bd
000003c0: 7881 e7bd 3cc3 4b3e c72d d9bd 8ef0 26be
000003d0: 50d1 61be 8f7a aabd cb6d d4bd 4bc7 0e3d
000003e0: e1e4 523d 759b a5bc 8496 87be c3f1 c13d
000003f0: 1cf7 893e e0fe 77be 75b0 1e3e 2b41 3e3d

bias f4 [128]
0.07341799 0.0468203 0.017973997 -0.10390758 0.11971699 -0.23442733 -0.14750998 0.19373828
0.02243692 0.042875435 0.17205186 0.17511304 0.059053954 0.1396874 0.14932097 0.21027704
-0.034547955 -0.23667184 0.24358687 0.07107321 -0.027378434 0.014167908 0.096800365 -0.13856256
0.18107277 -0.099512875 -0.094050065 -0.13591711 0.00016058372 0.16989002 0.016822437 0.045341488
0.18178204 0.21192075 0.13310198 -0.099330224 0.13070488 0.1408665 0.20376296 0.17356339
-0.055102147 -0.20792438 -0.22547837 0.17626092 0.14292505 0.19463523 0.073369436 -0.21894495
-0.23486423 0.14422174 -0.14846326 -0.18629816 0.096217856 -0.19514608 -0.024869254 0.1419879
-0.18479283 -0.20832771 0.22755256 -0.112166435 0.012439713 -0.08073065 0.21539362 -0.15573911
0.23085546 -0.10036246 0.13837515 0.19232792 0.14757505 0.07776917 -0.10398657 -0.061488625
-0.19574206 -0.08617414 -0.1145135 -0.107786275 -0.0062664 0.1337256 0.18885602 0.09877888
0.0030856202 -0.20842515 -0.10696945 -0.004321786 0.11602202 0.14614196 0.1874871 -0.12048589
0.27326876 0.26168135 0.1503867 -0.07694982 0.21091166 -0.20820521 0.06482119 0.09057944
0.14249718 -0.016030384 -0.18395543 0.22968437 -0.2112022 0.08199969 -0.04156402 0.07813414
-0.18883736 0.016595393 0.01727934 0.1826294 0.25041264 -0.13469437 0.040070657 -0.13370347
-0.04207467 -0.06958059 0.17749514 0.22463377 0.12336681 0.16474584 -0.11039071 0.1826139
-0.04689754 0.041742664 -0.06827803 -0.11632036 0.07020341 -0.06705722 -0.14849164 0.009967748
00000000: 2c5c 963d a5c6 3f3d 343e 933c 7fcd d4bd
00000010: 2e2e f53d b80d 70be db0c 17be 5463 463e
00000020: a2cd b73c 279e 2f3d 5d2e 303e d550 333e
00000030: 8fe2 713d 370a 0f3e 99e7 183e dd52 573e
00000040: 2882 0dbd 1a5a 72be d66e 793e d58e 913d
00000050: bd48 e0bc 8320 683c 453f c63d 58e3 0dbe
00000060: 246b 393e 68cd cbbd 529d c0bd db2d 0bbe
00000070: 5d62 2839 a6f7 2d3e 35cf 893c ffb7 393d
00000080: 1225 3a3e c101 593e e34b 083e a56d cbbd
00000090: 80d7 053e 4f3f 103e 3da7 503e 9aba 313e
000000a0: cab2 61bd 21ea 54be cde3 66be be7d 343e
000000b0: f25a 123e 754e 473e b742 963d 1b33 60be
000000c0: 4080 70be ddae 133e c106 18be f2c4 3ebe
000000d0: de0d c53d 60d4 47be 9bba cbbc 4765 113e
000000e0: 553a 3dbe dc53 55be 8a03 693e 84b7 e5bd
000000f0: f0cf 4b3c 1c56 a5bd 2590 5c3e 137a 1fbe
00000100: 6065 6c3e d58a cdbd 37b2 0d3e 9cf1 443e
00000110: ea1d 173e 7145 9f3d e9f6 d4bd 7fdb 7bbd
00000120: 9b70 48be 117c b0bd 0e86 eabd 0dbf dcbd
00000130: 6056 cdbb 5def 083e 7963 413e 954c ca3d
00000140: 1e38 4a3b 676d 55be cd12 dbbd c59d 8dbb
00000150: f49c ed3d 3da6 153e 9efc 3f3e 4ec1 f6bd
00000160: e2e9 8b3e 19fb 853e f9fe 193e de97 9dbd
00000170: 3af9 573e bf33 55be f9c0 843d b781 b93d
00000180: c8ea 113e 2752 83bc d05e 3cbe 6132 6b3e
00000190: 6445 58be 74ef a73d 093f 2abd cb04 a03d
000001a0: 955e 41be 10f3 873c 678d 8d3c 3403 3b3e
000001b0: 1636 803e 52ed 09be 2121 243d 90e9 08be
000001c0: 7d56 2cbd 4580 8ebd 49c1 353e 6506 663e
000001d0: bda7 fc3d 22b3 283e 8614 e2bd 23ff 3a3e
000001e0: a317 40bd 5bfa 2a3d 5ad5 8bbd 5e39 eebd
000001f0: cec6 8f3d 4c55 89bd 310e 18be c44f 233c

weight f4 [128, 136]
-0.06665646 -0.0015779308 -0.01742999 0.05961101 -0.047601853 -0.0024279011 0.013867116 0.0003629661
0.048817597 -0.017256567 -0.05257005 -0.025518099 -0.05111707 0.05231306 -0.04682566 -0.035149276
-0.084192604 0.0034428483 -0.005548458 -0.022657236 0.076983884 -0.10694011 -0.02745124 0.011666795
0.024864167 0.08722441 0.1118146 0.07273306 0.004368323 -0.0002423818 0.061667956 -0.0021447958
-0.014402189 -0.007017354 -0.077662304 -0.103838794 -0.065148056 0.069145635 -0.09225654 -0.073658645
-0.021885691 0.02977265 0.048620947 -0.02632665 0.117180966 0.0398351 0.039323326 0.051097374
-0.092357695 -0.062457357 0.007719535 0.09665372 0.05562446 0.060497195 -0.016662868 -0.008386245
-0.03175158 0.06870553 -0.058919635 -0.018419467 -0.072842374 0.06879952 0.09302304 -0.024472583
-0.039027795 0.034944832 0.04195836 -0.008266941 -0.018126769 -0.059843134 -0.018164558 0.052932262
0.053012915 -0.0007707375 0.030936435 0.07092142 -0.035590798 -0.07843033 0.0670876 0.03696
0.01726032 -0.006854102 -0.072765194 -0.04846017 -0.072903246 0.008967088 -0.051079404 -0.09129999
0.014239123 0.036009993 0.0039501246 0.051853992 -0.09233959 0.018145572 0.05884523 0.07986278
0.029089497 -0.006468126 -0.024895698 -0.05123496 -0.058651328 0.10067272 -0.031962473 0.006637753
-0.028749749 0.09274565 -0.08797409 0.084470384 -0.0032354388 -0.07063063 -0.0024388921 -0.026763523
-0.034921978 -0.026813526 0.025594803 -0.020824615 -0.03797238 0.10109107 -0.06957419 0.018576194
0.061324984 0.005963153 0.0009205191 -0.0062227375 0.02861871 -0.09625949 0.057695217 0.026942633
0.016392382 0.02834287 0.007234908 0.00046258248 -0.08833391 -0.042053815 0.10251514 0.005965022
0.06870006 -0.03536956 0.0019156741 -0.022670252 0.027796743 0.03929732 0.07465359 -0.073899224
-0.029244443 0.0688965 -0.036869437 -0.10416244 -0.03052562 0.018479738 -0.013085428 -0.04466774
-0.12642466 -0.037444312 0.052176572 0.09494737 0.07638909 0.06100967 -0.13026856 -0.07040238
0.023772562 0.10337632 0.022286382 -0.10834449 0.016104328 -0.038900394 0.120298825 -0.014377086
0.017433068 0.0013245498 0.03090795 -0.07817199 -0.055928163 -0.056127936 0.08112457 -0.029168775
0.011707139 -0.0030331311 -0.07355533 -0.034739107 -0.004798454 0.077247284 0.028688999 0.03873152
0.026375685 -0.10140292 0.03321545 -0.097814396 0.017377198 -0.012738661 -0.055889986 0.073481776
0.006140638 -0.054539323 -0.04783458 -0.00936108 0.066026874 -0.037390195 0.055557914 -0.076746486
-0.02065768 0.08871136 0.01600569 0.003098565 0.052858923 0.034307428 -0.06666074 0.0739933
-0.042697594 -0.07858065 0.07015224 0.033730224 0.10367351 -0.07077829 0.028892549 0.115832455
-0.020730445 0.09019855 -0.08649812 0.04061338 -0.0051981946 -0.075891085 -0.00089945836 0.12922856
0.009187544 0.011837301 0.057051506 -0.029202301 0.02376995 -0.022252003 -0.08397948 -0.008527892
-0.08361961 0.063718446 0.045331623 -0.008809026 -0.09088266 0.03618587 -0.011730756 -0.05701598
0.053582393 0.051218044 0.044947304 -0.013834738 0.026441088 -0.016570548 -0.004982187 0.058427963
-0.02797543 -0.02143699 0.04706585 0.010977199 0.021469453 0.016125998 0.048247285 -0.0016356689
00000000: 2f83 88bd 92d2 ceba 57c9 8ebc ad2a 743d
00000010: 29fa 42bd 6c1d 1fbb e632 633c 7c4c be39
00000020: f6f4 473d a55d 8dbc b153 57bd 550b d1bc
00000030: 2260 51bd 3846 563d 43cc 3fbd b0f8 0fbd
00000040: 2c6d acbd 69a1 613b d7cf b5bb ab9b b9bc
00000050: baa9 9d3d 6b03 dbbd 6ce1 e0bc 1626 3f3c
00000060: f0af cb3c b6a2 b23d 0eff e43d 12f5 943d
00000070: 2624 8f3b de27 7eb9 8a97 7c3d b48f 0cbb
00000080: 29f7 6bbc d5f1 e5bb 6a0d 9fbd 6fa9 d4bd
00000090: 586c 85bd 3a9c 8d3d fff0 bcbd 58da 96bd
000000a0: 9f49 b3bc c6e5 f33c c226 473d fdaa d7bc
000000b0: 93fc ef3d 212a 233d 7f11 213d 7b4b 513d
000000c0: 0826 bdbd 49d3 7fbd 27f4 fc3b 63f2 c53d
000000d0: 79d6 633d e8cb 773d 9180 88bc 7666 09bc
000000e0: f20d 02bd 7cb5 8c3d b755 71bd 6ce4 96bc
000000f0: 622e 95bd c3e6 8c3d dd82 be3d ba7a c8bc
00000100: 9cdb 1fbd 5022 0f3d 87dc 2b3d 1072 07bc
00000110: 977e 94bc 131e 75bd d7cd 94bc 80cf 583d
00000120: 1224 593d 510b 4aba 686e fd3c 403f 913d
00000130: a8c7 11bd 15a0 a0bd 3965 893d 5e63 173d
00000140: 8465 8d3c 6098 e0bb eb05 95bd 2c7e 46bd
00000150: 4c4e 95bd b1ea 123c a338 51bd 7dfb babd
00000160: 364b 693c 377f 133d 0c70 813b da64 543d
00000170: 8a1c bdbd 06a6 943c b207 713d 198f a33d
00000180: 194d ee3c 93f2 d3bb 10f2 cbbc c0db 51bd
00000190: 603c 70bd 802d ce3d 15eb 02bd 8281 d93b
000001a0: 9884 ebbc 6ef1 bd3d c22b b4bd cffe ac3d
000001b0: a809 54bb cba6 90bd d2d5 1fbb 2d3f dbbc
000001c0: 590a 0fbd 0aa8 dbbc 31ac d13c 6298 aabc
000001d0: ed88 1bbd d608 cf3d ea7c 8ebd 1a2d 983c
000001e0: e82f 7b3d 8e66 c33b fe4e 713a 1be8 cbbb
000001f0: c971 ea3c b223 c5bd d251 6c3d ccb6 dc3c
00000200: 5149 863c 4e2f e83c cf12 ed3b c586 f239
00000210: 69e8 b4bd 9f40 2cbd 75f3 d13d 3b76 c33b
00000220: 9eb2 8c3d acdf 10bd 5b17 fb3a f7b6 b9bc
00000230: ffb5 e33c 3af6 203d fbe3 983d 7a58 97bd
00000240: 0b92 efbc 9c19 8d3d 6804 17bd 1e53 d5bd
00000250: dd10 fabc d262 973c 4364 56bc 85f5 36bd
00000260: 7775 01be 355f 19bd 1ab7 553d c473 c23d
00000270: e271 9c3d 47e5 793d 1f65 05be 1f2f 90bd
00000280: adbe c23c f7b6 d33d ee91 b63c b7e3 ddbd
00000290: 39ed 833c 0556 1fbd 3b5f f63d df8d 6bbc
000002a0: cbcf 8e3c 849c ad3a ab32 fd3c a318 a0bd
000002b0: ee14 65bd 68e6 65bd a324 a63d 5bf3 eebc
000002c0: 4dcf 3f3c 7fc7 46bb 2da4 96bd 984a 0ebd
000002d0: 5a3c 9dbb d333 9e3d 3105 eb3c f1a4 1e3d
000002e0: d211 d83c 56ac cfbd ec0c 083d ea52 c8bd
000002f0: a05a 8e3c d1b5 50bc e6ec 64bd 9d7d 963d
00000300: 6837 c93b a064 5fbd 31ee 43bd 375f 19bc
00000310: 1939 873d 7626 19bd b290 633d 432d 9dbd
00000320: 4c3a a9bc 4dae b53d 5d1e 833c 4b11 4b3b
00000330: 9982 583d f285 0c3d 6d85 88bd cd89 973d
00000340: ace3 2ebd e4ee a0bd faab 8f3d b428 0a3d
00000350: c752 d43d 35f4 90bd 11b0 ec3c 9139 ed3d
00000360: e5d2 a9bc 04ba b83d ed25 b1bd 375a 263d
00000370: 9e55 aabb c96c 9bbd a1c9 6bba 7e54 043e
00000380: 5a87 163c 3df1 413c d7ae 693d aa39 efbc
00000390: 33b9 c23c d549 b6bc 6ffd abbd 92b8 0bbc
000003a0: c240 abbd d17e 823d a7ad 393d bc53 10bc
000003b0: b020 babd a337 143d 5b32 40bc 9789 69bd
000003c0: 3679 5b3d 03ca 513d aa1a 383d 19ab 62bc
000003d0: fb9a d83c f5be 87bc 9d41 a3bb 2952 6f3d
000003e0: bb2c e5bc a09c afbc 1fc8 403d b6d9 333c
000003f0: b5e0 af3c ab1a 843c f29e 453d f163 d6ba

bias f4 [128]
-0.04696984 0.03192698 0.102231085 -0.043259513 -0.0459054 -0.050640676 -0.074065626 -0.053684
-0.05726658 -0.04727229 -0.045044396 -0.024976527 0.018398518 -0.074310385 0.06981328 0.06437255
-0.036380336 -0.016335165 -0.0073819957 0.06697879 0.045372296 -0.0448183 -0.046457175 -0.08004743
-0.037275504 0.070690244 0.0003485209 0.088196374 0.00795392 -0.052933287 0.024332782 0.015815906
0.07807094 0.06932994 -0.008613753 0.035064764 -0.03244743 -0.01186315 -0.026609343 0.04959209
-0.037574265 0.019861784 0.11611092 -0.05262464 -0.016433291 0.015521322 -0.014753738 -0.022086915
0.042689156 -0.03989807 0.01425357 -0.10866103 -0.0620869 -0.032438595 0.07456141 -0.038676634
-0.0013882476 -0.07025273 -0.021761782 0.04608097 0.044687197 -0.040896002 0.039742116 -0.050054096
0.06932096 0.06139313 -0.06309315 0.092334695 0.024165014 0.021937346 -0.052469242 0.026971297
0.042749695 0.0859456 -0.11703102 -0.0030290831 0.06583268 0.09606773 -0.0013710274 -0.031999376
0.093828216 0.027216448 0.05716774 0.000978488 -0.06795735 0.014709852 -0.060957737 0.08804154
0.071928635 0.071076736 0.018957641 -0.054352988 -0.011065102 -0.08955906 0.021018833 -0.111842975
-0.04668153 0.09171233 0.021616345 0.039829165 0.037751053 0.028709091 0.06469496 -0.027620887
-0.035833206 -0.022503097 -0.04773844 0.06822952 -0.071269885 0.02140741 0.0851369 0.004353781
-0.023840751 -0.05945796 -0.008549209 0.028297838 -0.095525704 0.10258231 0.013014341 0.008279006
-0.0661495 0.028628333 -0.05283251 -0.06422185 -0.035442106 -0.044355795 0.06289896 0.069522604
00000000: 7263 40bd ddc5 023d 885e d13d e330 31bd
00000010: 4d07 3cbd 996c 4fbd b8af 97bd c1e3 5bbd
00000020: 5d90 6abd 97a0 41bd 7980 38bd 939b ccbc
00000030: 7db8 963c 0b30 98bd 44fa 8e3d c1d5 833d
00000040: 8c03 15bd 53d1 85bc abe4 f1bb 2d2c 893d
00000050: 4dd8 393d 6593 37bd e149 3ebd e8ef a3bd
00000060: 33ae 18bd 0cc6 903d afb9 b639 4da0 b43d
00000070: 2951 023c 93d0 58bd 8b55 c73c 5c90 813c
00000080: a8e3 9f3d dbfc 8d3d b320 0dbc 12a0 0f3d
00000090: 99e7 04bd a85d 42bc d6fb d9bc 1321 4b3d
000000a0: 79e7 19bd 2eb5 a23c 90cb ed3d ef8c 57bd
000000b0: 1c9f 86bc 254d 7e3c aab9 71bc 9eef b4bc
000000c0: d3da 2e3d 296c 23bd ce87 693c ad89 debd
000000d0: d54e 7ebd 55de 04bd a7b3 983d 646b 1ebd
000000e0: dcf5 b5ba aae0 8fbd c445 b2bc 66bf 3c3d
000000f0: ec09 373d 9182 27bd a1c8 223d 8605 4dbd
00000100: 26f8 8d3d 5d77 7b3d fb36 81bd f919 bd3d
00000110: b5f5 c53c f3b5 b33c fde9 56bd e9f2 dc3c
00000120: 4e1a 2f3d 3f04 b03d f6ad efbd 9583 46bb
00000130: 49d3 863d 28bf c43d 0cb4 b3ba c711 03bd
00000140: 0229 c03d 07f5 de3c b828 6a3d 9c40 803a
00000150: 392d 8bbd 9701 713c d2ae 79bd 1f4f b43d
00000160: 524f 933d ae90 913d 0e4d 9b3c 3da1 5ebd
00000170: 674a 35bc be6a b7bd b02f ac3c ee0d e5bd
00000180: 2235 3fbd add3 bb3d c314 b13c e823 233d
00000190: d9a0 1a3d 542f eb3c cb7e 843d 3345 e2bc
000001a0: d7c5 12bd 6a58 b8bc 6289 43bd ebbb 8b3d
000001b0: f2f5 91bd 985e af3c 415c ae3d 2aaa 8e3b
000001c0: ae4d c3bc 318a 73bd fb11 0cbc ded0 e73c
000001d0: fba2 c3bd ad16 d23d 1a3a 553c aba4 073c
000001e0: 6479 87bd f785 ea3c e766 58bd bf86 83bd
000001f0: be2b 11bd 6cae 35bd 2cd1 803d de61 8e3d

weight f4 [32, 128, 1, 1]
0.10608292 0.051423762 -0.06707902 -0.052175578 0.011971899 -0.014305765 0.015820485 -0.09828892
0.12253017 0.06966862 0.038573056 -0.03553857 0.04734224 0.038612142 0.09370216 0.012777899
-0.043820206 -0.005471075 -0.080776215 0.007725116 -0.07190129 0.12732966 -0.026409252 -0.023157133
0.026274433 -0.039010633 0.020768631 0.047062416 -0.03968156 0.070952274 0.09573151 0.032966804
-0.013579344 0.07962161 0.019238867 -0.029184263 0.0118431365 0.041142497 -0.048665002 0.016299078
0.13242373 -0.053932074 -0.0039390223 -0.06167006 -0.029858852 0.016545193 0.03254151 -0.014221136
-0.009503388 -0.027736282 -0.0048709232 -0.023283934 0.022426622 0.04156133 0.05468407 -0.07162569
-0.05320523 0.08020451 -0.10659949 0.07247886 0.06874847 -0.032898046 0.06763908 0.071074635
0.047151122 0.08728187 -0.044751674 0.011886627 -0.016436208 0.08102131 -0.09545131 0.026753321
0.033001 -0.031310644 -0.031279642 0.038307197 0.08930146 -0.04930591 -0.0840779 0.04660363
-0.0058774133 0.097893625 0.023589348 -0.06042246 -0.07307673 -0.03840323 -0.08942254 0.08174102
0.06545669 -0.057558633 -0.03501066 0.04899546 0.083849624 -0.07423312 -0.056628134 0.085596345
0.09535095 0.043494187 -0.14624837 0.06382335 0.042397965 0.018638082 0.073436566 -0.061678447
0.058826618 -0.059436504 0.08150189 0.02292713 -0.04607656 -0.031540975 0.0882208 -0.019579658
-0.02082931 0.11170385 -0.047957588 0.0945308 0.00786616 -0.03733525 0.03873377 0.0403862
0.012175257 0.06912978 -0.026087089 0.09322502 0.052469574 -0.031310566 0.062194508 0.15131538
0.0898086 0.026387554 -0.076444924 0.008168847 -0.050819095 -0.04272187 0.04747576 -0.014642195
-0.071643345 0.08694766 -0.049246922 -0.08789126 -0.10090863 0.0016548571 0.017708752 0.023573192
0.011748215 -0.09470757 0.0015426261 -0.028666293 -0.0005366114 0.016639682 0.09003159 0.07057382
0.026937636 -0.04088685 -0.045945946 -0.034430988 0.062078975 0.07309295 -0.02236989 -0.041722994
0.011247025 0.066656426 -0.0724376 0.055023633 0.049049977 -0.06714337 -0.01618067 0.055774376
-0.05160895 -0.016112009 -0.075795 0.033674713 -0.086719565 0.014619565 0.022751212 -0.022236938
0.0026700117 0.012253883 -0.0040828385 -0.073663585 -0.017517295 -0.07088695 0.07536377 -0.11037593
0.030135829 0.016682979 0.08672379 -0.03218775 -0.044670835 0.021295635 -0.19267063 -0.014846885
0.011638706 -0.0800669 -0.03599323 0.059278917 -0.054224823 0.011088207 0.06407102 -0.08655072
-0.07307015 0.030270418 0.017219553 0.06525395 -0.07930807 0.006312955 0.030026073 -0.059160847
-0.060002446 0.056668032 -0.0020359303 0.0010053185 0.053391963 0.05675981 -0.03841693 -0.031123418
-0.08137141 0.08921497 -0.11613794 -0.054830752 0.09395208 -0.025359994 -0.040497728 -0.06003207
0.021246012 -0.0025618575 -0.00716513 0.050224848 -0.0021294295 0.022589646 -0.03012134 -0.026908869
-0.028796647 -0.06593615 -0.117968805 0.01567439 -0.09934557 -0.044661753 -0.0808742 0.05697207
-0.014923632 -0.051685747 0.016145447 -0.0109258145 0.018799324 0.049773797 -0.020763474 0.07986826
0.08064857 0.059678353 -0.07863149 -0.015871404 -0.033788785 -0.09193571 -0.022156272 -0.030061241
00000000: 0142 d93d b9a1 523d ba60 89bd 0fb6 55bd
00000010: c925 443c ba62 6abc f699 813c b44b c9bd
00000020: 19f1 fa3d 6cae 8e3d c8fe 1d3d e490 11bd
00000030: f0e9 413d c427 1e3d ebe6 bf3d 655a 513c
00000040: d17c 33bd b446 b3bb 006e a5bd f822 fd3b
00000050: fc40 93bd b562 023e 3758 d8bc 07b4 bdbc
00000060: 7b3d d73c 9dc9 1fbd fa22 aa3c 85c4 403d
00000070: 2289 22bd 6d4f 913d e20e c43d 3308 073d
00000080: e67b 5ebc a810 a33d d49a 9d3c d613 efbc
00000090: b709 423c 0985 283d f454 47bd a585 853c
000000a0: 169a 073e e1e7 5cbd ea12 81bb bf99 7cbd
000000b0: 8d9a f4bc c989 873c 3f4a 053d c5ff 68bc
000000c0: 19b4 1bbc 3337 e3bc 449c 9fbb f3bd bebc
000000d0: 09b8 b73c 373c 2a3d 67fc 5f3d 7db0 92bd
000000e0: baed 59bd 4342 a43d d550 dabd cc6f 943d
000000f0: ffcb 8c3d 1ac0 06bd 5c86 8a3d 948f 913d
00000100: 8921 413d d6c0 b23d 884d 37bd 21c0 423c
00000110: 3aa5 86bc 80ee a53d fa7b c3bd c829 db3c
00000120: 0e2c 073d 973f 00bd 151f 00bd 02e8 1c3d
00000130: afe3 b63d fef4 49bd 0931 acbd 73e3 3e3d
00000140: 5197 c0bb 747c c83d 733e c13c 8b7d 77bd
00000150: 41a9 95bd b54c 1dbd 2a23 b7bd d667 a73d
00000160: 280e 863d 9ac2 6bbd 5667 0fbd 77af 483d
00000170: 5ab9 ab3d 8907 98bd e7f2 67bd 234d af3d
00000180: 5c47 c33d f626 323d 22c2 15be d1b5 823d
00000190: 7da9 2d3d e4ae 983c e965 963d 8aa2 7cbd
000001a0: 2ef4 703d b173 73bd 77ea a63d add1 bb3c
000001b0: c6ba 3cbd 1c31 01bd 1bad b43d 8565 a0bc
000001c0: 3ba2 aabc fdc4 e43d 2d6f 44bd 5d99 c13d
000001d0: 11e1 003c d9ec 18bd 4da7 1e3d 006c 253d
000001e0: bb7a 473c ea93 8d3d 97b4 d5bc c2ec be3d
000001f0: 56ea 563d 823f 00bd abbf 7e3d 6bf2 1a3e
00000200: 92ed b73d b62a d83c 288f 9cbd a1d6 053c
00000210: af27 50bd 21fd 2ebd f175 423d d1e5 6fbc
00000220: bfb9 92bd 9d11 b23d 24b7 49bd 5500 b4bd
00000230: 2fa9 cebd cae7 d83a f211 913c 911c c13c
00000240: 967b 403c 0bf6 c1bd f131 ca3a 93d5 eabc
00000250: 62ab 0cba f14f 883c 7b62 b83d 0289 903d
00000260: 51ac dc3c f878 27bd d131 3cbd 8207 0dbd
00000270: 8646 7e3d c2b1 953d 0f41 b7bc bbe5 2abd
00000280: 7145 383c 2a83 883d 2a5a 94bd 7660 613d
00000290: a1e8 483d 7782 89bd 538d 84bc ac73 643d
000002a0: e863 53bd 55fd 83bc 693a 9bbd 7fee 093d
000002b0: 079a b1bd e686 6f3c c060 ba3c 3d2a b6bc
000002c0: 5dfb 2e3b 83c4 483c 55c9 85bb efdc 96bd
000002d0: 6e80 8fbc 2d2d 91bd 5258 9a3d c70c e2bd
000002e0: 6adf f63c beaa 883c 3e9c b13d 4dd7 03bd
000002f0: c4f8 36bd 2f74 ae3c 734b 45be 5940 73bc
00000300: 45b0 3e3c 1dfa a3bd a36d 13bd 73ce 723d
00000310: d91a 5ebd 50ab 353c ab37 833d 8141 b1bd
00000320: cea5 95bd abf9 f73c 0510 8d3c dda3 853d
00000330: 456c a2bd e8dc ce3b 3df9 f53c a552 72bd
00000340: 20c5 75bd bd1c 683d 3e6d 05bb e4c4 833a
00000350: 88b1 5a3d f97c 683d 125b 1dbd 8af6 febc
00000360: 0ea6 a6bd 57b6 b63d bad9 edbd 3696 60bd
00000370: f369 c03d c3bf cfbc f2e0 25bd 30e4 75bd
00000380: 1e0c ae3c d6e4 27bb 78c9 eabb 92b8 4d3d
00000390: e68d 0bbb ec0d b93c 07c1 f6bc fd6f dcbc
000003a0: f2e6 ebbc 8809 87bd a199 f1bd 9467 803c
000003b0: b175 cbbd 3eef 36bd 5fa1 a5bd 8c5b 693d
000003c0: 4082 74bc 6fb4 53bd 7543 843c 3002 33bc
000003d0: 0a01 9a3c 9cdf 4b3d 2918 aabc f891 a33d
000003e0: 142b a53d 4a71 743d 8c09 a1bd bf04 82bc
000003f0: 1c66 0abd ca48 bcbd 1281 b5bc fe42 f6bc

bias f4 [32]
0.051507458 0.09855067 0.050564457 0.043815736 -0.047738302 -0.03373954 0.04186553 -0.034613077
0.032312617 -0.0147864465 -0.0020851868 -0.053547807 0.06354595 -0.039959434 0.096586004 -0.13944721
0.08510572 -0.064140685 0.02600473 -0.027454026 -0.0043970854 -0.027009452 0.04558158 -0.089677356
0.045066744 0.020603199 -0.019663429 0.03401707 0.02906999 0.06421374 -0.062779 -0.0873105
00000000: 7cf9 523d efd4 c93d ad1c 4f3d 2178 333d
00000010: 3d89 43bd 7932 0abd 317b 2b3d 71c6 0dbd
00000020: 3c5a 043d da42 72bc a1a7 08bb f254 5bbd
00000030: 6124 823d 81ac 23bd e2ce c53d 40cb 0ebe
00000040: e84b ae3d 315c 83bd df07 d53c 44e7 e0bc
00000050: 6d15 90bb ed42 ddbc c0b3 3a3d c3a8 b7bd
00000060: e897 383d 0ac8 a83c 3315 a1bc 7c55 0b3d
00000070: 3024 ee3c 7e82 833d 4792 80bd d9cf b2bd

weight f4 [128, 32, 1, 1]
0.094446845 0.14187986 -0.12614428 0.11838803 -0.026945082 -0.34670764 -0.11624229 -0.08712301
0.0008520337 0.012153041 -0.046542287 -0.024031334 0.09525128 0.0054727704 0.17998898 -0.051014733
0.1816535 -0.12246788 0.10464075 -0.14824195 0.09482271 -0.07353632 0.14392911 -0.03247662
0.17699668 -0.07361854 0.01569949 0.055576716 -0.008225596 -0.020063765 0.14280303 0.011750162
-0.19068739 0.10535029 -0.19770776 -0.0042460314 0.12122466 -0.033032186 -0.14972244 0.13532653
-0.02833856 -0.042720016 0.025268761 -0.057891518 0.036304574 0.11209031 -0.1342821 0.0900234
0.07311619 -0.09621502 -0.12995951 0.13159895 0.089947626 -0.11650132 -0.10742102 -0.030985987
-0.06387684 -0.15445082 -0.21400619 -0.17942901 -0.054624323 -0.15938908 -0.1030436 -0.06784266
-0.19915901 0.223732 0.14232156 0.011573758 0.112357736 0.2844259 0.051014975 0.019353325
0.076778725 -0.018620377 -0.16598526 0.0160492 -0.09649801 -0.0052494053 -0.1056556 -0.22982365
0.17489788 -0.032486293 0.0457862 0.12234741 0.09982407 0.06519493 -0.039691694 -0.15237495
-0.04407198 0.05069159 0.16337472 0.024904914 0.04865499 0.050442535 -0.13378729 -0.13108423
0.16663729 0.12536329 0.029718202 0.08490729 -0.0499662 -0.38503835 0.15576436 0.016402427
0.0723038 -0.04560781 0.10430305 -0.13594146 0.0020020762 0.14836967 -0.062187713 -0.17974894
-0.008048122 -0.14935677 -0.018607358 0.05543944 -0.14674564 0.06647797 -0.04445812 0.029711125
-0.006651181 0.018834507 -0.12948082 0.13515264 -0.17194167 0.09562285 0.1446961 -0.085441664
0.065512136 -0.04830052 0.07958226 0.1657676 0.039919473 -0.1458246 0.12357068 0.17987041
0.1302592 0.009452957 -0.008977754 0.15175043 0.15015724 0.16097431 -0.10170685 -0.100442246
-0.0006939572 -0.09982187 0.07014514 0.02262486 -0.09283821 -0.11728567 0.17890331 -0.111584544
0.2028135 -0.032596376 -0.036727197 -0.018117921 -0.17564245 0.042657074 -0.08130008 -0.03528572
0.1769929 -0.1768608 -0.12423993 -0.18958065 0.13221723 0.4642244 -0.116092265 -0.16080518
-0.17311724 -0.16033784 0.053370476 -0.090932466 0.08609432 -0.039543297 -0.16942263 0.03510416
-0.18648918 -0.14020905 0.021058267 -0.09538147 0.14581457 0.12816519 0.07417151 0.1085725
-0.12249937 0.020983083 0.13010696 -0.038560987 0.094065875 -0.00011473685 0.073479235 -0.12716953
-0.20888896 0.054304793 -0.0807738 0.0058552404 -0.108363725 -0.092424996 0.15586336 -0.049961817
-0.0099711735 -0.1490964 -0.027442263 0.050911017 0.11883184 -0.10333231 0.024377944 -0.20013836
-0.18739888 0.026187547 -0.119563475 0.052925 -0.010350653 -0.17640172 -0.102079816 0.12017531
0.028125167 -0.022591922 -0.00363727 0.12642834 0.09884122 -0.034796566 -0.064029776 -0.08721039
-0.014826444 0.17471379 -0.01734578 0.15568003 -0.17519481 0.26284865 0.16379084 -0.060761012
-0.089967825 0.10151245 0.09054263 0.13275048 -0.10495016 0.28955826 -0.026131473 -0.11341823
-0.000100238576 0.01736707 0.023009144 -0.048387613 0.14062454 -0.092448704 0.043454513 0.0904607
-0.017549206 -0.058221933 0.2525727 0.10719264 0.03762217 0.19856125 -0.04702372 -0.0045994725
00000000: 596d c13d f448 113e f72b 01be 6c75 f23d
00000010: efbb dcbc aa83 b1be 7010 eebd 8c6d b2bd
00000020: 045b 5f3a 8c1d 473c 20a3 3ebd 5cdd c4bc
00000030: 1a13 c33d ed54 b33b 084f 383e d3f4 50bd
00000040: 6003 3a3e 71d0 fabd e44d d63d bdcc 17be
00000050: 6932 c23d 369a 96bd 2762 133e 3406 05bd
00000060: 9e3e 353e 51c5 96bd 389c 803c 69a4 633d
00000070: a6c4 06bc c45c a4bc f53a 123e c083 403c
00000080: 8e43 43be e5c1 d73d e773 4abe 4b22 8bbb
00000090: a244 f83d c24c 07bd d750 19be 0a93 0a3e
000000a0: 4526 e8bc 2ffb 2ebd 6f00 cf3c a81f 6dbd
000000b0: 1bb4 143d 9b8f e53d 3f81 09be 305e b83d
000000c0: f1bd 953d 610c c5bd 1b14 05be e0c1 063e
000000d0: 7636 b83d 3e98 eebd 8dff dbbd 53d6 fdbc
000000e0: dcd1 82bd 5b28 1ebe 7024 5bbe 3dbc 37be
000000f0: c1bd 5fbd e436 23be 8608 d3bd 18f1 8abd
00000100: 57f0 4bbe 001a 653e bebc 113e dc9f 3d3c
00000110: d01b e63d 46a0 913e 14f5 503d dd8a 9e3c
00000120: 2a3e 9d3d c389 98bc 0af8 29be 9d79 833c
00000130: c0a0 c5bd 3403 acbb f761 d8bd e456 6bbe
00000140: 6e18 333e 5910 05bd 4f8a 3b3d 4791 fa3d
00000150: 9070 cc3d eb84 853d c293 22bd 2e08 1cbe
00000160: d284 34bd fca1 4f3d b44b 273e 6405 cc3c
00000170: 744a 473d d59c 4e3d 89ff 08be f23a 06be
00000180: f7a2 2a3e 3c5f 003e 9673 f33c e0e3 ad3d
00000190: 5ca9 4cbd bf23 c5be b180 1f3e 625e 863c
000001a0: 0414 943d 41cf 3abd d69c d53d 3d34 0bbe
000001b0: 4435 033b 38ee 173e 8bb8 7ebd 1b10 38be
000001c0: 45dc 03bc fbf0 18be 756e 98bc 7714 633d
000001d0: 7d44 16be 9a25 883d b819 36bd bf64 f33c
000001e0: 26f2 d9bb d34a 9a3c 9f96 04be 7465 0a3e
000001f0: 7a11 30be ead5 c33d 372b 143e 0afc aebd
00000200: 3a2b 863d c4d6 45bd 06fc a23d fbbe 293e
00000210: 9a82 233d 0b53 15be a012 fd3d f32f 383e
00000220: ab62 053e 93e0 1a3c 6e17 13bc 7764 1b3e
00000230: d2c2 193e 73d6 243e ae4b d0bd aab4 cdbd
00000240: aeea 35ba 696f ccbd 41a8 8f3d c557 b93c
00000250: f621 bebd 7833 f0bd 6e32 373e 7086 e4bd
00000260: 58ae 4f3e c783 05bd 426f 16bd 096c 94bc
00000270: 9ddb 33be 2fb9 2e3d a880 a6bd c287 10bd
00000280: a03d 353e ff1a 35be 8171 febd 6e21 42be
00000290: f463 073e d2ae ed3e c8c1 edbd 1daa 24be
000002a0: a545 31be 9a2f 24be 009b 5a3d cd3a babd
000002b0: 3852 b03d 27f8 21bd 207d 2dbe 61c9 0f3d
000002c0: 05f7 3ebe f692 0fbe 6382 ac3c 5c57 c3bd
000002d0: 6a50 153e bc3d 033e 3ce7 973d 425b de3d
000002e0: f3e0 fabd b7e4 ab3c c23a 053e 20f2 1dbd
000002f0: 9ca5 c03d e19e f0b8 487c 963d bb38 02be
00000300: fde6 55be b46e 5e3d bc6c a5bd 51dd bf3b
00000310: cded ddbd 5149 bdbd a59a 1f3e c3a4 4cbd
00000320: 225e 23bc baac 18be 99ce e0bc 1288 503d
00000330: 1c5e f33d e49f d3bd 41b4 c73c 12f1 4cbe
00000340: 7ee5 3fbe 4487 d63c b2dd f4bd e3c7 583d
00000350: c995 29bc a7a2 34be 390f d1bd 791e f63d
00000360: c066 e63c b212 b9bc 445f 6ebb 6e76 013e
00000370: 446d ca3d d886 0ebd 0b22 83bd 5c9b b2bd
00000380: 9dea 72bc 2ce8 323e bd18 8ebc 966a 1f3e
00000390: 4566 33be 1994 863e c9b8 273e 8ae0 78bd
000003a0: 0d41 b8bd c2e5 cf3d 6a6e b93d beef 073e
000003b0: 1cf0 d6bd fb40 943e ac11 d6bc d147 e8bd
000003c0: 2d37 d2b8 6345 8e3c ac7d bc3c 1732 46bd
000003d0: e1ff 0f3e bf55 bdbd 5cfd 313d 7643 b93d
000003e0: 5ac3 8fbc 1f7a 6ebd 3551 813e d187 db3d
000003f0: b419 1a3d a453 4b3e f29b 40bd 2cb7 96bb

bias f4 [128]
-0.019837791 0.047849126 0.10294207 -0.055974226 -0.06365452 -0.06224123 0.11465474 0.096371844
0.030607885 0.16838574 0.106522776 0.13226871 -0.122023895 0.13099322 -0.15493323 0.01823656
-0.09743655 -0.06727268 -0.10583496 -0.11068823 -0.012285969 0.15686978 -0.14882647 -0.14844929
0.05862161 0.17697711 0.13760547 -0.087830685 0.025683569 -0.03679239 0.1327092 -0.01443748
0.22401053 0.15787034 0.04555628 0.09091648 -0.11843853 -0.11780315 -0.098711155 0.13404632
-0.12449285 -0.117906645 -0.11700304 0.14505792 0.019534608 -0.03219456 0.19061525 0.12876436
0.015385945 -0.018545955 -0.11290308 0.10616139 0.07478236 0.17595306 0.15985456 -0.057239827
-0.039037988 0.3381837 0.065855004 -0.06722525 0.023998495 0.1503783 -0.0042251977 0.13948354
0.17243655 -0.070494846 0.108341075 -0.08894894 0.10720693 -0.033725087 0.07485057 -0.11249346
0.0045266915 0.065812126 -0.08997905 -0.0029414361 0.05447903 -0.019443346 -0.0206509 -0.055739824
0.06827252 0.16876198 0.14025477 0.15987968 0.13830268 -0.12713298 0.11887372 0.08457753
-0.14130993 0.019107793 0.08703448 0.014743285 0.13008171 0.04573068 0.08319411 0.027380263
-0.021384597 0.15032241 0.12786005 0.048330095 0.18513562 0.063003995 -0.045914683 -0.083016925
0.11629335 0.18263558 0.1388487 0.06018508 0.07822836 0.14868489 -0.098664686 -0.034885745
-0.013133415 0.019637879 0.002041044 -0.025253283 0.1481067 -0.1412007 -0.09260831 0.09008291
-0.15432829 0.097787656 0.17087805 0.13153413 0.013993046 -0.09846798 0.07755023 -0.26916382
00000000: dd82 a2bc 72fd 433d 4bd3 d23d 3b45 65bd
00000010: 4d5d 82bd a9f0 7ebd 1bd0 ea3d 9a5e c53d
00000020: 63bd fa3c 506d 2c3e 9d28 da3d 7371 073e
00000030: aae7 f9bd 1623 063e d1a6 1ebe d764 953c
00000040: d08c c7bd 42c6 89bd 00c0 d8bd 83b0 e2bd
00000050: 174b 49bc 79a2 203e f765 18be 1703 18be
00000060: 371d 703d 7d39 353e 73e8 0c3e 93e0 b3bd
00000070: 5966 d23c 9eb3 16bd ece4 073e 2e8b 6cbc
00000080: 0463 653e c3a8 213e 3999 3a3d 6b32 ba3d
00000090: e68f f2bd c742 f1bd 1329 cabd 7043 093e
000000a0: 1bf6 febd 0a79 f1bd 4a9f efbd 108a 143e
000000b0: 0b07 a03c 71de 03bd a530 433e ceda 033e
000000c0: 5515 7c3c b0ed 97bc bb39 e7bd 256b d93d
000000d0: 7e27 993d 0a2d 343e eab0 233e 4f74 6abd
000000e0: 4ce6 1fbd 6a26 ad3e fdde 863d 64ad 89bd
000000f0: 7e98 c43c c5fc 193e 8773 8abb c6d4 0e3e
00000100: 3593 303e 9a5f 90bd ede1 dd3d dd2a b6bd
00000110: 4f8f db3d 5123 0abd 414b 993d f962 e6bd
00000120: a454 943b 82c8 863d f046 b8bd 1cc5 40bb
00000130: 6725 5f3d a747 9fbc 142c a9bc 714f 64bd
00000140: 77d2 8b3d f1cf 2c3e f29e 0f3e 80b7 233e
00000150: 389f 0d3e 262f 02be 1174 f33d fc36 ad3d
00000160: 8db3 10be f287 9c3c 223f b23d d28d 713c
00000170: 2434 053e 1850 3b3d ac61 aa3d 934c e03c
00000180: c02e afbc 1eee 193e bfed 023e c7f5 453d
00000190: 3194 3d3e 3d08 813d 0911 3cbd c704 aabd
000001a0: 352b ee3d d204 3b3e 5b2e 0e3e a184 763d
000001b0: 3136 a03d da40 183e b610 cabd 5be4 0ebd
000001c0: 892d 57bc 9edf a03c 09c3 053b f9df cebc
000001d0: 48a9 173e eb96 10be 6da9 bdbd 647d b83d
000001e0: 3c08 1ebe e544 c83d a8fa 2e3e e2b0 063e
000001f0: 1743 653c 95a9 c9bd a8d2 9e3d d7cf 89be

weight f4 [128, 1, 5, 5]
-0.19886832 -0.1516209 0.19855249 0.10681021 0.12927353 0.14515276 0.030247236 -0.030169297
0.14479902 -0.008869267 -0.093944095 -0.024512649 -0.030992106 0.18129246 -0.08319066 -0.17927852
-0.092746474 -0.07195129 -0.14423095 -0.03428619 0.059811782 0.122711115 -0.016276503 0.029173613
-0.07684594 0.08461199 -0.02469418 -0.023660183 0.04015069 -0.15727115 -0.07407119 0.13576196
-0.0709852 -0.143296 -0.12478042 -0.14718285 0.11866369 0.08170008 0.037534285 0.10125089
-0.015078306 0.07856736 -0.05805173 0.18573904 0.019004965 0.001378131 -0.18094599 0.02460587
0.0687192 0.006441188 0.045321632 -0.084557414 0.09917102 -0.082077764 -0.056603145 0.19749938
0.061407305 0.13573113 0.11146958 -0.1378744 -0.12656613 0.047795393 0.09848937 0.11258753
0.17223036 -0.00945015 -0.039032817 0.056711555 0.011219836 -0.13501059 -0.1861902 0.18752359
0.051330116 -0.133061 -0.12992959 0.17455128 0.0721385 -0.09552982 -0.05883336 0.19867551
-0.10581441 0.13093606 0.114948295 0.13511506 0.103108816 0.09787033 0.17187467 -0.20316723
0.14405663 -0.025273252 -0.18914917 -0.06930547 -0.036450602 0.1984518 -0.06955953 0.07466688
0.17077227 0.06194308 0.12613237 -0.09050193 0.073792435 0.06259489 0.0008087158 -0.0910486
-0.085348606 -0.14465837 -0.099867344 -0.07482672 -0.17032664 -0.1861892 -0.19155149 0.12868114
0.045699548 -0.15874957 -0.03435695 -0.015677476 0.12644635 0.08994794 -0.028969718 0.07078316
-0.0058652163 0.043412875 0.18030052 0.041911032 0.15539801 0.064479135 -0.11543987 0.03750818
-0.061657023 0.03316574 0.15050931 -0.04710207 -0.107524514 -0.16971198 0.1910696 0.04980407
0.119166926 -0.14292401 0.19351844 0.13889849 0.18332627 -0.10210605 0.07715311 -0.1979632
0.1591781 -0.15827726 -0.051404476 -0.18232499 -0.103903554 -0.030121638 0.18757164 0.0626107
-0.09544263 0.15014105 -0.023461653 0.14115253 0.08562531 0.046167206 -0.039064646 0.12974215
0.14263232 0.0387326 -0.19001716 0.007113242 0.1956044 0.083335474 -0.16862564 0.011859464
-0.055612233 0.11884625 -0.13750957 0.14421497 -0.09736788 -0.09046519 -0.056030966 -0.117230274
-0.12746108 -0.007398224 0.051860716 -0.056711484 0.010896397 0.15576907 -0.12654622 -0.059844136
-0.1572469 -0.097135805 -0.10111251 0.23108885 0.018235637 -0.06496532 0.17561534 -0.12012944
0.19882984 0.057519387 -0.17949943 0.016819572 -0.19386208 -0.003286314 0.011520076 -0.18312836
-0.16134822 -0.09389198 -0.06604748 0.13067548 0.09634676 0.015687991 0.107814506 -0.13706265
-0.17380872 0.18468769 -0.19412783 -0.10980561 0.18737245 -0.12994973 0.1036995 -0.12566383
0.04993844 0.1359037 0.19195168 0.13209283 -0.1516246 -0.15204778 0.07667442 0.038249087
0.17953806 -0.17405763 0.15534973 0.034158636 0.09788861 0.15527561 0.120277785 0.076722816
-0.014284111 -0.14662853 -0.1507988 -0.051054146 -0.0048379423 -0.07942509 -0.080414414 0.10091453
0.005494976 0.02661047 -0.14023773 -0.15922658 0.09204378 0.09622963 0.1810987 0.06942139
0.15037067 0.028897285 -0.19160827 0.029511357 0.009291387 0.07057195 -0.074279025 0.020268107
00000000: 23a4 4bbe 8242 1bbe 5851 4b3e 50bf da3d
00000010: 4860 043e eda2 143e 0dc9 f73c 9a25 f7bc
00000020: 3246 143e 6750 11bc c365 c0bd c0ce c8bc
00000030: 28e3 fdbc bba4 393e dd5f aabd ca94 37be
00000040: ddf1 bdbd 335b 93bd 47b1 13be ad6f 0cbd
00000050: 33fd 743d f74f fb3d 4d56 85bc 80fd ee3c
00000060: 6761 9dbd 0d49 ad3d 734b cabc 00d3 c1bc
00000070: 0d75 243d b00b 21be a3b2 97bd 2f05 0b3e
00000080: b060 91bd 30bc 12be e08c ffbd 1ab7 16be
00000090: f305 f33d 5f52 a73d 8dbd 193d a05c cf3d
000000a0: 000b 77bc ede7 a03d a7c7 6dbd 6032 3e3e
000000b0: 4db0 9b3c 67a2 b43a e849 39be 4092 c93c
000000c0: a7bc 8c3d 9a10 d33b 2da3 393d 702c adbd
000000d0: 2d1a cb3d 6318 a8bd b3d8 67bd 473d 4a3e
000000e0: 3a86 7b3d 1afd 0a3e 2a4a e43d f22e 0dbe
000000f0: 8d9a 01be 1ac5 433d cbb4 c93d 4a94 e63d
00000100: 285d 303e cdd4 1abc e0e0 1fbd 604a 683d
00000110: 67d3 373c 3740 0abe a5a8 3ebe 2f06 403e
00000120: 873f 523d 2541 08be 430c 05be 92bd 323e
00000130: 5abd 933d 23a5 c3bd 40fb 70bd 9871 4b3e
00000140: 3ab5 d8bd 1a14 063e 036a eb3d 9a5b 0a3e
00000150: b72a d33d 3d70 c83d eaff 2f3e 120b 50be
00000160: 9583 133e da09 cfbc 52b0 41be 07f0 8dbd
00000170: 3a4d 15bd f336 4b3e 3a75 8ebd f3ea 983d
00000180: edde 2e3e 07b8 7d3d d828 013e 1359 b9bd
00000190: 7d20 973d c031 803d 0000 543a b077 babd
000001a0: 40cb aebd 5321 14be 4087 ccbd c03e 99bd
000001b0: 1b6a 2ebe 62a8 3ebe 1326 44be fdc4 033e
000001c0: 732f 3b3d 3f8f 22be e0b9 0cbd 0d6e 80bc
000001d0: 277b 013e a036 b83d e751 edbc c3f6 903d
000001e0: 0031 c0bb b3d1 313d b3a0 383e e7aa 2b3d
000001f0: a820 1f3e a30d 843d bd6b ecbd 2da2 193d
00000200: 138c 7cbd cdd8 073d 1d1f 1a3e 1aee 40bd
00000210: d035 dcbd fac8 2dbe c0a7 433e 5aff 4b3d
00000220: ca0d f43d ac5a 12be b329 463e 683b 0e3e
00000230: e2b9 3b3e fa1c d1bd 7302 9e3d ddb6 4abe
00000240: 95ff 223e 6f13 22be 808d 52bd 67b3 3abe
00000250: 63cb d4bd a7c1 f6bc c812 403e 0a3a 803d
00000260: 6d77 c3bd 93be 193e a732 c0bc 4a8a 103e
00000270: 535c af3d d319 3d3d 4002 20bd 20db 043e
00000280: 350e 123e 13a6 1e3d dc93 42be 3316 e93b
00000290: 854c 483e caab aa3d 33ac 2cbe 334e 423c
000002a0: a7c9 63bd aa65 f33d 4fcf 0cbe 17ad 133e
000002b0: d068 c7bd d045 b9bd ba80 65bd 6d16 f0bd
000002c0: 2885 02be cd6c f2bb e76b 543d 4d4a 68bd
000002d0: cd86 323c ed81 1f3e 5595 01be 201f 75bd
000002e0: 5505 21be 23ef c6bd 1314 cfbd 8ea2 6c3e
000002f0: e762 953c 8a0c 85bd 82d4 333e 6d06 f6bd
00000300: 0d9a 4b3e 7399 6b3d b3ce 37be 33c9 893c
00000310: c883 46be 335f 57bb b3be 3c3c 0086 3bbe
00000320: 7838 25be 704a c0bd e743 87bd cbcf 053e
00000330: 7351 c53d 1a84 803c dacd dc3d 275a 0cbe
00000340: eafa 31be c51e 3d3e 72c9 46be c3e1 e0bd
00000350: 90de 3f3e 8b11 05be 6760 d43d 05ae 00be
00000360: 408c 4c3d 572a 0b3e fb8e 443e 5843 073e
00000370: 7b43 1bbe 6ab2 1bbe 7a07 9d3d 13ab 1c3d
00000380: d3d8 373e 2a3c 32be 0014 1f3e ede9 0b3d
00000390: d379 c83d 9200 1f3e 3354 f63d da20 9d3d
000003a0: e707 6abc ca25 16be 006b 1abe 271e 51bd
000003b0: 9a87 9ebb 9fa9 a2bd 50b0 a4bd 47ac ce3d
000003c0: 330f b43b 33fe d93c 7b9a 0fbe 4b0c 23be
000003d0: 7381 bc3d 0a14 c53d f071 393e cd2c 8e3d
000003e0: c5fa 193e 00ba ec3c f534 44be cdc1 f13c
000003f0: e73a 183c 0788 903d 9a1f 98bd 4d09 a63c

bias f4 [128]
-0.14789546 -0.14869526 0.04931984 0.20569825 0.04449153 0.030227067 -0.09025056 -0.19885601
0.12050002 -0.059153195 0.03276464 -0.24397805 -0.010544746 0.079839714 0.15059951 -0.0884122
0.14629452 0.14303772 0.02134964 -0.1974205 -0.052633144 -0.0008294164 -0.009280725 0.038693506
0.11220231 -0.12375356 0.067901805 0.1766383 -0.18916437 0.07700423 0.13269147 -0.15052208
-0.22164807 -0.15862848 0.12623355 -0.09615628 -0.10004612 0.15611227 0.030580495 0.16897525
0.008628251 -0.08102121 0.16330288 0.093202345 0.22949561 -0.19697833 0.19741373 0.15327035
-0.08470221 -0.12573855 -0.16843347 0.1833465 0.09076626 -0.024540037 -0.21775556 0.04933604
0.11275731 0.10238527 -0.19886653 0.22895236 0.18092595 -0.005858924 -0.02404528 0.06933724
-0.15253848 0.18879807 -0.2229582 -0.07219184 -0.23106849 -0.21719031 0.1978597 0.094688974
0.048337054 0.17404184 -0.0585826 -0.015821343 -0.10191304 -0.17006633 -0.19937536 -0.16572738
-0.20281634 -0.19480322 0.13167518 0.19053844 0.04986296 -0.14616413 0.10159096 -0.19375463
-0.029853309 0.16724168 0.06299502 0.04795695 -0.043520726 0.0014143684 -0.062725104 0.035557058
0.07206544 -0.005160379 0.024330676 0.18927383 -0.055928044 -0.032894067 -0.100172475 0.03552098
-0.022397282 -0.1306697 -0.012332976 -0.1672405 0.01585965 0.06846247 -0.17050546 0.12908286
0.15754543 0.22086306 0.025423938 0.20588036 0.10867612 0.06611599 0.0045931465 -0.11744651
-0.14147593 -0.043259483 0.11678548 -0.13980572 0.096749894 -0.12754296 0.17433171 -0.019263124
00000000: e871 17be 9243 18be 9a03 4a3d 90a2 523e
00000010: c03c 363d c19e f73c 49d5 b8bd e9a0 4bbe
00000020: b7c8 f63d 9f4a 72bd 3734 063d 62d5 79be
00000030: dfc3 2cbc 0183 a33d c236 1a3e 7511 b5bd
00000040: 3bce 153e 7b78 123e 71e5 ae3c 9928 4abe
00000050: da95 57bd 316d 59ba 2f0e 18bc 157d 1e3d
00000060: 53ca e53d 8272 fdbd 1a10 8b3d ace0 343e
00000070: 4eb4 41be 65b4 9d3d 46e0 073e 7622 1abe
00000080: b6f7 62be 816f 22be 5e43 013e 95ed c4bd
00000090: fbe4 ccbd e5db 1f3e f283 fa3c d907 2d3e
000000a0: 825d 0d3c 73ee a5bd df38 273e dfe0 be3d
000000b0: e600 6b3e b0b4 49be d326 4a3e e7f2 1c3e
000000c0: 5a78 adbd 9bc1 00be d379 2cbe 2fbf 3b3e
000000d0: a9e3 b93d 3008 c9bc 50fb 5ebe 9614 4a3d
000000e0: 4eed e63d 5eaf d13d aba3 4bbe 7d72 6a3e
000000f0: a744 393e 37fc bfbb 9bfa c4bc af00 8e3d
00000100: 0c33 1cbe 4854 413e 284f 64be 51d9 93bd
00000110: 389d 6cbe 2367 5ebe bc9b 4a3e 4bec c13d
00000120: 13fd 453d 0638 323e 4ff4 6fbd c39b 81bc
00000130: c9b7 d0bd de25 2ebe 0e29 4cbe 70b4 29be
00000140: 16af 4fbe 7f7a 47be dcd5 063e 821c 433e
00000150: 1a3d 4c3d 0dac 15be ec0e d03d 9d67 46be
00000160: ed8e f4bc 6741 2b3e 8803 813d 826e 443d
00000170: ca42 32bd 5462 b93a 0576 80bd 47a4 113d
00000180: 0c97 933d 6618 a9bb 2051 c73c 00d1 413e
00000190: ce14 65bd eebb 06bd 3a27 cdbd 727e 113d
000001a0: 817a b7bc 47ce 05be 4010 4abc 1841 2bbe
000001b0: 19ec 813c 0d36 8c3d fc98 2ebe 4c2e 043e
000001c0: 9753 213e ed29 623e dd45 d03c 4dd2 523e
000001d0: 9691 de3d d267 873d 1b82 963b cc87 f0bd
000001e0: 11df 10be db30 31bd 3a2d ef3d 3b29 0fbe
000001f0: cf24 c63d 9f9a 02be 0384 323e b3cd 9dbc
