E-GraphSAGE/experiments/model/EGAT_NF-ToN-IoT_best_model.pth (torch, 60019 bytes, 9 tensors)

attn_l f4 [1, 3, 128]
-0.040764626 -0.07662595 -0.09098331 0.052118346 0.06284995 -0.063673355 -0.12902856 0.05863441
0.009330932 -0.116939284 -0.023686323 0.031371593 0.12514395 -0.114012316 -0.16082427 0.13809596
0.07425904 0.18533644 -0.11706401 0.03382113 0.1987882 0.05776422 0.17492749 -0.1828839
-0.0055817678 -0.03268353 -0.05207144 -0.03516218 -0.046629544 0.011402747 -0.1012346 0.052750908
0.09221656 -0.010811529 0.18906145 0.069311924 -0.09507554 0.019878449 0.1648519 0.0364991
-0.0823925 0.039542243 0.081547715 0.080723114 0.081296295 -0.036055587 0.07791719 -0.003519259
0.050471496 -0.05347969 0.1135003 -0.1649452 0.0059319832 0.0009110502 -0.06512496 0.16324405
0.113988705 0.038765058 0.009652479 0.037001897 0.04861637 -0.018186165 0.030260138 0.10896981
0.004587952 -0.060073648 0.090557575 -0.06734377 -0.11157919 -0.064585656 0.024573345 -0.05327866
-0.018607443 -0.06280452 0.024006395 -0.0493201 -0.03414552 -0.0752194 -0.14291593 -0.1074618
0.044485897 -0.120637365 0.045716237 0.10932609 -0.064780705 0.074819095 0.07962568 -0.020805035
0.0011314983 -0.09314804 0.09407572 0.024731487 -0.054385185 -0.1399987 0.015594096 -0.0015099891
0.0052783787 0.037105486 -0.01982673 -0.0038727403 -0.1383239 -0.07149136 -0.036678825 -0.037677877
-0.12611154 0.09899816 -0.02365973 0.040588364 -0.09316116 0.05005184 -0.117049225 -0.15173255
-0.051978175 -0.055671673 0.016833425 0.027254103 -0.022746244 0.07679247 0.11677485 -0.074340045
-0.053012118 0.011239676 0.01770771 0.090470776 0.06877982 -0.07065209 -0.22311302 -0.031632893
0.029982515 -0.095854 0.024703443 -0.04359293 -0.035501722 -0.005637727 0.0867082 0.018416297
0.017314494 -0.034060698 0.06410069 -0.17488417 0.018093223 -0.10766958 -0.087427914 0.07441232
0.02114486 -0.031549055 0.039305523 0.18316641 0.07901475 -0.12683316 -0.016682845 -0.15815516
-0.09855043 -0.072113894 -0.04047987 0.006957994 0.002560234 -0.025531506 -0.07801885 0.062389754
-0.10405592 -0.045198668 0.14935005 -0.10352741 -0.17222236 0.03462002 0.045301933 -0.004879342
0.05855934 0.043903757 0.07946761 0.039660573 0.012978413 0.07180758 -0.12272858 -0.18746768
-0.0987757 -0.1414578 -0.07118246 0.057518996 0.05883684 -0.017972982 -0.058141436 0.12803872
0.15423656 0.022310006 0.17452808 -0.009206431 -0.16101779 -0.08294212 -0.034319233 0.07059792
0.10465199 0.10375218 0.05835802 -0.01633437 -0.07046259 -0.21626465 0.06446162 -0.10559312
-0.072994694 -0.036632556 -0.14778261 0.05125837 0.17762382 -0.101851955 0.054871768 -0.083697565
-0.1651473 -0.09209977 0.008001413 -0.115933806 0.04013771 0.052435644 0.059499085 0.17062888
0.011517981 -0.01447059 0.09640785 0.16405804 -0.13876365 0.07944703 0.0053747874 -0.1469674
0.119141154 -0.014486273 0.05478929 -0.01490099 -0.07168049 -0.1363491 0.11396367 0.0029723833
0.07601946 -0.10286645 0.06951589 0.1351035 0.21125455 0.055918854 0.010517478 -0.1714814
0.065125875 -0.0019180564 0.016110247 -0.016070815 -0.14016013 -0.0715458 -0.08114115 0.040555324
-0.1047434 0.023784487 -0.042104676 -0.14220555 0.21273194 -0.17154336 0.0016883353 0.00022504924
00000000: cff8 26bd 11ee 9cbd 7555 babd 0c7a 553d
00000010: 79b7 803d 2d67 82bd 1020 04be a32a 703d
00000020: c4e0 183c dd7d efbd d209 c2bc 807f 003d
00000030: bc25 003e 4a7f e9bd 1eaf 24be 0769 0d3e
00000040: 2015 983d d6c8 3d3e 41bf efbd 0688 0a3d
00000050: 228f 4b3e 2d9a 6c3d 3120 333e eb45 3bbe
00000060: 43e7 b6bb 2adf 05bd dd48 55bd 3806 10bd
00000070: 9ffe 3ebd 96d2 3a3c 1654 cfbd 5611 583d
00000080: 09dc bc3d d722 31bc 5399 413e 69f3 8d3d
00000090: f7b6 c2bd 21d8 a23c f0ce 283e 1580 153d
000000a0: 66bd a8bd 0cf7 213d 7d02 a73d 2952 a53d
000000b0: ac7e a63d 06af 13bd 0c93 9f3d 5ea3 66bb
000000c0: 33bb 4e3d 850d 5bbd d872 e83d 65e7 28be
000000d0: 1561 c23b 8bd3 6e3a 3c60 85bd 7329 273e
000000e0: e972 e93d 1cc8 1e3d 6e25 1e3c 4d8f 173d
000000f0: f521 473d 27fb 94bc 1ce4 f73c 902b df3d
00000100: 8856 963b c90f 76bd 4076 b93d 88eb 89bd
00000110: a183 e4bd 7c45 84bd 0a4e c93c b93a 5abd
00000120: a36e 98bc a89f 80bd 0fa9 c43c e003 4abd
00000130: 2cdc 0bbd a10c 9abd 8e58 12be ef14 dcbd
00000140: d836 363d b910 f7bd f340 3b3d 5be6 df3d
00000150: bfab 84bd c13a 993d ca12 a33d 526f aabc
00000160: c84e 943a 66c4 bebd c5aa c03d b099 ca3c
00000170: 00c3 5ebd d25b 0fbe 617e 7f3c d4ea c5ba
00000180: 40f6 ac3b ecfb 173d ab6b a2bc cdcd 7dbb
00000190: c8a4 0dbe 106a 92bd 893c 16bd 1e54 1abd
000001a0: 6223 01be 8cbf ca3d 0dd2 c1bc fc3f 263d
000001b0: 47cb bebd 2803 4d3d 81b7 efbd c75f 1bbe
000001c0: 11e7 54bd fb07 64bd 40e6 893c ff43 df3c
000001d0: 5556 babc 5f45 9d3d a727 ef3d 983f 98bd
000001e0: 3c23 59bd 9e26 383c c20f 913c be48 b93d
000001f0: 6fdc 8c3d 0bb2 90bd bd77 64be 7e91 01bd
00000200: e49d f53c 1a4f c4bd e05e ca3c 808e 32bd
00000210: 416a 11bd afbc b8bb 1294 b13d c6dd 963c
00000220: 20d7 8d3c 3b83 0bbd 3947 833d d614 33be
00000230: 3d38 943c de81 dcbd 680d b3bd 7d65 983d
00000240: fc37 ad3c 9539 01bd d4fe 203d fa8f 3b3e
00000250: 7cd2 a13d 8de0 01be 76aa 88bc 6df3 21be
00000260: cfd4 c9bd 73b0 93bd 38ce 25bd e2ff e33b
00000270: 99c9 273b 7327 d1bc 59c8 9fbd 668c 7f3d
00000280: 451b d5bd 3d22 39bd 38ef 183e 2e06 d4bd
00000290: 0f5b 30be b9cd 0d3d 858e 393d e3e2 9fbb
000002a0: ebdb 6f3d 6dd4 333d eabf a23d 2073 223d
000002b0: 69a3 543c da0f 933d 1f59 fbbd 87f7 3fbe
000002c0: ea4a cabd 50da 10be 1cc8 91bd 0a99 6b3d
000002d0: e6fe 703d 133c 93bc b725 6ebd 951c 033e
000002e0: 30f0 1d3e 79c3 b63c 7db7 323e 92d6 16bc
000002f0: d9e1 24be 8fdd a9bd 5392 0cbd a495 903d
00000300: c853 d63d 067c d43d d208 6f3d a8cf 85bc
00000310: b14e 90bd 7b74 5dbe 7404 843d 3541 d8bd
00000320: 3e7e 95bd 050c 16bd 5354 17be 4cf4 513d
00000330: 05e3 353e c297 d0bd 38c1 603d a169 abbd
00000340: 601c 29be ce9e bcbd 5c18 033c b46e edbd
00000350: 7067 243d c2c6 563d 50b5 733d 56b9 2e3e
00000360: eab5 3c3c 0e16 6dbc 7b71 c53d d5fe 273e
00000370: 0f18 0ebe 20b5 a23d fc1e b03b 9f7e 16be
00000380: 4700 f43d d557 6dbc bc6a 603d 4823 74bc
00000390: 39cd 92bd 199f 0bbe c965 e93d 51cc 423b
000003a0: 17b0 9b3d a5ab d2bd 595e 8e3d 9258 0a3e
000003b0: 1d53 583e 2b0b 653d 8051 2c3c d298 2fbe
000003c0: b760 853d 4b67 fbba a3f9 833c f1a6 83bc
000003d0: 2386 0fbe 9b86 92bd 552d a6bd 571d 263d
000003e0: b583 d6bd afd7 c23c f475 2cbd 559e 11be
000003f0: 67d6 593e 10a9 2fbe 224b dd3a 32fb 6b39

attn_r f4 [1, 3, 128]
-0.061521567 -0.016959867 0.055275884 0.16000187 -0.21922511 0.0014827515 0.05756262 0.08099913
-0.16303965 -0.053724848 -0.011176639 0.074821725 -0.08378295 0.013169467 0.04635449 0.021891665
0.08921718 -0.1752876 -0.17660277 0.06335475 -0.16218238 -0.14969438 -0.05125361 0.016552081
-0.0745814 -0.03901006 0.030070867 -0.11991214 -0.056280255 -0.07001957 -0.035602752 -0.098201334
0.019283764 -0.015949154 -0.027908007 0.061916493 0.009566937 -0.014141509 -0.0022466825 0.05351142
-0.03126492 0.045298934 0.076579005 0.011298873 0.15063684 -0.07043199 -0.08883877 0.033211626
0.0071114744 -0.065836 0.038730588 -0.03618022 -0.027068852 -0.07022494 -0.018616643 -0.0038346273
0.07692082 -0.0853864 -0.117627345 0.038844403 0.05846275 0.006912495 -0.20555274 -0.09885695
-0.028494932 0.033569384 0.033230253 0.026219081 -0.006291226 0.15788034 0.050827574 -0.024568738
0.07287036 0.025889954 0.0137052 -0.13307978 -0.022099283 0.053171277 0.034338716 0.008598724
0.11114272 -0.14581598 -0.086157195 -0.004269986 -0.12581821 -0.045026552 -0.035944123 -0.0936215
0.043474957 -0.032298315 -0.09562975 0.08705056 0.015730929 -0.009061619 0.057706483 -0.18559271
0.0030318738 0.06443012 0.044446245 0.12391017 -0.0723008 0.09134765 -0.0085450625 0.079634175
-0.047291137 -0.038025744 0.1078998 -0.08100066 0.023933046 0.110211626 0.04433255 -0.02664561
-0.07393416 -0.020597246 -0.08784677 -0.13353515 -0.009561452 0.009711155 0.0065538897 0.06001709
-0.16891524 -0.127666 0.014007676 0.025265701 0.030400565 -0.13000853 0.03926381 0.058029328
0.050358035 0.20914264 -0.1328685 0.12099365 -0.093149535 0.09762933 -0.088359386 0.13705435
0.03059828 -0.03646138 -0.0020209812 0.05071739 -0.08322587 -0.016899329 0.01378764 -0.01583342
0.23479347 -0.05368436 -0.036920458 0.09216924 0.13939035 -0.048655286 0.06522314 -0.05783817
0.08603445 0.13625196 0.13369995 -0.031834487 -0.08951279 0.09897751 -0.04417669 0.109056465
-0.090053566 -0.018595977 -0.0018253963 0.057835463 -0.031959396 0.026716046 0.1463712 0.087159865
-0.034732223 -0.0144568365 0.015889743 -0.085551776 0.15509018 -0.16762412 0.0006851464 -0.12323849
-0.13842319 0.00559025 -0.17490314 0.0045530787 0.050623037 -0.18948911 -0.11081551 -0.041822903
0.009573325 0.0053361855 0.06899504 -0.093692884 -0.024277642 -0.025651816 -0.04540132 -0.028177144
-0.04733047 -0.19182056 0.06309693 0.1295418 0.054979954 -0.16329673 -0.0006801076 -0.10826486
0.028986996 0.04019685 0.03377035 0.048576064 0.014806151 0.05181894 0.1909159 0.0831873
0.076685995 0.043331515 -0.04209819 0.151417 -0.18201663 0.07846335 0.0072599086 -0.04009021
0.041723493 -0.0147720305 0.13063452 -0.004713101 0.1550697 -0.22127278 0.113785595 -0.019978471
0.15551247 0.05152742 0.11984056 0.1552147 -0.018647868 0.06791056 -0.08358617 0.04614741
0.0035817288 -0.033661786 -0.09334185 -0.00865636 0.1257093 -0.08161104 0.03231666 0.101795346
-0.035265937 -0.14009078 0.117087066 0.05562818 -0.0061491285 -0.05714767 -0.023091283 0.112471275
0.12320641 -0.016827807 0.097354 -0.0727126 0.026479984 -0.017943326 0.06114634 0.029271092
00000000: 0afe 7bbd 6bef 8abc f768 623d 88d7 233e
00000010: 8c7c 60be e258 c23a c8c6 6b3d dfe2 a53d
00000020: def3 26be 960e 5cbd 391e 37bc 223c 993d
00000030: 6596 abbd c0c4 573c 35de 3d3d 2656 b33c
00000040: 7fb7 b63d 987e 33be 5bd7 34be 23c0 813d
00000050: 2313 26be 7c49 19be 4eef 51bd 3b98 873c
00000060: 22be 98bd 03c9 1fbd 2e57 f63c 7f94 f5bd
00000070: 2086 66bd 6c66 8fbd 31d4 11bd c81d c9bd
00000080: fcf8 9d3c cda7 82bc 559f e4bc 269c 7d3d
00000090: a4be 1c3c cab1 67bc 143d 13bb ca2e 5b3d
000000a0: a50f 00bd 608b 393d 74d5 9c3d e91e 393c
000000b0: 8b40 1a3e a63e 90bd 1af1 b5bd ea08 083d
000000c0: 5f07 e93b 06d5 86bd f7a3 1e3d b631 14bd
000000d0: 7fbf ddbc 18d2 8fbd ee81 98bc 5f4e 7bbb
000000e0: aa88 9d3d 11df aebd 9be6 f0bd 4f1b 1f3d
000000f0: a376 6f3d 3682 e23b 6b7c 52be 8375 cabd
00000100: 346e e9bc 0d80 093d 721c 083d 66c9 d63c
00000110: a126 cebb 62ab 213e 9330 503d 6144 c9bc
00000120: 0e3d 953d 2b17 d43c c68b 603c 1146 08be
00000130: 8e09 b5bc 20ca 593d c1a6 0c3d aae1 0c3c
00000140: cb9e e33d c950 15be 2f73 b0bd 3deb 8bbb
00000150: 7dd6 00be c36d 38bd 253a 13bd a1bc bfbd
00000160: cc12 323d 3d4b 04bd 88d9 c3bd 9047 b23d
00000170: 26de 803c 2f77 14bc a25d 6c3d 040c 3ebe
00000180: 67b2 463b f0f3 833d 440d 363d 9dc4 fd3d
00000190: 7112 94bd 7a14 bb3d 9700 0cbc 3e17 a33d
000001a0: 5ab4 41bd e2c0 1bbd 92fa dc3d ade3 a5bd
000001b0: 3c0f c43c a2b6 e13d 0c96 353d e547 dabc
000001c0: cb6a 97bd 8ebb a8bc 02e9 b3bd 70bd 08be
000001d0: a3a7 1cbc 891b 1f3c 03c2 d63b 7bd4 753d
000001e0: 1ef8 2cbe e0ba 02be 7480 653c 04fa ce3c
000001f0: 9b0a f93c f520 05be 17d3 203d 29b0 6d3d
00000200: 3a44 4e3d 7d29 563e ae0e 08be 85cb f73d
00000210: 2fc5 bebd e3f1 c73d c4f5 b4bd fa57 0c3e
00000220: 3ea9 fa3c 8758 15bd 7072 04bb 0abd 4f3d
00000230: 5372 aabd 7670 8abc 8ee5 613c 17b5 81bc
00000240: b36d 703e 22e4 5bbd e839 17bd 3ac3 bc3d
00000250: 58bc 0e3e c44a 47bd b693 853d b8e7 6cbd
00000260: d432 b03d a285 0b3e a4e8 083e e164 02bd
00000270: 7b52 b7bd b9b4 ca3d 9ef2 34bd ff58 df3d
00000280: 016e b8bd 9756 98bc 2342 efba e1e4 6c3d
00000290: dbe7 02bd 9cdb da3c 55e2 153e df80 b23d
000002a0: 6043 0ebd 5edc 6cbc 352b 823c c535 afbd
000002b0: f6cf 1e3e a8a5 2bbe 669b 333a 7664 fcbd
000002c0: cfbe 0dbe 6a2e b73b cf19 33be fe31 953b
000002d0: 1a5a 4f3d 6f09 42be 3ef3 e2bd 7e4e 2bbd
000002e0: 6fd9 1c3c 2bdb ae3b 464d 8d3d 0ee2 bfbd
000002f0: e8e1 c6bc c223 d2bc bcf6 39bd c1d3 e6bc
00000300: 98dd 41bd 9c6c 44be f738 813d 9ba6 043e
00000310: a932 613d 4237 27be 4049 32ba f8b9 ddbd
00000320: 2376 ed3c 74a5 243d c752 0a3d b2f7 463d
00000330: 8095 723c 1940 543d 757f 433e 1a5e aa3d
00000340: 8c0d 9d3d 637c 313d 276f 2cbd 0f0d 1b3e
00000350: 9162 3abe 65b1 a03d 87e4 ed3b a235 24bd
00000360: 41e6 2a3d 6306 72bc 0ec5 053e 5b70 9abb
00000370: 97ca 1e3e 5595 62be 6c08 e93d e4a9 a3bc
00000380: a93e 1f3e 6a0e 533d f86e f53d 9af0 1e3e
00000390: 6ac3 98bc b114 8b3d 3a2f abbd 1105 3d3d
000003a0: 70bb 6a3b f1e0 09bd 032a bfbd 68d3 0dbc
000003b0: f0b9 003e b023 a7bd 795e 043d 147a d03d
000003c0: 0473 10bd f573 0fbe 58cb ef3d 60da 633d
000003d0: a17e c9bb ad13 6abd ee29 bdbc 5757 e63d
000003e0: a453 fc3d 78da 89bc 8961 c73d 58ea 94bd
000003f0: 8dec d83c e2fd 92bc 9674 7a3d eec9 ef3c

bias f4 [384]
0.113984935 -0.042762756 -0.009165709 0.045297313 0.007578528 -0.08224183 -0.0043790955 0.078509495
0.008078404 0.025766224 -0.19457266 0.04012955 -0.03718085 -0.10249057 -0.022017509 0.008626263
0.07733022 0.035091024 -0.044904083 -0.039401457 -0.020955168 0.03200747 -0.0004453137 0.0012665779
0.0116859535 -0.14162824 0.0056938995 -0.088920005 0.07505269 0.040554915 0.19018845 0.011990968
0.023318758 0.13035792 0.07146247 -0.103163816 0.028867839 0.010060778 0.028589139 0.03716091
0.049325313 -0.09206581 0.063072614 -0.10676333 -0.07585702 0.035612337 -0.007685573 0.068281755
0.019841278 -0.021635393 -0.058228105 0.1624914 -0.045085497 0.063166305 -0.04809267 -0.022391817
-0.10967256 0.0142613035 0.012196514 -0.054051258 0.015906928 0.03891752 0.01231912 -0.007397549
-0.07311105 -0.06492423 0.02986208 0.085705824 0.05974913 -0.09412081 0.106632255 -0.010152516
-0.030407522 0.06051877 0.0030735843 0.07800494 0.05233408 0.0031092993 0.09823473 0.08187977
-0.12623446 0.08453125 -0.0047073923 0.094295174 -0.05257525 -0.0064461767 0.028491493 0.01356783
-0.05268923 -0.08581786 0.02868972 0.104181275 0.021982273 0.025090724 -0.009597939 -0.019380579
0.15216626 -0.04052584 0.055097807 0.01923373 -0.057884697 0.010584938 -0.04603854 0.014997059
0.04866107 0.054095414 0.048349418 0.026863769 0.028776467 -0.046891525 0.0074157696 0.08966625
-0.13665986 0.016553815 0.13325249 0.018866176 -0.030795261 -0.08306113 -0.07724486 0.10214455
0.05381494 -0.0010960839 0.06091713 -0.05035698 -0.046248306 0.08316009 0.040035363 -0.0001388042
-0.022292776 -0.020816468 0.018672239 -0.04161233 -0.071576454 0.061049182 -0.051034637 0.016436659
0.003743755 -0.02924992 -0.1853837 -0.0015587417 0.121970065 0.09479341 0.010712716 0.01880141
0.04457925 0.03378286 0.012530984 0.065479405 0.09259613 0.026322957 0.04634231 0.05146422
0.04063062 0.033852417 -0.043885823 0.0062597976 -0.0338337 0.04011291 -0.053120892 0.037341382
-0.083829716 -0.00025127205 -0.0027434945 0.0800211 0.017235056 -0.05084577 0.04240291 0.013175507
0.09239237 0.042467248 0.08201959 0.07116486 0.33395272 -0.12783577 -0.004664413 0.060399316
0.021071386 -0.0034021395 -0.075651124 -0.00219779 -0.033925615 -0.016358986 -0.07296169 -0.055687208
0.12916595 0.03199338 0.051113885 0.031241195 -0.039512765 0.020482356 0.01904934 0.05551942
0.053905528 -0.13706014 -0.03651439 0.060634702 -0.022801563 -0.055111296 0.00015521821 -0.048125323
-0.0008047228 -0.026947355 0.018995028 -0.10050962 0.26563883 0.056147587 0.08516279 -0.018203288
0.07078799 0.07807252 0.029896691 0.07926685 -0.06459306 -0.10340181 0.024932133 0.031766463
0.1002187 0.043041915 0.020207658 0.10460794 0.025348734 -0.049821466 0.04422562 -0.052025937
-0.10097942 0.005971515 0.02134761 0.0804423 0.034683265 0.018727465 -0.013420242 0.036879376
-0.031255417 0.09155227 0.029783703 0.016861418 0.096963376 0.021612737 0.031234907 -0.05937174
0.035226773 0.042236723 0.14183553 0.06777597 -0.052574195 0.14003879 -0.026091065 -0.049502406
0.06424811 0.01575707 -0.016178973 0.028812574 0.030690169 0.12343281 0.03447305 0.11750456
00000000: ef70 e93d 0028 2fbd c52b 16bc ad89 393d
00000010: 4d55 f83b 686e a8bd 847e 8fbb 96c9 a03d
00000020: 485b 043c b013 d33c 0e3e 47be e25e 243d
00000030: f24a 18bd 93e6 d1bd 105e b4bc 2b55 0d3c
00000040: 4e5f 9e3d 9bbb 0f3d 58ed 37bd 6c63 21bd
00000050: 2caa abbc 441a 033d fe78 e9b9 4d03 a63a
00000060: 7176 3f3c fe06 11be e493 ba3b b11b b6bd
00000070: 3ab5 993d e91c 263d c3c0 423e c475 443c
00000080: fb06 bf3c 8c7c 053e ea5a 923d 8d47 d3bd
00000090: 3f7c ec3c f6d5 243c c533 ea3c 0a36 183d
000000a0: 5709 4a3d 008d bcbd 372c 813d bca6 dabd
000000b0: ed5a 9bbd 3ede 113d 42d7 fbbb 4ed7 8b3d
000000c0: 2d8a a23c b53c b1bc 9880 6ebd 2564 263e
000000d0: 92ab 38bd 565d 813d d2fc 44bd 0b6f b7bc
000000e0: 029c e0bd 3ea8 693c e3d3 473c da64 5dbd
000000f0: 3f4f 823c fa67 1f3d 22d6 493c 2467 f2bb
00000100: 3fbb 95bd fff6 84bd 52a1 f43c 8986 af3d
00000110: 81bb 743d 69c2 c0bd 0362 da3d bd56 26bc
00000120: 3219 f9bc 88e2 773d 306e 493b 0ec1 9f3d
00000130: 435c 563d 63c5 4b3b 4a2f c93d 95b0 a73d
00000140: 9b43 01be b81e ad3d 7840 9abb d41d c13d
00000150: 2559 57bd 733a d3bb fe66 e93c 9b4b 5e3c
00000160: a9d0 57bd 46c1 afbd b406 eb3c fe5c d53d
00000170: 2b14 b43c 108b cd3c ad40 1dbc 05c4 9ebc
00000180: 79d1 1b3e 6cfe 25bd 3dae 613d 0e90 9d3c
00000190: 8118 6dbd 736c 2d3c e892 3cbd 39b6 753c
000001a0: d550 473d 2793 5d3d 0a0a 463d 6811 dc3c
000001b0: a0bc eb3c 5411 40bd fcff f23b f0a2 b73d
000001c0: 90f0 0bbe de9b 873c 5773 083e 3d8d 9a3c
000001d0: 5846 fcbc f41b aabd 8e32 9ebd 2931 d13d
000001e0: 0e6d 5c3d 79aa 8fba 3e84 793d 1f43 4ebd
000001f0: dd6e 3dbd d64f aa3d 1ffc 233d f88b 11b9
00000200: 579f b6bc 4c87 aabc 86f6 983c b171 2abd
00000210: ad96 92bd b50e 7a3d b209 51bd 2ca6 863c
00000220: c959 753b 879d efbc 3ad5 3dbe b14e ccba
00000230: 71cb f93d 0c23 c23d 6384 2f3c 6a05 9a3c
00000240: bb98 363d e55f 0a3d c24e 4d3c 111a 863d
00000250: 0aa3 bd3d 3ea3 d73c 6fd1 3d3d 25cc 523d
00000260: 4b6c 263d d5a8 0a3d 9fc1 33bd fd1e cd3b
00000270: 3595 0abd 6f4d 243d 4b95 59bd 47f3 183d
00000280: eaae abbd 2abd 83b9 33cc 33bb 1ae2 a33d
00000290: 8830 8d3c a743 50bd acae 2d3d 15de 573c
000002a0: 3638 bd3d 23f2 2d3d e3f9 a73d e2be 913d
000002b0: dafb aa3e 61e7 02be efd7 98bb 4665 773d
000002c0: e69d ac3c 6ef6 5ebb faee 9abd cc08 10bb
000002d0: 96f5 0abd 4803 86bc f06c 95bd 4518 64bd
000002e0: 1444 043e 7e0b 033d cb5c 513d 89ed ff3c
000002f0: 23d8 21bd 9dca a73c 5d0d 9c3c 5568 633d
00000300: 0bcc 5c3d 7e59 0cbe 1d90 15bd 185c 783d
00000310: 58ca babc 62bc 61bd 12c2 2239 0f1f 45bd
00000320: 08f4 52ba b3c0 dcbc 769b 9b3c fdd7 cdbd
00000330: d001 883e 03fb 653d d469 ae3d 101f 95bc
00000340: 4bf9 903d 7ce4 9f3d e8e9 f43c a956 a23d
00000350: 5e49 84bd 54c4 d3bd 793e cc3c 8d1d 023d
00000360: 763f cd3d b84c 303d 888a a53c b03c d63d
00000370: 26a8 cf3c 9811 4cbd ec25 353d 2619 55bd
00000380: 4cce cebd b3ac c33b 2fe1 ae3c efbe a43d
00000390: 0a10 0e3d 576a 993c 93e0 5bbc d40e 173d
000003a0: ae05 00bd c27f bb3d f4fc f33c f520 8a3c
000003b0: bc94 c63d 320d b13c 59e0 ff3c c82f 73bd
000003c0: f349 103d 6a00 2d3d 553d 113e 21ce 8a3d
000003d0: 0a58 57bd 5466 0f3e eebc d5bc 09c3 4abd
000003e0: 8394 833d f914 813c c489 84bc 5908 ec3c
000003f0: f369 fb3c 57ca fc3d 9d33 0d3d 3ba6 f03d

attn_edge f4 [1, 3, 128]
-0.17218994 -0.017392233 0.024485238 0.108525276 -0.08216057 0.06987854 0.13003601 0.15704603
-0.20496601 0.15263793 0.09544908 -0.09037534 0.07653783 0.15153544 0.05297571 0.10468174
0.014821386 0.16899 0.08498049 -0.03489127 -0.04986216 0.032118365 -0.0038249039 -0.1988059
-0.042951524 -0.55562997 -0.0070130355 0.10381267 0.020074537 0.04457436 -0.08985259 -0.020963512
0.07641853 -0.061185174 0.0068205222 0.0023795702 0.074182786 -0.087580666 -0.09044634 -0.11681603
0.02125778 -0.20816337 0.050416265 -0.04240172 0.07226219 -0.04454563 0.014184043 0.078398705
0.099677585 -0.06698426 -0.0008913957 -0.044089902 0.09662165 0.0030532663 -0.047975104 -0.034955297
0.10902273 -0.07862273 -0.018242506 -0.12820311 -0.12031297 0.064778626 -0.016916523 0.14960489
-0.03890471 -0.024561794 -0.037449803 -0.0012770199 -0.11716476 -0.05376411 -0.11049442 -0.048207026
0.26803306 -0.044677366 -0.044919085 -0.06977107 0.07583459 -0.027139695 0.024461357 -0.010481447
0.058996044 0.083258845 -0.20464225 0.038321402 0.08356448 -0.039333265 -0.02007587 0.08225363
0.06377149 -0.19413035 0.017865911 0.0059046927 0.025199492 0.011163844 -0.11638535 0.1514537
0.12966023 0.052345835 -0.18108906 -0.057180803 0.015588323 0.04476092 -0.0139682 0.021585187
0.02097466 0.084563784 -0.18099017 0.014823805 0.18453504 -0.0025337175 0.059094474 0.07874617
0.03643311 0.028359933 -0.022324797 0.29260543 0.0037494276 0.11967376 -0.044774298 -0.07166167
-0.09900819 -0.10237212 0.121607825 0.047167566 0.08218661 -0.010654693 -0.112683356 -0.19484384
0.16126351 0.06091179 -0.08122986 0.17127651 0.20713158 -0.35100868 0.26757884 -0.31725234
0.2834364 0.22434038 -0.044098634 -0.021692997 0.008979998 -0.20563881 -0.060506705 -0.19893998
0.14381818 -0.19321562 0.41545948 -0.27135402 0.17248285 0.026009982 -0.015499335 0.25621423
0.14650221 0.35372967 -0.31307492 0.20985991 0.05894406 0.10965492 -0.032545857 0.0064178607
0.24711448 0.12549925 -0.064427994 -0.06599883 0.13861755 0.12369852 0.053168252 -0.14373808
-0.231124 0.48265553 -0.041694656 0.03801909 -0.06894146 0.075295135 -0.010299973 0.61588466
0.009536682 0.29590973 -0.3496416 -0.018135224 0.09126311 0.094386235 -0.26796848 0.37224942
0.29844958 0.04587676 -0.10281882 0.050681334 -0.1717223 -0.017193979 -0.009810294 -0.08274769
0.025127182 0.03181396 0.195151 -0.043683406 -0.26990765 -0.55720824 0.40029427 0.16734947
0.021781728 -0.38243106 -0.12179847 0.27057126 -0.35485917 0.03811764 0.12312415 0.1347073
0.20616968 0.07369493 -0.30145568 0.20679 0.15345155 -0.23317543 0.08241858 -0.24411933
-0.11524629 -0.04716173 0.0034314394 0.044333197 0.16808926 0.010532272 -0.26048964 -0.44980434
0.059069067 0.05181762 0.20708798 0.021931883 0.10640264 -0.006607729 -0.1902412 -0.016812464
-0.26927367 0.17709081 0.00080727943 -0.125569 -0.031493586 -0.15809569 -0.11768558 -0.47358927
-0.059966 -0.01669801 0.1541875 0.22979158 0.18415034 -0.32551688 0.3431088 -0.20916298
-0.26417038 -0.15992121 -0.095975764 -0.11559945 -0.059425514 0.43339264 -0.031241043 -0.17471562
00000000: 8f52 30be 287a 8ebc 4495 c83c 8042 de3d
00000010: cd43 a8bd 7b1c 8f3d 2928 053e add0 203e
00000020: 9ce2 51be 1e4d 1c3e cf7a c33d b516 b9bd
00000030: debf 9c3d 1b2c 1b3e 0ffd 583d 6163 d63d
00000040: 66d5 723c b70b 2d3e 400a ae3d 26ea 0ebd
00000050: 443c 4cbd 8c8e 033d 3dab 7abb c693 4bbe
00000060: f0ed 2fbd c43d 0ebf 9bcd e5bb bd9b d43d
00000070: 5b73 a43c 9b93 363d a204 b8bd acbb abbc
00000080: 5181 9c3d 4e9d 7abd b07e df3b 90f2 1b3b
00000090: 25ed 973d 7e5d b3bd ee3b b9bd 3e3d efbd
000000a0: cc24 ae3c c728 55be 4981 4e3d 6dad 2dbd
000000b0: 33fe 933d 7b75 36bd 3064 683c 808f a03d
000000c0: c323 cc3d 0b2f 89bd 8eac 69ba 9d97 34bd
000000d0: 92e1 c53d 4f19 483b 8b81 44bd 492d 0fbd
000000e0: 4f47 df3d f404 a1bd 4f71 95bc ad47 03be
000000f0: a566 f6bd a8aa 843d 8594 8abc 0632 193e
00000100: 8c5a 1fbd d135 c9bc f764 19bd ad61 a7ba
00000110: 14f4 efbd c137 5cbd e64a e2bd bb74 45bd
00000120: a13b 893e 9dff 36bd 13fd 37bd 22e4 8ebd
00000130: 2a4f 9b3d 1154 debc 2f63 c83c 60ba 2bbc
00000140: d6a5 713d 9d83 aa3d bd8d 51be e7f6 1c3d
00000150: db23 ab3d eb1b 21bd 2776 a4bc 9774 a83d
00000160: a09a 823d 1bca 46be 885b 923c 277c c13b
00000170: 2a6f ce3c 8ee8 363c 715b eebd ae16 1b3e
00000180: a7c5 043e 9668 563d 696f 39be 6b36 6abd
00000190: 2a66 7f3c 3a57 373d e1da 64bc 6bd3 b03c
000001a0: 0dd3 ab3c c72f ad3d 7d55 39be 8bdf 723c
000001b0: c1f6 3c3e ba0c 26bb 0c0d 723d ac45 a13d
000001c0: e23a 153d 1753 e83c 7ee2 b6bc 61d0 953e
000001d0: f5b8 753b 8417 f53d 4165 37bd 5bc3 92bd
000001e0: cec4 cabd 79a8 d1bd 860d f93d c732 413d
000001f0: 7451 a83d 0591 2ebc 88c6 e6bd 2585 47be
00000200: 4322 253e a47e 793d d75b a6bd 1c63 2f3e
00000210: 4d1a 543e 69b7 b3be 1800 893e e66e a2be
00000220: 931e 913e 7cb9 653e c5a0 34bd 83b5 b1bc
00000230: d720 133c fb92 52be e1d5 77bd ecb6 4bbe
00000240: 1345 133e 51da 45be 1bb7 d43e eaee 8abe
00000250: 589f 303e e312 d53c ecf0 7dbc 832e 833e
00000260: ad04 163e 0e1c b53e 5b4b a0be 84e5 563e
00000270: 546f 713d c292 e03d ce4e 05bd eb4c d23b
00000280: 940b 7d3e e082 003e d3f2 83bd 652a 87bd
00000290: c2f1 0d3e a655 fd3d f4c6 593d 1330 13be
000002a0: c5ab 6cbe a01e f73e 04c8 2abd e8b9 1b3d
000002b0: 2e31 8dbd 5634 9a3d 38c1 28bc 9eaa 1d3f
000002c0: be3f 1c3c 7b81 973e 3904 b3be 5290 94bc
000002d0: 27e8 ba3d 924d c13d 2a33 89be 7a97 be3e
000002e0: 62ce 983e 45e9 3b3d ac92 d2bd 3b97 4f3d
000002f0: f8d7 2fbe 63da 8cbc 5bbb 20bc 9f77 a9bd
00000300: 85d7 cd3c 5b4f 023d aad5 473e 5fed 32bd
00000310: 5631 8abe 33a5 0ebf 5ff3 cc3e a95d 2b3e
00000320: 986f b23c 01ce c3be 7a71 f9bd 5188 8a3e
00000330: 1ab0 b5be 3e21 1c3d 8428 fc3d b6f0 093e
00000340: 251e 533e 5eed 963d 6658 9abe c2c0 533e
00000350: 6722 1d3e 8ac5 6ebe 13cb a83d 6bfa 79be
00000360: 3f06 ecbd a82c 41bd 00e2 603b ba96 353d
00000370: 971f 2c3e 8d8f 2c3c e65e 85be c14c e6be
00000380: 68f2 713d b63e 543d df0e 543e 7eaa b33c
00000390: a1e9 d93d a685 d8bb 97ce 42be 4bba 89bc
000003a0: 3dde 89be 4b57 353e 9b9f 533a 2995 00be
000003b0: 6bff 00bd d6e3 21be 2305 f1bd 4b7a f2be
000003c0: e99e 75bd 44ca 88bc 54e3 1d3e 7c4e 6b3e
000003d0: e891 3c3e 26aa a6be f5ab af3e d22e 56be
000003e0: 5741 87be 63c2 23be f18e c4bd 68bf ecbd
000003f0: 2b68 73bd a4e5 dd3e 37ed ffbc a7e8 32be

weight f4 [384, 8]
0.13076445 -0.009045602 0.03408731 -0.04734287 0.060371723 0.079215825 0.1047457 0.027807314
-0.019451555 -0.12007942 -0.034088794 -0.16821964 0.020405382 -0.024298444 -0.1271381 0.13449664
0.052139606 -0.17269754 0.0003747324 -0.11698319 -0.17557442 -0.020994069 0.05886383 -0.06496267
0.03815936 0.0962129 0.08190433 0.05797762 0.010757047 -0.14631642 0.04508723 -0.005628089
0.010187126 0.122148134 0.082211554 0.108608834 0.12524687 -0.06835446 -0.02500968 -0.024123687
-0.19630359 0.083860144 -0.30133757 0.008809776 0.008814675 0.14579482 -0.05989576 0.034336604
-0.2044839 0.07675833 -0.07267738 0.05411847 0.15427625 -0.08535785 -0.10186306 0.09394226
0.14927475 -0.11348924 0.007096093 0.13678294 0.0033134643 0.12661184 -0.02750135 -0.09087645
0.014431675 0.089919455 0.13660245 -0.04395641 -0.062076423 -0.07582026 0.16563287 0.061612535
-0.03256742 0.0016301895 0.030174825 0.008490784 0.12991923 -0.14145917 -0.01242659 0.04057385
-0.0448571 0.0013722437 -0.09966726 -0.28434965 -0.1432998 -0.07166081 -0.06835843 0.058518242
0.06170573 0.016263997 0.04895472 0.19287221 -0.0032218955 0.076940835 0.061215993 0.0704432
0.014968248 -0.0155219715 -0.06885463 0.07805588 0.07039533 -0.17862365 0.07091202 -0.12910724
-0.13741276 -0.06027432 -0.15800712 0.026046967 0.03836335 0.0021521174 -0.0514563 -0.17130956
-0.16840436 0.022629386 -0.089356996 0.044515762 -0.11840869 0.098553516 -0.013887623 -0.04959969
-0.09148982 0.03678298 0.1259554 0.08647771 -0.024963912 0.020117197 0.087662786 0.07566649
0.15391655 0.12154831 0.14058456 -0.08444807 0.03281916 0.022996303 -0.07583862 0.09070102
0.07358562 -0.15813619 0.043685474 0.1245374 0.06548866 -0.037485532 -0.11103847 0.22340436
0.025706986 0.039293043 -0.05586166 -0.11894183 -0.16294311 -0.02387642 0.1178847 0.029175045
0.07826495 0.054518726 0.13740031 -0.039540324 0.008877433 -0.12604755 -0.14652617 0.0066842698
-0.00052415935 0.036241133 -0.04206722 -0.17272447 -0.14323501 0.047027577 0.15851668 -0.042709988
0.078874335 -0.07242142 -0.0023260815 -0.102748126 0.17970231 -0.14159438 -0.16269135 -0.013452117
-0.1150204 0.093242414 -0.008631926 0.041144244 -0.024743274 -0.012014661 0.08579128 0.11323491
-0.007789365 0.041538883 0.08748104 -0.002675608 0.0073140934 0.16908525 0.09238866 0.061692484
-0.076435424 -0.06253011 -0.12291327 0.10515014 0.11198144 0.10732461 0.2572816 0.06918937
-0.14246106 -0.18878433 0.0082996115 -0.042943403 -0.1610088 -0.2626836 -0.015648197 0.026204303
0.0039131297 0.16581537 0.013152185 0.11247093 0.076339826 -0.011023317 0.0028512857 0.17809527
0.18254048 -0.02038536 -0.07747323 -0.18018496 -0.08199186 -0.087452434 -0.16004604 0.195396
0.00096663693 -0.08405837 0.2137077 0.24548532 0.1575376 -0.013822499 -0.0113235405 0.113513656
0.17337489 0.18615685 -0.018288556 -0.0310034 -0.03106393 0.25792152 0.07006726 0.07276437
0.15607692 0.03810914 0.31285155 0.2346849 0.19932476 0.27664894 0.09495413 0.2286885
0.07462031 0.1161872 0.004145246 0.1149798 0.050749015 0.1597255 0.083364986 -0.057812277
00000000: 1ee7 053e 0134 14bc 239f 0b3d 99ea 41bd
00000010: 5748 773d e83b a23d ea84 d63d 2acc e33c
00000020: de58 9fbc 33ec f5bd b1a0 0bbd c541 2cbe
00000030: 3029 a73c 880d c7bc 7d30 02be 7db9 093e
00000040: 5790 553d a0d7 30be bb77 c439 e294 efbd
00000050: c8c9 33be c1fb abbc 331b 713d 260b 85bd
00000060: fd4c 1c3d 450b c53d 75bd a73d f179 6d3d
00000070: 533e 303c f9d3 15be 63ad 383d d56b b8bb
00000080: e7e7 263c cd28 fa3d 885e a83d 4f6e de3d
00000090: b740 003e 6cfd 8bbd 1ae1 ccbc 0a9f c5bc
000000a0: cf03 49be debe ab3d eb48 9abe e156 103c
000000b0: 6d6b 103c 3d4b 153e 4255 75bd 8aa4 0c3d
000000c0: 3a64 51be 7933 9d3d e1d7 94bd 54ab 5d3d
000000d0: 98fa 1d3e 19d0 aebd 949d d0bd cd64 c03d
000000e0: 7bdb 183e 0c6d e8bd 5886 e83b d410 0c3e
000000f0: b526 593b 89a6 013e 834a e1bc 6f1d babd
00000100: d572 6c3c b127 b83d 83e1 0b3e a30b 34bd
00000110: d943 7ebd a747 9bbd aa9b 293e 6d5d 7c3d
00000120: 6a65 05bd 15ac d53a 3231 f73c ee1c 0b3c
00000130: 8c09 053e acda 10be e598 4bbc c430 263d
00000140: 14bc 37bd dcdc b33a 591e ccbd 4796 91be
00000150: 2fbd 12be e7c2 92bd 81ff 8bbd d3b0 6f3d
00000160: 26bf 7c3d 133c 853c bf84 483d 4b80 453e
00000170: 7026 53bb 2893 9d3d 9fbd 7a3d 8644 903d
00000180: 623d 753c de4f 7ebc a803 8dbd c3db 9f3d
00000190: 6d2b 903d 1ee9 36be 523a 913d b034 04be
000001a0: eeb5 0cbe 35e2 76bd 9ecc 21be 7360 d53c
000001b0: e322 1d3d 8a0a 0d3b d7c3 52bd c66b 2fbe
000001c0: 3172 2cbe 4361 b93c cd00 b7bd 2956 363d
000001d0: 4180 f2bd 6dd6 c93d ea88 63bc 0b29 4bbd
000001e0: 045f bbbd c0a9 163d 74fa 003e 3a1b b13d
000001f0: 1e81 ccbc d2cc a43c 8c88 b33d 08f7 9a3d
00000200: 4d9c 1d3e 52ee f83d 66f5 0f3e 1cf3 acbd
00000210: 626d 063d be62 bc3c 4751 9bbd 75c1 b93d
00000220: 0fb4 963d 74ee 21be 8aef 323d 770d ff3d
00000230: eb1e 863d 6e8a 19bd 2368 e3bd 1dc4 643e
00000240: 7597 d23c bef1 203d 32cf 64bd c697 f3bd
00000250: 8fda 26be 7b98 c3bc 896d f13d 8100 ef3c
00000260: 6049 a03d 074f 5f3d abb2 0c3e 09f5 21bd
00000270: a772 113c 9c12 01be f50a 16be b807 db3b
00000280: bd67 09ba 9571 143d ad4e 2cbd afde 30be
00000290: 33ac 12be fd9f 403d 3252 223e abf0 2ebd
000002a0: de88 a13d ae51 94bd 2c71 18bb 9c6d d2bd
000002b0: e203 383e 1efe 10be 9098 26be 4566 5cbc
000002c0: d18f ebbd e1f5 be3d ec6c 0dbc de86 283d
000002d0: 68b2 cabc 24d9 44bc 57b3 af3d b4e7 e73d
000002e0: ee3d ffbb ad24 2a3d 4229 b33d 4159 2fbb
000002f0: 10ab ef3b af24 2d3e 4436 bd3d 42b1 7c3d
00000300: 2d8a 9cbd c90f 80bd f4b9 fbbd f558 d73d
00000310: 8656 e53d 01cd db3d 6aba 833e 28b3 8d3d
00000320: 50e1 11be ae50 41be 18fb 073c 6ce5 2fbd
00000330: 7edf 24be 777e 86be a630 80bc 68aa d63c
00000340: b639 803b 81cb 293e 437c 573c 2957 e63d
00000350: 0e58 9c3d 259b 34bc a3dc 3a3b 9b5e 363e
00000360: e4eb 3a3e 33ff a6bc 49aa 9ebd 6882 38be
00000370: 59eb a7bd 431a b3bd 1ce3 23be e415 483e
00000380: e865 7d3a cb26 acbd 31d6 5a3e 8160 7b3e
00000390: 8951 213e c377 62bc 5f86 39bc d979 e83d
000003a0: 3089 313e e79f 3e3e e2d1 95bc d8fa fdbc
000003b0: c879 febc 4a0e 843e 6c7f 8f3d 7c05 953d
000003c0: a1d2 1f3e 5418 1c3d 142e a03e 3d51 703e
000003d0: ca1b 4c3e eea4 8d3e 5077 c23d 512d 6a3e
000003e0: 88d2 983d 8ef3 ed3d d8d4 873b 887a eb3d
000003f0: 33de 4f3d 158f 233e 43bb aa3d 91cc 6cbd

weight f4 [384, 8]
0.03968774 0.03795437 0.14759134 0.112497166 0.029708238 0.08613522 0.008716947 0.022387708
-0.14732641 -0.06872464 0.04355817 -0.107895575 -0.00854063 -0.056513947 0.11728897 -0.038497154
0.1754518 -0.10019009 0.04203444 -0.033234447 0.096088514 -0.22860248 -0.17711823 -0.1324535
0.12804814 0.13468295 -0.015685009 0.046198297 0.15360375 0.023577044 0.035151936 0.107125275
-0.07459813 0.124646775 0.043624096 -0.022517841 0.19166219 -0.17387663 -0.14822476 0.15393998
-0.1005303 -0.06778659 -0.05893452 -0.23694369 -0.13432048 -0.10716389 -0.075287804 -0.18874411
-0.0063170455 0.15625146 0.0076631545 0.03152525 -0.029575542 0.032139916 -0.14882231 0.13672996
0.0010357057 0.044882413 0.15424131 0.11376357 0.065510504 0.13437559 0.260205 0.061274055
0.023039991 0.026079554 0.10756515 -0.07657642 0.22976272 -0.039756026 0.05426222 -0.051783536
0.15858163 -0.10685085 -0.19440858 0.12695079 0.2246641 0.028424501 0.14079545 0.12475975
-0.28178826 -0.21236941 -0.31925532 -0.32170665 -0.17795312 -0.17520106 -0.21676916 -0.32074055
0.1857217 0.17979938 -0.05878626 -0.012656228 0.19952798 0.07601534 0.057816114 0.037679452
-0.044484455 -0.16036825 0.09802872 -0.09511015 -0.1295271 -0.057961214 -0.08366069 -0.03598476
-0.12266352 -0.1324783 0.033541113 -0.2171165 -0.2559253 -0.06826436 -0.1637004 -0.12845099
-0.097583875 0.11841726 -0.1163995 0.026178978 -0.19429527 -0.03172517 0.035051476 -0.09367819
0.20475361 0.04960675 -0.20926207 0.0477294 0.11367046 -0.101797484 0.081724785 -0.01304227
0.2818057 0.121157974 0.110112205 0.41395098 -0.100109965 0.12919636 0.07987806 -0.08464502
0.060430784 -0.014172364 0.004689664 0.09529759 0.049365673 -0.0021492576 0.033506617 -0.088672355
-0.008746254 -0.2423913 0.18965034 0.09611298 -0.19138323 -0.0651835 -0.120338075 -0.096574746
-0.109270066 0.084747605 0.036612358 -0.23690885 -0.23277035 0.028779125 -0.1285665 -0.15199238
0.23723511 -0.14341302 -0.0649148 -0.08721723 -0.09921385 -0.15181036 -0.07949349 -0.06255474
0.033994652 0.12444331 0.07179476 0.07808828 0.12772901 -0.08689909 0.049889464 0.23709105
0.03229867 0.12617949 0.0026821936 -0.06601089 -0.1140638 -0.04164195 0.0039041974 0.02838395
0.04823674 0.22414744 -0.019834902 0.086302795 -0.06478225 0.030691022 0.030696327 -0.07996061
0.07592453 0.06907128 -0.05331409 0.109111264 -0.018332347 0.061294653 -0.0137233995 0.08527912
-0.20734611 -0.09730837 -0.19055942 0.105449736 -0.015936712 -0.18755504 -0.19772634 -0.11910924
0.14551401 0.05811348 0.19235122 -0.019551113 -0.105921805 -0.008394679 -0.0967806 0.15786077
-0.16409609 -0.22832218 -0.07437227 -0.036077276 -0.19961786 -0.2426798 -0.26040563 -0.2006827
0.21685928 0.009392778 0.106764436 0.09224179 0.27709395 0.14420435 0.23329647 0.17236899
0.15877676 -0.13424824 -0.07323551 0.16266167 0.14063956 -0.031463962 0.03328332 -0.09253263
0.222528 0.09196812 0.19990547 0.20745632 0.056297753 0.27148396 0.23199026 0.063921735
-0.11942402 0.17406099 -0.04250189 -0.118749596 0.04524978 0.02962214 0.043620028 0.107151344
00000000: 9d8f 223d 0b76 1b3d 2f22 173e ea64 e63d
00000010: b15e f33c aa67 b03d 87d1 0e3c 6d66 b73c
00000020: bcdc 16be 81bf 8cbd 0d6a 323d 5bf8 dcbd
00000030: 00ee 0bbc 2b7b 67bd 3335 f03d 31af 1dbd
00000040: a3a9 333e 7630 cdbd 4e2c 2c3d d820 08bd
00000050: 0eca c43d c516 6abe 7b5e 35be e4a1 07be
00000060: 0d1f 033e 54ea 093e d97d 80bc 6d3a 3d3d
00000070: 4d4a 1d3e a524 c13c 7afb 0f3d 7f64 db3d
00000080: e8c6 98bd cf46 ff3d 2eaf 323d 5677 b8bc
00000090: 1843 443e b70c 32be 3bc8 17be 71a2 1d3e
000000a0: d4e2 cdbd b2d3 8abd 5365 71bd 5ea1 72be
000000b0: 4f8b 09be be78 dbbd 7e30 9abd 2346 41be
000000c0: 38ff cebb 6200 203e 331b fb3b 9f20 013d
000000d0: 6848 f2bc 25a5 033d e064 18be f002 0c3e
000000e0: 84c0 873a 9fd6 373d 6ff1 1d3e e0fc e83d
000000f0: 5f2a 863d c199 093e 9739 853e 81fa 7a3d
00000100: 5dbe bc3c caa4 d53c 1e4b dc3d 19d4 9cbd
00000110: eb46 6b3e 37d7 22bd 1042 5e3d f91a 54bd
00000120: 3963 223e 9ed4 dabd 0b13 47be 63ff 013e
00000130: 590e 663e 80da e83c af2c 103e 0a82 ff3d
00000140: 8d46 90be 5e77 59be 6f75 a3be bcb6 a4be
00000150: 5839 36be e867 33be bcf8 5dbe 1b38 a4be
00000160: d42d 3e3e 541d 383e ddc9 70bd 115c 4fbc
00000170: 1051 4c3e eead 9b3d 97d0 6c3d c555 1a3d
00000180: 5535 36bd 9337 24be 48c3 c83d 1cc9 c2bd
00000190: c1a2 04be bd68 6dbd 4c56 abbd c164 13bd
000001a0: 0337 fbbd 64a8 07be 6862 093d ca53 5ebe
000001b0: a408 83be 2fce 8bbd 14a1 27be a888 03be
000001c0: 0eda c7bd c084 f23d dc62 eebd 4c75 d63c
000001d0: 57f5 46be 40f2 01bd 2392 0f3d 5ada bfbd
000001e0: eeaa 513e 7330 4b3d cc48 56be e77f 433d
000001f0: 0fcc e83d 337b d0bd 535f a73d 3faf 55bc
00000200: d648 903e ac21 f83d 8282 e13d 62f1 d33e
00000210: 7406 cdbd 0d4c 043e 1c97 a33d 5e5a adbd
00000220: 4586 773d 3433 68bc c1ab 993b 622b c33d
00000230: a933 4a3d 8fda 0cbb 3c3e 093d da99 b5bd
00000240: 734c 0fbc 6d35 78be b333 423e e2d6 c43d
00000250: f7f9 43be ed7e 85bd cf73 f6bd fbc8 c5bd
00000260: fcc8 dfbd 2790 ad3d d7f6 153d 3c98 72be
00000270: 5a5b 6ebe 33c2 eb3c f0a6 03be e4a3 1bbe
00000280: c3ed 723e ddda 12be 0df2 84bd f29e b2bd
00000290: a230 cbbd 2d74 1bbe 7ccd a2bd b31c 80bd
000002a0: fa3d 0b3d 22dc fe3d 2209 933d c0ec 9f3d
000002b0: 65cb 023e 26f8 b1bd e558 4c3d ffc7 723e
000002c0: 9c4b 043d 3235 013e bec7 2f3b b830 87bd
000002d0: 489a e9bd c090 2abd 90dd 7f3b 7585 e83c
000002e0: e393 453d e886 653e ce7c a2bc 85bf b03d
000002f0: 8eac 84bd bd6b fb3c dd76 fb3c 63c2 a3bd
00000300: 527e 9b3d 3e75 8d3d e05f 5abd ba75 df3d
00000310: b82d 96bc 1a10 7b3d 1cd8 60bc d2a6 ae3d
00000320: 8a52 54be 9c49 c7bd 0222 43be 08f6 d73d
00000330: b58d 82bc 6e0e 40be c678 4abe 8cef f3bd
00000340: a001 153e 6708 6e3d b8f7 443e a829 a0bc
00000350: 88ed d8bd d689 09bc e834 c6bd 41a6 213e
00000360: ce08 28be 4acd 69be 7d50 98bd c4c5 13bd
00000370: a068 4cbe 0e81 78be e353 85be c47f 4dbe
00000380: 5c10 5e3e 2be4 193c 50a7 da3d 43e9 bc3d
00000390: 42df 8d3e 4eaa 133e 45e5 6e3e 7f81 303e
000003a0: 6096 223e 5f78 09be 80fc 95bd c890 263e
000003b0: d103 103e 5be0 00bd 1754 083d bf81 bdbd
000003c0: 61de 633e c859 bc3d 05b4 4c3e 6e6f 543e
000003d0: 7998 663d f2ff 8a3e db8e 6d3e 66e9 823d
000003e0: 9594 f4bd 0b3d 323e 7616 2ebd fd32 f3bd
000003f0: d557 393d 21aa f23c eaaa 323d 2a72 db3d

weight f4 [384, 8]
0.18322434 0.1939741 0.06331178 0.121737845 0.83484524 0.119461656 -0.05651535 -0.13610382
0.0096815685 -0.034727197 -0.012780813 -0.09897431 0.26635447 0.030766418 -0.09555579 -0.03251878
-0.14686036 0.096160375 0.08167278 -0.027174275 -0.053365875 0.056292865 -0.04869573 0.034019455
-0.34539732 0.2508335 0.14787236 -0.057396077 0.8653681 -0.018613264 -1.7682761 0.11963257
0.06085946 -0.13562746 -0.030191036 -0.12965633 0.07820905 0.059057903 -0.25377336 0.23394658
0.0016062234 -0.089744076 -0.012265616 -0.042136196 -0.24904066 0.0032298088 0.32701433 0.12404121
-0.20868832 -0.605798 0.14412183 0.18239093 0.3940613 -0.10791862 -0.7557659 -0.0860361
-0.10599769 0.6708511 0.8015066 -0.006006904 -0.045589082 -0.022371188 1.2133204 -0.13196898
0.056061354 -0.124128275 -0.023935184 0.094854444 0.2396621 0.07390174 -0.5486291 -0.032406006
-0.39485583 0.056459606 0.067488395 -0.07910316 0.4269446 0.11471021 -0.31385258 -0.11525104
-0.19058542 0.04297378 0.1863546 0.13436931 -0.4938653 -0.0059269383 -0.013290892 0.05803516
-0.20817241 0.3224765 0.21460801 0.13774209 0.36182243 0.02279797 -0.53941154 -0.093456455
0.072813906 -0.64056325 -0.018834004 0.06325652 0.007539177 0.0011102599 0.19782098 -0.12828845
-0.14740539 0.11987658 -0.0034650054 0.013101201 -0.26626903 0.18935311 0.50261104 0.2340863
-0.028244944 0.20857689 -0.22308429 0.1967197 -0.51415366 -0.14410897 0.5568987 0.12514445
-0.14788306 0.35857704 0.044153225 0.02468465 -0.044630613 0.08520604 -1.3343247 -0.23408014
-0.9409491 -0.17855851 0.119741455 -0.32722405 0.93830884 0.05570617 -0.80134684 0.018903714
-0.113335714 0.21733318 0.29579464 -0.034610357 -0.51736087 0.041467946 0.52046275 0.065094456
-0.2373151 -0.010103968 0.08032862 -0.1484624 -0.28067368 0.14611255 0.033706512 0.11435628
-0.016067285 -0.55358636 -0.25766775 -0.0040940805 0.35723016 -0.06349443 -0.11281481 -0.2869582
0.07064203 -0.09487724 -0.105236225 0.13161664 0.10202045 -0.081136696 -0.0057305326 -0.0862172
0.16543202 0.42135325 0.2072858 -0.04825016 0.8066578 0.09566666 0.8667142 0.061166205
0.013104239 -0.09002747 -0.1352693 0.06169229 -0.44716078 -0.04162322 1.189031 -0.23741615
-0.106063806 0.0688623 0.03213053 -0.052723754 0.74912757 0.07469637 0.629154 -0.059992936
0.60771745 -0.04444307 0.24118604 -0.0058738743 0.006596172 0.10785167 1.1671729 0.044219896
0.13024369 -0.31556767 -0.15091401 0.092011586 0.79834384 -0.06494841 0.22880271 -0.22145018
-0.54395646 0.19052327 -1.1207188 -0.11027372 0.17877904 0.027807789 -0.25530055 -0.12966606
-0.1306188 -0.09995983 -0.11559918 -0.13669166 -0.4416496 -0.032386933 -0.007946199 0.18704945
-0.08255893 -0.078559935 0.07624805 -0.28656256 0.1761842 0.057972606 0.2404761 0.016500462
0.10090339 -0.11133201 0.07697863 0.0818336 -0.17580645 0.086389415 1.0393953 0.06512019
0.13170011 -0.3795176 -0.15043637 0.106998265 0.25061053 -0.11513189 0.009535081 0.24026771
0.09297511 -0.20777117 0.0897232 -0.032175343 -0.3141974 0.050118025 0.5759695 0.04345504
00000000: 299f 3b3e 25a1 463e 9ba9 813d b151 f93d
00000010: 6bb8 553f 50a8 f43d a47c 67bd cd5e 0bbe
00000020: 719f 1e3c 1b3e 0ebd 9d66 51bc 0bb3 cabd
00000030: 9d5f 883e db09 fc3c c1b2 c3bd 6a32 05bd
00000040: 9062 16be bbef c43d 0f44 a73d 969c debc
00000050: 2d96 5abd 5993 663d 2c75 47bd fc57 0b3d
00000060: ebd7 b0be 406d 803e da6b 173e 2618 6bbd
00000070: c488 5d3f d87a 98bc df56 e2bf ec01 f53d
00000080: c547 793d ede1 0abe 3153 f7bc a1c4 04be
00000090: 112c a03d b3e6 713d 95ee 81be b18f 6f3e
000000a0: ea87 d23a becb b7bd b9f5 48bc 0197 2cbd
000000b0: 8404 7fbe 33ab 533b 6c6e a73e 5109 fe3d
000000c0: 64b2 55be 9415 1bbf ac94 133e b0c4 3a3e
000000d0: 67c2 c93e 7004 ddbd e079 41bf b233 b0bd
000000e0: 5115 d9bd e6bc 2b3f 892f 4d3f 90d5 c4bb
000000f0: 9ebb 3abd c843 b7bc 154e 9b3f e022 07be
00000100: 97a0 653d f736 febd b813 c4bc 0c43 c23d
00000110: fb69 753e cc59 973d f572 0cbf 29bc 04bd
00000120: 8b2a cabe 3042 673d 5b37 8a3d d600 a2bd
00000130: 7c98 da3e 30ed ea3d 49b1 a0be bd08 ecbd
00000140: d328 43be 4605 303d bed3 3e3e 1c98 093e
00000150: eadb fcbe c336 c2bb 0bc2 59bc 47b6 6d3d
00000160: 262b 55be a41b a53e 34c2 5b3e 430c 0d3e
00000170: ca40 b93e cfc2 ba3c e016 0abf 1966 bfbd
00000180: 751f 953d f4fb 23bf c549 9abc a28c 813d
00000190: 330b f73b 2486 913a 9591 4a3e 0c5e 03be
000001a0: 70f1 16be da81 f53d 2515 63bb 6ba6 563c
000001b0: 6a54 88be c8e5 413e 1eab 003f 52b4 6f3e
000001c0: f161 e7bc 2e95 553e 3570 64be e470 493e
000001d0: 939f 03bf 4d91 13be ea90 0e3f de25 003e
000001e0: a86e 17be 6997 b73e 03da 343d 7737 ca3c
000001f0: 97ce 36bd 8180 ae3d 27cb aabf b4b2 6fbe
00000200: 0ae2 70bf 0bd8 36be 023b f53d e989 a7be
00000210: 0235 703f 272c 643d 1125 4dbf f6db 9a3c
00000220: 8e1c e8bd 978c 5e3e 6572 973e 97c3 0dbd
00000230: c371 04bf 4bda 293d 0c3d 053f 3e50 853d
00000240: bb02 73be 1d8b 25bc 5583 a43d 8706 18be
00000250: 76b4 8fbe 879e 153e d70f 0a3d a033 ea3d
00000260: 8a9f 83bc d6b7 0dbf 07ed 83be a327 86bb
00000270: dfe6 b63e 5e09 82bd 730b e7bd 2fec 92be
00000280: c5ac 903d 004f c2bd 1786 d7bd 83c6 063e
00000290: 19f0 d03d ff2a a6bd 31c7 bbbb a592 b0bd
000002a0: 0367 293e 9dbb d73e bb42 543e f6a1 45bd
000002b0: 2081 4e3f e2ec c33d fbe0 5d3f 6a89 7a3d
000002c0: 29b3 563c 5260 b8bd 0984 0abe 0eb1 7c3d
000002d0: 42f2 e4be 1c7d 2abd 2b32 983f 381d 73be
000002e0: fb37 d9bd ad07 8d3d 4d9b 033d ddf4 57bd
000002f0: d3c6 3f3f 69fa 983d 3d10 213f 27bb 75bd
00000300: 5f93 1b3f f009 36bd 79f9 763e a179 c0bb
00000310: b424 d83b 56e1 dc3d ec65 953f ec1f 353d
00000320: 9a5e 053e 1692 a1be 3489 1abe 9270 bc3d
00000330: 4360 4c3f ac03 85bd 424b 6a3e d6c3 62be
00000340: bb40 0bbf 8818 433e b773 8fbf 30d7 e1bd
00000350: da11 373e 29cd e33c c1b6 82be 2ec7 04be
00000360: efc0 05be bdb7 ccbd 43bf ecbd e6f8 0bbe
00000370: e51f e2be 29a8 04bd c630 02bc e489 3f3e
00000380: a814 a9bd 08e4 a0bd f027 9c3d 54b8 92be
00000390: a269 343e af74 6d3d 5e3f 763e fa2b 873c
000003a0: 70a6 ce3d 0902 e4bd f9a6 9d3d 6098 a73d
000003b0: 9b06 34be efec b03d e80a 853f bc5d 853d
000003c0: 65dc 063e 2250 c2be fe0b 1abe e821 db3d
000003d0: 0650 803e 45ca ebbd 0739 1c3c bd08 763e
000003e0: bc69 be3d f7c1 54be ccc0 b73d 4bca 03bd
000003f0: 7bde a0be 8f48 4d3d bd72 133f e9fd 313d

weight f4 [10, 256]
0.1631463 -0.16925484 -0.2679367 0.84889406 -0.122452036 -0.29674765 -0.37845603 0.4580604
-0.09903217 0.2010634 -0.15809278 0.9151153 -0.039325826 -0.6161187 0.22259441 0.42371553
0.9211787 0.115458265 -0.18067059 -0.17918599 -0.103783235 0.33889475 0.20956288 0.16673028
0.09427998 -0.234251 -0.16481109 -0.22146094 0.052981216 -0.05669987 -0.33431584 0.02402519
0.35820854 1.389426 0.48456237 -0.20181304 0.6185581 0.2482374 0.20625955 0.614081
-0.054272905 -0.20595299 0.016650097 0.05395373 -0.13793205 -0.37383944 -0.12654877 0.026447967
0.044179212 0.52842927 0.08469231 0.57316864 -0.19463375 0.5894851 -0.118017055 -0.013677164
-0.032382775 0.22790702 0.039413337 0.199071 0.7110005 0.4706738 0.21500881 0.10305281
-0.41374815 -0.14738202 0.23220393 0.09061756 0.3271895 -0.27761707 0.61157143 -0.05864825
0.3205211 0.106693216 0.26368064 0.5606759 0.101032495 0.023087975 -0.34513202 0.49504614
-0.27555797 -0.1574227 0.57048506 -0.11370204 0.12126513 0.8020483 0.45767504 -0.083615996
0.26420116 -0.4214437 0.033664618 -0.31268924 -0.0030260428 0.08686312 -0.12781277 0.17748092
-0.19315356 0.09602283 0.9265056 -0.04915276 0.45902345 0.064314984 0.21704297 -0.012877062
-0.55274355 0.080798045 0.10994577 -0.11902802 -0.0018045962 0.23605777 0.22224791 -0.4413888
-0.063413575 -0.03093035 -0.4628518 0.30858502 -0.019371508 -0.27720553 -0.54653925 -0.20615709
0.0960983 0.24855322 -0.10651781 0.47430164 0.43144262 -0.8683971 0.34236616 -0.73900145
0.17046644 -0.095097 -0.18244979 0.89420426 -0.12720826 -0.2205455 -0.20516038 0.45518613
-0.023519883 0.051736668 -0.12871948 1.0045924 -0.040934604 -0.93418 0.29671776 0.43630517
0.8854108 0.07637263 -0.120494984 -0.12874734 -0.18651168 0.25665286 0.23245378 0.104628175
0.07605807 -0.1509587 -0.13915409 -0.2131123 -0.036201786 -0.079168625 -0.30545154 0.029602693
0.3032073 1.4421912 0.5507069 -0.171696 0.57635915 0.3059065 0.25256884 0.6048727
-0.10377699 -0.22207862 -0.012482502 -0.0024308648 -0.17818838 -0.41386485 -0.068838805 0.079512015
-0.034585413 0.52127796 0.034947135 0.6554811 -0.20612396 0.6764166 -0.16511963 0.048944898
-0.058094934 0.1653391 0.011064135 0.23571277 0.6539193 0.49996027 0.1305741 0.091573946
-0.39497867 -0.1485466 0.1361838 0.014014709 0.35468566 -0.32010275 0.6460062 -0.11354813
0.23500715 0.08817685 0.24316624 0.54955715 0.16349454 0.12697625 -0.24953802 0.49952233
-0.26017296 -0.06413191 0.5739271 -0.122938246 0.09665278 0.8033188 0.3571585 -0.12341591
0.2903507 -0.33757535 0.09034805 -0.26544064 0.0027498442 0.024704432 -0.12205105 0.25593138
-0.07853181 0.035334446 0.92644393 -0.12568891 0.37002718 0.050239284 0.10937819 -0.07180187
-0.60968333 0.071763024 0.07526189 -0.09932392 0.03175624 0.27458605 0.26061517 -0.43647745
-0.056467097 -0.019103512 -0.4317664 0.31920832 -0.047947187 -0.31133002 -0.48416355 -0.24777935
0.12123476 0.18054374 -0.1860423 0.41354865 0.36190987 -0.9106879 0.2928762 -0.66820025
00000000: d30f 273e 2451 2dbe 002f 89be 1f51 593f
00000010: 22c8 fabd 4fef 97be fdc4 c1be e586 ea3e
00000020: 61d1 cabd 90e3 4d3e 13e3 21be ff44 6a3f
00000030: 1e14 21bd f5b9 1dbf caef 633e 3ef1 d83e
00000040: 5ed2 6b3f 6275 ec3d b601 39be 887c 37be
00000050: 4e8c d4bd 9d83 ad3e a797 563e 58bb 2a3e
00000060: dd15 c13d 7fdf 6fbe 3dc4 28be a8c6 62be
00000070: d502 593d 1f3e 68bd 722b abbe 7ad0 c43c
00000080: 1c67 b73e b6d8 b13f 8f18 f83e 14a8 4ebe
00000090: d359 1e3f f231 7e3e b435 533e 6a34 1d3f
000000a0: 444d 5ebd 57e5 52be c965 883c 96fe 5c3d
000000b0: 0f3e 0dbe e267 bfbe 0096 01be 68a9 d83c
000000c0: 43f5 343d 2447 073f 2973 ad3d 2ebb 123f
000000d0: 124e 47be 7fe8 163f edb2 f1bd 2f16 60bc
000000e0: cda3 04bd 7560 693e e16f 213d 45d9 4b3e
000000f0: 2104 363f 28fc f03e 452b 5c3e 5a0d d33d
00000100: ccd6 d3be 50eb 16be dec6 6d3e b395 b93d
00000110: 6285 a73e d323 8ebe f28f 1c3f 2639 70bd
00000120: 571b a43e f981 da3d 2601 873e 7588 0f3f
00000130: 20ea ce3d fe22 bd3c 25b5 b0be b076 fd3e
00000140: ef15 8dbe 6b33 21be 4f0b 123f 9ddc e8bd
00000150: da59 f83d 0a53 4d3f 6254 ea3e dd3e abbd
00000160: 6045 873e 78c7 d7be e9e3 093d ce18 a0be
00000170: 9350 46bb 4be5 b13d 5ae1 02be 8fbd 353e
00000180: 0cca 45be 9ea7 c43d 792f 6d3f 6854 49bd
00000190: 1f05 eb3e 93b7 833d 8340 5e3e 50fa 52bc
000001a0: 9a80 0dbf 7279 a53d 3f2b e13d f6c4 f3bd
000001b0: 3388 ecba 21b9 713e f594 633e b6fd e1be
000001c0: fade 81bd a561 fdbc e9fa ecbe dbfe 9d3e
000001d0: ffb0 9ebc e2ed 8dbe ffe9 0bbf d81a 53be
000001e0: 2fcf c43d bc84 7e3e 0226 dabd aad7 f23e
000001f0: 0ce6 dc3e 464f 5ebf 9e4a af3e 332f 3dbf
00000200: c18e 2e3e 37c2 c2bd 1ed4 3abe 92ea 643f
00000210: e242 02be aed6 61be 9015 52be 280e e93e
00000220: c5ac c0bc d4e9 533d 0acf 03be 7c96 803f
00000230: 0bab 27bd 6c26 6fbf 64eb 973e 6463 df3e
00000240: 48aa 623f 4169 9c3d 13c6 f6bd 58d6 03be
00000250: ebfc 3ebe 0168 833e 5d08 6e3e 4c47 d63d
00000260: 55c4 9b3d eb94 1abe 697e 0ebe 1c3a 5abe
00000270: 5348 14bd 2923 a2bd 2564 9cbe 5981 f23c
00000280: fd3d 9b3e b999 b83f 21fb 0c3f 14d1 2fbe
00000290: 468c 133f c79f 9c3e b450 813e f0d8 1a3f
000002a0: 0889 d4bd 9468 63be 6883 4cbc 254f 1fbb
000002b0: 0477 36be 18e6 d3be 5cfb 8cbd 32d7 a23d
000002c0: 6fa9 0dbd 7972 053f ba24 0f3d 9ccd 273f
000002d0: 2912 53be a329 2d3f 1f15 29be 727a 483d
000002e0: f4f4 6dbd a74e 293e 5846 353c b05e 713e
000002f0: 4167 273f cbfa ff3e 38b5 053e 1f8b bb3d
00000300: a53a cabe 9a1c 18be c473 0b3e f39d 653c
00000310: 5c99 b53e 82e4 a3be aa60 253f ec8b e8bd
00000320: b7a5 703e 1096 b43d 9200 793e c7af 0c3f
00000330: 1d6b 273e 1006 023e e586 7fbe 64c1 ff3e
00000340: 6435 85be 9757 83bd e3ec 123f 0cc7 fbbd
00000350: e5f1 c53d 4da6 4d3f 7bdd b63e 7bc1 fcbd
00000360: d9a8 943e add6 acbe 6608 b93d d6e7 87be
00000370: bb36 343b f360 ca3c e7f5 f9bd 7009 833e
00000380: 49d5 a0bd daba 103d 6e2b 6d3f 98b4 00be
00000390: 3474 bd3e b5c7 4d3d ac01 e03d dc0c 93bd
000003a0: 3514 1cbf 7ef8 923d e822 9a3d 576a cbbd
000003b0: d512 023d 8b96 8c3e 5a6f 853e f979 dfbe
000003c0: 0b4a 67bd f87e 9cbc 7c10 ddbe 466f a33e
000003d0: 4564 44bd a666 9fbe 49e4 f7be dfb9 7dbe
000003e0: ee49 f83d 75e0 383e df81 3ebe a6bc d33e
000003f0: 404c b93e d822 69bf dff3 953e 2c0f 2bbf

bias f4 [10]
-0.10538087 0.049769774 0.03796229 0.02271097 9.108344e-05 0.026403876 0.022874335 0.04836998
-0.024944823 -0.06701548
00000000: edd1 d7bd 64db 4b3d 597e 1b3d 5b0c ba3c
00000010: 0d04 bf38 f14c d83c f562 bb3c 9a1f 463d
00000020: 1659 ccbc 693f 89bd
