E-GraphSAGE/experiments/model/None_GATE_MLP_NF-BoT-IoT-v2_best_model.pth (torch, 490586 bytes, 14 tensors)

weight f4 [128, 78]
0	0xbd7b2924	-0.06131853
1	0x3d15b745	0.036551733
2	0x3d45d45c	0.048298225
3	0x3d882bf5	0.06649009
4	0xbcf7fb11	-0.030271085
5	0xbdd702fd	-0.10498617
6	0x3c806696	0.015673917
7	0x3d92d6ca	0.07169874
8	0x3d2740f2	0.04083342
9	0x3c6b6715	0.014367838
10	0xb880a785	-6.1347186e-05
11	0x3dbd9515	0.09256951
12	0xbde4b73e	-0.11167763
13	0xbdbe7ccf	-0.09301149
14	0xbde4c5d9	-0.11170549
15	0x3c7121ba	0.014717514
16	0xbdbcde2b	-0.09222063
17	0xbc5ad94d	-0.013357473
18	0xbd697e5c	-0.05700527
19	0x3d83a4d3	0.06427922
20	0x3c0a1875	0.008428683
21	0xbd0fba80	-0.03508997
22	0x3d0736cb	0.03301124
23	0x3d4f0f70	0.05055183
24	0x3ca71711	0.020396741
25	0x3ce46694	0.027880944
26	0x3d97df4d	0.07415638
27	0x3d712809	0.05887607
28	0xbde0c6bc	-0.109754056
29	0xbd8de69e	-0.06928752
30	0xbd722be9	-0.059123907
31	0x3dcbda8d	0.09953795
32	0x3dafcd19	0.08584041
33	0x3d99d9c6	0.0751224
34	0xbdb1e626	-0.086864755
35	0x3c8d8deb	0.017279586
36	0x3cddd9a0	0.02708131
37	0xbd7a98d0	-0.06118089
38	0xbdcbde90	-0.0995456
39	0x3d2aa523	0.041661393
40	0x3e262fd1	0.16229178
41	0xbd723ca2	-0.059139855
42	0xbd232df3	-0.039838742
43	0x3d1502e4	0.03637971
44	0xbda6d22c	-0.08145556
45	0xbe041791	-0.12899615
46	0xbd61acd1	-0.05509645
47	0xbd93771a	-0.07200451
48	0xbd8a0814	-0.06739822
49	0xbbdb8878	-0.006699618
50	0x3d8b160e	0.06791316
51	0xbda4732f	-0.08029782
52	0xbd05db5f	-0.03267991
53	0x3ce89ac5	0.028394112
54	0x3d4e2a0f	0.05033308
55	0xbd113724	-0.035452977
56	0x3e0abd3d	0.13548751
57	0x3e248945	0.16067989
58	0xbd5f181f	-0.054466363
59	0x3e06547d	0.13118167
60	0x3d0849b3	0.03327341
61	0x3d9ce8ed	0.076616146
62	0xbe01dc2b	-0.12681644
63	0x3da99fb9	0.08282418
64	0xbdc57f68	-0.096434414
65	0xbc820e56	-0.015875977
66	0x3d9d17c0	0.076705456
67	0x3e09a858	0.13443124
68	0x3dd99b0b	0.10625275
69	0x3dff9e4e	0.12481366
70	0x3db18ace	0.08669053
71	0xbccc7bc5	-0.024961362
72	0xbce87e96	-0.028380673
73	0x3de329d4	0.110919625
74	0x3dc0c2c2	0.09412147
75	0xbd9cee23	-0.076626085
76	0xbcceacf5	-0.025228957
77	0x3ddd49c7	0.108050875
78	0x3d3bc0fc	0.04583834
79	0x3d9c0449	0.07618005
80	0xbd4a785e	-0.049431197
81	0xbcc69591	-0.02424124
82	0x3c3f8579	0.011689537
83	0x3dc11c8f	0.09429275
84	0xbde062c2	-0.109563366
85	0x3d6a630c	0.057223365
86	0xbc468bdd	-0.012118307
87	0x3bf97f64	0.007614063
88	0x3dcedf98	0.10101241
89	0x3de02f4d	0.10946522
90	0x3dd7047a	0.10498901
91	0xbd3309e0	-0.04371059
92	0xbda8eda9	-0.08248455
93	0xbd8c0ecb	-0.06838759
94	0xbdae7323	-0.08518054
95	0x3d80c300	0.06287193
96	0x3dc572e2	0.09641053
97	0x3d8d7e08	0.06908804
98	0x3ca7458d	0.020418907
99	0x3dcd8c46	0.10036521
100	0xbc2158b1	-0.009847806
101	0x3d1132be	0.035448782
102	0xbc23f711	-0.010007636
103	0x3c961fbf	0.018325685
104	0xbd8006ad	-0.06251273
105	0x3d990abd	0.07472751
106	0xbd635383	-0.055499565
107	0xbd8ad67a	-0.067791894
108	0x3b9c0511	0.004761346
109	0xbddcefb9	-0.10787911
110	0xbc7a4d72	-0.015277253
111	0xbdc7d131	-0.09756697
112	0xbdcfeae9	-0.101522274
113	0x3c92153e	0.017832395
114	0x3db3ddcb	0.08782538
115	0xbde8294f	-0.11336004
116	0xbca5c246	-0.020234238
117	0xbdcc6c3c	-0.099815816
118	0x3b245ceb	0.0025079797
119	0xbdc5eaa8	-0.09663898
120	0x3db18b81	0.086691864
121	0x3d5cd3bf	0.053912874
122	0xbdefe8ee	-0.1171435
123	0xbd1c0639	-0.038091872
124	0xbe177e3e	-0.14794251
125	0xbe660a4b	-0.22464864
126	0x3b3d588b	0.0028891887
127	0xbc27cbc2	-0.010241451
128	0xbd84181d	-0.06449912
129	0x3d813d87	0.063105635
130	0xbd22daf4	-0.03975959
131	0xbd08b666	-0.033377074
132	0xbb4d4fb4	-0.0031328024
133	0x3d5cf304	0.053942695
134	0x3daa6cbb	0.0832152
135	0xbd605149	-0.05476502
136	0xbda019b0	-0.078173995
137	0x3d55faf5	0.052241284
138	0xbd891c2f	-0.06694829
139	0xbdc03c8d	-0.09386549
140	0x3c0424e4	0.008065436
141	0xbdcff9f5	-0.101550974
142	0xbdd5e0d0	-0.1044327
143	0x3de806af	0.113294
144	0x3da70660	0.08155513
145	0x3d82fd96	0.06396024
146	0xbd7580c7	-0.059937265
147	0x3d7dfa90	0.062006533
148	0x3daf50d2	0.08560337
149	0xbdff67a5	-0.124709405
150	0xbddc07bc	-0.10743663
151	0xbdf34bd1	-0.11879695
152	0x3db103ab	0.08643278
153	0xbd75e8ad	-0.06003635
154	0xbd42f18e	-0.047593646
155	0xbb15a770	-0.0022835396
156	0xbdd166dc	-0.10224697
157	0x3cc87ea3	0.024474448
158	0x3ddb674c	0.10713062
159	0x3d92b047	0.071625285
160	0xbd27ab95	-0.040935118
161	0xbda3ac02	-0.07991792
162	0x3d28da5b	0.041223865
163	0x3dbb050b	0.09131821
164	0xbd80dae1	-0.06291748
165	0xbdcc6230	-0.09979665
166	0xbcede2f5	-0.029038886
167	0xbd34faf1	-0.04418463
168	0xbc17fe89	-0.0092769945
169	0x3d3367c9	0.04380015
170	0x3de7eb2f	0.113241546
171	0x3d19a993	0.037515234
172	0xbdadc9ee	-0.08485781
173	0x3dccd3f7	0.100013666
174	0x3dcf4062	0.10119702
175	0xbd1be9b8	-0.03806469
176	0x3cfd83bb	0.030946603
177	0xbdc89a46	-0.0979505
178	0x3da5f333	0.08103027
179	0xbdc80c9e	-0.097680315
180	0x3d4297a0	0.047507882
181	0x3de41c6d	0.11138234
182	0xbd459d7b	-0.04824589
183	0x3ced4618	0.028964087
184	0xbd2b7150	-0.04185611
185	0xbdcba438	-0.099434316
186	0xbcdbb3c2	-0.026819114
187	0xbd95870e	-0.0730115
188	0xbdc7247b	-0.09723755
189	0x3dd9d9e2	0.10637261
190	0x3d120471	0.035648767
191	0xbccff71b	-0.025386384
192	0x3dab7e5c	0.083737105
193	0xbd784e54	-0.060621575
194	0xbd6346e8	-0.055487543
195	0xbd869432	-0.06571235
196	0xbd5ae1f7	-0.053438153
197	0x3d52d226	0.051469944
198	0x3c773a8f	0.015089645
199	0xbdc76d9b	-0.097377025
200	0xbd702743	-0.058631193
201	0xbc0df5b4	-0.008664537
202	0xbe045e63	-0.1292663
203	0xbe1dd964	-0.15414959
204	0xbd04d7ee	-0.03243249
205	0xbd84e4e6	-0.064889714
206	0x3d28f257	0.04124674
207	0x3dcbc42b	0.099495254
208	0xbd453130	-0.048142612
209	0xbb8b9c7b	-0.0042605973
210	0x3dd23f4b	0.102659784
211	0xbdcc824b	-0.09985789
212	0xbd5c849d	-0.053837407
213	0x3d8a82bf	0.06763219
214	0x3d3bda94	0.04586275
215	0x3c39dea2	0.011344584
216	0xbd96b259	-0.07358236
217	0xbda7d05b	-0.081940375
218	0x3c63b585	0.013898258
219	0xbd8f3c84	-0.06993964
220	0x3d651ef3	0.05593772
221	0xbd6df66b	-0.05809633
222	0x3e248061	0.16064598
223	0xbdbb1e70	-0.09136665
224	0xbd1653fe	-0.036701195
225	0xbdb24384	-0.08704284
226	0xbd68e40f	-0.05685812
227	0x3cae5f18	0.021285579
228	0xbd23b754	-0.039969757
229	0xbd88de01	-0.06682969
230	0x3c83c683	0.016085869
231	0x3e277988	0.16354954
232	0x3e088156	0.13330588
233	0xbe274574	-0.16335088
234	0x3de490a9	0.11160404
235	0xbd20d306	-0.039263748
236	0x3def0753	0.11671319
237	0xbd8483bd	-0.064704396
238	0x3d6a9ca1	0.05727828
239	0xbd9ee0d9	-0.0775773
240	0x3c10aa5f	0.008829682
241	0xbd8f6469	-0.070015736
242	0xbc232080	-0.009956479
243	0xbdaca0ef	-0.08429133
244	0xbd46aa60	-0.048502326
245	0xbdaaf8af	-0.08348214
246	0xbd0dcc6c	-0.03461878
247	0x3c9d839c	0.019227795
248	0x3ce7264c	0.028216504
249	0x3db178d6	0.08665626
250	0x3dbe1543	0.09281399
251	0x3cd9fe32	0.026610468
252	0xbda57de4	-0.08080652
253	0xbd01a1b4	-0.031648353
254	0xbcb4982d	-0.02204522
255	0x3d9be63e	0.076122746

bias f4 [128]
0	0xbdad1fdd	-0.08453343
1	0x3d2b07d2	0.041755505
2	0x3de3c820	0.11122155
3	0x3dccac61	0.09993816
4	0xbd499378	-0.049212903
5	0x3df13f63	0.11779668
6	0x3dd9212d	0.10602031
7	0x3df7efc0	0.121062756
8	0x3d1d3c0b	0.03838734
9	0xbd8f82d8	-0.07007378
10	0xbdf57bcc	-0.11986503
11	0xbce46b4c	-0.027883194
12	0xbdb4453f	-0.0880227
13	0xbd22ebab	-0.03977553
14	0x3d99f326	0.0751708
15	0xbca23424	-0.019800253
16	0xbdb0d208	-0.0863381
17	0xbd9b369a	-0.07578774
18	0x3d0ce2d8	0.034396023
19	0x3d83b742	0.06431438
20	0xbd57c5b7	-0.05267879
21	0xbcc1f9ee	-0.023678746
22	0xbd888635	-0.06666223
23	0xbd67a5ea	-0.056554712
24	0xbd756173	-0.059907388
25	0xbd09de5d	-0.033659328
26	0xbdd92c29	-0.10604126
27	0x3bc940ed	0.006141773
28	0x3d604d5d	0.05476128
29	0x3dc56839	0.096390195
30	0xbd8bd460	-0.06827617
31	0x3c89f154	0.016838707
32	0x3d7d3b53	0.061824154
33	0xbdededdb	-0.11617633
34	0x3ce309cf	0.027714638
35	0xbce41378	-0.027841315
36	0x3de9fe2a	0.11425431
37	0xbda3a9cb	-0.0799137
38	0x3c8e687f	0.017383812
39	0x3cd0c38e	0.025483873
40	0xbca97694	-0.020686425
41	0x3d902e39	0.07040066
42	0xbc9611cc	-0.018319033
43	0x3c049861	0.008092971
44	0xbd301007	-0.042984035
45	0x3ca52748	0.020160332
46	0x3c28c343	0.01030046
47	0x3d529cf4	0.051419213
48	0x3d8c0a01	0.068378456
49	0x3cf9c06a	0.030487258
50	0xbd8eee26	-0.06979017
51	0xbd485994	-0.048913553
52	0xbd3b4646	-0.045721315
53	0x3d40fcb0	0.04711598
54	0xbdf0670a	-0.11738403
55	0xbc4bee36	-0.012446931
56	0x3db8824b	0.090092264
57	0xbd99e217	-0.07513826
58	0xbcb245eb	-0.021761855
59	0xbd8f962a	-0.070110634
60	0xbcac5dab	-0.021040758
61	0x3c940f28	0.018073633
62	0x3dd1dd09	0.10247237
63	0x3c565034	0.013080645
64	0x3de1f60d	0.110332586
65	0x3d0a4127	0.03375354
66	0x3de10338	0.10986942
67	0xbd719034	-0.058975413
68	0x3d5c93f9	0.053852055
69	0xbc24528f	-0.010029449
70	0xbde26f3d	-0.11056373
71	0x3dd3077d	0.10304163
72	0x3db6d853	0.08927979
73	0x3c95d64b	0.01829066
74	0xbdad1b0d	-0.08452425
75	0x3d99e58d	0.075144865
76	0x3d6a83f6	0.057254754
77	0x3da70130	0.081545234
78	0x3dad4624	0.08460644
79	0xbd7bbc36	-0.06145879
80	0x38a58e8c	7.8943645e-05
81	0xbcadbc47	-0.021207942
82	0xbdac0bf0	-0.084007144
83	0xbd87f6f9	-0.06638903
84	0x3d0dd38a	0.034625567
85	0xbd30d8f0	-0.043175638
86	0x3dc6b4a4	0.09702423
87	0x3cb24c69	0.02176495
88	0x3c4dd25a	0.012562359
89	0x3de67da6	0.11254434
90	0xbd8171bf	-0.063205235
91	0xbd1a5d56	-0.03768667
92	0xbdfe7854	-0.124252945
93	0x3dbad248	0.09122139
94	0xbcde7260	-0.027154148
95	0xbb414ffb	-0.0029497135
96	0xbd399bba	-0.045314528
97	0x3da8facc	0.08250961
98	0xbc141c85	-0.009040003
99	0x3c390bdb	0.0112943305
100	0x3d954354	0.072882324
101	0xbdc3a479	-0.09552855
102	0x3d5f5b8b	0.05453066
103	0xbd0f9775	-0.03505655
104	0x3d33ac13	0.043865275
105	0xbcd2d9af	-0.025738565
106	0xbd800bf2	-0.062522784
107	0xbd8427d9	-0.06452913
108	0xbd0d43eb	-0.0344886
109	0xbd3088e1	-0.043099288
110	0x3c1adc7e	0.0094519835
111	0xbcb4e53e	-0.022081967
112	0x3d20ed3a	0.039288737
113	0x3c92f28c	0.017937921
114	0xbd0beb35	-0.034159858
115	0x3dba1387	0.09085756
116	0x3c8332ff	0.016015528
117	0x3c0f0db2	0.008731293
118	0x3dd6cd0c	0.10488328
119	0x3dbf4c3c	0.093407124
120	0x3c44ae9e	0.012004523
121	0x3de5a921	0.112138994
122	0xbd75e1c5	-0.060029764
123	0x38766605	5.8745984e-05
124	0x3da40cca	0.08010252
125	0xbc6edb8d	-0.014578712
126	0x3da92f05	0.082609214
127	0x3dd53134	0.104097754

weight f4 [128, 167]
0	0xbd52d48b	-0.051472228
1	0xbb822ae7	-0.0039723995
2	0x3d8d0ca0	0.06887174
3	0x3cb01019	0.021492051
4	0x3d38cf18	0.045119375
5	0x3d92b2cd	0.0716301
6	0x3d9ede10	0.07757199
7	0xbce2025c	-0.027589016
8	0xbcf79900	-0.030224323
9	0x3d2f0557	0.0427297
10	0x3d4a6efa	0.04942224
11	0xbce52dda	-0.027975965
12	0x3c722cdc	0.014781203
13	0x3d719647	0.058981206
14	0x3d0d2246	0.034456514
15	0xbcdb05cd	-0.026736164
16	0x3d8e966a	0.06962283
17	0xbd45073a	-0.048102595
18	0x3c1741e0	0.009232014
19	0xbd78b6ef	-0.060721334
20	0x3d551b43	0.052027952
21	0xbd82d180	-0.06387615
22	0xbd5f6a5d	-0.054544795
23	0xbc859f47	-0.0163113
24	0x3b1f3b3c	0.002429678
25	0x3aa34a5b	0.0012458073
26	0x3d65f094	0.056137636
27	0x3b09366b	0.0020936977
28	0x3d313adf	0.043269034
29	0xbb45414f	-0.0030098741
30	0xbd1b571f	-0.037924882
31	0xba280180	-0.0006408915
32	0x3c8d0c66	0.017217826
33	0x3d2c741a	0.04210291
34	0xbd56bc43	-0.052425634
35	0xbd0939e9	-0.033502493
36	0xbceef5e2	-0.02916998
37	0x3d6d0ecd	0.057875443
38	0xbcdcdd37	-0.026960952
39	0x3cd8c3fd	0.026460642
40	0x3cca30ec	0.02468153
41	0xbd449d0f	-0.048001345
42	0xbd851a1a	-0.06499119
43	0x3d959154	0.0730311
44	0xbd412d84	-0.047162548
45	0xbd6ab802	-0.05730439
46	0x3db4c4a1	0.088265665
47	0x3d1bc412	0.038028784
48	0xbddb2ebc	-0.10702273
49	0xbc34d912	-0.011038082
50	0x3cb22627	0.021746708
51	0xbd90eca9	-0.07076389
52	0xbcc03f6d	-0.023467744
53	0x3ddb1fd3	0.10699429
54	0x3da221ba	0.07916589
55	0x3db855fd	0.09000776
56	0x390928be	0.00013080516
57	0x3d6a11f4	0.057146028
58	0x3c4adb10	0.01238133
59	0x3d35561e	0.04427158
60	0x3b87d1d1	0.004144885
61	0xbcada68a	-0.021197576
62	0x3d4184e3	0.04724587
63	0xbda86d71	-0.08223999
64	0x3d375642	0.044759996
65	0xbc61dd4d	-0.013785672
66	0xbbdf05af	-0.0068060975
67	0xbd6ed99b	-0.058312993
68	0x3d833581	0.064066894
69	0x3d93828f	0.072026365
70	0x3d724551	0.059148137
71	0x3d5cfd3c	0.05395244
72	0x3dad14db	0.084512435
73	0x3d91c25f	0.071171515
74	0x3d11b668	0.035574347
75	0x3d8d0311	0.068853505
76	0x3c58d856	0.013235172
77	0x3c137e33	0.009002256
78	0xbc699d2d	-0.014258665
79	0xbc05568c	-0.00813831
80	0x3ba96c9b	0.0051704175
81	0xbca55065	-0.020179937
82	0x3bb16099	0.0054131267
83	0xbc51256f	-0.0127652725
84	0x3cec14c5	0.028818497
85	0xbd565f85	-0.05233719
86	0x3d9de373	0.07709398
87	0xbccdf69c	-0.025142007
88	0x3cdafad6	0.026730936
89	0x3ba4ec8a	0.0050330805
90	0xbbdb2ab5	-0.0066884407
91	0xbd1928b9	-0.03739235
92	0xbbd6897a	-0.00654715
93	0xbd65ba77	-0.05608603
94	0x3d965625	0.073406495
95	0xbbac6188	-0.00526065
96	0xbce87fa3	-0.028381174
97	0x3d0bf4dc	0.034169063
98	0xbd473909	-0.048638377
99	0x3d21a204	0.03946115
100	0xbd8c6be9	-0.0685652
101	0xbd9b5a8b	-0.07585629
102	0xbd0af169	-0.033921633
103	0xbd6b5fdd	-0.05746447
104	0xbda2bf7f	-0.07946681
105	0x3ddccbbe	0.10781048
106	0xbd0be180	-0.0341506
107	0x3b55df3c	0.0032634279
108	0x3d3eff12	0.046629973
109	0xbdbb456e	-0.09144102
110	0x3b82227b	0.0039713955
111	0x3d1aa49f	0.03775465
112	0x3b8e1df9	0.004337069
113	0xbd3f145b	-0.046650272
114	0x3ccadee0	0.024764478
115	0xbc89a037	-0.01680003
116	0xbd8f103d	-0.06985519
117	0xbcbcb1a7	-0.02303393
118	0x3cdec295	0.027192393
119	0xbcafafcb	-0.02144613
120	0x3c40c042	0.011764588
121	0x3cba4548	0.022738114
122	0x3db5f255	0.08884112
123	0xbda6ae1e	-0.08138679
124	0x3ce7b074	0.028282382
125	0x3d3b2078	0.04568526
126	0xbda15d0c	-0.078790754
127	0xbe2133ed	-0.15742464
128	0x3d8606a5	0.06544236
129	0xbd21ff94	-0.03955038
130	0x3d5cb3a3	0.053882252
131	0xbc479c35	-0.012183239
132	0xbd46933f	-0.04848027
133	0x3d9cddfb	0.07659527
134	0xbb3018d4	-0.0026870267
135	0x3d8548f2	0.06508054
136	0x3c83805d	0.01605242
137	0x3d1ba352	0.03799755
138	0xbd822658	-0.0635497
139	0x3b02182c	0.0019850833
140	0xbbe9cebd	-0.007135241
141	0xbd466d63	-0.048444163
142	0xbdc9efde	-0.09860204
143	0x3d5dff61	0.054198626
144	0xbdc76a89	-0.09737117
145	0x3d9fd442	0.07804157
146	0xbdf6d83f	-0.120529644
147	0xbd35dbfc	-0.044399247
148	0xbdbc7e80	-0.092038155
149	0x3dcf9c5d	0.10137246
150	0xbc0fe301	-0.008782149
151	0x3d40d7f7	0.04708096
152	0xbcdc295c	-0.02687519
153	0xbd2511b2	-0.04030008
154	0x3de41b89	0.111380644
155	0xbd603f35	-0.05474778
156	0xbd1733d1	-0.03691465
157	0xbc3194e6	-0.010838723
158	0xbd9715ae	-0.07377182
159	0xbdabcf07	-0.08389097
160	0x3d232550	0.039830506
161	0x3d1a7484	0.037708774
162	0x3cb039aa	0.021511871
163	0xbc42dce6	-0.011893487
164	0xbdd49a4e	-0.10380994
165	0xbd955c02	-0.0729294
166	0x3cb16166	0.021652889
167	0x3d008dc7	0.03138521
168	0x3a9a0618	0.0011751084
169	0x3d80e3e6	0.06293468
170	0x3d2a57bd	0.04158758
171	0x3ce3a643	0.02778924
172	0x3d833f53	0.064085625
173	0xbc975263	-0.018471902
174	0x3dab82fc	0.08374593
175	0x3d95fb05	0.07323269
176	0x3c514cc5	0.012774651
177	0xbd0ce659	-0.034399364
178	0x3c187de2	0.009307357
179	0x3ccdc378	0.02511762
180	0xbcc8bced	-0.02450415
181	0x3bfea07c	0.007770596
182	0xbc1cc86a	-0.009569267
183	0xbc9d9b3d	-0.019239062
184	0xbcb94709	-0.02261688
185	0x3d3c7e5e	0.04601895
186	0x3b1877ec	0.0023264838
187	0xbd591693	-0.053000044
188	0xbd4095c4	-0.047017828
189	0x3cb3ba78	0.021939501
190	0xbc9688dd	-0.018375808
191	0xbcf6dc77	-0.030134423
192	0xbcf59d94	-0.029982366
193	0x3c5d3bc0	0.013503015
194	0xbcb3c3ed	-0.02194401
195	0x3dbfd710	0.09367192
196	0x3bdba28f	0.006702728
197	0xbd688a81	-0.056772713
198	0x3cfcdbd8	0.030866548
199	0xbcc30ff9	-0.023811327
200	0x3c8ced08	0.017202869
201	0x3d413a6f	0.047174867
202	0x3d5a1e0e	0.05325132
203	0x3dbf7144	0.093477756
204	0x3d88bc09	0.0667649
205	0x3c96ac53	0.018392717
206	0xbd439fe5	-0.04775991
207	0xbb8890e6	-0.004167664
208	0x3c2fa98c	0.0107215755
209	0x3d884efe	0.066556916
210	0xbbe7a8ba	-0.0070696743
211	0x3d2d9f74	0.042388394
212	0xbd0db6da	-0.03459821
213	0x3ca8fc98	0.020628259
214	0xbdbf2fcd	-0.09335289
215	0xbd0ac82d	-0.03388231
216	0x3d168c51	0.03675491
217	0x3cdec153	0.027191794
218	0xbd0040a4	-0.031311646
219	0x3d521e85	0.051298637
220	0xbcd2153a	-0.025644887
221	0x3dbe541c	0.09293386
222	0x3dae42bc	0.08508822
223	0xbcd97cf3	-0.026548838
224	0xbbf659f5	-0.007518048
225	0xbd1787d5	-0.036994774
226	0x3da6dceb	0.081476055
227	0xbbfcaf13	-0.0077113
228	0x3cfc45a2	0.030794922
229	0x3d9690a5	0.073518075
230	0xbce22086	-0.027603399
231	0xbd5a2b43	-0.053263914
232	0x3b8944ab	0.004189094
233	0x3d0fb91c	0.035088643
234	0xbc32aa97	-0.01090493
235	0x3c1f9538	0.009740166
236	0x3d3f7e1b	0.046751123
237	0x3d88f914	0.06688133
238	0x3d75fa7d	0.060053337
239	0xbcf222d3	-0.029557621
240	0xbda3c620	-0.07996774
241	0x3dac59ec	0.08415589
242	0xbc891ce0	-0.016737401
243	0xbd7777f0	-0.060417116
244	0xbd69a08d	-0.05703788
245	0xbd53b4b4	-0.051686004
246	0xbca46a79	-0.020070301
247	0x3d8dc9b6	0.06923239
248	0xbdb462f2	-0.08807935
249	0x3d87041f	0.06592583
250	0x3d8f85c3	0.07007935
251	0xbbffc0f2	-0.0078049833
252	0xbd434f3d	-0.04768299
253	0x3cfa50f8	0.030556187
254	0xbb03e15f	-0.0020123345
255	0xbd135132	-0.035966106

bias f4 [128]
0	0xbd2d7136	-0.042344294
1	0x3d23007e	0.03979539
2	0x3d89e023	0.06732204
3	0xbcb1d2a4	-0.021706887
4	0xbbed1fb0	-0.0072364435
5	0x3d074f20	0.033034444
6	0xbccefd61	-0.025267305
7	0x3cb05626	0.021525454
8	0x3c5b02bc	0.013367351
9	0x3da4ee17	0.080532245
10	0x3db468c6	0.088090464
11	0x3c371fbf	0.011177002
12	0x3d76f0cf	0.060288247
13	0x3da1e4e3	0.07904985
14	0x3d704fb4	0.05866976
15	0x3d91c2b1	0.071172126
16	0x3d0a3f07	0.033751514
17	0x3c0fc517	0.008775017
18	0xbc6f6706	-0.014611965
19	0x3be1d973	0.006892377
20	0xbd40e6c4	-0.047095075
21	0x3d914447	0.07093101
22	0x3d45bcbf	0.048275705
23	0x3c49c3f3	0.012314784
24	0xbd5a1d1e	-0.053250425
25	0xbd24575e	-0.040122382
26	0x3cd40aa2	0.025883976
27	0x3d77e9fa	0.06052587
28	0xbd244b6f	-0.040111
29	0x3d6babe3	0.05753697
30	0x3c276b51	0.010218457
31	0xbcb0aa03	-0.021565443
32	0xbd28a7a1	-0.04117549
33	0x3c2b4ab6	0.010454824
34	0x3d59f638	0.053213328
35	0x3d063f34	0.03277512
36	0x3d6389c0	0.05555129
37	0x3dae2ab3	0.08504238
38	0xbd2b2272	-0.041780896
39	0xbca75d73	-0.020430302
40	0x3d98b55d	0.07456467
41	0x3c891bd1	0.016736897
42	0x3d0e60c1	0.03476024
43	0x3dbe9350	0.093054414
44	0x3d94163e	0.07230805
45	0x3c07c552	0.008286791
46	0x3db27622	0.08713938
47	0xbcfa7e75	-0.030577878
48	0xbddf93be	-0.109168515
49	0xbd8e43a6	-0.06946497
50	0x3d7a12e5	0.061053175
51	0xbc82dca7	-0.015974356
52	0xbd5909e4	-0.052987948
53	0xbd0b3c13	-0.033992838
54	0xbba309a6	-0.0049755154
55	0xbd736415	-0.059421618
56	0xbd618c73	-0.055065583
57	0x3ca06e3c	0.019583814
58	0xbd93f237	-0.07223933
59	0x3d2a0659	0.04150996
60	0xbc4e6721	-0.01259783
61	0xbd3c52c6	-0.045977376
62	0x3ccdf18a	0.025139589
63	0x3d872107	0.06598096
64	0x3da7850a	0.08179672
65	0x3d9bf02e	0.0761417
66	0x3d181908	0.037133247
67	0xbc983e38	-0.018584356
68	0x3c7b4df5	0.015338411
69	0xbd60c899	-0.054878805
70	0x3d9528d3	0.07283177
71	0xbd5146b5	-0.051092822
72	0x3c40f809	0.011777886
73	0x3cbf83e8	0.023378327
74	0x3d8f7969	0.07005579
75	0x3d01774c	0.03160791
76	0x3d8509c2	0.06496002
77	0x3cce5bd1	0.025190266
78	0xbd056dcb	-0.03257541
79	0x3c0ab84a	0.0084667895
80	0xbd5af9d6	-0.05346092
81	0x3d69f5bf	0.057119127
82	0x3d9e5429	0.07730896
83	0x3d8a862a	0.06763871
84	0x3d5d03e7	0.0539588
85	0xbd8a9d8b	-0.0676833
86	0x3d08b313	0.033373903
87	0xba3bab0b	-0.0007158971
88	0xbcb53136	-0.022118192
89	0xbd808d99	-0.062770076
90	0xbdb12a2b	-0.08650621
91	0x3d17a642	0.03702379
92	0x3d0b37d3	0.033988785
93	0xbc715540	-0.014729798
94	0xbd3c1253	-0.045915913
95	0xbcf9738e	-0.030450609
96	0x3daf10ca	0.08548124
97	0x3d2c0d93	0.042005133
98	0x3d23c34f	0.039981183
99	0x3d3a4e14	0.045484617
100	0x3d306086	0.043060802
101	0x3cc55721	0.024089398
102	0x3d67114d	0.056412984
103	0x3d36e8ab	0.044655483
104	0x3cff18d6	0.031139772
105	0xbd0b4095	-0.033997137
106	0x3c2cadbc	0.010539468
107	0x3b192e05	0.0023373377
108	0x3d9b2b4f	0.0757662
109	0xbd7f3c18	-0.06231317
110	0x3d58f231	0.052965347
111	0xbd2229ae	-0.03959053
112	0x3be68ac5	0.0070355856
113	0xbd8050f8	-0.062654436
114	0xbccbb622	-0.024867121
115	0xbd08f8c8	-0.03344038
116	0xbd4fbe15	-0.050718386
117	0x3c7916a5	0.015203153
118	0x3db096f0	0.08622539
119	0x3cf31e83	0.029677635
120	0x3da7e692	0.08198275
121	0x3d960deb	0.073268734
122	0x3d9ee19f	0.077578776
123	0xbaa2274f	-0.0012371334
124	0xbd4dfd1f	-0.050290223
125	0xbb891b8b	-0.0041841916
126	0xbd3221c6	-0.04348924
127	0xbc634003	-0.013870242

weight f4 [128, 167]
0	0xbd4c8026	-0.0499269
1	0xbc096a78	-0.008387201
2	0x3d814cf5	0.063135065
3	0xbc5e95a6	-0.013585484
4	0x3d2920dd	0.041291106
5	0xbd8a10a6	-0.06741457
6	0xbe1a76df	-0.15084408
7	0xbcacdbef	-0.021100966
8	0x3e108127	0.14111768
9	0xbdad97a4	-0.08476189
10	0x3e31c40a	0.17359939
11	0x3b865f7d	0.0041007386
12	0xbd5c97fe	-0.05385589
13	0xbe37be2c	-0.17943639
14	0x3bf80e40	0.007570058
15	0xbd283660	-0.04106748
16	0x3cbc3ff3	0.022979712
17	0x3d7dc8fe	0.06195926
18	0xbdc4430c	-0.09583101
19	0x3cfca5d2	0.030840788
20	0xbd96f728	-0.0737136
21	0xbdca373a	-0.09873815
22	0x3ca0d2b6	0.019631725
23	0xbdd137b5	-0.102157034
24	0xbd9c2a86	-0.07625298
25	0xbde9e7b9	-0.11421151
26	0x3d5f2306	0.05447676
27	0xbd049df2	-0.03237719
28	0xbdb19fc3	-0.0867305
29	0x3d0115a4	0.03151478
30	0xbe257192	-0.16156605
31	0x3d511a09	0.05105022
32	0x3c094f5d	0.008380738
33	0xbda1e75f	-0.07905459
34	0xbe45bd4e	-0.19310495
35	0xbd27fd54	-0.041013077
36	0xbce58b42	-0.028020505
37	0xbacd5dfa	-0.0015668266
38	0xbc92b063	-0.017906373
39	0xbd56813c	-0.05236934
40	0x3d5530bb	0.052048426
41	0xba9a4f01	-0.0011772813
42	0x3d856db3	0.06515064
43	0x3d3f2a5d	0.04667126
44	0xbd37aee2	-0.044844516
45	0x3c6251ec	0.013813477
46	0x3d8102d0	0.062993646
47	0xbd8f36b1	-0.069928534
48	0x3db158f5	0.08659545
49	0xbd261330	-0.040545642
50	0x3d79214d	0.060822774
51	0x3cefe96c	0.029286109
52	0x3d41b3ae	0.047290497
53	0xbc40a30e	-0.011757625
54	0x3d387256	0.045030914
55	0x3bf8aebf	0.0075891907
56	0xbc5b2570	-0.013375625
57	0x3c935028	0.017982557
58	0x3e09b049	0.13446154
59	0xbadefe2c	-0.0017013005
60	0xbd40a559	-0.047032688
61	0xbd143f7b	-0.036193352
62	0xbc6376e8	-0.01388333
63	0xbda65c77	-0.08123105
64	0xbc592a74	-0.0132547505
65	0x3d66329b	0.056200605
66	0xbc2a3850	-0.0103894025
67	0x3ca41014	0.020027198
68	0xbd0e8675	-0.034796197
69	0xbc59915f	-0.013279288
70	0xbcaa5410	-0.020792037
71	0xbc9cc52a	-0.019136984
72	0xbd58214d	-0.052766133
73	0x3ce390f3	0.027779078
74	0xbd966408	-0.07343298
75	0x3d824141	0.063601024
76	0xbc7b271f	-0.015329151
77	0x3d0f318a	0.034959354
78	0xbd162e27	-0.036665108
79	0x3d69b1dc	0.057054386
80	0x3d61704a	0.055038728
81	0x3d4966b4	0.04917021
82	0x3ce6db9d	0.028180892
83	0xbd90e166	-0.07074241
84	0xbcf12e04	-0.029440887
85	0x3caf49ad	0.021397436
86	0xbc4f8b29	-0.012667456
87	0xbcd8e1ea	-0.026474912
88	0xba9d2fb5	-0.0011992367
89	0xbc3254b0	-0.010884449
90	0x3e78b8af	0.24289201
91	0xbd47a628	-0.048742443
92	0x3d3f6d88	0.046735317
93	0x3da95fb9	0.08270211
94	0x3c8cee78	0.017203555
95	0x3d9ce5e7	0.07661038
96	0x3de99d03	0.11406901
97	0x3d456157	0.048188534
98	0xbda0dea3	-0.078549646
99	0xba9a345e	-0.0011764874
100	0xbd423347	-0.047412183
101	0x3da77bdf	0.081779234
102	0xbda81149	-0.08206422
103	0xbd9949bf	-0.07484769
104	0xbc50e2c5	-0.012749379
105	0x3ab0f088	0.0013499418
106	0x3d3dd1a5	0.04634251
107	0xbda696a3	-0.081342004
108	0xbc9b06ff	-0.018924234
109	0x3ddf4afd	0.10902975
110	0x3c608d4f	0.013705566
111	0xbc864e9f	-0.016394911
112	0x3c9e7884	0.019344576
113	0xbcaa86c2	-0.02081621
114	0x3d942a7b	0.07234665
115	0xbcce5414	-0.025186576
116	0xbd1b599c	-0.037927255
117	0x3b7c7a0d	0.0038524896
118	0x3d2fb95d	0.042901386
119	0xbb96b6cc	-0.004599428
120	0x3c456df5	0.012050142
121	0xbdd5d3ea	-0.1044081
122	0xbd8d2c9d	-0.06893275
123	0xbdcec4a1	-0.10096098
124	0x3cfe2a95	0.031026164
125	0xbe3bbfc5	-0.18334873
126	0xbd20c750	-0.03925258
127	0x3ced9832	0.029003236
128	0x3ca2bec8	0.019866362
129	0x3d8dd499	0.069253154
130	0x3d68381b	0.05669413
131	0xbd435f55	-0.047698338
132	0x3caa4f5a	0.02078979
133	0xbdaad677	-0.08341687
134	0x3b8b32f7	0.004248019
135	0xbdb09cda	-0.08623667
136	0xbd2caf6f	-0.042159494
137	0xbb419948	-0.0029540826
138	0xbc714b45	-0.014727418
139	0x3ce63375	0.028100708
140	0xbd701258	-0.058611244
141	0xbce99254	-0.028512157
142	0xbd892aac	-0.06697592
143	0x3c19583b	0.009359415
144	0x3d5b9bcd	0.05361538
145	0xbdb9d72e	-0.090742454
146	0x3c8152d4	0.015786566
147	0x3d72e9b0	0.059304893
148	0x3d549e0c	0.051908538
149	0xbd13dd6f	-0.036099847
150	0xbdbe0deb	-0.092799984
151	0xbd6c5ef1	-0.05770773
152	0xbc41fa95	-0.011839529
153	0x3cbce67b	0.02305912
154	0x3da3c75d	0.0799701
155	0x3d102630	0.03519267
156	0xbb6e4484	-0.0036356756
157	0xbdb10597	-0.08643644
158	0x3d0c4a1e	0.03425037
159	0x3da2185e	0.07914804
160	0xbb6fc23d	-0.003658428
161	0xbb680fb1	-0.0035409743
162	0x3d97a54d	0.074045755
163	0xbd8e0713	-0.06934943
164	0xbdf996e6	-0.12186985
165	0xba04f4d6	-0.0005071884
166	0x3b835ce5	0.0040088766
167	0x3d858215	0.06518952
168	0xbd97c486	-0.07410531
169	0x3ada535f	0.0016656927
170	0x3dc8f61b	0.09812566
171	0xbd03b28c	-0.032152697
172	0x3c69b039	0.014263206
173	0x3b002d50	0.0019558258
174	0x3d9f6fd7	0.07785004
175	0xbd88cfd7	-0.06680267
176	0xbd676f10	-0.0565024
177	0xbd88ca7b	-0.06679245
178	0xbbbf9f64	-0.0058478583
179	0xbbe7e230	-0.007076524
180	0x3dbae8fb	0.09126469
181	0x3cf805fb	0.03027629
182	0x3e0c0719	0.13674583
183	0x3c0606cd	0.008180332
184	0xbc1b267d	-0.009469626
185	0xbb4e8c35	-0.0031516675
186	0x3cf509c6	0.029911887
187	0x3d25e6cb	0.040503304
188	0xbdafc278	-0.08582014
189	0xbdc30b64	-0.09523657
190	0xbc0978b2	-0.008390592
191	0x3b51b881	0.0032000842
192	0xbcdf51c1	-0.027260663
193	0xbd23962e	-0.039938144
194	0x3c94a993	0.018147266
195	0x3e2e4d0c	0.17021579
196	0x3d3c4d86	0.04597237
197	0x3d3d1a91	0.046167914
198	0x3d9c9e43	0.076473735
199	0xbd6a8c24	-0.057262555
200	0x3d3876c8	0.045035154
201	0x3cdf9ff9	0.02729796
202	0x3d87b4e7	0.06626301
203	0xbd72bacb	-0.05926017
204	0x3d4f75a7	0.05064931
205	0xbd09d999	-0.033654783
206	0x3d110c5f	0.03541219
207	0x3c729ce3	0.0148079125
208	0x3dadbeab	0.08483633
209	0xbd5249bb	-0.051339846
210	0x3dc005c9	0.093761034
211	0xbdcdfe5a	-0.10058279
212	0xbb46f464	-0.003035807
213	0xbd16ea06	-0.036844276
214	0xbc439eac	-0.011939686
215	0xbda2f644	-0.07957128
216	0xbd85a887	-0.06526285
217	0x3cc284f0	0.02374503
218	0x3dc8a97e	0.09797953
219	0x3d97c6b8	0.074109495
220	0x3dd039cf	0.10167276
221	0xbd2a47aa	-0.04157225
222	0xbbdadfa6	-0.006679493
223	0xbd9ce0a5	-0.07660035
224	0x3dc7a3e4	0.097480565
225	0xbda8a031	-0.08233679
226	0xbda46115	-0.080263294
227	0xbdbcd69f	-0.09220623
228	0x3c2220b1	0.00989549
229	0x3cea3a8e	0.028592374
230	0xbd83df10	-0.0643903
231	0xbdc0b30d	-0.09409151
232	0xbd4f4097	-0.050598707
233	0x3cdc7f80	0.026916265
234	0xbd88259f	-0.06647801
235	0x3d1e1724	0.038596287
236	0xbd29458b	-0.041326087
237	0xbc4102f6	-0.011780491
238	0x3da6b31d	0.08139632
239	0x3d74eaa0	0.05979407
240	0xbca2ac2a	-0.019857485
241	0xbc9ec0bc	-0.019379012
242	0x3d49f5ce	0.049306683
243	0x3cc4eef1	0.024039717
244	0xbd445445	-0.04793193
245	0x3dc7a298	0.09747809
246	0x3cd4cefa	0.0259776
247	0xbcb3d88d	-0.021953845
248	0x3d26a314	0.040682867
249	0xbccd548b	-0.025064727
250	0x3dbd98c2	0.09257652
251	0x3d3cf8e7	0.04613581
252	0x3da77110	0.08175862
253	0x3d08b022	0.0333711
254	0x3d4fc29e	0.05072271
255	0x3d8dcd71	0.069239505

bias f4 [128]
0	0xbd6caab6	-0.05777999
1	0x3d031900	0.032006264
2	0x3d82478c	0.06361303
3	0x3be3dfdf	0.0069541777
4	0x3c6b3c23	0.014357599
5	0xbd046951	-0.032327
6	0x3cd541be	0.026032325
7	0xbd06d438	-0.03291723
8	0x3d5a294c	0.05326204
9	0x3d1e1b5e	0.038600318
10	0x3cb3a54a	0.021929402
11	0x3da92c37	0.082603864
12	0x3d0ab22c	0.033861324
13	0xbd93a0eb	-0.07208427
14	0x3c8dc4b6	0.017305713
15	0xbcdcc527	-0.026949478
16	0x3daa1bc3	0.083060764
17	0xbd889df3	-0.066707514
18	0x3d8e4f75	0.06948749
19	0x3da14100	0.07873726
20	0xbd19b298	-0.037523836
21	0x3d0fc81c	0.03510295
22	0xbd55a75e	-0.052161567
23	0xbbd9aa50	-0.0066426173
24	0xbd83a6f5	-0.06428329
25	0xbd90440d	-0.0704423
26	0xbaa538ae	-0.0012605393
27	0xbbf9c51f	-0.0076223756
28	0xbd925b04	-0.07146266
29	0xbcea19be	-0.028576728
30	0xbdaaf43a	-0.08347364
31	0x3d5bbdcd	0.053647805
32	0xbcd9c936	-0.026585203
33	0x3cbb9777	0.022899373
34	0xbc5c2a0e	-0.013437761
35	0xbd737615	-0.059438784
36	0xbd47c13e	-0.048768274
37	0x3d99c4b3	0.075082205
38	0x3c4a264b	0.012338231
39	0xbc49197d	-0.012274143
40	0x3d3e48b8	0.04645607
41	0x3dad3851	0.08458007
42	0x3d8f8afa	0.070089296
43	0xbd8e4344	-0.06946424
44	0x3d94d233	0.07266655
45	0xbd5f4571	-0.054509584
46	0xbc931f54	-0.017959274
47	0x3c5e71c0	0.013576925
48	0x3d882a60	0.066487074
49	0xbd0c21d6	-0.034211956
50	0x3ce26528	0.027636126
51	0xbd2a29d3	-0.041543793
52	0x3d0bf736	0.034171306
53	0xbce3baba	-0.027799
54	0xbd1eaf60	-0.03874147
55	0xbd50896b	-0.050912302
56	0x3c8183c2	0.015809897
57	0x3d7ecc9d	0.062206853
58	0x3d1f01d2	0.038820095
59	0x3d920d76	0.07131474
60	0x3cac3e67	0.02102585
61	0xbd20723f	-0.039171454
62	0xbc9d7c4b	-0.019224307
63	0x3b928fb0	0.0044726953
64	0x3d886c6d	0.066613056
65	0xbc870083	-0.016479736
66	0xbc6d2310	-0.014473692
67	0x3da6920e	0.081333265
68	0xbd7ff016	-0.062484823
69	0xbd8d9576	-0.06913273
70	0xbd20bc19	-0.039241884
71	0xbc005c96	-0.007834574
72	0x3d8b7078	0.06808561
73	0xbd1ac075	-0.037781198
74	0x3d4543dc	0.04816042
75	0xbd128dbe	-0.035779707
76	0xbcf4efea	-0.029899556
77	0xbc93c61f	-0.018038807
78	0xbca53d51	-0.02017084
79	0x3d516aeb	0.051127356
80	0x3c8dee4d	0.017325545
81	0x3cdc7493	0.026911056
82	0xbd7b0e85	-0.061293144
83	0xbcb91232	-0.022591684
84	0x3d8ee8e3	0.06978013
85	0xbcdfa2c9	-0.027299302
86	0x3d6256c2	0.05525852
87	0x3d1cc292	0.038271494
88	0xbd90c320	-0.07068467
89	0x3abebf3e	0.0014552844
90	0x3d900d9f	0.07033848
91	0xbc0bb40f	-0.008526816
92	0x39f1de04	0.00046132517
93	0xbd3d4c12	-0.046215124
94	0x3cf92fd6	0.030418318
95	0x3d8dc97f	0.06923198
96	0xbd052a5c	-0.0325111
97	0xbdbe1ebd	-0.092832066
98	0x3b5b83eb	0.0033495377
99	0x3b68f8d6	0.0035548708
100	0xbd371922	-0.044701703
101	0x3c004761	0.007829518
102	0xbb45f2a4	-0.003020444
103	0x3a830566	0.0009996116
104	0x3d6961d9	0.05697808
105	0xbced1e54	-0.028945126
106	0xbd68b9d8	-0.05681786
107	0x3cc5c8d4	0.024143614
108	0x3d05316b	0.03251783
109	0xbd8880a4	-0.06665161
110	0xbd3b5e6c	-0.045744345
111	0x3d9c6f62	0.07638432
112	0xbd3d052d	-0.046147514
113	0x3ccd3b81	0.025052788
114	0xbd2a4db4	-0.04157801
115	0xbd8f258d	-0.06989584
116	0xbd886e57	-0.06661671
117	0xbc197a4b	-0.009367536
118	0xbcdd92cb	-0.027047535
119	0xbd7bb17e	-0.061448567
120	0xbd9bdf28	-0.07610923
121	0x3d1a4346	0.037661813
122	0x3c9f1f13	0.019423997
123	0x3d3c9807	0.046043422
124	0xbdb0661e	-0.08613227
125	0xbd802bc7	-0.0625835
126	0xbc6efd13	-0.014586705
127	0xbc0c9b99	-0.008582019

weight f4 [128, 256]
0	0x3c64d518	0.013966821
1	0x3d6475c3	0.05577637
2	0x3d000848	0.031257898
3	0xbd0bb6b5	-0.03410979
4	0x3c4fac3f	0.012675344
5	0xbd0301d9	-0.031984184
6	0x3e2627e6	0.16226158
7	0xbd13d5a6	-0.036092423
8	0xbdff776d	-0.124739505
9	0x3c81d290	0.015847474
10	0xbec1e8dd	-0.37872973
11	0xbd8ef884	-0.06980994
12	0xbce04b29	-0.02737959
13	0x3e05b2f9	0.13056554
14	0xbd3fb82a	-0.046806492
15	0x3d9dcd15	0.07705132
16	0x3d7bb4c0	0.061451674
17	0x3b9345f2	0.004494422
18	0x3c106361	0.008812756
19	0xbd4b781d	-0.049675096
20	0x3d226bc6	0.039653562
21	0x3dad6600	0.084667206
22	0xbe0a51f9	-0.13507833
23	0x3ca7701f	0.020439206
24	0xbc9fe53f	-0.019518493
25	0xbd2a02e7	-0.041506674
26	0x3d1af5e2	0.03783215
27	0xbc93eeb8	-0.018058166
28	0x3d3f411e	0.04669296
29	0xbcf42d34	-0.02980671
30	0x3e83def0	0.25756025
31	0x3dc51411	0.09622968
32	0xbd10516e	-0.035233907
33	0x3da1ced8	0.079007804
34	0xbd72b735	-0.05925675
35	0x3d3e76e7	0.046500113
36	0xbd8a2f24	-0.067472726
37	0x3b19775a	0.0023417086
38	0xbd6cd3fd	-0.057819355
39	0xbd12d284	-0.035845295
40	0x3c4993c0	0.012303293
41	0x3c131137	0.008976272
42	0x3c86fa05	0.01647664
43	0xbc851f68	-0.016250327
44	0x3ca5de7a	0.020247687
45	0x3ab491c2	0.0013776349
46	0xbda236de	-0.07920621
47	0x3d7d7d0f	0.061886843
48	0xbc8ac6a9	-0.016940432
49	0xbd091d38	-0.03347513
50	0x3cd0fc19	0.025510835
51	0x3cffaf79	0.031211602
52	0xbd026dd7	-0.031843033
53	0x3cbdcdff	0.023169516
54	0xbd1eb2ea	-0.038744844
55	0x3c86ed49	0.016470568
56	0x3dadccad	0.084863044
57	0xbd1757d6	-0.036949
58	0xbe0a8327	-0.13526593
59	0x3cde39c4	0.027127154
60	0x3dbcdd1b	0.0922186
61	0x3d8c571b	0.068525515
62	0xbcdf73bc	-0.027276866
63	0x3e1286ef	0.14309286
64	0x3cec3200	0.028832436
65	0xbec236bb	-0.3793238
66	0x3d94a916	0.07258813
67	0x3caae77e	0.020862337
68	0x3bead613	0.007166633
69	0xbca57444	-0.020197041
70	0x3e04a345	0.12952907
71	0x3caed053	0.021339571
72	0xbd013dd2	-0.031553097
73	0xbc625414	-0.013813991
74	0xbd5e6f01	-0.05430508
75	0xbd4bb859	-0.049736355
76	0x3d7c83ba	0.06164906
77	0xbd0a8fce	-0.03382855
78	0xbde68882	-0.112565055
79	0x3c90d397	0.017679019
80	0xbdc28f86	-0.09500031
81	0x3c967146	0.01836456
82	0xbbed21a2	-0.0072366754
83	0x3dcf5698	0.10123938
84	0xbdf4b294	-0.119481236
85	0xbdb0c3e1	-0.08631111
86	0x3c5f2e4b	0.013621877
87	0x3c1cb947	0.009565658
88	0x3ba32246	0.004978451
89	0xbd5e2781	-0.054236893
90	0x3e2d9543	0.1695147
91	0x3d46ad4a	0.048505105
92	0x3d11da78	0.03560874
93	0xbc1a57b6	-0.009420326
94	0xbd8f4944	-0.06996396
95	0xbc4ff612	-0.012692945
96	0x3dc9e853	0.098587655
97	0x3d21df72	0.039519735
98	0xbd111632	-0.035421558
99	0xbcc8d08d	-0.024513507
100	0xbc79e29a	-0.01525178
101	0xbe6a4cdb	-0.2288088
102	0xbd546b38	-0.051860064
103	0x3d946163	0.072451375
104	0xbd18b292	-0.037279673
105	0xbcda2598	-0.026629254
106	0x3d77fa83	0.06054164
107	0x3d05a5fa	0.03262899
108	0x3cd85761	0.026408853
109	0x3d992c29	0.07479126
110	0x3d72e440	0.059299707
111	0x3bcf01e9	0.0063173664
112	0xbcb76cae	-0.02239069
113	0x3d127817	0.035759058
114	0xbdb3ac57	-0.087731056
115	0xbed13b6d	-0.4086565
116	0xbd5b8636	-0.05359479
117	0xbd586f56	-0.052840553
118	0xbd935d12	-0.07195486
119	0xbc589b42	-0.01322061
120	0xbc5b716a	-0.013393739
121	0x3d318087	0.043335464
122	0xbd2d3303	-0.042284977
123	0x3d632bfe	0.055461876
124	0xbd247f0f	-0.040160235
125	0x3e15915f	0.14606236
126	0xbdb9b11c	-0.09066984
127	0x3ca78990	0.020451337
128	0x3d034cda	0.032055713
129	0x3da1eac2	0.079061046
130	0xbc81ff65	-0.015868852
131	0x3cf7a167	0.03022833
132	0x3d4ce48a	0.05002264
133	0xbe133d9a	-0.14378968
134	0x3e13f580	0.1444912
135	0xbc84cb52	-0.016210232
136	0x3d470b04	0.04859449
137	0x3d678060	0.056518912
138	0x3d9f6ff9	0.07785029
139	0xbd24b0bb	-0.040207606
140	0xbc25724d	-0.010098052
141	0x3c39080b	0.0112934215
142	0x3d7a3bd7	0.061092224
143	0x3dafd082	0.085846916
144	0x3d3919d3	0.045190644
145	0x3d3a9292	0.045549937
146	0x3dde4c40	0.10854387
147	0x3ba3c4df	0.004997834
148	0x3d1e1fe6	0.03860464
149	0x3ceb9131	0.028755756
150	0x3dd11002	0.102081314
151	0xbd192e44	-0.037397638
152	0xbd5664e9	-0.05234233
153	0xbd37cdc8	-0.044873983
154	0xbd7952da	-0.06087003
155	0xbd4c667e	-0.04990243
156	0xbcd75ffa	-0.026290882
157	0xbba5b33b	-0.0050567663
158	0x3cf3cfca	0.029762167
159	0xbd5672b6	-0.05235549
160	0x3c0103c7	0.007874436
161	0x3da0ec1f	0.078575365
162	0x3d9fb90b	0.07798966
163	0xbc465306	-0.012104755
164	0xbd00891f	-0.03138077
165	0x3d921df0	0.071346164
166	0xbd1417ee	-0.036155634
167	0xbd2d06f6	-0.042242967
168	0xbd2e629e	-0.042574517
169	0x3d18c30a	0.03729538
170	0xbdb43cf8	-0.08800691
171	0x3d808f82	0.06277372
172	0x3c896a74	0.016774394
173	0x3cfe276a	0.031024653
174	0x3df09728	0.11747581
175	0x3d4730fb	0.048630696
176	0xbc8d0bf2	-0.01721761
177	0x3d1d2f65	0.038375277
178	0xbd65a521	-0.056065682
179	0xbc411854	-0.011785585
180	0x3d200ba2	0.039073594
181	0xbd51629c	-0.05111943
182	0xbd2ea904	-0.042641655
183	0xbca3a600	-0.019976616
184	0xbd8348b0	-0.064103484
185	0xbcbfdb14	-0.023419894
186	0xbadf9ad9	-0.0017059698
187	0xbbeb68ad	-0.007184109
188	0xbcd8d7b6	-0.026470046
189	0x3d02b3f2	0.03190989
190	0x3d8c6018	0.06854266
191	0xbd30c59e	-0.043157212
192	0xbcfd8093	-0.030945098
193	0x3dcdb081	0.10043431
194	0xbcc7e1de	-0.024399694
195	0xb9dc764e	-0.00042049814
196	0x3cb0dfa6	0.021591019
197	0x3d5ab692	0.05339677
198	0xbd236d38	-0.03989908
199	0xbcbb52f3	-0.022866702
200	0x3c506e78	0.01272165
201	0xbd584390	-0.052798808
202	0xbc2e4448	-0.010636397
203	0x3c61d5b4	0.013783861
204	0xbd754b98	-0.059886545
205	0x3d3836c8	0.04497412
206	0x3d23e171	0.04000992
207	0xbcc5390b	-0.024075052
208	0xbd43eb31	-0.047831718
209	0x3d1baaa2	0.038004525
210	0x3d6528ca	0.055947103
211	0x3da5d203	0.08096697
212	0x3c5c0763	0.0134294955
213	0xbc870809	-0.016483324
214	0xbb70e8dd	-0.003675989
215	0xbdc44ac3	-0.09584572
216	0xbda04375	-0.078253664
217	0xbc6f5e30	-0.014609858
218	0xba538423	-0.0008068701
219	0x3d6c58a7	0.057701733
220	0x3c0f807f	0.008758663
221	0x3cdd262a	0.026995737
222	0xbc92d45d	-0.017923528
223	0x3b857920	0.004073277
224	0xbd6d0b20	-0.057871938
225	0x3d59e46c	0.053196356
226	0xbd48ef49	-0.049056325
227	0xbd6b4b64	-0.057444945
228	0x3a89e6b4	0.0010521025
229	0x3c1a71de	0.009426562
230	0xbdd83bb6	-0.10558264
231	0x3d5731f6	0.05253788
232	0xbd0e805a	-0.034790374
233	0xbd857f41	-0.065184124
234	0xbca96633	-0.020678615
235	0x3d3ddcbb	0.046353083
236	0xbcde2fd1	-0.02712241
237	0x3da8170d	0.082075216
238	0xbb129827	-0.0022368522
239	0xbd5fe5b5	-0.054662425
240	0x3d7f537e	0.062335484
241	0x3dab2447	0.08356529
242	0x3d33918a	0.04383997
243	0xbd367c90	-0.044552386
244	0xbce5199f	-0.027966319
245	0x3ce8dfad	0.02842697
246	0xbc868dc0	-0.016425014
247	0xbdd06066	-0.101746365
248	0x3c9630b9	0.01833378
249	0xbc445aa3	-0.0119845
250	0x3c7f4820	0.015581161
251	0x3c95f436	0.018304925
252	0x3db276a0	0.08714032
253	0x3da99bac	0.08281645
254	0xbd6bae0b	-0.057539027
255	0x3d93b01a	0.07211323

bias f4 [128]
0	0xbd730a66	-0.05933609
1	0x3d5a0d99	0.053235624
2	0x3c70dfbc	0.01470178
3	0xbc8a2d45	-0.01686729
4	0x3d2c7ef3	0.042113256
5	0xbcd5bd9b	-0.026091387
6	0x3c1073e8	0.008816697
7	0xbd6f7824	-0.058464184
8	0xbd037498	-0.032093614
9	0x3d053b82	0.032527454
10	0xbd35fd9b	-0.04443131
11	0xbd7f1360	-0.062274337
12	0xbc76a212	-0.015053289
13	0xbc66cdfe	-0.014087198
14	0x3c957106	0.01824237
15	0x3a0b5244	0.0005314688
16	0x3c1c0c7d	0.009524462
17	0x3d13335e	0.03593766
18	0x3d50a53f	0.05093884
19	0x3c56e872	0.013116943
20	0x3cabecca	0.020986933
21	0xbd3a995d	-0.045556415
22	0xbd3d120f	-0.0461598
23	0x3ca7f9d0	0.020504862
24	0xbd5f5f16	-0.05453404
25	0x3d7104be	0.058842413
26	0x3d7d2c38	0.06180975
27	0x3d728512	0.059208937
28	0x3c4a4b0f	0.012346997
29	0x3d627ff8	0.05529782
30	0xbbfd3475	-0.0077272006
31	0xbc9b6a48	-0.018971577
32	0x3d864f85	0.06558136
33	0xbb0eac21	-0.0021770077
34	0xbbe46485	-0.0069699907
35	0xbcd962a7	-0.026536299
36	0x3d54f6ba	0.05199311
37	0xbd1ce329	-0.038302574
38	0xbb967998	-0.004592132
39	0xbc4fa334	-0.012673188
40	0x3d83e365	0.064398564
41	0x3c7b73c8	0.015347429
42	0xbcdc059a	-0.02685814
43	0x3da5c495	0.08094136
44	0xbc2dcd97	-0.0106080985
45	0x3cd7fa49	0.026364462
46	0x3c9ddf45	0.019271502
47	0x3b4428f6	0.0029931641
48	0x3d1a81a1	0.03772128
49	0x3d2b03d3	0.041751694
50	0x3c089835	0.00833707
51	0x3d48c005	0.04901125
52	0x3c9162f7	0.017747385
53	0xbd186035	-0.037201125
54	0x3c4f221c	0.01264241
55	0xbc326bbe	-0.010889946
56	0x3d795acb	0.060877603
57	0xbc5dc8cb	-0.013536642
58	0xbd16a81c	-0.036781415
59	0xbce81427	-0.028329922
60	0x3ccff04e	0.02538314
61	0x3d0e4b25	0.034739632
62	0x3b868d22	0.00410618
63	0xbd1da86a	-0.03849069
64	0xbd271a66	-0.04079666
65	0xbd0aee87	-0.033918884
66	0x3c45e05b	0.012077416
67	0x3cc57427	0.024103237
68	0xbca1b752	-0.019740734
69	0x3d23f3a3	0.040027272
70	0xbc08e7a4	-0.008356009
71	0xbaa94683	-0.0012914691
72	0x3d8a9bfa	0.067680314
73	0x3c81498a	0.015782136
74	0x3c1557db	0.009115185
75	0x3d4062de	0.046969287
76	0x3d05050c	0.032475516
77	0xbbdae960	-0.0066806525
78	0xbd4c35ad	-0.049855877
79	0xbd6e5601	-0.05818749
80	0xbce41d7d	-0.027846092
81	0x3d846a15	0.06465546
82	0x3cfff821	0.031246247
83	0x3d43f7b9	0.04784367
84	0x3c00cd75	0.007861485
85	0xbc994003	-0.018707281
86	0xbd0feb7f	-0.035136696
87	0x3d341751	0.04396755
88	0x3b32be97	0.0027274245
89	0x3cea410b	0.028595468
90	0x3d9787ea	0.073989704
91	0xbca48942	-0.02008498
92	0xbb0fd567	-0.0021947266
93	0x3d387a2f	0.0450384
94	0x3d633f19	0.055480096
95	0xbd04310e	-0.032273345
96	0xbd3b9da8	-0.04580465
97	0xbbc67014	-0.006055841
98	0x3ba7715d	0.0051099495
99	0x3d983899	0.0743267
100	0xbccae567	-0.02476759
101	0xbd365ef8	-0.044524163
102	0x3cc8da27	0.024518086
103	0xbd43bc3c	-0.047786936
104	0xbb3f8a32	-0.0029226658
105	0xbd70c6ea	-0.05878345
106	0x3d662d11	0.056195322
107	0x3d8996d7	0.067182235
108	0xbc919077	-0.017769082
109	0x3cd8a981	0.026448013
110	0x3b3fc70f	0.0029262935
111	0x3d31bdd6	0.043393932
112	0x3b9d6a3d	0.0048039244
113	0x3d815286	0.06314568
114	0xbcc4bf7d	-0.02401709
115	0xbc93c843	-0.018039828
116	0x3d48fcc5	0.049069185
117	0x3cf59859	0.029979872
118	0x3d0e1646	0.03468921
119	0x3badf807	0.005309108
120	0x3a99bfe6	0.0011730164
121	0x3d086f61	0.033309344
122	0x3c89afbe	0.016807433
123	0x3c1dcdb7	0.009631566
124	0x3d0a8f74	0.033828214
125	0x3d434ac5	0.047678728
126	0xbd130b11	-0.035899226
127	0x3da3d714	0.08000007

weight f4 [128, 128]
0	0xbda49e86	-0.080380484
1	0x3d701491	0.058613364
2	0x3cb69fdc	0.022293024
3	0x3bbe202c	0.005802175
4	0xbd8e8425	-0.06958798
5	0x3ce7cf51	0.028297098
6	0x3d65032c	0.055911228
7	0xbbdff4db	-0.006834609
8	0xbd6b625d	-0.057466853
9	0xbe343dac	-0.17601651
10	0x3dc03a81	0.09386159
11	0x3cce8b95	0.025213042
12	0x3da47bad	0.08031402
13	0xbdd75139	-0.10513539
14	0x3d429485	0.04750492
15	0xbbc83f3d	-0.006111054
16	0x3d936429	0.071968384
17	0xbd168c78	-0.036755055
18	0x3ca0af31	0.019614788
19	0xbc6d661b	-0.014489676
20	0x3dc80b42	0.09767772
21	0xbcada8f3	-0.021198725
22	0x3b851571	0.004061394
23	0xbc0b2a9e	-0.008494047
24	0xbc6ff60d	-0.014646065
25	0xbd394eee	-0.04524129
26	0xbd809fe8	-0.062805
27	0xbdae3a3b	-0.085072
28	0x3d6eac12	0.058269568
29	0x3c51421e	0.012772111
30	0x3d9846f2	0.07435407
31	0xbcf3f492	-0.029779706
32	0x3d367940	0.044549227
33	0x3da1d31f	0.07901596
34	0xbd8b4aa2	-0.068013445
35	0x3d050b72	0.03248162
36	0x3c8758cf	0.01652184
37	0x3d2be3cc	0.04196529
38	0x3d44e4f4	0.04806991
39	0x3d037773	0.032096338
40	0xbd8ed4a0	-0.06974149
41	0x3d7549f8	0.059884995
42	0x3d8f9336	0.070105
43	0xbd628181	-0.055299286
44	0xbd7320dc	-0.05935751
45	0xbcd762af	-0.026292173
46	0x3d99d44d	0.07511196
47	0xbd09d812	-0.033653326
48	0x3db41812	0.087936535
49	0xbd83c723	-0.06434467
50	0x3da9fa0d	0.082996465
51	0xbcf7873e	-0.030215856
52	0xbcbdc35d	-0.023164446
53	0xbd9e48f4	-0.077287585
54	0x3da28e2b	0.07937273
55	0x3d138442	0.036014803
56	0xbc98c877	-0.018650277
57	0x3e323882	0.17404369
58	0x3dd69acc	0.10478744
59	0x3dabba8a	0.08385189
60	0xbd37a054	-0.044830635
61	0xbd8bd915	-0.068285145
62	0x3e3c2216	0.18372378
63	0x3cd14965	0.025547693
64	0xbddfd5be	-0.1092944
65	0x3c3780eb	0.01120017
66	0xbd468bb7	-0.048473086
67	0x3c8206a3	0.015872305
68	0x3d4f30dc	0.050583705
69	0x3d3851e2	0.044999965
70	0x3c9357c1	0.01798618
71	0xbd219633	-0.03944988
72	0xbd5f5605	-0.054525394
73	0x3d5457b6	0.05184146
74	0xbda58bd6	-0.08083312
75	0xbd1048ba	-0.035225607
76	0x3d62f71b	0.05541144
77	0x3d0b82ef	0.034060415
78	0x3c9e135b	0.019296339
79	0xbdc200aa	-0.09472783
80	0x3cb47ee7	0.022033168
81	0x3da02e62	0.07821347
82	0xbd1eadc0	-0.03873992
83	0xbcad27cc	-0.02113714
84	0x3be8eb1c	0.0071081053
85	0x3db5653c	0.088571995
86	0x3ce3a7b6	0.027789932
87	0x3d8024a7	0.06256991
88	0x3eb2cbd2	0.34921128
89	0x3be52b00	0.0069936514
90	0x3b4ccda6	0.0031250506
91	0xbd8c7758	-0.068587005
92	0x3d9f04c2	0.07764579
93	0xbd2cb5db	-0.04216562
94	0xbca2bc0d	-0.01986506
95	0xbc7b1db9	-0.015326911
96	0x3d49e886	0.049294017
97	0x3d5c613c	0.053803667
98	0x3db7c19c	0.08972475
99	0xbd27121e	-0.040788762
100	0x3c28be9b	0.01029935
101	0x3d2e5333	0.042559814
102	0x3d3a5929	0.045495186
103	0x3d27698b	0.040872138
104	0xbd886d5a	-0.06661482
105	0xbe050435	-0.12989886
106	0xbd3d05c7	-0.046148088
107	0x3d626cb2	0.05527944
108	0x3ca35e3e	0.0199424
109	0xbd8c611d	-0.068544604
110	0xbd1bf86a	-0.038078703
111	0x3d351993	0.044213843
112	0xbd7712d8	-0.060320705
113	0x3d6f587b	0.05843399
114	0x3ce6fa8c	0.028195642
115	0xbb9f1111	-0.0048543294
116	0x3c54a2c2	0.012978258
117	0xbd28efb2	-0.041244216
118	0xbd17e045	-0.037079114
119	0x3da8562f	0.08219563
120	0x3db25328	0.08707267
121	0xbcf3e7d4	-0.02977363
122	0xbd02060f	-0.03174406
123	0x3d164a0a	0.036691703
124	0xbd0060d8	-0.031342357
125	0xbb281b6c	-0.002565111
126	0x3d3ed598	0.046590418
127	0xbe327c07	-0.17430125
128	0x3dc78139	0.09741444
129	0x3ce74e43	0.02823556
130	0x3cec3de4	0.028838105
131	0x3de5b290	0.11215699
132	0x3e08ac1b	0.13346903
133	0x3d76091d	0.060067285
134	0xbd032b53	-0.03202374
135	0xbd5fdbf2	-0.054653116
136	0xbc34edb8	-0.011043005
137	0x3d9e8c32	0.07741584
138	0x3d253072	0.040329404
139	0x3de098a7	0.10966616
140	0x3bce1f10	0.006290324
141	0x3d0e53a9	0.034747753
142	0xbd2b2b18	-0.041789144
143	0xbd68d86b	-0.056847017
144	0x3c191a5d	0.009344664
145	0xbd648916	-0.055794798
146	0xbc7ba3a0	-0.015358835
147	0xbc7e15ff	-0.015508174
148	0x3cfdcf40	0.030982614
149	0xbcaf287c	-0.02138161
150	0x3d8cc70b	0.06873902
151	0xbd3f3ff1	-0.04669184
152	0xbd5c67df	-0.053809997
153	0x3d612524	0.05496706
154	0xbb828dbe	-0.003984182
155	0x3db245c3	0.08704712
156	0x3d87e459	0.06635351
157	0xbc4bf824	-0.012449298
158	0x3d5f354e	0.054494195
159	0x3d766621	0.06015599
160	0xbd46d692	-0.048544474
161	0xbd429014	-0.047500685
162	0x3e02fc95	0.12791665
163	0x3d5578d7	0.052117195
164	0xbd240a15	-0.040048677
165	0x3ca922be	0.02064645
166	0x3db5a1ac	0.08868727
167	0x3dff5d47	0.12468963
168	0x3d762d3b	0.06010173
169	0xbd686559	-0.056737278
170	0xbd02a60c	-0.031896636
171	0x3cc3ce7f	0.023902176
172	0x3ddb46d6	0.1070687
173	0x3c3f7271	0.011685
174	0x3d2bd27f	0.04194879
175	0x3d5e243b	0.05423377
176	0xbb41946c	-0.002953793
177	0x3daff812	0.085922375
178	0x3dda6653	0.10664048
179	0x3db377a6	0.087630555
180	0x3da0205d	0.07818673
181	0xbd6a59ba	-0.057214476
182	0x3df92466	0.121651456
183	0xbc8da5de	-0.017291006
184	0x3db1af56	0.08676021
185	0xbc8bff1f	-0.017089425
186	0x3dc75d4c	0.09734592
187	0x3d921db2	0.0713457
188	0xbd2f51e7	-0.042802718
189	0xbd0f318a	-0.034959354
190	0x3d4c63ce	0.04989987
191	0x3d88d078	0.06680387
192	0xbdbd422e	-0.092411384
193	0x3d24f656	0.040273987
194	0xbcde4a5b	-0.027135065
195	0xbc2f1379	-0.010685795
196	0xbd183171	-0.037156526
197	0x3cbfb72d	0.023402775
198	0x3d9162b4	0.07098904
199	0x3d5f2213	0.054475855
200	0x3e0a8f33	0.13531189
201	0x3cb3e2c3	0.021958714
202	0xbd2862df	-0.041109916
203	0xba4bce7c	-0.0007774604
204	0xbc8d647f	-0.017259834
205	0xba4a7067	-0.0007722438
206	0x3dfa4ea1	0.122220285
207	0x3d986d92	0.07442774
208	0xbd182211	-0.037141863
209	0xbd03eca1	-0.03220809
210	0x3d2f66e5	0.042822737
211	0x3d0355ab	0.03206412
212	0x3d70f36f	0.058825906
213	0x3bda69b4	0.006665433
214	0x3d637aba	0.055536963
215	0xbc260b29	-0.010134497
216	0xbcbeb2ee	-0.02327868
217	0x3cf8843b	0.03033649
218	0x3b97c543	0.0046316697
219	0x3d1d9062	0.038467772
220	0x3dc75688	0.097333014
221	0x3d9acd46	0.07558684
222	0x3d8f25c0	0.06989622
223	0x3cee3a24	0.029080458
224	0x3b5c7941	0.003364161
225	0xbd2992ec	-0.04139988
226	0x3dd4259e	0.103587374
227	0xbc544d00	-0.012957811
228	0xbd39d4ce	-0.045368962
229	0x3a1b93fd	0.0005934833
230	0x3d75288f	0.059853133
231	0x3de1811f	0.11010956
232	0xbcaac9f1	-0.020848246
233	0xbbe45e62	-0.006969259
234	0xbd0a6bee	-0.033794336
235	0x398d32f6	0.00026931585
236	0x3ca67e57	0.020323915
237	0xbd885504	-0.066568404
238	0x3d56b869	0.05242196
239	0xbce4242d	-0.027849281
240	0x3c9ce629	0.019152718
241	0x3d8c98d4	0.06865087
242	0x3d6e26bd	0.058142412
243	0xbc31c277	-0.010849587
244	0xbcf76a81	-0.030202152
245	0xbd2af57e	-0.041738026
246	0x3d1b4758	0.037909836
247	0xbabeaf4d	-0.0014548093
248	0x3d057a40	0.03258729
249	0x3dbdfc4f	0.0927664
250	0x3da23f8a	0.07922275
251	0xbc3ab8c5	-0.011396592
252	0x3d72eaa3	0.0593058
253	0x3ce089c7	0.027409447
254	0x3ddc2301	0.10748864
255	0x3d92c177	0.07165807
