E-GraphSAGE/experiments/model/None_GATE_MLP_NF-BoT-IoT-v2_best_model.pth (torch, 490586 bytes, 14 tensors)

weight f4 [128, 78]
0	0x3d3c8144	0.046021715
1	0x3ddde5ef	0.10834872
2	0xbb933284	-0.004492106
3	0x3dfcb819	0.12339801
4	0x3d08e3ee	0.033420496
5	0xbd29d7ef	-0.041465696
6	0x3d5dccd6	0.054150425
7	0x3d56141f	0.052265283
8	0x3b7ed2b7	0.003888292
9	0x3e028799	0.12747039
10	0x3dd21537	0.10257953
11	0xbd52ab6b	-0.05143301
12	0xbd2669cc	-0.04062824
13	0x3dc11b82	0.09429075
14	0xbcc84479	-0.024446713
15	0xbd5d37cd	-0.054008294
16	0x3d664fe3	0.05622853
17	0xbd3a78b6	-0.045525275
18	0x3d731bb8	0.059352607
19	0xbbad454b	-0.0052878014
20	0x3d1aeacc	0.037821576
21	0xbda5a585	-0.08088211
22	0x3c49348d	0.0122805955
23	0x3df5359b	0.11973115
24	0x3d8d9e55	0.06914965
25	0xbda18361	-0.07886387
26	0x3dea6463	0.114449285
27	0x3b7e10e1	0.0038767385
28	0x3c1845c7	0.00929398
29	0xbda33366	-0.07968788
30	0x3dce74d6	0.100808784
31	0xbd6db380	-0.058032513
32	0xbdaca22a	-0.08429368
33	0x3be73c76	0.007056768
34	0x3c244484	0.010026101
35	0x3dd21f25	0.102598466
36	0x3e049fc5	0.12951572
37	0xbcfe2861	-0.031025114
38	0x3dbee1dc	0.09320423
39	0x3d07759b	0.03307114
40	0xbde7a16f	-0.11310088
41	0xbd1d6187	-0.038423087
42	0xbd10689a	-0.035256006
43	0x3d811363	0.06302526
44	0x3ca1f0b0	0.019768089
45	0x3e1dfc65	0.15428312
46	0x3d7e6ece	0.06211739
47	0x3cf52b36	0.029927831
48	0xba62ee14	-0.0008656692
49	0x3d7d6202	0.061861046
50	0x3db3a381	0.0877142
51	0x3d3d18d7	0.046166267
52	0x3d90324b	0.070408426
53	0x3dca3c0e	0.09874736
54	0x3d3ae1fb	0.045625668
55	0xbc929a4c	-0.01789584
56	0xbd409d00	-0.047024727
57	0x3a5c48a5	0.0008403159
58	0xbdc18a19	-0.09450168
59	0x3e010a8a	0.12601677
60	0x3e0496ef	0.12948202
61	0x3dd76eef	0.10519206
62	0xbddb5385	-0.107092895
63	0x3e04efae	0.12982056
64	0x3d43b660	0.04778135
65	0x3d3ee8d1	0.04660875
66	0xbc9c486b	-0.0190775
67	0x3d273577	0.040822472
68	0x3d8821bd	0.0664706
69	0xbc7909b4	-0.015200067
70	0xbcc6b20e	-0.024254825
71	0x3decd73c	0.1156449
72	0xbdcf1b36	-0.10112612
73	0x3cbe4b32	0.023229215
74	0xbe0fe533	-0.14052276
75	0x3d48a496	0.048985086
76	0x3c87f37f	0.0165956
77	0xbd8b24e0	-0.06794143
78	0x3d3ff403	0.046863567
79	0xbc2c9bdb	-0.010535206
80	0x3bd1c7ba	0.006401983
81	0xbd65a91b	-0.056069475
82	0xbd16d8af	-0.03682774
83	0x3b44f0e2	0.0030050804
84	0x3df072c7	0.11740642
85	0xbdade491	-0.08490861
86	0xbd989510	-0.074503064
87	0xbd14304c	-0.036178872
88	0xb93073e4	-0.0001682784
89	0x3c978409	0.018495576
90	0x3da1eb95	0.07906262
91	0xbdccf548	-0.10007721
92	0x3c4a949a	0.012364531
93	0x3d1273c0	0.03575492
94	0xbdc3c4ae	-0.09558998
95	0xbd56ac55	-0.052410442
96	0xbdd04f5a	-0.10171385
97	0xbc9081c1	-0.017639996
98	0x3deb1845	0.114792384
99	0xbca5b7db	-0.02022927
100	0xbd3b231d	-0.045687784
101	0x3d96057f	0.07325267
102	0xbd814207	-0.06311422
103	0x3df4cb33	0.1195282
104	0x3c1fe0b2	0.009758161
105	0xbd861bef	-0.06548297
106	0xbd7377a4	-0.05944027
107	0x3dbe6b48	0.09297806
108	0x3dc2d87c	0.09513947
109	0xbdc2388c	-0.09483442
110	0x3d4d49c5	0.05011918
111	0xbda7d828	-0.081955254
112	0x3dd92b13	0.10603919
113	0x3dc4fbb3	0.0961832
114	0xbce236ce	-0.027614024
115	0x3de2726a	0.11056979
116	0x3c33ec83	0.010981682
117	0x3ccae71c	0.024768405
118	0xbd3ea9f4	-0.0465488
119	0xbd062fb5	-0.03276034
120	0x3d9d16a9	0.07670338
121	0xbd7c8a15	-0.061655123
122	0xbe1a576b	-0.1507241
123	0x3e5e8682	0.21730998
124	0x3df57c17	0.11986559
125	0xbdc36ebb	-0.095426045
126	0x3d52a516	0.05142697
127	0xbdd90bb5	-0.10597936
128	0xbcf938a5	-0.030422518
129	0x3d806f64	0.06271246
130	0x3da9cb7c	0.08290765
131	0x3ddba297	0.10724371
132	0x3db29746	0.08720259
133	0x3de68c6b	0.11257251
134	0xbe2ac64a	-0.16677204
135	0x3e43827d	0.19092746
136	0xbca10025	-0.01965339
137	0x3dcb05aa	0.0991319
138	0x3d093ac4	0.03350331
139	0xbd13565a	-0.035971023
140	0x3dbcfd31	0.0922798
141	0xbe1a6ff9	-0.15081777
142	0xbc97dba2	-0.018537346
143	0x3dca7d4a	0.09887178
144	0x3cd444e1	0.02591175
145	0x3de68864	0.11256483
146	0xbe04d191	-0.12970568
147	0x3e35072b	0.17678516
148	0x3dc3d102	0.095613495
149	0xbd24d576	-0.040242635
150	0xbddfc48c	-0.1092616
151	0x3dc52a85	0.096272506
152	0xbbc59f33	-0.006030941
153	0xbdfbb666	-0.12290649
154	0xbde46625	-0.11152295
155	0xbd9b4774	-0.07581988
156	0xbdb84a07	-0.089984946
157	0x3d85677c	0.06513879
158	0xbdb362bb	-0.08759066
159	0xbdbf0727	-0.09327536
160	0xbd1b3035	-0.03788777
161	0xbce3b5f9	-0.027796732
162	0xbd770a02	-0.06031228
163	0xbcc64bad	-0.024206007
164	0x3d357059	0.044296596
165	0x3d44e919	0.04807386
166	0x3c886590	0.016649991
167	0x3d881883	0.066453
168	0xbd5cfa02	-0.053949364
169	0xbdb6a5c8	-0.08918339
170	0x3d1394d0	0.03603059
171	0xbde869dc	-0.11348316
172	0xbdd60e34	-0.10451928
173	0xbd9e9394	-0.07742992
174	0xbc126347	-0.008934802
175	0xbdc91742	-0.09818889
176	0xbdc2f47e	-0.095192894
177	0x3bc28b77	0.0059370357
178	0x3d887b26	0.06664114
179	0xbcd84a52	-0.026402626
180	0x3dd380ca	0.10327299
181	0x3db5a9b2	0.088702574
182	0xbd33c823	-0.043892037
183	0xbd1a3fed	-0.03765862
184	0xbd3bb1aa	-0.04582373
185	0x3cfeddd8	0.031111643
186	0xbdbb0a72	-0.09132852
187	0x3ca5763c	0.02019798
188	0xbd0ca413	-0.03433616
189	0xbcf610f4	-0.03003738
190	0xbc74a08a	-0.014930854
191	0xbcbfb180	-0.023400068
192	0xbb9a6cdf	-0.0047126855
193	0xbde1c8a2	-0.11024596
194	0x3cbbceec	0.022925816
195	0xbd1e1d7b	-0.038602334
196	0x3d81ac98	0.06331748
197	0x3b51e041	0.0032024535
198	0x3d5d959c	0.054097757
199	0xbd89922e	-0.06717335
200	0xbd5ca751	-0.053870503
201	0x3d78c37a	0.060733296
202	0xbd42d046	-0.047561906
203	0x3bea3ee2	0.0071486095
204	0x3dfc82d0	0.12329638
205	0xbde3d8d2	-0.111253396
206	0xbda34d5e	-0.07973741
207	0x3e09eda7	0.13469563
208	0xbdd9bac9	-0.106313296
209	0xbd828274	-0.06372538
210	0xbe290d83	-0.1650906
211	0xbcd9b51a	-0.026575614
212	0xbd9a3d35	-0.075312056
213	0x3d84058c	0.064463705
214	0xbd8c51d3	-0.06851544
215	0xbcca28f5	-0.024677733
216	0xbd5110e7	-0.05104151
217	0x3d87f68c	0.06638822
218	0x3cbb5ef7	0.022872431
219	0x3e025cb0	0.1273067
220	0x3d2ee244	0.042696252
221	0x3e09d31e	0.13459441
222	0x3e20fa4a	0.15720478
223	0x3dd94c51	0.10610259
224	0x39237559	0.00015588607
225	0xbdba3fbc	-0.090941876
226	0xbd39fc6b	-0.04540674
227	0xbdea8f03	-0.114530586
228	0xbd4aea29	-0.04953972
229	0x3d7f225f	0.06228864
230	0x3d92a4de	0.07160352
231	0x3e2eb15c	0.17059845
232	0x3c9ba330	0.018998712
233	0x3d935b19	0.0719511
234	0xbdea9a0a	-0.11455162
235	0x3d9a56c4	0.075360805
236	0x3d73cf86	0.05952408
237	0xbda93d95	-0.08263699
238	0xbd3b5008	-0.04573062
239	0x3db0de55	0.086361565
240	0xbd887406	-0.06662755
241	0xbdee8d22	-0.11648013
242	0xbdc0dd0d	-0.09417162
243	0x3c3222e9	0.010872581
244	0xbca27c7f	-0.019834755
245	0xbdf3a255	-0.11896197
246	0xbe04b4c7	-0.12959586
247	0xbdcd51f0	-0.10025394
248	0x3ccfc081	0.025360348
249	0x3ceb1966	0.028698634
250	0x3d3da603	0.0463009
251	0xbd927091	-0.071503766
252	0x3c082009	0.008308419
253	0xbdc86cc9	-0.09786374
254	0xbde780c7	-0.11303859
255	0xbdb72ae0	-0.08943725

bias f4 [128]
0	0x3d71e365	0.05905475
1	0xbdc8887f	-0.097916596
2	0xbdea1585	-0.11429886
3	0xbd0220fe	-0.031769745
4	0xbd13912b	-0.036027115
5	0xbd186c5b	-0.03721271
6	0xbceadbe6	-0.028669309
7	0xbc282813	-0.010263461
8	0x3b260983	0.002533526
9	0xbda2fa36	-0.0795788
10	0xbd513c5d	-0.051082958
11	0x3d65cf32	0.0561058
12	0xbcbf44d9	-0.023348259
13	0x3d088cca	0.033337392
14	0xbd8ac8b3	-0.067765616
15	0x3c732649	0.014840671
16	0x3dd11b58	0.102102935
17	0x3db66971	0.0890683
18	0xbc99fe2d	-0.018797958
19	0x3dcb74de	0.099344
20	0xbd0a9d9a	-0.033841707
21	0x3c87b4a1	0.016565623
22	0x3d5c115e	0.0537275
23	0xbdd45f37	-0.10369723
24	0x3d3bccd9	0.045849655
25	0xbdc14e3f	-0.094387524
26	0xbdb86d1d	-0.09005187
27	0x3d65e1f3	0.056123685
28	0x3cd24037	0.025665386
29	0xbc79cfd5	-0.015247305
30	0xbd45b8d0	-0.048271954
31	0xbd1c9f46	-0.038237832
32	0x3dc4ae19	0.09603519
33	0x3ce8b0dc	0.028404646
34	0xbe015370	-0.12629485
35	0xbd722fe8	-0.05912772
36	0x3d5402ec	0.0517606
37	0xba12f466	-0.0005605876
38	0x3d14d4fa	0.036335923
39	0xbdbcd57d	-0.09220407
40	0xbd53f15d	-0.051743854
41	0xbd380b8b	-0.044932883
42	0xbd90564d	-0.070477106
43	0x3dbad4cc	0.09122619
44	0xbd308d17	-0.043103304
45	0xbdd57a40	-0.10423708
46	0x3dbe9e40	0.093075275
47	0xbde04b77	-0.10951894
48	0xbc9aaf04	-0.018882282
49	0xbb869268	-0.0041068085
50	0x3dd2e501	0.10297585
51	0xbdbcc115	-0.09216515
52	0xbdb82b59	-0.08992643
53	0x3dccca70	0.099995494
54	0xbda08eb0	-0.078397155
55	0x3df09b6b	0.117483936
56	0x3a6c30d8	0.0009009964
57	0x3de744d7	0.11292427
58	0x3dc6fa4a	0.097157076
59	0xbe037fb4	-0.12841684
60	0x3d554530	0.052067935
61	0x3ce4843a	0.027895082
62	0x3d1e753a	0.038686015
63	0x3d83f99c	0.064440936
64	0x3ce72c3d	0.028219337
65	0xbca59513	-0.020212686
66	0x3d5b6fe7	0.053573515
67	0x3cd697a9	0.026195364
68	0xbc21c608	-0.0098738745
69	0xbb7e7b9f	-0.0038831008
70	0x3d248cc8	0.040173322
71	0xbd6c5376	-0.057696782
72	0x3db3f810	0.087875485
73	0x3dc01434	0.093788534
74	0x3da03f59	0.078245826
75	0xbddfc944	-0.1092706
76	0x3d42e736	0.04758378
77	0xbdf77175	-0.12082187
78	0xbd46a953	-0.048501324
79	0xbd01e61b	-0.031713586
80	0x3cac178b	0.02100732
81	0x3db2b82f	0.087265365
82	0xbc0535ca	-0.0081305
83	0x3dabe300	0.08392906
84	0xbd9ea165	-0.07745627
85	0x3d8fdb9b	0.07024308
86	0x3c485ce2	0.012229176
87	0xbd84f00a	-0.06491096
88	0x3d9cb26c	0.07651219
89	0xbd722bfa	-0.05912397
90	0xbdd2f5e9	-0.1030081
91	0xbdb20138	-0.08691639
92	0x3dd82cfe	0.105554566
93	0xbdb41173	-0.08792391
94	0x3c19cacf	0.009386732
95	0xbd2004e8	-0.03906718
96	0xbd874a93	-0.06606021
97	0xbdc72aa7	-0.09724932
98	0x3d86814d	0.06567631
99	0xbdd05180	-0.10171795
100	0x3cb4ec49	0.022085326
101	0x3de50ea2	0.111844316
102	0x3c8abe74	0.016936518
103	0x3c965efd	0.01835584
104	0xbbfc61a4	-0.0077020694
105	0x3c347669	0.011014559
106	0xbe030d7d	-0.12798114
107	0x3dd2f126	0.10299902
108	0x3d4e9038	0.050430506
109	0x3dab543c	0.08365676
110	0x3cf4c3e0	0.029878557
111	0xbd55429b	-0.052065473
112	0xbd7d521f	-0.061845895
113	0xbc8119a4	-0.015759297
114	0xbd4bf9fc	-0.04979895
115	0x3dda8feb	0.106719814
116	0x3d5dbefa	0.054137208
117	0x3dc52f48	0.09628159
118	0xbd83896d	-0.06422696
119	0xbbe39793	-0.0069455593
120	0x3d05dda9	0.032682095
121	0x3c069bf7	0.008215896
122	0x3d61b62d	0.055105377
123	0x3dd00b7c	0.101584405
124	0x3c7125aa	0.0147184525
125	0x3dd16894	0.10225025
126	0x3da23575	0.07920352
127	0x3d68e9a4	0.056863442

weight f4 [128, 167]
0	0x3bbe0be8	0.005799759
1	0xbd3ee3a5	-0.046603817
2	0xbd9d73c0	-0.07688093
3	0xbd3854af	-0.045002636
4	0xbd906c58	-0.07051915
5	0xbd8a1cfd	-0.0674381
6	0x3cbda316	0.023149054
7	0x3d645305	0.055743236
8	0xbd226f00	-0.03965664
9	0xbd67e943	-0.05661894
10	0x3d3ede9d	0.04659902
11	0xbcd19b64	-0.025586791
12	0xbd3b86ef	-0.04578298
13	0xbd01a48b	-0.03165106
14	0x3d954181	0.072878845
15	0x3d951d05	0.07280926
16	0x3d8b84ad	0.06812415
17	0x3d4d01dd	0.050050605
18	0x3cda45f1	0.026644679
19	0xbc5f4bf5	-0.013628949
20	0xbd842931	-0.06453169
21	0x3d8ee99d	0.06978152
22	0x3d7a296d	0.061074663
23	0x3d08220f	0.033235606
24	0xbca73f8a	-0.02041604
25	0xbd9f56ed	-0.07780252
26	0xbc2df4eb	-0.010617475
27	0x3d67dafe	0.05660533
28	0x3d4b4816	0.049629293
29	0xbb062a15	-0.002047186
30	0xbbe7c943	-0.007073553
31	0xbb9cea43	-0.0047886684
32	0x3cdfd819	0.027324723
33	0x3b6b8cf7	0.0035942176
34	0xbb3a1812	-0.0028395695
35	0x3c51c31a	0.0128028635
36	0xbbf55537	-0.007486965
37	0xbd9a8109	-0.07544143
38	0x3d127e20	0.035764813
39	0xbd064812	-0.032783575
40	0xbd54b056	-0.05192598
41	0xbd448224	-0.047975674
42	0x3d3ce596	0.046117388
43	0x3dc6f9c0	0.09715605
44	0x3da8e3a9	0.08246548
45	0xbd9e1680	-0.07719135
46	0x3aa8e587	0.0012885787
47	0x3d8dd7e4	0.069259435
48	0xbdef2c6e	-0.11678396
49	0x3d9083db	0.070563994
50	0xbe16d9bb	-0.14731495
51	0x3d238637	0.03992292
52	0x3cd8e85c	0.026477985
53	0x3c0a51d8	0.008442365
54	0xbd2d253e	-0.042271845
55	0xbd3f4aec	-0.04670231
56	0x3c8f6bc5	0.017507443
57	0xbc1f1f6b	-0.0097120805
58	0xbcae4681	-0.021273853
59	0x3ddd9300	0.10819054
60	0xbd836181	-0.06415082
61	0x3d52fe6c	0.051512167
62	0x3e30f38d	0.17280407
63	0xbcaa5bd4	-0.02079574
64	0x3dd92d7e	0.1060438
65	0x3c85cc67	0.016332818
66	0x3bf49bff	0.0074648852
67	0x3da5a7b0	0.080886245
68	0xbc2c5ba0	-0.010519892
69	0xbd92ed6b	-0.0717419
70	0xbc416890	-0.011804715
71	0xbde14696	-0.10999791
72	0x3d6dfe60	0.05810392
73	0x3c7637ed	0.015027982
74	0x3d903b9e	0.07042621
75	0xbd59ecb6	-0.05320426
76	0xbdab7f32	-0.0837387
77	0x3af1789c	0.0018422785
78	0xbddf4af4	-0.10902968
79	0xbdba9476	-0.09110348
80	0x3ca21c6b	0.019788941
81	0x3dd9d037	0.10635417
82	0xbcfc5405	-0.030801782
83	0x3dc1b037	0.094574384
84	0xbc3bfc51	-0.011473731
85	0xbdf3377f	-0.118758194
86	0xbcbd02d4	-0.023072638
87	0x3d00f9ff	0.031488415
88	0x3c9bdc04	0.01902581
89	0xbd4a3983	-0.049371254
90	0x3d0fa6b4	0.03507109
91	0x3d63f68a	0.05565504
92	0x3dccb2f1	0.09995068
93	0xbce5fa5a	-0.028073478
94	0xbdb7893f	-0.089617245
95	0x3dbf7dd3	0.09350171
96	0x3de8d2ce	0.11368333
97	0xbc242385	-0.010018234
98	0xbd834a34	-0.064106375
99	0xbd74ad4d	-0.059735585
100	0xbd90d84d	-0.07072506
101	0x3d808007	0.06274419
102	0xbe066f0c	-0.13128299
103	0x3d626918	0.055276006
104	0x3d1c31a2	0.03813327
105	0x3d12e980	0.035867214
106	0xbd576701	-0.052588467
107	0x3cddf209	0.02709295
108	0xbd95e355	-0.07318751
109	0x3dba7a89	0.09105403
110	0xbcdff53f	-0.027338622
111	0x3d7751cb	0.06038074
112	0xbbed3f99	-0.0072402474
113	0x3db00f63	0.08596685
114	0x3c57893e	0.01315528
115	0xbe08ccc4	-0.13359362
116	0x3d055421	0.032550935
117	0xbd8f5a4f	-0.06999647
118	0xbd3efa25	-0.046625275
119	0xbcd8cf3d	-0.026466006
120	0xbd5e77a8	-0.05431333
121	0x3e000f45	0.12505825
122	0xbd88f176	-0.0668668
123	0xbc45607c	-0.012046929
124	0xbc920a70	-0.017827243
125	0xbd0aa8a8	-0.03385225
126	0x3d4906b2	0.04907865
127	0xbbc70e36	-0.006074692
128	0xbe09a3f6	-0.13441452
129	0xbc05b7f6	-0.0081615355
130	0xbd1bb13b	-0.038010817
131	0xbc1e4ea2	-0.009662302
132	0x3d2c0e99	0.04200611
133	0x3cefb4cf	0.029261021
134	0xbcc34e6d	-0.023841107
135	0x3d44437f	0.04791593
136	0x3d2ee088	0.0426946
137	0xbd7a3c14	-0.06109245
138	0x3d9b33a4	0.07578209
139	0x3dcf2efd	0.10116384
140	0xbcbc1802	-0.022960667
141	0x3c338f1a	0.010959411
142	0x3d7bf778	0.0615153
143	0xbd2202b1	-0.039553348
144	0xbcf4f121	-0.029900135
145	0xbbdea645	-0.006794723
146	0xbd6bbced	-0.05755322
147	0xbce6a9f6	-0.028157216
148	0x3ccd4f24	0.025062151
149	0xbd9f1075	-0.07766811
150	0x3d8318e3	0.06401231
151	0x3db2a389	0.08722598
152	0x3d200d1a	0.039074995
153	0x3c54339e	0.01295176
154	0x3dcb01af	0.099124305
155	0x3c6a20d6	0.014290055
156	0xbd8044b8	-0.06263107
157	0x3d682541	0.056676153
158	0x3d325a6f	0.043543275
159	0x3df81c56	0.1211478
160	0x3d2a6b46	0.04160621
161	0xbcfefdb7	-0.03112684
162	0xbd86c1ba	-0.06579919
163	0xbcca2e86	-0.024680387
164	0xbda2a32a	-0.07941277
165	0xbc9c4746	-0.019076955
166	0x3cafff4e	0.021484043
167	0x3d5f0626	0.054449223
168	0x3d1dd6b7	0.038534846
169	0x3d7ac00b	0.061218303
170	0x37f24279	2.8879602e-05
171	0xbd41fe27	-0.04736152
172	0x3a019231	0.00049427437
173	0x3d4fd3b2	0.050738998
174	0x3d43c75a	0.04779754
175	0x3da758fe	0.08171271
176	0xbb108f8f	-0.0022058224
177	0x3d954f07	0.07290464
178	0x3db18e3e	0.08669709
179	0xbc82ab16	-0.01595072
180	0x3c285651	0.010274486
181	0x3d0af9d6	0.03392967
182	0x3da1cd85	0.07900528
183	0xbc713379	-0.014721745
184	0x3d45f42a	0.048328556
185	0xbcd8a75c	-0.02644699
186	0xbbf91782	-0.0076016793
187	0xbc57dff4	-0.013175953
188	0xbd418a5c	-0.04725109
189	0xbd25aad6	-0.040446125
190	0xbd2ae71c	-0.04172431
191	0xbbfd36af	-0.007727466
192	0x3db490ea	0.08816703
193	0xbc7eab65	-0.015543793
194	0x3d24fd4b	0.04028062
195	0x3d1eb32f	0.0387451
196	0x3d1f76fe	0.03893184
197	0x3dad9815	0.08476273
198	0xbd27795f	-0.040887233
199	0x3d942ea0	0.072354555
200	0x3d55c7c2	0.052192457
201	0xbbea2d16	-0.007146488
202	0x3d9958c4	0.07487634
203	0x3db76388	0.08954531
204	0xbc5143e9	-0.012772539
205	0x3cc201e5	0.023682544
206	0x3c306886	0.010767108
207	0xbc2b329b	-0.010449077
208	0xbb9036bf	-0.0044010575
209	0xbd6ab262	-0.057299025
210	0x3d1cc9f0	0.03827852
211	0x3c4467cd	0.011987639
212	0xbd35785e	-0.044304244
213	0x3c3a5a48	0.011374064
214	0x3badf2de	0.005308493
215	0xbcbb8031	-0.022888275
216	0xbdb2529f	-0.08707165
217	0xbe1d0a5d	-0.15335985
218	0x3d7b752e	0.061391048
219	0xbd673d13	-0.05645473
220	0xbcb40a65	-0.021977613
221	0xbd35725f	-0.044298526
222	0x3da39211	0.07986844
223	0x3c5695b5	0.013097216
224	0x3d51a42e	0.051181965
225	0xbd27f287	-0.041002776
226	0x3d9cfd1a	0.07665463
227	0x3d678487	0.056522872
228	0xbb81e87c	-0.003964482
229	0xbd847088	-0.06466776
230	0xbc359f8d	-0.011085403
231	0x3d816479	0.06317992
232	0xbc5517b4	-0.01300614
233	0x3dadc662	0.08485104
234	0xbd438c0c	-0.04774098
235	0xbad1e970	-0.0016015004
236	0xbd150168	-0.036378294
237	0xbd001759	-0.031272266
238	0xbcfe1942	-0.031017903
239	0x3d099c3d	0.033596266
240	0x3d2aa6e1	0.041663054
241	0x3cb9356e	0.022608485
242	0xbd0cbf80	-0.034362316
243	0xbcb61e7d	-0.022231335
244	0xbd57386e	-0.05254405
245	0x3d3ea83f	0.04654717
246	0x3d248e7e	0.040174954
247	0xbdcaa47a	-0.09894653
248	0x3c18552b	0.009297649
249	0x3c2a6c7e	0.010401843
250	0xbdd6ad9d	-0.10482333
251	0x3d16c137	0.036805358
252	0x3d53d6f6	0.051718675
253	0xbdce18e4	-0.10063341
254	0xbd3be28e	-0.045870356
255	0x3d1185a5	0.035527844

bias f4 [128]
0	0xbd59e0b5	-0.053192813
1	0xbd2367d8	-0.039893955
2	0xbd406b31	-0.046977226
3	0xbcf60536	-0.030031782
4	0x3c5cb4a7	0.013470805
5	0xbb922fd1	-0.0044612666
6	0x3da954b9	0.08268113
7	0x3c9be18f	0.019028453
8	0x3d736986	0.059426807
9	0xbb6a7b20	-0.0035778955
10	0x3d6a6373	0.05722375
11	0x3d209f95	0.03921469
12	0xbd5c4490	-0.053776324
13	0x3d55f47c	0.05223511
14	0xbd75f67b	-0.060049515
15	0xbcf39bf5	-0.029737452
16	0xbafbe268	-0.0019217255
17	0x3d82b47f	0.06382083
18	0x3c50ef6c	0.012752395
19	0x3c520c67	0.01282034
20	0x3cf0361c	0.029322676
21	0xbcff2d44	-0.031149514
22	0xbd2b3ad2	-0.041804142
23	0x3d576a2b	0.052591484
24	0x3ca4f61c	0.020136885
25	0xbcc78d15	-0.024359265
26	0xbd320a25	-0.043466706
27	0xbb21d457	-0.0024693215
28	0x3b81b7f4	0.0039586965
29	0xbd9168ad	-0.071000434
30	0xbd2266c4	-0.039648786
31	0x3d231478	0.039814442
32	0x3cc254ac	0.023722015
33	0x3d2fa37d	0.042880524
34	0xbc028aec	-0.007967692
35	0xbccb5181	-0.024819138
36	0x3cc3ed23	0.023916787
37	0x3cec5b3a	0.028852094
38	0xbd81412f	-0.06311261
39	0x3d1845da	0.03717599
40	0x3d208a17	0.039194193
41	0xbd304cae	-0.043041877
42	0x3c63cb41	0.01390344
43	0x3d7f26e5	0.062292952
44	0xbbc245f6	-0.00592875
45	0x3ce57172	0.028008197
46	0x3cda0ae8	0.026616529
47	0x3d0247d3	0.03180678
48	0x3cf1910a	0.029488105
49	0xbb4a0fe1	-0.0030832218
50	0xbcf7d81a	-0.030254412
51	0x3d2f0b66	0.04273548
52	0xbd7a27e2	-0.06107319
53	0x3d9fd111	0.07803548
54	0xbcdbf9b2	-0.026852462
55	0x3ca4612d	0.020065868
56	0x3dbf7930	0.093492866
57	0xbcc6710d	-0.024223829
58	0xbd49352f	-0.049122985
59	0x3db6c53a	0.08924337
60	0x39d87797	0.00041287832
61	0xbd3c4a93	-0.045969557
62	0x3b064ed0	0.0020493753
63	0xbd06d90e	-0.032921843
64	0x3d65e15e	0.05612313
65	0x3d9bcc1a	0.07607289
66	0xbbec9c23	-0.0072207614
67	0x3d1c474b	0.038153928
68	0x3cc02a6c	0.023457728
69	0x3d48815e	0.0489515
70	0xbd7049c3	-0.058664095
71	0x3da2660b	0.079296194
72	0x3d14e52c	0.036351368
73	0x3d0214ac	0.031757995
74	0xbb9cf771	-0.0047902395
75	0x3c96bff7	0.018402083
76	0xbdaac01d	-0.08337424
77	0xbdaabbd2	-0.08336605
78	0xbcd62ec9	-0.026145356
79	0xbc8b9d81	-0.017042877
80	0xbc040698	-0.008058213
81	0x3d1c6823	0.03818525
82	0xbd424d7f	-0.047437187
83	0x3d33f037	0.04393026
84	0xbca3c290	-0.019990236
85	0xbd8073a6	-0.06272058
86	0x3c0604c6	0.008179849
87	0xbd4248cf	-0.047432717
88	0xbc21a90f	-0.009866967
89	0xbd719164	-0.058976546
90	0x3cd85075	0.026405552
91	0xbd52da2c	-0.051477596
92	0xbc8731ee	-0.0165033
93	0xbd8ee6ef	-0.06977641
94	0xbca4983c	-0.020092122
95	0xbdbc01b8	-0.09180015
96	0x3cfa07d4	0.03052131
97	0x3d5468c3	0.05185772
98	0x3d5a3e6b	0.053282183
99	0xbcc3f581	-0.023920776
100	0x3d2e1277	0.04249808
101	0x3d7e07b1	0.062019054
102	0xbd3aaf69	-0.04557744
103	0x3d8619b0	0.06547868
104	0x3d4428c4	0.04789044
105	0xbcf45fa2	-0.029830758
106	0xbd367e16	-0.04455384
107	0x3d7326cc	0.05936317
108	0xbbb8254b	-0.00561968
109	0xbca9fe75	-0.020751217
110	0x3da5c7ea	0.08094771
111	0x3cea1109	0.028572576
112	0x3d9d00c9	0.076661654
113	0xbc77f4a6	-0.015134012
114	0xbd039495	-0.03212412
115	0xbd6f9bf7	-0.05849835
116	0x3d99e513	0.075143956
117	0x3d94b4cc	0.07261047
118	0xbd32403f	-0.0435183
119	0xbd05158d	-0.032491256
120	0xbd721afb	-0.05910776
121	0x3c0cbe71	0.008590327
122	0x3d91b717	0.07115
123	0xbd2dc347	-0.04242256
124	0x3da4327a	0.0801744
125	0xbcb1e2bd	-0.021714563
126	0xbbaceff0	-0.005277626
127	0xbca872db	-0.02056258

weight f4 [128, 167]
0	0xbd04d7fb	-0.032432538
1	0xbd069589	-0.03285745
2	0x3cf508ca	0.029911418
3	0x3d99360c	0.07481012
4	0x3d9037c6	0.07041888
5	0xbe30ed60	-0.17278051
6	0x3d4ff907	0.0507746
7	0xbd330c7b	-0.043713074
8	0xbd7ba9de	-0.061441295
9	0x3d8c425d	0.06848595
10	0x3d290841	0.041267637
11	0x3c9befaf	0.019035188
12	0xbbfd73d0	-0.007734753
13	0xbdb0e79b	-0.08637925
14	0xbc46fe46	-0.012145584
15	0xbbdb9c03	-0.0067019477
16	0x3b88e5b3	0.004177773
17	0x3be326d4	0.006932119
18	0xbbc311d4	-0.005953053
19	0xbda9851f	-0.08277344
20	0x3c6beaf0	0.014399275
21	0xbd90cdda	-0.07070513
22	0xbc90cd4e	-0.017676022
23	0xbc327100	-0.010891199
24	0x3bf7b1b5	0.007559026
25	0x3cbf80c0	0.023376822
26	0xbdc57763	-0.09641912
27	0xbce4697f	-0.027882336
28	0xbd63ad7e	-0.055585377
29	0x3d0b01c4	0.03393723
30	0xbd7bb3f6	-0.06145092
31	0x3cbbfd18	0.022947833
32	0xbccef209	-0.025261896
33	0x3d85bb13	0.06529822
34	0xbb1ea2b3	-0.0024205863
35	0x3dd8b432	0.105812445
36	0xbddc34d7	-0.10752266
37	0x3d92f388	0.07175356
38	0x3d41bf81	0.047301773
39	0xbd955d23	-0.07293155
40	0xbd9e0d60	-0.07717395
41	0xbd8059ce	-0.06267129
42	0xbd1ac739	-0.03778765
43	0x3c87cadb	0.016576221
44	0xbd062480	-0.032749653
45	0xbe07f9ff	-0.1327896
46	0x3d54ebcf	0.051982697
47	0xbcf6d831	-0.030132385
48	0xbbed9e06	-0.007251504
49	0x3d450ff6	0.048110925
50	0xbd574b6c	-0.052562162
51	0xbcd83e74	-0.026396967
52	0x3db12b71	0.08650864
53	0x3d1a64e9	0.03769389
54	0x3d5c0c18	0.05372247
55	0x3dd32d92	0.10311426
56	0xbc413646	-0.011792725
57	0x3dbbdd36	0.09173052
58	0x3d445b9c	0.047938928
59	0xbd9f2890	-0.077714086
60	0xbd6f5e1e	-0.058439367
61	0x3cf8f043	0.030388003
62	0x3d39b7ed	0.04534142
63	0xbcef7f9e	-0.029235657
64	0xbcc48f77	-0.02399419
65	0x3c1e3f8f	0.009658708
66	0x3dd58359	0.10425443
67	0xbcdb9447	-0.026804103
68	0x3c55e600	0.013055325
69	0x3a62f9c9	0.0008658437
70	0xbd8b1d25	-0.06792668
71	0x3d8725cf	0.06599008
72	0x3d211699	0.03932819
73	0xbd3be082	-0.045868404
74	0x3d1b2124	0.037873402
75	0xbcb4fd60	-0.022093475
76	0xbb7b61e8	-0.0038357917
77	0x3d1ae5b2	0.03781671
78	0x3d94ab1f	0.07259201
79	0x3d1150c2	0.035477407
80	0xbd8eff6f	-0.06982314
81	0xbd4472b5	-0.047960956
82	0xbd234644	-0.039861932
83	0x3d994a2a	0.07484849
84	0xbd038da5	-0.032117505
85	0xbeb50c81	-0.35361102
86	0xbbdac74f	-0.0066765915
87	0xbd17b7f5	-0.03704067
88	0x3c4d8b98	0.012545489
89	0xbd5e33b9	-0.054248545
90	0x3d29dca9	0.041470204
91	0xbdbe15e7	-0.09281521
92	0x3c98e9ef	0.018666236
93	0x3ce8645f	0.028368173
94	0x3d881d91	0.06646264
95	0xbde1f6ac	-0.11033377
96	0xbd1e3b5e	-0.038630836
97	0x3d1ba448	0.037998468
98	0xbd08a6d1	-0.033362214
99	0x3d38179d	0.044944394
100	0x3af66fb5	0.0018801602
101	0xbd5ef6e8	-0.054434687
102	0xbc236b05	-0.009974246
103	0xbd40907a	-0.047012784
104	0x3c11ce96	0.008899352
105	0xb9fd04d1	-0.0004825951
106	0xbcf28bde	-0.02960771
107	0xbcbb8730	-0.02289161
108	0x3ab9097c	0.0014117206
109	0x3be3eea2	0.0069559375
110	0xbd726964	-0.05918254
111	0xbd472e2b	-0.048628014
112	0x3cc0f350	0.02355352
113	0xbc4a075e	-0.012330858
114	0xbb62a83f	-0.0034585146
115	0xbd499959	-0.04921851
116	0xbd0d8409	-0.034549747
117	0x3d7f1764	0.062278166
118	0x3c18fa56	0.0093370285
119	0x3c106769	0.008813717
120	0x3d48efb6	0.04905673
121	0x3d06f720	0.03295052
122	0xbd213889	-0.039360557
123	0xbd82f1e5	-0.06393794
124	0x3d823d0c	0.063593
125	0xbd48738b	-0.048938315
126	0xbd492a6d	-0.049112726
127	0xbd005b03	-0.031336796
128	0xbd9f71fd	-0.077854134
129	0x3ca264d5	0.019823471
130	0x3c3cdd39	0.011527353
131	0xbcd57d4e	-0.026060726
132	0xbc80d809	-0.015728014
133	0x3d384690	0.04498917
134	0x3d1cf70e	0.038321547
135	0x3c995468	0.018717006
136	0x3d6ddc85	0.058071632
137	0x3cae66fe	0.021289345
138	0xbd6d480a	-0.05793003
139	0xbba2ca59	-0.0049679694
140	0xbcfe60a0	-0.031051934
141	0xbd325406	-0.043537162
142	0x3d063e9e	0.03277456
143	0x3d69f645	0.057119627
144	0x3ceb38b3	0.02871356
145	0x3d63b2c7	0.055590417
146	0x3dbed26e	0.0931748
147	0x3d6ccf20	0.057814717
148	0xbd2d1bf8	-0.042263
149	0xbd451801	-0.048118595
150	0xbbb26655	-0.005444328
151	0xbbfd83f6	-0.0077366782
152	0x3c8d5f58	0.017257378
153	0xbb2bff18	-0.0026244577
154	0x3db720f5	0.08941833
155	0xbc53b3db	-0.012921299
156	0x3d913727	0.070905976
157	0x3d2627ac	0.040565178
158	0x3d8e3a2b	0.069446884
159	0xbcd39e62	-0.025832359
160	0x3d4539d4	0.048150852
161	0x3a42b958	0.0007428131
162	0x3c7404c6	0.014893716
163	0x3d14cf34	0.036330417
164	0x3def8ab3	0.11696377
165	0x3d74ff38	0.059813708
166	0xbce71a8a	-0.028210897
167	0xbd0e5962	-0.03475321
168	0x3d8d8f04	0.06912044
169	0xbdebcee5	-0.115140714
170	0xbdfcee7c	-0.12350175
171	0xbd35d35d	-0.044391025
172	0x3dda58f0	0.10661495
173	0x3d188a6c	0.037241384
174	0xbd71f9b8	-0.05907604
175	0x3e358020	0.17724657
176	0xbd8a8813	-0.06764235
177	0x3d963a57	0.07335346
178	0x3d2515d8	0.040304035
179	0xbd9562a9	-0.072942086
180	0xbc80fc1c	-0.015745215
181	0xbd334783	-0.04376937
182	0xbd13c25e	-0.036074035
183	0xbc2ec790	-0.010667697
184	0xbdd5ece1	-0.10445572
185	0x3c497532	0.012296008
186	0xbce9c10e	-0.028534438
187	0xbc10c21c	-0.008835342
188	0xbd6d34c2	-0.057911642
189	0xbe06a70e	-0.13149664
190	0xbc6f728f	-0.014614715
191	0xbd4ba2da	-0.049715854
192	0xbd8da9ea	-0.06917174
193	0x3c4d26d9	0.012521469
194	0x3d192a3b	0.03739379
195	0xbc59d820	-0.013296157
196	0xbce93205	-0.028466234
197	0x3d6f5445	0.058429975
198	0x3c82253f	0.015886901
199	0xbd14ab57	-0.036296215
200	0x3d9c8acc	0.07643661
201	0xbcf28080	-0.02960229
202	0xbdc68547	-0.096933894
203	0x3e15f4db	0.14644186
204	0x3b995d35	0.0046803006
205	0xbdac8209	-0.0842324
206	0x3db9be4d	0.090695
207	0x3d9da254	0.07696977
208	0x3c82af96	0.015952867
209	0x3cc16c6d	0.023611272
210	0xbc9df687	-0.019282592
211	0xbd7f7960	-0.06237161
212	0x3da2ed01	0.07955361
213	0xbda65380	-0.08121395
214	0xbbcdf0fe	-0.006284832
215	0xbc8f6ad2	-0.01750699
216	0xba5798c5	-0.00082243636
217	0x3d3a08bb	0.045418482
218	0xbd2ceee4	-0.04222001
219	0xbdbb77c4	-0.09153703
220	0xbb095876	-0.0020957268
221	0xbd1df98f	-0.038568076
222	0x3d33b407	0.04387286
223	0x3dae6090	0.085145116
224	0xbc3cb57c	-0.011517879
225	0xbdc51e6d	-0.09624944
226	0x3d34ccd2	0.044140644
227	0x3d26d9d3	0.040735077
228	0x3dcb3ad5	0.09923331
229	0x3c8d9511	0.017282994
230	0x3cc7b64d	0.02437892
231	0x3d95aae4	0.073079854
232	0xbc7542c3	-0.0149695305
233	0xbd0ba754	-0.034095123
234	0xbd226f64	-0.03965701
235	0xbdb356b8	-0.08756775
236	0xbd04e72a	-0.032447018
237	0x3ccb4d56	0.02481715
238	0xbd1d9566	-0.038472556
239	0xbd593b1c	-0.053034887
240	0x3da53118	0.080660045
241	0x3c0550a0	0.008136898
242	0xbcd3c4ad	-0.025850618
243	0x3d3325d1	0.043737236
244	0x3d32964f	0.043600377
245	0xbdb8a0db	-0.09015056
246	0xbb1cb211	-0.0023909847
247	0x3bd5c18c	0.0065233167
248	0xbd9ba058	-0.075989425
249	0xbcd02688	-0.025408998
250	0xbc68387a	-0.014173621
251	0x3d3de5cb	0.046361726
252	0xbda18e0a	-0.0788842
253	0x3c167408	0.009182937
254	0x3de9adfa	0.114101365
255	0xbbd52b18	-0.0065053813

bias f4 [128]
0	0x3d2650bf	0.04060435
1	0x3dc6f38a	0.0971442
2	0x3d37e367	0.044894602
3	0x3ce1e302	0.027574066
4	0x3c8d31f7	0.01723574
5	0xbd851930	-0.06498945
6	0xbce45f78	-0.027877554
7	0x3d3bcff0	0.0458526
8	0xbda0aec3	-0.07845833
9	0xbbf515af	-0.0074793915
10	0x3cd0d877	0.025493843
11	0xbaa90983	-0.0012896511
12	0xbd8580c4	-0.06518701
13	0x3d40d1d8	0.047075123
14	0x3dadefac	0.084929794
15	0x3c5d5d25	0.013510977
16	0xbd3e1acd	-0.046412278
17	0xbc7a10d8	-0.015262805
18	0x3dcdbdf7	0.100459985
19	0x3c2b8bdb	0.010470356
20	0xbd743669	-0.059622202
21	0x3d927998	0.071520984
22	0x3bf7fea9	0.0075681997
23	0xbd16e9e2	-0.03684414
24	0x3d11f5fa	0.035634972
25	0x3d5fc0c7	0.054627206
26	0xbd39df79	-0.045379136
27	0x3b78c62b	0.0037959914
28	0x3d979727	0.07401877
29	0xbd4a8958	-0.049447387
30	0xbc481897	-0.012212894
31	0x3d16fb41	0.03686071
32	0x3d5dc67e	0.054144375
33	0x3d045aa5	0.032313008
34	0x3c639d75	0.013892521
35	0xbc4170b2	-0.011806654
36	0xbd901581	-0.070353515
37	0xbda44670	-0.080212474
38	0xbd9a2af3	-0.07527723
39	0x3ce51030	0.02796182
40	0x3d9e5953	0.07731881
41	0xbc00a4a5	-0.007851754
42	0x3d5ba035	0.053619582
43	0xbd670901	-0.05640507
44	0xbcc6c306	-0.024262916
45	0xbcc6174e	-0.024181034
46	0x3d39de74	0.045378163
47	0x3bd5fe97	0.0065305936
48	0xbc7eafe1	-0.0155448625
49	0x3d058563	0.03259791
50	0x3aa458d7	0.0012538683
51	0x3da0a799	0.07844467
52	0x3d8c7b50	0.068594575
53	0xbda04e9d	-0.07827494
54	0xbd38bbb6	-0.04510089
55	0x3ccaa2ce	0.024735834
56	0x3d0757df	0.033042785
57	0x3d6751ba	0.056474425
58	0x3c0d17d8	0.008611642
59	0xbb90432b	-0.0044025383
60	0xbc07bf10	-0.008285299
61	0x3d477469	0.048695
62	0xbd38e312	-0.045138426
63	0xbd9258b3	-0.07145824
64	0xbd21c282	-0.039492138
65	0x3d0955bf	0.03352904
66	0x3bf5db64	0.00750296
67	0x3d98d124	0.074617654
68	0x3c0e8870	0.008699521
69	0x3da44f1b	0.08022901
70	0x3afa7a77	0.0019109984
71	0xbd862344	-0.06549695
72	0xbd345dd1	-0.044034783
73	0x3d67bd98	0.056577295
74	0x3ca78148	0.020447388
75	0xbd8a37ba	-0.0674891
76	0x3d375274	0.044756368
77	0xbc08d8e7	-0.008352495
78	0xbc367dd1	-0.011138395
79	0x3da07f65	0.078367986
80	0x3d87c6cd	0.06629715
81	0x3d962f35	0.07333223
82	0xbd43ad4e	-0.047772698
83	0x3d3c2216	0.045930944
84	0x3c790f4b	0.0152014
85	0xbd2fb149	-0.04289368
86	0xbd94ea30	-0.0727123
87	0x3db091fe	0.08621596
88	0x3d0cfc34	0.034420207
89	0xbd662586	-0.05618813
90	0xbd4e2a6b	-0.05033342
91	0xbd634f42	-0.055495508
92	0x3d292d03	0.041302692
93	0xbd928e94	-0.07156101
94	0x3d13ed68	0.03611508
95	0xbd6f4966	-0.058419608
96	0xbd62204b	-0.05520658
97	0x3d4bc0ec	0.04974453
98	0x3da31f22	0.079649225
99	0x3d38f503	0.045155536
100	0xbc10361b	-0.008801962
101	0xbd8bc4c6	-0.06824641
102	0xbd8b26c3	-0.067945026
103	0x3ce5eff2	0.028068516
104	0xbd7cff50	-0.061766922
105	0x3c216285	0.009850149
106	0xbd785f4c	-0.060637757
107	0xbd8f3fe8	-0.06994611
108	0x3d542bf3	0.051799726
109	0xbcdb84eb	-0.026796779
110	0xbc79ea15	-0.015253563
111	0x3d2f20d3	0.042755913
112	0x3b384e9e	0.0028123031
113	0x3d3105b1	0.04321832
114	0xbd2ffa28	-0.042963177
115	0x3d8cc6d8	0.06873864
116	0x3c6cfcb8	0.01446455
117	0xbd507ae5	-0.05089845
118	0x3da6ddb4	0.08147755
119	0xbdb79598	-0.089640796
120	0x3d2a3eec	0.041563913
121	0x3d1da81b	0.038490396
122	0xbd9b0a92	-0.075703755
123	0xbd858cb4	-0.065209776
124	0xbbe20811	-0.0068979342
125	0x3b10b4c0	0.0022080392
126	0xb9d6276c	-0.00040846632
127	0x3d8c1fa2	0.06841971

weight f4 [128, 256]
0	0xbc4439a6	-0.011976635
1	0x3d49a376	0.049228154
2	0xbcf41071	-0.029792996
3	0x3c940a1b	0.018071225
4	0xbd19c5de	-0.037542216
5	0xbd3bfac3	-0.045893442
6	0xbc92d21b	-0.017922452
7	0xbcaf3b2b	-0.021390518
8	0x3d5d49bd	0.0540254
9	0xbd4b95e0	-0.04970348
10	0xbd4cead1	-0.050028626
11	0xbb3c8406	-0.0028765216
12	0x3d495237	0.04915067
13	0xbd012e5a	-0.031538345
14	0x3d0ea0e9	0.034821425
15	0xbca4c188	-0.020111814
16	0x3d5931cf	0.053026017
17	0xbc3a17af	-0.011358186
18	0xbceedf1e	-0.029159125
19	0xbcae6409	-0.021287935
20	0x3cbe004d	0.023193503
21	0x3d5961a7	0.053071644
22	0x3d53d02b	0.051712196
23	0xbd7b4888	-0.061348468
24	0x3d055507	0.03255179
25	0xbd7e2f68	-0.06205693
26	0x3ab5923a	0.0013852783
27	0x3cc02b5b	0.023458173
28	0x3cde478c	0.027133726
29	0xbd6f4a34	-0.058420375
30	0xbc9d328c	-0.019189142
31	0xbd22cc58	-0.03974566
32	0xbd4d7a14	-0.05016525
33	0x3c6ddef3	0.014518487
34	0x3b421e12	0.0029619974
35	0xbd17e45e	-0.037083022
36	0xbd1c1f3e	-0.038115732
37	0x3d0fe9cf	0.035135087
38	0xbd2632ee	-0.040575914
39	0xbd0778df	-0.033074256
40	0xbcca5d34	-0.024702646
41	0xbba544b0	-0.0050435886
42	0xbd0dc245	-0.034609098
43	0x3bb71739	0.005587485
44	0xbce4620c	-0.027878784
45	0x3d315a00	0.04329872
46	0xbc97afd7	-0.018516464
47	0xbd2af74b	-0.041739743
48	0x3d3634e7	0.044484045
49	0xbd49fd1b	-0.049313646
50	0xbd5ee8be	-0.05442118
51	0x3d30dfa4	0.04318203
52	0xbd8a4b77	-0.06752675
53	0xbd4c688a	-0.049904384
54	0x3c1c451f	0.009537964
55	0xbbda39cc	-0.006659722
56	0xbcb83846	-0.02248777
57	0x3d3fc024	0.0468141
58	0x3d496cca	0.049176015
59	0xbd6224ef	-0.055211004
60	0x3c852d38	0.016256914
61	0x3cde2718	0.02711825
62	0xbce1e67a	-0.02757572
63	0x3c132001	0.008979798
64	0xbd243334	-0.040087894
65	0x3c27b651	0.010236339
66	0x3cbad02d	0.022804344
67	0x3c0a8453	0.0084544
68	0xbbf008b9	-0.0073252586
69	0x3b88fcd4	0.00418053
70	0x3d0ad2d2	0.03389246
71	0xbcdb8ee8	-0.026801541
72	0xbc86a156	-0.016434353
73	0xbd1e64e1	-0.038670424
74	0x3d3fc44b	0.04681806
75	0xbd04518d	-0.032304335
76	0xbc912d3c	-0.017721765
77	0xbcaa6891	-0.020801814
78	0xbd85545f	-0.06510233
79	0xbd8a4be9	-0.0675276
80	0x3b094463	0.0020945303
81	0x3d17ca24	0.03705801
82	0xbd1276c7	-0.035757806
83	0xbcb2adb3	-0.021811342
84	0xbca725f8	-0.020403847
85	0x3b909f43	0.0044135167
86	0x3d174d26	0.03693881
87	0x3d1ebe8e	0.038755946
88	0xbd640f4b	-0.055678647
89	0xbc14cea3	-0.009082469
90	0xbd85c65a	-0.06531973
91	0xbd5ed670	-0.054403722
92	0xbd102b3b	-0.035197478
93	0x3d006813	0.031349253
94	0x3d247868	0.04015389
95	0x3d3ba2d5	0.045809586
96	0xbc81dfb4	-0.01585374
97	0x3d41f7a6	0.047355317
98	0xbbcabf15	-0.0061873295
99	0xbcf48d5e	-0.029852565
100	0xbd0628b4	-0.03275366
101	0x3b4b434f	0.003101546
102	0xbcb28faa	-0.02179702
103	0x3d4b3420	0.049610257
104	0x3cf2be1b	0.029631665
105	0xbb9033a7	-0.0044006887
106	0x3cf46a8a	0.029835958
107	0x3c233f7a	0.009963864
108	0x3bfea529	0.0077711535
109	0x3bab3ce4	0.0052257646
110	0x3c7b5037	0.015338949
111	0xbc214dd4	-0.009845216
112	0xbc8f092b	-0.017460426
113	0xbd3f6dfc	-0.04673575
114	0x3c0118ce	0.007879449
115	0x3cc8d3f7	0.024515135
116	0x3d3398ba	0.043846823
117	0xbc8bcfd2	-0.01706687
118	0x3c2dbd5b	0.010604228
119	0xbb07ef71	-0.0020742083
120	0xbb0bbff0	-0.002132412
121	0xbaa94d9d	-0.0012916807
122	0xbcc33494	-0.023828782
123	0xbd0a448d	-0.03375678
124	0xbb0bc591	-0.0021327476
125	0xbbc621ea	-0.0060465233
126	0x3c556bd9	0.013026201
127	0xbd01cde2	-0.031690486
128	0xbce2e5f6	-0.027697545
129	0xbd67fe77	-0.05663916
130	0xbd2cf3c0	-0.042224646
131	0x3cdca8da	0.026935983
132	0x3bc873fb	0.0061173416
133	0xbc84975a	-0.016185451
134	0xbd630aee	-0.055430345
135	0xbd2b6a6c	-0.04184954
136	0xbcb22b02	-0.021749023
137	0xbc66b274	-0.0140806325
138	0x3d2bdd73	0.041959237
139	0xbce5bf93	-0.028045451
140	0xbd58b2f5	-0.05290504
141	0x3d305439	0.04304907
142	0x3d5837df	0.052787658
143	0x3d25edcd	0.040509988
144	0xba8eae8a	-0.0010885757
145	0xbd016ace	-0.031595998
146	0xbd1e3242	-0.03862215
147	0xbce0ae0a	-0.027426738
148	0x3c458dd8	0.012057744
149	0x3c98104e	0.018562462
150	0xbd724c4a	-0.059154786
151	0x3ccb679b	0.024829676
152	0xbcaa70e4	-0.020805784
153	0x3d5d6a09	0.0540562
154	0xbb77ca9e	-0.0037809978
155	0xbd4a3956	-0.049371086
156	0xbd58b3ed	-0.052905966
157	0xbcf5bede	-0.02999824
158	0x3c250d6a	0.010073999
159	0x3cc13d44	0.023588784
160	0x3bb738e7	0.0055915
161	0x3ce2d834	0.027690984
162	0x3d09aee3	0.03361405
163	0x3d8a7b56	0.06761806
164	0xbd1e0318	-0.03857717
165	0xba34aa36	-0.00068918185
166	0xbb904a15	-0.0044033625
167	0x3cd4d0b9	0.025978433
168	0xbd4616b0	-0.04836148
169	0xbd3c2fac	-0.0459439
170	0xbb0964f9	-0.0020964725
171	0xbd30ac5f	-0.043133136
172	0x3d8dfc25	0.069328584
173	0xbcd15448	-0.025552884
174	0x3d41ceb4	0.047316268
175	0xbb4fe830	-0.0031724088
176	0x3d5c5973	0.053796243
177	0x3c2e3b3f	0.010634243
178	0x3c24e3bc	0.010064062
179	0xbd80540c	-0.06266031
180	0xbc198b9d	-0.009371665
181	0xba85f614	-0.0010220432
182	0x3beed5f7	0.00728869
183	0xbb1a2ecb	-0.0023526426
184	0xbb937e55	-0.004501144
185	0x3cbbebb4	0.02293954
186	0x3d4a5fc4	0.049407735
187	0xbd581c6a	-0.052761473
188	0x3ce2bfa9	0.027679281
189	0xbcd1af8b	-0.0255964
190	0x3b6db8dd	0.0036273517
191	0x3d4990e5	0.049210448
192	0x3d59fa04	0.05321695
193	0xbc9dadb0	-0.01924786
194	0xbc4f6d4a	-0.012660334
195	0xbcf194e1	-0.029489936
196	0x3d65463c	0.055975184
197	0x3a645113	0.0008709591
198	0xbd0e165d	-0.034689296
199	0x3d688562	0.05676783
200	0x3d30c56a	0.04315702
201	0x3c5b65ff	0.013391017
202	0x3d066644	0.03281237
203	0x3d209b6f	0.039210733
204	0xbd6160a4	-0.055023804
205	0x3ce34e59	0.02774732
206	0xbd81b894	-0.063340336
207	0x3d634685	0.055487175
208	0x3bf70913	0.0075389235
209	0xbc939474	-0.018015124
210	0xbb46d1cd	-0.0030337453
211	0x3cb32404	0.02186776
212	0x3cfa3683	0.030543571
213	0xbd7df592	-0.062001772
214	0xbd65d73d	-0.05611347
215	0xbcff846f	-0.031191079
216	0xbd42f1f6	-0.047594033
217	0xbd08beb0	-0.03338498
218	0x3d738950	0.059457123
219	0xbbfe8270	-0.007767014
220	0x3ad7db86	0.0016468621
221	0x3d32fd8b	0.04369883
222	0x3a87bb18	0.0010355441
223	0x3c8e4047	0.017364634
224	0xbcb916de	-0.022593912
225	0xbcf9f55b	-0.030512502
226	0x3cbe5e06	0.023238193
227	0x3d4a13b8	0.04933521
228	0xbd417c39	-0.04723761
229	0xbd56ee78	-0.052473515
230	0x3cf44f91	0.029823096
231	0xbd15e7b5	-0.036597926
232	0x3d328c64	0.04359092
233	0xbd529cb8	-0.05141899
234	0x3c30f6b5	0.010801007
235	0x3d497589	0.049184356
236	0x3ca29a71	0.019849034
237	0xba27ec46	-0.0006405752
238	0x3c20c11c	0.009811666
239	0xbd58a8ea	-0.052895464
240	0x3be47e1d	0.0069730417
241	0x3c7f0eca	0.015567491
242	0x3b00261c	0.0019553965
243	0xbd33414f	-0.043763455
244	0x3cbe278f	0.023212222
245	0x3bca428f	0.006172485
246	0xbbfb8d57	-0.007676761
247	0x3c815f85	0.015792618
248	0xbd1eaa0f	-0.0387364
249	0x3d2f9afe	0.04287242
250	0xbd0edbb6	-0.0348775
251	0x3ce8574c	0.028361939
252	0xbc6fc1b1	-0.014633582
253	0x3d8db2ad	0.06918845
254	0xbd2c7caf	-0.042111095
255	0x3d5ddfe2	0.05416859

bias f4 [128]
0	0xbca479c6	-0.020077597
1	0x3d113694	0.03545244
2	0x3be431cf	0.0069639455
3	0x3c9baad8	0.019002363
4	0x3d9448df	0.072404616
5	0xbd798019	-0.06091318
6	0xbc924a0f	-0.01785758
7	0xbd1effd4	-0.038818195
8	0x3d255115	0.04036053
9	0x3d05b112	0.03263957
10	0xbcacfefb	-0.021117678
11	0xbca0416f	-0.019562451
12	0x3cf3d50e	0.029764678
13	0x3d6b9198	0.057511896
14	0xbd527a08	-0.05138591
15	0x3cdf7ede	0.027282175
16	0x3c9277cf	0.017879395
17	0x3d47ca0d	0.048776675
18	0x3d1cd3eb	0.03828804
19	0xbc5d1188	-0.013492949
20	0x3d4f0b10	0.05054766
21	0x3d00bd51	0.031430546
22	0x3d2d34c3	0.042286646
23	0xbc8dc83d	-0.017307395
24	0x3d6a24ff	0.05716419
25	0xbcb28be6	-0.021795224
26	0xbd11d932	-0.035607524
27	0xbc7d0ddd	-0.0154452
28	0x3c332549	0.010934182
29	0xbd89b30d	-0.06723604
30	0x3d5b8474	0.053593114
31	0x3cb1da91	0.021710666
32	0x3d90f79f	0.0707848
33	0xbc2638d5	-0.010145386
34	0xbd414ab1	-0.047190372
35	0x3c5f42e3	0.013626787
36	0x3d535772	0.051597066
37	0xbc103366	-0.008801317
38	0x3b84923e	0.0040457537
39	0x3d3d47b2	0.046210952
40	0xbd19c537	-0.037541594
41	0xbcf7de1d	-0.030257279
42	0x3d015481	0.03157473
43	0x3d335a9d	0.043787587
44	0x3d3da08d	0.04629569
45	0xbcb84359	-0.022493051
46	0x3c77f936	0.0151351
47	0xbc9cc270	-0.019135684
48	0x3d1ea5e4	0.038732424
49	0x3c919921	0.017773213
50	0xbd53523c	-0.051592097
51	0xbd624386	-0.055240177
52	0xbd8e1b5a	-0.06938811
53	0xbc18cc42	-0.009326043
54	0x3d6b6a09	0.05747417
55	0xbbcb0c44	-0.0061965305
56	0x3ce21302	0.027596954
57	0xbd6aff6f	-0.057372507
58	0x3baa02a4	0.005188303
59	0x3c66dc6f	0.014090641
60	0xbd7eb802	-0.062187202
61	0xbc03d355	-0.008045991
62	0x3da2700a	0.07931526
63	0x3d2902ca	0.041262425
64	0x3bd1e52d	0.0064054937
65	0xbc635ceb	-0.013877134
66	0x3cd12929	0.025532322
67	0x3d5a9bdd	0.0533713
68	0x3d21ede6	0.03953352
69	0xbd3fe281	-0.04684687
70	0xbcd050cc	-0.025429152
71	0x3d6a9be7	0.057277586
72	0xbce705ca	-0.028201003
73	0xbce81811	-0.028331788
74	0xbaf33e20	-0.0018557943
75	0x3c02b5d9	0.007977926
76	0x3ca4bbd1	0.02010909
77	0xbd99ce29	-0.07510025
78	0xbd188999	-0.0372406
79	0xbd2d7f7c	-0.042357907
80	0xbd2845ff	-0.04108238
81	0xbc98743e	-0.018610116
82	0xbd869deb	-0.06573089
83	0x3d4ae39d	0.049533475
84	0x3d364539	0.04449961
85	0x3c8cafc0	0.017173648
86	0xbd52b754	-0.051444367
87	0xbcb066db	-0.02153342
88	0x3c0cc2e8	0.008591391
89	0xbd896bbd	-0.067100026
90	0x3ca11013	0.019660985
91	0x3d213d59	0.039365146
92	0x3b7aeff5	0.0038289998
93	0xbcd80bdf	-0.026372848
94	0xbc85b748	-0.016322747
95	0xbcd54385	-0.026033172
96	0xbcf83d73	-0.030302739
97	0xbc7240d1	-0.014785961
98	0xba7567d6	-0.0009361481
99	0xbbed3145	-0.0072385394
100	0xbd5af8db	-0.053459983
101	0xbd8b2009	-0.067932196
102	0x3cad6a6b	0.021168908
103	0x3c97c058	0.018524334
104	0xbcec6c05	-0.028860101
105	0xbd86546f	-0.06559073
106	0x3d5a9469	0.05336419
107	0xbd68e06c	-0.05685465
108	0xbc160607	-0.0091567105
109	0x3d02d632	0.031942554
110	0xbca668f0	-0.02031371
111	0x3d002d06	0.031292938
112	0xbc10fb86	-0.00884903
113	0xbacbff1a	-0.0015563697
114	0xbc93a0b2	-0.018020961
115	0xbd4f673d	-0.050635565
116	0x3d65eb51	0.05613262
117	0x3d79a64b	0.060949605
118	0x3cf8aebb	0.030356755
119	0x3d4ec672	0.05048222
120	0xbd1a6e0e	-0.037702613
121	0x3cd50ce6	0.026007127
122	0xbc7f093c	-0.0155661665
123	0xbcc12a0b	-0.023579618
124	0x3d8c13e7	0.068397336
125	0x3c990911	0.018681081
126	0xbd424050	-0.047424614
127	0x3c105b15	0.008810778

weight f4 [128, 128]
0	0xbdb79777	-0.089644365
1	0xbd9f0b49	-0.07765824
2	0x3c920540	0.017824769
3	0xbd8bd50a	-0.06827743
4	0x3c07b182	0.008282067
5	0xbda8900f	-0.08230602
6	0xbcc10506	-0.023561966
7	0xbdc46535	-0.09589616
8	0xbb943534	-0.004522944
9	0x3d920a08	0.071308196
10	0x3d41d308	0.047320396
11	0xbd8a6f03	-0.06759455
12	0xbccd5086	-0.02506281
13	0x3d586181	0.052827362
14	0x3baf2e1a	0.005346072
15	0x3d5d1a7d	0.05398034
16	0xbdba79f6	-0.091052935
17	0x3d6d3ca4	0.05791916
18	0x3c39303b	0.011303003
19	0xbd8844c7	-0.06653743
20	0x3da49c26	0.080375955
21	0xbd2b0886	-0.041756175
22	0xbd54a62b	-0.051916283
23	0x3d1898db	0.03725515
24	0xbdb3c58b	-0.08777913
25	0xbd92fe7f	-0.071774475
26	0xbd0b01e1	-0.03393734
27	0x3b8d2513	0.004307398
28	0x3cead400	0.028665543
29	0x3d861f57	0.06548946
30	0xbcede84f	-0.029041437
31	0xbc990ed1	-0.018683823
32	0xbd8581d4	-0.065189034
33	0xbd01a827	-0.031654503
34	0x3d199d7c	0.037503704
35	0xbd8d37f5	-0.068954386
36	0xbd878b98	-0.06618422
37	0x3d37a012	0.04483039
38	0x3c9ed850	0.019390255
39	0xbc1041bd	-0.008804736
40	0xbcded740	-0.027202249
41	0xbb9f8fd6	-0.0048694415
42	0xbd9a77d2	-0.07542385
43	0x3d56c32b	0.05243222
44	0xbd2b11d2	-0.04176504
45	0xbb0026c2	-0.0019554351
46	0xbd8f7a4b	-0.070057474
47	0xbd86e860	-0.06587291
48	0xbd53d25e	-0.051714294
49	0x3d0e225b	0.034700733
50	0xbc47e0ee	-0.0121996235
51	0xbd5e070c	-0.05420594
52	0xbd8af57d	-0.067851044
53	0xbd920576	-0.07129948
54	0xbc834fa4	-0.016029187
55	0xbdab449a	-0.08362694
56	0xbdc22ba1	-0.09480978
57	0xbc80edab	-0.015738329
58	0xbc83b2f2	-0.016076539
59	0x3d262eca	0.040571965
60	0xbdb44366	-0.08801918
61	0xbd49e640	-0.04929185
62	0xbd2351b5	-0.039872844
63	0x3d407adb	0.046992164
64	0xbd941dd6	-0.07232253
65	0xbd7a19ca	-0.06105975
66	0x3c5c1aa9	0.013434091
67	0xbcb949b8	-0.02261816
68	0x3d2427d2	0.040077038
69	0x3d96ba72	0.0735978
70	0xbdafd205	-0.0858498
71	0x3b436ef8	0.0029820781
72	0x3daa913e	0.08328484
73	0x3d97d8d5	0.07414404
74	0x3d83c6f3	0.06434431
75	0xbd23932c	-0.039935276
76	0x3d4cb180	0.049973965
77	0x3d0f65b1	0.03500909
78	0x3c96af87	0.018394245
79	0x3c8246c4	0.015902884
80	0x3c83a6ef	0.016070811
81	0xbce7f6ad	-0.028315866
82	0xbda4e9e6	-0.08052425
83	0x3c0b1dbb	0.008490975
84	0x3d4124cd	0.047154237
85	0x3d9c7b98	0.07640761
86	0x3d5ecd1d	0.05439483
87	0x3ccd9187	0.025093807
88	0xbdc35f4b	-0.0953966
89	0xbc2db2ca	-0.010601709
90	0x3d148d99	0.03626785
91	0xbcac5607	-0.021037115
92	0xbd8b0c68	-0.06789476
93	0x3d3c8f2e	0.046034984
94	0x39d91438	0.0004140453
95	0x3d918ae9	0.07106573
96	0xbb6acf74	-0.0035829218
97	0xbd289e16	-0.041166387
98	0xbce5ec39	-0.028066741
99	0xbcca6e4f	-0.024710802
100	0x3d44fa6c	0.048090383
101	0x3d33df68	0.04391423
102	0x3d09ae4f	0.0336135
103	0xbd6b6271	-0.057466928
104	0xbc8810e8	-0.016609624
105	0xbd3ec60b	-0.046575587
106	0xbd87c048	-0.066284716
107	0xbd0bb8e0	-0.034111857
108	0x3bb4db85	0.005519333
109	0x3d0f6d3f	0.035016295
110	0xbd6cc7d8	-0.057807773
111	0xbca8f487	-0.020624412
112	0xbdbdd45c	-0.0926902
113	0x3d5cdad3	0.053919625
114	0xba4e48e6	-0.0007869139
115	0x39b97a79	0.000353772
116	0xbcc1906c	-0.023628436
117	0x3d93c95e	0.07216142
118	0x3d50d971	0.05098862
119	0x3adee108	0.001700432
120	0xbdb9055c	-0.09034225
121	0xbdc1d244	-0.09463933
122	0xba8fd13e	-0.0010972393
123	0xbc90c766	-0.017673206
124	0x3c89e953	0.01683489
125	0x3d243a19	0.04009447
126	0x3d2939f7	0.041315045
127	0x3d371259	0.044695232
128	0x3d445b73	0.047938775
129	0xbd6f4bec	-0.058422014
130	0xbda427bb	-0.080153905
131	0x3daba452	0.08380951
132	0xbd3860c9	-0.045014177
133	0x3c2e2f0d	0.010631335
134	0x3cd59b36	0.026074987
135	0x3d280def	0.041028913
136	0xbd7d70fc	-0.06187533
137	0x3d2d9cd2	0.042385884
138	0x3da5c649	0.080944605
139	0x3afc2f83	0.0019240234
140	0xbd5483c6	-0.05188348
141	0x3d4aed60	0.049542785
142	0xbcdb5a72	-0.026776526
143	0x3d87bb00	0.06627464
144	0x3d4f9328	0.05067745
145	0x3d067a36	0.032831393
146	0x3cda5c5e	0.026655372
147	0xbdb16f75	-0.08663837
148	0xbd1190b8	-0.035538405
149	0x3db6b34c	0.08920917
150	0xbbd77662	-0.0065753916
151	0xbd707e28	-0.058714062
152	0x3de09314	0.10965553
153	0x3da0b074	0.07846156
154	0xbc391964	-0.0112975575
155	0x3d7568d4	0.059914425
156	0x3d8d7a3a	0.069080785
157	0xbd2d54e4	-0.042317286
158	0xbccfb934	-0.025356866
159	0xbd4a33aa	-0.049365677
160	0xbc686cef	-0.014186128
161	0xbc6c3fb4	-0.014419485
162	0x3da0f098	0.078583896
163	0x3d3648dd	0.04450308
164	0x3d50975b	0.050925594
165	0xbc5a0a62	-0.0133081395
166	0x3da184b3	0.078866385
167	0x3d8d879d	0.06910632
168	0xbd3a7cc5	-0.045529146
169	0x3d59948a	0.053120174
170	0xbd8fff07	-0.070310645
171	0x3b4762e4	0.0030423934
172	0x3c87aa8f	0.01656082
173	0xb668689e	-3.463159e-06
174	0x3d6382bb	0.055544596
175	0xbd37f34b	-0.044909757
176	0x3d9fcd90	0.0780288
177	0xbd460653	-0.048345875
178	0xbdca7e6e	-0.09887396
179	0x3cdf3a82	0.027249578
180	0xbc5cd87e	-0.01347935
181	0x3d18f58b	0.037343543
182	0x3d235e01	0.03988457
183	0x3cf15507	0.02945949
184	0x3d198202	0.0374775
185	0x3d279733	0.04091568
186	0xbd3b7735	-0.04576798
187	0x3d0ed188	0.034867793
188	0x3d550b85	0.05201294
189	0xbd57f453	-0.05272324
190	0x3d3ab0fc	0.04557894
191	0xbcec60d5	-0.028854767
192	0xbc7a842c	-0.015290301
193	0xbae2b9d5	-0.0017297814
194	0x3dcba2d6	0.09943168
195	0x3ce83037	0.028343303
196	0xbcf8a487	-0.03035189
197	0x3d9dcc3c	0.0770497
198	0xbc9e3e91	-0.019316943
199	0xbd710615	-0.05884369
200	0xbccb730a	-0.024835128
201	0xbd8248ff	-0.06361579
202	0x3d318e8e	0.04334884
203	0x3dac948f	0.08426773
204	0x3d97677e	0.073927864
205	0x3c1eafd4	0.009685475
206	0xbc93172d	-0.017955387
207	0xbd983884	-0.074326545
208	0x3dc25dc9	0.09490544
209	0xbca876cc	-0.02056446
210	0xbd8db86b	-0.069199406
211	0x3d37048d	0.044682074
212	0x3d304973	0.043038797
213	0x3bcfd964	0.0063430537
214	0x3d863b98	0.06554335
215	0xbcc506cc	-0.024051093
216	0x3b395e0a	0.0028284811
217	0xbd67e06c	-0.05661051
218	0x3d7a5a6f	0.0611214
219	0x3db6d985	0.08928207
220	0x3d114efb	0.035475712
221	0x3d9976af	0.0749334
222	0x3cf6413d	0.030060405
223	0x3c829302	0.01593924
224	0x3c622681	0.013803125
225	0xbaa74560	-0.0012761764
226	0x3d3d2b15	0.046183664
227	0xbcd5cb2c	-0.026097856
228	0xbd41ed5b	-0.0473455
229	0xbd0bf775	-0.03417154
230	0xbd2ea014	-0.04263313
231	0xbc90c141	-0.017670276
232	0xbd06dc50	-0.03292495
233	0x3d43cbd0	0.047801793
234	0xbd25992c	-0.04042928
235	0xbd77737c	-0.06041287
236	0xbd44cddd	-0.04804789
237	0x3d9c3aaa	0.07628377
238	0x3c53272c	0.012887757
239	0xbd913630	-0.070904136
240	0x3c49edd2	0.012324767
241	0x3c65baaa	0.014021555
242	0xbd883c5e	-0.06652139
243	0x3d82b332	0.06381835
244	0xbd4ad4c5	-0.04951932
245	0xbb8e65ac	-0.0043456163
246	0x3c9dce6c	0.019263469
247	0x3d9370df	0.07199263
248	0x3da8d3f6	0.08243553
249	0x3db93401	0.09043122
250	0x3d4ebd42	0.05047346
251	0x3d97d102	0.07412912
252	0xbd2e62a5	-0.042574544
253	0x3d37911b	0.044816118
254	0xbd5883f4	-0.052860215
255	0xbd14a226	-0.03628745
