E-GraphSAGE/experiments/model/None_Gate_MLP_NF-ToN-IoT_best_model.pth (torch, 432228 bytes, 14 tensors)

weight f4 [128, 16]
0	0x3e1192af	0.14216112
1	0x3e58fe5a	0.21190777
2	0xbdde8e65	-0.10867003
3	0xbe2f2362	-0.17103341
4	0x3e63829c	0.22217792
5	0x3d5eeea4	0.054426804
6	0x3d14a9be	0.03629469
7	0xbd3fe01f	-0.046844598
8	0x3c883eb2	0.016631458
9	0x3e80b83b	0.25140557
10	0x3e8c3a5e	0.2738828
11	0xbe9abf57	-0.30224106
12	0xbe08c7c6	-0.13357458
13	0xbe6901f5	-0.22754653
14	0xbdb8596a	-0.090014294
15	0x3c51ca75	0.012804617
16	0xbdc8b3b8	-0.09799904
17	0x3db5fda0	0.08886266
18	0x3d97cab3	0.07411709
19	0x3d1d316d	0.038377214
20	0xbd41913f	-0.047257658
21	0xbe6a0422	-0.22853139
22	0xbcb2e668	-0.021838382
23	0x3e1e4738	0.15456855
24	0xbe914dd8	-0.28379703
25	0xbec287c2	-0.379942
26	0xbe99cfa4	-0.3004123
27	0xbde69e03	-0.11260607
28	0xbe268c65	-0.16264494
29	0x3e7c68bc	0.24649328
30	0xbe502b6a	-0.20329061
31	0x3e774d66	0.24150619
32	0x3e616833	0.22012405
33	0xbcbbe75b	-0.022937467
34	0x3c6b6377	0.014366976
35	0x3df3168b	0.11869534
36	0x3e40900d	0.18804951
37	0xbd91af82	-0.071135536
38	0x3e6f9053	0.23394899
39	0xbd337953	-0.043816876
40	0x3da7a17f	0.081851
41	0x3e9d16cd	0.30681458
42	0x3dfee6ce	0.12446366
43	0xbe31b9de	-0.17356059
44	0x3e562327	0.20911847
45	0xbde34a05	-0.110981025
46	0xbd06a12c	-0.03286855
47	0xbdd70434	-0.104988486
48	0x3db54754	0.088514954
49	0xbccfe428	-0.025377348
50	0xbe602a6d	-0.21891184
51	0x3d8da0d8	0.06915444
52	0xbe57303f	-0.21014498
53	0xbe7fb71f	-0.24972199
54	0x3d76a5ad	0.060216594
55	0x3e42a6f9	0.19009008
56	0xbe084a3d	-0.1330957
57	0xbe9ed8e3	-0.31024846
58	0x3d28738b	0.041125815
59	0x3d89e8fb	0.067338906
60	0x3e11a5da	0.14223424
61	0x3dab7060	0.08371043
62	0x3c725557	0.014790854
63	0xbe38a63c	-0.18032163
64	0xbe3f77a9	-0.1869799
65	0xbd61c6a4	-0.05512108
66	0xbcc919ca	-0.02454843
67	0x3d9479bc	0.072497815
68	0x3e2795a7	0.16365682
69	0x3cdde0f7	0.02708481
70	0x3c83639d	0.01603871
71	0xbe26fa59	-0.16306438
72	0x3e930fc6	0.28722972
73	0x3e88bfca	0.26708823
74	0x3e6a6859	0.22891368
75	0xbdd148aa	-0.10218938
76	0xbe6b150d	-0.22957249
77	0xbe548051	-0.20752074
78	0xbe54abc1	-0.20768644
79	0x3e8968b2	0.2683769
80	0x3e021386	0.1270276
81	0x3e3a0bb1	0.18168522
82	0xbe06901d	-0.13140912
83	0x3d88dcd2	0.06682743
84	0x3d49030c	0.04907517
85	0x3e7e7d7d	0.24852557
86	0x3d45bc0c	0.04827504
87	0xbd0f5264	-0.034990683
88	0x3ee67e78	0.45018363
89	0x3e6c045f	0.23048542
90	0xbdd471da	-0.10373278
91	0xbd32ac42	-0.04362131
92	0xbe6cd0b7	-0.23126493
93	0x3dfff000	0.12496948
94	0xbeaab803	-0.33343515
95	0x3d88c9db	0.06679126
96	0x3e2c4fa6	0.16827258
97	0x3e60d226	0.21955165
98	0xbdd93105	-0.10605053
99	0x3d9de3c3	0.07709458
100	0x3dcd47eb	0.10023483
101	0xbe1e9820	-0.15487719
102	0xbe82b553	-0.25528964
103	0xbe2d780e	-0.16940328
104	0x3df3dbbe	0.11907147
105	0xbe1f59ef	-0.1556165
106	0x3ebc907f	0.36828992
107	0x3e7edb1b	0.2488827
108	0x3e7735d4	0.24141628
109	0x3e51e2c4	0.2049666
110	0x3ea08d03	0.31357583
111	0xbb58cce1	-0.0033081102
112	0xbdc2c4cd	-0.09510193
113	0x3d3e8f4a	0.04652337
114	0xbe249721	-0.16073276
115	0x3de60243	0.112309
116	0x3e0580a7	0.13037358
117	0xbccab816	-0.024745982
118	0x3dd55267	0.104161076
119	0x3d3f3a32	0.04668636
120	0x3c97dd71	0.018538209
121	0x3e134f73	0.14385776
122	0x3e5215f6	0.2051619
123	0x3d5514e6	0.052021883
124	0x3e99796c	0.2997545
125	0x3e1ed462	0.15510705
126	0x3e98869a	0.29790193
127	0xbe858d63	-0.26084432
128	0xbe5f3ced	-0.21800585
129	0xbe8024ff	-0.25028226
130	0xbe4627d5	-0.19351132
131	0x3e60f193	0.21967153
132	0x3dc56bee	0.096397266
133	0x3df7544f	0.120766275
134	0x3ced28f4	0.028950192
135	0xbe30c2bf	-0.1726179
136	0x3dcd2f59	0.100187965
137	0x3dec1820	0.11528039
138	0xbecb8ca3	-0.39755735
139	0xbda5131d	-0.08060286
140	0xbcc9427b	-0.024567833
141	0x3e062182	0.1309872
142	0xbebb242a	-0.36551028
143	0x3e71cec9	0.23614039
144	0xbd24d81b	-0.040245157
145	0x3e6a3a0c	0.22873706
146	0x3d52545c	0.051349983
147	0x3dbbf2c7	0.091771655
148	0x3d88b1e8	0.06674558
149	0x3ded80ef	0.11596858
150	0x3e659654	0.22420627
151	0x3e418f00	0.18902206
152	0x3d7f37b5	0.062308986
153	0x3e05bb82	0.1305981
154	0xbe7e7bb0	-0.2485187
155	0xbe119a61	-0.14219047
156	0xbe2688a8	-0.16263068
157	0xbe2687b3	-0.16262703
158	0xbeb9c0f9	-0.3628004
159	0xbe69c7e4	-0.22830158
160	0x3d47d3b0	0.048785865
161	0xbe548c78	-0.2075671
162	0xbe4b4fb8	-0.19854629
163	0x3e2ffc34	0.17186052
164	0xbdc82da2	-0.09774329
165	0x3ab6047c	0.0013886834
166	0xbcc9638b	-0.024583599
167	0x3db7be96	0.08971898
168	0x3dadbe84	0.084836036
169	0x3e602a2e	0.2189109
170	0x3e8f64a4	0.2800647
171	0xbeae46b3	-0.34038314
172	0x3c90ef09	0.017692106
173	0xbe17f193	-0.14838247
174	0xbe7f5921	-0.24936344
175	0x3e1ff265	0.1561981
176	0xbe1d5297	-0.15363537
177	0xbd6be247	-0.05758884
178	0x3e625adb	0.22104971
179	0xbe04c6b1	-0.1296642
180	0x3d0fbf51	0.035094563
181	0xbe090b2f	-0.13383172
182	0xbdc0040f	-0.09375774
183	0xbe4a2a41	-0.19742681
184	0xbe3b386f	-0.18283246
185	0x3dd1ba68	0.10240632
186	0xbed103a9	-0.40823105
187	0xbe619254	-0.22028476
188	0xbdc7d155	-0.09756724
189	0xbdb55021	-0.08853174
190	0x3dd749cd	0.10512123
191	0x3e7fe68f	0.24990295
192	0x3d27aebe	0.04093813
193	0xbd3d5a63	-0.046228778
194	0xbe289272	-0.16462114
195	0x3d922504	0.071359664
196	0xbe20bc58	-0.15696847
197	0x3e3402a8	0.17579138
198	0xbe46954e	-0.19392893
199	0xbdf615e2	-0.120158926
200	0x3c2caf3d	0.010539827
201	0x3e990c76	0.2989232
202	0x3e241c59	0.16026439
203	0x3eba3f2b	0.36376318
204	0x3e99ff49	0.3007758
205	0x3e44a35b	0.1920294
206	0x3ecc37ed	0.39886418
207	0xbe189183	-0.14899258
208	0x3d933cab	0.07189306
209	0x3e8fe3ab	0.28103384
210	0x3e56ca14	0.20975524
211	0x3e81d9de	0.25361532
212	0x3e4fb5a8	0.2028414
213	0x3d974968	0.07387048
214	0x3e2c8272	0.16846636
215	0x3dc87fc4	0.09789994
216	0x3e9f1f43	0.31078538
217	0xbe81febf	-0.25389668
218	0x3e788bcd	0.2427208
219	0x3e895336	0.26821297
220	0x3e20accb	0.15690915
221	0x3d6e82c9	0.058230195
222	0xbe037db8	-0.12840927
223	0x3e83c2ae	0.25734466
224	0x3dfe917e	0.12430094
225	0x3d89264c	0.06696758
226	0xbcde2607	-0.027117742
227	0xbe2fca7a	-0.17167082
228	0x3c279b98	0.010229968
229	0x3e40cb10	0.18827462
230	0xbe248026	-0.1606451
231	0x39c0fe58	0.00036810595
232	0xbe911fbe	-0.2834453
233	0x3e92f6c3	0.2870389
234	0xbe292a8d	-0.16520138
235	0xbe5ecb4b	-0.21757238
236	0xbe6421c2	-0.22278503
237	0xbccd76c5	-0.025081048
238	0xbd19f193	-0.0375839
239	0x3e7c3364	0.24628979
240	0x3e879469	0.26480415
241	0x3e919929	0.28437164
242	0x3e8b1794	0.27166426
243	0x3def0629	0.11671097
244	0x3d1b8b15	0.037974436
245	0x3d28e260	0.041231513
246	0xbdceddb9	-0.10100884
247	0xbe59465d	-0.21218248
248	0xbed9be82	-0.42528158
249	0xbdf195f6	-0.11796181
250	0xbdc22efc	-0.09481618
251	0x3b1e7718	0.0024179872
252	0x3bc02e6e	0.00586491
253	0xbdbf4008	-0.09338385
254	0x3dc42070	0.095764995
255	0x3d4131dc	0.04716669

bias f4 [128]
0	0xbe584e7a	-0.21123686
1	0xbc6033b6	-0.013684204
2	0xbe2e6738	-0.17031562
3	0xbe6feec4	-0.23430926
4	0x3e16476c	0.14675683
5	0x3c785a28	0.015158214
6	0xbdbe0455	-0.0927817
7	0x3e001933	0.12509613
8	0xbd221d1f	-0.039578553
9	0xbe47644a	-0.19471851
10	0xbdf4f9d1	-0.11961711
11	0x3c833b11	0.016019376
12	0x3e77b20e	0.24189016
13	0x3e8d1bef	0.27560374
14	0x3cadc210	0.0212107
15	0x3e3b7cfc	0.18309397
16	0xbc7a94ce	-0.015294267
17	0x3b9cb01b	0.0047817356
18	0xbe381e87	-0.17980395
19	0xbd85b83e	-0.06529282
20	0xbdabb4f6	-0.08384125
21	0x3d93f95a	0.072252944
22	0x3d5f450f	0.05450922
23	0x3e06f74c	0.13180274
24	0x3e1a45ec	0.15065736
25	0xbe78a496	-0.24281535
26	0xbe640773	-0.22268467
27	0x3e3fe2e6	0.18738899
28	0x3e360075	0.17773612
29	0xbe5060c7	-0.20349418
30	0x3e83b739	0.25725725
31	0x3e3d9907	0.18515407
32	0xbd95bd01	-0.0731144
33	0x3ce50e0b	0.027960798
34	0xbd56f2d8	-0.052477688
35	0x3e1824ed	0.14857836
36	0x3c9675d2	0.018366728
37	0xbe4fc3e1	-0.20289566
38	0xbbf49399	-0.007463884
39	0xbe8049ce	-0.25056309
40	0xbe447ac9	-0.19187464
41	0xbd675954	-0.056481674
42	0xbc8a8690	-0.016909868
43	0x3d3c1fe5	0.045928854
44	0xbe1788e8	-0.1479832
45	0x3e5d4c5e	0.21611163
46	0xbd0d8d3b	-0.034558516
47	0xbc1a7aa7	-0.009428657
48	0xbe53aa5d	-0.20670457
49	0xbe7e2367	-0.24818192
50	0xbd3a7957	-0.045525875
51	0xbdffdf8b	-0.12493809
52	0xbc59ad1e	-0.013285903
53	0xbd12e5e0	-0.035863757
54	0x3c4c5b4c	0.012472939
55	0xbdbd641e	-0.092476115
56	0xbe43143f	-0.19050692
57	0x3c8c6468	0.017137721
58	0xbe476f49	-0.19476046
59	0x3d4f1ee6	0.050566576
60	0x3ddcf09f	0.10788082
61	0xbe62672c	-0.2210967
62	0xbe4cf0eb	-0.20013778
63	0xbe39d145	-0.18146236
64	0xbe81ff01	-0.25389865
65	0xbe866e05	-0.26255813
66	0xbe279d20	-0.16368532
67	0xbe44cb1d	-0.19218107
68	0xbe3dfd5c	-0.1855368
69	0xbd683e09	-0.056699786
70	0x3db7f141	0.089815624
71	0x3c81a264	0.015824504
72	0xbcf423a3	-0.02980215
73	0xbd93cfed	-0.07217393
74	0x3e4571ef	0.19281743
75	0x3e191024	0.14947563
76	0xbdfcd412	-0.12345137
77	0x3d8407b4	0.06446782
78	0x3d1b2325	0.037875313
79	0x3e4ca6f5	0.19985564
80	0x3d36adc8	0.044599324
81	0x3d4826d4	0.048865154
82	0xbdac87eb	-0.08424362
83	0x3e1f8c40	0.15580845
84	0xbe665c30	-0.22496104
85	0xbdeb6ca0	-0.11495328
86	0x3cf7dbf7	0.030256255
87	0xbe70842d	-0.23487921
88	0x3e421b51	0.18955733
89	0xbe02efc5	-0.12786777
90	0xbd1dc557	-0.038518276
91	0x3ca66f9d	0.020316893
92	0xbda495c3	-0.08036377
93	0x3e32f008	0.17474377
94	0x3e4deb28	0.20109236
95	0x3e27100d	0.16314717
96	0x3c872c88	0.016500726
97	0xbdbd357f	-0.09238719
98	0x3e3bb306	0.18330011
99	0xbe6153c5	-0.22004612
100	0xbe3b6b4e	-0.18302652
101	0xbe3ffba9	-0.18748344
102	0xbe457e91	-0.19286563
103	0xbde5eaeb	-0.11226448
104	0x3dd8af72	0.105803385
105	0xbe2f282e	-0.17105171
106	0xbda90c8d	-0.08254347
107	0x3e8f5125	0.27991596
108	0x3e8ac6e9	0.2710488
109	0x3e05caee	0.13065693
110	0xbbd65941	-0.0065414016
111	0x3a81c1c0	0.0009899661
112	0xbe3c3106	-0.18378076
113	0xbd99f980	-0.075182915
114	0x3d93ed2d	0.07222972
115	0x3e087bc7	0.13328467
116	0xbd45ca36	-0.048288547
117	0xbe623354	-0.22089893
118	0xbe77564d	-0.24154015
119	0x3d93ea76	0.07222454
120	0x3e347749	0.17623629
121	0x3de5ee7b	0.11227127
122	0xbe58d5c8	-0.21175301
123	0x3d493bd1	0.04912931
124	0x3e5328b0	0.2062099
125	0xbe0e2193	-0.13879995
126	0xbe5dd3d2	-0.21662834
127	0x3bbd7e42	0.0057828734

weight f4 [128, 136]
0	0x3c809806	0.01569749
1	0xbd34f190	-0.044175684
2	0x3dc2f522	0.095194116
3	0x3d09d15b	0.033646923
4	0x3d9894e2	0.07450272
5	0x3d8f6822	0.07002284
6	0xbcfee630	-0.031115621
7	0x3d93f197	0.07223814
8	0x3dbc326e	0.09189306
9	0xbd9bb8c6	-0.07603602
10	0x3d25815a	0.040406562
11	0xbdd993fd	-0.1062393
12	0xbd6ea601	-0.058263782
13	0x3daf734f	0.08566915
14	0xbd96987e	-0.07353304
15	0x3d06a95e	0.032876365
16	0xbcc09bfc	-0.02351188
17	0x3c9137a4	0.017726727
18	0x3c98dfff	0.018661497
19	0xbd8cb98f	-0.0687133
20	0x3d7c3ab7	0.061579432
21	0x3d3a987d	0.04555558
22	0x3da414e8	0.080118
23	0x3d89213c	0.06695792
24	0x3d9d3264	0.07675627
25	0x3d9d50c7	0.07681423
26	0xbdb2cdde	-0.08730672
27	0xbc9f76a3	-0.01946575
28	0x3d49eab0	0.04929608
29	0xbccab7f2	-0.024745915
30	0x3cc587da	0.02411263
31	0xbcb2d662	-0.021830741
32	0xbb0e3ca9	-0.0021703637
33	0x3d116ee4	0.035506144
34	0xbd961acd	-0.073293306
35	0x3dd15499	0.10221214
36	0x3cada9f0	0.021199197
37	0x3d011e7c	0.031523213
38	0xbccb4781	-0.02481437
39	0xbd0afa55	-0.03393014
40	0xbd477a7e	-0.048700802
41	0xbd14fdb3	-0.03637476
42	0x3de716e3	0.11283662
43	0x3d8bc85b	0.06825324
44	0xbb305023	-0.0026903234
45	0xbdc9df07	-0.09856992
46	0xbcb0509a	-0.021522809
47	0xbd329a35	-0.043604095
48	0xbdd99208	-0.106235564
49	0xbddbe586	-0.107371375
50	0x3b7fb060	0.003901504
51	0xbd000dee	-0.031263284
52	0x3d0e07b5	0.03467532
53	0xbd0853ea	-0.03328315
54	0xbb1075fd	-0.0022042983
55	0x3def90f7	0.11697572
56	0x3ca8e0f2	0.020615075
57	0x3d8b35eb	0.067973934
58	0x3c7fa977	0.015604368
59	0x3c5533bb	0.013012822
60	0xbcd97d21	-0.026548924
61	0x3dfb6665	0.122753896
62	0x3c7db4d7	0.01548501
63	0xbdd6800c	-0.10473642
64	0x3d724fc8	0.059158117
65	0xbd3aec64	-0.045635596
66	0x3de7888c	0.11305341
67	0xbdac770c	-0.08421144
68	0xbd836429	-0.064155884
69	0x3e0a34eb	0.13496749
70	0xbdcfbbdf	-0.101432554
71	0xbda22fc0	-0.07919264
72	0x3da8a686	0.08234887
73	0x3c3d8d78	0.011569373
74	0xbe1e4fc6	-0.15460119
75	0x3c4f3330	0.012646481
76	0x3d568fe7	0.05238333
77	0xbdac47db	-0.08412143
78	0xbc93a99c	-0.018025212
79	0x3bed4f7e	0.007242142
80	0x3d925d30	0.0714668
81	0x3d80fd9f	0.062983744
82	0x3da12e37	0.07870143
83	0x3c6e4a31	0.014544056
84	0xbd0b03a0	-0.033939004
85	0x3c914468	0.017732814
86	0xbd3a9722	-0.045554288
87	0x3d6dbac1	0.05803943
88	0x3ab70d7b	0.001396581
89	0x3d743b65	0.059626956
90	0x3d9ac353	0.075567864
91	0xbd8906b6	-0.06690733
92	0xbd83196c	-0.06401333
93	0xbdc5734c	-0.09641132
94	0x3ca2eacd	0.019887352
95	0x3d299df8	0.041410416
96	0xbda8668d	-0.08222685
97	0x3c1e4921	0.00966099
98	0x3d4be16e	0.049775533
99	0x3cddbe6e	0.027068343
100	0xbd4033f2	-0.04692454
101	0xbd35111e	-0.044205777
102	0xbdc16c16	-0.09444444
103	0xbda787b8	-0.08180183
104	0x3de54cf9	0.11196322
105	0xbcae49d3	-0.021275437
106	0x3cff78d7	0.03118555
107	0xbbe4ea35	-0.0069859275
108	0xbd41840e	-0.047245078
109	0x3df526bc	0.119702786
110	0xbc4f1a41	-0.012640537
111	0xbd8d5503	-0.0690098
112	0xbda3d600	-0.07999802
113	0x3d0ff7b9	0.035148356
114	0x3ca99e4a	0.02070536
115	0x3cf3f0ed	0.029777968
116	0x3d18a43f	0.037266012
117	0xbde91cbf	-0.11382436
118	0xbdd09b49	-0.10185868
119	0x3d0867bc	0.033302054
120	0xbcf728b6	-0.03017078
121	0x3ce0135b	0.02735298
122	0xbd2834de	-0.041066043
123	0x3da2caa3	0.07948806
124	0xbcf3325e	-0.029687103
125	0xbdfb2a4d	-0.122639276
126	0xbd5f1367	-0.054461863
127	0x3c463a5f	0.012098878
128	0x3defb65c	0.11704704
129	0xbe1c85f2	-0.15285471
130	0xbd55d619	-0.052206133
131	0x3b208ef2	0.0024499265
132	0x3cfb1e6d	0.030654157
133	0xbdb14d32	-0.08657302
134	0xbdee9bb7	-0.11650794
135	0x3b8c9537	0.0042902487
136	0x3d0a6525	0.033787865
137	0x3db51811	0.08842481
138	0xbce1df6f	-0.027572362
139	0xbc89aec0	-0.01680696
140	0xbbe29ce4	-0.0069156755
141	0x3db685f4	0.08912268
142	0x3daa3dbc	0.08312556
143	0x3d49f1a4	0.049302712
144	0x3d881f8b	0.06646641
145	0x3dd961bc	0.106143445
146	0xbd59b981	-0.053155426
147	0x3d7326ab	0.05936305
148	0xbd34fb83	-0.044185173
149	0x3b227874	0.0024791034
150	0xbd01c941	-0.03168607
151	0x397079c6	0.00022933548
152	0x3d48394a	0.04888276
153	0x3dd78b86	0.10524659
154	0x3d460ed9	0.048354004
155	0x3d7d2eea	0.06181232
156	0xbe068db5	-0.13139994
157	0xbd155f2e	-0.036467724
158	0x3d7d271b	0.061804872
159	0xbced3d44	-0.028959878
160	0x3d45b931	0.048272315
161	0x3d253d4a	0.040341653
162	0x3da16926	0.078813836
163	0xbce8b716	-0.028407615
164	0xbd160795	-0.036628325
165	0x3d9f091c	0.07765409
166	0xbd8dfd72	-0.069331065
167	0x3bf83b0b	0.007575398
168	0x3d655032	0.055984683
169	0x3d755627	0.059896614
170	0xbd417d7b	-0.047238808
171	0xbd7daf05	-0.06193449
172	0x3d078f0b	0.0330954
173	0xbc7f143f	-0.015568792
174	0x3d15f189	0.0366073
175	0x3cd983ff	0.026552198
176	0x3d94c438	0.07263988
177	0x3dc940e5	0.09826831
178	0xbb891a99	-0.004184079
179	0xbdfd09c9	-0.12355382
180	0x3da63f6d	0.08117566
181	0xbae0aecf	-0.0017141941
182	0x3d44d268	0.04805222
183	0xbd75cc1c	-0.060009107
184	0x3c144762	0.009050222
185	0xbd0614d8	-0.032734722
186	0xbc8d57ee	-0.017253842
187	0xbd5d6a8e	-0.054056697
188	0x3dc3b0fc	0.095552415
189	0x3daff53c	0.085916966
190	0xbd222dd4	-0.039594486
191	0xbde5abe8	-0.11214429
192	0xbd8b7f57	-0.068113975
193	0xbb5b029a	-0.0033418299
194	0xbd662760	-0.056189895
195	0xbd8d8807	-0.06910711
196	0xbdaa3379	-0.08310599
197	0x3d35ce42	0.044386156
198	0x3dde5aa7	0.10857134
199	0xbd8de814	-0.06929031
200	0xbb93ef93	-0.0045146435
201	0x3cae75e1	0.021296443
202	0xbde4428f	-0.111455075
203	0xbddc8fad	-0.107695915
204	0xbd603c79	-0.05474517
205	0xbd9fbd78	-0.0779981
206	0xbd0710d3	-0.03297503
207	0xbd9dce0d	-0.07705317
208	0xbcfe74d1	-0.031061562
209	0x3d5dde09	0.054166827
210	0x3d7ba9d5	0.06144126
211	0xbc2efb2c	-0.010680001
212	0x3c86698b	0.016407749
213	0x3d4c1666	0.04982605
214	0xbc794174	-0.015213359
215	0xbd84d1f6	-0.06485359
216	0x3cbebdac	0.023283802
217	0xbde9ae3b	-0.11410185
218	0x3d2d10ed	0.04225247
219	0xbd32790f	-0.04357248
220	0x3d50323d	0.05082916
221	0xbd8c666e	-0.068554744
222	0x3d6aaa1e	0.057291143
223	0xbd487f7e	-0.04894971
224	0x3e0193da	0.12654057
225	0x3d52713d	0.051377524
226	0xbd2d6494	-0.042332247
227	0x3d393c63	0.045223605
228	0x3d49be55	0.04925378
229	0x3cb81675	0.022471646
230	0xbc2ce7b4	-0.010553289
231	0xbd277468	-0.040882498
232	0xbc6183dd	-0.013764349
233	0x3d45277a	0.04813335
234	0x3bb63e54	0.0055616293
235	0x3d4bad56	0.049725853
236	0x3b23686a	0.0024934062
237	0x3b9f08b9	0.0048533347
238	0x3b0dd775	0.0021643315
239	0x3db2b3a9	0.08725674
240	0xbd08eb0e	-0.03342729
241	0xbdbc2f6b	-0.09188732
242	0xbdcd9666	-0.10038452
243	0xbd3c7d55	-0.046017963
244	0x3dade509	0.084909506
245	0xbdb3d976	-0.08781712
246	0xbd297538	-0.041371554
247	0xbd56ad58	-0.052411407
248	0x3dc69344	0.096960574
249	0xbc7acfba	-0.015308315
250	0xbcd2f185	-0.025749931
251	0x3dd7b498	0.105324924
252	0xbc92a8eb	-0.017902812
253	0x3e011717	0.12606464
254	0x3d2171e5	0.03941526
255	0xbd850d50	-0.0649668

bias f4 [128]
0	0x3db8cebb	0.09023806
1	0xbcc141e6	-0.023590993
2	0xbd92592a	-0.07145913
3	0xba653fc8	-0.0008745161
4	0x3d57d908	0.05269721
5	0x3c90ae92	0.017661367
6	0x3d6bb271	0.05754322
7	0x3d2533ba	0.040332533
8	0x3d585f7f	0.052825447
9	0xbc49bf6d	-0.012313706
10	0x3d6ea3b4	0.05826159
11	0x3d36b2fc	0.044604287
12	0xbd3fa557	-0.04678854
13	0x3c376b16	0.011194965
14	0x3d7c3130	0.061570346
15	0x3d86b75a	0.0657794
16	0xbd8268f8	-0.063676775
17	0x3d96f0b0	0.07370126
18	0xbc954a4f	-0.01822391
19	0x3d348889	0.044075523
20	0xbcc768ee	-0.024342027
21	0x3da3f432	0.08005561
22	0xbbe8a60a	-0.0070998715
23	0xbc854005	-0.016265878
24	0xbc845d32	-0.01615772
25	0x3bd68d2c	0.0065475907
26	0x3d43542e	0.047687702
27	0x3d991164	0.0747402
28	0x3cbb9365	0.022897432
29	0xbd41efe2	-0.04734791
30	0xbdae87fb	-0.0852203
31	0x3dd17ebf	0.10229253
32	0xbdc53740	-0.09629679
33	0xbc981d05	-0.018568525
34	0x3d7a7f00	0.061156273
35	0x3d1d4b21	0.038401727
36	0x3dabd9a4	0.08391121
37	0x3da16c9f	0.07882046
38	0xbcdfb0d3	-0.027305996
39	0xbd28bda3	-0.041196477
40	0xbcad5bf3	-0.021162009
41	0x3cced97a	0.025250185
42	0x3d9f8fe7	0.07791119
43	0x3dac7ce2	0.08422257
44	0xbd0f72bf	-0.03502154
45	0x3d32a87b	0.043617707
46	0xbd0ed78f	-0.03487354
47	0xbb88c4b5	-0.00417384
48	0xbce3ecf8	-0.027822956
49	0x3d6661f6	0.056245767
50	0x3dd9da88	0.10637385
51	0x3cbd8642	0.023135308
52	0x3d9d087c	0.07667634
53	0xbcb3dabe	-0.02195489
54	0xbbac0b97	-0.005250405
55	0x3d865175	0.065585054
56	0x3c06a272	0.008217441
57	0xbd5f6e8c	-0.054548785
58	0xbd95a521	-0.073068865
59	0xbc4c5ec0	-0.012473762
60	0x3cf88ad2	0.030339632
61	0x3c312e73	0.010814297
62	0x3d770b63	0.060313594
63	0x3dbb627c	0.09149644
64	0xbd23ac92	-0.039959498
65	0x3d8a33c2	0.06748153
66	0xbc733625	-0.014844452
67	0x3ba8a38d	0.00514645
68	0x3df1c199	0.11804504
69	0xbd1bb0e9	-0.03801051
70	0x3d8e70e7	0.06955128
71	0x3dc0b23b	0.09408995
72	0x3dce20eb	0.10064872
73	0x3d25cd2e	0.040478878
74	0x3d0ffc97	0.035152998
75	0xbc205478	-0.009785764
76	0xbd60b86d	-0.054863382
77	0x3d071910	0.032982886
78	0x3cc3e5ce	0.02391329
79	0x3cd4ff54	0.026000656
80	0xbd0a6de4	-0.033796206
81	0x3d6905f5	0.056890447
82	0x3d8d4621	0.06898142
83	0xbd4da923	-0.05021013
84	0x3d7a41e7	0.061098006
85	0x3d42e27b	0.04757927
86	0xbd6675b0	-0.05626458
87	0x3d61966c	0.055075094
88	0x3dc9bc66	0.09850387
89	0x3d4314e0	0.04762733
90	0xbbb254f5	-0.0054422566
91	0xbbd80530	-0.0065924153
92	0x3d57e772	0.052710958
93	0x3dc65a32	0.09685172
94	0x3ae54397	0.0017491457
95	0xbc84c39b	-0.016206553
96	0x3cb2cc29	0.021825867
97	0xbd4cfe88	-0.050047427
98	0x3c4eb574	0.012616504
99	0xbc8fc571	-0.017550202
100	0xbc013bea	-0.00788782
101	0x3d8ba5b5	0.068187155
102	0xbd18aaff	-0.03727245
103	0x3d93595a	0.07194777
104	0x3c7b845b	0.01535138
105	0xbcb3d0c7	-0.021950139
106	0x3d13609b	0.035980802
107	0xbd5ad5d3	-0.053426575
108	0xbc883a13	-0.016629254
109	0x3d3f2b89	0.046672378
110	0xbb532252	-0.0032216501
111	0xbcf120cb	-0.029434582
112	0xbd9847c6	-0.07435565
113	0x3bdcfe48	0.00674418
114	0x3dc7f33f	0.097631924
115	0xbd6f6103	-0.058442127
116	0x3dc6c1d9	0.09704942
117	0x3da8414b	0.08215579
118	0xbd2d5957	-0.04232153
119	0x3c3bb960	0.011457771
120	0xbc8dfa94	-0.017331399
121	0xbd46636e	-0.048434667
122	0x3d3ecc46	0.04658153
123	0xbc1bfab2	-0.00952022
124	0xbd126734	-0.035742953
125	0x3d090db9	0.033460353
126	0x3d9d6c9e	0.07686733
127	0xbba0d13f	-0.0049077566

weight f4 [128, 136]
0	0xbd964255	-0.073368706
1	0x3d892465	0.06696395
2	0x3d2b8d19	0.041882608
3	0x3c2d549b	0.010579254
4	0xbe0150ee	-0.12628528
5	0xbc4392b9	-0.011936837
6	0x3ca22d95	0.019797126
7	0x3d4bbd09	0.049740825
8	0xbd993d96	-0.0748245
9	0x3bf70ae5	0.0075391405
10	0xbd582c82	-0.05277682
11	0x3d8a4262	0.06750943
12	0xbd819945	-0.06328062
13	0x3d74b5ec	0.059743807
14	0xbda85711	-0.082197316
15	0x3bcc4c55	0.0062346854
16	0xbc407ce7	-0.011748529
17	0x3cbe7bad	0.023252333
18	0xbcbf161d	-0.023325974
19	0xbe17ef46	-0.1483737
20	0xbdd187e1	-0.10230995
21	0xbda2168e	-0.07914458
22	0xbd77f2c8	-0.06053427
23	0x3d26ffc6	0.04077127
24	0xbd96c828	-0.073623955
25	0xbd3afbcf	-0.0456503
26	0x3c0b7b7b	0.008513327
27	0xbcd79c55	-0.026319662
28	0x3d32cdcb	0.04365329
29	0xbd1d50b3	-0.03840704
30	0x3e9de752	0.30840546
31	0xbc417e9d	-0.011809972
32	0x3ea424aa	0.32059222
33	0x3e83ccde	0.2574224
34	0xbdcdc76e	-0.10047804
35	0x3cb6c240	0.022309422
36	0xbd171019	-0.036880586
37	0xbe44a5d2	-0.1920388
38	0x3d4b6f97	0.049666967
39	0xbd64bce9	-0.05584422
40	0x3d8377dc	0.06419346
41	0x3cbd0ff2	0.023078892
42	0xbd3b1dff	-0.045682903
43	0x3dab5c1d	0.083671786
44	0xbea814f7	-0.32828495
45	0xbb0a9f66	-0.0021152138
46	0xbde18bf8	-0.11013025
47	0x3dbdf332	0.092749014
48	0xbdfa8c24	-0.12233761
49	0xbcce7d72	-0.025206301
50	0xbd6eea67	-0.058329012
51	0xbe24b38b	-0.16084115
52	0xbc8df8e1	-0.017330589
53	0xbe079166	-0.13239059
54	0xbdf8bc35	-0.12145273
55	0x3d584ac7	0.05280569
56	0xbdeaca80	-0.11464405
57	0xbd3ee74b	-0.046607297
58	0xbd9dea9b	-0.07710763
59	0xbe09e4c9	-0.13466181
60	0x3dcfcfec	0.1014708
61	0x3cc601ef	0.024170844
62	0xbd8709a0	-0.06593633
63	0xbdeb9c09	-0.11504371
64	0xbd70d63a	-0.058798052
65	0xbe0e4297	-0.1389259
66	0xbd2b1dad	-0.041776348
67	0x3e93d24a	0.28871375
68	0x3d17ed6c	0.037091658
69	0x3acc7860	0.0015599839
70	0x3bc75019	0.0060825464
71	0x3bd674e8	0.006544698
72	0x3b29cafa	0.0025908337
73	0x3d7d8461	0.061893824
74	0x3d586e30	0.052839458
75	0x3c9c1d1b	0.019056847
76	0x3d7cafbb	0.061691027
77	0xbc2a6c5f	-0.010401814
78	0x3c83f76d	0.016109193
79	0xbd682299	-0.05667362
80	0x3c2ccd52	0.010546999
81	0x3d785651	0.060629193
82	0xbcc7d646	-0.024394166
83	0xbdcf521b	-0.10123082
84	0xbe0ca7c9	-0.1373588
85	0xbd4afb20	-0.049555898
86	0x3c8268da	0.015919138
87	0x3ccd9b2d	0.025098408
88	0xbd42a74c	-0.047522828
89	0xbda78aeb	-0.081807934
90	0xbe2d12e7	-0.16901742
91	0x3cc174ac	0.023615204
92	0x3d0d2fbf	0.034469362
93	0xbd86e46a	-0.06586535
94	0x3d4ab76e	0.04949134
95	0x3d5e4964	0.05426921
96	0x3d06f050	0.032944024
97	0xbd4a93ee	-0.049457483
98	0x3d35327c	0.0442376
99	0xbdc1925a	-0.094517425
100	0xbdbf002b	-0.09326204
101	0x3daba629	0.08381302
102	0x3d687acb	0.05675773
103	0xbd5ae781	-0.053443436
104	0xbe37b49e	-0.17939994
105	0xbcb95b52	-0.022626553
106	0xbc860d88	-0.016363874
107	0xbd987ce8	-0.07445699
108	0x3cda2102	0.026627067
109	0x3b90a66e	0.004414371
110	0xbd8f6503	-0.07001688
111	0x3d6b98e7	0.057518866
112	0xbe3f1e98	-0.18664014
113	0x3e637fb9	0.22216691
114	0x3c8ad232	0.016945932
115	0xbdc78cc7	-0.09743648
116	0xbd204f7c	-0.039138302
117	0xbc8b9577	-0.017039044
118	0xbd09b0ad	-0.033615757
119	0x3cbfa701	0.023395063
120	0x3be99773	0.00712865
121	0xbd806e6c	-0.06271061
122	0x3c842fca	0.016136069
123	0xbdc8b3a2	-0.09799887
124	0x3e623286	0.22089586
125	0xbd96535d	-0.07340119
126	0x3da90b4a	0.08254106
127	0xbe5a614d	-0.2132618
128	0x3e9982e9	0.2998269
129	0xbd218640	-0.03943467
130	0x3dc97cd1	0.0983826
131	0x3db83803	0.089950584
132	0xbbe93a5e	-0.0071175536
133	0xbd1337b4	-0.035941795
134	0xbdf56357	-0.11981838
135	0xbb8d5dc9	-0.0043141586
136	0x3deae7cb	0.11469992
137	0x3dcfe9b7	0.101519994
138	0xbe08a35e	-0.1334357
139	0x3c826c75	0.015920857
140	0xbe45c28b	-0.19312494
141	0x3dd979ad	0.10618911
142	0x3cd57f66	0.026061725
143	0xbdb740a6	-0.089478776
144	0x3d342750	0.043982804
145	0x3d9aaef8	0.07552904
146	0xbd2d42cb	-0.042300027
147	0x3c1cb10d	0.009563697
148	0x3d7bc568	0.06146756
149	0x3daef92c	0.085436195
150	0xbb9a1036	-0.0047016395
151	0x3c55fa99	0.013060235
152	0xbd24a922	-0.04020036
153	0xbb9771ae	-0.004621706
154	0xbd2107db	-0.039314132
155	0xbb5741e5	-0.0032845673
156	0xbcfd9124	-0.030952998
157	0x3d5f7b15	0.05456074
158	0x3ca1d63d	0.019755477
159	0x3be059e1	0.006846652
160	0xbd84afba	-0.0647883
161	0xbd8713a1	-0.06595541
162	0x3c634c5e	0.013873188
163	0x3db1a2f6	0.086736605
164	0x3d1d0a0c	0.03833966
165	0xbd1cd610	-0.038290083
166	0xbe2995f9	-0.16561116
167	0xbc29a57b	-0.010354395
168	0xbe2e32da	-0.17011586
169	0xbd6efc3c	-0.05834602
170	0xbd9f2d5e	-0.07772325
171	0x3c95f624	0.018305846
172	0x3b6ab9a6	0.0035816221
173	0xbe126879	-0.14297666
174	0x3ca90581	0.020632507
175	0x3d2c6526	0.04208865
176	0x3d869ff1	0.06573475
177	0xbcebc283	-0.028779274
178	0x3d9005d7	0.07032364
179	0xbc5ee8d1	-0.013605312
180	0xbeaa91aa	-0.33314258
181	0x3d910dca	0.07082708
182	0xbcb5ebd2	-0.022207174
183	0x3d096170	0.03354019
184	0xbdc9d2ef	-0.098546855
185	0x3dc352c2	0.09537269
186	0xbc8c3d3e	-0.017119046
187	0xbde96d36	-0.113977835
188	0xbcafbc0a	-0.021451969
189	0xbd8f0330	-0.0698303
190	0xbd8ed31c	-0.0697386
191	0x3d247576	0.040151082
192	0x3d3200d6	0.04345783
193	0xbd7e465c	-0.06207882
194	0xbd3a1f0a	-0.045439757
195	0x3d30aa20	0.043130994
196	0x3c3f1bcc	0.011664342
197	0x3c11e2ac	0.00890414
198	0x3dbce825	0.092239656
199	0xbd55fb66	-0.052241705
200	0x3d3ca9d9	0.046060417
201	0xbdf81b01	-0.121145256
202	0x3cb0eb96	0.021596711
203	0xbdb8982d	-0.090134
204	0x3d76a982	0.06022025
205	0x3da067c8	0.07832295
206	0xbd1a1710	-0.03761965
207	0x3d72973a	0.059226252
208	0x3dd7d776	0.10539143
209	0xbca280e3	-0.019836849
210	0xbc8367ca	-0.016040701
211	0xbc41bb1b	-0.011824395
212	0xbb9f87e7	-0.0048684957
213	0xbcbc4676	-0.022982817
214	0x3c14ec7b	0.009089584
215	0x3cc0785e	0.023494896
216	0xbd802173	-0.0625638
217	0xbc9d7c9e	-0.019224461
218	0x3cc2ad3b	0.023764243
219	0xbdc2627e	-0.09491442
220	0xbda5b95b	-0.080919944
221	0x3a39f908	0.00070942985
222	0xbd62465f	-0.055242892
223	0xbe167a85	-0.14695175
224	0xbd49152b	-0.049092453
225	0x3b370b8d	0.0027930469
226	0xbcdd4d8f	-0.027014522
227	0xbd5729a9	-0.052529965
228	0xbd924fc0	-0.07144117
229	0x3db8dbb5	0.09026281
230	0x3cbc74e0	0.02300495
231	0x3d07eb43	0.033183347
232	0x3d6c717f	0.057725426
233	0xbdab9343	-0.08377697
234	0x3dc534ce	0.09629212
235	0x3d837ed9	0.06420679
236	0xbd98e24e	-0.07465039
237	0x3d5c0959	0.053719852
238	0xbbe30b20	-0.0069288164
239	0x3db47ee2	0.088132635
240	0xbe09c3d1	-0.13453604
241	0xbd5bfa5b	-0.053705554
242	0x3a78a1ee	0.00094845786
243	0xbda2fd11	-0.07958425
244	0x3ddaf75b	0.106917106
245	0x3d43a19c	0.047761545
246	0x3cef08a8	0.029178932
247	0x3cc117fc	0.023571007
248	0xbe18c735	-0.14919741
249	0xbe5e83ef	-0.21730016
250	0x3d23ce69	0.03999177
251	0x3bad03ef	0.00528001
252	0xbc1afd61	-0.009459824
253	0xbd887d95	-0.06664578
254	0xbc769e6d	-0.01505242
255	0x3d97a336	0.07404177

bias f4 [128]
0	0xbdcffd86	-0.10155778
1	0xbb8dae8c	-0.004323786
2	0x3d55cb67	0.052195933
3	0xbc5b6469	-0.013390639
4	0xbdc8913d	-0.09793327
5	0x3b60c1b9	0.0034295155
6	0xbd1bcdfd	-0.038038243
7	0xbd652a69	-0.05594865
8	0x3c815883	0.015789276
9	0xbc87450b	-0.016512414
10	0xbcb39b3a	-0.021924604
11	0x3d99c49d	0.07508204
12	0x3d3ffeea	0.046873964
13	0xbd3b65f2	-0.04575152
14	0x3cb69ab3	0.022290563
15	0x3d189cd8	0.037258953
16	0xbcb3d8f9	-0.021954047
17	0x3d76e9fb	0.060281735
18	0xbd8867bd	-0.066604115
19	0x3d348011	0.044067446
20	0xbd06c6f7	-0.03290459
21	0x3df65ae4	0.12029055
22	0xbcc5c53c	-0.0241419
23	0xbda75490	-0.08170426
24	0x3d01338b	0.031543296
25	0x3d219077	0.039444413
26	0xbd0cb1e3	-0.034349333
27	0xbd9b0e69	-0.07571108
28	0x3d889dac	0.066706985
29	0xbdb76310	-0.089544415
30	0x3d050cad	0.03248279
31	0x3ce1b7cf	0.027553467
32	0xbd4d603e	-0.05014061
33	0x3d18f6b5	0.037344653
34	0x3d85b41d	0.065284945
35	0x3d0d5e84	0.034513965
36	0x3d03cf01	0.032179836
37	0xbd4f3166	-0.05058422
38	0xbcf4a44c	-0.0298635
39	0x3d581533	0.052754592
40	0x3d4b4e6a	0.04963533
41	0x3d16cd50	0.036816895
42	0xbd3e2a77	-0.046427216
43	0x3dd8cee1	0.10586334
44	0xbdc487bc	-0.09596202
45	0xbda86ee4	-0.08224276
46	0x3d2185ed	0.039434362
47	0x3bb6cf88	0.005578939
48	0xbcc324a5	-0.023821184
49	0xbde49f14	-0.11163154
50	0xbd879d52	-0.06621803
51	0x3cdb2c7a	0.026754607
52	0x3ca444b1	0.020052286
53	0x3cf6131b	0.030038407
54	0x3d7a6a2a	0.061136402
55	0xbd8f46ca	-0.06995924
56	0xbdb1b3fa	-0.08676906
57	0x3d9afafa	0.07567401
58	0xbd1a1978	-0.037621945
59	0xbd8e8176	-0.069582865
60	0x3c84e9af	0.01622471
61	0xbda92e91	-0.08260835
62	0xbda56c66	-0.08077316
63	0xbd98d019	-0.074615665
64	0x3c7215df	0.014775722
65	0x3d76779b	0.06017266
66	0x3d7cd2bf	0.06172442
67	0xbdb1cdcf	-0.08681833
68	0xbcd8ac71	-0.026449414
69	0xbd3ced1c	-0.046124563
70	0x3d71f4a0	0.059071183
71	0x3d5b1de7	0.053495314
72	0xbd8c51ff	-0.06851577
73	0x3c7e0de2	0.01550624
74	0xbc4db78a	-0.012555966
75	0xbc621b7e	-0.0138005
76	0xbdab4399	-0.083625026
77	0x3d176c56	0.03696855
78	0x3da9760f	0.08274471
79	0xbd46505a	-0.048416473
80	0x3c177fdb	0.009246792
81	0x3d6203e9	0.05517951
82	0xbdb5d64e	-0.08878766
83	0x3c84de51	0.01621929
84	0x3d809b8e	0.0627967
85	0xbd634478	-0.05548522
86	0x3d4eea5e	0.05051648
87	0xbbd50dcd	-0.0065018893
88	0x3d64187f	0.055687424
89	0x3d7abce2	0.06121529
90	0x3d34af6f	0.04411262
91	0x3d89ebf2	0.06734456
92	0x3cf10813	0.029422795
93	0x3d064d7b	0.032788735
94	0xbcce6dd5	-0.025198856
95	0x3b8fadde	0.0043847403
96	0xbcaa3540	-0.020777345
97	0xbc3be467	-0.01146803
98	0xbc86644e	-0.01640525
99	0xbdbdea86	-0.092732474
100	0x3beb4c0d	0.007180697
101	0xbd1595b0	-0.036519706
102	0xbbba2499	-0.0056806323
103	0x3d7eac14	0.062175825
104	0x3d9835e5	0.074321546
105	0xbd8b45cc	-0.06800422
106	0x3b80bbd1	0.0039286395
107	0xbcddd452	-0.027078781
108	0x3c73acf4	0.014872778
109	0x3d2c709c	0.04209958
110	0xbd860487	-0.06543832
111	0x3d43c677	0.047796693
112	0x3bd4614e	0.006481326
113	0x3d2c8593	0.042119574
114	0x3dc63f40	0.09680033
115	0x3ca87c17	0.020566983
116	0x3d9b2046	0.07574515
117	0x3c082113	0.008308667
118	0xbd26e561	-0.040746097
119	0xbdb4c07e	-0.088257775
120	0x3dcefd55	0.10106913
121	0x3cdf12e3	0.027230686
122	0x3db384f3	0.087655924
123	0xbdd2a0ea	-0.10284598
124	0x3da73203	0.08163836
125	0x3d983428	0.07431823
126	0x3d528f15	0.051405985
127	0xbd96ea56	-0.07368915

weight f4 [128, 256]
0	0x3c742179	0.014900559
1	0xbc6a5d78	-0.014304511
2	0xbaaa5958	-0.0012996597
3	0x3cee3d9f	0.029082118
4	0xbc9d54df	-0.019205509
5	0x3d3461dd	0.044038642
6	0x3c06423c	0.008194502
7	0xbda0af0c	-0.078458875
8	0x3d7e63fe	0.06210708
9	0x3d366d7a	0.044538
10	0x3c81f799	0.015865134
11	0xbd227d14	-0.039670065
12	0x3ab2d51c	0.0013643834
13	0xbd09a66a	-0.03360597
14	0xbd56dd5b	-0.052457195
15	0xbd39e316	-0.04538258
16	0xbd47d6e6	-0.048788927
17	0x3c06b340	0.0082214475
18	0xbd5af748	-0.053458482
19	0xbca59c70	-0.020216197
20	0xbd7b78dd	-0.06139456
21	0x3cb34c18	0.02188687
22	0x3d55658b	0.052098792
23	0xbc252524	-0.010079656
24	0x3de03dc5	0.109492816
25	0x3c9300cb	0.017944714
26	0xbd5540ac	-0.05206363
27	0xbc3c06f5	-0.011476268
28	0xbd5a81ee	-0.053346567
29	0xbcfda1b2	-0.030960891
30	0xbb2a62d0	-0.0025998838
31	0xbb8cbd09	-0.0042949957
32	0xbe6cf520	-0.23140383
33	0xbb8c61ac	-0.0042841043
34	0x3d6438fb	0.055718403
35	0x3c0da8da	0.008646214
36	0xbdc03aff	-0.093862526
37	0xbd061be1	-0.03274143
38	0xbca9cfb0	-0.020728916
39	0xbcfeb81d	-0.031093651
40	0x3c61785c	0.013761606
41	0x3d1eb3b5	0.0387456
42	0xbc357683	-0.011075619
43	0xbd43bfe2	-0.047790416
44	0xbd1f1c56	-0.038845383
45	0xbd419a4d	-0.047266293
46	0xbd7c433f	-0.06158757
47	0x3c7abcc6	0.015303796
48	0x3da8e9fd	0.08247755
49	0xbd68da2b	-0.056848686
50	0x3d070124	0.032960072
51	0x3d8ab12c	0.06772074
52	0x3ce62e7e	0.028098341
53	0xbd4ac506	-0.049504302
54	0xbd965395	-0.07340161
55	0xbcc86c94	-0.024465837
56	0x382654d2	3.965648e-05
57	0x3c904a89	0.017613666
58	0x3cfbaef9	0.030723082
59	0x3c92a155	0.017899195
60	0x3d38d1c4	0.045121923
61	0xbd182196	-0.037141405
62	0x3a4845a5	0.00076397724
63	0xbc8aa434	-0.016924001
64	0x3d2db0d0	0.04240495
65	0xbe0d6a5f	-0.13810109
66	0xbcd47aa5	-0.025937388
67	0xbc9c4d62	-0.019079868
68	0x3c0f7a2c	0.008757155
69	0xbd45978f	-0.04824024
70	0xbe271a18	-0.16318548
71	0x3d212f4d	0.03935175
72	0xbdb74aae	-0.08949791
73	0x3c85e68e	0.016345289
74	0xbd87cd79	-0.06630988
75	0xbd12b26d	-0.03581469
76	0x3cc79fa4	0.024368115
77	0x3c966458	0.018358395
78	0xbc92bebe	-0.017913219
79	0xbd216874	-0.039406255
80	0xbcc5f991	-0.024166854
81	0x3caf0e51	0.021369131
82	0xbc07e7d6	-0.00829502
83	0x3c6f436c	0.014603477
84	0x3d079e1c	0.03310977
85	0x3b040813	0.0020146414
86	0xbd36f261	-0.044664744
87	0xbcf20150	-0.029541641
88	0x3cf69ca5	0.03010399
89	0xbcf21575	-0.029551247
90	0xbd85b588	-0.06528765
91	0x3d03655e	0.032079093
92	0xbd500ff5	-0.050796468
93	0xbd81f0ba	-0.06344743
94	0x3a540631	0.0008088081
95	0x3d02122a	0.031755604
96	0xbcd3531f	-0.025796471
97	0x3d153662	0.036428817
98	0xbc969d06	-0.018385421
99	0xbcf0b44d	-0.02938285
100	0x3ccdf3a9	0.0251406
101	0xbcf7004f	-0.030151514
102	0xbd24cf1d	-0.04023658
103	0xbd1868b1	-0.037209217
104	0xbc5c259f	-0.013436704
105	0xbcc1e2ac	-0.023667656
106	0xba9678c9	-0.0011480089
107	0x3d436244	0.047701135
108	0xbbba518e	-0.0056859916
109	0xbdb0899a	-0.086199954
110	0xbd89da4f	-0.06731092
111	0xbbb051dc	-0.005380852
112	0xbcba50ec	-0.022743665
113	0x3c0341ed	0.008011323
114	0xbd9083c4	-0.07056382
115	0xbd6d8839	-0.05799124
116	0xbd1ce637	-0.038305487
117	0xbce96a9e	-0.028493222
118	0xbc212177	-0.009834639
119	0xbd98e0ee	-0.07464777
120	0x3d344940	0.04401517
121	0x3d6b4c16	0.057445608
122	0x3ce88017	0.02838139
123	0x3d79ac4b	0.060955327
124	0x3d0e1f2e	0.034697704
125	0x3d329735	0.043601234
126	0xbd3d6a77	-0.04624411
127	0xbdc97d32	-0.09838332
128	0x3d06ab87	0.032878425
129	0xbd87e3ba	-0.06635232
130	0x3d6e344c	0.058155343
131	0xbcf5340e	-0.029932048
132	0xbbe10818	-0.00686742
133	0xbb9e63f0	-0.004833691
134	0x3c33e188	0.010979064
135	0x3d4af11a	0.04954634
136	0xbd87d0fe	-0.06631659
137	0x3d1fb5e0	0.03899181
138	0x3d9a7d2f	0.07543408
139	0x3c678be2	0.014132472
140	0xbdb76b7e	-0.089560494
141	0xbce1517a	-0.027504671
142	0x3d3801a8	0.044923455
143	0x3c5a35bb	0.013318474
144	0x3cc4052a	0.023928244
145	0x3cb3e864	0.021961398
146	0x3cf25069	0.029579358
147	0x3de41cdf	0.11138319
148	0xbd09f0dd	-0.03367697
149	0xbda3d2c4	-0.07999185
150	0xbc78bf64	-0.01518235
151	0x3da354a2	0.07975127
152	0xbc073377	-0.008252016
153	0xbcdf57e4	-0.02726359
154	0xbcfa192c	-0.030529581
155	0x3ced44b2	0.02896342
156	0x3d6cd2fc	0.057818398
157	0x3d80468a	0.06263454
158	0xbd7081fb	-0.05871771
159	0x3c7e4298	0.015518807
160	0x3d460dc2	0.048352964
161	0xbc7282bd	-0.014801678
162	0x3cfb0435	0.030641655
163	0xbcaf5c72	-0.021406386
164	0x3cf08a05	0.029362688
165	0xbd1cb6a3	-0.038260113
166	0x3d9a013c	0.07519767
167	0x3d1efc25	0.038814683
168	0x3cca6b06	0.024709236
169	0xbd11db08	-0.035609275
170	0x3ca0850d	0.019594694
171	0x3be4b225	0.0069792443
172	0x3d49e46c	0.049290106
173	0xbbcaf400	-0.006193638
174	0x3d56a93a	0.05240748
175	0xbd35d8af	-0.0443961
176	0xbd0c321e	-0.034227483
177	0x3cd6c356	0.02621619
178	0x3d3936c6	0.04521825
179	0xbd1044cc	-0.03522186
180	0x3bee3479	0.007269439
181	0xbc76d2b6	-0.015064886
182	0x3c04557e	0.008077024
183	0x3dc836f0	0.097761035
184	0x3d6cebb9	0.05784199
185	0x3d223a35	0.03960629
186	0xbd02a4d1	-0.031895462
187	0x3d4bbb4d	0.04973917
188	0xbd68de1d	-0.05685245
189	0xbc976ad2	-0.018483553
190	0xbd4e5d90	-0.050382197
191	0x3c6afe4d	0.014342857
192	0x3c48c633	0.012254286
193	0xbccc8f6c	-0.024970733
194	0xbcc8bdda	-0.02450459
195	0xbd53973b	-0.051657896
196	0xbdebe833	-0.11518898
197	0x3d9b5c16	0.075859234
198	0xbd0a6b8f	-0.033793982
199	0xbd082a3d	-0.033243407
200	0xbcd61165	-0.026131341
201	0xbd82e385	-0.06391052
202	0xbab87257	-0.0014072162
203	0xbd32236f	-0.043490823
204	0xbd61a61f	-0.055090066
205	0x3caa9f6c	0.020827971
206	0xbd3ccd68	-0.04609433
207	0x3d187cc1	0.03722835
208	0xbbadb480	-0.0053010583
209	0xbd3188d9	-0.0433434
210	0xbc047771	-0.008085118
211	0x3c587544	0.013211552
212	0xbb02de7a	-0.0019969032
213	0x3cc595a4	0.024119206
214	0x3cb10c12	0.0216122
215	0xbc2fdaa9	-0.010733285
216	0xb80ea353	-3.4007546e-05
217	0x3ddb8f5c	0.10720703
218	0xbd65d073	-0.056106996
219	0xbcc9dbe9	-0.024640994
220	0x3c3466cd	0.011010838
221	0xbd4b17ff	-0.04958343
222	0xbc3621c1	-0.011116446
223	0x3ca30822	0.019901339
224	0xba55531d	-0.000813769
225	0x3d167890	0.03673607
226	0xbd7783bc	-0.060428366
227	0x3d0d18bb	0.034447413
228	0x3ce3c9c5	0.027806172
229	0x3c64d412	0.013966577
230	0x3d73a78b	0.059485953
231	0x3dcd4d4b	0.10024508
232	0xbd8fb0e1	-0.07016159
233	0x3ceb44f8	0.02871941
234	0xbd0f79a4	-0.035028115
235	0xbd2d5b25	-0.04232325
236	0x3ddf8656	0.109142944
237	0xbd93ff93	-0.07226481
238	0xbd6c9880	-0.057762623
239	0xbd228948	-0.039681703
240	0x3c3bf6cb	0.011472414
241	0x3d305ac7	0.043055322
242	0x3cfa4c7b	0.030554047
243	0x3ca3fa58	0.020016834
244	0x3d2bfaf7	0.041987386
245	0xbd8d2a68	-0.06892854
246	0xbdca0fd6	-0.09866302
247	0xbc490889	-0.012270101
248	0xbc80f7bc	-0.015743129
249	0x3d62fd31	0.055417243
250	0x3d119ba8	0.035548836
251	0xbceac704	-0.028659351
252	0xbddab9b1	-0.10679949
253	0x3cc01796	0.023448747
254	0xbd8183fe	-0.06324004
255	0xbd0814c1	-0.033222917

bias f4 [128]
0	0x3c5f8a6d	0.013643843
1	0x3d31fa45	0.043451566
2	0x3d47b0c0	0.048752546
3	0x3cf5aec1	0.029990556
4	0xbd027fc4	-0.031860128
5	0xbcd4cb09	-0.025975721
6	0x3d6736c0	0.056448698
7	0x3d459139	0.0482342
8	0xbcb017ae	-0.021495666
9	0xbc8e4511	-0.017366918
10	0x3d01f476	0.031727277
11	0xbcccb928	-0.024990633
12	0xbc01d88a	-0.007925162
13	0xbd3a8a1a	-0.04554186
14	0x3d82979e	0.06376575
15	0x3d8f6d17	0.07003229
16	0x3bee2a78	0.0072682463
17	0x3d5088bf	0.05091166
18	0xbd16a8ac	-0.03678195
19	0x397becca	0.00024025436
20	0x3c0e759a	0.008695031
21	0x3d2fb8a4	0.042900696
22	0x3d44980e	0.047996573
23	0x3cc776db	0.024348667
24	0x3d82b3e6	0.06381969
25	0x3d5ad332	0.053424068
26	0x3ced3c31	0.028959366
27	0x3d619415	0.055072863
28	0x3c7db7b2	0.015485691
29	0xbcec2713	-0.028827226
30	0xbcaf13ef	-0.02137181
31	0x3c8b6d3d	0.017019862
32	0x3c97002d	0.018432701
33	0xbc45e2be	-0.012077985
34	0x3d0da3bf	0.03457999
35	0x3c9b167b	0.018931618
36	0xbd398626	-0.04529395
37	0x3c5593d7	0.013035736
38	0x3c8a26ee	0.016864266
39	0xbc736e34	-0.014857817
40	0x3cbe9773	0.023265576
41	0xbcd1384e	-0.025539543
42	0xbcbb4808	-0.022861496
43	0xbbfe5b15	-0.0077623227
44	0x3c49aa35	0.012308647
45	0x3c03666a	0.008020023
46	0x3d388d11	0.045056406
47	0x39dd8ed4	0.0004225882
48	0x3d694a4d	0.056955624
49	0xbc2aa893	-0.010416168
50	0x3d80447d	0.06263063
51	0x3d670753	0.05640347
52	0xbd40a059	-0.04702792
53	0x3d714ba2	0.05891002
54	0xbd2a13f5	-0.04152294
55	0x3d581906	0.05275824
56	0xbc09a324	-0.008400712
57	0x3d61d08b	0.055130523
58	0x3cf3052e	0.029665556
59	0x3d5d4c3b	0.054027777
60	0xbd3abf0c	-0.045592353
61	0x3d2fc2ad	0.042910267
62	0x3c8351d3	0.016030228
63	0xbd8d2ce8	-0.06893331
64	0x3d22242f	0.03958529
65	0xbd6249f8	-0.055246323
66	0x3d4ff194	0.050767496
67	0x3d8ff6d9	0.07029504
68	0x3d1a4f9f	0.03767359
69	0x3da6b556	0.08140056
70	0xba995e14	-0.0011701011
71	0xbcf53e73	-0.029937005
72	0xbd7e3fd3	-0.062072586
73	0x3c37a797	0.01120939
74	0xbd56c72d	-0.052436043
75	0x3c99d9bd	0.018780584
76	0xbd139ba5	-0.036037106
77	0xbd3aed91	-0.045636717
78	0x3d220bfa	0.039562203
79	0x3d50d046	0.050979875
80	0x3d71761f	0.05895054
81	0xbc2d3e2e	-0.010573907
82	0x3cdaef44	0.026725419
83	0x3d362c8c	0.044476077
84	0xbcd8d5fe	-0.026469227
85	0xbbf12dcb	-0.0073601953
86	0xbcd464c6	-0.025926959
87	0xbd93bf4c	-0.07214221
88	0xbd44f975	-0.048089463
89	0x3c694265	0.014237021
90	0xbd3c967e	-0.046041958
91	0x3d800074	0.062500864
92	0xbce2ac24	-0.027669974
93	0xbcf9277b	-0.030414334
94	0x3caa3136	0.020775419
95	0x3d1fc91b	0.03901015
96	0xbcad8d52	-0.02118555
97	0x3d2fee2b	0.042951744
98	0x3d3a37bc	0.04546331
99	0xbd4699ed	-0.04848664
100	0xbbab3509	-0.005224828
101	0xbbdd264f	-0.0067489515
102	0xbd3a8a81	-0.045542244
103	0xbd6a3963	-0.057183634
104	0x3daab061	0.08334423
105	0xbcaba69c	-0.020953469
106	0x3cfd0b9c	0.030889325
107	0x3d7abb4e	0.061213784
108	0x3d3ab400	0.045581818
109	0x3d2fa205	0.042879123
110	0x3c399de7	0.011329151
111	0xbdb1b580	-0.086771965
112	0x3d0d7621	0.034536485
113	0xbd684931	-0.056710426
114	0x3d1150c9	0.035477433
115	0x3c81125f	0.01575583
116	0x3d3b2df1	0.04569811
117	0x3d2fa4c6	0.04288175
118	0x3d8ace4f	0.067776315
119	0xbc206adc	-0.009791102
120	0xbcbce2ec	-0.023057424
121	0xbcbcd9a0	-0.02305299
122	0x3d2dfd5d	0.042477954
123	0xbc74033a	-0.014893347
124	0xbcaac1c5	-0.02084435
125	0xba1f299a	-0.0006071568
126	0xba30c3df	-0.0006743054
127	0x3d4bcdd6	0.049756847

weight f4 [128, 128]
0	0xbcc329b5	-0.023823598
1	0xbc4a033d	-0.012329874
2	0x3a6eb766	0.0009106308
3	0xbdad7c9b	-0.08471032
4	0xbd9d41b8	-0.076785505
5	0xbcf08892	-0.029361997
6	0x3d4ce418	0.050022215
7	0xbdb487a1	-0.08814932
8	0x38c104bd	9.20384e-05
9	0xbd6d0ff5	-0.057876546
10	0x3b844935	0.0040370473
11	0xbac673b3	-0.0015140682
12	0xbdf789c8	-0.120868266
13	0xbd3929c4	-0.045205846
14	0xbcd64f06	-0.026160728
15	0xbd86e707	-0.06587034
16	0xbe309201	-0.17243196
17	0xbd2fdd39	-0.042935584
18	0x3d6369af	0.05552071
19	0xbdf7a7ad	-0.120925285
20	0x3cdf3441	0.027246596
21	0x3d956b82	0.07295896
22	0xbd276662	-0.040869124
23	0xbe244fb0	-0.16046023
24	0x3d55c0e1	0.052185897
25	0xbd21c8a2	-0.03949798
26	0xbbc00400	-0.005859852
27	0xbccb478e	-0.024814393
28	0xbdd2d003	-0.10293581
29	0xbe373ccb	-0.17894284
30	0x3c907c0b	0.017637273
31	0xbdbb77ff	-0.09153747
32	0xbce4f0ed	-0.027946914
33	0xbb03ae86	-0.0020093038
34	0xbc434b33	-0.011919784
35	0x3d226be8	0.03965369
36	0xbe086485	-0.13319595
37	0x3d0f1b02	0.034937866
38	0x3e07f5f4	0.13277417
39	0x3c9d2ced	0.019186461
40	0x3cff6438	0.031175718
41	0xbb9223af	-0.00445982
42	0xbccdaebd	-0.025107736
43	0xbd12e836	-0.035865985
44	0xbd7dbcbd	-0.061947573
45	0x3d66facb	0.05639152
46	0xbd5d7901	-0.054070476
47	0xbd1a30d4	-0.037644222
48	0xbcb3d6a3	-0.021952933
49	0x3cf911a9	0.030403929
50	0xbd802f87	-0.06259065
51	0x3c8ee646	0.017443787
52	0x3c8ccb3d	0.017186755
53	0x3d1ba7d0	0.038001835
54	0x3ddc04ba	0.10743089
55	0xbc9071d8	-0.01763241
56	0xbd812216	-0.063053295
57	0xbd5c5ee5	-0.053801436
58	0x3d00d7cd	0.031455804
59	0xbcc6b310	-0.024255306
60	0x3d5c64ab	0.053806942
61	0x3b508a3c	0.0031820675
62	0xbd8ed320	-0.06973863
63	0x3d94a578	0.07258123
64	0xbe119d69	-0.14220203
65	0x3da9c14b	0.08288821
66	0xbe023cc0	-0.12718487
67	0xbcec451d	-0.02884155
68	0xbdf72352	-0.12067284
69	0x3c86d80a	0.016460437
70	0x3c5c56c2	0.013448419
71	0xbdb87fd3	-0.090087555
72	0x3dbf739c	0.093482226
73	0xbbb5c18a	-0.0055467533
74	0x3cf5c717	0.03000216
75	0x3d8a4924	0.06752232
76	0x3da20c55	0.079125084
77	0x3e0c83f2	0.13722208
78	0xbe02f90d	-0.12790318
79	0x3d0d6857	0.034523334
80	0xbd871970	-0.06596649
81	0xbdc541e6	-0.0963171
82	0xbbcfd17b	-0.0063421107
83	0xbdd25dba	-0.10271783
84	0xbe10ea0d	-0.14151783
85	0xbde75287	-0.11295038
86	0x3d479851	0.048729245
87	0x3d28e100	0.0412302
88	0x3d7e1bd9	0.062038276
89	0xbdb8469f	-0.08997845
90	0xbd37439c	-0.04474221
91	0xbbed7806	-0.007246974
92	0xbb7a9046	-0.0038232966
93	0x3c648ff8	0.01395034
94	0x3d5ae058	0.053436607
95	0x3d6a1755	0.057151157
96	0x3baf5f42	0.005351932
97	0xbd8e2318	-0.06940287
98	0xbbd320a8	-0.006443102
99	0xbd9479b9	-0.07249779
100	0x3bc1ed97	0.0059182155
101	0x3c337487	0.010953075
102	0xbca9e491	-0.020738872
103	0xbd5d021f	-0.0539571
104	0xbdc5394c	-0.09630069
105	0x3d49314b	0.049119275
106	0xbe038e31	-0.1284721
107	0x3d6bec33	0.057598304
108	0xbe1affbf	-0.15136622
109	0x3de4dfc2	0.11175491
110	0xbe1823de	-0.14857432
111	0xbd5e3a5b	-0.05425487
112	0xbdb83378	-0.08994192
113	0x3c69babc	0.014265712
114	0x3d94189f	0.072312586
115	0x3d37052a	0.04468266
116	0x3d4460e5	0.04794397
117	0x3d4e8b05	0.050425548
118	0xbdd4a739	-0.10383458
119	0x3bb9ee60	0.0056741685
120	0xbe1f6eab	-0.1556956
121	0xbe3d51a7	-0.18488179
122	0xbc1b2081	-0.009468199
123	0xbcb8da96	-0.022565167
124	0xbc87cf93	-0.016578471
125	0xbb4d79aa	-0.0031353035
126	0x3da13422	0.07871272
127	0x3ced02a0	0.028931916
128	0xbd14716c	-0.03624098
129	0x3ca6ef2e	0.020377722
130	0x3d83ec4f	0.06441557
131	0xbc255690	-0.010091439
132	0x3b3e50ee	0.0029039937
133	0x3d078589	0.033086333
134	0xbcd090f6	-0.025459748
135	0x3d8bc517	0.06824701
136	0x3d5bf96e	0.05370467
137	0x3cb509de	0.022099432
138	0xbda57309	-0.08078582
139	0xbc6895b4	-0.014195848
140	0xbd134488	-0.03595403
141	0x3b48792e	0.0030589807
142	0xbda10991	-0.07863153
143	0x3c8f3fa2	0.017486397
144	0x3d175d81	0.036954407
145	0x3d9c04dc	0.07618114
146	0xbbbc0521	-0.005737916
147	0x3b9b718a	0.0047437595
148	0x3d1b1d90	0.03786999
149	0x3ce83c07	0.028348936
150	0x3da6e762	0.081496015
151	0xbcfaf604	-0.030634888
152	0x3db9667f	0.09052753
153	0x3da2bac0	0.07945776
154	0x3d04e8e2	0.032448657
155	0x3be2f1e0	0.0069258064
156	0x3c8554f4	0.01627586
157	0x3bd8d6dd	0.0066174106
158	0x3b32d1a7	0.0027285607
159	0x3ca72c2f	0.02040681
160	0x3ccd2fac	0.025047146
161	0xbd6fd8da	-0.058556415
162	0x3dafe1bf	0.085879795
163	0xbcc495e2	-0.023997251
164	0xbd3b916a	-0.045792975
165	0x3d02dd34	0.031949237
166	0x3c8b108c	0.016975664
167	0x3d2b0717	0.04175481
168	0xbcd257eb	-0.025676688
169	0x3d6bf847	0.057609823
170	0x3d3b54d2	0.045735188
171	0x3d0965c8	0.03354433
172	0x3ca01630	0.01954183
173	0xbb9a4ca1	-0.004708842
174	0x3db6c4b5	0.08924238
175	0xbd4d706d	-0.050156046
176	0xbd8c944d	-0.06864224
177	0xbd3e5213	-0.04646499
178	0x3a9f5585	0.0012156224
179	0x3cfe668c	0.031054758
180	0x3c07dd98	0.008292578
181	0x3d4c75e8	0.04991713
182	0x3cbb989a	0.022899915
183	0x3bc5582a	0.006022473
184	0x3ce5f84f	0.028072504
185	0x3a2f60bf	0.00066901365
186	0x3d9f1302	0.07767297
187	0x3d9211c4	0.07132295
188	0x3cf87f82	0.030334238
189	0xbbd7b11f	-0.006582394
190	0xbd39e037	-0.045379844
191	0x3d436bd3	0.04771025
192	0x3da70107	0.08154493
193	0xbd9c27c1	-0.0762477
194	0x3de453ef	0.111488216
195	0x3dc3e4f3	0.09565153
196	0x3cd09fa6	0.025466751
197	0x3dd2b628	0.1028865
198	0xbda27984	-0.079333335
199	0x3dca6a03	0.098835014
200	0xbc88dc81	-0.016706707
201	0x3d2160d1	0.039398972
202	0xbd7d784d	-0.061882306
203	0x3d8c3251	0.068455346
204	0xba424111	-0.00074102083
205	0x3d90687a	0.07051177
206	0x3dde9039	0.10867352
207	0x3ccd940b	0.025095006
208	0xbcede282	-0.029038671
209	0x3cfb68b5	0.030689577
210	0x3db069d0	0.08613932
211	0x3dc7ddb3	0.09759083
212	0xbd87b33d	-0.06625984
213	0x3ccd3b18	0.025052592
214	0x3dd8b0ed	0.10580621
215	0xbc25ebef	-0.010127052
216	0xbcafb9b1	-0.02145085
217	0x3d58b96c	0.052911207
218	0xb9ab3e97	-0.00032662295
219	0xbd70eeda	-0.058821537
220	0xbc79a5ac	-0.015237253
221	0x3cad0008	0.021118179
222	0xbc5bb5bc	-0.013410028
223	0x3d9a9ac1	0.07549048
224	0x3d50ecd2	0.0510071
225	0x3d073386	0.03300812
226	0x3d5f4a14	0.054514006
227	0xbcedc245	-0.029023299
228	0xbd183161	-0.037156466
229	0xbd759bc1	-0.05996299
230	0x3ca94eba	0.020667423
231	0x3ca7d3d4	0.02048675
232	0x3d39a967	0.04532757
233	0xba54440f	-0.00080973
234	0xbd681aa8	-0.056666046
235	0xbd3c4020	-0.045959592
236	0x3d569759	0.05239043
237	0xbc8238b4	-0.015896179
238	0xbb73a63e	-0.0037177945
239	0x3d29199b	0.041284185
240	0xbd3f9947	-0.046777036
241	0x3cd71b7b	0.02625822
242	0x3dd2b851	0.10289062
243	0x3ce024b1	0.027361246
244	0x3cc08175	0.02349923
245	0xbda3ddb5	-0.08001272
246	0xbc03cb15	-0.008044024
247	0x3c958060	0.01824969
248	0x3de51344	0.11185315
249	0xbd625e1d	-0.055265535
250	0xbcbe72ee	-0.023248162
251	0xbcc6f8ef	-0.024288623
252	0x3d91f848	0.07127434
253	0xbd039af9	-0.032130215
254	0xbd60ea5b	-0.054911
255	0xbd0ff3b9	-0.03514454
