E-GraphSAGE/experiments/model/None_SFF_MLP_NF-BoT-IoT_best_model.pth (torch, 316466 bytes, 18 tensors)

weight f4 [128, 16]
0.13203768 -0.053558305 0.23100756 -0.12429693 0.029971981 -0.110589996 -0.015369619 0.2315365
0.23051429 -0.19267723 -0.108272225 0.08553309 0.195513 -0.13292268 0.0052385055 0.010296404
0.15534505 -0.053188708 0.21454653 0.2480547 0.08908554 0.15283349 0.068801306 0.13098444
0.085823536 0.014598467 0.0023826454 -0.27345008 0.1825006 -0.044895478 -0.28393182 0.16868192
0.02864694 0.20779052 0.14163116 0.0692487 -0.192651 0.017755534 -0.015473728 -0.0043889848
-0.17495063 0.17232892 0.090235226 -0.057395577 -0.22432846 -0.30158257 -0.32727155 -0.20080724
0.24363557 -0.11128734 -0.06009811 0.026651477 0.028874584 0.21671191 0.038108125 -0.14481458
0.027583446 -0.20914741 -0.13156085 0.25829032 -0.13235526 0.2950837 0.4747958 0.12853844
-0.059569247 -0.12571752 0.119555466 0.22633924 -0.26774466 -0.18866993 -0.21554251 -0.1791132
-0.14832358 0.14442869 -0.19962694 0.033111464 -0.20301475 -0.1382742 -0.4583756 -0.15792052
-0.07906983 -0.07992793 0.13716595 -0.01677167 -0.08176593 0.18348618 -0.019853354 -0.21196543
0.048238132 -0.20853986 -0.22750199 -0.19856945 0.2573865 -0.07584198 0.3935255 0.37280148
-0.019839758 -0.1955423 0.14905 -0.12146906 -0.18030709 0.16451308 -0.18596175 -0.16811517
0.020992177 0.09834554 -0.1421224 -0.25028113 -0.08431816 -0.11054719 0.15240864 -0.07686408
0.044772476 0.26027718 0.229784 -0.040235493 -0.16245116 -0.034553234 -0.022796173 -0.16487853
-0.3012275 0.15848066 -0.06194876 -0.25312454 -0.16973686 -0.04245268 -0.5262984 -0.2529412
0.06884259 0.22387095 -0.055394284 -0.20756342 -0.08160293 -0.07809895 0.12732835 -0.18543275
0.13267638 -0.0585538 0.06563029 0.2472553 0.15025756 0.267669 0.12277259 0.1280664
-0.09072244 0.22177637 0.0008041085 -0.02169741 0.0056659114 0.16284639 0.10828835 -0.11574727
-0.15074399 0.045014344 -0.18126418 -0.19895667 0.18885385 -0.23044509 -0.38370952 -0.06664056
-0.0648485 0.24588318 -0.21601556 0.16673724 -0.17809771 0.19113232 -0.075354286 0.019601215
0.073875464 -0.1408085 0.048870653 0.043705806 -0.14947954 -0.19772267 -0.3324978 -0.11079982
-0.16891497 -0.09640742 0.18687713 0.22601676 -0.21666574 -0.16546753 -0.16967991 -0.21146467
0.102855384 0.20762312 0.21173805 -0.17761691 -0.16463152 0.19733354 -0.4254901 -0.24620487
0.23482567 0.22999048 -0.20249942 -0.14269713 0.16577443 -0.1950697 -0.11607348 -0.20049736
-0.3178386 -0.27596882 -0.17943048 -0.2750921 0.1733959 0.061301224 0.047927175 0.06834666
-0.19050796 0.0021290085 -0.0152889285 -0.2181473 -0.21874084 -0.21892281 -0.023309827 -0.043462653
-0.0046526035 -0.18980636 0.14678915 -0.12955578 -0.14145203 0.21471755 -0.4589009 -0.33693716
-0.23411068 0.15343684 -0.23451865 0.1124777 0.21466777 0.056409996 -0.016036298 0.026847925
0.2870007 0.15929846 0.20848273 -0.14535074 0.08014712 0.19366308 0.41262904 0.3160934
-0.1401355 0.014392989 -0.2021021 -0.04130721 0.06078924 -0.0099778995 -0.11686008 0.14127398
0.029009182 -0.08833618 -0.1340832 -0.014778392 0.20928062 0.108465716 -0.069206595 0.03770086
00000000: e334 073e f45f 5bbd 3f8d 6c3e 648f febd
00000010: cd87 f53c 027d e2bd dbd0 7bbc e717 6d3e
00000020: f00b 6c3e 2e4d 45be d4bd ddbd f92b af3d
00000030: 8f34 483e e21c 08be c5a7 ab3b 40b2 283c
00000040: c612 1f3e 67dc 59bd 16b2 5b3e 0d02 7e3e
00000050: 7b72 b63d 6280 1c3e b3e7 8c3d c920 063e
00000060: 40c4 af3d 692e 6f3c 2826 1c3b a601 8cbe
00000070: 70e1 3a3e 52e4 37bd 835f 91be f4ba 2c3e
00000080: fdac ea3c 0ac7 543e c207 113e 43d2 8d3d
00000090: 4e46 45be 0e74 913c 8585 7dbc 79d1 8fbb
000000a0: 4226 33be fe76 303e 3fcd b83d a017 6bbd
000000b0: 5cb6 65be 0869 9abe 2390 a7be 6aa0 4dbe
000000c0: 9a7b 793e 9eea e3bd 7029 76bd 3354 da3c
000000d0: 648a ec3c bae9 5d3e 4417 1c3d 464a 14be
000000e0: aef6 e13c bd2a 56be e3b7 06be a13e 843e
000000f0: 2388 07be 3615 973e 6f18 f33e 959f 033e
00000100: e2fe 73bd 18bc 00be 7fd9 f43d 79c5 673e
00000110: d415 89be b132 41be 2db7 5cbe 7369 37be
00000120: 23e2 17be 1de5 133e 016b 4cbe e39f 073d
00000130: 19e3 4fbe c097 0dbe 35b0 eabe ebb5 21be
00000140: 5def a1bd 41b1 a3bd 3b75 0c3e be64 89bc
00000150: e574 a7bd cde3 3b3e 80a3 a2bc 770d 59be
00000160: 5995 453d 798b 55be 48f6 68be ca55 4bbe
00000170: 2ac8 833e 0a53 9bbd 2d7c c93e d6df be3e
00000180: fd86 a2bc 3e3c 48be 90a0 183e c5c4 f8bd
00000190: 6ca2 38be 1e76 283e c26c 3ebe 6226 2cbe
000001a0: c9f7 ab3c 6369 c93d 8988 11be d924 80be
000001b0: 00af acbd 9166 e2bd 0311 1c3e ea6a 9dbd
000001c0: 5863 373d 0d43 853e 7f4c 6b3e f9cd 24bd
000001d0: 9959 26be b187 0dbd 0abf babc ebd5 28be
000001e0: 7e3a 9abe c148 223e fcbd 7dbd 8a99 81be
000001f0: 80cf 2dbe dde2 2dbd 7ebb 06bf 8281 81be
00000200: 58fd 8c3d 6d3e 653e 1ee5 62bd 818b 54be
00000210: 701f a7bd 58f2 9fbd 5d62 023e 15e2 3dbe
00000220: 51dc 073e 1cd6 6fbd 2c69 863d 7e30 7d3e
00000230: 1edd 193e e90b 893e 3270 fb3d d723 033e
00000240: b0cc b9bd 5819 633e cfca 523a c4be b1bc
00000250: 1ca9 b93b 34c1 263e 48c6 dd3d e80c edbd
00000260: a25c 1abe f660 383d 519d 39be 4cbb 4bbe
00000270: e762 413e ccf9 6bbe 9375 c4be d97a 88bd
00000280: 4acf 84bd cdc8 7b3e 2f33 5dbe 2bbd 2a3e
00000290: 3f5f 36be 31b8 433e 5953 9abd ba92 a03c
000002a0: 054c 973d 1a30 10be 982c 483d dc04 333d
000002b0: 2a11 19be d077 4abe 273d aabe 04eb e2bd
000002c0: 0cf8 2cbe 4171 c5bd b85c 3f3e f070 673e
000002d0: a0dd 5dbe 5270 29be 92c0 2dbe 328a 58be
000002e0: d8a5 d23d 289b 543e dcd1 583e 35e1 35be
000002f0: 2a95 28be ce11 4a3e d7d9 d9be 211d 7cbe
00000300: 2476 703e a082 6b3e 025c 4fbe 321f 12be
00000310: c6c0 293e 5ac0 47be efb7 edbd 2e4f 4dbe
00000320: bebb a2be c94b 8dbe a0bc 37be dfd8 8cbe
00000330: b28e 313e fe16 7b3d 494f 443d 55f9 8b3d
00000340: 8514 43be d686 0b3b 6a7e 7abc 0162 5fbe
00000350: 99fd 5fbe 4d2d 60be 40f4 bebc e505 32bd
00000360: de74 98bb 995c 42be e54f 163e 45aa 04be
00000370: cdd8 10be ebde 5b3e 0ff5 eabe 0783 acbe
00000380: b6ba 6fbe 8c1e 1d3e a825 70be b55a e63d
00000390: ded1 5b3e 2b0e 673d 8e5e 83bc 2ef0 db3c
000003a0: c1f1 923e 231f 233e 7f7c 553e d3d6 14be
000003b0: 2c24 a43d 9d4f 463e 1d44 d33e fed6 a13e
000003c0: ae7f 0fbe 92d0 6b3c daf3 4ebe c031 29bd
000003d0: 23fe 783d 587a 23bc 5654 efbd 20aa 103e
000003e0: aaa4 ed3c 99e9 b4bd 1b4d 09be 1221 72bc
000003f0: a94d 563e 4623 de3d 30bc 8dbd 386c 1a3d

bias f4 [128]
0.19543335 0.14768805 0.1653153 -0.08513085 0.05732073 -0.10064998 -0.00870611 0.258138
0.23957846 0.22965224 0.21664713 -0.22477698 -0.010397471 0.11667293 -0.09735249 -0.09353373
-0.24336053 0.1719457 0.15994342 0.23685522 -0.26787218 0.17055234 -0.025470842 0.028104998
-0.16840184 0.23215485 -0.0998247 -0.09728851 -0.1480838 -0.00995203 0.2479812 -0.121610135
-0.105972104 -0.12974608 0.07044083 0.18477954 0.09907359 -0.15363777 0.24230604 -0.13498202
0.18398291 -0.13529873 0.18503487 -0.037297197 0.009092494 -0.26897982 -0.21250261 0.017698498
0.21669659 0.1758064 -0.24083757 0.14370424 -0.10797374 -0.011469355 0.22357039 0.20781517
0.2396275 0.038989294 0.17504379 -0.22638601 0.1489727 0.027755966 0.1085941 -0.2017264
0.22310798 0.22551222 -0.027573397 -0.13972339 -0.22450778 0.033906918 0.098257646 -0.11341744
0.2322885 0.13001806 -0.09708097 0.23669434 -0.17434518 0.058919825 -0.21596402 0.13657029
-0.03517794 -0.0027829418 -0.06692906 -0.055807177 0.07288727 -0.10894689 -0.08255978 -0.13208662
-0.13824368 0.110486574 -0.2141276 -0.2067604 -0.2151005 -0.26574805 -0.020282282 -0.13206518
-0.14556049 -0.18145782 -0.15951319 -0.114478864 0.07451402 0.168528 -0.030644827 -0.054809183
0.09458956 -0.11449093 0.13088611 0.21837893 -0.0968389 0.08065017 0.16747782 0.1577191
0.12868206 0.15471382 0.16352417 -0.17527117 -0.025564054 -0.18922848 0.12793343 0.053960137
-0.24413526 -0.06335101 0.10758822 0.039695658 -0.12583166 0.17211609 -0.1255851 0.04308903
00000000: ae1f 483e 893b 173e 6a48 293e 1559 aebd
00000010: 24c9 6a3d 9421 cebd 12a4 0ebc aa2a 843e
00000020: 0e54 753e f529 6b3e bfd8 5d3e f02b 66be
00000030: 275a 2abc 38f2 ee3d be60 c7bd 9d8e bfbd
00000040: 8133 79be 8912 303e 35c8 233e 2d8a 723e
00000050: 8b26 89be 46a5 2e3e 3aa8 d0bc 743c e63c
00000060: 8871 2cbe 00ba 6d3e e470 ccbd 333f c7bd
00000070: 48a3 17be d70d 23bc c9ee 7d3e bc0e f9bd
00000080: e707 d9bd 28dc 04be 4843 903d d936 3d3e
00000090: 18e7 ca3d 3853 1dbe 131f 783e ba38 0abe
000000a0: 0466 3c3e c08b 0abe c879 3d3e f2c4 18bd
000000b0: aff8 143c b9b7 89be 499a 59be 71fc 903c
000000c0: b6e5 5d3e 9806 343e 209e 76be 3427 133e
000000d0: 5621 ddbd f6e9 3bbc a3ef 643e 80cd 543e
000000e0: e960 753e 3db3 1f3d ae3e 333e bcd1 67be
000000f0: 4d8c 183e 7b60 e33c 9566 de3d 5e91 4ebe
00000100: 6b76 643e adec 663e 9be1 e1bc a613 0fbe
00000110: 5ee5 65be fbe1 0a3d 4e3b c93d 6747 e8bd
00000120: 09dd 6d3e 7423 053e 63d2 c6bd 0060 723e
00000130: 8b87 32be ea55 713d ac25 5dbe 15d9 0b3e
00000140: be16 10bd 0462 36bb 1a12 89bd 1196 64bd
00000150: ec45 953d 8c1f dfbd 1a15 a9bd b741 07be
00000160: c08f 0dbe c946 e23d 4444 5bbe 00b9 53be
00000170: 4e43 5cbe 2110 88be 0727 a6bc 183c 07be
00000180: cf0d 15be 14d0 39be 6d57 23be e573 eabd
00000190: ce9a 983d 9b92 2c3e dc0a fbbc 987f 60bd
000001a0: 2cb8 c13d 397a eabd 0207 063e ba9e 5f3e
000001b0: 7953 c6bd eb2b a53d 4e7f 2b3e 1e81 213e
000001c0: 3bc5 033e 4d6d 1e3e e172 273e 497a 33be
000001d0: b56b d1bc 1cc5 41be fb00 033e 4e05 5d3d
000001e0: 98fe 79be 2dbe 81bd 3657 dc3d ea97 223d
000001f0: 04da 00be 333f 303e 6199 00be 1f7e 303d

weight f4 [128, 136]
0.07207881 -0.052963547 -0.00020669114 -0.021379694 0.06898163 -0.04289738 0.057952523 0.09889576
-0.02928799 -0.04923721 0.014617803 0.05627494 0.061185677 0.07444182 -0.030084638 0.05000581
0.021345543 0.05928449 -0.09781786 0.012619142 0.056113206 -0.007189068 -0.081924416 0.0489115
-0.07402336 -0.11843612 -0.14284904 -0.07103506 -0.018636074 -0.00023318735 0.06064666 0.023743413
-0.07164177 -0.034915946 0.098601446 0.07333798 0.05866716 0.06666784 0.05173221 0.04407916
0.0559184 0.012519185 0.076875985 0.04029024 -0.14166506 -0.091474764 0.051230557 0.09037703
0.04630755 -0.01886057 -0.029160937 -0.095185764 -0.055880204 0.07156391 0.054119866 0.053611293
-0.055163253 0.03332775 0.0889368 0.0029847433 0.01793637 0.057167377 0.059622828 0.085968606
0.044793706 -0.019007448 0.0596591 -0.06673137 0.06649714 0.08990419 0.04581368 0.0033527424
-0.06012482 -0.09502023 -0.02325252 -0.11125245 -0.048345283 0.046815794 0.07388085 -0.0060264817
0.11940206 0.065211 0.0331445 0.09806722 -0.019457275 0.012023046 -0.0948414 0.03794845
-0.08200914 -0.015500407 0.03257699 -0.012133291 0.063377 0.016815456 0.06821229 0.014821861
0.12734586 0.016808985 0.12692448 0.10319152 0.08869676 -0.03214569 -0.09208676 0.047799923
0.007611784 0.11812472 0.06711519 -0.023289958 0.0897963 0.016186683 0.009905767 -0.040805623
-0.111415684 -0.047970198 -0.0045289453 0.008575751 0.032168258 -0.11420566 -0.013518849 -0.22931114
0.038413502 0.002999103 -0.08205941 -0.08998665 -0.044276845 0.08511952 -0.011145929 0.07605437
-0.07448212 -0.10534577 -0.04036225 0.11656476 0.0144368345 -0.04709871 0.054805227 -0.008927786
0.09403535 -0.0021798024 0.019566778 0.062776186 0.06851322 0.08617877 -0.0039476277 0.07477644
0.044473697 0.011104389 0.045077488 0.0372163 0.007689996 0.0022779766 -0.10168811 -0.030598095
-0.04242157 0.06753713 -0.0370674 0.054977987 0.011863213 0.04997678 -0.03855717 -0.08901518
-0.06068199 0.0718701 -0.082699955 -0.054833084 -0.07892303 -0.06638348 -0.02595065 0.0890759
-0.079930775 0.023502849 -0.11028554 -0.049839694 0.012421162 -0.0052781296 0.015561328 -0.040716376
-0.082695425 -0.02018481 -0.047064863 -0.025627645 0.018625876 0.099278465 0.0346889 -0.03747262
-0.020174347 -0.0071375384 0.018962415 0.016224807 -0.0032799984 -0.050445598 0.08273366 0.05531422
-0.016721146 -0.03414562 0.00617698 0.009731823 -0.053618327 -0.034299966 -0.09847912 0.020851446
-0.07517521 -0.014471037 0.08570828 -0.06974789 -0.04178784 -0.0682754 0.050677776 0.065443315
-0.05387252 -0.055481594 0.012511672 0.05738012 0.0061656255 -0.0117786415 0.089306735 -0.0672012
-0.10052937 -0.06408097 -0.08989948 -0.010650969 0.034942508 0.019555531 0.036352497 0.043905288
0.024862235 -0.0073041357 0.05527033 -0.01381293 -0.021213794 -0.10316227 -0.044856016 0.06490524
-0.013214836 -0.050646123 -0.06555593 -0.06930274 -0.010754111 -0.0013513583 0.078966245 0.06293338
0.063491434 0.012022527 -0.05932696 -0.017959137 -0.015493882 -0.054077297 -0.074281365 -0.05399677
0.090086944 -0.063383214 0.16085866 0.02441966 0.016103514 0.04536969 -0.048701234 0.10041512
00000000: 0e9e 933d 4ef0 58bd 3bbb 58b9 7824 afbc
00000010: 3e46 8d3d 2ab5 2fbd a05f 6d3d dc89 ca3d
00000020: 5eed efbc f5ac 49bd 827f 6f3c 8d80 663d
00000030: d59d 7a3d f474 983d 0f74 f6bc e4d2 4c3d
00000040: d9dc ae3c 4bd4 723d bb54 c8bd 85c0 4e3c
00000050: f6d6 653d 4692 ebbb fdc7 a7bd 6d57 483d
00000060: 8f99 97bd a38e f2bd 0547 12be d47a 91bd
00000070: aeaa 98bc c183 74b9 a268 783d 8c81 c23c
00000080: ecb8 92bd 0604 0fbd 8eef c93d 3932 963d
00000090: fa4c 703d 2689 883d 27e5 533d 598c 343d
000000a0: b10a 653d 451d 4d3c 2871 9d3d 6107 253d
000000b0: a510 11be 1f57 bbbd 22d7 513d 9817 b93d
000000c0: fcac 3d3d 7b81 9abc ebe2 eebc c1f0 c2bd
000000d0: a4e2 64bd 1990 923d cbac 5d3d 8497 5b3d
000000e0: ddf2 61bd ae82 083d 7f24 b63d af9b 433b
000000f0: 4bef 923c 5728 6a3d 1137 743d 4f10 b03d
00000100: 9b79 373d 82b5 9bbc 1a5d 743d 75aa 88bd
00000110: a72f 883d b01f b83d 20a7 3b3d afb9 5b3b
00000120: 7145 76bd f799 c2bd 127c bebc 53d8 e3bd
00000130: b405 46bd ebc1 3f3d d84e 973d cb79 c5bb
00000140: 1189 f43d 588d 853d 87c2 073d 77d7 c83d
00000150: dd64 9fbc 4ffc 443c 353c c2bd d56f 1b3d
00000160: 68f4 a7bd 6bf5 7dbc 736f 053d b6ca 46bc
00000170: cdcb 813d 91c0 893c e3b2 8b3d 64d7 723c
00000180: f466 023e ffb2 893c 7ef8 013e 1356 d33d
00000190: a6a6 b53d 33ab 03bd fc97 bcbd dac9 433d
000001a0: 466c f93b 60eb f13d b073 893d 95ca bebc
000001b0: 1fe7 b73d ef99 843c cc4b 223c cc23 27bd
000001c0: e82d e4bd 667c 44bd 8c67 94bb 4f81 0c3c
000001d0: ddc2 033d a8e4 e9bd 2a7e 5dbc 8ad0 6abe
000001e0: 7a57 1d3d 998c 443b c40e a8bd ec4a b8bd
000001f0: a35b 35bd 2553 ae3d 6a9d 36bc 65c2 9b3d
00000200: 158a 98bd 86bf d7bd e352 25bd 81b9 ee3d
00000210: 7988 6c3c 94ea 40bd 727b 603d d945 12bc
00000220: 9b95 c03d 04db 0ebb 824a a03c cd90 803d
00000230: a950 8c3d 7f7e b03d 1a5b 81bb 6424 993d
00000240: 0d2a 363d 2fef 353c 2ca3 383d 1e70 183d
00000250: 5dfc fb3b 1b4a 153b db41 d0bd dba8 fabc
00000260: 3dc2 2dbd e850 8a3d fcd3 17bd 9930 613d
00000270: ec5d 423c 74b4 4c3d 20ee 1dbd 974d b6bd
00000280: ae8d 78bd a230 933d 985e a9bd a898 60bd
00000290: 66a2 a1bd 10f4 87bd 7596 d4bc 6d6d b63d
000002a0: bfb2 a3bd 0c89 c03c 63dd e1bd b524 4cbd
000002b0: 2182 4b3c 29f4 acbb f1f4 7e3c 37c6 26bd
000002c0: 385c a9bd 9d5a a5bc 16c7 40bd 11f1 d1bc
000002d0: 4b95 983c 8252 cb3d f315 0e3d e47c 19bd
000002e0: ac44 a5bc 03e2 e9bb 1157 9b3c e3e9 843c
000002f0: 3ef5 56bb 0ba0 4ebd 4470 a93d 2a91 623d
00000300: c9fa 88bc 47dc 0bbd 4468 ca3b 3972 1f3c
00000310: e49e 5bbd 1f7e 0cbd 6caf c9bd a7d0 aa3c
00000320: 76f5 99bd ee17 6dbc d387 af3d fbd7 8ebd
00000330: ba29 2bbd f9d3 8bbd 8093 4f3d 2507 863d
00000340: 6ea9 5cbd ab40 63bd c2fd 4c3c 6b07 6b3d
00000350: 0409 ca3b 34fb 40bc 73e6 b63d c8a0 89bd
00000360: 58e2 cdbd e23c 83bd 381d b8bd 6781 2ebc
00000370: e01f 0f3d ec32 a03c 5be6 143d 08d6 333d
00000380: e3ab cb3c 8857 efbb 2463 623d a14f 62bc
00000390: 8dc8 adbc bd46 d3bd f1ba 37bd 0aed 843d
000003a0: 0a83 58bc 4f72 4fbd 3042 86bd 98ee 8dbd
000003b0: 0332 30bc 0f20 b1ba 0eb9 a13d 37e3 803d
000003c0: cc07 823d 22fa 443c d400 73bd 0a1f 93bc
000003d0: 0dda 7dbc 2880 5dbd d420 98bd b82b 5dbd
000003e0: 817f b83d 0fcf 81bd 22b8 243e bd0b c83c
000003f0: 84eb 833c 91d5 393d f27a 47bd 71a6 cd3d

bias f4 [128]
0.03795584 -0.049366686 0.06604499 -0.056778282 0.027500378 0.024464378 0.053948015 0.056344707
-0.07234719 0.030342791 -0.049274098 -0.029077077 -0.034400605 0.061709244 0.021916598 0.05466849
-0.0017562498 -0.0055040517 0.005171886 -0.03388527 -0.0034969302 -0.035451524 0.07152133 -0.027711699
0.010575747 -0.07806389 0.06140325 -0.045377277 -0.047332488 -0.01813027 -0.045595106 0.029955214
0.057503246 -0.0511909 -0.13945752 -0.05992478 0.026306827 0.0060644574 0.061065074 0.09249414
0.020461904 0.04918628 0.09006042 0.0056530037 -0.029732369 -0.029655198 -0.051080212 0.077958986
0.058801565 0.04884738 0.0074354303 0.027794968 0.029929344 0.021673132 -0.013047503 0.03345234
-0.044624552 0.05121453 0.016707106 0.053955227 -0.04452496 -0.047273275 0.01985937 0.10100033
-0.030248635 -0.0023042543 0.0007531833 -0.009047139 -0.0048376904 0.04594997 -0.02322959 0.089214444
-0.07862854 0.041194737 0.042451072 -0.03561365 0.03850718 0.004411854 -0.0015184503 0.0007065554
-0.044118814 -0.037224766 -0.045655843 0.029333746 -0.004468282 0.04114854 0.09436177 0.04974721
0.042155337 0.08348046 0.10384832 -0.04462168 0.05031472 0.029039346 -0.082488105 0.008676637
0.066525 -0.11699746 -0.06428331 0.09708657 -0.062033508 -0.06411592 0.08728608 -0.046887062
-0.0916005 -0.07304114 0.047724437 -0.019038359 -0.06034075 0.07469537 0.010024332 -0.030685486
-0.015054745 -0.03774844 -0.052875325 -0.045337304 -0.02084978 0.03303151 0.08146244 0.05878683
-0.08812624 0.056648616 0.04766084 0.0065592085 -0.045158993 -0.09074148 -0.020926211 -0.022728188
00000000: 9577 1b3d b934 4abd 9942 873d 5890 68bd
00000010: 7948 e13c 8569 c83c 98f8 5c3d b5c9 663d
00000020: c32a 94bd 7291 f83c a3d3 49bd 0d33 eebc
00000030: a6e7 0cbd d5c2 7c3d 708a b33c 11ec 5f3d
00000040: f731 e6ba 555b b4bb ed78 a93b 48cb 0abd
00000050: c12c 65bb 9e35 11bd c679 923d a503 e3bc
00000060: e645 2d3c f6df 9fbd f981 7b3d 86dd 39bd
00000070: b6df 41bd ef85 94bc efc1 3abd a364 f53c
00000080: 8688 6b3d 8dad 51bd f4cd 0ebe b073 75bd
00000090: 6a81 d73c 5bb8 c63b 5f1f 7a3d 916d bd3d
000000a0: b99f a73c 8e77 493d 9971 b83d d53c b93b
000000b0: 4c91 f3bc 75ef f2bc 7c39 51bd f6a8 9f3d
000000c0: e9d9 703d 3114 483d e9a4 f33b 46b2 e33c
000000d0: 622e f53c da8b b13c 32c5 55bc 5205 093d
000000e0: 3cc8 36bd 54c6 513d 57dd 883c 2800 5d3d
000000f0: ce5f 36bd 9fa1 41bd 1eb0 a23c 43d9 ce3d
00000100: fccb f7bc f902 17bb 4771 453a 743a 14bc
00000110: 7d85 9ebb 0936 3c3d fb4b bebc 10b6 b63d
00000120: 0008 a1bd d0bb 283d 2de1 2d3d 9edf 11bd
00000130: b4b9 1d3d 5091 903b bd06 c7ba 2138 393a
00000140: eeb5 34bd ff78 18bd 9f01 3bbd 534d f03c
00000150: ab6a 92bb 5f8b 283d be40 c13d bbc3 4b3d
00000160: 13ab 2c3d cef7 aa3d 6eae d43d 39c5 36bd
00000170: cf16 4e3d ece3 ed3c 86ef a8bd 7428 0e3c
00000180: 423e 883d 5d9c efbd f8a6 83bd 53d5 c63d
00000190: d916 7ebd 354f 83bd 0bc3 b23d a60c 40bd
000001a0: 0b99 bbbd 9896 95bd b37a 433d 55f6 9bbc
000001b0: dd27 77bd e3f9 983d 193d 243c 2160 fbbc
000001c0: 2da8 76bc 1c9e 1abd cc93 58bd 9cb3 39bd
000001d0: 28cd aabc 0c4c 073d c8d5 a63d 76ca 703d
000001e0: 887b b4bd 6108 683d 0338 433d a1ee d63b
000001f0: a3f8 38bd abd6 b9bd 726d abbc 7730 babc

weight f4 [128, 136]
0.04683772 -0.0023155883 -0.09313736 0.0025701576 0.07643576 -0.12183721 0.09514225 0.051306777
0.08231586 0.075378016 0.023231307 0.070707165 0.06071074 0.04271133 0.04974617 0.019450238
-0.07552486 -0.07140731 0.04296828 0.078120485 0.0032836732 -0.067669295 -0.0045976043 -0.05759281
0.005871673 -0.20800266 0.110829405 0.0636974 -0.020952802 0.051382538 0.0810824 0.17355543
-0.06443589 0.020074362 -0.10564309 -0.06924537 0.09427752 -0.07957247 0.00025234764 0.0043146294
0.053097703 -0.0592509 -0.07008082 0.009903368 0.08454953 -0.043385807 0.008419872 -0.0025362547
0.03097463 -0.0021203952 -0.0083948895 0.018613145 -0.08224452 -0.085076466 0.105021164 0.0340438
-0.03998639 0.07019007 0.13814558 0.08215398 0.053387146 0.014912438 0.056127246 -0.023843141
0.023891106 0.007114377 -0.075839356 0.02363242 -0.13690494 0.08162363 0.028994586 0.05601734
-0.106242016 -0.062351953 -0.0091917515 -0.008702922 -0.11162727 0.06318079 -0.07515633 0.057424404
0.041889925 -0.00841376 0.017971545 -0.015508726 0.058664896 0.03479471 0.036975432 0.1233688
-0.07306227 -0.099739365 0.011448017 0.03839623 0.045541205 0.009999038 -0.013798338 0.05142799
0.088855684 -0.11825507 0.041713636 -0.08665021 -0.09861941 0.09483316 -0.02539658 -0.08102679
-0.014200005 -0.0057765096 -0.04713375 -0.0890255 0.015713328 0.055510413 0.07060423 0.07076133
0.022337476 0.007569627 0.08968159 -0.049399827 -0.039881207 0.006519495 -0.07030909 0.031713422
-0.0698752 0.07561243 0.12604852 -0.05761908 0.04216888 -0.034990445 0.03346681 -0.0018049169
0.10639555 -0.14320341 -0.08956187 -0.05980755 0.030343944 0.07785591 0.095835134 -0.018857025
0.022963388 0.0055750906 0.07327695 0.10687264 -0.026911661 -0.13442303 0.06825384 0.02298303
0.010493659 0.19841209 0.04205428 -0.025767827 -0.0131789455 0.06981335 -0.023568084 0.051565368
0.009067882 -0.049636733 -0.011231625 -0.03395177 -0.031478476 0.0038358418 -0.020746894 0.08416904
0.0033396187 -0.004860522 -0.098084636 0.034684513 0.09697711 -0.08352905 -0.05169856 -0.053307317
-0.087795936 -0.0025198534 -0.07304902 0.083051495 -0.05656304 0.05835425 -0.06896398 0.0005425559
0.108904354 -0.054326426 0.08899913 -0.05609534 -0.109140426 0.11456347 0.070398584 -0.006214617
0.016767045 -0.04990585 0.042102057 0.025937514 -0.051899686 0.08274056 0.00932234 0.043736074
0.041555334 -0.03185082 -0.01576667 -0.08987345 0.0015794176 0.016243557 -0.10619668 0.00088671996
0.035764102 -0.04588853 0.062483806 0.074198484 0.21144651 -0.09779806 0.021342965 0.11512074
-0.043161377 -0.10417606 -0.095881164 0.029509146 -0.006797257 0.12850034 -0.065884985 0.02722765
0.023200631 0.004906432 0.001936034 0.12735212 -0.07727054 -0.09436402 -0.1042742 0.01477518
-0.07437765 -0.12860623 0.009934126 0.09868889 -0.029951064 -0.012520546 0.0698449 -0.060626674
-0.035061114 0.015783282 0.04268199 -0.09782414 -0.13086224 -0.14183801 0.043227773 0.08851551
-0.009213387 -0.07787187 0.1267192 -0.053496435 0.06553516 0.14353468 0.0034063777 -0.011740973
0.028756794 -0.117932566 0.0052931705 -0.0071698474 -0.10895977 0.10262422 0.029576479 -0.06380065
00000000: e9d8 3f3d 20c1 17bb cdbe bebd 1770 283b
00000010: 5a8a 9c3d ca85 f9bd f1d9 c23d 0e27 523d
00000020: 3895 a83d ca5f 9a3d 954f be3c ebce 903d
00000030: d3ab 783d 13f2 2e3d a4c2 4b3d 1b56 9f3c
00000040: c7ac 9abd ff3d 92bd 82ff 2f3d a2fd 9f3d
00000050: e532 573b 3396 8abd 80a7 96bb 70e6 6bbd
00000060: 2a67 c03b a6fe 54be 87fa e23d c873 823d
00000070: 36a5 abbc 7f76 523d 880e a63d 84b8 313e
00000080: f7f6 83bd fd72 a43c 685b d8bd 84d0 8dbd
00000090: 9314 c13d e4f6 a2bd 874d 8439 bc61 8d3b
000000a0: fa7c 593d 12b1 72bd 8886 8fbd bc41 223c
000000b0: 4e28 ad3d 51b5 31bd 81f3 093c 4b37 26bb
000000c0: 82be fd3c 54f6 0abb b88a 09bc 987a 983c
000000d0: d16f a8bd 923c aebd 5615 d73d 8371 0b3d
000000e0: c5c8 23bd d0bf 8f3d 0976 0d3e 5940 a83d
000000f0: 7bac 5a3d 4c53 743c afe5 653d b152 c3bc
00000100: 48b7 c33c b81f e93b aa51 9bbd c798 c13c
00000110: cf30 0cbe 4a2a a73d 0e86 ed3c 7072 653d
00000120: 6a95 d9bd c364 7fbd 0099 16bc b396 0ebc
00000130: d79c e4bd ee64 813d 90eb 99bd da35 6b3d
00000140: c594 2b3d ded9 09bc 1039 933c 5018 7ebc
00000150: 9a4a 703d e684 0e3d 8d73 173d c8a8 fc3d
00000160: aca1 95bd 2744 ccbd 7790 3b3c 5e45 1d3d
00000170: 6a89 3a3d 01d3 233c 6d12 62bc 28a6 523d
00000180: f8f9 b53d b72f f2bd ebdb 2a3d aa75 b1bd
00000190: f9f8 c9bd e337 c23d 7d0c d0bc 60f1 a5bd
000001a0: 23a7 68bc e048 bdbb 520f 41bd 0053 b6bd
000001b0: 3db9 803c e35e 633d f398 903d 51eb 903d
000001c0: 15fd b63c a20a f83b fbaa b73d 7957 4abd
000001d0: 7a5a 23bd 7da1 d53b 36fe 8fbd efe5 013d
000001e0: bb1a 8fbd b1da 9a3d dd12 013e fc01 6cbd
000001f0: 47b9 2c3d 2452 0fbd 7e14 093d f692 ecba
00000200: e9e5 d93d eaa3 12be 376c b7bd c3f8 74bd
00000210: dd93 f83c eb72 9f3d 3645 c43d 0c7a 9abc
00000220: b71d bc3c 40af b63b 3a12 963d 0be0 da3d
00000230: d875 dcbc 31a6 09be abc8 8b3d e846 bc3c
00000240: 99ed 2b3c 8a2c 4b3e 1c41 2c3d 0d17 d3bc
00000250: 81ec 57bc 4dfa 8e3d db11 c1bc 3536 533d
00000260: 7491 143c e34f 4bbd da04 38bc 0311 0bbd
00000270: 93ef 00bd bf62 7b3b 64f5 a9bc d160 ac3d
00000280: 81dd 5a3b 0445 9fbb 99e0 c8bd 5911 0e3d
00000290: ef9b c63d 4711 abbd dfc1 53bd c658 5abd
000002a0: 5bce b3bd 2024 25bb b99a 95bd e716 aa3d
000002b0: a5ae 67bd de04 6f3d fd3c 8dbd 4f3a 0e3a
000002c0: 3f09 df3d 6385 5ebd 2d45 b63d 3ac4 65bd
000002d0: 0485 dfbd 41a0 ea3d 222d 903d fca3 cbbb
000002e0: 0b5b 893c 146a 4cbd 3573 2c3d e97a d43c
000002f0: c494 54bd e273 a93d babc 183c 9924 333d
00000300: ed35 2a3d 0176 02bd 1b29 81bc 920f b8bd
00000310: 7604 cf3a 3511 853c a57d d9bd c572 683a
00000320: 617d 123d 9cf5 3bbd 05ef 7f3d 60f5 973d
00000330: 6f85 583e 594a c8bd 71d7 ae3c 6cc4 eb3d
00000340: fcc9 30bd 425a d5bd 585d c4bd 2abd f13c
00000350: 86bb debb 9895 033e b5ee 86bd 850c df3c
00000360: 400f be3c 22c6 a03b 85c2 fd3a 9868 023e
00000370: 0440 9ebd ec41 c1bd b68d d5bd 9913 723c
00000380: 4f53 98bd 5ab1 03be bfc2 223c 671d ca3d
00000390: ef5b f5bc fa22 4dbc d80a 8f3d ad53 78bd
000003a0: 3e9c 0fbd f14b 813c 4fd3 2e3d 0658 c8bd
000003b0: c000 06be fc3d 11be 9b0f 313d 9f47 b53d
000003c0: bff3 16bc 497b 9fbd aec2 013e 141f 5bbd
000003d0: 4c37 863d c1fa 123e 893d 5f3b 365d 40bc
000003e0: 5e93 eb3c a186 f1bd 5572 ad3b 0af1 eabb
000003f0: 4d26 dfbd a62c d23d 5f4a f23c eaa9 82bd

bias f4 [128]
0.0058990084 -0.08305384 0.013081735 -0.074271955 0.022185447 0.056811787 0.09912719 -0.03272336
-0.033205595 0.03650757 -0.041684546 0.0056502265 0.09415156 0.08877923 0.026913928 -0.043521363
-0.03199982 -0.027039418 0.003970108 -0.058001775 -0.084592104 -0.0353041 0.06849126 0.00261196
-0.0376561 0.10225067 -0.037925284 0.038809754 0.03694151 -0.08060469 0.039238654 0.06581047
-0.04571699 0.03280029 0.100936845 0.014108992 0.06554046 -0.054328825 0.05995729 -0.08178331
-0.048204385 -0.044999886 -0.08064829 -0.0054327003 0.057690836 0.0072164843 -0.036632594 -0.06740492
0.06565919 0.020415474 -0.013909161 0.08297153 -0.058699384 0.09444522 0.060784567 0.007516116
0.08487281 -0.025720421 -0.08362012 0.07084389 0.039014384 -0.06929069 0.061756503 0.028109556
-0.03799709 -0.07613949 0.093681976 -0.021066643 -0.033518724 0.038138054 0.010540412 -0.048481774
-0.039381627 0.08233248 0.073140495 0.058194354 0.075884864 0.025861753 -0.0712123 -0.11032564
0.061668172 -0.05700275 -0.070520125 -0.061676122 -0.022823669 0.06652145 -0.023366423 0.09528451
-0.010917096 0.017272053 -0.028810738 0.017476115 -0.031332705 0.014983464 0.024861282 0.065320544
0.010851368 -0.0041830707 -0.08610824 0.029200692 0.04886738 0.0844358 0.03482728 -0.09902339
-0.031613674 0.047789387 -0.045719728 -0.024371792 0.108778 0.036088344 -0.07839709 -0.040991846
0.06764964 0.0027974765 0.07806298 0.080997735 0.067394726 0.06237128 -0.017238855 0.068837605
0.012156082 -0.007183224 -0.034010444 0.09961448 0.08065781 -0.090359144 -0.020598205 0.04103098
00000000: 784c c13b 2218 aabd c654 563c e51b 98bd
00000010: 41be b53c 7ab3 683d 3203 cb3d ee08 06bd
00000020: 9702 08bd f688 153d 6abd 2abd 8925 b93b
00000030: 88d2 c03d e3d1 b53d 997a dc3c 7543 32bd
00000040: 3e12 03bd c581 ddbc ae17 823b 4593 6dbd
00000050: a03e adbd 089b 10bd 2545 8c3d 6b2d 2b3b
00000060: 483d 1abd cd68 d13d 8b57 1bbd faf6 1e3d
00000070: fb4f 173d 1214 a5bd b6b8 203d a4c7 863d
00000080: bd41 3bbd 9959 063d fab7 ce3d 6729 673c
00000090: 143a 863d e787 5ebd c695 753d 027e a7bd
000000a0: f671 45bd cd51 38bd ee2a a5bd cb04 b2bb
000000b0: 3a4d 6c3d 4278 ec3b 0f0c 16bd 970b 8abd
000000c0: 5378 863d 5a3e a73c 40e3 63bc faec a93d
000000d0: c46e 70bd 7f6c c13d 3df9 783d c049 f63b
000000e0: ccd1 ad3d a2b3 d2bc 0741 abbd 9a16 913d
000000f0: 8ccd 1f3d 47e8 8dbd 63f4 7c3d 0346 e63c
00000100: d6a2 1bbd 05ef 9bbd 56dc bf3d f493 acbc
00000110: ee4a 09bd a636 1c3d b1b1 2c3c d394 46bd
00000120: a14e 21bd ee9d a83d afca 953d 345d 6e3d
00000130: 8669 9b3d 07dc d33c c1d7 91bd 69f2 e1bd
00000140: c497 7c3d b77b 69bd db6c 90bd 1aa0 7cbd
00000150: b4f8 babc 663c 883d f16a bfbc 8624 c33d
00000160: 9fdd 32bc 1f7e 8d3c 7f04 ecbc 122a 8f3c
00000170: b956 00bd 347d 753c e3a9 cb3c c7c6 853d
00000180: f0c9 313c 2412 89bb 8459 b0bd 4a36 ef3c
00000190: 2929 483d adec ac3d 0da7 0e3d c6cc cabd
000001a0: 577d 01bd cebe 433d 9c44 3bbd 5aa7 c7bc
000001b0: 00c7 de3d 5fd1 133d a78e a0bd 11e7 27bd
000001c0: e58b 8a3d de55 373b 7cdf 9f3d 24e2 a53d
000001d0: 3f06 8a3d 0779 7f3d 8038 8dbc bbfa 8c3d
000001e0: 4e2a 473c 4061 ebbb 894e 0bbd ad02 cc3d
000001f0: ec2f a53d 370e b9bd 91bd a8bc 1a10 283d

weight f4 [128, 256]
-0.10452816 0.004127772 -0.009730792 -0.06094518 0.015261154 -0.067510195 -0.054475315 0.00140625
0.053999435 0.0585691 0.046941787 -0.04353789 0.080063984 -0.005211605 0.09092403 0.03241735
0.017457418 -0.015842289 0.01230044 0.07929888 -0.10768862 0.07824899 -0.012015758 -0.020089496
-0.01586987 -0.058273263 -0.009346482 0.0871471 0.015988017 -0.054945383 -0.37315032 -0.32496852
0.01716255 -0.025809692 0.050933145 0.025197769 0.007983517 -0.009981666 -0.021979183 0.01684525
-0.017647339 -0.1938305 -0.014616657 -0.03442276 0.03458432 0.04493223 0.056862954 0.0165352
-0.06012911 0.0031006583 0.038595416 0.013282011 0.064620316 -0.08905973 0.055595133 -0.08123036
-0.13512304 0.020446004 -0.3851275 0.046652187 0.07459008 0.0410089 -0.013944586 0.010831677
0.009047959 -0.02763246 -0.09597573 -0.03287765 0.063503034 0.058336064 0.046590067 -0.024027465
0.040118128 0.07684364 -0.0265728 -0.1252625 -0.00034240235 -0.0163567 -0.0031886045 0.08673031
-0.13541862 -0.037594564 0.04747968 -0.025513569 0.058407724 0.07520411 0.005924628 -0.23116031
0.016991194 -0.031306103 -0.004470507 -0.03674888 -0.016531713 -0.07299548 -0.021173779 0.053724613
0.026584864 -0.07537699 -0.04023696 0.03360922 -0.06016315 0.04444794 0.008257602 -0.07365492
-0.08555444 -0.087430544 -0.09320843 0.0647076 -0.0008132383 -0.04923629 -0.038314182 0.0110395495
0.007954136 -0.01702361 0.061421536 0.020528251 -0.012505914 -0.08801045 0.07145035 0.06131601
-0.1198038 0.004275375 -0.034298323 0.024541054 -0.30072907 -0.019276505 -0.0068603307 -0.0035880944
-0.08232913 -0.08639387 -0.07731772 -0.04834395 0.04075398 -0.059129506 -0.0062306933 0.017949736
0.048751377 -0.00169328 -0.006210292 0.02478773 0.007657225 0.07995283 -0.08155488 -0.062281642
0.08680614 0.049306978 0.015559563 -0.08848933 -0.003525808 -0.0068118656 -0.011578348 -0.057534754
0.0050264196 -0.032129444 0.009051245 0.042431068 0.068815686 0.035283837 -0.08828006 -0.054747097
0.052457273 0.008991358 -0.005936813 0.0067968015 -0.03478284 0.03316167 0.01217824 -0.068164796
0.03633268 0.0020488375 -0.018200405 -0.0046341596 -0.040029578 0.07649957 0.028154634 0.049927358
-0.013820569 -0.0041103642 0.05319491 0.03821383 0.007596546 0.0926922 0.0633537 0.000584764
-0.049120184 -0.027182588 0.029438812 -0.006640274 0.023637958 0.07682969 0.06930494 0.113660306
-0.037207473 0.007385643 0.093845025 -0.07124953 -0.0047348654 0.035905853 0.03497571 0.059948895
0.09458387 0.061684866 0.0034893544 0.0067678825 -0.01244691 0.043260295 -0.041750733 0.03189997
0.035401113 0.055989914 0.049921777 0.0070786597 0.0369097 0.057107743 -0.06455116 -0.03999108
-0.014945741 0.012086798 -0.044609237 -0.04386332 -0.016638694 -0.026320526 -0.028751675 0.0024574485
-0.056950346 0.013516537 -0.059048597 -0.07401074 0.05195745 -0.002899122 0.035165634 0.028138561
-0.038452134 -0.036776792 0.02131627 -0.038368516 0.029856397 -0.038862392 0.076335154 0.020681262
0.0032450524 0.034708798 -0.04306006 -0.0028905163 0.0055419337 0.032777388 -0.057944216 -0.037087835
-0.0075873644 0.06269569 -0.05843894 0.06321402 0.019995289 0.0008610264 0.060770713 0.018855244
00000000: dc12 d6bd 4342 873b e66d 1fbc a7a1 79bd
00000010: eb09 7a3c c942 8abd 8221 5fbd ec51 b83a
00000020: 832e 5d3d 27e6 6f3d 0846 403d c954 32bd
00000030: 96f8 a33d 1dc6 aabb 6136 ba3d 0ec8 043d
00000040: dc02 8f3c b0c7 81bc c987 493c 7467 a23d
00000050: da8b dcbd 0241 a03d bedd 44bc ba92 a4bc
00000060: 8801 82bc f2af 6ebd fd21 19bc 2e7a b23d
00000070: 4df9 823c 690e 61bd 8f0d bfbe 4662 a6be
00000080: 7a98 8c3c d96e d3bc 469f 503d 8d6b ce3c
00000090: 4ccd 023c 248a 23bc b00d b4bc 0dff 893c
000000a0: 2791 90bc 817b 46be b47a 6fbc e1fe 0cbd
000000b0: 4aa8 0d3d dc0a 383d 21e9 683d d474 873c
000000c0: f149 76bd 6a34 4b3b 3a16 1e3d cb9c 593c
000000d0: a857 843d f364 b6bd b9b7 633d 1a5c a6bd
000000e0: b25d 0abe 617e a73c 6f2f c5be 5d16 3f3d
000000f0: afc2 983d f3f8 273d d577 64bc 5977 313c
00000100: e43d 143c 785d e2bc ec8e c4bd b7aa 06bd
00000110: e10d 823d ccf1 6e3d 3ad5 3e3d 3fd5 c4bc
00000120: e852 243d 3360 9d3d 33af d9bc d044 00be
00000130: 7784 b3b9 7cfe 85bc e8f7 50bb a99f b13d
00000140: 2eab 0abe c2fc 19bd 0e7a 423d d501 d1bc
00000150: f03c 6f3d 9d04 9a3d 6223 c23b 4ab5 6cbe
00000160: 1e31 8b3c d43a 00bd 557d 92bb fe85 16bd
00000170: 846d 87bc a77e 95bd a274 adbc 570e 5c3d
00000180: 80c8 d93c 405f 9abd 83cf 24bd d2a9 093d
00000190: a36d 76bd 0b0f 363d e54a 073c 64d8 96bd
000001a0: 2b37 afbd c90e b3bd 10e4 bebd 6b85 843d
000001b0: 802f 55ba feab 49bd 55ef 1cbd 3adf 343c
000001c0: 1052 023c 1975 8bbc 2695 7b3d dd2a a83c
000001d0: 9be5 4cbc d33e b4bd 9054 923d 7f26 7b3d
000001e0: b25b f5bd 7218 8c3b 667c 0cbd 520a c93c
000001f0: 29f9 99be c3e9 9dbc a0cc e0bb 3c26 6bbb
00000200: 2d9c a8bd 45ef b0bd c158 9ebd 4e04 46bd
00000210: a5ed 263d c831 72bd d82a ccbb 530b 933c
00000220: 86af 473d 0cf1 ddba b57f cbbb a30f cb3c
00000230: 75e9 fa3b 4fbe a33d 3f06 a7bd 091b 7fbd
00000240: 6bc7 b13d 1df6 493d 8aed 7e3c e539 b5bd
00000250: 3e11 67bb 1236 dfbb 1db3 3dbc 90a9 6bbd
00000260: aab4 a43b 2a9a 03bd ac4b 143c 33cc 2d3d
00000270: 3def 8c3d c985 103d 2dcc b4bd 7e3e 60bd
00000280: 70dd 563d 7d50 133c 9989 c2bb b4b7 de3b
00000290: 7478 0ebd 88d4 073d 3e87 473c fc99 8bbd
000002a0: 94d1 143d ca45 063b 0419 95bc 26da 97bb
000002b0: 0ef6 23bd ceab 9c3d 8ca4 e63c a180 4c3d
000002c0: ab6f 62bc 3cb0 86bb e8e2 593d 1b86 1c3d
000002d0: 72ec f83b 68d5 bd3d 96bf 813d d94a 193a
000002e0: 3f32 49bd 05ae debc aa29 f13c a896 d9bb
000002f0: 64a4 c13c e258 9d3d c0ef 8d3d bcc6 e83d
00000300: dd66 18bd 4403 f23b d231 c03d 46eb 91bd
00000310: ee26 9bbb 0412 133d b142 0f3d f98c 753d
00000320: 30b5 c13d 45a9 7c3d a7ad 643b 1dc5 dd3b
00000330: 20ee 4bbc b531 313d d102 2bbd 8ba9 023d
00000340: c200 113d ae55 653d c77a 4c3d 1af4 e73b
00000350: a02e 173d cfe9 693d 6633 84bd b0cd 23bd
00000360: fbde 74bc b507 463c 2db8 36bd 06aa 33bd
00000370: df4d 88bc 259e d7bc a288 ebbc 250d 213b
00000380: c444 69bd 7774 5d3c f1dc 71bd f192 97bd
00000390: 56d1 543d 32ff 3dbb d709 103d d782 e63c
000003a0: fc7f 1dbd 43a3 16bd 759f ae3c 4e28 1dbd
000003b0: 6795 f43c 2c2e 1fbd 9b55 9c3d c06b a93c
000003c0: f2aa 543b d02a 0e3d bf5f 30bd d16e 3dbb
000003d0: 1c99 b53b 9541 063d ea56 6dbd 6ae9 17bd
000003e0: 6d9f f8bb 9966 803d ac5d 6fbd 5a76 813d
000003f0: 29cd a33c 81b6 613a b6ea 783d 5076 9a3c

bias f4 [128]
-0.012992026 0.06371592 0.08228501 -0.042726614 -0.034536038 -0.004853272 -0.04744412 0.029743126
-0.039211947 -0.047216617 -0.0049879076 -0.017770218 0.055868696 -0.024010781 0.05005954 -0.064126134
0.030247916 -0.050869387 0.017240042 -0.03978817 0.005526804 0.04372725 -0.015751028 -0.057141542
-0.049146995 0.058362994 0.060735222 -0.020191506 0.030671857 0.07395787 0.051208854 0.025595628
-0.049393427 -0.010229731 0.031727247 -0.030022383 -0.017222995 -0.050483793 0.019127714 0.0420814
-0.031647872 -0.03140267 0.021218661 0.058222342 0.01169181 -0.008049284 -0.029208329 -0.019810138
0.014312514 0.026338724 0.01418766 0.021469824 -0.06678414 0.04124453 -0.050338063 -0.024540806
0.033072896 -0.046635523 -0.005413839 0.03203949 0.027216334 0.07118606 0.057234466 -0.0145376185
0.028244333 0.030747559 0.0869406 -0.015531568 0.0064038187 0.025924256 -0.029711436 -0.021172442
0.03210203 0.042402122 -0.050800532 0.07901842 -0.027432488 0.015413248 0.0017556039 0.07479478
0.015387552 0.005759485 0.024541581 0.02177557 0.010725615 0.047307823 0.0211846 -0.06995591
-0.035089407 -0.039730098 0.002084855 0.013630345 0.036815364 -0.031816673 -0.005912644 -0.041168403
0.0076726307 -0.046007857 0.017088948 -0.05473814 0.024381366 -0.019374507 -0.054973394 0.014020909
-0.008444128 -0.03293759 -0.048036803 -0.02530252 0.062783375 0.055593938 0.036067754 0.052155353
-0.03853899 0.08084363 0.07706466 0.011711521 -0.029195664 0.034649357 -0.005494498 0.04144037
-0.05473174 -0.054372545 0.03828677 -0.0035080027 0.06576095 -0.051174786 -0.03982957 0.06844891
00000000: 82dc 54bc 7e7d 823d 0b85 a83d 1a02 2fbd
00000010: a975 0dbd 3208 9fbb c454 42bd dba7 f33c
00000020: b59c 20bd 3666 41bd 9a71 a3bb d992 91bc
00000030: 93d6 643d 42b2 c4bc 3b0b 4d3d 9054 83bd
00000040: 7aca f73c 6b5c 50bd fd3a 8d3c ecf8 22bd
00000050: 311a b53b 581b 333d 4d08 81bc 400d 6abd
00000060: 5c4e 49bd 090e 6f3d 7fc5 783d a868 a5bc
00000070: 8c43 fb3c 3977 973d 60c0 513d ecad d13c
00000080: c350 4abd 9a9a 27bc 6ef4 013d 80f1 f5bc
00000090: 3d17 8dbc 18c8 4ebd b9b1 9c3c 8c5d 2c3d
000000a0: 33a1 01bd 16a0 00bd c2d2 ad3c 8d7a 6e3d
000000b0: 018f 3f3c 25e1 03bc 4e46 efbc df48 a2bc
000000c0: 097f 6a3c 4fc4 d73c 5c73 683c 7ce1 af3c
000000d0: 20c6 88bd 06f0 283d 492f 4ebd cd09 c9bc
000000e0: 7277 073d e404 3fbd 9366 b1bb d73b 033d
000000f0: caf4 de3c ffc9 913d b06e 6a3d 312f 6ebc
00000100: a960 e73c 4ee2 fb3c ea0d b23d 1e78 7ebc
00000110: 20d7 d13b 1b5f d43c 6665 f3bc d471 adbc
00000120: 6b7d 033d d9ad 2d3d 3814 50bd 69d4 a13d
00000130: 19ba e0bc d987 7c3c 4b1c e63a 012e 993d
00000140: 121c 7c3c 10ba bc3b 6d0b c93c ae62 b23c
00000150: 7dba 2f3c d9c5 413d 548b ad3c 0b45 8fbd
00000160: e9b9 0fbd 07bc 22bd 10a2 083b d051 5f3c
00000170: b5cb 163d 3352 02bd dabe c1bb 33a0 28bd
00000180: b16a fb3b bc72 3cbd 1ffe 8b3c 1a35 60bd
00000190: 6ebb c73c 49b7 9ebc c82b 61bd f4b7 653c
000001a0: 3d59 0abc 91e9 06bd 3dc2 44bd 3b47 cfbc
000001b0: 9294 803d 78b6 633d c8bb 133d daa0 553d
000001c0: 0fdb 1dbd 5891 a53d 14d4 9d3d aee1 3f3c
000001d0: bf2b efbc 7cec 0d3d 310b b4bb 61bd 293d
000001e0: 642e 60bd bfb5 5ebd 97d2 1c3d 85e6 65bb
000001f0: adad 863d a79c 51bd 5524 23bd f12e 8c3d

weight f4 [8, 128, 1, 1]
-0.08643928 -0.040755507 0.07611643 0.1774276 0.18317054 0.03641712 0.006569597 0.11335649
-0.007132366 -0.0136479 0.023246387 -0.009428966 0.056214213 -0.07604247 -0.040603597 0.11165136
0.025361106 -0.06967044 -0.013839306 -0.026098248 0.0586418 0.106639065 0.00016458049 0.0758137
-0.08908322 0.10899895 0.12443564 0.031230086 -0.033834487 0.038997937 0.09839079 0.02603732
-0.024656067 -0.101797275 -0.112071306 0.060832217 -0.04937069 0.018246548 0.076175004 0.0736783
-0.04847897 -0.040417377 -0.007931232 -0.11077578 -0.020292029 0.09913142 -0.055590525 -0.01662627
-0.06545568 0.049499564 -0.0064270208 0.057950977 -0.01487433 -0.10443364 -0.0009399371 0.005493514
0.12992121 -0.12492309 -0.051722955 -0.07133753 0.0612065 -0.0768092 -0.06055498 0.1614095
-0.03941439 0.011639683 0.01297815 0.068191186 0.0806374 0.14160426 -0.022014635 -0.10046604
0.009602903 0.06450967 0.0431743 -0.07054 0.031827137 0.051889177 -0.06559498 0.027748413
0.033660416 0.080760784 0.030414186 -0.024600362 0.05284965 -0.07156787 0.010063009 0.15523371
0.023144841 0.015046407 0.046463292 -0.10227363 0.042492453 0.0624739 -0.0029550008 -0.00066878734
0.11652686 -0.068762235 0.07511182 -0.105760194 -0.050426852 0.00038762076 0.14927639 0.07192638
0.048890043 -0.0028423893 -0.10425739 0.06768107 0.019268889 -0.0059415493 -0.004999504 0.08358865
-0.05238122 0.035475478 0.043893818 0.070105486 -0.08842132 0.072545215 -0.055540122 0.01761878
0.090416625 0.020633303 -0.018127808 0.024032762 -0.10026668 -0.10155637 0.0015984384 0.023328917
0.03403344 0.05430761 -0.007979921 -0.10619073 -0.038392976 0.09445892 0.029033292 0.08779975
0.06999723 0.08555215 0.08342222 -0.0673649 -0.04965746 0.11376436 0.053266957 -0.0211014
0.003196456 0.018856402 -0.064729445 0.08832327 0.06729284 0.13935424 0.041908946 0.108374305
0.043233667 0.0028613885 0.057025038 0.0001148518 0.048807703 0.11598979 -0.05407119 -0.019428346
0.1587524 -0.013146441 -0.15047169 0.06690238 0.111903176 0.042909306 0.017418997 -0.040336687
0.10036938 -0.17776853 -0.0390185 -0.03294482 0.14481227 -0.06096602 0.10068313 0.14357707
0.17363681 0.04765813 0.019901108 -0.105238326 0.0008660326 -0.0044989176 0.1485475 0.017744407
0.097932056 0.11624494 0.027283015 -0.08910511 -0.1088222 -0.006537425 -0.09514814 -0.014057172
-0.027799536 -0.0671156 -0.116233885 0.0069370703 0.04862998 0.3129134 0.23144658 0.040546745
-0.13334687 0.11581724 0.033277687 0.07823395 -0.05625926 0.05286366 0.09850128 -0.03839334
0.14290045 -0.031809643 0.09495815 0.037219513 0.13650674 -0.056615416 0.052128572 0.09161997
0.026225422 0.058653582 -0.10072779 -0.036957975 -0.034748986 0.0322084 -0.13702483 0.03805695
0.07216372 0.12770706 -0.02613064 0.015932422 0.06840442 0.032570828 0.122471586 0.013231663
-0.0492415 -0.05268235 0.08589943 -0.018888073 -0.0003388317 0.057735987 0.04420718 -0.04488118
0.039103243 -0.067673706 -0.06988726 -0.06648104 -0.13411418 -0.023546906 0.12539856 -0.0567142
0.025425926 0.1403694 0.088872015 -0.08257271 0.015568236 0.018236237 -0.086855784 -0.04943045
00000000: 1407 b1bd 3fef 26bd eee2 9b3d 95af 353e
00000010: 0f91 3b3e 1e2a 153d c645 d73b 7327 e83d
00000020: 9fb6 e9bb 719b 5fbc 356f be3c f37b 1abc
00000030: e040 663d 28bc 9bbd f54f 26bd 78a9 e43d
00000040: 18c2 cf3c 60af 8ebd 42be 62bc fecb d5bc
00000050: 6232 703d 9565 da3d 3d93 2c39 3744 9b3d
00000060: 4371 b6bd d73a df3d 1dd8 fe3d 3dd6 ff3c
00000070: 0896 0abd 4dbc 1f3d 1c81 c93d 384c d53c
00000080: 85fb c9bc 177b d0bd a485 e5bd 342b 793d
00000090: ec38 4abd c979 953c a401 9c3d a6e4 963d
000000a0: e291 46bd b18c 25bd 00f2 01bc 6ade e2bd
000000b0: 783b a6bc 6a05 cb3d e4b2 63bd d133 88bc
000000c0: a10d 86bd 0ec0 4a3d c299 d2bb 015e 6d3d
000000d0: 76b3 73bc 4ee1 d5bd 1c66 76ba ef02 b43b
000000e0: 110a 053e add7 ffbd 73db 53bd 6919 92bd
000000f0: abb3 7a3d 244e 9dbd 8008 78bd 8848 253e
00000100: fc70 21bd 5eb4 3e3c 4ea2 543c d2a7 8b3d
00000110: 3925 a53d b500 113e 0958 b4bc 24c1 cdbd
00000120: 7f55 1d3c a51d 843d 89d7 303d 4777 90bd
00000130: 2c5d 023d bf89 543d a956 86bd a450 e33c
00000140: 81df 093d e965 a53d 2c27 f93c b386 c9bc
00000150: e078 583d 2d92 92bd 52df 243c 96f5 1e3e
00000160: 409a bd3c 3485 763c 4b50 3e3d d674 d1bd
00000170: 910c 2e3d a2e4 7f3d b0a8 41bb 8f51 2fba
00000180: a2a5 ee3d 37d3 8cbd 3ad4 993d cd98 d8bd
00000190: 638c 4ebd 9439 cb39 e9db 183e 234e 933d
000001a0: ed40 483d 6147 3abb e684 d5bd 5f9c 8a3d
000001b0: cad9 9d3c 54b1 c2bb e1d2 a3bb 8730 ab3d
000001c0: b18d 56bd bc4e 113d 01ca 333d 7793 8f3d
000001d0: 3d16 b5bd 9692 943d 0a7e 63bd 4255 903c
000001e0: 5a2c b93d 2c07 a93c c580 94bc 5be0 c43c
000001f0: 9e58 cdbd c9fc cfbd b182 d13a 491c bf3c
00000200: a666 0b3d a871 5e3d 37be 02bc 877a d9bd
00000210: f441 1dbd ae73 c13d 3ad7 ed3c 5bd0 b33d
00000220: b55a 8f3d f735 af3d 45d9 aa3d 9cf6 89bd
00000230: 9f65 4bbd 4afd e83d 742e 5a3d d8dc acbc
00000240: a27b 513b be78 9a3c df90 84bd d5e2 b43d
00000250: d4d0 893d e1b2 0e3e b7a8 2b3d 59f3 dd3d
00000260: c915 313d 2286 3b3b 1693 693d 97dc f038
00000270: 96ea 473d 0e8c ed3d c179 5dbd 3228 9fbc
00000280: fd8f 223e 2c64 57bc 4015 1abe 1d04 893d
00000290: 7e2d e53d abc1 2f3d 49b2 8e3c 1538 25bd
000002a0: 768e cd3d f408 36be ddd1 1fbd 26f1 06bd
000002b0: ab49 143e 81b7 79bd f532 ce3d de05 133e
000002c0: d9cd 313e 2c35 433d a607 a33c 3187 d7bd
000002d0: 7706 633a a86b 93bb d61c 183e b85c 913c
000002e0: 9a90 c83d d411 ee3d a180 df3c bd7c b6bd
000002f0: 2cde debd e537 d6bb 07dd c2bd 0e50 66bc
00000300: dabb e3bc e773 89bd 080c eebd 5d50 e33b
00000310: 3b30 473d 2f36 a03e 5500 6d3e 5814 263d
00000320: 158c 08be 9731 ed3d 2f4e 083d 1f39 a03d
00000330: 1c70 66bd 9187 583d 0abb c93d 5642 1dbd
00000340: 7f54 123e d44a 02bd 6b79 c23d 7d73 183d
00000350: 6cc8 0b3e 91e5 67bd c584 553d 40a3 bb3d
00000360: b2d6 d63c bd3e 703d 5f4a cebd 3f61 17bd
00000370: f454 0ebd f5ec 033d 3d50 0cbe 9be1 1b3d
00000380: 93ca 933d a4c5 023e ed0f d6bc b684 823c
00000390: 9e17 8c3d fd68 053d 62d2 fa3d 9ec9 583c
000003a0: 75b1 49bd 73c9 57bd 0aec af3d 29bb 9abc
000003b0: 39a5 b1b9 927c 6c3d 9712 353d 54d5 37bd
000003c0: b92a 203d 8398 8abd 0d21 8fbd 3627 88bd
000003d0: 3a55 09be 71e5 c0bc 7b68 003e 264d 68bd
000003e0: 084a d03c ffbc 0f3e 8802 b63d e21b a9bd
000003f0: ea11 7f3c 2964 953c 72e1 b1bd 9577 4abd

bias f4 [8]
0.045342878 -0.08700152 0.004619483 -0.012934535 0.026973251 -0.0030544526 0.009623139 0.07407373
00000000: 74b9 393d da2d b2bd 085f 973b 5feb 53bc
00000010: 02f7 dc3c 362d 48bb 5faa 1d3c f8b3 973d
