E-GraphSAGE/experiments/model/None_None_MLP_NF-BoT-IoT_best_model.pth (torch, 292800 bytes, 10 tensors)

weight f4 [128, 16]
0.23404942 0.23336361 -0.05102607 0.18055047 0.021694995 0.057776965 -0.02017691 0.20235656
0.19409826 -0.037215613 0.09379754 -0.11791049 -0.03863564 0.007270674 -0.20162842 -0.069940135
-0.086336456 0.24750893 -0.035157785 -0.08055725 -0.17762418 0.23535343 -0.002961435 0.04119657
-0.11271131 0.12332009 0.05239604 -0.1204898 0.19439223 0.1724541 0.15781525 -0.13567324
0.08614973 -0.07696425 0.12210785 0.16651256 0.17651592 0.023614094 0.14372699 -0.25827134
0.13269934 0.21292052 0.23149061 -0.11598395 0.20914575 0.09692994 -0.026040394 -0.12737466
-0.09630409 0.21664052 -0.19445978 -0.040237274 0.24116935 0.15251912 -0.15095873 0.115459025
0.13572356 0.06702725 0.16219309 0.0851065 -0.16280636 0.2570612 0.22594137 0.21499097
0.095116146 -0.016517902 -0.12214219 0.06854309 -0.15410016 0.13627414 0.22873263 0.1888326
0.016787907 0.09368741 0.1375781 0.08062533 0.107430935 -0.04920508 0.22043209 -0.23963198
0.07412269 0.00061868323 0.08155092 0.13453737 0.08838942 -0.11968377 -0.18205509 -0.1735526
0.18025924 -0.040006105 -0.04970248 0.20805307 0.018068068 0.16428918 0.023206562 -0.19288993
0.10483064 -0.04160372 -0.09563084 0.08867334 0.05294653 -0.22272778 0.034315817 -0.0025003892
0.20092645 0.16031913 -0.17861812 0.035554893 -0.072514825 -0.02962613 -0.21154658 -0.18882683
0.049571708 0.15519162 -0.14108928 0.23572434 0.165018 0.23435344 0.04196994 -0.1878585
-0.08689759 0.16867992 -0.044618536 0.19351801 -0.10202501 0.23617741 -0.115272336 0.025177654
0.052046135 0.018044962 0.1997507 -0.2315676 -0.24368872 0.07780329 -0.017374232 -0.094594054
0.017410893 -0.06699509 0.22811134 -0.01968838 0.16740225 0.16249275 0.009884485 -0.0035455273
-0.07373305 0.11944835 -0.22622558 -0.037850287 0.043268535 0.22855958 0.09039523 0.1884405
-0.20554742 -0.18405837 0.23667802 0.15857685 0.22549857 -0.17201422 -0.10140039 0.10355141
0.2309576 -0.18011421 -0.014528563 0.056076176 0.2018145 -0.14146346 0.107783206 0.17200604
0.10025417 0.036956947 0.24566251 0.08875677 -0.20634654 -0.06883163 -0.23375182 -0.12332806
-0.25318813 0.09342615 0.0972337 -0.099515185 -0.034633167 -0.005361891 -0.20763639 -0.08050738
-0.14557275 -0.027723365 -0.15411635 -0.06835073 0.065772206 -0.2414388 -0.14548017 -0.18723647
0.080660604 -0.23683031 -0.16957356 -0.24308746 -0.2556312 0.18564798 0.15766598 0.034995183
-0.19966179 0.023761624 0.047826443 0.12405684 -0.15434231 0.18785366 -0.22212942 0.08059487
0.07879888 -0.11833856 -0.14899836 -0.10207162 -0.20467041 -0.08776028 -0.21033464 0.16419686
0.11677122 -0.152438 0.054081697 0.20731317 0.16206743 0.08462259 0.07010808 -0.23592833
-0.09741642 -0.10052916 -0.16134784 0.020953538 0.22135225 0.115530916 0.008157437 -0.18094146
-0.21645586 -0.23237894 0.12161958 -0.15800293 -0.014553758 0.16284636 -0.050639663 -0.19305228
-0.2347794 -0.22129865 0.19649108 -0.029800318 0.06966269 -0.06491207 -0.04822727 0.030045817
0.13750061 -0.18301795 -0.050472345 -0.12299286 0.24354716 0.22012846 0.22952203 -0.18556868
00000000: a7aa 6f3e dff6 6e3e b600 51bd 39e2 383e
00000010: b4b9 b13c 8aa7 6c3d 0c4a a5bc 8f36 4f3e
00000020: b2c1 463e 666f 18bd ed18 c03d 0e7b f1bd
00000030: 6840 1ebd d63e ee3b ae77 4ebe c63c 8fbd
00000040: 2bd1 b0bd fb72 7d3e 9c01 10bd 33fb a4bd
00000050: 1de3 35be 7d00 713e a214 42bb bcbd 283d
00000060: 30d5 e6bd 3e8f fc3d 3b9d 563d 5bc3 f6bd
00000070: c20e 473e cf97 303e 529a 213e eded 0abe
00000080: 456f b03d 6f9f 9dbd ae13 fa3d 4582 2a3e
00000090: 97c0 343e 5872 c13c 2b2d 133e 243c 84be
000000a0: 56e2 073e d607 5a3e e00b 6d3e fe88 edbd
000000b0: 4e2a 563e 3483 c63d aa52 d5bc 816e 02be
000000c0: 143b c5bd 03d7 5d3e 7720 47be d7cf 24bd
000000d0: 19f5 763e f92d 1c3e ed94 1abe c875 ec3d
000000e0: 1efb 0a3e 9545 893d f215 263e 514c ae3d
000000f0: b6b6 26be 879d 833e 2d5d 673e 9826 5c3e
00000100: 41cc c23d 8d50 87bc af25 fabd 5260 8c3d
00000110: 6fcc 1dbe 738b 0b3e e338 6a3e 555d 413e
00000120: cb86 893c 2fdf bf3d 46e1 0c3e e51e a53d
00000130: c004 dc3d 448b 49bd f3b8 613e 1662 75be
00000140: a3cd 973d 212f 223a 2b04 a73d 2ac4 093e
00000150: 8305 b53d c41c f5bd a66c 3abe c6b7 31be
00000160: e195 383e 71dd 23bd d494 4bbd dd0b 553e
00000170: 7c03 943c 6c3b 283e b01b be3c f084 45be
00000180: 72b1 d63d aa68 2abd 1ada c3bd 5e9a b53d
00000190: 76de 583d c012 64be be8e 0c3d 92dd 23bb
000001a0: aabf 4d3e b32a 243e abe7 36be 02a2 113d
000001b0: a782 94bd 7fb2 f2bc ab9f 58be d25b 41be
000001c0: b40b 4b3d 8dea 1e3e b579 10be b961 713e
000001d0: 7bfa 283e 59fa 6f3e ace8 2b3d fb5d 40be
000001e0: 5df7 b1bd 6eba 2c3e edc1 36bd 9629 463e
000001f0: 7df2 d0bd 7ed8 713e e713 ecbd 5e41 ce3c
00000200: 542e 553d 07d3 933c 738b 4c3e 0f20 6dbe
00000210: 8989 79be 5557 9f3d 6854 8ebc 87ba c1bd
00000220: 4aa1 8e3c b934 89bd 0596 693e 8749 a1bc
00000230: 7f6b 2b3e 8064 263e 89f2 213c 145c 68bb
00000240: 5a01 97bd 56a1 f43d aea7 67be e708 1bbd
00000250: 593a 313d 860b 6a3e 2221 b93d 8cf6 403e
00000260: 067b 52be cc79 3cbe b95b 723e f861 223e
00000270: 19e9 663e 7f24 30be 02ab cfbd c312 d43d
00000280: 2680 6c3e dc6f 38be 3609 6ebc 22b0 653d
00000290: 76a8 4e3e ccdb 10be 71bd dc3d 5a22 303e
000002a0: 0f52 cd3d 2b60 173d f48e 7b3e 1cc6 b53d
000002b0: 824c 53be 99f7 8cbd a35c 6fbe 6c93 fcbd
000002c0: e0a1 81be 3656 bf3d 7622 c73d 9ece cbbd
000002d0: 82db 0dbd cdb2 afbb a29e 54be 0ee1 a4bd
000002e0: 0611 15be 1c1c e3bc add0 1dbe 78fb 8bbd
000002f0: 94b3 863d bc3b 77be c1f8 14be ebba 3fbe
00000300: 6331 a53d a583 72be b1a4 2dbe ebeb 78be
00000310: 18e2 82be 811a 3e3e 3173 213e 1c57 0f3d
00000320: 2474 4cbe bda7 c23c a9e5 433d 8311 fe3d
00000330: e90b 1ebe b65c 403e e575 63be ec0e a53d
00000340: 4f61 a13d 7d5b f2bd 0793 18be ed0a d1bd
00000350: 1f95 51be a9bb b3bd f761 57be 3923 283e
00000360: c025 ef3d b518 1cbe c584 5d3d e749 543e
00000370: 01f5 253e 9c4e ad3d d394 8f3d 3297 71be
00000380: 4382 c7bd 3be2 cdbd 5e38 25be c1a6 ab3c
00000390: 2aaa 623e 799b ec3d c5a6 053c b848 39be
000003a0: 9ba6 5dbe bff4 6dbe b013 f93d 85cb 21be
000003b0: e372 6ebc 32c1 263e 896b 4fbd 7faf 45be
000003c0: 036a 70be 1d9c 62be f534 493e cc1f f4bc
000003d0: 50ab 8e3d 9ff0 84bd f589 45bd a522 f63c
000003e0: f6cc 0c3e 0f69 3bbe 17bc 4ebd aee3 fbbd
000003f0: 6d64 793e 5b69 613e d307 6b3e b705 3ebe

bias f4 [128]
0.24244042 0.22611026 0.015831277 -0.024271693 0.24280705 0.004477516 0.18156412 0.10368299
0.002309086 -0.07004623 -0.03195807 -0.020051097 -0.25262484 -0.0040685334 0.08057616 -0.014528153
-0.22255257 -0.24738835 0.0328328 -0.10574572 0.15692744 -0.0052593523 -0.11814768 -0.18078205
-0.022899125 -0.12447068 0.19012426 -0.19724959 0.13487343 0.13596688 0.15895227 -0.06505412
0.13437411 0.22404006 0.08784956 0.21930718 0.09424938 -0.016816502 0.0057903645 -0.009547411
0.13926199 0.15750462 0.08246193 0.21929476 -0.19473179 0.032656748 0.21679878 -0.022884367
0.05297167 0.040729925 -0.25672 0.11884031 -0.0020800508 -0.023881208 -0.11299944 -0.11495911
-0.03294953 -0.09511936 0.24211764 -0.00907346 -0.15487695 0.0008158622 -0.118732944 0.111192405
-0.007554656 0.117308594 0.05661263 -0.18084936 0.13235667 0.12241487 0.13965917 -0.08892137
-0.17171438 0.02523856 -0.105886705 0.16977997 -0.17687763 -0.0766374 -0.07056488 0.13184349
0.043045957 -0.054081805 0.23550871 -0.06330034 -0.16455999 0.24363393 0.08594084 0.22487953
0.1033045 0.1308937 -0.17918995 0.115708716 0.17350104 -0.23104891 0.11399537 0.012423538
0.19702601 -0.14373359 0.03344305 -0.113249 -0.11064332 0.17177863 0.23706076 0.078305766
-0.16050239 -0.07050478 0.1488827 0.17161639 -0.20119378 -0.0017701995 -0.071113035 0.23063153
-0.004287699 0.18857941 -0.12613122 -0.114510186 0.01768831 0.22834533 0.04010507 -0.15970662
0.19761047 0.22980484 0.120602556 0.22457679 0.16969416 -0.08213637 -0.0021306905 -0.053078003
00000000: 4d42 783e 7389 673e 98b0 813c 6ed5 c6bc
00000010: 69a2 783e 20b8 923b f2eb 393e bf57 d43d
00000020: 0954 173b 6674 8fbd 77e6 02bd 3342 a4bc
00000030: 0b58 81be 5551 85bb 1d05 a53d 7e07 6ebc
00000040: d2e4 63be 5f53 7dbe b07b 063d 3691 d8bd
00000050: 96b1 203e a556 acbb 69f7 f1bd ee1e 39be
00000060: f296 bbbc 7cea febd efaf 423e ccfb 49be
00000070: 431c 0a3e e73a 0b3e 62c4 223e 183b 85bd
00000080: 5e99 093e c26a 653e 78ea b33d 1092 603e
00000090: d205 c13d c3c2 89bc 19bd bd3b bf6c 1cbc
000000a0: b29a 0e3e e448 213e cde1 a83d ce8e 603e
000000b0: c567 47be 15c3 053d 8000 5e3e ff77 bbbc
000000c0: d2f8 583d 6cd4 263d ce70 83be 8c62 f33d
000000d0: 7651 08bb 86a2 c3bc 406c e7bd af6f ebbd
000000e0: 16f6 06bd f0cd c2bd b0ed 773e d9a8 14bc
000000f0: 1098 1ebe 96df 553a 422a f3bd d8b8 e33d
00000100: 0c8d f7bb 7d3f f03d a5e2 673d 9330 39be
00000110: 8288 073e a6b4 fa3d d002 0f3e 681c b6bd
00000120: e5d5 2fbe 19c1 ce3c 21db d8bd cdda 2d3e
00000130: 691f 35be 12f4 9cbd 5284 90bd fb01 073e
00000140: f550 303d e284 5dbd 3229 713e 9ca3 81bd
00000150: 6a82 28be 2c7b 793e c001 b03d d246 663e
00000160: 4f91 d33d 0009 063e 927d 37be b1f8 ec3d
00000170: 42aa 313e 1698 6cbe 6876 e93d 188c 4b3c
00000180: 30c1 493e e62e 13be 94fb 083d 17ef e7bd
00000190: f798 e2bd bde6 2f3e 0ec0 723e c65e a03d
000001a0: bd5a 24be cf64 90bd b574 183e 35bc 2f3e
000001b0: be05 4ebe 0a06 e8ba b6a3 91bd ac2a 6c3e
000001c0: d37f 8cbb f61a 413e 8b28 01be 5184 eabd
000001d0: 13e7 903c 5cd3 693e 3745 243d 228a 23be
000001e0: 665a 4a3e f651 6b3e 79fe f63d 75f7 653e
000001f0: 4ec4 2d3e 1d37 a8bd 0ea3 0bbb 5268 59bd

weight f4 [128, 136]
0.012553627 0.06134575 0.017849162 0.045643266 0.050496824 0.07284976 0.037614908 -0.045381207
0.031772092 0.09114503 -0.03916671 -0.03760351 -0.002264306 -0.0009871869 -0.04422136 0.06874742
-0.015518397 -0.053566493 0.077986345 -0.06069043 0.06819022 0.027374508 -0.044632267 -0.068418734
-0.028438905 0.0070406804 0.07412747 0.08962905 0.02741716 -0.06308089 0.00917579 0.03345726
0.04480509 -0.031110613 0.08761611 0.039380398 -0.04120809 -0.013374717 0.06735738 0.005559778
0.0628471 -0.013101284 0.08444813 0.07208013 -0.06963206 -0.09534205 -0.039432798 -0.03741936
-0.061495382 -0.06607326 -0.089621104 -0.048699886 -0.01028287 0.0020892464 0.00246068 -0.028334303
0.059701156 0.07420851 -0.05741196 -0.023487315 -0.05962082 -0.018127251 -0.0312676 -0.09374853
0.071587354 -0.070290774 -0.06894114 0.07304533 0.05187718 0.014226731 0.009269333 -0.03904053
0.055723883 0.05985414 -0.03275782 -0.026746001 -0.073008 0.012186927 -0.052460697 0.043210346
-0.077314965 -0.059584957 -0.021763174 -0.025643233 -0.026586225 -0.020331588 0.007481331 -0.037319202
0.056539148 0.06345416 -0.09417074 0.030793965 -0.0073997458 0.07056772 -0.07065178 0.08593478
0.04102005 0.07509531 -0.016891142 -0.037214797 -0.059316874 -0.0871302 -0.0670345 -0.02395666
-0.0026122667 -0.03852339 -0.07103375 0.023200372 -0.01352384 0.07715345 0.06794715 0.050350465
0.0049975654 0.06403362 -0.010690897 -0.04882645 -0.038283713 0.06353945 0.088197306 0.022091761
-0.07391688 0.079298094 0.035459667 0.008222731 -0.038668085 -0.026584381 -0.03719782 0.0524574
0.09247989 0.05488845 0.09237023 -0.05920977 0.036246028 -0.07966348 0.05054448 0.029860623
-0.019227285 0.069482215 0.011224216 -0.012285405 -0.051113933 0.010706322 0.073457144 0.05337843
-0.06393767 -0.07002443 0.041405443 -0.061627828 0.00854799 -0.006596096 -0.071598835 0.042118933
0.09188818 -0.041348487 -0.06260062 -0.03721783 -0.008386042 -0.05235711 -0.028774371 -0.056810826
0.05374477 0.0052747135 0.05496871 0.063161656 0.016741866 0.07755782 -0.07841387 0.037500206
0.022930436 0.010336965 -0.03722851 0.06415414 -0.08414075 0.010936976 0.0038111424 0.047856823
-0.032224737 0.0033707134 -0.0038562985 0.07444803 -0.06663339 0.054271422 0.030163636 -0.07379803
-0.022830836 0.05973887 -0.060877983 -0.024413848 -0.08352122 0.07507964 -0.014520246 0.039129063
-0.03425167 -0.04095276 0.022498345 0.012259974 -0.03903731 0.018737134 -0.03296303 -0.026986571
0.036417667 0.029090641 -0.0052569397 0.075446546 -0.016003847 -0.051944315 -0.0108615775 0.007513627
0.039142624 -0.0028913785 -0.011106857 -0.05994153 -0.05973981 -0.041996066 0.070430174 0.08725816
0.06941802 -0.06295668 0.028448606 -0.00040710095 -0.011619473 -0.070718385 0.00012584106 0.08750478
0.09136602 0.06602942 -0.042155627 -0.050307292 -0.060518607 -0.035118885 0.04978649 0.0012274287
-0.06484826 0.05500915 -0.07527645 -0.021173093 0.019042855 -0.00544577 0.059587363 0.058455147
-0.0013716316 -0.014343125 -0.003255663 0.012408569 -0.004050668 -0.06940977 0.038044456 0.004280483
-0.045491096 -0.05627073 0.07557709 0.0021414908 0.008634294 0.003013471 0.022154545 -0.04365221
00000000: baad 4d3c ae45 7b3d 6838 923c 6ff4 3a3d
00000010: c2d5 4e3d 4132 953d 1712 1a3d a5e1 39bd
00000020: 7423 023d 3faa ba3d 466d 20bd 2306 1abd
00000030: c064 14bb 7f64 81ba 7521 35bd 73cb 8c3d
00000040: e040 7ebc 8a68 5bbd 4eb7 9f3d 8796 78bd
00000050: 50a7 8b3d 8140 e03c 53d0 36bd 1f1f 8cbd
00000060: b5f8 e8bc 82b5 e63b 25d0 973d 6f8f b73d
00000070: f499 e03c 8e30 81bd 0d56 163c 7b0a 093d
00000080: 8b85 373d afdb febc 1370 b33d 574d 213d
00000090: d0c9 28bd a121 5bbc abf2 893d cc2e b63b
000000a0: fbb5 803d c5a6 56bc 24f3 ac3d bf9e 933d
000000b0: 419b 8ebd b142 c3bd 4984 21bd 0b45 19bd
000000c0: 95e2 7bbd 6b51 87bd 458b b7bd 8879 47bd
000000d0: 7c79 28bc bdeb 083b 5c43 213b 571d e8bc
000000e0: 3389 743d a2fa 973d ce28 6bbd 7868 c0bc
000000f0: f634 74bd 9a7f 94bc 7412 00bd 3bff bfbd
00000100: 649c 923d 9cf4 8fbd 0331 8dbd ca98 953d
00000110: 2a7d 543d 3c17 693c 67de 173c f6e8 1fbd
00000120: ba3e 643d 9d29 753d 102d 06bd 6e1a dbbc
00000130: 3885 95bd adab 473c 07e1 56bd 55fd 303d
00000140: 4f57 9ebd 5b0f 74bd af48 b2bc c211 d2bc
00000150: 5bcb d9bc 6e8e a6bc f425 f53b 05dc 18bd
00000160: 9895 673d 41f4 813d 97dc c0bd a043 fc3c
00000170: 9179 f2bb cf85 903d e1b1 90bd 93fe af3d
00000180: a404 283d 92cb 993d 4b5f 8abc 8b6e 18bd
00000190: 40f6 72bd 5171 b2bd 6249 89bd c240 c4bc
000001a0: 9032 2bbb b4ca 1dbd 257a 91bd b50e be3c
000001b0: 1993 5dbc a102 9e3d e027 8b3d 4a3c 4e3d
000001c0: 9ec2 a33b 0f24 833d df28 2fbc 3efe 47bd
000001d0: 62cf 1cbd f920 823d caa0 b43d c8f9 b43c
000001e0: bc61 97bd 0a67 a23d 283e 113d a2b8 063c
000001f0: 6d62 1ebd 7dc7 d9bc be5c 18bd 92dd 563d
00000200: 1966 bd3d b6d2 603d 9a2c bd3d f285 72bd
00000210: b776 143d 9b26 a3bd bb07 4f3d 449e f43c
00000220: 8a82 9dbc b14c 8e3d c6e5 373c b948 49bc
00000230: d85c 51bd 9269 2f3c b370 963d 57a3 5a3d
00000240: c1f1 82bd f868 8fbd c198 293d 766d 7cbd
00000250: de0c 0c3c 1024 d8bb 69a2 92bd e784 2c3d
00000260: df2f bc3d 085d 29bd c134 80bd b971 18bd
00000270: 9c65 09bc 6974 56bd 3bb8 ebbc 78b2 68bd
00000280: 7a23 5c3d 81d7 ac3b df26 613d e65a 813d
00000290: 3d26 893c a2d6 9e3d 7397 a0bd d199 193d
000002a0: 9cd8 bb3c 605c 293c ec7c 18bd 3f63 833d
000002b0: fc51 acbd 0131 333c 5cc4 793b 8405 443d
000002c0: 16fe 03bd 30e7 5c3b f4b9 7cbb 3578 983d
000002d0: 1677 88bd b64b 5e3d bb19 f73c 6c23 97bd
000002e0: bc07 bbbc bfb0 743d 315b 79bd 8dff c7bc
000002f0: 2c0d abbd 5bc3 993d 53e6 6dbc cc45 203d
00000300: 7b4b 0cbd 15be 27bd 734e b83c 0fde 483c
00000310: 96e5 1fbd 9e7e 993c 3e04 07bd f112 ddbc
00000320: b12a 153d 7f4f ee3c 6842 acbb b883 9a3d
00000330: 801a 83bc 90c3 54bd c2f4 31bc df34 f63b
00000340: 0454 203d 487d 3dbb 89f9 35bc 4085 75bd
00000350: bbb1 74bd 1104 2cbd b23d 903d 68b4 b23d
00000360: 092b 8e3d 6fef 80bd 0d0d e93c 2a70 d5b9
00000370: 9a5f 3ebc cdd4 90bd 34f4 0339 b535 b33d
00000380: 1c1e bb3d 6f3a 873d 61ab 2cbd 050f 4ebd
00000390: 5ce2 77bd d2d8 0fbd ebec 4b3d ace1 a03a
000003a0: 2acf 84bd 4651 613d 8a2a 9abd 3273 adbc
000003b0: c3ff 9b3c 6e72 b2bb e111 743d aa6e 6f3d
000003c0: 52c8 b3ba 6dff 6abc f65c 55bb 504d 4b3c
000003d0: 77bb 84bb b626 8ebd 81d4 1b3d 4b43 8c3b
000003e0: df54 3abd 237c 66bd 29c8 9a3d 4158 0c3b
000003f0: db76 0d3c a77d 453b 737d b53c a9cc 32bd

bias f4 [128]
-0.012689048 -0.042603295 0.0060046157 -0.035565633 -0.040315595 0.019750023 -0.051286977 -0.0058173356
0.009639929 -0.031016797 0.06947165 -0.08048466 -0.046737228 0.03744612 0.03914699 -0.06792726
-0.06312297 -0.021055464 -0.030819809 0.04582361 0.052572746 0.08636077 0.05068412 0.013541228
0.07743996 -0.06079806 -0.03702424 -0.045695122 0.05655826 -0.037097603 0.07031937 0.03193016
-0.016391858 0.035392657 0.06640866 0.057731666 0.03539287 0.040725026 -0.078253984 -0.008486468
0.0936566 0.003057035 -0.040278263 -0.017487219 -0.029455166 0.03278508 0.0152387805 0.07631577
0.08426877 -0.025503851 0.07443288 -0.045067597 0.0051717097 -0.004714753 -0.03492379 0.0262955
-0.035160646 -0.005488573 0.08944612 -0.07255339 -0.048463322 -0.047284164 0.0028749374 -0.058881044
0.057584543 0.026552644 0.08084822 -0.07125295 0.0411451 -0.033113003 0.024825666 0.03887116
-0.0582588 0.066721566 -0.026613016 0.0007124544 -0.04489994 -0.067731164 -0.038043827 -0.0029205214
-0.07124429 0.07288309 0.09273853 0.031232538 -0.03728168 -0.046508085 -0.055827104 -0.051485226
0.043676957 -0.050144505 -0.07168346 -0.011218614 0.05986539 -0.03051702 -0.007937 -0.024842435
0.009045295 -0.062868185 -0.011146307 0.04783274 0.050126813 -0.069305256 0.056684658 -0.05603391
0.008908484 -0.059966955 0.0676765 -0.018464187 0.07152964 -0.06009833 -0.0069355434 -0.057212126
-0.01329906 -0.053870637 -0.05613569 -0.04437939 0.06972898 0.034109946 0.050040707 0.02128225
-0.04152627 0.0467052 -0.007719021 -0.0025055807 0.020202711 -0.080952615 0.043656785 -0.07675582
00000000: bae5 4fbc cb80 2ebd 5ec2 c43b 45ad 11bd
00000010: f721 25bd cdca a13c 4b12 52bd 599f bebb
00000020: cbf0 1d3c f016 febc 2747 8e3d 24d5 a4bd
00000030: 896f 3fbd 1a61 193d 9858 203d 731d 8bbd
00000040: 9e46 81bd 827c acbc d379 fcbc 8ab1 3b3d
00000050: 8556 573d eadd b03d 279a 4f3d 07dc 5d3c
00000060: d798 9e3d 6307 79bd bba6 17bd cf2a 3bbd
00000070: a2a9 673d a8f3 17bd 9a03 903d 33c9 023d
00000080: 3848 86bc e4f7 103d 4301 883d 0a78 6c3d
00000090: 1df8 103d 49cf 263d a043 a0bd d40a 0bbc
000000a0: 08cf bf3d 8958 483b d2fa 24bd 5b41 8fbc
000000b0: f64b f1bc a649 063d 14ac 793c 714b 9c3d
000000c0: 1b95 ac3d 74ed d0bc 4470 983d cd98 38bd
000000d0: 7277 a93b 377e 9abb 3f0c 0fbd a969 d73c
000000e0: 9c04 10bd 7dd9 b3bb 872f b73d df96 94bd
000000f0: 7a81 46bd 0aad 41bd 7269 3c3b 402d 71bd
00000100: c5dd 6b3d ee84 d93c c093 a53d 11ed 91bd
00000110: c487 283d 80a1 07bd 325f cb3c 5e37 1f3d
00000120: c8a0 6ebd 51a5 883d 8a03 dabc 01c4 3a3a
00000130: 00e9 37bd a3b6 8abd d8d3 1bbd 3866 3fbb
00000140: 87e8 91bd bb43 953d b3ed bd3d 61db ff3c
00000150: adb4 18bd 437f 3ebd f6aa 64bd 2ce2 52bd
00000160: 9ce6 323d 5364 4dbd c7ce 92bd 47ce 37bc
00000170: 6935 753d d4fe f9bc 310a 02bc 5d82 cbbc
00000180: b832 143c 09c1 80bd 009f 36bc 43ec 433d
00000190: c651 4d3d eaef 8dbd 2c2e 683d d083 65bd
000001a0: e4f4 113c e99f 75bd fa99 8a3d 3542 97bc
000001b0: 227e 923d ab29 76bd 8e43 e3bb 4357 6abd
000001c0: 4de4 59bc 75a7 5cbd 8aee 65bd 2ac7 35bd
000001d0: 11ce 8e3d dfb6 0b3d 7cf7 4c3d 1d58 ae3c
000001e0: 7317 2abd f44d 3f3d d7ef fcbb ab34 24bb
000001f0: 2880 a53c 7cca a5bd 75d1 323d 2832 9dbd

weight f4 [128, 136]
-0.003045712 -0.041243967 0.029679112 0.0177423 0.0075244065 -0.023774607 0.070532314 0.029616939
-0.07298273 0.045740314 0.062496707 -0.06769509 0.074683905 -0.03692677 -0.08805792 0.0034081822
0.0206035 -0.037713554 -0.07514123 -0.05745456 -0.026944382 0.032104142 0.0051109185 -0.071981855
-0.062053274 0.029723309 -0.032650415 -0.08348458 0.028243456 0.023958737 0.0012221008 0.048191577
-0.04879648 -0.024874948 -0.031451277 0.0041384487 -0.0074521923 -0.028437434 0.074329205 0.031266328
0.032084268 0.06418056 0.030806527 -0.0049861027 -0.018237665 0.07485662 0.0036775179 0.03551215
-0.080787376 0.051981945 0.06350877 0.06612132 -0.056148123 -0.064208716 -0.057947922 -0.07097245
0.044113263 0.008409491 -0.053588144 -0.057380106 0.017377868 0.058479976 0.043915413 0.08366516
0.0629451 -0.022733608 -0.07760219 0.021849373 0.07144717 0.013337506 0.012346753 -0.044201836
0.0060140714 -0.029377962 0.049569156 0.05464751 -0.035615556 0.041515607 0.0071936026 -0.037757233
-0.012825004 0.023723474 0.047568012 0.006789161 0.020015843 0.036006365 0.021667803 -0.017304327
0.02836674 -0.07393335 0.05220148 0.020764692 0.050431218 -0.059976716 -0.047511816 -0.06541717
0.024771793 0.037821308 -0.043186218 -0.07483448 0.08368718 -0.053623237 0.013161235 -0.08165366
-0.019571625 -0.078630984 0.03806667 0.047661923 -0.063723266 0.03371534 -0.0016832675 -0.0149368895
0.038968615 0.062173046 0.039787177 0.0018454039 0.02516178 0.03545821 -0.039609976 -0.032230895
-0.021077184 -0.03630956 -0.06348555 0.055360444 -0.040309 0.06108201 -0.025318883 0.033074763
-0.060550787 -0.005829472 -0.07053852 0.0950703 0.005252115 -0.027767783 0.049058132 0.07104152
0.08356553 -0.035769567 0.084941775 0.0707484 -0.037113857 0.010853045 -0.077502765 -0.03879711
-0.0136351045 -0.056470424 -0.06556739 0.050590497 0.050536152 0.020461565 -0.08331979 0.040801033
-0.07330732 0.06929699 0.056613825 0.022747636 -0.051522605 -0.04532582 0.030013837 0.073083825
0.049399666 0.0060255527 0.06717419 0.055890273 -0.018515412 0.038956907 -0.006867938 0.002089617
0.032983385 -0.050265566 -0.041848015 0.075457186 0.00817951 0.078498475 -0.016636476 0.051498763
-0.073113196 -0.064188115 0.016123971 0.058048505 -0.0728105 0.028765898 0.06632645 0.03332838
0.051233 0.07881181 0.033663787 0.015762834 -0.08497813 0.020694297 0.05766684 -0.077982284
0.030300789 0.08111063 0.08035819 -0.08371093 0.0152065065 -0.06421991 -0.060203973 -0.03258207
0.0628813 -0.049574267 0.019892376 -0.0044158385 0.045355618 0.021472123 -0.0723951 -0.06509441
-0.029662166 0.03676247 -0.083885685 0.08146577 -0.043134663 -0.048288558 -0.06115949 -0.066655904
-0.053930327 -0.056475554 0.06948875 0.0031764386 -0.08584315 -0.076943964 0.035088867 -0.022100637
-0.0015453043 -0.05609005 -0.08934146 -0.06706895 0.047856733 -0.054729052 -0.02185205 0.06333196
-0.0370925 0.057719808 -0.05384729 -0.0005322074 -0.029269068 -0.02167931 0.033055343 0.023131426
-0.06162422 -0.015079742 0.028252123 -0.0071892757 -0.07862643 0.04075819 0.052592535 -0.052101173
0.08242937 0.004921247 -0.01433268 -0.07056169 0.0073953792 0.028684342 0.010075304 0.0058745365
00000000: 919a 47bb 6fef 28bd 9c21 f33c 4d58 913c
00000010: 4c8f f63b f7c2 c2bc 3f73 903d 399f f23c
00000020: f877 95bd 325a 3b3d 8cfc 7f3d b9a3 8abd
00000030: e0f3 983d 8640 17bd b657 b4bd cf5b 5f3b
00000040: acc8 a83c 8779 1abd a5e3 99bd 7955 6bbd
00000050: 77ba dcbc a27f 033d 7e79 a73b 396b 93bd
00000060: 932b 7ebd 4c7e f33c 71bc 05bd f7f9 aabd
00000070: d25e e73c 1d45 c43c e62e a03a 8864 453d
00000080: d1de 47bd 8cc6 cbbc 0ed3 00bd d39b 873b
00000090: 8531 f4bb 9ff5 e8bc e939 983d 1f11 003d
000000a0: cb6a 033d 1971 833d f85d fc3c 7662 a3bb
000000b0: 2867 95bc 6d4e 993d 8302 713b 3075 113d
000000c0: da73 a5bd 05eb 543d e310 823d 9d6a 873d
000000d0: 93fb 65bd dc7f 83bd cd5a 6dbd 015a 91bd
000000e0: 1cb0 343d f6c7 093c 3e7f 5bbd 6707 6bbd
000000f0: 085c 8e3c b388 6f3d a6e0 333d a458 ab3d
00000100: 5ce9 803d d53b babc e6ed 9ebd 75fd b23c
00000110: e552 923d 8e85 5a3c 094a 4a3c fc0c 35bd
00000120: b011 c53b 0daa f0bc 0709 4b3d 11d6 5f3d
00000130: 9ee1 11bd 450c 2a3d 50b8 eb3b 54a7 1abd
00000140: f71f 52bc bb57 c23c add6 423d 9c77 de3b
00000150: 44f8 a33c 697b 133d ad80 b13c cec1 8dbc
00000160: 5e61 e83c 5e6a 97bd 38d1 553d b71a aa3c
00000170: f790 4e3d 25aa 75bd c09b 42bd 70f9 85bd
00000180: 37ee ca3c 84ea 1a3d 08e4 30bd d242 99bd
00000190: 2f64 ab3d 0aa4 5bbd 38a2 573c 093a a7bd
000001a0: ac54 a0bc 4809 a1bd cceb 1b3d 2639 433d
000001b0: 5881 82bd 1919 0a3d 16a1 dcba dbb9 74bc
000001c0: 8e9d 1f3d 2aa9 7e3d e1f7 223d 7be1 f13a
000001d0: 1420 ce3c a13c 113d 123e 22bd 8b04 04bd
000001e0: 0faa acbc 55b9 14bd b604 82bd a2c1 623d
000001f0: 0d1b 25bd 2131 7a3d 8c69 cfbc 6779 073d
00000200: 1a04 78bd 2805 bfbb 8076 90bd 38b4 c23d
00000210: ef19 ac3b 4379 e3bc 2ef1 483d 377e 913d
00000220: 6824 ab3d 1c83 12bd f4f5 ad3d 8ae4 903d
00000230: b304 18bd f8d0 313c c5b9 9ebd b8e9 1ebd
00000240: c665 5fbc 884d 67bd 3248 86bd fb37 4f3d
00000250: fffe 4e3d 039f a73c 91a3 aabd fc1e 273d
00000260: 2622 96bd 95eb 8d3d e6e3 673d 4059 ba3c
00000270: 5e09 53bd 91a7 39bd 94df f53c f9ac 953d
00000280: 4e57 4a3d 0072 c53b 9f92 893d 33ed 643d
00000290: a2ad 97bc 4791 1f3d 710c e1bb f5f1 083b
000002a0: 9619 073d 44e3 4dbd d368 2bbd 4c89 9a3d
000002b0: 5a03 063c cfc3 a03d 3849 88bc 5ef0 523d
000002c0: 5fbc 95bd 0f75 83bd 6b16 843c 45c4 6d3d
000002d0: ac1d 95bd 76a6 eb3c 29d6 873d 5783 083d
000002e0: b2d9 513d 1668 a13d 0ae3 093d 0f21 813c
000002f0: 0409 aebd 1687 a93c 1034 6c3d 2db5 9fbd
00000300: 5c39 f83c 541d a63d d692 a43d a370 abbd
00000310: b624 793c ba85 83bd 7198 76bd c774 05bd
00000320: e9c7 803d 630e 4bbd 56f5 a23c bdb2 90bb
00000330: d0c6 393d 4ee6 af3c e243 94bd 3850 85bd
00000340: 12fe f2bc 3e94 163d 42cc abbd 87d7 a63d
00000350: f9ad 30bd 39ca 45bd 6082 7abd e482 88bd
00000360: 0ce6 5cbd e952 67bd 1e50 8e3d cc2b 503b
00000370: 89ce afbd cc94 9dbd 58b9 0f3d 650c b5bc
00000380: cf8b caba aebe 65bd a8f8 b6bd 725b 89bd
00000390: 6c05 443d 922b 60bd 1203 b3bc 30b4 813d
000003a0: 4eee 17bd 9b6b 6c3d fa8e 5cbd d683 0bba
000003b0: afc5 efbc cf98 b1bc 0a65 073d 1e7e bd3c
000003c0: ae69 7cbd 0611 77bc ff70 e73c 0494 ebbb
000003d0: e506 a1bd 0ff2 263d 456b 573d 0a68 55bd
000003e0: bbd0 a83d 6942 a13b 9ed3 6abc a682 90bd
000003f0: f054 f23b 6dfb ea3c e312 253c 2f7f c03b

bias f4 [128]
-0.05151691 0.0346686 -0.028435148 -0.023483178 -0.0104936715 -0.073102094 -0.05320556 0.059548642
0.04948387 -0.019322075 0.072972365 -0.025241543 -0.072611995 -0.07284344 -0.061466575 -0.04104349
0.075378835 0.041439824 0.029812204 -0.039876003 -0.059035387 -0.06743972 -0.02412196 -0.031098288
-0.0051950742 -0.071697205 0.00013587961 -0.07841894 -0.009696314 0.05377077 0.010353038 -0.08990007
-0.05121667 0.025722768 0.0096011935 0.09316089 0.013308709 -0.02013301 -0.08230892 0.040580634
-0.016349733 -0.045823626 0.06156886 0.008410863 0.056178782 -0.00850594 -0.013650606 -0.026443776
0.07890471 -0.008104045 0.053873695 -0.047549896 0.013744234 0.06405899 -0.0059825056 0.03137783
-0.064230785 -0.0895119 -0.07168032 -0.045654546 0.024020275 -0.016450098 -0.008219759 -0.07400493
-0.07552767 0.03715832 -0.019991202 0.076891094 -0.06294274 0.06231472 -0.018425843 -0.023634054
0.03802067 -0.02807746 -0.052210845 0.02616322 0.011587329 0.009281745 0.07011642 0.008931957
-0.014047715 0.08142174 -0.047025528 0.017588349 -0.048074808 -0.08581063 -0.09307324 0.005420756
0.039583165 -0.04064925 0.008791992 -0.09107732 0.051827453 0.066909544 -0.05522385 -0.01912652
-0.019184578 0.047878575 -0.027614815 0.049271557 0.07954036 0.0004109796 -0.04820006 0.07391016
0.07448534 0.025475785 0.07906068 0.050457798 0.045178752 0.0022504258 -0.0351049 -0.072904214
0.09073252 -0.05153298 0.04084309 -0.04472266 0.03338087 0.019830516 0.05235356 -0.07316895
0.04883486 -0.087278314 0.062493548 -0.08273348 0.03813946 0.07869072 0.02686391 -0.014181715
00000000: 6503 53bd a900 0e3d d4f0 e8bc cb5f c0bc
00000010: a6ed 2bbc 8db6 95bd 13ee 59bd 47e9 733d
00000020: 99af 4a3d 5449 9ebc 8972 953d 5ac7 cebc
00000030: 99b5 94bd f12e 95bd 60c4 7bbd 381d 28bd
00000040: 3860 9a3d cebc 293d b938 f43c 0555 23bd
00000050: 17cf 71bd d61d 8abd 6b9b c5bc d6c1 febc
00000060: 713b aabb fcd5 92bd e87a 0e39 1c9a a0bd
00000070: 4add 1ebc bd3e 5c3d ca9f 293c 871d b8bd
00000080: 92c8 51bd 8eb8 d23c 534e 1d3c 23cb be3d
00000090: c50c 5a3c fbed a4bc 9491 a8bd e137 263d
000000a0: e0ef 85bc 8eb1 3bbd a12f 7c3d b7cd 093c
000000b0: b91b 663d 805c 0bbc cba6 5fbc 9ea0 d8bc
000000c0: cb98 a13d d4c6 04bc aaaa 5c3d aec3 42bd
000000d0: 7f2f 613c 5c31 833d e508 c4bb 0a86 003d
000000e0: 6e8b 83bd 0452 b7bd 22cd 92bd 4300 3bbd
000000f0: 2bc6 c43c 5bc2 86bc 2bac 06bc e68f 97bd
00000100: 40ae 9abd 5333 183d 97c4 a3bc 1479 9d3d
00000110: 20e8 80bd b83d 7f3d cbf1 96bc 349c c1bc
00000120: 90bb 1b3d b402 e6bc 0adb 55bd 4054 d63c
00000130: c8d8 3d3c 7612 183c 3399 8f3d 5857 123c
00000140: 6328 66bc 71c0 a63d d79d 40bd 7115 903c
00000150: 17ea 44bd 7cbd afbd 2f9d bebd 99a0 b13b
00000160: f521 223d d47f 26bd 4a0c 103c bf86 babd
00000170: 0649 543d df07 893d 6732 62bd 38af 9cbc
00000180: fa28 9dbc 531c 443d 7738 e2bc f9d0 493d
00000190: 0ee6 a23d c078 d739 6d6d 45bd 365e 973d
000001a0: c58b 983d 98b2 d03c 91ea a13d d6ac 4e3d
000001b0: 5b0d 393d e17b 133b 28ca 0fbd ce4e 95bd
000001c0: f9d1 b93d 3f14 53bd 154b 273d 1c2f 37bd
000001d0: 61ba 083d 9b73 a23c b070 563d 9ad9 95bd
000001e0: 1007 483d f9be b2bd 3cf9 7f3d 2c70 a9bd
000001f0: 1f38 1c3d 9a28 a13d b411 dc3c 6d5a 68bc

weight f4 [128, 256]
0.057092056 -0.019057361 -0.049616303 0.034592453 -0.045791928 0.040440403 0.011487635 0.047940515
0.02922189 0.029790232 -0.015166412 -0.010006434 0.04939888 0.05659655 -0.012843063 0.04010045
0.038577277 0.017910829 -0.018929558 -0.019814499 -0.04973426 -0.001298626 0.015317161 -0.047836468
-0.03431202 -0.00043939508 0.02774936 0.07058582 0.008349067 0.017291548 -0.00523913 -0.006239374
0.0015221853 -0.0055004307 -0.05664598 0.00081011135 -0.00045475105 -0.029814823 -0.03168563 -0.0037222423
-0.0050122365 -0.00889697 0.017132355 -0.020817995 0.020350436 0.052547038 -0.06883827 0.04128844
-0.0036358049 0.06196206 -0.024228534 -0.038398925 0.02332716 0.058761306 -0.005078299 0.009998813
0.0133915 -0.013486449 0.0048272773 0.0007366878 0.058209408 -0.0036101725 -0.028339865 -0.0245754
-0.026524207 -0.05556811 0.0042483993 0.03564036 0.040529568 0.009930124 0.04226844 0.021941224
-0.023955759 -0.03718545 -0.0023009568 0.0675611 -0.013268761 0.008279773 0.06250526 0.024337418
0.05290017 -0.026480602 -0.02671815 -0.05709159 -0.02635638 -0.041268684 0.05197701 -0.05811652
0.04654573 0.047088128 -0.0032327313 -0.02444735 -0.014718602 0.050406493 -0.020729728 -0.032920297
0.050605416 -0.029610837 -0.061196074 0.05933215 -0.04521131 -0.032738566 -0.013049474 0.029413337
-0.043253943 0.031251296 -0.03909979 0.068121254 -0.048770458 -0.052850924 0.041031923 -0.04811002
0.0048777545 0.050713316 -0.019392041 -0.052613795 0.04056227 0.012545034 -0.030628627 -0.030495983
0.067952216 0.015330284 -0.023668103 0.043900058 0.072023235 0.03242642 0.007047657 -0.039172936
0.06394649 -0.044477466 -0.043437734 -0.01171631 -0.027121972 -0.010503133 0.0038452866 0.041728187
-0.023623314 0.017860536 0.06417325 -0.035872553 0.030455733 0.028651116 0.02413159 0.049477812
0.042874962 0.009904355 0.04347307 0.009635315 -0.017847236 0.06249251 0.03017044 0.016025055
0.00777848 0.008575855 0.015139666 -0.030425142 -0.05409867 0.021604076 -0.037333217 0.0113579
-0.051594503 -0.04733535 -0.0689614 0.0075828717 -0.013993589 0.06626104 0.066784404 -0.0071675666
-0.052521084 -0.011130779 0.061327815 0.04204501 -0.06533804 -0.026178958 -0.039423972 -0.026739737
0.038793515 -0.03438959 0.040796965 0.02742732 -0.012131795 0.035304073 -0.02276858 -0.06791282
0.014341705 -0.031606156 -0.038862508 -0.02584699 0.03755008 0.0036994927 -0.03508223 -0.047479242
0.05667098 0.003937205 -0.042488433 -0.036493074 -0.0010094454 -0.016190492 0.044101797 -0.047490865
-0.008953372 0.04633091 0.05232342 0.009449016 0.071490414 -0.042706516 0.0004994659 -0.02500903
0.03911857 0.0075088413 0.055041138 -0.007278525 -0.056741755 -0.05343821 -0.04348356 0.03500879
-0.028393997 0.019950662 -0.048311006 0.067690745 0.0012724255 0.044386595 0.013475186 0.04394557
-0.036532026 -0.021471675 0.017511245 -0.007687688 0.035335727 -0.0063430234 0.02350015 -0.049070034
0.041962434 0.06842854 -0.029514762 0.03259491 -0.06031775 -0.033394475 0.0013456407 0.019696947
-0.04803685 -0.033129413 -0.037479483 0.050623786 0.051512584 -0.044614952 0.022435738 -0.032914314
-0.015072672 0.0070891823 0.022059675 0.046681143 -0.027224489 0.03507819 -0.027257204 -0.018336507
00000000: 5cd9 693d 2f1e 9cbc 773a 4bbd d1b0 0d3d
00000010: 5190 3bbd d6a4 253d a236 3c3c 465d 443d
00000020: bf62 ef3c a50a f43c 8b7c 78bc 07f2 23bc
00000030: 7b56 4a3d c9d1 673d b66b 52bc 5f40 243d
00000040: 3503 1e3d bbb9 923c 2912 9bbc 0452 a2bc
00000050: 27b6 4bbd a836 aaba d4f4 7a3c 2cf0 43bd
00000060: c38a 0cbd 9c5e e6b9 a052 e33c 4c8f 903d
00000070: 86ca 083c 01a7 8d3c 02ad abbb aa73 ccbb
00000080: 1084 c73a f53c b4bb 9d05 68bd a75d 543a
00000090: a76b eeb9 373e f4bc cbc8 01bd ddf0 73bb
000000a0: b03d a4bb 99c4 11bc 2759 8c3c 808a aabc
000000b0: f5b5 a63c 903b 573d 14fb 8cbd 111e 293d
000000c0: af46 6ebb eecb 7d3d eb7a c6bc 3148 1dbd
000000d0: 9a18 bf3c b2af 703d dc67 a6bb 10d2 233c
000000e0: 0668 5b3c 44f6 5cbc 232e 9e3b 481e 413a
000000f0: fd6c 6e3d a598 6cbb 0129 e8bc 5952 c9bc
00000100: 4b49 d9bc 639b 63bd 2836 8b3b a0fb 113d
00000110: 5502 263d f5b1 223c ac21 2d3d 15be b33c
00000120: de3e c4bc c54f 18bd a6cb 16bb 795d 8a3d
00000130: 3865 59bc e3a7 073c c202 803d 445f c73c
00000140: d9ad 583d d9ed d8bc 06e0 dabc dfd8 69bd
00000150: 56e9 d7bc 5a09 29bd d8e5 543d 970b 6ebd
00000160: bca6 3e3d 7bdf 403d 3bdc 53bb cf45 c8bc
00000170: 4b26 71bc 0a77 4e3d 64d1 a9bc 6fd7 06bd
00000180: a047 4f3d 6d92 f2bc bca8 7abd 4506 733d
00000190: 7f2f 39bd e018 06bd 76cd 55bc 3df4 f03c
000001a0: 0c2b 31bd 5c01 003d 1a27 20bd 2883 8b3d
000001b0: 88c3 47bd 367a 58bd 1711 283d 030f 45bd
000001c0: 92d5 9f3b c4b8 4f3d 0fdc 9ebc 9081 57bd
000001d0: 9f24 263d b089 4d3c e3e8 fabc b6d2 f9bc
000001e0: 882a 8b3d df2b 7b3c 9ce3 c1bc 8cd0 333d
000001f0: eb80 933d 91d1 043d 08f0 e63b cd73 20bd
00000200: 61f6 823d 012e 36bd c4eb 31bd c4f5 3fbc
00000210: e62e debc 5515 2cbc 3401 7c3b 2deb 2a3d
00000220: ae85 c1bc 4250 923c 446d 833d 19ef 12bd
00000230: 4d7e f93c bfb5 ea3c 9daf c53c 3fa9 4a3d
00000240: a89d 2f3d e045 223c d110 323d 71dd 1d3c
00000250: 5e34 92bc 25f8 7f3d 0028 f73c fa46 833c
00000260: 9fe2 fe3b be81 0c3c 5d0c 783c 263e f9bc
00000270: 9196 5dbd 08fb b03c b7ea 18bd 7c16 3a3c
00000280: c254 53bd b6e2 41bd a23b 8dbd bd79 f83b
00000290: 5e45 65bc deb3 873d 43c6 883d e8dd eabb
000002a0: 5920 57bd df5d 36bc e032 7b3d 6337 2c3d
000002b0: f3cf 85bd 4175 d6bc 087b 21bd 4b0d dbbc
000002c0: f3e5 1e3d 19dc 0cbd b81a 273d 42af e03c
000002d0: 70c4 46bc 019b 103d 2c85 babc e015 8bbd
000002e0: 78f9 6a3c 7575 01bd 4b2e 1fbd 11bd d3bc
000002f0: 1dce 193d 3073 723b 62b2 0fbd 9879 42bd
00000300: d41f 683d ab03 813b 5a08 2ebd c379 15bd
00000310: 5e4f 84ba eca1 84bc 16a4 343d c885 42bd
00000320: 2ab1 12bc 7bc5 3d3d 1551 563d 0cd0 1a3c
00000330: 9169 923d 07ed 2ebd 97ee 023a bddf ccbc
00000340: cb3a 203d ba0c f63b d172 613d b180 eebb
00000350: 0b6a 68bd 06e2 5abd d11b 32bd 6165 0f3d
00000360: 879a e8bc 926f a33c c3e1 45bd 72a1 8a3d
00000370: 84c7 a63a b8ce 353d 07c7 5c3c 4500 343d
00000380: 9ba2 15bd 5ee5 afbc be73 8f3c 00e9 fbbb
00000390: 32bc 103d 23d9 cfbb 6383 c03c a9fd 48bd
000003a0: cde0 2b3d 4324 8c3d f1c8 f1bc 3e82 053d
000003b0: bf0f 77bd a5c8 08bd 3660 b03a 7e5b a13c
000003c0: 4ac2 44bd b5b2 07bd 1684 19bd e35a 4f3d
000003d0: dcfe 523d 2bbe 36bd 27cb b73c 29d1 06bd
000003e0: 5ef3 76bc 5f4c e83b 7eb6 b43c ba34 3f3d
000003f0: e405 dfbc 26ae 0f3d 804a dfbc 7136 96bc

bias f4 [128]
0.03409993 -0.059803747 0.023716314 0.035071705 -0.009021889 0.011184787 -0.007875567 -0.025180103
0.017664509 -0.04898923 0.044427823 0.06597432 0.03061026 0.047680993 -0.028585646 0.045182623
0.032816216 0.04793287 -0.04772943 -0.02531847 0.008434121 0.06143417 -0.057992514 0.018284226
0.02379532 0.057247963 -0.040212378 -0.033451576 -0.021999637 -0.058910657 0.02938336 -0.0579797
-0.03627432 -0.0031191618 -0.04427622 -0.015257785 -0.05062331 -0.035785966 -0.039772388 0.021417473
-0.018949775 -0.01023986 0.036738034 -0.037000835 0.04089849 0.047794413 0.0005680794 -0.018844936
0.028510014 -0.030061737 0.0027181676 -0.014568614 0.007545552 -0.046441365 0.010529218 -0.022099042
-0.002787144 -0.04575516 -0.04777534 -0.012003489 0.06334863 0.05775794 -0.020492844 -0.044097442
-0.0629132 -0.003945153 -0.061882667 -0.010750095 0.018888768 -0.029538691 -0.06154715 0.00839538
-0.056951065 -0.025288777 0.0384496 0.040220857 0.04436857 -0.055205286 -0.021298999 0.042462785
-0.0073008495 -0.009445964 0.058782134 0.040917803 0.0064847055 0.03491569 0.037683293 0.011513666
-0.008169851 -0.047919206 0.014099319 0.022876827 0.058491454 -0.03382196 0.029781662 0.030518832
0.0023418511 0.02788878 -0.012444879 0.027480055 0.023517918 0.028573595 0.027211487 -0.04191743
-0.030966902 -0.014502341 0.03882558 0.054753654 0.0010469812 0.036874212 0.005017563 0.061031997
-0.060724583 0.01052546 -0.050846267 0.0041744513 -0.050646868 0.013476027 0.0024942856 0.031318545
0.030158145 -0.015245594 0.01832753 0.029225083 -0.022572944 -0.03149986 0.0024760943 -0.014713992
00000000: 5eac 0b3d c6f4 74bd b748 c23c 59a7 0f3d
00000010: 8cd0 13bc 6640 373c 8608 01bc 8146 cebc
00000020: 29b5 903c eea8 48bd f3f9 353d 8b1d 873d
00000030: 5ec2 fa3c 254d 433d 722c eabc 6a11 393d
00000040: 4c6a 063d 4255 443d ef7f 43bd ae68 cfbc
00000050: 442f 0a3c 65a2 7b3d 8f89 6dbd cdc8 953c
00000060: 67ee c23c d77c 6a3d bcb5 24bd 8504 09bd
00000070: 9538 b4bc 4d4c 71bd 5fb5 f03c 1f7c 6dbd
00000080: 6294 14bd da6a 4cbb fb5a 35bd cafb 79bc
00000090: 635a 4fbd 4e94 12bd 5fe8 22bd b273 af3c
000000a0: 8f3c 9bbc 16c5 27bc 9f7a 163d 308e 17bd
000000b0: 2d85 273d 13c4 433d 2aeb 143a b260 9abc
000000c0: d58d e93c 0844 f6bc 4923 323b 32b1 6ebc
000000d0: ae40 f73b 4d39 3ebd be82 2c3c 0d09 b5bc
000000e0: 84a8 36bb c369 3bbd 13b0 43bd 48aa 44bc
000000f0: edbc 813d 9793 6c3d 9ce0 a7bc 859f 34bd
00000100: a3d8 80bd 5846 81bb ae78 7dbd 2b21 30bc
00000110: 9ebc 9a3c 20fb f1bc dd18 7cbd c78c 093c
00000120: 8545 69bd 692a cfbc 547d 1d3d a0be 243d
00000130: d1bb 353d f01e 62bd 3d7b aebc 75ed 2d3d
00000140: f73b efbb 3fc3 1abc 89c5 703d 6d99 273d
00000150: a77d d43b c103 0f3d cc59 1a3d d1a3 3c3c
00000160: d7da 05bc ee46 44bd d500 673c 2f68 bb3c
00000170: bc94 6f3d e588 0abd acf8 f33c a102 fa3c
00000180: be79 193b 0377 e43c 9be5 4bbc da1d e13c
00000190: a6a8 c03c 2c13 ea3c a0ea de3c 9cb1 2bbd
000001a0: 4dae fdbc 3a9b 6dbc 9207 1f3d 5e45 603d
000001b0: dc3a 893a 6a09 173d 5e6a a43b b0fc 793d
000001c0: 57ba 78bd fb72 2c3c 2d44 50bd d6c9 883b
000001d0: 1773 4fbd 8eca 5c3c 2b77 233b e047 003d
000001e0: 370e f73c a8c8 79bc 9e23 963c 7169 ef3c
000001f0: e5ea b8bc ff05 01bd f845 223b f512 71bc

weight f4 [5, 256]
0.00416511 -0.033475254 0.036838308 0.05174052 -0.00096814084 0.024829285 0.04693535 0.030366011
-0.050013147 -0.0202852 -0.008694147 -0.013330211 0.019458592 -0.032281514 0.053353257 0.049033787
0.056426916 0.05975245 0.06323103 -0.037800975 0.00855714 0.00914669 0.029206283 0.056228142
0.00017864155 0.010465933 -0.0061161937 -0.061834466 -0.05786369 0.03140911 -0.038440775 0.0071256254
0.03717524 0.0419262 -0.027628511 0.020506844 -0.009480159 -0.027849572 -0.039643664 0.035005532
0.019452944 -0.04385387 -0.019881109 0.062427588 0.010204578 -0.042510673 -0.011102351 -0.050721202
0.031687915 -0.0024984553 -0.0345766 -0.06706934 0.0053891176 -0.049879007 0.05380184 -0.04835274
-0.031122321 0.023204695 0.05023879 0.05137795 0.04645339 0.03159189 -0.03461008 0.046644595
0.055990703 -0.06426296 -0.011605141 0.06150658 0.01938199 -0.007557194 -0.047722887 -0.047343638
0.008653827 -0.017763512 -0.056364574 0.05341299 0.029555148 -0.028569615 -0.053382877 0.066805534
-0.0172545 0.028269269 -0.027802482 0.05594958 -0.037598073 0.023196416 -0.048236895 -0.021216737
0.01900854 0.052399065 -0.005442624 -0.027636237 -0.06290545 -0.025439955 -0.010586707 -0.018251166
-0.020329896 0.05372642 -0.054009043 0.050803624 -0.012096496 0.021504331 0.019200085 -0.01797575
0.011983328 -0.009924268 -0.01608225 0.0631745 -0.006420257 -0.023328023 -0.007237691 0.053149134
-0.024775183 0.017622823 0.03355124 0.052417673 -0.06837213 0.0545184 0.067224935 0.023635795
-0.0040398296 -0.025786115 -0.0021731833 -0.00939654 0.06512205 0.02643506 -0.06882313 -0.058173187
-0.033638734 0.038232204 0.028007673 -0.030931232 -0.024866572 0.052642897 -0.026481174 0.01411117
0.005496582 0.034415822 -0.028133987 -0.053195115 0.036173005 -0.01609237 -0.05286277 -0.024366954
0.05806135 0.052260987 0.06614082 -0.009558943 -0.055597298 -0.039290648 -0.06587374 0.02139327
-0.007848482 0.0039580967 0.012377894 -0.04152158 -0.011270441 -0.00533146 0.02514121 -0.037806727
-0.0096199615 0.05195618 -0.0041611358 -0.052410915 -0.04472024 -0.011981924 0.027980002 0.013796411
-0.012326664 -0.023081819 -0.023738965 0.056135897 -0.031957395 0.049780328 0.038707152 -0.05852048
0.024263566 0.015124376 0.049768336 -0.06328427 -0.0010762808 -0.020579785 0.03907929 -0.044504847
0.041403215 -0.0394234 0.045932908 0.008673654 0.056697246 -0.0598493 0.05113485 0.07050668
0.024627997 -0.010050787 -0.020592332 0.062406585 -0.001651827 0.015139543 0.044144183 -0.0363576
0.011937128 -0.028991163 0.02556588 0.052867718 0.0077707344 -0.027426545 -0.015899468 0.06675387
-0.023582932 0.029104142 0.006582639 0.033557206 0.016754668 0.054410815 0.002229772 -0.05861908
0.007702601 0.02057666 -0.01248193 0.016128268 0.049898464 -0.04155176 0.01660167 0.0073680948
0.05779185 0.036574483 -0.06306437 0.05777057 -0.0105902 0.05281158 0.01128117 0.03333128
0.042894136 -0.023948606 0.018708378 -0.015293537 -0.058813177 -0.06536656 0.02982074 0.01637863
0.0009754506 0.015640644 0.040027093 0.019446926 -0.054508485 -0.0012702048 -0.040947173 0.010094883
0.0422981 0.026638325 -0.051378913 0.013757634 -0.054563135 0.0528245 0.021318473 0.030769397
00000000: 7a7b 883b 591d 09bd c4e3 163d deed 533d
00000010: d5ca 7dba c966 cb3c 483f 403d 24c2 f83c
00000020: 96da 4cbd 262d a6bc e571 0ebc f566 5abc
00000030: a067 9f3c 9f39 04bd f288 5a3d a7d7 483d
00000040: e91f 673d fcbe 743d 457f 813d 32d5 1abd
00000050: 3f33 0c3c 00dc 153c 0442 ef3c 7b4f 663d
00000060: ba51 3b39 4e79 2b3c 5a6a c8bb 2346 7dbd
00000070: 7a02 6dbd d7a6 003d 1374 1dbd 147e e93b
00000080: 1145 183d cfba 2b3d 3055 e2bc f8fd a73c
00000090: ab52 1bbc c924 e4bc 6561 22bd f661 0f3d
000000a0: c85b 9f3c 1ea0 33bd b5dd a2bc 12b4 7f3d
000000b0: 1a31 273c ac1f 2ebd a3e6 35bc 09c1 4fbd
000000c0: 30cb 013d 20bd 23bb 31a0 0dbd a65b 89bd
000000d0: 3297 b03b ee4d 4cbd 515f 5c3d 860d 46bd
000000e0: 3df4 febc c617 be3c 31c7 4d3d af71 523d
000000f0: e945 3e3d 7f66 013d 4dc3 0dbd 670e 3f3d
00000100: 8256 653d 4c9c 83bd 7d23 3ebc 53ee 7b3d
00000110: fbc6 9e3c 57a2 f7bb 1379 43bd 67eb 41bd
00000120: c8c8 0d3c c984 91bc 8ade 66bd 94c7 5a3d
00000130: a31d f23c d30a eabc 01a8 5abd 57d1 883d
00000140: 4f59 8dbc f494 e73c 08c2 e3bc 632b 653d
00000150: 7000 1abd 6906 be3c 0d94 45bd b9ce adbc
00000160: ccb7 9b3c 67a0 563d 0a58 b2bb 6465 e2bc
00000170: 93d4 80bd 7467 d0bc de73 2dbc 7883 95bc
00000180: e28a a6bc 3c10 5c3d 9638 5dbd 7617 503d
00000190: 6230 46bc da29 b03c 7f49 9d3c e141 93bc
000001a0: b855 443c 6699 22bc ecbe 83bc a261 813d
000001b0: 0561 d2bb 691a bfbc 272a edbb e8b2 593d
000001c0: 53f5 cabc bd5d 903c 066d 093d eab3 563d
000001d0: b006 8cbd b04e 5f3d 3aad 893d db9f c13c
000001e0: 8c60 84bb 673d d3bc f76b 0ebb f2f3 19bc
000001f0: b65e 853d 578e d83c 24f3 8cbd 0247 6ebd
00000200: c5c8 09bd 5f99 1c3d 5970 e53c 7f63 fdbc
00000210: fbb4 cbbc 14a0 573d 0cef d8bc 8932 673c
00000220: ac1c b43b 9bf7 0c3d 3f79 e6bc 1fe3 59bd
00000230: 252a 143d 25d4 83bc a286 58bd 359d c7bc
00000240: bdd1 6d3d 9e0f 563d d774 873d 1d9d 1cbc
00000250: feb9 63bd 3bef 20bd d0e8 86bd f040 af3c
00000260: eb96 00bc ecb2 813b a6cc 4a3c 8812 2abd
00000270: a8a7 38bc 87b3 aebb f0f4 cd3c 3adb 1abd
00000280: 0b9d 1dbc 01d0 543d 235a 88bb d4ac 56bd
00000290: 922c 37bd d54f 44bc 5136 e53c 580a 623c
000002a0: c7f5 49bc 1516 bdbc 3878 c2bc c1ee 653d
000002b0: c2e5 02bd 75e6 4b3d 648b 1e3d 2cb3 6fbd
000002c0: 63c4 c63c 3bcc 773c e2d9 4b3d 2f9b 81bd
000002d0: fe11 8dba f096 a8bc 9b11 203d b74a 36bd
000002e0: 6b96 293d 6e7a 21bd 2524 3c3d f11b 0e3c
000002f0: 5f3b 683d 8a24 75bd c772 513d ce65 903d
00000300: a7c0 c93c 0eac 24bc 40b1 a8bc 0c9e 7f3d
00000310: 1e82 d8ba d90b 783c 88d0 343d b5eb 14bd
00000320: f293 433c e07e edbc 896f d13c d28b 583d
00000330: a5a1 fe3b a2ad e0bc 9a3f 82bc 41b6 883d
00000340: fe30 c1bc cf6b ee3c 2eb3 d73b 4873 093d
00000350: 1641 893c e0dd 5e3d 5e21 123b 8f1a 70bd
00000360: 1a66 fc3b 6290 a83c 0281 4cbc 6e1f 843c
00000370: 5562 4c3d 2e32 2abd 3a00 883c 0f70 f13b
00000380: 26b7 6c3d 20cf 153d e427 81bd d5a0 6c3d
00000390: 8582 2dbc f550 583d a8d4 383c 6186 083d
000003a0: c3b1 2f3d de2f c4bc 5042 993c be91 7abc
000003b0: 16e6 70bd e7de 85bd a04a f43c 7a2c 863c
000003c0: 62b5 7f3a cf20 803c 73f3 233d 294f 9f3c
000003d0: 4a44 5fbd 007d a6ba 39b8 27bd 0265 253c
000003e0: c640 2d3d 9e38 da3c b272 52bd b367 613c
000003f0: 987d 5fbd 815e 583d 14a4 ae3c 1a10 fc3c

bias f4 [5]
0.04940949 -0.026554933 0.037221152 0.032112658 0.06889739
00000000: 9b61 4a3d bb89 d9bc 3575 183d 9088 033d
00000010: 131a 8d3d
