E-GraphSAGE/experiments/model/None_DFF_MLP_NF-ToN-IoT_best_model.pth (torch, 697218 bytes, 14 tensors)

weight f4 [128, 16]
0	0x3e3898af	0.18026994
1	0xbc7282c4	-0.014801685
2	0xbe3951db	-0.18097632
3	0xbe166d31	-0.1469009
4	0x3d28e432	0.04123325
5	0xbd6a513e	-0.057206385
6	0xbe5bdc25	-0.21470697
7	0xbdb29b54	-0.08721033
8	0x3cdcf34e	0.026971485
9	0xbe6ffb3a	-0.23435679
10	0x3cc93cdb	0.024565151
11	0x3e7f1cbc	0.24913305
12	0x3e549f13	0.20763807
13	0x3eb4e4b1	0.35330728
14	0xbe97f02d	-0.29675427
15	0x3e18dd6b	0.14928214
16	0xbe02953f	-0.12752245
17	0xbe239697	-0.15975414
18	0xbd66bc04	-0.05633165
19	0xbe499d97	-0.19689022
20	0xbdc8ad59	-0.097986884
21	0x3e694b97	0.22782741
22	0x3e66df93	0.22546224
23	0x3d5034a2	0.050831445
24	0x3e4a5877	0.19760309
25	0xbe09ea45	-0.13468273
26	0x3e680bdb	0.22660773
27	0x3ec83751	0.39104703
28	0x3bd3a18a	0.006458466
29	0x3e401893	0.18759374
30	0xbc7ab365	-0.01530156
31	0x3d84432f	0.06458127
32	0x3e11b94d	0.14230843
33	0xbce3327e	-0.027734037
34	0xbdbfbcfd	-0.093622185
35	0x3e4457db	0.19174139
36	0x3e1d0cd3	0.15336923
37	0xbcb21e9e	-0.021743115
38	0xbdf87a24	-0.121326715
39	0xbe2f66eb	-0.17129104
40	0xbe3584a8	-0.17726386
41	0xbdb2dc85	-0.08733467
42	0x3e16b15b	0.14716093
43	0x3e32e749	0.17471041
44	0x3e80c6c2	0.2515164
45	0x3ea215d4	0.3165728
46	0x3e2f13cc	0.17097396
47	0x3d7f1a07	0.06228068
48	0x3e439f2d	0.1910369
49	0xbb3a47dc	-0.002842418
50	0xbe3def0f	-0.18548225
51	0x3c97a543	0.01851142
52	0xbe6ad35b	-0.22932188
53	0x3e662289	0.22474112
54	0x3d884e68	0.0665558
55	0x3cfd59d3	0.03092662
56	0x3e3be0a7	0.18347417
57	0xbdaa1e38	-0.08306545
58	0x3e058ae6	0.13041267
59	0x3dad9593	0.08475795
60	0xbe562d14	-0.20915633
61	0xbe7d60db	-0.24743979
62	0x3e68004e	0.22656366
63	0x3e2f170e	0.17098638
64	0x3df1fd79	0.11815924
65	0x3df2899d	0.11842654
66	0xbcda01c6	-0.026612174
67	0x3d6aa9f5	0.05729099
68	0xbcdf8e68	-0.027289584
69	0x3e2f4793	0.17117147
70	0x3ca7ff4a	0.020507473
71	0x3e042e0f	0.12908195
72	0xbd63fa32	-0.055658527
73	0x3e53b2c2	0.2067366
74	0x3c971d02	0.01844645
75	0xbde91522	-0.11380984
76	0x3e8b42d5	0.27199426
77	0x3d0634c4	0.032765165
78	0x3c8145a7	0.015780283
79	0x3e218da1	0.15776683
80	0xbe2de37d	-0.16981311
81	0x3d9ca8c6	0.076493785
82	0xbdbdf61e	-0.09275459
83	0x3e359873	0.17733936
84	0xbe337b15	-0.17527421
85	0x3e4e1747	0.20126067
86	0x3b1de25d	0.0024091222
87	0x3dde17b6	0.10844366
88	0x3dccee2e	0.10006367
89	0xbe387708	-0.18014157
90	0xbe38903b	-0.1802377
91	0x3d128c07	0.03577807
92	0xbde05642	-0.10953952
93	0x3dd3922c	0.103306144
94	0x3ea8ea62	0.3299132
95	0x3e5cd1bc	0.21564382
96	0x3daec23f	0.08533143
97	0xbd934b05	-0.07192043
98	0x3e7da546	0.24770078
99	0x3dc2d26b	0.0951279
100	0x3e2bb2a8	0.1676737
101	0x3dea470b	0.114393316
102	0xbdf7027c	-0.12061021
103	0xbd76abdc	-0.06022249
104	0x3d8fb77e	0.0701742
105	0x3ded8281	0.11597157
106	0x3e664d35	0.2249039
107	0xbc336ffb	-0.010951991
108	0xbe348731	-0.17629696
109	0xbddf2a5e	-0.10896753
110	0xbdde8484	-0.10865119
111	0xbdfaf0cb	-0.12252959
112	0x3e67814a	0.22607914
113	0x3e3b0056	0.18261847
114	0xbdd2f4f6	-0.10300629
115	0x3da3628a	0.07977779
116	0x3e4d333a	0.20039073
117	0xbce4757d	-0.027888054
118	0x3e52b30e	0.20576116
119	0xbd43fb37	-0.047847
120	0x3e9544fc	0.29154193
121	0xbe1b8e4a	-0.15190998
122	0xbd9f53a4	-0.07779625
123	0xbce72cf3	-0.028219676
124	0x3d74e5f3	0.05978961
125	0xbdc24a2d	-0.09486804
126	0xbe38ec0e	-0.18058798
127	0x3e336af7	0.17521273
128	0xbe41e8bd	-0.18936439
129	0xbe542e35	-0.20720752
130	0x3ce0eec6	0.027457606
131	0xbe68eb15	-0.22745927
132	0x3d0ed6b2	0.03487272
133	0xbe1e7517	-0.15474354
134	0xbd8c9e8f	-0.0686618
135	0x3e65897d	0.22415729
136	0xbe3d4265	-0.18482359
137	0x3e91a416	0.284455
138	0x3e2ff561	0.17183448
139	0xbd9a4288	-0.07532221
140	0xbe91a1ce	-0.2844376
141	0x3e392b92	0.18083027
142	0xbd74375b	-0.059623104
143	0xbcd18de3	-0.025580352
144	0x3e62ae4f	0.22136806
145	0x3da84cb8	0.08217758
146	0xbd512b89	-0.05106691
147	0x3c13db97	0.009024522
148	0xbe28668b	-0.16445367
149	0xbd7fdadc	-0.06246458
150	0xbe45bca3	-0.1931024
151	0x3e254b37	0.16141973
152	0x3e985f63	0.29760274
153	0x3e8b891d	0.27253047
154	0xbdcdc46b	-0.100472294
155	0x3dcbd888	0.099534094
156	0xbe39f722	-0.1816068
157	0x3d54d0e7	0.051957037
158	0x3d37ee75	0.044905145
159	0x3e43bb10	0.19114327
160	0xbd42a231	-0.04751796
161	0xbd289228	-0.04115501
162	0xbde77a87	-0.11302667
163	0xbe7624f2	-0.24037531
164	0xbe3811b0	-0.17975497
165	0xbe770876	-0.24124321
166	0x3ca923d3	0.020646965
167	0x3e443288	0.19159901
168	0xbc12679f	-0.008935838
169	0xbe265f20	-0.16247225
170	0xbb881bdc	-0.0041537117
171	0xbe8ba69a	-0.27275544
172	0x3d360bd7	0.044444885
173	0x3d8f1529	0.06986458
174	0x3d84ff40	0.064939976
175	0xbe3738e6	-0.17892799
176	0xbe3a9594	-0.18221122
177	0x3d482920	0.048867345
178	0x3cb9c136	0.022675138
179	0x3e6f0f3e	0.23345658
180	0x3e26002e	0.16211006
181	0xbde22d93	-0.11043849
182	0xbdecad55	-0.11556498
183	0x3e6ab194	0.22919303
184	0xbe0db4d3	-0.1383851
185	0x3e9444c1	0.28958705
186	0x3bcfeb2f	0.0063451747
187	0x3d8dd31a	0.0692503
188	0xbe984038	-0.29736495
189	0xbe7f10ec	-0.24908799
190	0x3e8cc2f1	0.27492478
191	0x3e273869	0.16330113
192	0x3e07d736	0.1326569
193	0xbd1b8c6d	-0.037975717
194	0x3e6109be	0.21976373
195	0x3dc3fc91	0.095696576
196	0xbdb9d5fb	-0.09074017
197	0x3e588062	0.21142724
198	0xbe7757b2	-0.24154547
199	0x3e7b7d1e	0.24559447
200	0x3c631c8c	0.013861787
201	0x3be2bc1d	0.0069193975
202	0xbe738c07	-0.23783885
203	0x3cc49df5	0.024001101
204	0xbe860809	-0.26178005
205	0x3e3cd232	0.18439558
206	0x3e359b20	0.17734957
207	0x3e450872	0.19241503
208	0xbd058ac7	-0.03260305
209	0xbe211ef2	-0.15734461
210	0x3e404270	0.18775344
211	0x3d9fa133	0.07794418
212	0xbdccfc55	-0.10009066
213	0xbc7972df	-0.015225141
214	0x3e1c8f84	0.15289122
215	0x3da7fd87	0.082026534
216	0x3b336be4	0.002737754
217	0xbe6ac949	-0.22928347
218	0xbdc88f34	-0.09792939
219	0xbe4a502f	-0.1975715
220	0xbd40b313	-0.04704578
221	0x3d5f1c64	0.054470435
222	0xbe84f7aa	-0.25970203
223	0x3e869c28	0.26291013
224	0xbd7c9cef	-0.0616731
225	0xbe13beac	-0.14428204
226	0x3dc4f204	0.09616473
227	0x3d5e3542	0.05425001
228	0xbe250c6c	-0.1611802
229	0x3e30c60e	0.17263052
230	0x3c5cb2b1	0.013470338
231	0x3d6e0672	0.058111615
232	0xbde0f663	-0.109844945
233	0xbe4af595	-0.19820245
234	0xbdb29e2f	-0.087215774
235	0xbe0bd926	-0.13657054
236	0xbe22c0b2	-0.1589382
237	0xbd962420	-0.07331109
238	0x3dbdf224	0.092747
239	0x3da10a43	0.078632854
240	0xbe43e249	-0.1912929
241	0x3dc03998	0.09385985
242	0xbcb7802d	-0.022399986
243	0x3da0b1ab	0.078463875
244	0x3e139f66	0.14416274
245	0x3d6898c1	0.056786302
246	0x3d621cf1	0.055203382
247	0x3deb49c8	0.11488682
248	0xbe46e41b	-0.19422953
249	0x3e5ff693	0.21871404
250	0x3e87ddf9	0.2653654
251	0xbd86f95f	-0.065905325
252	0x3deedefa	0.11663623
253	0xbdbbc48d	-0.091683485
254	0xbe4e77c1	-0.2016287
255	0x3e4b8e8d	0.19878598

bias f4 [128]
0	0x3e748abd	0.2388105
1	0x3cfa20b4	0.030533172
2	0x3cfbdb75	0.030744294
3	0xbd8bc133	-0.06823959
4	0x3df01b0b	0.11723908
5	0x3d3a656a	0.045506872
6	0xbc0b2930	-0.008493707
7	0x3e466087	0.1937276
8	0xbe4ea2b8	-0.2017926
9	0x3d3b5bf0	0.045741975
10	0xbe1bb946	-0.15207395
11	0x3dbb0e9e	0.091336474
12	0x3e2b3f0f	0.16723274
13	0x3e56209d	0.20910878
14	0x3d57419a	0.052552797
15	0x3e44845e	0.19191119
16	0xbca3af5f	-0.019981084
17	0xbe25e140	-0.16199207
18	0xbde70519	-0.11280269
19	0x3deb089b	0.11476251
20	0xbe358be3	-0.17729144
21	0xbe50b7d1	-0.2038262
22	0xbe466334	-0.1937378
23	0x3e702256	0.23450598
24	0x3e25d972	0.1619623
25	0xbc8d4f48	-0.017249718
26	0xbe1440c4	-0.14477831
27	0xbdd5fa68	-0.10448152
28	0xbdb20675	-0.08692638
29	0xbe1669dc	-0.1468882
30	0x3df92c2c	0.12166628
31	0xbe8108d1	-0.2520204
32	0xbe1114c3	-0.14168076
33	0xbe00cfb5	-0.12579234
34	0x3cafacd6	0.02144472
35	0xbbc517ea	-0.0060148137
36	0xbd1059f4	-0.035242036
37	0x3da47978	0.08030981
38	0x3e5dd5d4	0.216636
39	0xbe644261	-0.22290947
40	0xbddebe48	-0.10876137
41	0x3e26c390	0.16285539
42	0x3e1f1fbc	0.1553945
43	0xbe83d90a	-0.25751525
44	0xbe56ce04	-0.20977026
45	0x3e582ddd	0.21111245
46	0xbdbda1d7	-0.09259384
47	0x3e46c597	0.19411312
48	0xbdf39b6d	-0.118948795
49	0x3a1a5a8e	0.00058881275
50	0xbdb6fe7f	-0.0893526
51	0x3dc0f4ef	0.094217174
52	0x3e432b1f	0.19059418
53	0x3d89624b	0.06708201
54	0xbe11fb34	-0.14255983
55	0xbe459fce	-0.19299242
56	0x3e247d6f	0.16063474
57	0x3ce4454c	0.027865075
58	0xbe44ed6e	-0.19231197
59	0xbe2771df	-0.16352032
60	0x3d0e917e	0.03480672
61	0xbe3d90ff	-0.18512343
62	0x3da68edf	0.08132719
63	0xbd21efa7	-0.03953519
64	0x3d900a1e	0.0703318
65	0x3de0858d	0.10962973
66	0x3e23aaa8	0.15983069
67	0xbdd70be4	-0.10500315
68	0x3e571309	0.21003355
69	0xbe051fe5	-0.13000448
70	0x3dbc07ce	0.09181176
71	0x3d0a8905	0.03382208
72	0x3e2b82c4	0.16749102
73	0xbd54f47c	-0.05199097
74	0xbe5dae28	-0.21648467
75	0x3dc40d0e	0.095728025
76	0x3cfdc7b3	0.030979013
77	0xbdc0a124	-0.09405735
78	0x3e326ede	0.17425105
79	0x3e74e464	0.23915249
80	0xbc9b9271	-0.018990727
81	0xbe0ec08b	-0.13940637
82	0x3d8f37dc	0.06993076
83	0xbe51b89c	-0.20480579
84	0x3e6e5600	0.23274994
85	0xbda3a6bc	-0.079907864
86	0xbd7e13dc	-0.062030658
87	0xbe1504e6	-0.1455265
88	0xbe80af22	-0.25133616
89	0x3e2c678d	0.16836376
90	0xbde8097d	-0.11329935
91	0xbbcf77b2	-0.0063314075
92	0xbe6d133c	-0.23151869
93	0xbd80a080	-0.06280613
94	0xbd8efd9d	-0.06981967
95	0x3e2c06ab	0.16799419
96	0xbdf91174	-0.12161532
97	0xbe4dc9db	-0.20096533
98	0xbe2c1d0d	-0.16807957
99	0x3dd31e26	0.10308485
100	0x3e69bcff	0.22826003
101	0xbe2fce45	-0.1716853
102	0x3dca6a08	0.09883505
103	0x3d8cc660	0.068737745
104	0x3e801253	0.2501398
105	0x3d991cad	0.074761726
106	0xbe3547c9	-0.17703165
107	0xbd7edf9f	-0.06222498
108	0x3df2b113	0.118501805
109	0xbaaadfbe	-0.0013036651
110	0xbdbfac04	-0.09358981
111	0x3df92ef3	0.12167158
112	0xbdc019f3	-0.093799494
113	0xbe00d0e1	-0.12579681
114	0xbc6c7c39	-0.014433914
115	0x3e5c8e26	0.215386
116	0xbd686f57	-0.056746807
117	0x3d2dde19	0.042448137
118	0x3e088eb8	0.13335693
119	0x3e2b8eb5	0.16753657
120	0x3e39daa0	0.18149805
121	0xbe6037e0	-0.21896315
122	0xbcb3d2df	-0.021951137
123	0x3d85e1d4	0.06537214
124	0x3e150ee7	0.14556466
125	0x3e8c3dab	0.273908
126	0xbd4afeaf	-0.04955929
127	0xbe5fe969	-0.21866383

weight f4 [128, 136]
0	0x3db70a2d	0.08937488
1	0x3b846ac1	0.0040410464
2	0xbd5f3566	-0.054494284
3	0xbd1f3323	-0.038867127
4	0x3c945429	0.018106537
5	0xbc071219	-0.008244061
6	0x3d8e27fe	0.06941222
7	0xbc31da7a	-0.0108553115
8	0x3da8267b	0.082104646
9	0x3c286f01	0.010280372
10	0x3e0c2eeb	0.13689773
11	0xbd90b6cb	-0.07066115
12	0x3d1bd190	0.03804165
13	0x3c186add	0.009302822
14	0xbd6a0fd2	-0.057143994
15	0x3d578ab0	0.052622497
16	0xbd60810e	-0.054810576
17	0xbd7bccbf	-0.061474558
18	0xbdb20d1f	-0.08693909
19	0x3cef3e5b	0.029204538
20	0xbd62f16b	-0.055406015
21	0xbc9d1e32	-0.019179437
22	0x3d0a4d47	0.033765104
23	0x3c109ab8	0.00882595
24	0x3da89eef	0.08233439
25	0x3c95038b	0.018190166
26	0xbbe61664	-0.007021712
27	0xbd88e608	-0.066845
28	0xbd7a4446	-0.061100267
29	0x3cd1bba5	0.025602171
30	0x3d0d70ef	0.03453153
31	0xbdf4bf80	-0.11950588
32	0x3bd958ed	0.006632915
33	0xbd000bed	-0.031261373
34	0x3cc27ceb	0.023741206
35	0x3d904b58	0.07045621
36	0xbda62764	-0.08112982
37	0xbd0a3785	-0.033744354
38	0xbd307898	-0.043083757
39	0xbda272ab	-0.079320274
40	0xbb46dcfc	-0.003034412
41	0xbd25c62e	-0.040472202
42	0x3cd64ebd	0.026160592
43	0xbc8d9e50	-0.017287403
44	0x3da0827b	0.07837387
45	0x3c9ac76f	0.018893925
46	0x3d87190e	0.06596576
47	0xbd3f651e	-0.046727292
48	0x3cae0e4b	0.02124705
49	0x389b80e8	7.4149866e-05
50	0x3dc0b1b0	0.09408891
51	0x3c9605ed	0.018313373
52	0xbdba46f9	-0.09095568
53	0xbde9f449	-0.11423547
54	0x3c694336	0.014237216
55	0xbc437f1f	-0.0119321635
56	0x3d01a6c7	0.031653192
57	0x3d2832ed	0.04106419
58	0x3b94c5c3	0.0045401766
59	0xbc321fc1	-0.0108718285
60	0x3c7d7f2a	0.015472213
61	0x3c0f5e5c	0.008750524
62	0xbda6ea9b	-0.08150216
63	0xbd9038cf	-0.070420854
64	0xbc163587	-0.009168035
65	0xbd793e5a	-0.06085048
66	0xbda4de8f	-0.08050262
67	0xbda5efd0	-0.08102381
68	0x3dccdf41	0.1000352
69	0x3cf46871	0.029834958
70	0xbd34970f	-0.044089373
71	0x3d16054b	0.03662614
72	0x3dc33db7	0.095332555
73	0x3c4f010d	0.012634528
74	0xbd7d256a	-0.06180326
75	0x3d043bdf	0.03228366
76	0x3db0aa41	0.08626223
77	0x3d29b54e	0.04143267
78	0xbd939a2f	-0.072071426
79	0xbd9fdec0	-0.07806158
80	0xbd1f4eaa	-0.03889338
81	0x3dac8852	0.084244385
82	0x3e0591f7	0.13043962
83	0x3d1035bc	0.035207495
84	0xbc68a7cd	-0.014200163
85	0x3d8205f1	0.063487895
86	0x3da9d47a	0.0829248
87	0x3dab1026	0.083526894
88	0x3d78e185	0.060761947
89	0x3d95207f	0.07281589
90	0xbca43584	-0.02004505
91	0x3c935053	0.017982638
92	0xbd825b3f	-0.0636506
93	0x3dc22fd6	0.0948178
94	0xbb2151c9	-0.0024615398
95	0xbd07a0a8	-0.033112198
96	0xbcf95ef8	-0.030440792
97	0x3d5fe130	0.054658115
98	0xbd6fcb40	-0.058543444
99	0x3cf53b3a	0.029935468
100	0xbd032b15	-0.032023508
101	0xb913cd9b	-0.00014095606
102	0x3d0d60df	0.03451621
103	0xbdb28acc	-0.0871788
104	0x3cef72b5	0.029229501
105	0x3d5c6ad1	0.053812806
106	0xbdbcdcfa	-0.092218354
107	0xbd750463	-0.059818637
108	0x3db15ee0	0.08660674
109	0x3d29ed77	0.04148623
110	0x3dc78e96	0.09743993
111	0x3d0e0526	0.03467288
112	0xbc89f359	-0.01683967
113	0xbd83533b	-0.06412359
114	0x3cc94e96	0.024573606
115	0x3c86e00f	0.016464261
116	0xbd9deb18	-0.07710856
117	0x3ddbcdbb	0.10732599
118	0xbd84d065	-0.064850606
119	0x3a380cb8	0.0007020938
120	0xbd1af05f	-0.037826892
121	0xbd5262d1	-0.05136377
122	0xbd970b1c	-0.07375166
123	0x3da2358c	0.079203695
124	0x3c9925d2	0.018694792
125	0xbd83b37d	-0.06430719
126	0x3d119d8d	0.035550643
127	0x3dbcd833	0.09220924
128	0xbd63a1cd	-0.055574227
129	0xbdc14586	-0.09437089
130	0x3db3fb29	0.087881394
131	0x3d28a4a5	0.041172642
132	0xbbeb3e75	-0.0071790763
133	0x3de3fa5e	0.11131738
134	0xbcfbed18	-0.030752704
135	0xbd51914a	-0.05116395
136	0xbd188e6e	-0.037245207
137	0x3cf21ba6	0.0295542
138	0x3d703433	0.05864353
139	0x3d1191a3	0.03553928
140	0xbd020631	-0.031744186
141	0x3d65216f	0.055940088
142	0xbd483be8	-0.048885256
143	0x3d9d8cfd	0.07692907
144	0x3cd10a57	0.025517626
145	0x3d25c8d4	0.040474728
146	0x3da27428	0.07932311
147	0x3dc3fe09	0.09569938
148	0xbd402bc0	-0.046916723
149	0x3d6bcf6b	0.057570856
150	0x3da6c711	0.08143438
151	0x3d89df57	0.06732052
152	0xba71fb10	-0.00092308316
153	0x3d7adebd	0.061247576
154	0xbd838f79	-0.064238496
155	0x3da03f9a	0.07824631
156	0x3d003742	0.031302698
157	0xbc180260	-0.00927791
158	0xbc9334db	-0.01796954
159	0x3a84de6b	0.0010137087
160	0xbc6d8ac7	-0.014498419
161	0x3ba420d2	0.0050087953
162	0xbc768f69	-0.01504884
163	0x3d12843f	0.03577065
164	0x3c121f57	0.008918605
165	0xbdcd20c0	-0.10016012
166	0x3d15a903	0.036538135
167	0xbd97d628	-0.07413894
168	0x3d0dd593	0.03462751
169	0xbd584621	-0.052801255
170	0xbd8ee4a7	-0.06977206
171	0x3d494783	0.049140465
172	0x3cd63ec1	0.02615297
173	0x3d52934e	0.051410012
174	0xbd542070	-0.051788747
175	0xbccaa338	-0.024736032
176	0x3c942010	0.018081695
177	0x3d04f4f8	0.032460183
178	0x3d665e2d	0.056242157
179	0x3d96e70d	0.07368288
180	0xbc7d0771	-0.015443669
181	0x3da4732e	0.08029781
182	0x3da858ab	0.08220037
183	0xbd2dea31	-0.04245967
184	0xbce93e8e	-0.028472211
185	0x3d69b2ae	0.057055168
186	0x3d21a068	0.039459616
187	0xbc6fa595	-0.01462688
188	0xbda3cf23	-0.079984926
189	0x3c30ad7f	0.010783552
190	0xbd1cb517	-0.03825864
191	0xbd9a4292	-0.075322285
192	0x3d64841b	0.055790048
193	0x3d80d01b	0.06289693
194	0x3c055809	0.008138665
195	0x3c8903b4	0.016725399
196	0xbd257c18	-0.04040155
197	0xbd1e8c7f	-0.038708206
198	0xbd95e9e9	-0.073200054
199	0x3d8a998b	0.06767567
200	0x3d439c78	0.047756642
201	0x3c0fca02	0.00877619
202	0x3cc6e403	0.024278646
203	0x3d00cffa	0.031448342
204	0xbd0c301e	-0.034225576
205	0x3de8f40b	0.113746725
206	0xbce310f5	-0.027718047
207	0xbcf258f5	-0.029583434
208	0xbd70620f	-0.058687266
209	0x3d2fecd0	0.04295045
210	0xbcf9e94b	-0.03050675
211	0x3dbb611a	0.0914938
212	0x3c9d7a60	0.019223392
213	0xbdc99ab3	-0.0984396
214	0x3d77a8d3	0.060463738
215	0xbdd62e09	-0.10457999
216	0xbcf0a84e	-0.029377129
217	0xbda1e943	-0.07905819
218	0xbc22988a	-0.009924063
219	0xbd200ef2	-0.039076753
220	0xbdd57394	-0.104224354
221	0xbd7ef3a1	-0.06224406
222	0xbce91281	-0.028451206
223	0xbc4f6272	-0.012657749
224	0xbcfbbb5d	-0.03072899
225	0x3d290f2e	0.041274242
226	0x3d1992f6	0.03749367
227	0x3c0c996d	0.008581501
228	0xbdd6b965	-0.1048458
229	0x3d2a066b	0.041510027
230	0xbc2ab2b5	-0.010418584
231	0x3c8b48fa	0.017002571
232	0xbbd3cfc5	-0.006463977
233	0xbc09af56	-0.00840362
234	0xbcee99ce	-0.029126074
235	0xbd91523c	-0.07095763
236	0xbd9e24bd	-0.07721851
237	0x3c33dc3c	0.010977801
238	0x3d06ecb3	0.032940578
239	0xbb785da6	-0.0037897616
240	0xbdb0eb7e	-0.086386666
241	0xbca70fa7	-0.020393206
242	0x3b80a2ee	0.0039256727
243	0xbd954229	-0.0728801
244	0xbb500b47	-0.0031745003
245	0xbd195c1c	-0.037441358
246	0xbccfb5a2	-0.025355164
247	0xbcff4163	-0.031159109
248	0x37292ee1	1.00841e-05
249	0x3d027f2b	0.031859558
250	0x3c5fe94c	0.013666462
251	0xbd1ad057	-0.037796345
252	0x3d951cfb	0.07280918
253	0x3d27e558	0.040990204
254	0xbd87b671	-0.06626595
255	0x3d35000c	0.044189498

bias f4 [128]
0	0x3c7c32da	0.015392983
1	0xbd3ac2a3	-0.045595776
2	0xbd90d214	-0.07071319
3	0x3cc4959f	0.023997126
4	0x3d1dc3ed	0.038516928
5	0xbd35e05e	-0.044403426
6	0x3d5b48f7	0.05353638
7	0x3da65f27	0.081236176
8	0xbd4d9083	-0.050186645
9	0xbbeab8a3	-0.0071631237
10	0xbd61c78e	-0.05512195
11	0xbbe29e6e	-0.006915859
12	0xbc83cde6	-0.016089391
13	0x3d791ad9	0.06081662
14	0x3c3d2143	0.011543575
15	0xbd37c4ba	-0.044865347
16	0x3dc4ea45	0.09614996
17	0x3db2783f	0.08714341
18	0x3cd2bf07	0.025725855
19	0x3d94df4b	0.07269152
20	0xbd78be9d	-0.060728658
21	0xbd9fc186	-0.078005835
22	0x3d201761	0.039084796
23	0x3d235bc8	0.03988245
24	0x3d3c1dcd	0.045926858
25	0xbd0298da	-0.03188405
26	0xbd422452	-0.04739792
27	0x3daa3365	0.08310584
28	0xbd58e401	-0.052951816
29	0xbd57db49	-0.05269936
30	0xbd8ed0ce	-0.0697342
31	0x3dbb6354	0.09149805
32	0x3ca1991b	0.019726327
33	0xbd0dc1bd	-0.03460859
34	0xbd154569	-0.036443148
35	0x3c146a65	0.00905857
36	0xbdb34b4a	-0.087545946
37	0xbcda3ab2	-0.026639316
38	0xbc8b8e06	-0.017035495
39	0xbd4a4119	-0.04937849
40	0x3b82efeb	0.0039958856
41	0x3d75e02c	0.06002824
42	0xbda05a1d	-0.07829688
43	0x3d034e9d	0.032057393
44	0xbda2443f	-0.07923173
45	0x3d074521	0.03302491
46	0x3d8b50f2	0.068025485
47	0x3d3a355c	0.045461044
48	0x3cad166b	0.021128854
49	0x3d7ce3a0	0.061740518
50	0xbb4e63d7	-0.0031492615
51	0xbd50f3cc	-0.051013753
52	0x3d30c6a5	0.043158192
53	0xbd4ca225	-0.04995932
54	0xbd00e018	-0.031463712
55	0x3d797dbf	0.060910936
56	0x3d0fde96	0.035124384
57	0xbd2c11cf	-0.04200917
58	0x3d7c92b6	0.061663352
59	0x3d44aaf8	0.04801461
60	0xbcdb3760	-0.026759803
61	0x3da24b43	0.07924511
62	0xba958b3c	-0.0011409293
63	0xbb2d74d4	-0.002646734
64	0xbd6dc66f	-0.05805057
65	0x3da2717d	0.079318024
66	0x3db17752	0.08665337
67	0xbd9374da	-0.07200022
68	0x3dc82c8a	0.0977412
69	0x3d8c52a6	0.068517014
70	0xbd9fa71b	-0.07795545
71	0x3d0b4a67	0.034006502
72	0x3d9d11cc	0.0766941
73	0xbd9bab38	-0.07601017
74	0x3b21ce92	0.0024689776
75	0xbc80df0c	-0.015731357
76	0x3cf7109f	0.030159293
77	0xbb8f5014	-0.0043735597
78	0xbcfb7b1e	-0.030698355
79	0xbcc81614	-0.02442459
80	0x3d57600e	0.05258184
81	0x3d2e858a	0.04260782
82	0xbd9c7641	-0.07639743
83	0xbc433e2a	-0.011916677
84	0x3cdbdd6d	0.026838982
85	0xbce33aca	-0.027737994
86	0xbd047f93	-0.032348227
87	0x3ddb8b55	0.10719935
88	0xbd8fe6ed	-0.070264675
89	0xbd2a579f	-0.04158747
90	0x3d53eaaa	0.051737465
91	0x3cdabb14	0.026700534
92	0x3af4452d	0.0018636339
93	0x3d5a141b	0.05324183
94	0x3c75c2b1	0.015000031
95	0x3bf53e7c	0.0074842554
96	0x3dcd35a0	0.10019994
97	0x3d964f8e	0.073393926
98	0x3af3af64	0.0018591699
99	0xbc25b68b	-0.010114322
100	0x3cccdfa5	0.025008986
101	0x3c4bd63f	0.012441217
102	0xbcf71180	-0.030159712
103	0xbcb19d94	-0.021681584
104	0xbcf828d5	-0.030292908
105	0x3d625530	0.055257022
106	0xbcf99592	-0.030466828
107	0x3da1ca5e	0.078999266
108	0x3da000c7	0.07812648
109	0x3ca518ca	0.020153422
110	0x3b40cb8a	0.0029418194
111	0x3d8e2d98	0.0694229
112	0x3da9f1fc	0.08298108
113	0xbafbf083	-0.0019221458
114	0x3db6464d	0.089001276
115	0xbcfa52af	-0.030557005
116	0x3ce16ead	0.027518595
117	0x3b443111	0.0029936472
118	0xbcc7d7b9	-0.024394857
119	0xbcca2eb9	-0.024680482
120	0x3db72a3e	0.08943604
121	0x3d408697	0.047003355
122	0x3c38e956	0.0112861
123	0x3d9780df	0.07397627
124	0x3caf7be1	0.021421375
125	0x3be863d4	0.0070919786
126	0xbc7e0250	-0.015503481
127	0xbd533c20	-0.05157101

weight f4 [128, 136]
0	0xbb284169	-0.0025673753
1	0xbda1042e	-0.07862125
2	0x3d06b24f	0.032884892
3	0xbd21ae6e	-0.03947299
4	0x3dae7bbe	0.08519696
5	0x3cffd9d0	0.03123179
6	0xbd8ff1dd	-0.07028554
7	0xbd1d6d00	-0.03843403
8	0xbd841d4d	-0.06450901
9	0xbd9df36d	-0.077124454
10	0x3e0be58c	0.13661784
11	0xbd936225	-0.07196454
12	0x3d6e4e8c	0.058180377
13	0x3cc709da	0.02429669
14	0x3d6c377e	0.05767011
15	0x3b60d77a	0.0034308122
16	0x3d99be68	0.0750702
17	0x3d8d6b55	0.069052376
18	0x3d336753	0.04379971
19	0xbd7b8215	-0.061403353
20	0x3d85d5ce	0.06534921
21	0xbbec8da9	-0.0072190356
22	0x3d0ee275	0.034883935
23	0x3d87ce10	0.066311
24	0x3d531959	0.051537845
25	0xbcb03232	-0.02150831
26	0xbd6536ca	-0.055960454
27	0x3da44c98	0.080224216
28	0x3baadcc2	0.0052143047
29	0x3d173a07	0.036920574
30	0xbc176e96	-0.009242674
31	0xbd91b684	-0.0711489
32	0x3cff7083	0.03118158
33	0x3d467eae	0.048460655
34	0x3d6f1a54	0.058374718
35	0x3dc7ce1e	0.097561106
36	0x3daa247a	0.083077386
37	0x3dd1c895	0.10243336
38	0x3dcad1d2	0.09903301
39	0x3d171d8e	0.03689342
40	0x3d8306f7	0.06397813
41	0xbca12a84	-0.019673593
42	0x3dd5181a	0.10404988
43	0xbd682118	-0.056672186
44	0xbd4894bf	-0.04896998
45	0x3bc710ac	0.0060749855
46	0xbc9442cf	-0.018098263
47	0x3d6b1f81	0.05740309
48	0xbc3a8b5f	-0.011385768
49	0x3df24ac3	0.11830666
50	0x3d71f6ec	0.059073374
51	0xbd2639b1	-0.040582363
52	0xbd6ea62c	-0.058263943
53	0xbd78704c	-0.06065397
54	0xbd33cd98	-0.04389724
55	0xbceebbb1	-0.029142233
56	0xbc60e753	-0.013727027
57	0xbd941604	-0.07230762
58	0x3d84c76d	0.0648335
59	0x3c284164	0.010269497
60	0x3df20e82	0.118191734
61	0x3dac9fa8	0.084288895
62	0x3cb5196a	0.022106845
63	0xbb424993	-0.0029645904
64	0x3ba4bf8e	0.005027718
65	0xbdae8753	-0.08521905
66	0x3d6f6fa1	0.058456067
67	0xbd0047ff	-0.03131866
68	0xbcf73f2d	-0.030181492
69	0x3c2d9133	0.0105937
70	0x3cb44678	0.022006258
71	0x3dd74b8d	0.10512457
72	0xbcbbfa16	-0.022946399
73	0x3c576f09	0.013149031
74	0x3d87ad43	0.06624844
75	0x3da0f080	0.07858372
76	0x3d8d70b3	0.06906261
77	0x3cb9878b	0.02264764
78	0x3cb14793	0.021640575
79	0xbcbad7a1	-0.022807898
80	0x3c952d1a	0.018209983
81	0x3dcc0099	0.099610515
82	0x3d8fc227	0.070194535
83	0x3dba2630	0.09089315
84	0xbd2c1542	-0.04201246
85	0x3dadf4b9	0.08493943
86	0x3d89b90d	0.06724749
87	0x3d1dfc71	0.038570825
88	0x3dbd209d	0.09234736
89	0xbd093d39	-0.033505652
90	0x3da5a994	0.08088985
91	0xbce029cf	-0.027363686
92	0x3d302d40	0.043011904
93	0xbcbdc16b	-0.023163518
94	0x3ca065db	0.019579818
95	0x3b726e29	0.003699193
96	0xbcbe20d2	-0.02320901
97	0x3d891e4d	0.066952325
98	0x3d8feeb2	0.070279494
99	0xbd5f777b	-0.054557305
100	0x3d34cf90	0.04414326
101	0xbdbde983	-0.092730545
102	0xbd140061	-0.036133174
103	0x3dd44347	0.10364395
104	0x3d1cef2d	0.038314033
105	0x3dcff442	0.1015401
106	0x3d617035	0.05503865
107	0xbda12601	-0.07868577
108	0x3c5b9799	0.013402843
109	0x3e055a21	0.13022663
110	0x3d6cb7e4	0.05779256
111	0xbd14d3af	-0.03633469
112	0xbd8945f2	-0.06702794
113	0x3d286752	0.04111416
114	0x3ce8acc1	0.028402688
115	0x3d01efde	0.031722896
116	0xbd70cc62	-0.058788665
117	0x3d5ad5b5	0.053426463
118	0xbcf7a666	-0.030230712
119	0x3dcf9d15	0.10137383
120	0xbd3014f4	-0.042988732
121	0x3d74b6fc	0.05974482
122	0xbd0ee84d	-0.034889508
123	0xbd93c50a	-0.072153166
124	0x3dafff6c	0.0859364
125	0x3bc74762	0.0060815075
126	0x3d1ba532	0.03799934
127	0x3cdbe1e5	0.026841113
128	0xbdd508e8	-0.10402089
129	0xbcae4d98	-0.021277234
130	0xbdb082f6	-0.08618729
131	0x3cbec82b	0.023288807
132	0xbd4f47b4	-0.05060549
133	0x3d53b97d	0.051690567
134	0x3b0b3743	0.0021242655
135	0xbd2dea10	-0.042459548
136	0xbcc9c540	-0.024630189
137	0x3ce3dc77	0.027815087
138	0xbe105305	-0.1409417
139	0xbd9e8beb	-0.07741531
140	0x3c3c497f	0.011492132
141	0xbd28ea22	-0.04123891
142	0x3d16ae3c	0.036787257
143	0xbd639845	-0.055565137
144	0xbd9759ec	-0.07390198
145	0x3d12e0af	0.035858806
146	0xbcf5ead1	-0.030019196
147	0xbd9094db	-0.07059642
148	0x3d3d5ca3	0.046230923
149	0x3d728b9f	0.059215184
150	0x3da0851f	0.07837891
151	0x3cfa07b7	0.030521257
152	0xbc937411	-0.01799968
153	0xbd059ea1	-0.032621983
154	0xbd9879fd	-0.074451424
155	0x3d1a8aaa	0.037729897
156	0xbd9c21c7	-0.0762363
157	0xbd1cbab7	-0.038264003
158	0xbd860311	-0.065435536
159	0x3d1be0f9	0.038056348
160	0x3d626c5d	0.055279125
161	0xb8d591ca	-0.00010183787
162	0xbb8ae3f8	-0.004238602
163	0xbd993612	-0.07481016
164	0xbdd34c52	-0.10317291
165	0x3c6eaf90	0.014568225
166	0xbd06b44c	-0.03288679
167	0x3d60f518	0.05492124
168	0xbd857bbe	-0.065177426
169	0xbd234586	-0.039861225
170	0x3d8346c7	0.06409984
171	0x3c969ba9	0.018384771
172	0x3c78545f	0.015156834
173	0xbe22a83a	-0.15884486
174	0xbbc16b99	-0.005902719
175	0xbdbc814f	-0.09204351
176	0xbd29f3d1	-0.041492287
177	0x3d3b110e	0.04567056
178	0x3ccfa0dd	0.02534526
179	0x3d0d3903	0.0344782
180	0xbc81ecd0	-0.015859991
181	0xbcfada23	-0.030621594
182	0xbd04fa4b	-0.03246526
183	0xbdb24c46	-0.08705954
184	0x3c3eb153	0.011638957
185	0xbdb66883	-0.08906653
186	0xbd537da5	-0.051633496
187	0x3c8dbaad	0.017300928
188	0x3d74e1ab	0.059785526
189	0x3a7aa1b2	0.00095608376
190	0x3cdf3272	0.027245734
191	0xbd3a38ea	-0.045464434
192	0xbc117310	-0.008877531
193	0xbd261e4e	-0.040556245
194	0xbc6b92b6	-0.01437824
195	0x3c6ee9fa	0.014582152
196	0xbe0e3df6	-0.13890824
197	0x3d70baba	0.058771826
198	0xbd9c8c4c	-0.07643947
199	0xbd80e53c	-0.06293723
200	0x3c3cc5f5	0.011521806
201	0x3d25148a	0.04030279
202	0xbd4e8e2f	-0.050428566
203	0x3d3a0ea5	0.045424122
204	0x3c528240	0.012848437
205	0xbd98e5db	-0.074657165
206	0x3cf43aec	0.029813252
207	0xbde0dc41	-0.1097951
208	0x3da74b91	0.0816871
209	0xbe05c909	-0.1306497
210	0xbd802e6d	-0.06258855
211	0xbe3ea407	-0.18617259
212	0xbdc36331	-0.09540404
213	0xbd3c1336	-0.04591676
214	0xbcdf0d39	-0.027227985
215	0xbd585eda	-0.052824832
216	0x3b1df8db	0.0024104628
217	0xbda893b7	-0.08231299
218	0xbddef82f	-0.10887181
219	0xbd50c1af	-0.05096596
220	0x3cf58f63	0.029975599
221	0xbd9451e0	-0.07242179
222	0xbe06f480	-0.13179207
223	0xbd82c625	-0.06385449
224	0xbe0c35fe	-0.13692471
225	0x3d31936f	0.043353494
226	0x3d169907	0.036767032
227	0x3da39278	0.07986921
228	0x3d4883d2	0.04895384
229	0x3cb76dc2	0.022391204
230	0xbd9f4fbb	-0.07778879
231	0xbd6547f7	-0.055976834
232	0xbdbc0f91	-0.091826566
233	0xbe03a18f	-0.12854598
234	0xbdda2fe5	-0.106536664
235	0x3d63c249	0.055605207
236	0x3c967435	0.018365959
237	0x3da2b1a0	0.079440355
238	0xbdbd8d14	-0.09255424
239	0xbd3a2696	-0.045446955
240	0x3d3b26ef	0.045691427
241	0xbd7a4095	-0.061096746
242	0xbd765eb5	-0.060148913
243	0xbcb53f09	-0.022124784
244	0x3cb1db1d	0.021710927
245	0xbe1e93e0	-0.15486097
246	0xbda70edd	-0.08157132
247	0x3c4f1423	0.012639078
248	0x3da6d278	0.081456125
249	0x3cb5effd	0.022209162
250	0xbd548103	-0.051880848
251	0xbdaf779c	-0.085677356
252	0xbd88de04	-0.06682971
253	0xbd7f9122	-0.06239427
254	0xbdc11d19	-0.09429378
255	0x3d77aa65	0.060465235

bias f4 [128]
0	0xbb4d3bdb	-0.0031316194
1	0xbd4bff62	-0.0498041
2	0x3d24b0cd	0.040207673
3	0x3dceea5f	0.101032965
4	0xbd3de4a9	-0.046360645
5	0x3d27a0df	0.040924903
6	0xbd833eec	-0.06408486
7	0x3d497b36	0.04918977
8	0xbcfeeec0	-0.031119704
9	0x3b9dfda9	0.0048214984
10	0xbcf58c3b	-0.029974094
11	0xbc22717c	-0.009914752
12	0x3d3c570a	0.045981444
13	0xbd528b0e	-0.051402144
14	0x3d8c3840	0.06846666
15	0x3bf51707	0.0074795517
16	0x3da14113	0.0787374
17	0x3d772d9c	0.06034623
18	0xbd4010de	-0.046891086
19	0x3da164da	0.07880564
20	0xbd825e14	-0.063656
21	0xbd3c17bb	-0.04592107
22	0x3d6c82db	0.05774198
23	0x3d8708bf	0.06593465
24	0xbc571815	-0.0131283
25	0x3d2ebb80	0.042659283
26	0x3bb17005	0.005414965
27	0x3d75a6e3	0.05997361
28	0xbd7e7628	-0.0621244
29	0xbc9fc0c4	-0.019501098
30	0x3db71951	0.089403756
31	0x3ba5bcb4	0.0050578956
32	0xbcbd5583	-0.023112064
33	0xbd2450b7	-0.04011604
34	0x3db65342	0.08902599
35	0x3b81eca1	0.003964976
36	0x3d490c34	0.049083903
37	0x3d26f38c	0.04075961
38	0xbd614630	-0.054998577
39	0xbce220c9	-0.027603524
40	0x3c4e02b2	0.012573885
41	0xbc892c98	-0.016744897
42	0xbc1f69c0	-0.009729803
43	0xbdb3fc2d	-0.08788333
44	0x3cf5fba7	0.030027224
45	0xbc746fe9	-0.01491926
46	0x3da30b8b	0.07961186
47	0x3d9e279e	0.077224
48	0x3d6819d0	0.05666524
49	0x3d7b8798	0.06140861
50	0x3d254726	0.040351056
51	0x3d8c3f1f	0.06847977
52	0x3c77ff50	0.015136555
53	0x3da37b50	0.07982504
54	0xbdaf020f	-0.085453145
55	0x3d8c1dff	0.06841659
56	0xbd3ae59a	-0.04562912
57	0x3c030c7a	0.00799858
58	0x3d5d4597	0.054021444
59	0xbd2836bc	-0.041067824
60	0x3c32872d	0.010896486
61	0x3b60450d	0.0034220845
62	0xbce2e5a2	-0.027697388
63	0x3b078d9e	0.0020683776
64	0x3cba9b2e	0.022779074
65	0x3dc2b422	0.09507014
66	0xbd8742bb	-0.06604525
67	0x3b855efd	0.0040701614
68	0x3d192936	0.037392817
69	0x3c5ee92e	0.013605399
70	0xbc0a19c3	-0.008428994
71	0xbd2fa30b	-0.0428801
72	0x3d9e100e	0.07717906
73	0x3db56ac3	0.08858254
74	0xbcf71be6	-0.03016467
75	0xbd681027	-0.05665603
76	0xbd82e795	-0.06391827
77	0xbc2434be	-0.01002234
78	0xbcb7f400	-0.022455215
79	0xbd51c775	-0.051215608
80	0x3c49f673	0.0123268245
81	0xbce6003c	-0.028076284
82	0xbca6b813	-0.020351445
83	0xbd779e35	-0.060453612
84	0xbd9c3454	-0.07627168
85	0xbc52dcb5	-0.0128700035
86	0xbd2a25ea	-0.041540064
87	0xbd7c18f5	-0.06154724
88	0xbd69d948	-0.05709198
89	0x3d4bf1bf	0.049791094
90	0x3da2ca5b	0.079487525
91	0xbb0c570a	-0.0021414184
92	0xbc304c42	-0.010760369
93	0xbc619adc	-0.0137698315
94	0xbd8a679d	-0.06758044
95	0xbd4adac6	-0.049525045
96	0x3cf64a14	0.03006462
97	0x3d9794f6	0.07401459
98	0x3d84ae7e	0.06478594
99	0xbd8ffaa9	-0.070302315
100	0xbd25f4c8	-0.040516645
101	0xbd9d3d19	-0.07677669
102	0x3d8fe687	0.070263915
103	0x3d6fe4ce	0.058567815
104	0xbdaa79cb	-0.083240114
105	0x3c7ccc1c	0.015429523
106	0xbd9ecbb8	-0.077537
107	0xbc240812	-0.01001169
108	0x3db56544	0.088572055
109	0xbd1ec007	-0.03875735
110	0xbdb334e9	-0.08750326
111	0x3db7dc89	0.089776106
112	0xbd8186e6	-0.06324558
113	0xbc1c697c	-0.009546634
114	0x3af38fc9	0.001858228
115	0x3c93b2b6	0.018029552
116	0xbd36ae7f	-0.044600006
117	0xbd19a278	-0.037508458
118	0x3bc310a3	0.005952911
119	0xbce37988	-0.027767912
120	0xbd6441b6	-0.05572673
121	0xbce6f5ff	-0.028193472
122	0x3c95daa5	0.018292734
123	0x3d82d2cb	0.06387862
124	0x3d7d225e	0.061800353
125	0xbc402679	-0.011727923
126	0x3d95098d	0.07277212
127	0x3da24932	0.07924117

weight f4 [128, 256]
0	0xbd02c3cf	-0.03192502
1	0x3d445f15	0.04794224
2	0xbc829447	-0.015939845
3	0xbd4657a8	-0.04842344
4	0xbd507330	-0.0508911
5	0xbcdd4ffa	-0.027015675
6	0xbbfd4936	-0.0077296747
7	0x3d0bf70a	0.03417114
8	0x3d86644a	0.06562097
9	0xbcb7f83c	-0.022457235
10	0xbdc07e82	-0.093991295
11	0x3cae8115	0.021301785
12	0xbaf8a0e1	-0.0018968844
13	0xbd481740	-0.048850298
14	0xbd29d1a0	-0.04145968
15	0xbc1d5e1a	-0.009604955
16	0x3d821129	0.06350929
17	0x3d8234e2	0.06357743
18	0x3d22bd93	0.039731573
19	0x3d8eca9a	0.06972237
20	0x3d63cc57	0.055614796
21	0xbc4289d0	-0.011873677
22	0x3d3a77ee	0.04552453
23	0x3bc3f04a	0.0059795724
24	0xbcc9b6a7	-0.024623228
25	0x3d6b63ba	0.057468154
26	0x3b0ca376	0.0021459735
27	0x3cc7df88	0.02439858
28	0x3c95887f	0.018253563
29	0xbd576749	-0.052588735
30	0x3db16a7d	0.08662889
31	0xbc58a973	-0.013223994
32	0x3d91c9c7	0.07118564
33	0x3d213058	0.039352745
34	0x3d8d0e49	0.0688749
35	0xbc93c73c	-0.018039338
36	0xbd15b7b4	-0.036552146
37	0x3d6c053c	0.05762218
38	0xbc49c202	-0.0123143215
39	0x3d63c6b6	0.055609427
40	0xbba1c155	-0.004936377
41	0xbcbb54d5	-0.0228676
42	0x3c7f3a5e	0.015577881
43	0xbd4c924f	-0.04994422
44	0x3db45fe7	0.088073544
45	0xbd3c4985	-0.04596855
46	0x3bb57d0d	0.005538589
47	0xbd312cc0	-0.043255568
48	0x3baaceca	0.0052126395
49	0x3dd77efb	0.105222665
50	0x3d2dc127	0.042420533
51	0x3da98aed	0.08278451
52	0xbcd33524	-0.025782175
53	0xbd251fff	-0.040313717
54	0xbbab2f27	-0.005224127
55	0x3cac5c35	0.021040061
56	0x3c1ef30a	0.0097015
57	0x3d3af1a2	0.045640595
58	0x3ca44c0a	0.02005579
59	0xbc899657	-0.01679532
60	0x3c240845	0.010011737
61	0x3d724ee4	0.059157267
62	0xbd4c63b6	-0.04989978
63	0x3c0e2d5b	0.008677806
64	0x3d5229cc	0.05130939
65	0xbcb3dc0c	-0.021955512
66	0x3b3a35c7	0.0028413401
67	0xbbaeba90	-0.0053322986
68	0x3cf56f3c	0.029960267
69	0x3cc1dd2a	0.02366503
70	0xbc9646d3	-0.018344318
71	0x3c9f2ba8	0.019429997
72	0x3b495993	0.0030723556
73	0x3c4386e0	0.011934012
74	0x3d8be65c	0.06831047
75	0x3dfca694	0.1233646
76	0xbd846116	-0.0646383
77	0x3c8521cb	0.016251465
78	0x3d907e82	0.070553795
79	0xbd238a73	-0.039926957
80	0x3d9cf319	0.07663555
81	0x3d1189bf	0.035531756
82	0x3d8a2b22	0.06746508
83	0xbd339581	-0.04384375
84	0xbbc9757e	-0.0061480394
85	0xbd10db47	-0.03536537
86	0x3c45c852	0.012071686
87	0x3d37c9f1	0.04487032
88	0x3c3fae6c	0.0116993
89	0xbc080241	-0.008301319
90	0x3d58ca1c	0.05292712
91	0x3ce398c8	0.027782813
92	0x3d461b6f	0.048366006
93	0xbd7fec25	-0.062481064
94	0xbd82ad07	-0.063806586
95	0x3d9499a8	0.0725587
96	0x3d4b0df2	0.049573846
97	0x3d8722a0	0.06598401
98	0x3dccfa2b	0.10008653
99	0x3d40bd04	0.04705526
100	0x3cd5faba	0.026120532
101	0x3d329559	0.04359946
102	0xbd031112	-0.0319987
103	0x3d5c3ca8	0.053768784
104	0x3d2559ab	0.040368717
105	0x3c1e3e64	0.00965843
106	0x3ce29a6b	0.027661523
107	0x3d57a633	0.052648734
108	0x3d046415	0.03232201
109	0x3c34262d	0.01099543
110	0x3dbabbe9	0.09117872
111	0x3d97c422	0.07410456
112	0xbc4bf80f	-0.0124492785
113	0x3d7adb99	0.06124458
114	0xbc046f95	-0.008083244
115	0x3c96d3a0	0.018411458
116	0x3d2fa1a1	0.04287875
117	0xbc32168b	-0.0108696325
118	0x3d7774e3	0.060414206
119	0xbda5f1c6	-0.08102755
120	0xbb8ee385	-0.0043606185
121	0xbb906cbb	-0.004407493
122	0xbd83d2dc	-0.064367026
123	0x3d1dfc6e	0.038570814
124	0x3d43e28c	0.047823474
125	0x3d5e1615	0.054220278
126	0x3cb8ff5d	0.022582704
127	0xbb42d00c	-0.0029726056
128	0xbd2a44f6	-0.041569673
129	0xbd28d3e2	-0.041217692
130	0x3c63ee4c	0.013911795
131	0x3d9e660e	0.07734309
132	0x3db11978	0.08647436
133	0x3d4d45ff	0.05011558
134	0x3cd6da62	0.02622718
135	0x3d470ec8	0.04859808
136	0x3cb6b626	0.022303652
137	0x3cc71c45	0.024305472
138	0x3cbbe12c	0.022934519
139	0x3ca487a9	0.020084219
140	0xbd7aea12	-0.061258383
141	0xbd9ed047	-0.077545695
142	0xbd315684	-0.0432954
143	0xbd944261	-0.07239223
144	0x3ca5a146	0.020218503
145	0x3d8847fb	0.06654354
146	0xbc8bb4e4	-0.017054029
147	0x3c916222	0.017746989
148	0x3d27a04d	0.04092436
149	0x3da157d2	0.078780785
150	0x3c8097d3	0.015697395
151	0x3c2702cb	0.010193537
152	0xbcd36ac3	-0.025807744
153	0x3daf0760	0.085463285
154	0xbd1bab54	-0.038005188
155	0x3d39f448	0.04539898
156	0x3ca664e8	0.020311788
157	0x3d6fadae	0.058515243
158	0x3bf15931	0.007365369
159	0x3b59e44d	0.003324765
160	0x3ca62586	0.020281564
161	0x3d4fc19a	0.050721742
162	0xbd603b2c	-0.05474393
163	0xbd940135	-0.07226793
164	0x3b29dfe0	0.0025920793
165	0x3d139efb	0.036040287
166	0xbc35e989	-0.011103042
167	0xbd2a877f	-0.041633125
168	0x3d5e90e3	0.054337393
169	0x3c09d9b6	0.008413723
170	0x3d99076f	0.07472121
171	0xbd6b89e4	-0.05750455
172	0x3ce07e51	0.027403982
173	0xbd132114	-0.035920218
174	0xbd15d1fd	-0.036577214
175	0x3d0a330a	0.03374008
176	0xbbe67cfb	-0.007033942
177	0x3d4b1198	0.049577326
178	0x3db538f7	0.08848756
179	0xbcd5116d	-0.026009286
180	0x3ce9ce03	0.028540617
181	0x3ce9f858	0.028560802
182	0x3cbaaee3	0.02278847
183	0xbd0ee253	-0.03488381
184	0x3d7fa3bd	0.062412012
185	0xbd435d8a	-0.047696628
186	0xbd1e5d74	-0.038663343
187	0xbd260df7	-0.04054066
188	0xbceeb43f	-0.029138682
189	0x3d01500f	0.03157049
190	0x3d8778e9	0.06614859
191	0xbd3c1ca5	-0.045925755
192	0x3ca3b08a	0.019981641
193	0x3b2ef665	0.0026697156
194	0xbab8aff7	-0.0014090528
195	0xbd6436e8	-0.055716425
196	0x3d7ce004	0.061737075
197	0xbd326d67	-0.043561365
198	0x3d08cf4f	0.03340083
199	0x3d1c6a56	0.038187347
200	0x3d085056	0.03327974
201	0xbc7fc9b5	-0.015612056
202	0xbd31a878	-0.043373555
203	0x3b33cf79	0.0027436896
204	0xbccb7773	-0.024837231
205	0x3d6705f1	0.05640215
206	0xbd6f312a	-0.058396496
207	0x3d86ff0d	0.06591616
208	0xbd2bc68b	-0.041937392
209	0x3d8ff77c	0.07029626
210	0x3d960890	0.07325852
211	0xbc04bd28	-0.008101739
212	0xbd7563c0	-0.059909582
213	0xbcecf11f	-0.02892357
214	0xbd516e92	-0.05113084
215	0x3cd79a0c	0.026318572
216	0xbd02dcc4	-0.03194882
217	0x3c0b31bc	0.008495744
218	0x3d3a6923	0.045510422
219	0x3ccfd6b2	0.02537093
220	0x3cea42de	0.028596338
221	0xbccb6ae6	-0.024831247
222	0xbd34b6e9	-0.04411975
223	0xbbf0b558	-0.0073458366
224	0xbcaf7309	-0.021417158
225	0xbcdbf138	-0.02684842
226	0x3d21cc4f	0.039501484
227	0xbcca1e43	-0.024672633
228	0x3d898d0f	0.06716358
229	0xbdbc7550	-0.09202063
230	0x3ccf4183	0.025299793
231	0xbaa830da	-0.0012831942
232	0x3c21c8f9	0.009874576
233	0x3c3a721d	0.011379746
234	0x3d8b7c03	0.06810763
235	0xbbaae6f0	-0.005215518
236	0x3d92ef06	0.07174496
237	0x3b917e88	0.0044401325
238	0xbcea69e1	-0.02861494
239	0x3da0cdf2	0.07851781
240	0x3cf447df	0.029819427
241	0x3cecbffe	0.028900143
242	0x3d4f4a59	0.050608013
243	0xbd349c4a	-0.04409436
244	0xbd89714e	-0.06711064
245	0x3d476a1a	0.04868517
246	0x3d274d9e	0.040845506
247	0x3ab10bed	0.0013507582
248	0xbdaceed3	-0.084439896
249	0xbd9cffee	-0.07666002
250	0x3d3bba3e	0.04583191
251	0x3d8fd1a7	0.0702241
252	0x3d2de915	0.042458612
253	0xbc63577a	-0.0138758365
254	0x3d59697e	0.05307912
255	0x3c985b9f	0.018598376

bias f4 [128]
0	0xbd0fa0cc	-0.035065457
1	0xbd2dabd6	-0.042400204
2	0x3d662890	0.056191027
3	0xbd00f8d2	-0.031487294
4	0x3b909e5d	0.0044134096
5	0x3c378b67	0.01120267
6	0x3baeabeb	0.005330553
7	0x3d0ae48d	0.03390937
8	0x3d81c440	0.0633626
9	0xbd50e9a2	-0.05100406
10	0x3d0e78db	0.034783226
11	0xbc9fdd46	-0.019514691
12	0x3d2a854c	0.041631028
13	0xbc38c539	-0.01127749
14	0xbd74b62a	-0.059744038
15	0x3d8bd9c4	0.06828645
16	0x3cc54173	0.02407906
17	0xbd661330	-0.056170642
18	0xbcf61141	-0.030037524
19	0xbc8f8e3f	-0.017523883
20	0xbb578e50	-0.0032891221
21	0x3bf96be0	0.0076117367
22	0x3d84bc03	0.06481173
23	0x3d2ed030	0.04267901
24	0x3d8f2d97	0.069911174
25	0xbbe8ca34	-0.0071041826
26	0xbd66faa1	-0.056391362
27	0xbc6266db	-0.013818468
28	0x3b9a543a	0.0047097476
29	0x3d1a5dc2	0.03768707
30	0x3ca6e0fc	0.020370953
31	0xbca6caf4	-0.020360447
32	0xbc1e9e07	-0.009681231
33	0xbd01363f	-0.031545874
34	0x3d05b758	0.032645553
35	0xbd19808f	-0.03747612
36	0x3c5462c8	0.012963004
37	0xbd2ece49	-0.042677198
38	0x3cc1a67d	0.023638958
39	0x3b0057ac	0.0019583507
40	0x3d705469	0.05867425
41	0xbd128877	-0.035774674
42	0xbd2444a4	-0.040104523
43	0x3d5a1aa6	0.05324807
44	0x3d1f39cb	0.038873475
45	0x3d0fe819	0.035133455
46	0xbc467367	-0.012112475
47	0xba98ef01	-0.0011667908
48	0x3c934094	0.01797513
49	0xbd5d4e12	-0.05402953
50	0xbcffe473	-0.031236863
51	0xbd09b514	-0.033619955
52	0xbb8c9b8f	-0.004291005
53	0x3c37cd09	0.011218318
54	0x3c91f847	0.017818583
55	0x3d1bb16f	0.03801101
56	0x3db19590	0.08671105
57	0xbcb98958	-0.022648498
58	0xbc779275	-0.015110602
59	0xbd73a6cd	-0.059485245
60	0x3dabe823	0.08393886
61	0xbc2c9c93	-0.010535377
62	0xbd255664	-0.04036559
63	0xbcac1915	-0.021008054
64	0x3c1c3cd2	0.009535985
65	0x3d540584	0.051763073
66	0x3c9c54bf	0.019083379
67	0x3d6d5435	0.057941634
68	0x3ba42de1	0.005010352
69	0xbc2d0a2b	-0.010561506
70	0xbd6cb413	-0.05778892
71	0xba594b49	-0.00082891114
72	0xbd2e3f0a	-0.042540587
73	0x3d52404d	0.051330853
74	0xbd32be2d	-0.043638397
75	0xbd58c2a3	-0.052919995
76	0xbc84a8ab	-0.016193708
77	0x3c9ae460	0.018907726
78	0x3ca6a9ee	0.0203447
79	0x3c472e0d	0.012156975
80	0x3d26ce5d	0.040724147
81	0x3bb635d2	0.005560615
82	0xbd19e9fb	-0.037576657
83	0x3da261b4	0.07928792
84	0x3c79ccb6	0.015246561
85	0x3ca3a79e	0.019977387
86	0x3d8db359	0.069189735
87	0xbc964a69	-0.018346028
88	0xbd1395ee	-0.036031656
89	0x3c67fbcd	0.014159155
90	0xbd29eac4	-0.041483656
91	0xbcd44c01	-0.025915148
92	0xbd057833	-0.032585334
93	0xbcd4072d	-0.025882328
94	0xb8d6eba4	-0.00010248207
95	0xbc5e7de6	-0.013579821
96	0xbc94b349	-0.018151896
97	0x3d16a89b	0.03678189
98	0x3d3f4253	0.04669411
99	0xbba8dfb3	-0.00515362
100	0xbc52df33	-0.012870598
101	0x3d639cc9	0.055569444
102	0xbb794583	-0.0038035817
103	0x3d19dd33	0.037564468
104	0xbd5f7d7d	-0.054563034
105	0xbcaf28dc	-0.021381788
106	0xbd1599aa	-0.0365235
107	0x3d5ac308	0.053408653
108	0xbd09ec5a	-0.033672668
109	0xbd0a05f8	-0.0336971
110	0xbd880f4d	-0.066435434
111	0x3d465e7e	0.04842996
112	0xbbeaef0d	-0.0071696104
113	0x3c1553f3	0.009114253
114	0x3d352df5	0.04423328
115	0xbc8f12fc	-0.017465107
116	0x3d2bc605	0.041936893
117	0xbc01b1ba	-0.0079159085
118	0x3c7df169	0.015499451
119	0x3d62043b	0.055179816
120	0xbd22f876	-0.039787732
121	0x3cb57448	0.022150174
122	0x3cd9320c	0.026513122
123	0xbbd2bb76	-0.0064310385
124	0x3da5b67b	0.08091446
125	0xbd802bd4	-0.062583596
126	0xbd343034	-0.043991283
127	0x3d9fabb1	0.077964194

weight f4 [256, 256, 1, 1]
0	0xbd948308	-0.07251555
1	0x3ceed6c3	0.02915514
2	0xbd8fc1aa	-0.0701936
3	0xbd5e366b	-0.054251116
4	0xbd433552	-0.047658272
5	0x3d10c5a7	0.035344746
6	0x3ca3f19b	0.020012667
7	0x3d585535	0.052815635
8	0xbc26b972	-0.01017605
9	0xbc8e73b8	-0.017389163
10	0xbc51be22	-0.012801679
11	0xbd5dd9de	-0.054162852
12	0xbd0bc832	-0.034126468
13	0xbd4b5c68	-0.049648672
14	0x3b3c5f5a	0.0028743357
15	0x3d3220c3	0.043488275
16	0x3cf522f9	0.029923903
17	0xbcac6123	-0.021042412
18	0xbd30a117	-0.043122377
19	0x3d0a7df2	0.033811517
20	0xbcd332f6	-0.025781136
21	0x3cfeab7c	0.03108763
22	0xbd86c97f	-0.06581401
23	0xbc34c278	-0.011032693
24	0x3cd77d28	0.026304796
25	0xbd861ae0	-0.06548095
26	0xbd234d84	-0.039868847
27	0xbc89d84e	-0.016826775
28	0xbc8ca388	-0.017167822
29	0x3cc151e8	0.023598626
30	0xbd46b140	-0.048508883
31	0x3d18e790	0.03733021
32	0xbdb63851	-0.0889746
33	0x3d0df87f	0.034660812
34	0xbd335114	-0.043778494
35	0xbd244fd5	-0.040115196
36	0x3d56f40c	0.052478835
37	0xbd1ee22e	-0.03878992
38	0xbd9bd181	-0.07608319
39	0x3d8270d8	0.063691795
40	0x3af35250	0.001856396
41	0xbb732a64	-0.0037104124
42	0xbcc84d85	-0.024451027
43	0x3d9b6ff7	0.07589715
44	0x3c828df3	0.015936827
45	0x3cc0acc1	0.023519875
46	0xbd84b39d	-0.06479571
47	0x3c226e6a	0.00991402
48	0x3be6dba2	0.0070452252
49	0xbcc3dfd5	-0.023910442
50	0xbd045aac	-0.032313034
51	0x3c1a4d08	0.00941778
52	0xbdb14d70	-0.08657348
53	0xbd2a30db	-0.0415505
54	0xbcdc4450	-0.026888043
55	0xbdfc5b46	-0.123220965
56	0xbd9651c5	-0.07339815
57	0x3d3c7ac9	0.046015535
58	0x3d5cf02c	0.053939983
59	0x3ba1cb3f	0.004937559
60	0xbbe76441	-0.0070615117
61	0xbd50122a	-0.050798573
62	0x3cd1f778	0.025630698
63	0x3c44a995	0.012003322
64	0x3d8bd7a5	0.0682824
65	0x3d34ef5f	0.044173595
66	0xbd8b096a	-0.06788905
67	0x3c424d2a	0.011859218
68	0x3d90e7b2	0.070754424
69	0x3cef08f4	0.029179074
70	0x3c2ecea6	0.010669386
71	0x3cdc7ea3	0.026915854
72	0x3ca7448f	0.020418433
73	0xbd947b6a	-0.07250102
74	0x3b7db85b	0.003871462
75	0x3d35b87d	0.044365395
76	0x3c95d78c	0.018291257
77	0x3bd5ea23	0.0065281554
78	0xbd8358b5	-0.06413404
79	0xbd047f8d	-0.032348204
80	0xbc775c26	-0.0150976535
81	0x3d822195	0.063540615
82	0xbc89d3eb	-0.016824683
83	0xbcf8e408	-0.030382171
84	0xbcc0541c	-0.023477606
85	0xbc957fc4	-0.0182494
86	0xbd4c1e39	-0.04983351
87	0xbc98ec8e	-0.018667486
88	0xbe197300	-0.14985275
89	0x3d3d223b	0.046175223
90	0xbe07db90	-0.1326735
91	0xbd0ee4ab	-0.034886044
92	0x3d28d400	0.041217804
93	0x3d179ce2	0.03701485
94	0xbd2f1291	-0.042742316
95	0x3caa07de	0.020755704
96	0x3cfd1a93	0.03089646
97	0xbcad24fe	-0.021135803
98	0x3bda2806	0.006657603
99	0xbcb5cd49	-0.022192614
100	0xbdb9d606	-0.09074025
101	0xbddac5eb	-0.10682281
102	0xbb08f8c8	-0.0020900238
103	0x3ccd3f55	0.025054613
104	0xbd349909	-0.04409126
105	0xbdb1cbef	-0.08681475
106	0x3d96ecee	0.073694095
107	0xbd8d5ceb	-0.06902488
108	0xbd85544a	-0.065102175
109	0xbcffbe56	-0.031218689
110	0xbc1ef330	-0.009701535
111	0x3c6a84d7	0.014313898
112	0xbcb638a3	-0.022243803
113	0x3caec06b	0.021331986
114	0xbccc0003	-0.02490235
115	0xbd449d06	-0.04800131
116	0x3d65d6b8	0.056112975
117	0xbd8f1a9b	-0.069874965
118	0xbdd5a31d	-0.10431502
119	0x3cb36b5c	0.021901779
120	0xbd458162	-0.048219092
121	0xbc39e226	-0.011345422
122	0x3d32cc9f	0.043652173
123	0xbd206d4e	-0.03916674
124	0xbc89a6fa	-0.016803253
125	0x3ca31def	0.019911734
126	0xba78c11e	-0.0009489226
127	0xbd6ee180	-0.058320522
128	0xbd9009cc	-0.070331186
129	0xbd1b9220	-0.037981153
130	0xbd6161aa	-0.05502478
131	0x3b811ad1	0.0039399643
132	0x3d13ffaf	0.03613251
133	0xbcf36f93	-0.029716289
134	0x3d0ef163	0.034898173
135	0x3ce259d6	0.027630728
136	0x3d1e8a8b	0.038706344
137	0xbd4dfbba	-0.050288893
138	0xbda85194	-0.08218685
139	0xbcd2d58e	-0.025736596
140	0xbcdb19b3	-0.026745653
141	0x3bb5f650	0.0055530444
142	0xbbee6b13	-0.007275948
143	0x3cee3293	0.02907685
144	0xbd5b17bc	-0.05348943
145	0xbcf0f99a	-0.029415894
146	0xbd83a64e	-0.064282045
147	0xbcff2a63	-0.031148141
148	0x3d12a2a6	0.035799645
149	0xbd4ed5c4	-0.05049683
150	0xbd482945	-0.048867483
151	0xbb9681dd	-0.0045931176
152	0xbd1f214f	-0.038850125
153	0x3d572b3a	0.05253146
154	0xbd12230f	-0.035677966
155	0x3baded05	0.005307796
156	0x3c749a49	0.014929363
157	0x3c1cb961	0.009565682
158	0x3c87b4bb	0.016565671
159	0xbd6dd553	-0.05806477
160	0xbdb37d1c	-0.08764097
161	0x3d3d9fed	0.046295095
162	0xbd2f752b	-0.04283635
163	0xbc49bf54	-0.012313683
164	0xbd10c8b7	-0.035347667
165	0xbda5687d	-0.0807657
166	0x3cea27f3	0.028583502
167	0x3da04214	0.078251034
168	0x39b42651	0.00034360823
169	0xbd8a34b7	-0.06748336
170	0x3d3bc9ab	0.045846622
171	0x3bdfe888	0.00683314
172	0xbc878fab	-0.016547998
173	0xbd1f499e	-0.038888566
174	0xbb9377b9	-0.004500356
175	0xbd8f6989	-0.07002551
176	0xbc208556	-0.009797415
177	0x3c5de0d4	0.013542373
178	0x3d0de931	0.034646217
179	0x3ce14d8f	0.027502803
180	0xbc8bea06	-0.017079365
181	0x3c890409	0.016725557
182	0x3d5117e0	0.05104816
183	0xbd8b9665	-0.06815795
184	0x3cbec75d	0.023288423
185	0x3d0705df	0.032964583
186	0x3c06613d	0.008201894
187	0xbca8e374	-0.02061627
188	0xbd0a18a3	-0.0337149
189	0xbdc8eb59	-0.09810514
190	0xbbcee009	-0.006313328
191	0x3cb62a7f	0.02223706
192	0xbd07bd2b	-0.03313939
193	0xbd3835c1	-0.04497314
194	0xbd36f257	-0.044664707
195	0xbd4233da	-0.04741273
196	0x3cc9863f	0.024600146
197	0xbcceeb38	-0.025258645
198	0x3cfb36a4	0.030665703
199	0xbd90b96c	-0.070666164
200	0x3c2e207c	0.010627862
201	0x3cc7edb4	0.024405338
202	0xbb750e05	-0.003739239
203	0x3d5bea96	0.053690515
204	0x3ca046d6	0.019565027
205	0xbd0ba9d8	-0.034097522
206	0xbd19c794	-0.03754385
207	0xbcaba2ce	-0.020951655
208	0xbdadd31a	-0.0848753
209	0xbb4c7833	-0.0031199574
210	0x3d51c092	0.05120904
211	0xbd67e52d	-0.056615043
212	0x3cd9ba5e	0.026578125
213	0xbd034b90	-0.032054484
214	0x3c207c4f	0.0097952625
215	0x3c5102b3	0.012756991
216	0xbce8ac90	-0.028402597
217	0xbd5e13fc	-0.054218277
218	0xbe05240b	-0.1300203
219	0xbb9b0e8a	-0.004731958
220	0x3c2cbfa4	0.010543738
221	0xbd1813ca	-0.037128247
222	0xbd25c953	-0.0404752
223	0xbd9bdf1e	-0.076109156
224	0xbce910bf	-0.028450368
225	0xbce8e997	-0.028431697
226	0xbc9dd5a2	-0.019266907
227	0xbcd59736	-0.02607308
228	0xbc19de4b	-0.009391378
229	0xbd821d41	-0.06353236
230	0xbc5be8f9	-0.013422244
231	0x3ca1e1f9	0.019761072
232	0x3d34ebc3	0.044170152
233	0xbc22edfc	-0.009944435
234	0x3d07ac5b	0.033123355
235	0xbda34ccb	-0.079736315
236	0x3d0f31c7	0.03495958
237	0xbcbb984a	-0.022899766
238	0x3cb0371d	0.021510655
239	0xbd6f796c	-0.058465406
240	0x3c88d3c5	0.016702542
241	0x3d3f7e0c	0.046751067
242	0xbd674c76	-0.056469403
243	0xbda3b18c	-0.07992849
244	0xbc613d2a	-0.013747493
245	0xbd6099e9	-0.05483428
246	0xbda402ef	-0.08008372
247	0x3c3b2bb3	0.011423993
248	0xbd7f7103	-0.062363636
249	0xbc5d28ea	-0.013498524
250	0xbd3b2e14	-0.04569824
251	0x3d878c64	0.06618574
252	0xbd2f09f3	-0.042734098
253	0x3b8c26b3	0.0042770742
254	0x3d1be810	0.03806311
255	0xbc539707	-0.012914426
