E-GraphSAGE/experiments/model/None_None_MLP_NF-BoT-IoT-v2_best_model.pth (torch, 356458 bytes, 10 tensors)

weight f4 [128, 78]
00000000: 2409 a03d 336c e3bd 4cb1 853c 2ce0 97bd
00000010: 7ffe 9a3d 06b7 abbd 7525 4cbc 4e82 9b3b
00000020: 9e75 babd f344 debd fa8a 9d3d 0227 babd
00000030: 521d b83d 3e4a e1bc 59b8 f13c be13 04bd
00000040: 8651 95bc b907 bcbd 88ef 3bbd 0dc8 c7bd
00000050: 732c d93d 0b8a 9ebc b0cb b03d b3fe 4bbb
00000060: 49f8 60bd 3935 b73c 3e32 b63c a267 c03d
00000070: f1e2 bebd 84a6 c33c cd9b e7bd ee9d 07bd
00000080: 9cc9 57ba 570a da3d 7133 d33d c74c e1bd
00000090: 19e6 a4bd d194 b03c 9ddb 05bc 8e34 c8bd
000000a0: b076 29bd 4796 bb3c ae10 f4bc 8e8d aa3d
000000b0: 6ad9 a83d 6112 d6bd e180 3abd bbde 02be
000000c0: 397c 53be d14d 86bc 28db 933d c6b0 34be
000000d0: 84ca 69bd 3572 8a3d 775c 7dbe 1e8d a43c
000000e0: e9bf c63d 8af0 8ebd 5f38 673d 4de0 b63d
000000f0: 0302 24bd 4a76 63bd 0295 d43c 1026 a23d
00000100: 0fc1 a4bd a99f 0dbd 3b28 ff3d fd7c 123d
00000110: 962e babd 7e57 a5bd 1d95 2d3c 1331 fcbb
00000120: 34d4 923d e7f3 b2bd ebf3 bdbd 3d5a 7cbd
00000130: 6869 cf3d 4371 4e3b 0ee9 7d3d c8a7 923d
00000140: 37cf 903d 2c06 abbc 58c9 08bd 1db0 9fbd
00000150: 7f00 9dbd 7d22 d03d 10af f1bd 74fb 983c
00000160: 81f8 f0bd b413 a0bc d6df b1bd 6ec9 263d
00000170: d195 b2bd ee71 4dbd 9e0b acbd d083 a13d
00000180: c0db 0e3d 70ef 0e3d 6bcd bbbd 937c 8bbd
00000190: f69c 8cbd 0358 b53b c8f6 bf3c a364 ddbd
000001a0: 58fb 87bd 6e90 843d 7bf4 953d b018 ae3d
000001b0: a224 f2bb 2079 88bd fbc2 3e3d b542 a8bd
000001c0: aaff 34bd 753b c13d bcb1 533d e9fe ce3d
000001d0: 5b66 dbbd 9399 bebc de89 debd a43f 67bc
000001e0: 10a0 a63d 2964 e4bc 003e ddbd 8dac 8ebc
000001f0: 0238 64bd ddcf f1bd 0203 1c3d 91e7 0e3e
00000200: c9d5 af3d cc9e 663c 8471 133d 1052 583c
00000210: 67d5 81be 226e b1bd 1b41 a73c 1422 18bc
00000220: 537e cc3d 8766 973d 0cb0 42ba 3e26 8fbc
00000230: 524c f6bd 07b9 03be 5056 aebc 5e5a 62bd
00000240: af1a 83bd b8d8 37bd 040d 96bd 7907 cf3d
00000250: 1d72 a83d ed14 2c3c dece a5bd 2885 04bc
00000260: 3380 3b3c 1b5d 9e3c 611d b3bd 6151 f23d
00000270: 39dc c93d 2900 c8bc 1109 a7bd 2b8e 94bd
00000280: f97d 823c 39f6 633d e9b7 aabd b703 653d
00000290: b3aa c13d 485a 573d 2ee7 983d 3ae6 b7bd
000002a0: 8a3c 85bd fda3 52bd f67d 39bd aade bbbc
000002b0: 7422 a2bc b71c fe3c 6abe b63d e395 53bd
000002c0: abc7 50bd 06f1 f4bd f486 b6bd 8f70 86bc
000002d0: d51f d1bd 2e44 853d 2e1c a13d cdd5 663c
000002e0: 5ff0 cebd bbfb bcbd a6b0 c73d 3f96 81bd
000002f0: 431d 88bb daa4 a1bd 8c8e f0bd 0d87 abbd
00000300: a68e 8dbd 158d be3d 1d1d 573c 955d 6ebd
00000310: 2d95 d2bd 7e71 c8bd 8d57 b73d 7df1 0ebd
00000320: e466 9e3c 0d5b a03c f257 52bd 90bf 0cbd
00000330: 98a4 22be 9a0d ebbd 3cf0 d33d 4531 0ebe
00000340: a66e 063d 2726 28bd d17b 313e c404 c0bd
00000350: 0a4d c43d edc6 983d 88fb 8b3d 5c82 753d
00000360: 26e4 a3bd 0b35 d5bd 0e4a 243a 9330 9d3b
00000370: 58f0 ac3d 4695 e0bd 6092 733d cf7d f9bc
00000380: aaaa f03d 9a55 003d c5ed ddbd 7624 983d
00000390: d06f 2d3d c082 e9bd 8b55 fbbd 3f57 673d
000003a0: 24f1 aebd f58f 543d 7ab5 12bd 0984 cdbd
000003b0: 30eb 423d 15a7 47bc 49aa e0bc 7456 20bb
000003c0: 3854 193d eafb 49bd 39f8 fcbd 8318 5d3c
000003d0: 40fa 293d f166 cbbd 6669 373d 9485 17bd
000003e0: 5231 49bd c523 79bd 57e6 72bd ad4d c0bd
000003f0: 3243 a03b 0693 82b9 b296 8d3d d6f9 393d
0.078142434 -0.11104622 0.016319893 -0.07415804 0.075680725 -0.08384518 -0.012460102 0.004745758
-0.09104465 -0.10852995 0.07692523 -0.090894714 0.089899674 -0.027501222 0.02950685 -0.03224539
-0.01822735 -0.091811605 -0.04588273 -0.097549535 0.10604181 -0.019352933 0.086326 -0.0031127154
-0.054924283 0.022364246 0.022240754 0.093947664 -0.093206294 0.023883112 -0.113090135 -0.033109598
-0.0008231641 0.106465034 0.10312546 -0.11000972 -0.080517 0.021555336 -0.008170036 -0.09775649
-0.041372955 0.022898806 -0.02979311 0.08327781 0.082445934 -0.10452724 -0.045533065 -0.12780277
-0.20652856 -0.016394528 0.07219535 -0.17645559 -0.0570779 0.067600645 -0.24742304 0.020086821
0.09704573 -0.06979473 0.056450244 0.08929501 -0.04004098 -0.05553273 0.025949959 0.07917416
-0.080446355 -0.034576092 0.12458845 0.03576373 -0.09090917 -0.080733284 0.010594633 -0.00769628
0.07169381 -0.08737927 -0.09275039 -0.061609495 0.101275265 0.0031500615 0.061989836 0.07160908
0.07070773 -0.020876966 -0.03339514 -0.07797263 -0.0766611 0.10162828 -0.11800969 0.01867459
-0.11766148 -0.019540645 -0.086852714 0.040719442 -0.087199815 -0.05015748 -0.08400653 0.07886469
0.03487754 0.034896314 -0.0917004 -0.0681087 -0.068658754 0.0055341735 0.023433104 -0.108102106
-0.06639737 0.0647286 0.073220216 0.085008025 -0.007389621 -0.06663728 0.046572667 -0.08215848
-0.044189133 0.09435169 0.051683173 0.10107214 -0.10712882 -0.02326659 -0.1086614 -0.014114294
0.08135998 -0.027879791 -0.10802841 -0.017416263 -0.055717476 -0.11807225 0.038088806 0.13955523
0.08585698 0.014075946 0.03599693 0.013203159 -0.25358126 -0.08663584 0.020416787 -0.009285469
0.09985032 0.073926024 -0.0007426746 -0.01747429 -0.12026276 -0.12863551 -0.021281391 -0.055261962
-0.06401574 -0.044884413 -0.07326701 0.10108847 0.082248904 0.010503036 -0.080960974 -0.008088388
0.011444139 0.019331506 -0.08745838 0.11831928 0.09856457 -0.024414139 -0.08156026 -0.07253679
0.015929209 0.055654738 -0.08335859 0.055911746 0.094563864 0.052576333 0.07465969 -0.08979459
-0.065056875 -0.051425923 -0.04528614 -0.022933323 -0.01979182 0.031019552 0.08923037 -0.051656615
-0.05097167 -0.11960034 -0.08912459 -0.016411094 -0.102111496 0.06507145 0.07866703 0.01408906
-0.10104441 -0.09227701 0.0975049 -0.06327485 -0.004153879 -0.07892771 -0.11745939 -0.08375368
-0.06911974 0.09304253 0.0131295 -0.058194716 -0.10282359 -0.09787272 0.08952246 -0.03489827
0.019336171 0.019574666 -0.051353402 -0.034362376 -0.158831 -0.11477204 0.103485554 -0.13885982
0.032820366 -0.04105201 0.17332388 -0.09375909 0.095850065 0.07459817 0.06835085 0.059938774
-0.080025 -0.10410508 0.00062671385 0.0047970503 0.084442794 -0.10965972 0.059465766 -0.030455498
0.117513016 0.031331636 -0.108363666 0.07428829 0.04234296 -0.11401892 -0.122721754 0.05647969
-0.08542088 0.0518951 -0.0358176 -0.10034949 0.047587574 -0.012185832 -0.027424948 -0.0024465593
0.037433833 -0.04931251 -0.12352032 0.013494614 0.041498423 -0.09931744 0.04477825 -0.036992624
-0.0491193 -0.060825128 -0.0593017 -0.093898155 0.004890823 -0.00024905073 0.069135085 0.045404278

bias f4 [128]
00000000: cc40 9c3d 4075 9c3c 052a 5e3a b545 a2bd
00000010: a208 883d 94ce 99bd 55bc 483d 2fb7 933d
00000020: d5cc 9ebd 7de3 a13d 438d c3bd 67e3 a5bd
00000030: 0b14 4c3d a0b4 b93d cb55 ba3d fb61 64bc
00000040: 3636 ce3d a58e 7dbd 852f a1bd 41df e53c
00000050: e168 81bd 705e 103c 3032 7ebd ab59 c33d
00000060: 0986 c9bd 2404 a9bd 057b 7a3c e3f6 023e
00000070: 4a95 893d 8ba2 4abb a24a 9bbd 509e 9c3d
00000080: 54c6 3a3b 878f 7bbb 00ff cb3c 30b4 10bc
00000090: b455 1cbd a57f 873d da18 02be b8d1 e73d
000000a0: 7370 06bb c14d b9bd 1f79 733c 0c35 2a3d
000000b0: 60eb 4abd 37e6 cc3d b630 ad3d 4fea a3bc
000000c0: df4a ae3c e294 e43c f8ed 93bc b17e 6dbd
000000d0: 3f3a 913b 0ba8 8fbd d063 4cbc 07e9 a0bc
000000e0: c5b4 2ebd 4e01 993d a5c9 aa3d 7074 77bd
000000f0: f8f6 a13d 7e92 acbd c74c 073c a847 93bd
00000100: c4a1 d43d 147d f43c 046d c63d 86f0 cd3d
00000110: 37cb 01be 51b7 42bd b258 c8bd 1880 26bd
00000120: 4aee 9bbd 3e34 743d 33bc 6d3d 1686 a23d
00000130: 0ac7 56bc bf35 05be fb76 90bd 5a70 4a3d
00000140: 0ed3 63bd e50d c0bc 0e60 e6bd 5d5f a8bc
00000150: 367f 103d 6c36 a2bc 2e62 083d 9c90 fabd
00000160: a6d3 e5bd 7381 ab3d d707 c3bb 2a7d f9bd
00000170: 08c9 1fbc ee47 d23c 1f3d 763d de34 b13d
00000180: bdb8 db3d 81cd d83d 4e1c dd3c 526b 85bd
00000190: 854e a3bd bd4b 293d 3f12 88bd c1dc 313c
000001a0: 65b6 6dbd 7095 bbbc 3cd0 f1bd 1ed5 53bd
000001b0: 9dc9 c33d 16e1 58bc ddb6 b0bc 8e97 6b3d
000001c0: 7af3 98bd be49 a03d 4a48 dc3d deef 6ebd
000001d0: bd0e 6cbd 45bc 9c3c 4eeb 35bb 5889 c13b
000001e0: 6a3e 87bc 6bd3 b8bd 56be ed3d e4e2 a23c
000001f0: 45e1 c4bd 502b 053d 8381 833d 9921 c43d
0.076295465 0.019098878 0.00084748893 -0.07923452 0.066422716 -0.07510105 0.049007732 0.07212674
-0.07753912 0.07904718 -0.09548428 -0.08100014 0.049823802 0.090676546 0.09098395 -0.013939376
0.10068934 -0.061903615 -0.07870392 0.028060557 -0.06318832 0.008811578 -0.06205958 0.09538587
-0.09840018 -0.08252743 0.015288119 0.12789492 0.06717928 -0.0030919637 -0.075825945 0.07647383
0.002849956 -0.003838511 0.024901867 -0.008832023 -0.03816767 0.06616143 -0.12704793 0.113192976
-0.0020513802 -0.090480335 0.0148604205 0.041554496 -0.049540877 0.100048475 0.084565565 -0.020009188
0.021275936 0.027903024 -0.018057808 -0.05798215 0.0044319923 -0.070144735 -0.012474969 -0.019642366
-0.042652864 0.07470952 0.08339242 -0.060413778 0.07908434 -0.08426379 0.008258051 -0.07191402
0.10382417 0.029844798 0.09688762 0.10055642 -0.12675177 -0.047538105 -0.09782542 -0.040649503
-0.076138094 0.059620135 0.05804081 0.07935731 -0.013108978 -0.13008784 -0.07053944 0.049423553
-0.0556212 -0.023444125 -0.1124879 -0.020553285 0.035277568 -0.019801341 0.033296756 -0.12234613
-0.11222009 0.083743 -0.0059518623 -0.12182076 -0.009752519 0.025669064 0.060116883 0.08652662
0.107285954 0.10586072 0.026991036 -0.0651461 -0.07973961 0.041331995 -0.06644105 0.0108558545
-0.058035273 -0.022898406 -0.11807296 -0.051716916 0.09559939 -0.013237258 -0.021571571 0.05751758
-0.074683145 0.07826565 0.107559755 -0.058334224 -0.057631243 0.019132743 -0.002775866 0.005906265
-0.016509254 -0.090247 0.11608569 0.01988358 -0.09613279 0.03251201 0.06421187 0.09576721

weight f4 [128, 167]
00000000: 3fb0 91bb ab5a df3a 4dc3 d13c 4576 4c3b
00000010: 14b0 333d 36eb ae3d 3ac9 0ebd 4066 85bd
00000020: 8206 dd3c de63 15bb 0231 d53c cb68 4dbd
00000030: e9cc 213d e4dc b63c 1f17 16bd 3167 80bd
00000040: 2be5 9a3c 6009 7e3d 6473 d83b d94a 11ba
00000050: b656 26bd 10d7 3bbd b63c b9bc d8e6 f5bc
00000060: 8249 35bd a3d5 ff3b 2363 41bc fd20 753c
00000070: d5b9 583d 9458 033d 55a1 31bc ba5d e83c
00000080: 21ae 193c e915 36bc dddb 8cbd d560 673c
00000090: 909a 233d 12dc f73c fea0 5abd 6902 2dbc
000000a0: 0af2 a33d 4490 5dbd 1d8d 223c 282a 0d3d
000000b0: 6154 903c 388a c2bc bcd2 a8bd b7d7 84bd
000000c0: 83e2 c43d 7190 31bd 155a 55bd ab5e 0abd
000000d0: 9ab7 0ebd e469 c9bd cd92 c0bd 0507 8c3c
000000e0: 2be3 333d 9569 3abd b5e9 7f3d 43f3 613d
000000f0: 71f1 453c ca4e af3c e802 72bd 17bf 493d
00000100: 36fe 58bc d4e6 323c 5efc 8c3c 20af bdbd
00000110: 4ccb dd39 7f5b ec3d 86ab c93d e015 153e
00000120: 13ea 883d aa9d 9bbc acac a4bd 2182 553c
00000130: 8c6f 56bd 087a 023d 7ea7 863b de1a b33c
00000140: 119a 6fbc 5abe 30bb 6071 4f3c 5700 0b3c
00000150: 8179 1b3d cf62 98bd a992 aebd 720e b23c
00000160: 8b5a 013d 3c0c e93d 33cb d63d 4c24 89bc
00000170: d3a8 4bbc 2348 013d 5520 d43d 28fd 91bc
00000180: bf14 fdbb ecc4 dfbd bac5 63bb 66f4 023d
00000190: 7889 b3bd b65f ca3c b013 3c3d 44af 37bd
000001a0: 10ac 03be f810 903d 8af3 f7bc 35b6 a23d
000001b0: bf97 b93c 0d3e ecbc 3650 79bd 92e6 d5bd
000001c0: c94f b2bc c51d 553a e81c 80bd 5c58 923d
000001d0: d83d c33c 78d4 ae3c fc96 c7bb 499a 8ebd
000001e0: df7e 133d f4bb d1bc 8b9a 4eba 5fe1 883d
000001f0: 187a c1bc 8d8a 8d3d a5ba 603d d5b4 823d
00000200: 0e06 5cbc 0ba2 8f3b 1a6b 47bd 0406 c8bb
00000210: ab10 b6bd f4bb a6bd 77e5 e13a 5c8e ddbc
00000220: c4ec bbbb f813 a5bd 9be6 c93c 259c 003d
00000230: 0796 8f3c 0d08 c63b 8e04 09bd 3d4e f1bc
00000240: 475b 563d 6365 78bd 8ae0 79bc a90e b83d
00000250: 4a46 48bd b10a 1bbe 77cc b13d 6221 20bd
00000260: 7933 593d 6e69 51bd bcbb 223c 1d43 c83d
00000270: f439 f83c a58c 06bd a975 9b3c fa4e 073d
00000280: 5727 a03d cd2e 1abd 2088 613a 11d3 2cbd
00000290: 7b4f 39bd 052a 86bd 37aa 08be af27 9abd
000002a0: 452e d5bc c36e b2bc 4920 b63c be41 6f3c
000002b0: df79 cc3c e721 94bd 5709 f1bb 9c22 3d3d
000002c0: d941 70bd a2d4 31bc 2047 953d a4b6 f3bc
000002d0: 8898 a8bc a9ad 883d e762 64bd 779e 0e3d
000002e0: aa93 533d 965c 913d 8478 b4bc c3a4 ad3c
000002f0: 5fb4 e13c 40d6 febb 6662 243d 044e 063c
00000300: 131c f63c 5325 12bd 33fc 1abd 31dd 963d
00000310: a083 283d d1a1 26bb af29 873d de33 a1bd
00000320: b2b3 813d 13d3 11bd ea81 1dbd 6129 c03c
00000330: 6270 a2bd c857 a0bd b16c b53c a4b5 ef3c
00000340: 02dd 343c 3812 093d 44bb c539 4701 653d
00000350: 74ac 9cbd 90c9 f33c 08c4 79bd 5134 693b
00000360: c013 973d 72fb 09bd 44a0 143d c552 f1bc
00000370: aa62 a3bd bf32 6dbd be2e c43c 5f9a 3d3c
00000380: ae81 77bd 03e5 e4bc 3ee7 b53d c6d4 95bc
00000390: f399 35bb 899a 1b3d 7258 223d 7f34 903d
000003a0: bdc2 07bd f434 ad3d d0cd 2dbd c629 053d
000003b0: c586 ddbb fa1c 19bc edb0 bcbb e9ba e53c
000003c0: ec9e 3ebd 1719 3fbd afb1 7f3d 44b1 56bd
000003d0: 6984 763c c2e1 73bc 6eca 5d3d 3d89 abbc
000003e0: 7148 513c c9db 33bd d42e d3bc 9378 f0bc
000003f0: cc1b 49bd 731b 443d ffad 8cbd 8f4e 9bbc
-0.004446059 0.0017040571 0.025605822 0.0031198424 0.043869093 0.08540957 -0.034859873 -0.06513643
0.026980642 -0.0022795121 0.026024345 -0.050148766 0.03950206 0.022322126 -0.036643144 -0.06269682
0.018908104 0.06202066 0.0066055525 -0.0005542464 -0.040610038 -0.045859396 -0.022611957 -0.030017301
-0.044259556 0.00780745 -0.011803421 0.014961478 0.0529116 0.032066897 -0.010841687 0.028365005
0.0093798945 -0.011113622 -0.06877873 0.014122208 0.039942324 0.030256305 -0.05337619 -0.010559657
0.0800515 -0.05409266 0.009921339 0.03446403 0.01761836 -0.023747548 -0.082433194 -0.06486457
0.09613516 -0.04335064 -0.052087862 -0.03378169 -0.034843065 -0.0983465 -0.09403 0.01709319
0.043917816 -0.045510847 0.06247874 0.055163633 0.01208149 0.021399874 -0.059084803 0.049254503
-0.013244202 0.0109192915 0.017210182 -0.09261918 0.00042303873 0.11540889 0.098471686 0.14559126
0.06685271 -0.018996079 -0.08040747 0.013031513 -0.052352473 0.03185466 0.004109322 0.021863397
-0.014624135 -0.0026968927 0.012661308 0.008483968 0.037957672 -0.07440721 -0.08524067 0.021735404
0.03158049 0.11379287 0.10487976 -0.01674094 -0.012430388 0.031562936 0.10357729 -0.01782091
-0.0077234204 -0.10926232 -0.0034755305 0.031971358 -0.087664545 0.024703842 0.045917213 -0.04484488
-0.12858605 0.070344865 -0.030267496 0.079449095 0.022655366 -0.028838182 -0.06086751 -0.104443684
-0.02176656 0.0008129741 -0.062555134 0.071457595 0.0238332 0.021341547 -0.006090997 -0.06963021
0.036009666 -0.025602318 -0.0007881305 0.06683611 -0.02361779 0.06911192 0.054865498 0.06382147
-0.013429178 0.0043833307 -0.048686124 -0.0061042327 -0.08889898 -0.08141318 0.0017234524 -0.027045421
-0.005735012 -0.08060449 0.024646094 0.03139891 0.017527593 0.00604344 -0.03345161 -0.029456252
0.052333143 -0.060643565 -0.015251288 0.08987171 -0.048895158 -0.15140797 0.08681577 -0.039094336
0.053027604 -0.051125936 0.009932455 0.09778426 0.030301072 -0.032848973 0.018977003 0.033034302
0.078200035 -0.03764229 0.0008603353 -0.042193476 -0.045241814 -0.06550983 -0.13346182 -0.075271
-0.02602304 -0.02178133 0.022232192 0.0146030765 0.024960456 -0.07233029 -0.0073558497 0.046175584
-0.058656547 -0.010853918 0.07288957 -0.029750176 -0.020580545 0.06673748 -0.055758383 0.034819093
0.051654495 0.070977375 -0.022030123 0.021196729 0.027551828 -0.0077770054 0.040132903 0.008197311
0.030042684 -0.035680126 -0.037838172 0.07366408 0.041141152 -0.002542604 0.065997474 -0.07871221
0.06333102 -0.035601687 -0.038453974 0.023457231 -0.079315916 -0.07829243 0.022146555 0.029261418
0.0110390205 0.03346464 0.00037714292 0.05590942 -0.0765008 0.029759198 -0.060977966 0.0035584162
0.07376814 -0.033687063 0.036285654 -0.029458413 -0.07977803 -0.057909723 0.02394807 0.0115724495
-0.060426407 -0.027941233 0.088819966 -0.018289935 -0.002771017 0.037989173 0.03963513 0.07041263
-0.0331447 0.08457366 -0.042432606 0.03251054 -0.0067604505 -0.009345287 -0.005758396 0.028043227
-0.04653828 -0.046654787 0.06242531 -0.052415147 0.0150462175 -0.014885368 0.05414813 -0.020939464
0.012773619 -0.043910775 -0.025779165 -0.02935437 -0.049098775 0.04787774 -0.068691246 -0.018958358

bias f4 [128]
00000000: 3913 833d c085 523c 7c35 ad3c 02ba c1bc
00000010: 82ed 8c3d d5cf 7b3c da9b 803d d5f3 163d
00000020: 5646 edba 8105 24bd d414 20bd 3cdb 84bd
00000030: 325f 17bc 914a 69bb 7c6a 213d 2bd8 6f3c
00000040: 78b3 3ebd e935 963d 46f2 2fbc a1c5 573d
00000050: 2d3c a63d 827b b93c 1962 873d f18b 60bc
00000060: 0731 8a3d f4f5 5cbd bde8 8bbd ba0a 98bc
00000070: 37d1 0f3c a074 07bc 195d 223c 63ca 043d
00000080: dd60 d03c 0cd1 093d 1fc3 313d 83e9 a9bd
00000090: a86a b2bc e052 e4bb 6a96 9e3b 642a 4a3d
000000a0: a254 7abd f703 cd3c 110c 5fbd 068b 8e3d
000000b0: de85 843d ac94 763c b165 013b 9583 34bd
000000c0: 1bd6 28bc 5d83 02bd 93eb 9a3d 0213 983c
000000d0: 596b 233c 12be 64bd c578 713d 40a4 983c
000000e0: 659d 7cbd 3dfe 393d 8137 283d 20b1 883d
000000f0: 593d 2c3d c7ac 803c b0c3 28bc e5bf 7c3c
00000100: 9983 ea3c f760 83bc fe20 0b3d 2143 bf3c
00000110: 8ff7 b83d deb6 ec3b e3cd b53c c88f 4abd
00000120: 0c2e 04bd d627 a33d 3939 a1bc d13f 38bd
00000130: 22ec fdbc 1a1e 2c3c eeeb 273d f833 343d
00000140: 97f3 7c3d cd49 bd3d c560 403d d217 9ebc
00000150: 0b51 a73c da0a 783d 4835 59bb 7132 1d3c
00000160: 31c4 8d3c dcb8 c03c 190b 90bb 56e7 653d
00000170: c843 253d 336f e33c 963e 7b3d ee39 c73c
00000180: 3144 11bd 843e f63c f986 c23c 019f 9ebc
00000190: 6110 7abb ac9d dfbc 94b8 8abd 0717 60bd
000001a0: 9671 f4bc 152b 3fbd 74c4 533d a21f 91bc
000001b0: c42c 3a3d 4098 b23c 4a7b 413d 6587 f33c
000001c0: 9cb2 95bd 0f7f 663d 51ea 02bd 5f94 9b3d
000001d0: 54ae 813b 245c 473c bcd9 6e3d 8662 50bd
000001e0: 2995 0f3d f319 a93c 330a ac3d 584e 143b
000001f0: e780 11bd 00ba 9f3d 4a55 1f3c d2da 03bc
0.06400151 0.012849271 0.021143667 -0.023648266 0.068812385 0.015369375 0.06279726 0.03685363
-0.0018102627 -0.04004431 -0.039082363 -0.06487128 -0.009239005 -0.0035597424 0.039408192 0.014638941
-0.046557873 0.07334501 -0.010738915 0.052678708 0.08116946 0.0226419 0.066105075 -0.01370524
0.067476325 -0.053945497 -0.06831501 -0.018559802 0.008777908 -0.008267552 0.0099098915 0.032419574
0.025436813 0.03364663 0.043398973 -0.08296492 -0.021779373 -0.0069678873 0.004839708 0.049356833
-0.06111587 0.025026305 -0.054454867 0.0696011 0.06470846 0.015050095 0.001974445 -0.0440708
-0.010304953 -0.03186356 0.075644635 0.018563751 0.009974324 -0.055845328 0.058953065 0.018633008
-0.06167354 0.045408476 0.041068558 0.06674409 0.042050693 0.015707387 -0.010300562 0.015426611
0.028627204 -0.016037447 0.03396701 0.02334744 0.09031593 0.007223948 0.022192901 -0.049453527
-0.032270476 0.079665825 -0.019680606 -0.044982735 -0.030996386 0.010505224 0.040996484 0.043994874
0.061755743 0.09242592 0.046967287 -0.019298468 0.020424386 0.060557224 -0.003314333 0.009594546
0.017305465 0.023525648 -0.004395854 0.056128822 0.040347844 0.027762985 0.061338983 0.024319615
-0.035465423 0.030059107 0.023746 -0.019362928 -0.0038156735 -0.027296863 -0.06773487 -0.05470946
-0.029839318 -0.046671946 0.051701024 -0.017715279 0.045452848 0.021801114 0.04723672 0.029727647
-0.07309458 0.056273516 -0.031961743 0.07596659 0.003957549 0.012167964 0.058313116 -0.05087521
0.03505436 0.020642256 0.08400383 0.0022629704 -0.03552332 0.077991486 0.009724924 -0.008047776

weight f4 [128, 167]
00000000: b6f3 84bc d521 a0bd 65bd 6cbd 4e43 373d
00000010: b8eb d23c e9b8 50bd 4f4d a9bd 9032 b7bc
00000020: 7b66 c6bd 5457 453d 02aa 0cbd 322d 4a3d
00000030: 04b2 983d 3339 213d 72ef 12bd a141 9b3c
00000040: c745 993b c544 de3d 696d debc 3536 9cba
00000050: 1ba4 ce3d 54e6 ac3d 5f94 873d 4bd5 bbbc
00000060: 10b1 1e3d 88df 163d 4723 aebc f282 dbbb
00000070: 7110 1b3e 37d6 d53d e818 58bd 697a 59bc
00000080: 6ec7 8d3d 8e30 b9bd 78de e1ba a8fc f9bc
00000090: 8eda 5d3d 19e8 373d 3e3f 7bbb 97e6 91bb
000000a0: 231a 86bc 83e7 283e f1f0 1c3d fcc5 0c3d
000000b0: 683e 363b f282 09ba cc87 6f3d 9ce2 63bd
000000c0: f9d4 063e 5b33 bd3b 9ec4 f33c 4626 cb3c
000000d0: 62bd 8f3d dc5a b03c 1c20 553d 8314 e73c
000000e0: 22d2 443d ddd3 813d e6bd d7bc c692 2cbd
000000f0: bc20 5e3c 848c 85bd ec14 803c 6d83 e13c
00000100: 12cc c9bd e877 77bd c162 74bd cbfc 48bd
00000110: 99a6 b53d 0514 c4bd e0dd 563d 656c 4abd
00000120: ee39 62bd 044a 983d bb01 42bd 0989 a23d
00000130: dc5f 843c e903 0a3d 5f5f 563d 8e45 4c3d
00000140: 48d4 593c 6ad6 84bd 77a5 d3bb 8592 9abd
00000150: c6a9 1dbd 6aa8 ac3d d07d 803d 53c7 c23c
00000160: 730c 80bb 8eb5 163d d640 9cbd 792d 013d
00000170: c2cd d7bc 787b 95bd c399 943d 4fb7 ef3c
00000180: 9b3b 613d 6747 673c 292c 02bb 2c59 87bd
00000190: 3f6a 0f3c 3386 8dbd b346 90bc 7189 fd3c
000001a0: 0a47 34bd 1b10 8e3c 1511 a73c df57 b63d
000001b0: 51d0 003d d463 abbd 8d65 993c 4e67 363d
000001c0: 7911 c0bb 53ee a1bd b619 1f3b 4d72 53bd
000001d0: 9112 913d 9b7c 903d 1bd8 62bd b136 a13d
000001e0: bee1 f23c f0bf 303d 6083 8d3c 7750 f7bc
000001f0: 0838 85bc f74e 1f3d ee90 b8bc afc0 19bd
00000200: ae62 62bd b28f 2d3d 7b91 05bd e991 dfbc
00000210: 26ed 953b 5597 77bd 3441 2dbd 21f6 8f3d
00000220: 870e 473d 6ae5 74bd b205 6f3d 17ba 35bd
00000230: 701b 5dbd d8db 7438 5897 153d 7a1c a0bc
00000240: 2e42 52bd f609 de3c 461f 6ab9 1e39 c73c
00000250: cc0e 15bc 9175 a7bc e3d1 9c3c 28a7 d83c
00000260: 8bd3 9b3d e343 bc3c 2136 3fbd 796c 89bb
00000270: b98a 393d 91d3 cc3d db48 f8bc 57e8 253c
00000280: a385 003b bbb6 9ebd f205 293d 3792 afbd
00000290: e302 9c3d 307e 0bbd 5f0e 8c3c 2d96 dcbd
000002a0: 8c73 2b3d 6630 b13c aa23 2bbe bbe5 e6bc
000002b0: 35dc 3bbd 3e02 5f3c 628d 783d 59a4 023d
000002c0: 787b a43b 1a39 d5bb edc0 acbc 2fe9 76bd
000002d0: 4685 4ebc 2eac 25bb 26f0 3ebd 73a8 54ba
000002e0: 0184 573d 598e 673d f89b ab3c 8d08 a03d
000002f0: fe7e fd3d 918e 92bc cf18 53bd 869d 023d
00000300: 4290 10be bd14 a6bc e99a b43d 134c 59bd
00000310: 9879 86bd 98a3 493d 6fa3 f83b 6000 a7bd
00000320: 221a 0f3d cc3f dbbc aadd 1f3d d123 92bd
00000330: 3a48 87bc 08cb 84bd 2fc2 ba3c f317 e03c
00000340: 3637 acbc 953b 123d 0b74 a5bd 3ca3 7c3d
00000350: 7e5e 10bd b0de 2bbd 61f0 82bd 67cd e8bd
00000360: 5f91 ffbc f8cc 443d 36d0 06bb 375c b4bd
00000370: 6c7c a13c 3ee5 a6bd f03e 04bd 7d80 a53c
00000380: 4a60 b1bd a6ca 353d cd20 6f3c a655 323d
00000390: f21d 6dbe ec66 463d 250d ec3a bf9a 4f3d
000003a0: 1fda 0bbd 8bee db3c d0ec a73d 267a 1d3c
000003b0: f4e2 293d c6e7 0abd 8070 8b3c 66dc debd
000003c0: 12e5 643d c081 e8bd 4bd6 1fbc a892 613d
000003d0: 1c31 fabc a6cb 9c3c eaa6 e1bc 4a31 9ebd
000003e0: 0240 203d c927 79bd f896 9b3d 8b21 003d
000003f0: 865a 653d 71f7 0abe 6663 5abd 323f 6dbc
-0.016229492 -0.07818953 -0.05779781 0.04474192 0.025747165 -0.050957594 -0.082666986 -0.022362977
-0.09687515 0.048178986 -0.03434182 0.049359508 0.07455829 0.03936119 -0.035872884 0.018952193
0.0046775076 0.108529605 -0.02715178 -0.001191801 0.100898944 0.08442369 0.066200964 -0.022928854
0.03874308 0.03683427 -0.021257056 -0.0066989595 0.1514299 0.10441249 -0.052758127 -0.013273814
0.06922804 -0.09042464 -0.0017232439 -0.030515984 0.054163508 0.04489908 -0.0038337256 -0.0044525373
-0.016369885 0.16494565 0.038315717 0.0343685 0.0027808193 -0.00052456476 0.058479115 -0.055636033
0.1316718 0.0057739443 0.02975684 0.024798524 0.07018544 0.0215277 0.052032575 0.028208023
0.04805196 0.06339238 -0.026335668 -0.04213216 0.013557609 -0.06520942 0.015634976 0.027528489
-0.098533764 -0.060417086 -0.05966449 -0.049069207 0.088696666 -0.09574131 0.05245769 -0.04941978
-0.055231027 0.07435992 -0.04736493 0.07936294 0.01615899 0.033695135 0.052337047 0.04987102
0.013295241 -0.06486209 -0.006458934 -0.07547478 -0.038491987 0.0843056 0.06273997 0.023776686
-0.003907734 0.036794238 -0.07629554 0.031537507 -0.02634323 -0.072989404 0.0725589 0.029262213
0.054988485 0.014116145 -0.0019862747 -0.06608805 0.008753358 -0.06910362 -0.017611837 0.030949326
-0.04401306 0.017341664 0.020393888 0.08903479 0.031448666 -0.0836865 0.018725181 0.044532113
-0.005861458 -0.07906785 0.00242768 -0.051622678 0.070836194 0.070550166 -0.055381875 0.0787176
0.029648658 0.043151796 0.017274559 -0.030189736 -0.01626207 0.038893666 -0.022530045 -0.037537273
-0.05526989 0.042373367 -0.032609444 -0.027291255 0.0045753894 -0.060447056 -0.04229851 0.07029367
0.04859784 -0.0597891 0.05835504 -0.044366922 -0.053981245 5.837888e-05 0.036521286 -0.019544829
-0.051332645 0.02710436 -0.00022327629 0.024319228 -0.009097766 -0.020441802 0.01914305 0.026446894
0.07608708 0.02298159 -0.04668248 -0.004193839 0.04529831 0.100012906 -0.030308178 0.010126195
0.0019610904 -0.07749697 0.041265436 -0.0857281 0.07617738 -0.03405589 0.017096696 -0.10770831
0.04185824 0.021629523 -0.16712824 -0.028185716 -0.045864303 0.013611374 0.06068171 0.031895015
0.0050196014 -0.006507051 -0.021088088 -0.060280975 -0.012605017 -0.002527963 -0.046615742 -0.0008112259
0.052616123 0.056532238 0.020948395 0.07814131 0.123777375 -0.017890247 -0.05153733 0.031888507
-0.1411753 -0.02027356 0.08818609 -0.053051066 -0.06566161 0.04922828 0.007587842 -0.081543684
0.03493703 -0.02676382 0.039029755 -0.07135738 -0.016513932 -0.06484038 0.022797672 0.02735517
-0.02102242 0.035701353 -0.08078774 0.06167911 -0.035246365 -0.04196042 -0.06393505 -0.113673024
-0.031197248 0.048047036 -0.002057088 -0.08806651 0.01971265 -0.08149193 -0.032286584 0.02020287
-0.08660944 0.044382714 0.014595223 0.043538712 -0.23155954 0.048437998 0.0018009288 0.050684687
-0.034143563 0.026847145 0.08199465 0.009611642 0.041476205 -0.033912443 0.017021418 -0.108818814
0.05588252 -0.11352873 -0.009755681 0.055071503 -0.030540995 0.019140076 -0.027545411 -0.07724245
0.039123543 -0.060828958 0.075971544 0.03128199 0.055994533 -0.13570954 -0.05331745 -0.014480399

bias f4 [128]
00000000: 56de 97bc cd2f 3f3d ec52 503d 511f b2bd
00000010: af3e e43b ced6 2b3d 751e 723c bc2f 8dbd
00000020: 8ffc 9ebc ce6c 71bd f6d6 a73c 627a b1bd
00000030: af39 1bbc 51ce 89bd e718 88bc ac96 9c3d
00000040: 1fb6 873b e877 e9bc 50a9 71bd e07a b2bb
00000050: 6dae 2cbd bc86 2d3d 4ba0 973d 5498 113d
00000060: 5ef6 6a3d 5b20 6a3c 4e19 88bd dcfb 62bd
00000070: 8e1a 42bb 2f68 d4bc 3247 ecbc 949c 54bc
00000080: 9702 b83d cf8e 023c b566 5cbd bc76 aebd
00000090: 8d23 71bc d0bf 29ba 850f f23c 47d3 10bc
000000a0: e169 683c 3514 b43d 70f2 9dbd 6810 abbd
000000b0: 112f feba b1a8 8e3d f673 823d 4e45 fabc
000000c0: 788e 543d e44f 4c3d ff26 a33c cda3 a23d
000000d0: c6d8 26bd 320e ca3c 534d 363d ef1d 80bc
000000e0: 2fe8 07bc 054e 9c3d 4b97 22bd b7e3 9fbd
000000f0: 6893 263d cdf3 48bd d8a7 863d 0293 a23d
00000100: a538 063d 95ee 46bd 3112 9dbd 27fc 7dbd
00000110: 0952 d9ba d286 31bd 3f6d 7d3d 5f6f 7dbc
00000120: 9fa1 073d 258b 833d a987 24bc 05ed bc3b
00000130: db3b 89bc f725 fdbc f6e3 203d fdf0 b83d
00000140: b323 8ebd 6d6e d0bc ee21 eabc 4e41 bb3d
00000150: d920 8fbd 8f34 42bd ee81 bdbb dbc6 62bc
00000160: 40b1 13bd e66a 59bd de51 513d 0b41 abbc
00000170: a208 9abd 2c9d fd3a 578b 9bbc 3104 b6bd
00000180: 4b2b 7b3d fa12 d03c 8a1b af3d 7cd7 04bd
00000190: 0fff 3a3d 6fd0 71bd 92fb 5bbd 8bb7 92bd
000001a0: 6c12 14bd f060 6bbc 865a 913d 3e80 403d
000001b0: 043d 913d f749 4e3b 6735 15bc 1bb5 043d
000001c0: d8ad 22bd 2959 79bc 9a41 9c3d 78f1 173d
000001d0: aa0a 973d 7893 12bd 4c87 bb3b a348 c43c
000001e0: 0405 4dbd 0649 a4bc 101b f93b c20c 70bd
000001f0: d29f 2bbc e912 27bd 7611 a43b 8275 d3bc
-0.018538635 0.046676446 0.05086033 -0.086973794 0.0069654803 0.0419529 0.014777769 -0.0689387
-0.019407539 -0.058941655 0.020488244 -0.08665921 -0.009474202 -0.06728805 -0.016613437 0.07645926
0.0041415836 -0.028499559 -0.05899936 -0.0054467767 -0.042158533 0.04236482 0.0740362 0.035545662
0.05736386 0.014289941 -0.066454515 -0.055415973 -0.0029617879 -0.025928585 -0.028842542 -0.012976784
0.08984869 0.007968619 -0.053808887 -0.085187405 -0.014717949 -0.00064754207 0.029548416 -0.008839435
0.0141854 0.08792917 -0.07712257 -0.083527386 -0.0019392689 0.06965769 0.06369774 -0.030550625
0.05189368 0.049880877 0.019916056 0.07941399 -0.040734075 0.024664972 0.044507336 -0.015639273
-0.008295103 0.076320685 -0.039695065 -0.07807105 0.04066792 -0.04906063 0.065749824 0.07938196
0.032768864 -0.048567373 -0.07669485 -0.06200805 -0.0016580235 -0.043341465 0.061871763 -0.0154684475
0.03311312 0.06423024 -0.0100421095 0.0057655596 -0.016752174 -0.030901892 0.0392799 0.0903034
-0.06940403 -0.02544328 -0.028580632 0.09143315 -0.06988687 -0.047413405 -0.005783311 -0.013841356
-0.03605771 -0.053080462 0.051103465 -0.020905038 -0.07521178 0.0019349209 -0.01898734 -0.08887518
0.061320584 0.025399674 0.085501745 -0.032432064 0.0456534 -0.05903667 -0.053706713 -0.07163914
-0.03615038 -0.014366373 0.07097344 0.0469973 0.07091716 0.0031477192 -0.00910697 0.032399278
-0.03971657 -0.015219011 0.076297 0.037095517 0.07375081 -0.03578517 0.0057229158 0.023960417
-0.05005361 -0.020054352 0.007602103 -0.058605917 -0.010475116 -0.04078952 0.0050069643 -0.025812868

weight f4 [128, 256]
00000000: 6618 44bd e44b 9d3d facc 15bd 4abd 113e
00000010: c8cd 233d cc8c ce3c ed89 2e3c 6ae3 2fbd
00000020: f6d4 59bc 63b0 453d b5ac 433d 698e 6e3d
00000030: 9280 c53d 046b 013d 0cbb 713d 0028 a1bc
00000040: c21e bb3d 2e30 b7bc 2631 28bd 4b43 f6bc
00000050: 7058 b13d 9d74 0abd 92cb ecbc 67c7 b1bd
00000060: 50de b83d ecc9 6bbc e137 3abd 83c9 59bb
00000070: ad33 703d 4bcf b93c 0809 bb3d 7fab 47bd
00000080: 1c92 043c e5bb 823d 48e3 12ba 5b7a 46bd
00000090: 4095 203d d1fd b33c 2bae b6bd 046c 123c
000000a0: 30dd c73d 834b 7d3d 4f42 87bc b088 b6bc
000000b0: 9dca 0e3d f959 4d3d 76e4 483d 81c9 c0bc
000000c0: 0050 303c 476a 27bc 1b4d 6fbc c7d7 6f3d
000000d0: 2242 1dbb c5cf 64bd c6e9 313c 4e28 163d
000000e0: 648d 4dbd fe68 2bbd 7531 3d3c 1029 abbc
000000f0: de4e df3a 3d7d 90bd 3ceb b73d df2b b4bb
00000100: dfb1 3f3d 8e91 0e3d 9640 a33b d129 63bd
00000110: 75e0 fe3c 53fe fcbc 8c59 ddbd 0930 8e3d
00000120: 7602 0e3c ff0a dbbc 9c46 b13c 140d 4dbd
00000130: 96ed 03bd e031 65bc e97e cf3b aac9 3f3c
00000140: 196b 853b 48e0 0d3d 9c06 a0bc 15d3 bebc
00000150: b70e cebc 08bd 0e3d c0d6 aebb e372 f4bc
00000160: 8ecc acbd dbdc 3cbd 4d3a afbc 342c c43c
00000170: 2bca 41bd 8216 bcbd a174 3cbd c4f3 08bd
00000180: faf5 bc3c 9179 043e 6be8 be3d f080 a839
00000190: e548 323d a9a8 f53c a4fa 34bc 40a1 05bd
000001a0: 6313 b93d 517d f1bc f191 52bd e2f0 763c
000001b0: 1703 193c 1c6e 3c3d d2c5 bd3d e0c1 41bd
000001c0: 470d 0cbd 65b3 63bd 2aef 143d 8c89 7fbd
000001d0: 9890 7ebc c05e 1cbd 27fa ab3d 5d92 7c3b
000001e0: a84c e8bb 8744 133e b9ec 9b3d 4b42 f6bc
000001f0: 9f5f 883d 45b3 c73c efb8 1bbd 367d 2dbd
00000200: 4901 05bc 903c af3b f049 133d 0ef4 a23d
00000210: 3499 55bc 45be bf3c 6d0f 84bd 403c 053c
00000220: 645c 7cbb 265e f03b 2568 e23b 1695 ce36
00000230: 43ba 753d 849d 9ebd 62a3 29bc 7387 8abc
00000240: 1a02 713c eb5a d03c 174c 0c3d e2a2 e13c
00000250: 11f5 fb3c f53e 563d c897 ac3c c53e 3a3d
00000260: 4dfb 51bd b6f8 c13c 2ffb dc3c 380a 583c
00000270: dfd7 9dbd e623 9dbc 2b9f bd3b 9958 d73c
00000280: ff73 883c 65b1 aa3b 0dda fc3c f442 acbb
00000290: c4c1 8d3d e5a1 fcbb 258c e13c c44c c43c
000002a0: c1fe 6dbc efc6 693d 688d 413d cfda f83c
000002b0: fe4b 723d ba29 a7bc dfa7 163c 7d1d 5ebd
000002c0: b275 3a3c 8cd2 46bc d9b9 88bd 50c7 2fbd
000002d0: ea09 833d aeb2 04bc 2e5c 333c 6d73 b7bc
000002e0: 77c8 c6ba 9599 dd3b fb08 523b f011 27bd
000002f0: a066 313d e65d 46bd b13b f13b 57e4 b53c
00000300: 6565 b8bc 449f 283d e24b 0f3d 4b40 0c3c
00000310: 468c 21bd a258 d6bc 8a17 27bd fb1a d23c
00000320: c83c 65bd 4362 0e3d 6345 c33c c6dc 763d
00000330: d2d9 f13b 7c94 23bd 8d06 f8bc 3318 803d
00000340: 738f 9d3c de7d 39bd 2ee3 abbb a2a4 58bd
00000350: cfaf d23c 0552 24bd 178e 3b3d d130 903d
00000360: d29c 81bd 249d 88bc a05d 343c 3d91 c6bb
00000370: 8101 84bd b9f8 e03a 7255 a0ba 77ef f1bb
00000380: 0dd3 37bd 9ae3 05bd a36f 63bb 3c68 ad3c
00000390: 3c45 0ebd ee77 ae3c 1e76 173c 0ef1 843d
000003a0: 9738 0b3c fbd1 a73d 4e3a 02bd a200 3f3d
000003b0: e76a bf3c f661 a73d 0932 9dbc ceec 2fbd
000003c0: 3d42 0f3d aaa1 f7bb 2e13 02bd cd8d 35ba
000003d0: 7e50 ab3b f0d8 3f3c b9af 72bb 9d2d b93d
000003e0: f528 70bd 4c8b babc 8b63 1c3d ae96 24bb
000003f0: 1199 34bd 4bce e03c b5a2 443d 64f8 eb3c
-0.04787483 0.076804906 -0.036572434 0.14232364 0.03999117 0.025213622 0.010653001 -0.04294149
-0.013295403 0.04826392 0.047772128 0.05824128 0.096436635 0.0315962 0.059016272 -0.019672394
0.09136726 -0.022361841 -0.041062497 -0.030061385 0.08659446 -0.033802617 -0.028905664 -0.08680611
0.09026778 -0.014391404 -0.045463447 -0.0033231683 0.058643032 0.022681853 0.09132582 -0.048747536
0.008091476 0.06383494 -0.00056033256 -0.04845653 0.039204836 0.021971615 -0.08919939 0.008936886
0.09758985 0.06183959 -0.01651111 -0.022281975 0.034861196 0.050134633 0.049046002 -0.023533585
0.010761261 -0.01021821 -0.014605786 0.05855539 -0.0023995717 -0.055862207 0.010858959 0.03665953
-0.05018367 -0.041848175 0.011547436 -0.020893604 0.0017037054 -0.07055137 0.08980414 -0.005498394
0.04680049 0.03480678 0.0049820645 -0.0554598 0.031112889 -0.03088299 -0.10808095 0.06942756
0.008667579 -0.026738642 0.021640114 -0.0500613 -0.032209 -0.013988942 0.0063322675 0.011705795
0.004071605 0.03463772 -0.019534402 -0.023294011 -0.025153501 0.034848243 -0.005335659 -0.029839939
-0.08437453 -0.04610906 -0.021390105 0.023946859 -0.047311943 -0.091839805 -0.046009663 -0.033435598
0.02306651 0.12936999 0.09321674 0.00032139523 0.04352655 0.02998765 -0.0110460855 -0.032624483
0.09036901 -0.0294787 -0.05140871 0.015072079 0.009339116 0.046003446 0.09266247 -0.047304034
-0.03419235 -0.055591006 0.036360897 -0.062387034 -0.0155374035 -0.0381763 0.08397322 0.0038539388
-0.0070892163 0.1438161 0.07613511 -0.030060908 0.06658863 0.024377475 -0.038018163 -0.04235574
-0.008117982 0.005347796 0.035959184 0.07956706 -0.013037015 0.023406157 -0.06448255 0.0081320405
-0.0038507218 0.007335442 0.0069093877 6.1566343e-06 0.059992086 -0.077448875 -0.010353895 -0.01691029
0.014709974 0.025433978 0.034252252 0.027543489 0.030756505 0.052306134 0.021068469 0.045470018
-0.05126505 0.023678165 0.026975242 0.01318603 -0.0770719 -0.019182157 0.0057867966 0.026287364
0.016656874 0.0052091354 0.030865693 -0.005257005 0.069217235 -0.007709729 0.027532646 0.023962386
-0.01452607 0.057074483 0.047253996 0.030377774 0.059154503 -0.020405639 0.009195297 -0.05422734
0.0113806 -0.012135159 -0.066760726 -0.04291469 0.06398375 -0.008099241 0.01094727 -0.022393906
-0.0015165944 0.006762693 0.003204881 -0.04078859 0.04331076 -0.048429392 0.007361852 0.022203607
-0.022509286 0.041167513 0.034984477 0.0085602505 -0.039440416 -0.02616531 -0.040793933 0.02564763
-0.05596617 0.03476168 0.023836797 0.06026914 0.0073807025 -0.039936528 -0.030276561 0.06254616
0.019233441 -0.045286052 -0.005245588 -0.05289138 0.025718598 -0.040117282 0.045789804 0.07040561
-0.06328739 -0.016676493 0.01100865 -0.006059794 -0.06445599 0.0017163969 -0.0012232496 -0.0073832828
-0.044879008 -0.03268776 -0.0034703992 0.021167867 -0.034733996 0.021297421 0.00924447 0.0649129
0.008497379 0.081943475 -0.031793885 0.046631463 0.023366405 0.081729814 -0.019188898 -0.042950444
0.03497528 -0.0075571137 -0.031756572 -0.0006925732 0.0052281013 0.011709437 -0.0037031008 0.09041903
-0.05863281 -0.0227715 0.03818087 -0.0025114226 -0.044091288 0.027442118 0.048006732 0.028804965

bias f4 [128]
00000000: 32d2 f2bc a49f 133b 39ec e83c 2bd0 1e3d
00000010: 93d2 e83c 3657 0d3d b9e7 70bd 8d3e 633d
00000020: 475c d8bb 4c6a 60bd 46dc 55bd 0c44 a33d
00000030: 18fa 09bc 8bd4 4e3d af8e 9abd f0d2 2e3c
00000040: 55b4 1abd 2db2 8c3d ff8a 88bd 7a99 273d
00000050: 5a3d e73c cf8e 603d e823 373d 88d1 d23c
00000060: 621f 90bc e4e2 023d 318b 1f3d 397c 8a3d
00000070: 6e28 7fbc f26b 463d 34df 0f3d 1936 8a3c
00000080: 62f7 603c b889 723d 9eee 023d 0b26 59bd
00000090: 92e1 2f3c aa00 10bd 7ba4 5abd 65a9 68bc
000000a0: d155 0cbd 080e 3a3d 340d 42bd f6b6 243d
000000b0: b21c 413d 73c1 98bb bfc5 f93b f357 713c
000000c0: 6c3c 543d a2ca 263d c479 42bc 6bb0 d4bc
000000d0: 3224 603d 6d58 133d c323 32bc 98d8 6bbd
000000e0: 5b89 d93c 88ef 863b 75d1 21bd ea31 64bc
000000f0: f0e9 183d c939 9fbc 1c00 0abc 77b9 f43c
00000100: b6d3 23bd 9267 c4bb 5a4f d33c 0f49 4cbd
00000110: 7f2d 333d bf82 01bd c7b4 3dbd 16aa 653d
00000120: 964f 5b3d 75df 163d 42a2 103d f8d4 33bc
00000130: 776e 743d 7b4a 713d 2e9e 453d a580 d6bc
00000140: 0c83 75bd 2240 67bc a372 4d3c 1e14 b33c
00000150: a329 19bd 09db acbc 8a3b 05bd 166f cfbc
00000160: 766c 12bd f696 803b c05b 903c 9172 803d
00000170: 29b6 d9bc f0c6 4a3d 682c e4bb 89ea bfbb
00000180: 389a 503d cbb8 91bc d829 5a3d 5672 0cbd
00000190: cbee 33bd 1509 e4bc 925b 06bc 3bca 893d
000001a0: bdef 6ebd 6b86 40bd fbf3 5b3d dc6c 46bc
000001b0: 05f0 843d 3aec 85bc f970 453d 3e35 0a3d
000001c0: 6bfe 673d 763c 5c3d 0fce 773b 29c1 243d
000001d0: 9460 cf3c c0a0 823d a189 d23c df53 3b3d
000001e0: 1441 7ebd 0290 d23c 9929 1cbc 2b40 e7bc
000001f0: 9a40 a73c 006a a03d 1413 89bc 23c7 00bc
-0.029641245 0.0022525573 0.028432952 0.038772743 0.028420722 0.034507 -0.058814738 0.055479575
-0.006602797 -0.054788873 -0.052212022 0.07971963 -0.008421443 0.050495666 -0.07546746 0.010670409
-0.037769634 0.06869922 -0.066671364 0.04091785 0.028227497 0.054823693 0.044711977 0.025734678
-0.01759309 0.03195466 0.038951103 0.06761975 -0.015573604 0.04844279 0.035124972 0.016871499
0.013730856 0.05921337 0.031965844 -0.053014796 0.0107349325 -0.035156883 -0.053379517 -0.014200543
-0.03426153 0.045423537 -0.047375873 0.040213548 0.047146507 -0.004661733 0.00762245 0.014730441
0.051815435 0.04072059 -0.0118698515 -0.025963029 0.05472202 0.035973 -0.010872784 -0.057579607
0.026554754 0.00411791 -0.039506394 -0.013927916 0.037332475 -0.019436734 -0.008422878 0.029873593
-0.039996825 -0.005993792 0.025794674 -0.04987436 0.04374456 -0.03161883 -0.04631498 0.05607041
0.053542696 0.0368342 0.03531099 -0.010976069 0.05967566 0.05890892 0.048246555 -0.02618439
-0.05993943 -0.014114412 0.012539539 0.021860179 -0.037393223 -0.021100538 -0.032527484 -0.025321525
-0.035747968 0.003924246 0.017621875 0.06271852 -0.026576119 0.049506128 -0.0069633015 -0.005856816
0.050928324 -0.017788311 0.05326256 -0.034288727 -0.043928903 -0.027836362 -0.008200543 0.067280255
-0.0583341 -0.04700319 0.053699475 -0.012110915 0.064910926 -0.016347993 0.048203442 0.033742182
0.056639116 0.053768598 0.003781203 0.040223274 0.025314607 0.06378317 0.025700392 0.045734283
-0.062073782 0.025703434 -0.009531402 -0.02822884 0.020416547 0.07832718 -0.01673273 -0.007859978

weight f4 [5, 256]
00000000: 552e a13d 0e10 d6bb e600 2fbd 2cfb 2d3d
00000010: f41f fabb 0e83 2bbd 48a4 f13d 0707 7f3d
00000020: 23a4 a83d c922 053c 9e45 8b3d 4609 d9bc
00000030: 8d26 19bd 982d 0f3d 5555 3abd ba45 09bd
00000040: cac6 303d ff8d 2cbc 1fcd 22bd 66e7 0dbc
00000050: 59f7 7a3d 538e 813d 76e8 4a3d a570 0dbd
00000060: 024c 1a3d 3d1f 953d aefb cf37 9203 8c3d
00000070: 00a2 ee3c e258 b63c cc2c 04be 27e5 ae3d
00000080: 3500 95bd baa6 ba3d f0b4 77bd a491 473d
00000090: ccd0 c83d b9b4 943b da2e adbd fe96 a23d
000000a0: 0499 90bc 82b2 6d3d 90d1 d2bd 9794 10bd
000000b0: 8656 133d 13e1 4fbd cb34 a33d c35a 23bd
000000c0: 725b da3d 3a12 4ebd 9554 233d 7e5a 77bc
000000d0: ba54 c2bd b570 943d 58fb 11be 0498 0f3e
000000e0: 0463 743c d15f 523b 1d1a 04be 7dd8 ad3d
000000f0: 8fe7 043d 5e20 91bb d997 843d bfdd 7bbd
00000100: 659a 3cbc 01ad 0e3d b662 853d 7a21 e9bc
00000110: 3ae0 c7bc 6408 56bd 0b4f acbc b4c3 953d
00000120: 66ed 3dbb fc00 7cbd 0f36 49bc f243 993d
00000130: b58d 653d ea02 163d 16e0 913d aeaf 0abc
00000140: 8814 e63d 25f5 11be 3c64 713d e9d7 c53c
00000150: 9384 db3b e904 9ebd 7172 ac3d b76c 873d
00000160: 9bab a43d 7090 0fbe 95ac 36bd e42c 423e
00000170: 06dc 9f3d ddd9 b0bd 6c3e 42bd 4668 7c3a
00000180: 0b4d 93bc cafb c5bc bd3f 18bd 68ac a83c
00000190: 4328 7c3d 9f5e 363c 51b3 893d e1de 94bd
000001a0: a7a2 093b c1d5 e7bd 0b37 9f3d 73f3 c9bd
000001b0: 6b9a ce3d 7041 b8bd 85fe 96bd 816a 983d
000001c0: 9ea2 45bd 98bf d5bc aa00 09be 660e 44bd
000001d0: fe8f 24bd a0cd 93bd 8ff8 f1bd f239 833d
000001e0: b569 773d e649 eb3c 5af4 363d dd14 56bd
000001f0: 009c 7f3d 589e 5dbd eebf 673c 0c02 2fbd
00000200: 4f3a 663d 8527 773d 9f9e aa3c cef2 1fbd
00000210: a926 90b9 9663 943d 2652 923d 5999 083d
00000220: 8065 273d e71f 44bd 8d9f 2a3d 3e21 a9bc
00000230: 95bf 9f3d 5d61 343d ef1c 20bc 7fc1 6ebd
00000240: 2cc1 d33d 806d 643d d831 9bbc 274b 113d
00000250: 7be3 123d ca22 d03c 9853 6dbc fbcd 7ebd
00000260: 650e 463c 65f0 673d cf7b 02bd 6d9d 01bd
00000270: a5ef 8d3d a495 083d 6584 13be de1d 553d
00000280: 9cc3 b7bc f2c4 b93d 3cf4 6cbd 4fec 5e3d
00000290: ede8 c03d d66e 5dbd 1ca6 94bd 62f3 d33d
000002a0: 991d 8c3d f27b c43c 9b63 4ebd 20dd 68bc
000002b0: 4f47 1f3b 2669 613b a740 a73d 2d52 863c
000002c0: a9ab d73d 2055 0c3c df24 50bd 32d1 793d
000002d0: 2c6a 11bd 4628 d6bc d367 efbd 28ce 2e3e
000002e0: bb0c d83c 2498 adbd 6c69 18be 131a 443c
000002f0: 545a d73b a750 80bd 37a7 953d 4437 a0bc
00000300: fe39 ab3d a1d9 46bd 5732 ad3d dd1b 813b
00000310: 6319 24bc b2ec afbc 3eab ec3c e934 413d
00000320: b4f5 d8bb f6d7 813c 9fc8 4ebd b2af e73c
00000330: a9ea a23d 6e51 463d 255f a63d 0849 173c
00000340: 3a8b 333d dbef 00be 08e1 ebbc f6ef 8b3c
00000350: 9871 8a3d a614 49bd 8041 a13d 8eef 9c3d
00000360: 0630 9e3d e37d f0bd ecdd 0c3d 0f1d 293e
00000370: fd2f 293d 1500 c6bd 68e3 49bc bcf5 25bd
00000380: d8c0 b8bc 68d0 df3c 75c7 b2bd 71dd a0bc
00000390: bc02 3d3d 55ae 53bd 5250 2bbd 8eaf ec3c
000003a0: f1b1 4a3d 1ef3 a1bd 8297 7f3c c08e c6bd
000003b0: 771e 0d3d 74aa e7bd 527f c7bd cc96 b43b
000003c0: d5e2 ebbb d230 98bc b898 cfbd c3cb b1bd
000003d0: 1128 803d 7013 20bd 136c c6bd e1c8 fd3c
000003e0: e61e a63b b030 443c 712c 69bd aa05 b4bd
000003f0: 89cb 40bc 5328 063d d5c1 a63c e253 ed3c
0.07870165 -0.0065326756 -0.042725466 0.042475864 -0.0076332036 -0.04187303 0.11798912 0.06226256
0.082344316 0.008125969 0.06800388 -0.02649368 -0.03739028 0.03495559 -0.045491535 -0.033513762
0.04315833 -0.010531901 -0.0397464 -0.008661127 0.061271045 0.06325974 0.0495381 -0.034531254
0.037670143 0.07281349 2.479352e-05 0.068366185 0.029129982 0.02225918 -0.12907714 0.08539801
-0.0727543 0.09113832 -0.06047529 0.048722878 0.0980545 0.0045381454 -0.08456202 0.07938956
-0.017651089 0.058031566 -0.10293877 -0.035297956 0.035971187 -0.050751757 0.07969054 -0.03988148
0.10661973 -0.05031035 0.039875586 -0.015097259 -0.094888166 0.0724806 -0.14256036 0.14022833
0.014916185 0.0032100568 -0.12900586 0.084885575 0.032447394 -0.0044289073 0.06474275 -0.06149077
-0.01151142 0.034832958 0.06512968 -0.028458346 -0.024398912 -0.052254096 -0.021033784 0.07312718
-0.0028980612 -0.061524376 -0.012280955 0.07483663 0.056043345 0.036623873 0.07122819 -0.008464737
0.11234385 -0.14253671 0.05893348 0.024150806 0.0066991537 -0.0771578 0.084202655 0.066125326
0.08040544 -0.14019942 -0.04459818 0.18962437 0.07805638 -0.08635304 -0.04742281 0.0009628575
-0.017981073 -0.024167914 -0.03717016 0.020590022 0.061561834 0.011130958 0.06723655 -0.07269073
0.002100149 -0.11320067 0.077741705 -0.098608874 0.10088047 -0.08996856 -0.073727645 0.07442189
-0.048250787 -0.026092336 -0.1337916 -0.047865294 -0.040176384 -0.07216954 -0.11814987 0.064075366
0.060403544 0.028721761 0.044666626 -0.05226599 0.062404633 -0.054106086 0.014144881 -0.04272656
0.05620795 0.060340423 0.02082759 -0.039049916 -0.00027494624 0.07245557 0.07144575 0.03334937
0.040868282 -0.047881987 0.041656066 -0.020645734 0.07800213 0.044038165 -0.009772523 -0.05829
0.10339579 0.05576849 -0.018944666 0.03547206 0.035861474 0.025407214 -0.014485262 -0.062208157
0.012088393 0.056625742 -0.031856354 -0.031644274 0.06930474 0.033345833 -0.14405973 0.052030437
-0.022432141 0.090707675 -0.057850108 0.05442458 0.09419427 -0.05406078 -0.07258245 0.10349156
0.06841583 0.023984883 -0.05038796 -0.014212877 0.0024303978 0.0034394949 0.08166628 0.016396606
0.105307885 0.008565217 -0.050816413 0.06099052 -0.035501644 -0.02614225 -0.11689725 0.1707083
0.026373258 -0.08476284 -0.14883965 0.011969107 0.0065720472 -0.06265383 0.07307284 -0.019557603
0.083606705 -0.04854739 0.08456867 0.003940089 -0.010015818 -0.02147517 0.028890248 0.0471696
-0.006621087 0.015850049 -0.050484296 0.02828202 0.07954914 0.0484175 0.08123616 0.009233721
0.04383395 -0.12591498 -0.028793827 0.017082196 0.067599475 -0.049091958 0.07873821 0.07662879
0.077240035 -0.11742761 0.03439133 0.16514991 0.04130553 -0.096679844 -0.012322284 -0.040517554
-0.022552893 0.027321056 -0.0872945 -0.019636841 0.046145186 -0.051679928 -0.041824646 0.028892305
0.049486104 -0.07907699 0.015600087 -0.09695196 0.03445288 -0.11311808 -0.09741081 0.0055111405
-0.0071986713 -0.018577967 -0.10136551 -0.086814426 0.06257642 -0.039081037 -0.09688582 0.030979576
0.0050696013 0.011974499 -0.05692715 -0.08790143 -0.011767277 0.0327533 0.020356098 0.028970663

bias f4 [5]
00000000: e4a4 613c 784c a33d 2caa a53c 122f 963d
00000010: 9d9d 7abd
0.013772223 0.0797357 0.020222746 0.07333197 -0.061185468
