E-GraphSAGE/experiments/model/None_SFF_MLP_NF-BoT-IoT-v2_best_model.pth (torch, 380084 bytes, 18 tensors)

weight f4 [128, 78]
000000 3d e3 99 bd d8 c1 95 3d 0c 6b f7 bd cd 99 84 3d
       -0.075140454 0.073123634 -0.120809644 0.06474648
000010 fc 86 80 bd 2b f0 3b 3b 77 f1 86 bb c9 cb 62 3d
       -0.06275746 0.0028677087 -0.0041181403 0.055370126
000020 cf df aa 3d 43 c4 e3 bd 05 ce ab 3d 8d 79 d3 3d
       0.08343469 -0.11121418 0.083889045 0.10325918
000030 46 0f 76 3c 0f fa ba 3c 53 24 36 bd 15 26 c4 bd
       0.01501829 0.022824315 -0.044468235 -0.09577576
000040 d4 ff 5a bd 67 b8 fb 3c 7f 7d d8 bd 4d cd 51 bd
       -0.053466633 0.030727578 -0.105708115 -0.05122118
000050 65 d8 fe bb fc 13 eb 39 b1 2d b6 bd 25 8e 27 bd
       -0.007777261 0.00044837582 -0.08895434 -0.040907044
000060 b1 a1 98 bd 7f d6 6a 3d dd e7 86 3c 4f 72 84 bd
       -0.07452715 0.057333466 0.016467983 -0.06467115
000070 98 6b a1 bb a9 11 9e 3d 68 8e a8 bc 2e f5 ab 3d
       -0.0049261563 0.07718212 -0.020575717 0.08396374
000080 67 13 b5 bd ee 04 e2 bd b2 2c 5e 3c c7 cc d2 3b
       -0.08841591 -0.110360965 0.013560461 0.006433103
000090 00 a5 db 3b 5e 9c 61 bd 87 b6 80 bd 9f 12 12 bd
       0.006703019 -0.055080764 -0.06284814 -0.03566229
0000a0 d8 15 c6 3a b3 e3 20 be fd a7 c2 3d 7b 6a 83 bd
       0.0015112711 -0.1571186 0.095046975 -0.06416794
0000b0 19 a8 56 bd 80 ae 54 bd 5e 62 66 bd cd cf ac 3c
       -0.052406404 -0.05192423 -0.056246154 0.02109518
0000c0 34 61 9f bd 7b 4b 33 3d ea ed b1 38 2d c9 97 bc
       -0.07782212 0.043773156 8.484333e-05 -0.018528545
0000d0 c6 df ed bd 6f 88 4c 3d 30 e9 d0 bc 8f 7c 6b 3d
       -0.11614947 0.0499348 -0.025501817 0.057491835
0000e0 5b 4d 11 3e 51 f1 16 be 43 eb 96 bd 50 82 89 3d
       0.14189665 -0.14740492 -0.07369091 0.06714308
0000f0 9a 54 95 3b 59 fe 17 be c3 5b 79 3d 5d ae 14 be
       0.0045572044 -0.1484312 0.060878526 -0.1451964
000100 cd 81 fe bd dc d9 2e bd a9 ad 01 bd 91 18 62 3d
       -0.12427101 -0.042688236 -0.031659756 0.05519921
000110 01 89 4e bd 3c 10 07 be e3 b9 da bd b8 e2 54 3d
       -0.050423626 -0.13189787 -0.10679986 0.05197403
000120 23 b1 1c 3e ba 36 6f bd 07 e5 9f 3d db b6 c0 bc
       0.15301947 -0.0584018 0.078073554 -0.023524692
000130 88 39 a8 bd b5 a7 02 be 77 a6 75 bd 2c d7 cc 3d
       -0.08214098 -0.12759288 -0.059973206 0.10001978
000140 bb df 59 3d bb 91 25 3c a6 28 b4 3c da d6 77 bd
       0.05319188 0.010105546 0.021992039 -0.060507633
000150 ec 08 a1 bc 87 e0 b1 3d 9a bd 3f 3d 52 fe 9c 3d
       -0.019657575 0.08685403 0.046811678 0.07665695
000160 98 4c e1 bc 5a 6a eb 3c 76 ec bf bd 75 58 a8 3d
       -0.027502343 0.028737236 -0.09371273 0.08219997
000170 4c 40 64 3c 5d af 38 3d f6 c7 2d 3d 69 39 97 bd
       0.013931345 0.045089114 0.042427026 -0.07383997
000180 59 67 f2 3d af 3b a9 3d 57 f5 8f bd f1 13 82 bc
       0.11836118 0.08263337 -0.07029217 -0.01587865
000190 93 17 62 bc 28 d0 6c 3d 85 f5 b2 bc 94 19 d3 bc
       -0.013799566 0.0578157 -0.021845588 -0.025769033
0001a0 bb d1 d6 bd 3a b3 22 3d 45 cf d0 bd 97 3f b6 3c
       -0.10489222 0.039721705 -0.101957835 0.022247119
0001b0 e1 db 85 3d b1 c3 a3 3c f8 a9 95 bc d9 ba 59 bc
       0.06536079 0.019990774 -0.018269524 -0.013289177
0001c0 70 a7 4a 3d 1d 92 0a 3d 81 d9 8f 3d 0b 34 ae bc
       0.049476087 0.03383075 0.070239075 -0.02126505
0001d0 37 28 3a 3d 06 75 1b 3d ca 95 12 3d 48 12 00 3c
       0.045448508 0.0379534 0.03578738 0.007816859
0001e0 42 96 89 3c f3 5e 13 3d 67 cd 8e 3c 4f 6d 44 3d
       0.016795281 0.035979223 0.017431928 0.047955807
0001f0 67 21 1d be 76 54 3a 3c 03 08 b6 bd ce f5 b4 3b
       -0.15344773 0.011372676 -0.08888247 0.0055224663
000200 86 d5 ba 3c 91 bd 14 3e 6d 36 c4 3d 24 47 ba bc
       0.022806894 0.14525439 0.095806934 -0.022739
000210 ed 67 d4 3d c6 c6 f4 bd e3 12 ed bd b8 6c fb bd
       0.10371385 -0.119519755 -0.11575868 -0.12276596
000220 1d 1d 48 bd f1 84 87 3d 29 85 a8 3d 81 11 cc bc
       -0.04885589 0.066171534 0.08228523 -0.02491069
000230 72 c5 14 3d 50 d9 6b bd 56 fa 34 3d 6b d6 b2 3d
       0.03632111 -0.057580292 0.04418405 0.08732303
000240 77 cc 60 bd 3c 88 9e bd 97 40 90 bd ac df f1 bd
       -0.054882493 -0.077408284 -0.070435695 -0.1181024
000250 73 57 1e 3d 34 ad c7 3c 69 ea 02 3d 99 45 de bd
       0.038657617 0.024374582 0.031961832 -0.108531184
000260 3d 92 21 bd 1a fa 8a 3c 5f ff 6a 3c c5 82 7b bc
       -0.039446104 0.01696496 0.014343112 -0.015351002
000270 dc 61 c1 bc 7e 3f a9 3b 6e a0 23 3c 29 03 59 3d
       -0.023606233 0.0051650396 0.00998698 0.05298153
000280 d3 ae 95 bd 3f ff a9 bd 8d 7a d9 bc 50 86 04 bc
       -0.07308736 -0.083006375 -0.026547695 -0.008088663
000290 61 ff 8c bd 5d a3 83 bc 1c 99 6a bd f6 cb 2d bb
       -0.06884647 -0.016069109 -0.057274923 -0.0026519275
0002a0 2f b4 92 bc 3e f7 a0 3c 7e f2 8f 3d cc 68 53 3d
       -0.017908184 0.019649144 0.070286736 0.051613614
0002b0 61 0a 49 bd 83 1f 98 3d a9 32 26 bd fe 4a ee bd
       -0.049082164 0.074278854 -0.040575657 -0.116353974
0002c0 e8 9b e3 bd 2d c3 ac bd 8a 5a 3a 3d a6 27 12 bd
       -0.11113721 -0.08435664 0.0454965 -0.035682343
0002d0 0e 19 92 3d 7b 43 22 3d 87 ce 8b bc d4 37 08 3d
       0.07133685 0.039615136 -0.017066253 0.033256367
0002e0 c0 09 a9 bd d6 3b b0 3d 94 b2 76 3c a7 c4 ef bd
       -0.08253813 0.08605163 0.015057225 -0.1170743
0002f0 d6 74 13 3d a9 dc fe bb 35 2b 22 bc 14 70 9d bd
       0.036000095 -0.0077777696 -0.009897997 -0.07687393
000300 4e 23 bc 3d e7 18 a5 bd a7 51 bf bc eb 2d 24 3c
       0.09186421 -0.0806139 -0.023354365 0.010020713
000310 6a 31 a0 39 33 8b b6 bc 97 43 9b bd dc 4b 81 3d
       0.00030554394 -0.022283172 -0.07581251 0.06313297
000320 67 f2 7d bd 68 45 9c bd 0f 23 fe bd 4c a8 4d bd
       -0.06199875 -0.07630426 -0.12409031 -0.05020933
000330 bb a3 37 3e 6f 52 f9 bd 22 0f 30 be f2 b2 83 3d
       0.17933552 -0.12173926 -0.17193273 0.064306155
000340 75 4b 24 be f0 b9 47 bd ad a5 34 3d bf 8d e6 bd
       -0.1604441 -0.04876131 0.044103313 -0.11257505
000350 ef 5b 31 bd 39 fa 59 bc a8 23 52 bd 6d 7b 8f bc
       -0.043300565 -0.013304287 -0.051303536 -0.017514909
000360 de 32 cc 3d 39 24 e9 bd 3c 4c 7d 3d 00 43 3f bc
       0.0997064 -0.11383862 0.06184028 -0.011673689
000370 43 28 df bd eb d5 23 bd ea db b2 bc 98 1e d8 bc
       -0.10896351 -0.03999893 -0.021833379 -0.026381776
000380 00 28 a6 3d 9c 33 40 3d 32 82 02 bd 63 86 fd bd
       0.08113098 0.04692422 -0.031862445 -0.12379148
000390 51 51 5f 3b 35 e4 06 be 50 c2 57 bc a7 07 f1 3d
       0.0034075568 -0.13172992 -0.013168886 0.11769038
0003a0 e5 d9 b3 3c 4b 50 cb 3d d3 c6 82 bc 5b 38 bc bd
       0.021954486 0.09927424 -0.015963947 -0.091904365
0003b0 62 19 8b 3d 81 6d 82 bd 95 32 a1 bd d3 7f 15 3d
       0.06791951 -0.063685425 -0.07870976 0.036498856
0003c0 4e 04 de 3c 04 a8 c4 3d 8b 67 b8 3d ce 11 ab 3d
       0.027101662 0.09602359 0.09004124 0.08353005
0003d0 03 0f d1 bd 09 0e 97 bc 35 44 68 3d 57 01 06 bc
       -0.102079414 -0.01843931 0.056705672 -0.00817903
0003e0 9e 3a d5 bd 08 c7 64 bd 3a d8 9c bd 7b 9d 73 bd
       -0.10411571 -0.055853873 -0.076584294 -0.059476357
0003f0 20 ff 31 bd f2 68 a3 3d 37 0e f0 bd a5 9e af bb
       -0.043456197 0.07979001 -0.11721461 -0.005359488

bias f4 [128]
000000 ff 09 1b 3d 12 f7 96 3d 1d d3 ee 3c 17 19 29 3d
       0.03785133 0.07371344 0.029153401 0.041283693
000010 b2 1d 5f 3d ba ea 1d bb 41 a0 a7 bd b9 e8 81 3d
       0.05447168 -0.0024096207 -0.08184863 0.063432164
000020 b1 9b bf bd ab b9 d3 bd 38 a2 c3 bd 18 e0 08 b8
       -0.09355868 -0.10338148 -0.09552425 -3.263363e-05
000030 9b 9c 11 bd 0c 55 77 3c e7 27 a5 bd cf f2 d9 3d
       -0.03554974 0.01509596 -0.080642514 0.10642015
000040 5a 19 83 3d 14 11 b7 3c 28 71 b2 bd a0 91 8f 3d
       0.0640132 0.02234701 -0.08712989 0.07010198
000050 c3 f2 fa bb 7a ae d3 bd f1 8d 69 3d 1c 99 f9 3d
       -0.007658334 -0.10336013 0.05702013 0.121874064
000060 4d e2 bd 3d 2b a9 d1 3d 3f c2 54 bd ce 84 82 3d
       0.09271679 0.10237344 -0.05194306 0.06372987
000070 47 d6 5b 3c c1 1c b4 bd 3a 06 70 bd 41 63 ca bd
       0.013417787 -0.08794547 -0.058599688 -0.098822124
000080 93 4f d3 3d ea 64 1b 3a a1 63 4e bd 19 15 ee bd
       0.10317912 0.0005927818 -0.050387982 -0.11625118
000090 d1 ca f4 bc e6 94 db bd 09 8d 8c bd 3f 95 15 3d
       -0.029881867 -0.107217595 -0.06862838 0.036519285
0000a0 71 a4 d3 bd b3 39 a7 bd 69 59 08 3d 35 2e b3 3d
       -0.10334099 -0.08165302 0.033288393 0.08749048
0000b0 91 b6 bc 3d a3 b6 a4 bd 05 d1 e8 bb 4e d8 9e 3c
       0.09214509 -0.08042648 -0.007104995 0.019390251
0000c0 14 3e 97 bd 35 21 4c 3d 2a 36 59 bd 2d 6d 8b 3d
       -0.07384887 0.049836356 -0.05303017 0.06807933
0000d0 86 89 84 3d 5e 70 9c 3d a8 47 60 3d 5a 76 cc bd
       0.06471543 0.0763862 0.054755837 -0.09983511
0000e0 6a 89 60 3c 2e d9 9a bd b2 71 78 bd 10 40 bf 3c
       0.013704637 -0.07560955 -0.060655303 0.023345977
0000f0 19 da 76 3d 44 cb f8 bd 7f 5a 7e bd 50 7e cf 3d
       0.060266588 -0.12148145 -0.062098023 0.10131514
000100 59 f7 dd bd 74 57 90 bd c0 76 63 bd c3 b4 d7 bd
       -0.108381934 -0.0704793 -0.05553317 -0.105325244
000110 73 9b fc 3c be 37 05 3d 33 9e 51 3c ce ad b7 bd
       0.030835843 0.032523863 0.012794065 -0.089686975
000120 8e 6e c7 3c 0c 7c bb 3d 3d e2 23 3d 88 00 54 bc
       0.024344709 0.091545194 0.04001068 -0.01293958
000130 90 15 57 bc 7c 82 b9 bc 71 9f 85 bd e6 3c e8 3c
       -0.0131276995 -0.022645228 -0.06524552 0.028349351
000140 48 a5 8c bb eb 5a 20 bd db fd 01 be 89 b8 15 3d
       -0.004292164 -0.039149206 -0.12694494 0.03655294
000150 62 a5 aa bd 1e cd 21 3d 7f 3e 82 3d 67 ee 16 3d
       -0.083323255 0.039502256 0.063595764 0.036848452
000160 ae f3 25 3d 38 4d da 3d b5 0e d9 3d ad 3d c5 3d
       0.040515594 0.106592596 0.10598508 0.09630904
000170 2b 5b ab bd fb 3a bb 3d 6a b0 3c 3d 1d 70 12 bd
       -0.08366998 0.09142109 0.04606668 -0.03575145
000180 b4 5b 94 3d a8 1e db 3c 8c 68 0c 3c 29 bf a5 3d
       0.072440535 0.026748016 0.008569848 0.080931015
000190 a9 e5 80 3c 0a a3 5c bc c3 31 2c 3d c2 a0 98 3b
       0.01573451 -0.013466606 0.042039644 0.0046578357
0001a0 ab fe 0f bb fb f4 bd 3d 01 7c 94 3c 42 39 b6 bd
       -0.0021971862 0.09275242 0.018125536 -0.0889764
0001b0 47 04 43 bd d6 10 f1 bd f8 8d 91 3d 83 70 e3 3d
       -0.0476115 -0.11770789 0.071071565 0.11105444
0001c0 26 d2 30 bd f0 c4 4b 3c 97 15 a4 3d 9d b9 74 bd
       -0.043169163 0.01243709 0.080119304 -0.059747327
0001d0 29 0f fc bc 3c 64 40 bd dd d9 12 3d b1 7e aa bb
       -0.030768948 -0.04697059 0.035852302 -0.005203091
0001e0 b6 3c 75 3d fc 5d f8 bc 45 de e6 3d 25 3e c2 3d
       0.05987235 -0.030318253 0.11272863 0.094845094
0001f0 22 49 ba 3d 84 a0 46 bd 6c 97 e6 bb a0 3c ed bd
       0.0909598 -0.048492923 -0.007037094 -0.11583829

weight f4 [128, 167]
000000 c0 81 d2 bb 2d 90 af 3d 62 c9 7d 3d 23 de 9b 3d
       -0.006424159 0.08572421 0.06195963 0.076107286
000010 a9 42 8f 3d 52 be 24 bd 8c 5a 1e bd 83 2a 46 3d
       0.06995136 -0.040220566 -0.03866057 0.048380386
000020 41 fb a9 3d 32 8f 4b 3d ea 19 2d bd d0 66 88 3d
       0.08299876 0.04969711 -0.04226104 0.06660235
000030 92 e4 c8 bb cd ba 8e 3d 28 9d e9 3b d4 8b db bb
       -0.0061307633 0.06969223 0.00712933 -0.0067000184
000040 f2 dc 6b bd b8 13 aa 3d b6 bd fb 3b 45 35 3b bd
       -0.057583757 0.08304542 0.0076825274 -0.0457051
000050 5f 2b be 3d e6 cc 56 bd c4 b8 7e 3d 1f a4 c2 3c
       0.09285616 -0.0524415 0.062187925 0.0237599
000060 9e d7 a6 3c 52 26 1a bd c9 47 b8 3d 7f b9 64 3c
       0.020366486 -0.0376342 0.08998067 0.013960241
000070 b8 3c a6 3c c5 e4 de bc 13 5d a0 bb 18 7f ac 3d
       0.020292625 -0.027208695 -0.004893908 0.08422679
000080 86 c5 09 3d 62 ff 53 bb 00 87 03 ba 0c 8b 3c 3d
       0.03363564 -0.0032348265 -0.000501737 0.046031043
000090 a3 bd ab 3d c0 a7 e1 3b 61 13 97 3c b0 96 68 3d
       0.0838578 0.0068864524 0.018441858 0.05678433
0000a0 4f a6 95 ba ce 87 38 3d 93 40 db bd 44 5a 66 bd
       -0.0011417362 0.04505139 -0.10705676 -0.056238428
0000b0 69 f5 de 3d 9e c2 a5 3d 1c 31 ff 3c 7b 7d 92 3d
       0.10886652 0.08093761 0.031151347 0.0715284
0000c0 c2 84 63 bd dc 39 3b bd 52 95 60 3d 8d 30 34 bd
       -0.05554653 -0.045709476 0.054829903 -0.043991614
0000d0 59 01 a4 3d 03 e9 be 3d 86 a8 c9 bd 81 ed 89 bd
       0.080080695 0.09321787 -0.098465964 -0.067347534
0000e0 2b ac cc ba 98 66 24 3d b8 25 1d bd ca 7d 9e bd
       -0.0015615275 0.040136904 -0.03836605 -0.07738836
0000f0 8b 88 08 3d 8d ff d2 bc 8f 04 dd 3d e5 7c 84 3b
       0.033333343 -0.025756622 0.10791885 0.004043209
000100 2c 98 a4 3d f1 3c d2 bc 97 76 15 bd 89 9b 7a 3d
       0.08036837 -0.025663825 -0.03649005 0.061183486
000110 97 ad 1a bc fd 40 3e bc 09 72 0e 3d 97 9e ac bc
       -0.009440801 -0.011612174 0.03477672 -0.021071715
000120 55 3c 30 3d aa ef f4 bd 99 f9 10 3d 74 d2 05 be
       0.043026287 -0.11959775 0.035394285 -0.13068563
000130 a3 35 d5 bb 0e c3 62 3c 81 96 cd bc 0d 0c 81 3c
       -0.006506638 0.01384045 -0.02509618 0.015752817
000140 12 40 ce 3c 13 6a 89 bd eb 72 0d bd c5 c6 a5 bb
       0.025177035 -0.06709685 -0.034533422 -0.0050590956
000150 c8 5c 5b bc 11 c5 9a ba 9e cc 08 bd 3c b0 c8 bd
       -0.01338882 -0.0011807998 -0.033398263 -0.09799239
000160 ba 91 bf 3c d3 1a 29 bd bb f0 88 3d 63 4e 67 bc
       0.023384918 -0.041285347 0.06686541 -0.01411781
000170 86 fc 9f 3d 90 61 c9 3b d9 00 20 bd 7c 2e 93 3d
       0.07811837 0.0061456636 -0.03906331 0.071866006
000180 3b 00 ff 3c c4 05 af 3d 8f 02 8a 3a 6e 3f ca 3d
       0.03112804 0.085460216 0.0010529327 0.098753795
000190 15 f9 cd bd 15 46 a6 3d d3 b1 60 bd db f7 ae 3c
       -0.10057274 0.08118836 -0.054857086 0.021358421
0001a0 fb 3c 8e 3d 07 9d 95 3d 04 cd fa bd 6c ef b9 bd
       0.06945225 0.07305341 -0.12246135 -0.09078869
0001b0 02 a4 a6 bd 11 44 8a bc 0f 36 82 bd fe 67 94 3d
       -0.08136751 -0.01687816 -0.06357967 0.072463974
0001c0 98 15 75 3d 95 67 86 3d 97 2b 0a bc d5 96 fb bd
       0.059835047 0.065627255 -0.008433244 -0.12284628
0001d0 f6 cc e0 bd 2c ec 01 bd e0 10 e2 3c cb ae 74 bd
       -0.10976593 -0.03171937 0.027595937 -0.059737008
0001e0 88 46 17 bd 51 d3 d0 3b d8 43 a2 bd 4d 4e 6b 3d
       -0.0369325 0.006372847 -0.079230964 0.05744772
0001f0 19 e0 c8 3c a5 84 9a bd dc 7e f5 3d 1e ef 25 3d
       0.02452092 -0.07544831 0.11987087 0.040511243
000200 ae 96 14 3e 7d c6 a5 ba eb d8 bd bc 8f 9b c1 bd
       0.14510605 -0.0012647655 -0.023174724 -0.094534986
000210 0c 68 09 bb 29 86 d4 bc c4 8d 3d 3d 56 a3 1c bd
       -0.0020966558 -0.025942879 0.046277776 -0.038241707
000220 5d ab cf 3d 92 47 a5 bd 02 08 91 3d 2a ee a2 bd
       0.10140107 -0.080702916 0.070816055 -0.079555824
000230 b4 27 81 3d 47 b8 67 bd c7 ca 89 bd 61 a3 80 3c
       0.06306401 -0.056572225 -0.0672813 0.015702905
000240 fb dc c3 bd 8e 91 3a 3b a9 4d 9e 3b bb ef d8 bc
       -0.09563633 0.0028468105 0.004831035 -0.0264815
000250 31 e2 b1 3c 52 4a e0 3d 51 1a 2b bd 34 46 5d 3d
       0.021714302 0.109516755 -0.041773144 0.05402203
000260 13 a8 ac bd c1 48 d2 bd 09 2d 8c 3d b4 12 e2 bc
       -0.08430495 -0.10267783 0.06844527 -0.027596809
000270 8b 1c b5 3c 28 b4 89 bd f9 e7 87 3c 1a 5d 08 be
       0.022108337 -0.06723815 0.016590105 -0.13316765
000280 7b fa 0f bd 55 3a e6 bc 74 71 83 bd cd 3a 72 bd
       -0.035150986 -0.028103987 -0.06418124 -0.059138108
000290 06 87 7a bd 2c 11 3c bd cd c4 3d 3c 60 bd a8 bd
       -0.061163925 -0.045914814 0.0115825655 -0.082392454
0002a0 c2 4e 85 3d 40 ea 87 3b 2e 73 5f bd 91 bb 7b bc
       0.065091625 0.004147798 -0.054553203 -0.015364544
0002b0 7b ee 2f 3d 8b dc 47 3c 47 22 ba bc 22 af fe 3c
       0.042952042 0.012198578 -0.022721423 0.03108937
0002c0 bf 2e a1 bd e3 c2 37 3d 5c 6b 47 3d 5e 69 6a ba
       -0.07870244 0.044863593 0.04868637 -0.00089420925
0002d0 13 41 f1 3c 6a d1 ed bc da b6 ad bd 62 05 91 bd
       0.029449975 -0.02903052 -0.08482142 -0.07081105
0002e0 57 e6 3c bd a1 a1 05 bd 78 43 d0 bc 5c 0c e6 3c
       -0.046118107 -0.032624844 -0.025422797 0.028082065
0002f0 49 66 69 bd 0c 46 35 bc 85 60 2e bc cf 3f 07 3c
       -0.056982312 -0.011064064 -0.010643129 0.008254959
000300 3f 3b 9c bd 80 81 aa bd b6 d2 ba 3c 7d aa 93 3c
       -0.07628488 -0.083254814 0.022805553 0.018025631
000310 db 3e 4a 3d c3 10 1b 3d 14 cf 2b bb 67 f0 83 bd
       0.04937635 0.037857782 -0.0026215957 -0.064423375
000320 fc 5f 41 3d 8a 24 b9 3c 0b 27 14 bc 95 d4 d8 3b
       0.04721068 0.022600431 -0.009042512 0.0066171386
000330 ad 1a 21 3d 92 1c 82 bc 65 a6 78 bd 10 d9 fb bd
       0.03933208 -0.015882764 -0.06070556 -0.12297261
000340 59 32 83 3c 30 14 95 bd 13 1b 50 bc b5 32 80 3d
       0.016015219 -0.07279241 -0.0127017675 0.062596716
000350 dd 87 3c 3d 41 0c 63 bd 4c 67 87 bd 21 73 94 3c
       0.046028007 -0.055431608 -0.06611499 0.018121304
000360 16 21 a0 bd c9 6d 60 bd ad cf 0d bd 8f 45 44 3c
       -0.07818811 -0.0547922 -0.034621883 0.011979475
000370 2f 2a be 3c e7 e3 57 bd 91 bc 41 3d 3b 71 5d bd
       0.023213474 -0.05270758 0.04729897 -0.054063063
000380 48 ac a7 bb a2 51 b3 3d b3 99 af 3c 37 7d 8a 3d
       -0.005116973 0.087558046 0.021435594 0.06762164
000390 5e bc 3a 3d c7 b5 71 3c 46 a6 04 3d 4e 62 dd 3c
       0.045589797 0.014752812 0.032385133 0.027024414
0003a0 c1 dc 62 3c 12 22 d3 bc f4 a1 40 3d a5 1b 60 bd
       0.013846577 -0.025773082 0.04702945 -0.054713864
0003b0 c9 0a 69 3d c6 c2 96 3c c9 ff 48 bd eb ba 58 3d
       0.05689505 0.018403422 -0.04907206 0.052912634
0003c0 de 36 a0 bd 5f bf 96 3d 23 fb 53 bd ae c1 df bc
       -0.07822965 0.0736072 -0.051753175 -0.027314033
0003d0 f3 ca c0 bb 91 1d d2 bd 5f de 45 bc c1 23 d1 3c
       -0.0058835684 -0.102595456 -0.012076943 0.025529744
0003e0 76 68 bf 3d dc 92 a8 bd ce 31 0e bd 0f b6 4f 3d
       0.09346096 -0.08231136 -0.034715466 0.050710734
0003f0 66 f0 e0 3b 00 4d 80 bc b4 c1 b4 3c 31 62 aa 3d
       0.006864595 -0.015661716 0.022065021 0.0831951

bias f4 [128]
000000 6e 26 1b 3d 57 6e ad bd a2 47 f6 bc 71 7f f1 bb
       0.037878446 -0.08468311 -0.030063454 -0.0073699285
000010 be bf 81 3d 2f 52 00 bd 2d 0a 79 3d dc 2b 28 bd
       0.063354 -0.031328376 0.06080072 -0.041057453
000020 db 1e a4 3d d8 99 1b 3b fc 79 69 3d 3e 1b 89 3d
       0.08013698 0.002374282 0.0570011 0.06694649
000030 7a 1a 76 bd e0 dd 24 3d 99 bd 86 bc 80 af fa 3c
       -0.060083844 0.04025066 -0.01644783 0.030601263
000040 39 09 69 3d 8e 36 3f bd 61 5c 8c bc 7b cf 10 bd
       0.05689356 -0.046682887 -0.017133893 -0.03535412
000050 c4 2c 39 bd 8b 6b 66 3d 54 34 9d bd 20 c1 d7 bd
       -0.045208707 0.056254905 -0.076759964 -0.105348825
000060 e0 06 40 bd f4 24 a3 3d 07 1b 79 bd 85 71 ed bc
       -0.046881557 0.079660326 -0.06081679 -0.028984794
000070 bf f0 85 3c 1f 46 0b bd c7 ae 30 bd 94 e1 64 bb
       0.016350148 -0.03400242 -0.04313543 -0.0034924494
000080 ff e9 e4 3b 4e 04 0e 3d 9a 40 10 bc f1 f2 82 bc
       0.0069859023 0.034672074 -0.008804465 -0.015984984
000090 ce 79 1d bd bf 9f 76 3d 1d 30 86 bd fc f5 99 bd
       -0.03844624 0.06021094 -0.06552146 -0.07517621
0000a0 9e 4c a5 3c 2d c0 20 3d 14 35 64 3c ce 71 d7 3c
       0.020178135 0.039245773 0.01392867 0.026299383
0000b0 18 ff 5d bd 15 69 45 bb 60 b4 6b bd 57 83 c8 bc
       -0.054198354 -0.0030122448 -0.057545066 -0.02447669
0000c0 83 00 0a 3c 1e a6 c4 bb 94 ec c6 3c 12 5c de 3c
       0.008422974 -0.006001248 0.024282731 0.027143512
0000d0 4e 7d 4d bd dd 56 80 bd 54 55 d5 3c 35 87 03 3d
       -0.050168328 -0.06266568 0.026041664 0.032111365
0000e0 43 23 49 3d d2 3e 69 3c 75 8e 1e 3d 98 77 8f 3d
       0.049105894 0.014236169 0.038710076 0.070052326
0000f0 d8 dd f6 3c 6e ba 39 3c f5 d1 91 bc dc a9 8e 3d
       0.03013508 0.011335952 -0.01780031 0.06965992
000100 2b 00 97 3c 20 e9 e8 bc cd ec 49 bc f7 c3 f4 bc
       0.018432697 -0.028431475 -0.012324524 -0.0298786
000110 f3 b5 a1 3d dc ed d1 3c e3 06 e7 3c 61 a7 d9 3b
       0.07896032 0.025626116 0.028201526 0.0066422676
000120 bc ed 33 bd 4a c5 1e 3d 86 90 f2 3c 76 86 9b 3d
       -0.043927893 0.03876237 0.02960993 0.07594006
000130 eb 1a 3c 3d 04 32 f8 bc 4e d6 8c bd 19 2e 42 bd
       0.04592411 -0.030297287 -0.06876813 -0.047407243
000140 37 af 67 3d 42 28 00 bc 06 fa 9f bc a2 61 32 bd
       0.056563582 -0.007822098 -0.0195284 -0.04355014
000150 14 c1 c4 3c fe 3d 6b 3c c0 a2 92 3c df cd 90 3d
       0.024017848 0.014358042 0.01789987 0.07070517
000160 b5 f8 a3 3d b8 b4 22 3d 2e cd bb 3c c6 c8 84 bd
       0.080064215 0.039723128 0.022924986 -0.06483607
000170 30 c3 6e bd 44 76 ba 3c 32 46 93 bc da b7 11 bd
       -0.058291614 0.022761472 -0.017977808 -0.035575725
000180 cc 84 ba bc 08 c0 c3 3c c1 82 a0 3c 88 1a 5e 3d
       -0.0227684 0.023895279 0.019593598 0.05422452
000190 f2 15 85 3d 88 ad ef 3c b1 2c 96 bd 39 41 a2 3b
       0.06498326 0.02925755 -0.07332743 0.004951623
0001a0 a0 87 1f 3d cd 9c a1 3c 65 e6 50 3d 26 58 14 3d
       0.0389477 0.019728089 0.05100097 0.036216877
0001b0 bf 9c 3f 3d 13 44 18 3c 98 aa c1 bb 59 74 82 3c
       0.046780344 0.009293574 -0.005910229 0.01592462
0001c0 cc 0b 46 bd 17 71 4f bd 83 8a 87 bc 21 ab bf bc
       -0.048351094 -0.05064496 -0.01654554 -0.02339703
0001d0 a2 d1 af 3c dc 8d 83 bc ac 39 44 bd 9a b3 a0 bd
       0.021462265 -0.016058855 -0.047906563 -0.07846756
0001e0 33 6e 84 3c 64 d3 17 bd 9f 17 49 3d 7c e8 a5 3d
       0.016165828 -0.037066832 0.049094792 0.081009835
0001f0 83 ca 43 3d 09 b1 3c bc ba 2b 48 3d 2d 3e ff bc
       0.047800552 -0.011516818 0.048869826 -0.031157577

weight f4 [128, 167]
000000 78 5d c5 bc ba 8d 17 3d 64 b4 2b bd 90 98 6e bd
       -0.024092421 0.037000395 -0.04192008 -0.058250964
000010 51 8b 8d bd f0 57 aa 3d ba 52 fd bc 9c d3 d1 bb
       -0.06911338 0.08317554 -0.030923236 -0.0064033996
000020 80 00 c4 bc 18 1e 60 3d 6b d8 2a 3c 71 12 ab 3d
       -0.02392602 0.0547162 0.010427575 0.08353127
000030 80 38 2f 3d 40 7b b2 bd 34 86 40 bd cc 66 24 bd
       0.042778492 -0.08714914 -0.047002986 -0.040137097
000040 f1 c8 88 bd 27 48 39 3e c1 bc 83 3d 87 19 2e bc
       -0.066789515 0.1809393 0.06432486 -0.010626203
000050 d4 ce d0 3d 3b 0b ba bd df e0 47 3d 3f 57 33 3b
       0.10195699 -0.09084173 0.04879844 0.0027365235
000060 12 79 24 3d 0f eb b2 bd 41 83 7e 3d 00 91 0e 3e
       0.040154524 -0.0873624 0.062136892 0.139225
000070 c1 71 d1 bc 88 b7 c6 3d 96 14 bc 3c e3 0f 9b 3c
       -0.025566937 0.097029746 0.022959035 0.018928474
000080 fe d5 a3 bd 93 ec 06 bd 84 4f af bd a9 ea 01 3e
       -0.079998 -0.03294046 -0.08560088 0.12687172
000090 25 87 94 bd 11 91 c3 3c fa 68 16 bd 4b d4 66 3d
       -0.07252339 0.023872884 -0.036721207 0.056354802
0000a0 7b 74 a0 3d 01 07 24 3c 01 4f 2e 3d c3 2e 7a 3c
       0.07834717 0.0100114355 0.042555813 0.015269938
0000b0 8a a7 2c 3d fc 8a 58 3d dc 1d a7 3b a0 eb 70 3c
       0.042151965 0.05286692 0.005099995 0.014704615
0000c0 b7 86 58 bb 76 83 17 3c b0 0a 52 3d d9 25 93 3d
       -0.003303928 0.009247651 0.051279724 0.07184953
0000d0 a2 a1 bd 3d 13 7d b5 3d db d9 92 bd eb c9 e8 3c
       0.09259345 0.08861747 -0.07170459 0.028416594
0000e0 73 02 c5 3d 46 2a e5 3c 64 8e 7e bc 6f ff 9d 3c
       0.09619608 0.02797426 -0.015536878 0.01928684
0000f0 46 45 ad 3d 4d cf 9c bb 22 af 92 3b 90 de c3 bd
       0.084604785 -0.0047854544 0.004476444 -0.09563935
000100 83 cd d1 3b aa cc 87 bd 47 e3 26 3d c4 9a 19 3c
       0.0064026727 -0.066308334 0.040744092 0.009375278
000110 8d 1e 9b bd f5 84 c7 bd 99 fb 6c 3d 3e 51 9d 3d
       -0.075741865 -0.097421564 0.05785713 0.07681511
000120 bf 91 82 bc e6 f3 43 3d e3 d9 56 bb 1d c3 c3 bd
       -0.015938638 0.04784002 -0.003278368 -0.09558699
000130 4b 3d 62 3d aa bd 0c 3d 57 c1 82 bd 6b 7c c5 3b
       0.055234235 0.034360565 -0.06384533 0.0060267947
000140 fb 04 16 3d a6 6c 39 3d 50 11 0e 3d da 21 3d 3d
       0.036625843 0.04526963 0.03468448 0.04617486
000150 e9 cb a0 3d 96 d9 6b 3d a1 75 c4 3b f5 51 39 3d
       0.07851393 0.057580553 0.005995468 0.045244176
000160 bc 26 b5 bd 03 ed b4 bd fa 4b 72 bd 57 5f 96 bc
       -0.088452786 -0.08834269 -0.05915449 -0.018356008
000170 b2 6e 02 bd bd 12 45 b8 2e 9d dd 3c f9 2f e2 bc
       -0.03184385 -4.698591e-05 0.027052488 -0.027610766
000180 de b8 ad bc 5e 56 b4 bc fa d2 af bd b4 20 e2 3c
       -0.021206316 -0.02201384 -0.085851625 0.027603485
000190 4f ba c3 3d b3 bc bf 3d b1 b6 d1 3d 54 43 81 3e
       0.0955702 0.093621634 0.10239924 0.2524668
0001a0 fe f7 86 bd bd 6e 07 bd 55 72 f4 bc 4c 15 c7 bd
       -0.065902695 -0.033064593 -0.029839674 -0.09720859
0001b0 bc 70 9c 3c 1b 35 b8 bc 8c 48 b6 3d fe 15 4d 3c
       0.019096725 -0.02248626 0.08900556 0.01251745
0001c0 cb b5 59 3d b4 f9 4c 3e 34 b5 06 bb 0b dd c6 bc
       0.053151887 0.20017129 -0.0020554783 -0.024275323
0001d0 dc 2b 9b 3d af 1f c3 3c 8c 81 cd bc df 93 a2 bc
       0.07576725 0.023818819 -0.025086187 -0.019845901
0001e0 94 e8 c9 3d 79 c4 04 3b f7 a0 be bc 98 35 8a bd
       0.09858814 0.0020258708 -0.023270113 -0.067485034
0001f0 c7 ae c0 ba 6c db 94 3d 27 c9 9d bd 81 89 76 3d
       -0.0014700525 0.07268414 -0.077043824 0.060189728
000200 7f 05 5a bd 79 16 f7 bc 40 77 6b 3d d8 9e 9c bd
       -0.053227898 -0.030162083 0.057486773 -0.076474845
000210 36 e2 0b bd 1b c2 47 3d 87 d2 36 3d ae 1c 0f bd
       -0.03415128 0.048769098 0.04463437 -0.03493946
000220 9a c4 a7 3d 7b 4e f7 3d 5c c1 e2 3c c9 ab 84 bc
       0.08191796 0.12075516 0.027680092 -0.016195195
000230 71 e5 35 3c 16 a0 b4 3d 5f 61 c4 bc 3e 85 93 bb
       0.011102066 0.088195965 -0.023972211 -0.0045019677
000240 96 92 91 3d af 94 42 3d b6 d3 e3 3d 31 fd 23 bd
       0.07108037 0.047505077 0.11124365 -0.040036384
000250 8a 90 da 3c e9 d9 25 bc dc 42 9f 3d a9 d9 7e bd
       0.02668025 -0.010122755 0.07776424 -0.062219296
000260 c5 44 05 bd aa b6 17 bd ad c3 bf bb 0e a7 9f 3d
       -0.032536287 -0.037039436 -0.005852184 0.07795535
000270 6d 04 0a bd 2a 8a a2 bd 53 3d f9 3c 30 7c f9 bc
       -0.033695627 -0.07936509 0.03042475 -0.030454725
000280 ba 09 ef 3b 1d ed 17 3c 17 26 a0 3d fb 95 1b bc
       0.0072948607 0.009272841 0.07819765 -0.009496207
000290 a8 da ac bc 06 15 c8 3d fb 64 66 3d c1 8a 4f bd
       -0.021100357 0.09769635 0.056248646 -0.050669435
0002a0 8d 8b 69 3c a2 e2 b6 3c a7 cd 43 bd cd d8 76 3d
       0.014254463 0.022324864 -0.047803547 0.06026535
0002b0 dd 29 3e 3c 07 e5 8f 3d e4 48 ff 3c 2f b5 72 bd
       0.011606661 0.070261054 0.031162687 -0.05925482
0002c0 c2 81 a6 bd 07 d1 5f bd 8d 70 c1 bc 36 80 7a 3c
       -0.08130218 -0.054642703 -0.023613239 0.015289357
0002d0 5c 68 dc 3c 71 29 38 bd 64 75 59 bd 43 5b 88 3b
       0.026905231 -0.044961397 -0.053090468 0.00416127
0002e0 18 ea bf bd a1 5d c4 3b 07 39 30 bd 68 79 f3 bd
       -0.09370822 0.0059926067 -0.043023136 -0.11888391
0002f0 ec e4 a5 3d a5 1f 1f 3c 03 3d e6 3d b0 ed be bd
       0.08100304 0.0097121345 0.11242106 -0.09322679
000300 fc 4b d0 3a de 72 67 bd e2 12 0f be 11 76 98 3d
       0.0015891786 -0.05650603 -0.13972047 0.074443944
000310 9e 78 60 3b fa fd cd bd d9 91 1d bd 0e 2a c0 b9
       0.003425158 -0.10058208 -0.03846917 -0.00036652427
000320 06 3e 66 3d a7 8c d3 bc b9 fb b5 3c b9 e7 8e 3d
       0.056211494 -0.025823904 0.022214757 0.06977791
000330 38 6f f2 bb f8 2b ca 3c ff 19 07 3d c4 29 b0 3d
       -0.007398512 0.024679169 0.032983776 0.08601716
000340 a7 6f 2b 3b 08 c4 0e bd 3c 2b 81 bc eb a4 8d bd
       0.002615908 -0.03485492 -0.015767686 -0.06916221
000350 5e bd 83 bd 14 df 3b bd 84 64 b8 bc a5 49 a7 bd
       -0.06432603 -0.04586704 -0.022508867 -0.081683435
000360 b1 28 1b bc 28 37 38 bd 6d 71 5b 3d e0 2e 35 be
       -0.009470151 -0.044974476 0.053574968 -0.17693663
000370 4c 1e 15 bb 15 c1 b9 3c 50 e8 ae 3b ef 1d b3 bd
       -0.0022753654 0.022675076 0.0053377524 -0.08745944
000380 cc ba 71 bd 27 54 21 bd 86 6c 65 3d a7 14 ec 3c
       -0.059016034 -0.039386895 0.0560117 0.028818442
000390 b6 26 bf bd fe 0b 9c bd b0 ed 9d 3d ba 1c a5 3d
       -0.093335554 -0.07619475 0.07711351 0.0806212
0003a0 1f 2c 20 3d 06 b5 3a bc 96 0a 98 3d 42 4c 4f 3d
       0.039104577 -0.011395698 0.07423894 0.050609834
0003b0 35 08 b1 3d 59 98 f7 3c 8d e7 7a 3d 57 4a 50 3d
       0.086441435 0.030224012 0.06125598 0.050852146
0003c0 0c 06 86 bd 65 c6 bc bd 31 53 ad bc 72 e7 9f bc
       -0.06544122 -0.09217528 -0.021157833 -0.019519541
0003d0 47 4f 57 bc 75 db e2 3e 34 09 67 bd aa 68 03 3d
       -0.01314146 0.44308057 -0.05640526 0.032082237
0003e0 88 f0 84 bd ae a8 84 3e bc e7 df 3d 34 e8 0c 3d
       -0.0649119 0.25909942 0.10932872 0.034401134
0003f0 cd 33 bb bd dd b3 e6 bc 9e 46 88 bd 38 1d 41 bd
       -0.091407396 -0.028161937 -0.06654094 -0.047147006

bias f4 [128]
000000 ef 41 7f bd f1 b9 26 bc 1c 48 25 bd a2 6b 54 3b
       -0.06231874 -0.010176168 -0.040351972 0.0032412787
000010 81 10 99 3d d7 8a 98 bd 05 8e 0b bc 9c 20 cc bc
       0.07473851 -0.074483566 -0.008517747 -0.024917893
000020 fd 41 99 bd d7 8e c7 bb d9 77 4a 3d da 90 7e bd
       -0.074832894 -0.006090026 0.049430702 -0.06214986
000030 06 62 d5 bc 90 2a bf bc b8 06 47 bb 89 14 86 bc
       -0.026047718 -0.023335725 -0.0030368995 -0.016367214
000040 d9 42 31 bd 12 ae 5c 3d 1f 66 3e bd 15 b3 20 3d
       -0.04327664 0.053876944 -0.04648411 0.039233286
000050 19 f3 3a bd 18 00 27 3d f2 7e 82 bd 23 9c 2f 3d
       -0.045641992 0.040771574 -0.06371869 0.042873513
000060 9e 4d a5 bd 48 23 94 bd 58 7e d9 3c d5 ec ad bd
       -0.08071445 -0.07233292 0.026549503 -0.08492438
000070 ba ac ac bb 74 ad 2b 3d 52 b4 8d bd ee 65 bc bc
       -0.005269614 0.041913465 -0.06919159 -0.022997823
000080 07 57 2d 3d b9 b4 2d bc 8c c2 06 3d 42 b1 24 3d
       0.042319324 -0.01060217 0.032900378 0.04020811
000090 fd 43 50 bd f8 67 6a bd 64 da 16 3d ed 2e a6 3b
       -0.05084609 -0.05722806 0.036829367 0.005071512
0000a0 d8 eb 92 bd 95 b1 c6 bd 70 be b6 3c ac 98 83 3a
       -0.0717389 -0.0970184 0.022307605 0.0010040007
0000b0 e8 ae 4f bd 4d 7d 70 bc 94 d5 63 3d 3c 70 fc 3c
       -0.050703913 -0.0146783115 0.055623606 0.030815236
0000c0 b5 70 c2 3b bf c1 9e bd 14 c0 96 bd f0 cf bf bd
       0.005933846 -0.07751798 -0.07360855 -0.09365833
0000d0 96 68 52 3b 62 8b 1f bd 65 54 fc bc ed ea 48 3d
       0.0032105795 -0.038951285 -0.030801961 0.049052168
0000e0 95 f9 04 bc f7 9b 53 bd a9 24 9a bd 66 da 02 bd
       -0.008116146 -0.05166241 -0.075265236 -0.031946562
0000f0 ac c8 78 bc 98 eb 93 bd 37 15 89 bd d2 d3 38 3d
       -0.015184563 -0.0722267 -0.066934995 0.045123883
000100 1e 0f 74 bd b3 ec 6c 3d 02 b7 03 3c b1 2c 8a bd
       -0.05958473 0.05784292 0.008039238 -0.067468055
000110 06 50 85 bc db e3 cf 3c 21 3f b0 3b 77 af 60 bd
       -0.01627351 0.025377205 0.0053786193 -0.054854836
000120 9d 8c 0c 3d d0 99 bd 3c 1f da 5e bd 6f 64 a3 bd
       0.034313787 0.023144633 -0.054407235 -0.079781406
000130 76 6d 42 3d 4b e7 97 3c 62 dd 04 bd cb cc 59 bd
       0.04746767 0.018542906 -0.03243769 -0.05317382
000140 d3 99 46 bd bb e8 12 3d 59 0b 56 bd b2 8c 90 bd
       -0.048486542 0.03586648 -0.052256916 -0.070580855
000150 a4 f5 13 bd e9 8b 82 bd 22 19 63 3d 38 57 73 bd
       -0.036122933 -0.06374342 0.05544389 -0.05940935
000160 9e 5b 4a bd 28 ff 62 3b 41 46 cf 3c 02 2e c6 bb
       -0.04940378 0.0034636948 0.025302054 -0.006047965
000170 79 f4 24 bb 03 d3 9d bc a0 ae 89 3d 53 cb fc 3c
       -0.002517013 -0.019265657 0.0672276 0.030858671
000180 25 75 16 bb fb 69 1e 3d ee dd 58 3d ae 65 38 bc
       -0.0022958007 0.03867529 0.052946024 -0.011254711
000190 fb 7a ae 3d 9f 46 2c bc 29 07 9f 3d 48 b8 bc 3d
       0.085195504 -0.010514884 0.077650376 0.09214836
0001a0 61 f2 3f bc 57 9e 59 bc 02 57 6e bd 7a 50 7f bd
       -0.0117155025 -0.01328238 -0.058188446 -0.062332608
0001b0 fd 02 68 bc 2c ef f8 3c ec c7 5f bd 9d 9d 0a 3d
       -0.014160869 0.030387484 -0.05463402 0.033841718
0001c0 b7 22 bb 3c ac 23 00 3b b2 d6 54 bd da 59 c9 3c
       0.022843702 0.0019552512 -0.051962562 0.024578977
0001d0 1b 36 7c bc ff 1a 72 3d 6d 12 d9 39 bc de 47 bd
       -0.015393759 0.059107777 0.00041403194 -0.0487964
0001e0 47 6f f6 3c b7 9a ca 3c 5d f8 57 bd e3 58 8b 3d
       0.030082358 0.024731977 -0.052727092 0.06804063
0001f0 9b b7 65 3d 07 9e 84 bd d8 c7 45 bc 09 d6 3f 3d
       0.056083303 -0.06475454 -0.012071572 0.04683498

weight f4 [128, 256]
000000 13 a5 91 3d a1 d3 2a bd 40 0e 74 bd f2 eb 73 bd
       0.071115635 -0.04170573 -0.059583902 -0.059551187
000010 2c 3c 9f bc cc 05 22 be 17 35 2c 3d eb 3f 61 3d
       -0.019437872 -0.15822524 0.042042818 0.054992598
000020 4a e0 07 3d 53 79 1e bd 99 01 70 3d 77 ad b1 bc
       0.033172883 -0.038689923 0.058595274 -0.02168916
000030 d8 a1 64 3d a8 a3 8d 3b 30 4b 01 3c 1a 9c 08 3c
       0.05581841 0.004322488 0.007891461 0.008337999
000040 bc aa b5 3c 6e 9e 16 be 95 39 43 3d 5a 27 e0 bc
       0.022176139 -0.14708874 0.047662336 -0.027362514
000050 9f 1c 63 3d bd 33 ed bb 89 8f 5d 3b e2 21 21 3e
       0.055447217 -0.0072388337 0.0033807477 0.15735582
000060 7d f0 bd 3d 09 35 68 3d 48 24 90 3d 23 96 67 3c
       0.09274385 0.056691203 0.0703817 0.0141349165
000070 9b 5c b0 3d 57 44 1b bd e0 39 bc 3d 89 3f 51 3c
       0.08611413 -0.03790697 0.09190726 0.012771496
000080 d8 c4 ce 3c e5 10 61 bd 5f 76 e0 bc 67 2b b6 bd
       0.025240347 -0.054947753 -0.027400194 -0.08894997
000090 e5 a5 67 3d c7 f4 c4 3c a1 c4 b8 3c 11 d1 2f bc
       0.056554694 0.0240425 0.022554697 -0.010730998
0000a0 19 7d 3b 3d c3 b8 44 3d 50 47 42 3d 97 f2 ab bb
       0.0457736 0.048027765 0.04743129 -0.005247425
0000b0 04 dc 7b bc 23 ec 65 3d 66 60 e1 3b 22 b2 31 bd
       -0.01537228 0.0561334 0.0068779467 -0.04338277
0000c0 fa 43 93 3b 93 f2 30 3d e2 10 62 3d 04 b8 49 bd
       0.0044941874 0.043200087 0.055191882 -0.049247757
0000d0 6c 2c c9 3c 58 ef 0f be 7c 24 a7 3d 73 a2 01 bc
       0.024557315 -0.14056146 0.08161256 -0.007912266
0000e0 13 1c 9e 3d 11 58 6f bc 31 68 39 3c ea 32 66 bc
       0.077201985 -0.014608399 0.011316345 -0.014050225
0000f0 61 5d 2a bd ae 4d b1 bc 56 11 c3 3c dc ad c6 bc
       -0.04159296 -0.021643486 0.023811977 -0.024252824
000100 79 e3 d0 3c 59 48 0b bc 89 54 7b 3d a8 95 94 bd
       0.025499092 -0.008501136 0.061359916 -0.07255107
000110 6d 94 8c 3d 82 d8 03 3c 0b ca b8 3d e0 e3 55 3d
       0.068642475 0.008047225 0.09022912 0.05221927
000120 20 13 1c bd dc 03 86 3c 75 2f b4 bd 9c 46 a3 3c
       -0.038104177 0.016359262 -0.08798114 0.01993113
000130 13 a9 cc bb cf 35 33 3d 64 b3 58 bc 4b f8 85 bb
       -0.006245741 0.043752488 -0.013226364 -0.0040884367
000140 c5 64 2d bd 96 ac bf 3d ff 61 79 3d d1 4f 63 bd
       -0.04233243 0.0935909 0.060884472 -0.05549604
000150 64 c4 87 3d 42 fc e5 3b 77 0f a2 3d 99 9b f8 3c
       0.066292554 0.007018597 0.07913106 0.030347632
000160 1a 6d 4f bd e3 37 09 bc 94 2a 09 bc 18 e9 88 3d
       -0.050641157 -0.008375141 -0.008371968 0.06685084
000170 86 b2 8f bc d3 57 99 3d ef cb c5 3c 08 97 26 3d
       -0.017541181 0.07487454 0.024145095 0.04067138
000180 e1 ab 99 bc bf 05 b9 ba 9e 0d 21 3d 36 ea 5f bb
       -0.018758716 -0.0014116092 0.039319627 -0.00341667
000190 fb 46 f2 3c 5b 80 82 3c da f2 7b bb 69 ef fe bd
       0.029574862 0.015930345 -0.0038444311 -0.124480076
0001a0 09 b2 0c bd a4 a8 93 bc 8b 52 2f bc 89 55 54 3c
       -0.034349475 -0.01802475 -0.010700832 0.012959846
0001b0 d6 44 9a bd f7 20 39 bc 94 f3 27 bd e7 fd 8e 3d
       -0.07532661 -0.011299363 -0.04100378 0.06982022
0001c0 f7 27 4f bb db a9 9a bd 9e c4 7b 3d 26 d2 43 3d
       -0.0031609514 -0.075519286 0.061466806 0.047807835
0001d0 5c 2a 9f 3c e8 49 ef 3c e3 52 ce bc cd 28 35 3d
       0.019429378 0.029210046 -0.025186008 0.044228364
0001e0 2e fe c1 bc b0 b5 51 3c ca 43 14 bc 21 87 9d 3d
       -0.023680773 0.012799665 -0.009049365 0.076917894
0001f0 16 42 a6 3d aa 41 33 3d 21 16 5b 3d c1 21 b8 3c
       0.08118074 0.043763794 0.0534879 0.022477033
000200 3a dc 78 bc 35 97 97 bd 4a f4 48 3c 2a a8 9b 3c
       -0.015189225 -0.07401887 0.012265274 0.019001085
000210 de 62 9a bc b7 21 5d 3d 14 5c a5 bc a3 08 76 bd
       -0.018845972 0.05398723 -0.020185508 -0.06006683
000220 9d d0 85 3d bc 6d 7e bd 18 6e e6 3b 02 61 0f 3d
       0.065339305 -0.06211637 0.007032167 0.035004623
000230 ae ff 92 bd d5 47 cb bc e4 32 1c 3c 6f b9 9c bd
       -0.07177673 -0.024814526 0.009533618 -0.07652556
000240 9e 25 84 3d 4c 37 b8 3d a0 08 92 3c 79 c8 b6 3d
       0.064524874 0.08994922 0.017826378 0.08924956
000250 18 6c 8c 3c ac 00 dd 3c 9e 40 f9 bc 52 3a 5f bd
       0.017141387 0.02697786 -0.03042632 -0.054498978
000260 d8 23 d9 bc e5 36 cb bd 98 ec 04 bd e0 ff 8e bc
       -0.02650635 -0.0992258 -0.032452196 -0.017455995
000270 bf 6b 38 bd 9d 2c db bd eb c5 79 bb 16 5d ae bb
       -0.04502463 -0.10701869 -0.0038112353 -0.0053211553
000280 c6 5a 7b bb 6c a5 b3 3d 6a fe 8d bd 4f fe 80 bd
       -0.0038353666 0.08771786 -0.06933291 -0.062985055
000290 fe fc 6c bd ad d8 e1 3c 7d f5 61 3d 04 ea 3a 3d
       -0.05785846 0.02756914 0.055165756 0.04563333
0002a0 5f 3a 07 bd 2d e7 93 bd 3e 1d cf 3b d5 25 13 bd
       -0.03301465 -0.07221828 0.0063206246 -0.03592475
0002b0 e8 31 bf bd dc 2c 72 bd fa c2 68 bd 84 98 94 3d
       -0.09335691 -0.059124812 -0.05682657 0.072556525
0002c0 42 15 c7 bd 41 b6 b5 3c c5 17 89 bd 7a b9 83 bd
       -0.097208515 0.022181632 -0.06693987 -0.06431861
0002d0 27 9b 86 3d 30 47 a4 bb af a0 16 bd 1a 0e 0c bd
       0.06572562 -0.005013369 -0.036774334 -0.034193136
0002e0 89 d4 f4 bc 35 17 b3 3c 14 44 71 3c 3c a8 36 bd
       -0.0298865 0.021861652 0.014725704 -0.044594035
0002f0 ae f1 fe bc e7 34 7f bc cc 08 0c bd c5 9d c1 3d
       -0.031121101 -0.015576578 -0.034188077 0.0945392
000300 97 3d 99 3b 53 be 8a bb d8 9a 49 3b 32 a6 c5 3b
       0.0046765315 -0.004234114 0.003076246 0.006031775
000310 b0 85 9d bc b1 5f f1 bb a2 79 86 bd d0 78 3e 3d
       -0.019228786 -0.0073661436 -0.06566168 0.046501935
000320 df 21 ff 3c ad d3 a6 bc de 89 5d 3d 6a 85 f3 3c
       0.03114408 -0.020364607 0.05408656 0.029726703
000330 3d ab 72 bd 11 0c fc bc 87 84 04 bd 49 3c c5 3c
       -0.059245337 -0.030767472 -0.03235295 0.024076598
000340 91 98 d5 bc e0 44 59 bd 0b 25 22 3c 1a 7c 91 bd
       -0.026073726 -0.0530442 0.009896527 -0.071037486
000350 90 f7 dc 3b 74 cd 2d bd 98 6f 54 39 2b cb 17 3d
       0.006743379 -0.042432263 0.00020259467 0.03705899
000360 5f 67 1e bc 89 e1 d9 3c 36 ff 5b 3d b8 1c 8c bd
       -0.0096682 0.026596801 0.053710185 -0.06841415
000370 55 d8 db bc 57 7a 5c 3d d8 a6 86 bd 7f 30 34 bd
       -0.026836554 0.05382761 -0.06574792 -0.043991562
000380 cc 8b 1f bd 5e 81 23 3c 6c fe a4 3c 5e 42 76 bd
       -0.03895168 0.009979574 0.020140849 -0.060121886
000390 e0 5a b0 b8 12 65 96 3d 01 40 45 bd 80 2f 74 3d
       -8.409261e-05 0.073434964 -0.048156742 0.059615612
0003a0 b6 b5 3d 3d 58 29 b9 3b c7 ca 2b 3d cd 1d f6 3c
       0.04631587 0.0056506805 0.04194143 0.030043507
0003b0 69 83 76 3d d5 96 61 3d e8 c1 1d 3d bb 92 f8 bc
       0.060183916 0.055075485 0.038515 -0.030343404
0003c0 3f 53 f0 3c b4 f6 89 3d 18 df 82 bd 07 31 26 3d
       0.02933657 0.06736508 -0.06390208 0.0405741
0003d0 e2 2d a2 bc 29 3c 93 bd 34 4f b3 3d 0e 8b b1 3c
       -0.01979727 -0.07189209 0.08755341 0.021672752
0003e0 0f 1c 5b bb 5f 16 85 3b 8f dd bb 3c 3a eb 31 bd
       -0.0033433472 0.0040615047 0.022932796 -0.04343722
0003f0 38 2c 58 3c bd 7c aa bd 1d 2b 84 bd dd 39 a1 bd
       0.013194136 -0.08324573 -0.06453536 -0.07872365

bias f4 [128]
000000 ea c1 86 3d 78 1d 20 3d a8 06 a7 3c f4 9e 8f 3d
       0.06579955 0.039090604 0.020388916 0.0701274
000010 4f a4 e4 3b ec d7 6e bb 3f 26 3c bc 78 74 0b 3d
       0.006977595 -0.0036444617 -0.011483728 0.03404662
000020 25 04 8b bd 27 bd 9a 3b 56 40 bc 3c d2 8a 00 bb
       -0.067879 0.0047222557 0.022979897 -0.0019613993
000030 17 e9 88 bd b6 30 83 3d 84 77 92 3d 96 58 ed bc
       -0.06685083 0.06405775 0.07151702 -0.028972905
000040 51 cf 4d 3d 0d 13 4c 3d 6d 4b ce bc 77 32 24 3d
       0.05024654 0.049822856 -0.02518245 0.04008719
000050 72 7a 0d bd 9d 1b b1 3d 63 d5 64 bd bf 5c 69 bd
       -0.0345406 0.08647845 -0.055867564 -0.056973215
000060 c4 a8 b7 bc 3d 61 40 bd 52 a2 12 bd bc b6 39 bd
       -0.02241934 -0.046967734 -0.035799332 -0.045340285
000070 5e 4b 2d 3c 86 61 b0 bc 3d 72 6f 3d 5e 37 1d bd
       0.010577051 -0.021530878 0.058458555 -0.03838288
000080 10 a5 9c 3d 45 63 0c bc 11 59 8c bc 85 c1 b9 3d
       0.07648671 -0.00856859 -0.017132314 0.09070114
000090 86 3d bc 3b 99 68 85 3d 4a 1f ac 3d 76 7b 22 3d
       0.005744639 0.06514091 0.084044054 0.039668523
0000a0 2d c4 bd 3c 7b 73 aa 3d 2f 20 9f bd e0 35 80 3d
       0.023164833 0.083228074 -0.077698104 0.06260276
0000b0 a3 7e a5 bb 34 d5 7a bc 41 1d d4 bc 7d 52 b2 3d
       -0.0050504967 -0.015309621 -0.025892856 0.0870714
0000c0 61 52 13 bd fb b7 c6 3c b9 01 81 bc 4a 19 43 3c
       -0.035967235 0.02425765 -0.015747892 0.011907885
0000d0 38 28 2d 3d a6 b3 f3 3c 24 93 09 bc ac 04 55 bd
       0.042274684 0.029748749 -0.008396897 -0.05200641
0000e0 61 11 3e 3d 58 02 f5 3c a6 a6 4b bd 2b e5 61 3d
       0.046403293 0.029908344 -0.049719475 0.055150192
0000f0 ee 4a 55 3c df b6 b4 bc 52 b3 df bc 35 9c 83 bc
       0.013018353 -0.022059856 -0.027307186 -0.016065696
000100 b8 45 f6 3b 90 61 98 bd 31 0b 22 bd ad 43 14 bc
       0.0075156353 -0.074404836 -0.039561454 -0.009049338
000110 a2 09 82 bd 9b 57 cf 3c fb b1 74 3d 8b cb 04 bb
       -0.063494936 0.025310328 0.059740048 -0.0020262923
000120 8c 34 4b bc ae 78 78 3d cd ca 18 3d ca de 60 3d
       -0.012402665 0.060661964 0.03730278 0.05489997
000130 30 0d 62 3c 22 53 0e 3d c4 48 bd 3c a9 80 0d bc
       0.013797089 0.03474725 0.023105986 -0.008636632
000140 8b aa 6c 3d 06 79 78 3d 7e bf da bc b6 03 e1 3c
       0.05777983 0.060662292 -0.026702639 0.02746759
000150 bf 40 14 3a 9d 43 a0 bc f3 da 72 3d 0a 69 23 3d
       0.00056554 -0.01956349 0.059290837 0.039895095
000160 d9 14 7f 3c 8b 98 e5 ba 2a 87 42 bd 17 b7 70 bd
       0.015568935 -0.0017516775 -0.047492184 -0.058768358
000170 1d 8b 83 bd 89 ea 74 bd 1c 3f e4 bb b6 45 fb bc
       -0.06423018 -0.059793983 -0.006965531 -0.03067289
000180 c6 1f 56 3d c0 e6 26 3c 43 c0 38 bd d7 8c 6f bd
       0.052276395 0.010186851 -0.04510523 -0.058483925
000190 16 af 90 3c b7 9b 03 bd e4 1e a3 bc 45 96 ac 3b
       0.017661612 -0.032130923 -0.01991219 0.005266937
0001a0 3d 65 d6 3b 3e f7 4d bd 95 06 0e bd 6c c7 5f 3b
       0.0065428303 -0.050284617 -0.034674246 0.0034145964
0001b0 a5 7d 99 bb a4 81 b3 3c 5b e0 4e 3c 0d 6a ae bc
       -0.0046841674 0.021912403 0.012626733 -0.021290803
0001c0 8e 06 24 bd 28 73 92 3c a9 fe b7 bc 53 83 0f bd
       -0.040045314 0.017877176 -0.022460299 -0.03503735
0001d0 01 60 9f 3c e9 7e 14 bd 74 84 44 3d 58 dc 3b 3d
       0.019454958 -0.036253843 0.04797788 0.045864433
0001e0 95 46 bc 3c 9c f8 bb 3c 67 83 72 bd 32 50 8b bc
       0.022982875 0.022945695 -0.059207346 -0.017006014
0001f0 fc c2 22 3d f7 61 80 bd 99 b9 65 3d 33 ac 8c 3d
       0.039736733 -0.06268685 0.056085203 0.06868782

weight f4 [8, 128, 1, 1]
000000 d2 e2 45 bb dc dc f8 bc bc 44 3c 3d 4e 17 58 bc
       -0.003019501 -0.030378751 0.045963988 -0.01318915
000010 46 df f9 bc 0e 6a 65 bb 77 53 03 bd 50 a7 a0 bd
       -0.030501973 -0.003500584 -0.03206202 -0.07844412
000020 32 d8 b6 bb 3d 9f c5 bc 90 d2 a1 3d 92 ec 1b 3d
       -0.0055799717 -0.024123782 0.0790149 0.038067408
000030 18 7c 80 bb 91 90 15 3c 13 88 3d 3d 39 46 34 3c
       -0.003921043 0.009128706 0.04627235 0.0110030705
000040 c2 88 b1 3d 3f d8 e9 bd f6 e9 f6 3d 3f 39 07 bd
       0.086686626 -0.11418199 0.12056343 -0.03301358
000050 27 c2 5e 3d 69 99 c3 bd 06 7c c9 bd 9c 27 74 bd
       0.054384377 -0.09550745 -0.09838109 -0.059608087
000060 06 cf 3f bd 65 d4 97 3d 57 0c 26 3d cb e0 7a bd
       -0.046828292 0.07413558 0.040539112 -0.061249536
000070 49 c3 bf 3d f9 36 8f bb b3 d8 8d 3c b4 e0 14 bd
       0.093634196 -0.004370567 0.017315244 -0.036347106
000080 98 75 c0 3b 3f 18 0a bb 27 0c d6 bc ac 35 af bd
       0.0058733933 -0.002107158 -0.026128842 -0.08555159
000090 ca 2c d8 bd 13 bd 68 3d 27 c8 89 bd 30 28 e9 3c
       -0.10555418 0.05682094 -0.06727629 0.028461546
0000a0 19 37 15 bd 35 ac 0a be 47 a2 33 3d a2 87 db bd
       -0.0364295 -0.13542254 0.04385593 -0.10719229
0000b0 c3 fb db bd 67 31 3e 3d b4 95 7c 3c 34 13 29 bd
       -0.10741379 0.046433832 0.015416551 -0.04127808
0000c0 97 38 f9 3d ea b3 c4 3d 0a e6 e2 bd fb a6 3a 3d
       0.12168997 0.096046284 -0.11079033 0.0455694
0000d0 ff fb d7 ba 1f 78 6d 3d db 95 ea bd 6e 4e 8b bc
       -0.0016478299 0.057975885 -0.11454364 -0.017005172
0000e0 8f 6e b4 3c 5d 2a 2a bd 59 9a e0 3b 77 c2 d9 3c
       0.022025375 -0.041544307 0.006854337 0.026581986
0000f0 34 b9 44 3d 05 ca 14 bc f3 00 31 3d 06 a4 86 bb
       0.048028186 -0.009081368 0.043213796 -0.0041089086
000100 61 34 0c bd 9d a6 00 bd 35 71 62 3d ca 4d 0a bc
       -0.03422964 -0.031408895 0.055283744 -0.008441398
000110 97 01 ff bd ea a6 f7 3c e3 2c 93 bd ba 00 f7 bd
       -0.12451475 0.030230958 -0.07186296 -0.120606855
000120 04 3f 9d 3d e1 c9 5b bd d2 41 49 bd 17 70 b0 3c
       0.07678035 -0.053659324 -0.049135037 0.021537824
000130 f7 30 d7 bc a6 28 80 bc bb 98 94 3d 56 fb 2e bd
       -0.026268465 -0.015644383 0.072556935 -0.04272016
000140 a3 7c 0a 3e ff 39 b9 3d 35 47 e4 3b 3c ca 5e 3d
       0.13524108 0.09044265 0.0069664964 0.054392084
000150 45 9f e1 3d 9c cb dc 3c 84 36 46 3d f1 41 bd 3d
       0.110167064 0.026952557 0.048391834 0.09241093
000160 b2 da 6a bd a1 80 ca 3c ef 93 68 bc d9 72 77 3d
       -0.05733747 0.024719538 -0.014195426 0.06041226
000170 30 a1 6b bc 2c 9d 9b 3d ef 45 64 bd 92 82 28 bd
       -0.014381692 0.075983375 -0.055730756 -0.041140147
000180 57 be 04 bc 9b 33 96 3d 03 f6 25 3d 69 79 01 3d
       -0.008102021 0.07334062 0.04051782 0.031609926
000190 c5 97 b0 3d d3 ab 87 bd c7 fe 9c 3d 55 71 bb 3c
       0.08622698 -0.0662457 0.076657824 0.02288119
0001a0 08 25 3f bc 7f 79 92 bc e3 f9 f1 3c c0 f9 39 3d
       -0.011666544 -0.0178802 0.0295381 0.045404196
0001b0 7a 47 06 bd fc 53 ab bd 40 5d c8 3c 35 02 ac bd
       -0.03278301 -0.08365628 0.024458528 -0.083988585
0001c0 d9 4f a6 3d 0f ba d9 3b 52 7c 5f bd fa dd 31 bc
       0.081206985 0.0066444944 -0.05456192 -0.010856146
0001d0 d4 f5 1b bd 9f 5d 09 bd 43 51 0b bd 2e fc 9e bd
       -0.038076237 -0.03353655 -0.034013044 -0.07762943
0001e0 ca 13 50 3d d3 8b 61 bd b0 52 c9 bd c0 e0 e1 3d
       0.050800122 -0.055064987 -0.098302245 0.11029196
0001f0 c4 38 cc 3c 83 cc 41 3d 31 f9 cf 3b b1 3b 9a bd
       0.024929412 0.04731418 0.0063468446 -0.075309165
000200 e7 14 07 bc 1a 82 a0 3d 47 62 00 3d 4b e9 c1 bc
       -0.00824473 0.07837315 0.031343725 -0.023670813
000210 1e 62 c2 bd b4 1c 12 bd 57 74 97 3c 6f 3c 87 bc
       -0.094913706 -0.035671905 0.018488092 -0.01650831
000220 b2 97 4c 3d 8a df b2 3d b4 d5 10 bd d3 40 a0 bd
       0.049949355 0.08734043 -0.035360053 -0.07824864
000230 ff a5 fe bb d8 ff 1d 3c 3d 18 0c 3b 10 8f 10 3e
       -0.007771253 0.009643517 0.0021376752 0.14117074
000240 62 82 8c bd 75 7a a5 3c 07 43 0a be 93 84 88 bd
       -0.06860806 0.020199994 -0.13502131 -0.066659115
000250 b7 12 82 3d b3 dc 8d ba 04 b1 7e 3e 0f 8d bb bc
       0.06351226 -0.001082322 0.24872214 -0.02289441
000260 29 62 b3 3d a4 8d 1c bd 9b eb 31 bd e6 b7 1c bd
       0.08758957 -0.038221017 -0.04343758 -0.038261317
000270 3c 75 b0 bc 96 6f 69 3d d7 d4 37 bd 3e cb 68 bd
       -0.021540277 0.056991182 -0.044880714 -0.05683445
000280 4a 8d 42 bd 43 bb a3 bd 83 1e cd 3d 4b 8d a4 bd
       -0.047498025 -0.07994702 0.10015585 -0.08034762
000290 77 76 4a 3d 3d 2a 2a bd c6 36 0b 3d c9 b2 bd 3c
       0.049429383 -0.041544188 0.033987783 0.02315654
0002a0 c3 4a 59 bd d9 2f c0 3d b2 7c 9b 3d e6 89 81 bd
       -0.053049814 0.09384126 0.07592143 -0.0632513
0002b0 57 a4 5a 3c 72 24 76 3d ce 94 db bc 23 f7 30 3d
       0.013344846 0.06009335 -0.026804354 0.043204438
0002c0 6a 71 6a bd 93 ee 15 bd a0 4a 8d 3d d9 1e 45 bd
       -0.057237066 -0.036604475 0.06898999 -0.04812512
0002d0 57 a1 58 3c a5 da 47 3d f5 12 07 3d ea 21 5e 3d
       0.01322206 0.0487925 0.032977063 0.05423156
0002e0 4e 8d 0e bc c0 20 b5 3d 94 e6 d1 3d b4 c7 48 3c
       -0.008700682 0.08844137 0.102490574 0.012254644
0002f0 dc bf 43 bc b2 ab ec bc 9e c9 91 bd 63 06 3b bd
       -0.011947598 -0.028890464 -0.071185336 -0.045660388
000300 12 51 73 bd 65 0e 65 3d 74 67 66 bd 53 50 ed 3b
       -0.059403487 0.05592193 -0.056251004 0.0072422414
000310 50 07 39 3e 41 b1 20 bd f5 8c a0 3d fc 23 eb bc
       0.18069196 -0.039231542 0.078393854 -0.028703682
000320 c4 27 9f 3d 4f ff e1 3d ab 0a 65 3c 1d fb a5 3c
       0.077712566 0.110350244 0.013979594 0.020261342
000330 e1 ce 95 bd 2e dc d0 bd 19 08 fe bc fb 69 0a 3d
       -0.0731485 -0.10198246 -0.03100972 0.033792477
000340 2f d5 c4 bd 3a b9 98 3d a1 d5 9d 3c 42 3a 6b 3d
       -0.09610974 0.07457204 0.019266905 0.057428606
000350 88 90 f5 3b b1 f5 09 bd 3b 79 42 3d 45 ae 7c 3d
       0.007494036 -0.033681575 0.047478896 0.061689634
000360 f5 92 fc 3b 7f 58 a1 bd 95 bd a2 bc 23 96 3b 3d
       0.0077079483 -0.078782074 -0.01986579 0.04579748
000370 4f 0f 01 3d 12 66 1e 3d d5 c4 b3 3d 09 7a 21 bd
       0.03150874 0.03867156 0.08777777 -0.039423022
000380 63 b8 a4 bd c1 07 87 b8 7c 8e 4c 3d 1b 91 29 3e
       -0.080429815 -6.438746e-05 0.04994057 0.1655926
000390 6b 03 e1 3c 8e a5 40 bd 00 b9 be 3d 90 d7 0a bd
       0.02746745 -0.047032885 0.0931263 -0.033896983
0003a0 aa 44 83 3d 14 7a 0a be 2d 5b 26 bd 23 a2 1b 3d
       0.06409581 -0.13523132 -0.040614296 0.037996422
0003b0 bd c5 0e bd 8f 4f 03 bd 94 fa 7b bc de 92 21 3e
       -0.034856547 -0.032058295 -0.015379567 0.15778682
0003c0 b7 b5 95 3d 3e 4f a7 bb ab e6 9a bd 36 b4 52 bc
       0.0731005 -0.005105882 -0.07563528 -0.012860348
0003d0 02 e5 e9 bc 2b 7d 91 bd 83 e1 b2 bd 35 39 db 3c
       -0.028551582 -0.07103952 -0.08734419 0.026760677
0003e0 79 9e 02 3d ab de 20 3d bc e8 1b bd 35 3e 9d 3c
       0.031889413 0.039274853 -0.03806375 0.019194702
0003f0 dc 19 b2 3c aa 68 3b bc 1a fc 56 bd 36 68 5e bd
       0.021740846 -0.011438528 -0.052486517 -0.054298602

bias f4 [8]
000000 0e 65 17 3d 69 b1 17 bd 3d 59 d3 bd 22 6e 88 3d
       0.036961608 -0.037034426 -0.10319755 0.06661631
000010 7e 64 5e 3c 17 78 50 bd 78 36 c4 3c b2 1f 27 bd
       0.013573764 -0.050895777 0.023951754 -0.04080171
