E-GraphSAGE/experiments/model/SE_GATE_MLP_NF-ToN-IoT_best_model.pth (torch, 453944 bytes, 22 tensors)

weight f4 [128, 16]
-0.03152714 0.2726537 0.12243011 0.16716911 -0.19834428 0.26606485 -0.021219898 0.27216896
-0.21714959 0.13968179 -0.23853727 -0.3670463 -0.45411396 -0.110090256 -0.48358768 -0.025109356
0.018978009 0.09422808 0.11896177 0.16628419 -0.18568353 0.1088987 -0.25120577 -0.23291637
-0.45475644 -0.36920217 -0.3051097 -0.27752677 0.15231563 -0.20321634 -0.35362238 0.19260578
-0.21818303 -0.04170755 -0.08409325 -0.07045107 -0.22705035 -0.09688751 0.0728474 -0.1730807
-0.0714609 -0.19573615 -0.09072279 -0.026733564 0.044760093 0.0601954 0.065602824 -0.12526523
0.04223055 -0.24868329 -0.21429937 -0.24342503 -0.25838965 -0.12257466 -0.060271546 -0.059185244
0.6870136 -0.011931346 -0.13544074 0.34276494 0.26535037 0.047851212 -0.15734392 0.33485818
0.07411513 0.05845226 0.0030041176 0.21640007 -0.22319795 0.0043985033 0.01048769 -0.022608
-0.31528097 -0.037053183 -0.26914254 0.14487703 0.09315414 0.1539394 -0.3199628 0.28841466
-0.21511757 -0.16817161 0.17368957 -0.13363995 -0.2359516 -0.059315123 0.13252991 -0.0040582903
-0.109561026 0.10257326 -0.045074683 -0.13673298 0.7339032 -0.3066092 0.06477931 0.14109427
-0.16011158 -0.20457289 0.038683746 0.018099956 -0.23915142 -0.09415815 -0.035917606 0.01672002
0.31618923 -0.2653952 0.2682832 -0.022206109 -0.061814252 0.0815699 -0.29873908 0.09215542
0.21000375 0.19317143 0.16674523 0.012935038 -0.20617937 -0.16085093 -0.1790425 -0.19239907
0.5364303 -0.29591876 0.27819327 0.17463943 0.5342574 0.05559796 0.32432547 0.16920379
-0.25737256 0.14027476 -0.038002897 0.16327813 0.1915161 -0.08678253 0.033997823 0.105738685
-0.045333188 -0.0019076525 0.41146952 -0.118399695 -0.46597773 0.19963527 0.20270981 -0.33195508
-0.01025925 -0.07514508 -0.11530763 -0.15952858 0.076247334 -0.09545517 -0.24631265 0.13086993
-0.056963705 -0.15505105 0.31473982 -0.02216644 0.18940593 -0.21267515 0.3504402 -0.2266489
0.23601788 -0.17159763 -0.17470008 0.20426881 -0.05755654 0.14989096 0.24010563 0.19689462
0.26083162 -0.35700363 0.24302027 0.17048341 -0.26961905 0.20293635 -0.29622495 -0.26521993
0.07498862 -0.094826266 -0.025935773 0.041243486 -0.16123222 -0.0345759 -0.2211418 -0.1233819
0.036543883 0.31697953 -0.3629758 -0.06579886 -0.40415195 -0.16106223 -0.13508274 0.062455192
0.26128656 -0.18331617 -0.09765431 -0.13342425 0.06464756 0.005765802 0.15621758 -0.03503796
-0.54400176 -0.36417362 -0.28627634 -0.2700991 -0.14366473 -0.08567628 -0.19533536 -0.14684984
0.14897385 0.030341767 -0.18724868 0.06866916 0.26617828 0.25295877 0.053047754 -0.058636647
0.19544642 0.2381012 -0.016486268 0.31603697 0.54476696 0.14051458 0.32198244 -0.20348994
0.25239685 0.2218726 -0.20157593 0.007667293 -0.0055592773 -0.06052912 0.28453285 -0.046299916
0.67313325 0.301873 0.23509116 -0.009948552 -0.16658033 -0.01719199 0.1926494 0.14804773
0.046806607 -0.21436888 0.11671214 0.052157946 -0.13313365 0.14349881 0.07130882 -0.1567756
0.5403157 -0.037288796 0.54576945 0.5718272 0.5433588 -0.12801403 0.15217829 -0.18703997
00000000: 9a22 01bd 4499 8b3e a3bc fa3d 612e 2b3e
00000010: c31a 4bbe a739 883e 5ad5 adbc bb59 8b3e
00000020: 765c 5ebe be08 0f3e 1d43 74be 7eed bbbe
00000030: a081 e8be 0077 e1bd ce98 f7be 23b2 cdbc
00000040: c577 9b3c a7fa c03d 3aa2 f33d 6746 2a3e
00000050: d323 3ebe 4806 df3d 0b9e 80be a181 6ebe
00000060: d6d5 e8be 1108 bdbe 5737 9cbe fd17 8ebe
00000070: a1f8 1b3e f217 50be fe0d b5be 733a 453e
00000080: 5f6b 5fbe 89d5 2abd 1539 acbd a748 90bd
00000090: e37f 68be f56c c6bd 0531 953d 113c 31be
000000a0: 185a 92bd 0f6f 48be dfcc b9bd 5900 dbbc
000000b0: 5c56 373d 748f 763d c65a 863d 8745 00be
000000c0: f1f9 2c3d d5a6 7ebe 4b71 5bbe 6944 79be
000000d0: a64b 84be 6c08 fbbd 4cdf 76bd 3a6c 72bd
000000e0: 20e0 2f3f b17b 43bc fab0 0abe e37e af3e
000000f0: 01dc 873e a2ff 433d c41e 21be 8872 ab3e
00000100: acc9 973d a36b 6f3d bbe0 443b fb97 5d3e
00000110: 018e 64be 5221 903b 8fd4 2b3c 6a34 b9bc
00000120: 826c a1be 14c5 17bd 0dcd 89be a55a 143e
00000130: 99c7 be3d 4aa2 1d3e 2ad2 a3be 16ab 933e
00000140: c847 5cbe 2e35 2cbe aedb 313e e9d8 08be
00000150: 4c9d 71be 6af4 72bd ecb5 073e 68fb 84bb
00000160: 8861 e0bd ee11 d23d 3ba0 38bd bb03 0cbe
00000170: 15e1 3b3f e2fb 9cbe 04ab 843d 047b 103e
00000180: 4af4 23be 8e7b 51be d972 1e3d 5c46 943c
00000190: 1ce4 74be fdd5 c0bd 571e 13bd 6cf8 883c
000001a0: 8ee3 a13e e1e1 87be 6a5c 893e 96e9 b5bc
000001b0: f130 7dbd 1f0e a73d 54f4 98be fbbb bc3d
000001c0: 390b 573e bbce 453e 43bf 2a3e 7bed 533c
000001d0: af20 53be 1bb6 24be eb56 37be 4304 45be
000001e0: 7f53 093f aa82 97be 596f 8e3e aed4 323e
000001f0: 18c5 083f b0ba 633d fd0d a63e c243 2d3e
00000200: 56c6 83be 30a4 0f3e eda8 1bbd 6232 273e
00000210: cc1c 443e 0abb b1bd 4d41 0b3d 868d d83d
00000220: 4baf 39bd 320a faba 22ac d23e 8a7b f2bd
00000230: a294 eebe 306d 4c3e 2993 4f3e 04f6 a9be
00000240: 6a16 28bc aae5 99bd 6826 ecbd 765b 23be
00000250: 9027 9c3d 007e c3bd 6239 7cbe c402 063e
00000260: c652 69bd b4c5 1ebe 9425 a13e 6596 b5bc
00000270: a1f3 413e 84c7 59be e66c b33e a616 68be
00000280: acae 713e 4ab7 2fbe 94e4 32be d82b 513e
00000290: 68c0 6bbd 047d 193e 40de 753e be9e 493e
000002a0: b98b 853e 2ec9 b6be 4eda 783e 3493 2e3e
000002b0: 820b 8abe 8cce 4f3e ccaa 97be e8ca 87be
000002c0: a293 993d 4634 c2bd 4277 d4bc eeee 283d
000002d0: 0f1a 25be 759f 0dbd ff72 62be a6af fcbd
000002e0: 0aaf 153d 244b a23e f7d7 b9be 8dc1 86bd
000002f0: 01ed cebe 7fed 24be 2153 0abe 04d1 7f3d
00000300: 5ac7 853e 3cb7 3bbe fcfe c7bd 5ea0 08be
00000310: f165 843d 0eef bc3b 80f7 1f3e f783 0fbd
00000320: b343 0bbf f774 babe d092 92be 6e4a 8abe
00000330: d91c 13be 0c77 afbd fe05 48be ce5f 16be
00000340: 9a8c 183e 4c8f f83c 1ebe 3fbe 6ba2 8c3d
00000350: 8548 883e d083 813e 9a48 593d fb2c 70bd
00000360: 1b23 483e cdd0 733e 360e 87bc 99cf a13e
00000370: d975 0b3f 0ee3 0f3e e2da a43e ab5f 50be
00000380: 293a 813e 9232 633e ec69 4ebe ea3d fb3b
00000390: 992a b6bb 62ed 77bd 4aae 913e fba4 3dbd
000003a0: 7652 2c3f 198f 9a3e bdbb 703e 40ff 22bc
000003b0: 0994 2abe 37d6 8cbc e245 453e d399 173e
000003c0: 49b8 3f3d 8483 5bbe c606 ef3d 92a3 553d
000003d0: 3054 08be 5af1 123e 5c0a 923d c889 20be
000003e0: 2152 0a3f 23bc 18bd 8cb7 0b3f 4463 123f
000003f0: 9019 0b3f 1c16 03be a0d4 1b3e 6887 3fbe

bias f4 [128]
0.18158014 -0.16511257 -0.070248485 0.09756152 -0.050391402 -0.02300097 -0.024120003 -0.091052115
-0.2793616 0.0018432348 -0.2478768 -0.13121442 0.11685336 0.07751 0.20548368 0.11260591
0.074296355 0.21319366 -0.032373186 -0.15672033 0.17320316 -0.26304165 0.12513354 0.24823272
0.23307544 0.17066239 0.23097883 -0.14905798 -0.09427364 0.14357482 0.11799402 -0.040473513
-0.1956937 0.09689602 0.1544922 -0.26047686 0.1768253 0.0015198648 0.20141585 -0.062288072
-0.2354877 -0.08596369 0.017272903 -0.1670503 -0.06374369 -0.23325434 -0.041890893 0.19547829
-0.056141026 -0.20116894 -0.19443642 0.05781143 -0.26538596 0.30365682 -0.20859216 -0.14582396
0.04255575 0.2848519 -0.15592027 0.08276921 0.21314292 0.1502119 -0.034024272 0.10922943
-0.26965615 0.11517544 0.14414641 0.031034857 0.016294677 0.17071716 -0.23003605 -0.10906747
0.11075008 0.052400492 -0.038243312 -0.25937942 0.06519517 0.08341169 0.18674597 -0.20947994
0.1813469 -0.026021004 -0.17748848 0.15161851 -0.029142732 0.17418864 -0.12308601 -0.007331378
-0.28554735 0.23840374 0.15903343 -0.026384614 -0.20614637 0.122223645 -0.091273576 0.28238067
0.21658112 -0.0025866628 -0.11062056 0.17782408 0.17331442 0.106499605 -0.19059464 0.104884826
-0.16724065 0.13359982 0.15724906 -0.08201474 0.12197784 -0.16015157 0.17788218 -0.07971807
-0.020678103 0.20411369 0.16542523 -0.08607548 -0.081345536 -0.14403342 -0.20892051 -0.22082026
-0.03148504 -0.14217962 -0.13504362 0.26634473 0.23634185 -0.27337414 -0.1305708 0.03358865
00000000: 25f0 393e 4513 29be 70de 8fbd 56ce c73d
00000010: 3767 4ebd 886c bcbc 5097 c5bc 8879 babd
00000020: 7c08 8fbe b298 f13a 6ad3 7dbe 135d 06be
00000030: d050 ef3d 90bd 9e3d 506a 523e ed9d e63d
00000040: b028 983d 704f 5a3e bf99 04bd 4b7b 20be
00000050: 2b5c 313e 65ad 86be 0223 003e b830 7e3e
00000060: 54ab 6e3e 1fc2 2e3e b785 6c3e a8a2 18be
00000070: 8a12 c1bd 4705 133e d9a6 f13d 8ec7 25bd
00000080: ee63 48be 6c71 c63d 3433 1e3e 395d 85be
00000090: b111 353e 3336 c73a f53f 4e3e c721 7fbd
000000a0: b023 71be bb0d b0bd e77f 8d3c 3c0f 2bbe
000000b0: 0d8c 82bd 3ada 6ebe c995 2bbd 762b 483e
000000c0: 22f4 65bd 3bff 4dbe 571a 47be aecb 6c3d
000000d0: abe0 87be e878 9b3e 2f99 55be e052 15be
000000e0: f04e 2e3d 1cd8 913e 90a9 1fbe e782 a93d
000000f0: 2342 5a3e 26d1 193e 095d 0bbd aeb3 df3d
00000100: 5f10 8abe 1ae1 eb3d 1e9b 133e d03c fe3c
00000110: 6a7c 853c 7bd0 2e3e 928e 6bbe c45e dfbd
00000120: f0d0 e23d e6a1 563d 05a5 1cbd 61cd 84be
00000130: 0c85 853d c0d3 aa3d 563a 3f3e e981 56be
00000140: 00b3 393e 002a d5bc 8abf 35be e241 1b3e
00000150: bdbc eebc 825e 323e 8514 fcbd 0e3c f0bb
00000160: 4333 92be 1c20 743e a9d9 223e 8c24 d8bc
00000170: 0918 53be 6450 fa3d a4ed babd 3394 903e
00000180: 71c7 5d3e 0085 29bb 088d e2bd 8417 363e
00000190: 5679 313e 771c da3d 3e2b 43be dbcd d63d
000001a0: 2241 2bbe 64ce 083e e605 213e 58f7 a7bd
000001b0: 85cf f93d c6fe 23be bf26 363e 3a43 a3bd
000001c0: 2065 a9bc 2e03 513e 3b65 293e 5748 b0bd
000001d0: 7d98 a6bd 7f7d 13be 42ef 55be b51e 62be
000001e0: 75f6 00bd 8997 11be e048 0abe 565e 883e
000001f0: 9903 723e b2f7 8bbe 5ab4 05be 4194 093d

weight f4 [128, 136]
-0.025634147 0.048713192 0.0007573408 -0.021754902 -0.06869162 0.050768908 0.07709292 0.028987233
-0.09973871 -0.012078435 -0.012752979 0.11055995 0.027380286 -0.063723475 0.11303762 0.17104717
-0.04429606 -0.1444681 0.1315429 -0.08609442 -0.025776668 -0.005160808 0.044193786 -0.08962584
0.022523256 -0.17157848 -0.029444268 0.050837297 -0.052884012 0.060966656 0.06186937 0.07646801
0.06708929 0.03836853 0.05863923 -0.050573163 0.07796562 -0.010195709 0.07228799 -0.05415079
0.039307147 -0.031409316 0.016547661 -0.10312101 -0.009085806 0.04666902 0.12694201 -0.011593905
0.063683055 -0.035326432 -0.16936791 0.04988249 0.13224328 0.16549239 -0.020449663 0.07351448
-0.034984585 -0.042882934 -0.017542534 0.024153858 0.0734003 0.074901395 0.011754298 -0.045302287
-0.027196594 0.012215088 0.048940312 -0.14093693 0.021151341 0.06261489 -0.10399161 0.14115854
-0.014004279 0.036266133 0.040824223 -0.11725099 0.07848108 -0.087490484 -0.11600754 -0.07012728
-0.104402535 -0.1055667 0.08419353 0.054094553 0.049772244 0.13698846 0.030322937 0.007466387
-0.041733038 0.18089308 -0.025457645 0.0791836 0.084771425 0.15900338 -0.07272827 0.07723266
-0.043782007 -0.10457598 -0.04018607 0.061732702 -0.039697636 0.07088812 0.048176292 -0.015413721
0.1411355 -0.17331001 0.16364233 0.003538476 0.11150215 -0.026490664 0.17120966 -0.0826698
-0.1355813 -0.036253892 0.033662986 -0.07106109 0.031868916 -0.021588208 0.0047983876 0.06782456
-0.026259309 0.06060493 0.05328528 0.068855815 -0.114612 0.04778365 -0.07815708 0.09222043
0.027429165 0.007759907 0.14578776 0.0852267 0.07401291 0.026004141 -0.21050097 0.044550512
-0.06498995 0.010598907 0.030416295 0.08496731 0.052593734 -0.029812163 0.084152125 -0.06172399
-0.05103603 -0.066951975 -0.0008869135 0.030068928 -0.01346077 -0.043034445 0.08551269 0.19428237
0.099085964 0.03601736 0.11623546 -0.01909592 -0.12388591 0.06303801 0.09931512 0.2767657
0.119390205 -0.15959865 0.08557147 0.19725868 -0.06385828 -0.16509594 -0.08887555 0.023721451
-0.06495062 0.057205338 -0.017044304 0.082959406 -0.16982575 0.02481293 0.09689362 0.05519504
-0.14388949 -0.0053136963 0.008806486 0.074658886 -0.14771025 0.04901217 -0.056036115 -0.023238977
-0.16107579 -0.15209104 0.033805504 0.07704285 -0.015549198 0.10108345 0.06661213 -0.0019039483
-0.16478835 0.10204944 -0.099118136 -0.031111352 0.016829725 -0.012527444 0.019109825 0.09164727
0.062116794 -0.0605498 0.033290945 0.034333825 0.053790335 0.07017853 -0.03892004 -0.078948624
0.107379206 -0.100446835 -0.07704177 -0.22184622 0.07506844 -0.12644449 -0.053761043 -0.057669114
-0.087540425 0.18511057 0.09256027 0.03461367 0.110236876 0.006990089 -0.059294835 0.009390716
0.069862634 0.07242779 0.037355952 0.057232983 0.05173882 -0.004663599 0.15840282 -0.15433693
-0.07957897 0.028288644 -0.04994121 0.04683006 -0.015331256 0.07937608 0.016459748 0.081074916
-0.09045952 0.028439775 -0.09044579 0.025950946 -0.057342727 -0.0043039024 -0.07737871 -0.11012135
-0.0001826669 0.016064104 -0.04776067 -0.008539392 0.06378091 -0.015289878 0.0041087987 0.1592443
00000000: b4fe d1bc 7c87 473d 4888 463a 5637 b2bc
00000010: 31ae 8cbd 0ff3 4f3d e5e2 9d3d a276 ed3c
00000020: cf43 ccbd a1e4 45bc dff1 50bc 416d e23d
00000030: 9f4c e03c 7481 82bd 4580 e73d fd26 2f3e
00000040: c96f 35bd 72ef 13be 2fb3 063e 4552 b0bd
00000050: 9729 d3bc ff1b a9bb 8b04 353d c18d b7bd
00000060: b182 b83c 45b2 2fbe 1b35 f1bc c53a 503d
00000070: e89c 58bd 2cb8 793d bd6a 7d3d 439b 9c3d
00000080: 1c66 893d 5228 1d3d b02f 703d ce25 4fbd
00000090: 70ac 9f3d e70b 27bc ba0b 943d 38cd 5dbd
000000a0: 8800 213d 0ea7 00bd f68e 873c 1c31 d3bd
000000b0: a2dc 14bc 0428 3f3d 16fd 013e 5df4 3dbc
000000c0: 436c 823d 73b2 10bd c86e 2dbe 9551 4c3d
000000d0: c86a 073e d676 293e 0d86 a7bc c28e 963d
000000e0: ff4b 0fbd 04a6 2fbd 5cb5 8fbc 50de c53c
000000f0: e652 963d e765 993d 1995 403c e48e 39bd
00000100: 64cb debc cb21 483c a375 483d c551 10be
00000110: 9445 ad3c 3c3c 803d 8ef9 d4bd dd8b 103e
00000120: 3472 65bc cc8b 143d 4d37 273d 4921 f0bd
00000130: b0ba a03d 362e b3bd 5c95 edbd e49e 8fbd
00000140: ffd0 d5bd 5b33 d8bd a86d ac3d 4092 5d3d
00000150: fbdd 4b3d b446 0c3e cf67 f83c 98a8 f43b
00000160: 43f0 2abd 093c 393e 8d8c d0bc 032b a23d
00000170: a49c ad3d c8d1 223e 8ff2 94bd 282c 9e3d
00000180: c354 33bd ee2b d6bd 269a 24bd 6edb 7c3d
00000190: fd99 22bd ca2d 913d 8154 453d d589 7cbc
000001a0: d385 103e 2e78 31be db91 273e c7e5 673b
000001b0: 3d5b e43d f302 d9bc 9651 2f3e c94e a9bd
000001c0: d3d5 0abe f67e 14bd 33e2 093d 7a88 91bd
000001d0: fb88 023d c1d9 b0bc cb3b 9d3b 9ae7 8a3d
000001e0: c31d d7bc e03c 783d aa41 5a3d 4704 8d3d
000001f0: b2b9 eabd cab8 433d d210 a0bd 11de bc3d
00000200: 21b3 e03c d146 fe3b 6349 153e 568b ae3d
00000210: 1594 973d a306 d53c 918d 57be 997a 363d
00000220: 7319 85bd 0aa7 2d3c 982b f93c 5703 ae3d
00000230: 876c 573d a338 f4bc f357 ac3d 4bd2 7cbd
00000240: 280b 51bd 1e1e 89bd c27f 68ba 1d53 f63c
00000250: 908a 5cbc e344 30bd 4721 af3d f5f1 463e
00000260: 95ed ca3d f086 133d db0c ee3d 0c6f 9cbc
00000270: e5b7 fdbd 121a 813d ba65 cb3d 3cb4 8d3e
00000280: da82 f43d d46d 23be 1840 af3d 2efe 493e
00000290: 21c8 82bd e90e 29be 6204 b6bd 7d53 c23c
000002a0: d504 85bd 2550 6a3d 7fa0 8bbc 9fe6 a93d
000002b0: cde6 2dbe 7c44 cb3c 2a70 c63d 3214 623d
000002c0: c457 13be 841e aebb 1449 103c c2e6 983d
000002d0: 5b41 17be fcc0 483d 2086 65bd ab5f bebc
000002e0: 0df1 24be c1bd 1bbe a477 0a3d a4c8 9d3d
000002f0: 10c2 7ebc d704 cf3d f16b 883d e78d f9ba
00000300: 47be 28be 4cff d03d 73fe cabd 3cdd febc
00000310: 7ede 893c e93f 4dbc 358c 9c3c 90b1 bb3d
00000320: 2e6e 7e3d 1103 78bd 165c 083d a0a1 0c3d
00000330: 4153 5c3d c3b9 8f3d 9f6a 1fbd d1af a1bd
00000340: a1e9 db3d 12b7 cdbd 13c8 9dbd a82b 63be
00000350: 7bbd 993d aa7a 01be 8a34 5cbd 7336 6cbd
00000360: 6548 b3bd a08d 3d3e 3d90 bd3d 10c7 0d3d
00000370: dfc3 e13d 1e0d e53b 24df 72bd 85db 193c
00000380: 2414 8f3d 0555 943d 8e02 193d 226d 6a3d
00000390: 16ec 533d 1bd1 98bb 5934 223e 800a 1ebe
000003a0: 4dfa a2bd 96bd e73c 278f 4cbd e1d0 3f3d
000003b0: f32f 7bbc ed8f a23d 98d6 863c 9b0a a63d
000003c0: d742 b9bd 88fa e83c a43b b9bd 1497 d43c
000003d0: 35e0 6abd c007 8dbb bb78 9ebd 4d87 e1bd
000003e0: 468a 3fb9 de98 833c b1a0 43bd cee8 0bbc
000003f0: 919f 823d 6582 7abc 1aa3 863b f010 233e

bias f4 [128]
-0.060757745 0.04680116 0.023475356 0.03874332 0.0875795 0.08608357 0.0065189092 -0.020997018
0.052088045 -0.045462567 0.039478652 -0.024975153 0.044059046 -0.0032309834 0.09695969 -0.06964876
-0.018824207 -0.039173592 0.11035264 -0.03265548 0.055316873 0.0355382 -0.008974943 0.04106678
-0.010644249 0.07260687 -0.044422053 0.025392398 0.0622063 0.05018236 -0.017928688 0.08301729
0.020786352 0.06597407 -0.04321225 -0.05049824 0.0938961 -0.05355805 -0.009080691 -0.0076202317
0.07575164 0.0015019138 -0.00019642363 0.02408288 -0.12054961 -0.025017083 0.09705371 -0.079643704
-0.020920288 0.07517436 0.06219576 -0.0154167535 0.01885168 -0.018777503 -0.06877369 -0.03159817
0.073041014 -0.023780733 0.088697426 -0.021323366 0.10434316 0.049421504 -0.005057939 -0.030472245
0.09540454 -0.084054224 -0.0925392 0.067713246 -0.033997316 -0.07793838 0.097996004 0.07006828
-0.0412581 0.017494166 0.11534461 -0.023032192 0.045023285 -0.045550074 -0.02125128 -0.06791504
-0.054390695 -0.12388502 0.10847753 0.04311099 -0.081737496 -0.03451565 -0.008488296 0.018505031
-0.09344948 -0.018408401 0.029566428 0.105844885 -0.01993384 0.02307537 -0.0006717647 -0.008443039
0.03146048 -0.049856763 0.01952642 -0.09197861 0.09305862 0.030471245 -0.029953307 0.017711403
-0.019196775 -0.024894739 -0.15586782 0.043743636 0.002112827 0.043633603 0.082938924 0.004782166
0.054197315 0.07954512 0.02592265 0.020432247 -0.020513883 -0.069514774 -0.019101435 0.06431236
0.024333764 0.08125594 0.0703858 -0.059192564 -0.0009224194 -0.032533847 0.06690643 0.03910848
00000000: 1ddd 78bd 93b2 3f3d 644f c03c 51b1 1e3d
00000010: e25c b33d 954c b03d 939c d53b f001 acbc
00000020: 465a 553d f536 3abd 5eb4 213d b198 ccbc
00000030: 4277 343d e8be 53bb cd92 c63d 02a4 8ebd
00000040: 3935 9abc 7d74 20bd 9100 e23d c1c1 05bd
00000050: f293 623d 8190 113d a40b 13bc a435 283d
00000060: 3765 2ebc e9b2 943d e6f3 35bd b803 d03c
00000070: 09cc 7e3d 058c 4d3d 2fdf 92bc f804 aa3d
00000080: 2448 aa3c 6a1d 873d 54ff 30bd 3ed7 4ebd
00000090: 994c c03d b05f 5bbd 2ec7 14bc 23b3 f9bb
000000a0: ad23 9b3d dddb c43a 11f7 4db9 7649 c53c
000000b0: b7e2 f6bd a0f0 ccbc 18c4 c63d 3d1c a3bd
000000c0: 0661 abbc 04f5 993d fbc0 7e3d 8d96 7cbc
000000d0: d76e 9a3c 47d3 99bc 38d9 8cbd 156d 01bd
000000e0: 8796 953d d0cf c2bc ffa6 b53d 57ae aebc
000000f0: deb1 d53d 346e 4a3d 11bd a5bb eea0 f9bc
00000100: 7563 c33d 9f24 acbd 3185 bdbd 3ead 8a3d
00000110: c540 0bbd 289e 9fbd 21b2 c83d f57f 8f3d
00000120: 41fe 28bd ed4f 8f3c cb39 ec3d 02ae bcbc
00000130: 566a 383d b792 3abd 2a17 aebc 0a17 8bbd
00000140: c7c8 5ebd 6eb7 fdbd 7829 de3d 2695 303d
00000150: fd65 a7bd 4860 0dbd 7e12 0bbc dd97 973c
00000160: 7162 bfbd 37cd 96bc 4b35 f23c 34c5 d83d
00000170: 4b4c a3bc 8f08 bd3c 5e19 30ba ac54 0abc
00000180: b4dc 003d 9b36 4cbd dff5 9f3c 485f bcbd
00000190: 8595 be3d d59e f93c a360 f5bc 8117 913c
000001a0: 8e42 9dbc 0df0 cbbc d09b 1fbe 872c 333d
000001b0: 5b77 0a3b 26b9 323d e2db a93d b7b3 9c3b
000001c0: 01fe 5d3d 8de8 a23d bd5b d43c 8761 a73c
000001d0: bb0c a8bc c35d 8ebd 9d7a 9cbc 33b6 833d
000001e0: 9a57 c73c 8469 a63d 6e26 903d e773 72bd
000001f0: 85ce 71ba 3642 05bd 3d06 893d 3730 203d

weight f4 [8, 128]
-0.016713757 -0.18951374 -0.039743826 -0.03282269 0.0158689 -0.125468 -0.02361128 0.065509275
0.11842645 -0.0677482 0.13773267 -0.16435403 -0.12497815 0.0549325 0.08027699 0.2116547
-0.032279495 -0.043102622 0.072354466 0.15021783 -0.011389097 -0.08353012 -0.027666003 -0.040561534
0.0388106 0.0030189212 -0.020513384 0.03443992 -0.036529887 -0.061830364 -0.11624514 0.0930121
-0.010860175 0.00943804 -0.11616273 -0.0509486 -0.106067516 -0.0031082865 -0.13447052 0.030651858
-0.09819649 -0.12761782 0.111036904 0.11884807 0.04222041 0.055779368 0.023408007 0.10884575
0.024141053 0.10218024 -0.06570032 0.024470642 -0.09371399 -0.018921606 -0.043303087 0.09591305
-0.018134978 -0.042580772 0.08488354 0.02273666 -0.026202412 -0.07635777 -0.14395644 -0.034402758
0.02460488 0.041610356 -0.0045854994 -0.1660255 -0.055693172 -0.017234335 -0.09135655 -0.098783806
-0.04861732 0.15161169 0.2183585 -0.0810003 0.06878474 0.079227656 0.036701377 -0.011025367
0.002837164 0.15461162 0.03489597 0.048435222 0.1250938 0.02796185 0.12169884 -0.08388677
-0.1126929 0.14369415 0.09405348 -0.027578903 -0.09912086 -0.000685138 -0.19641009 -0.0143906735
0.016352596 0.10223866 -0.20220393 0.15770987 -0.18305029 0.07072808 -0.102999106 -0.008937819
-0.11126669 -0.019967044 -0.0025970023 -0.0014599639 0.028774753 0.12087421 0.16058655 0.18899424
-0.000419786 -0.08171024 0.20648934 -0.024329783 -0.10868299 -0.086373426 0.10790509 -0.1525719
-0.032968774 -0.031009218 0.008217814 0.11381096 0.122987136 0.06849949 0.22549884 -0.02070307
-0.039471295 0.092903495 -0.10540868 0.043376613 0.11919725 -0.014010292 -0.012747808 0.13902453
-0.12711991 -0.009719974 -0.0066429153 -0.16310793 0.12554021 0.1681918 -0.030607214 0.010411363
0.1622895 -0.10792403 -0.040209595 0.010896956 0.14054658 0.03185955 0.010688508 0.14224577
0.092074454 -0.123812035 0.128539 0.0933499 -0.07882071 0.08300155 0.021460889 -0.047060397
-0.022310857 -0.18477012 0.12987953 -0.12947895 0.10365622 0.12332485 0.075413056 0.19413505
0.0003739729 -0.12029935 -0.14495672 0.1739985 0.14537843 0.08975114 0.011936553 0.21755503
0.034896202 0.011421838 0.1696621 0.09167311 -0.06835055 0.06787565 -0.12702271 -0.05193209
-0.05801527 0.1536743 0.04658258 -0.14861445 0.024050113 -0.010958594 -0.01436338 0.05091111
-0.08641684 0.062786 0.05536102 0.04753292 -0.022260375 -0.012834839 -0.04416554 -0.10902834
-0.09577146 -0.0049094465 0.0649011 -0.05314332 0.17630225 0.008136972 0.008942987 -0.029368503
-0.006045702 0.20888127 -0.043049064 0.020938938 0.1173208 0.09326833 -0.16560388 -0.10686843
-0.1640353 -0.021747746 -0.0033789119 -0.08363988 0.024250312 0.051346283 0.049312003 0.15341054
0.10115823 -0.018166948 0.13296025 0.12321438 0.16608632 -0.025162037 -0.033985592 -0.030798981
-0.10673262 -0.0087886 0.12881076 0.008021014 0.1386174 -0.01474393 0.04451193 0.17734455
0.025140647 -0.014063646 0.077268526 -0.05635229 0.05203782 -0.003106037 -0.015499107 -0.009138059
-0.045539618 0.008783428 0.18359928 0.17642605 0.17793235 0.0005776261 -0.022794688 0.07689696
00000000: 4aeb 88bc e40f 42be 6cca 22bd 1671 06bd
00000010: 7fff 813c af7a 00be 716c c1bc ba29 863d
00000020: 9189 f23d 91bf 8abd cb09 0d3e 6c4c 28be
00000030: 8bf4 ffbd e700 613d 4368 a43d 02bc 583e
00000040: 8137 04bd 608c 30bd 942e 943d b4d2 193e
00000050: 5699 3abc d711 abbd d0a3 e2bc da23 26bd
00000060: ddf7 1e3d 18d9 453b af0b a8bc e010 0d3d
00000070: 5da0 15bd d641 7dbd ef11 eebd 217d be3d
00000080: e0ee 31bc 02a2 1a3c bae6 edbd 7baf 50bd
00000090: ed39 d9bd 65b4 4bbb a4b2 09be 9b19 fb3c
000000a0: 3e1b c9bd 3fae 02be 5167 e33d 9e66 f33d
000000b0: 4fef 2c3d e878 643d 26c2 bf3c 85ea de3d
000000c0: 75c3 c53c e043 d13d e48d 86bd a876 c83c
000000d0: 1fed bfbd 7c01 9bbc 945e 31bd 106e c43d
000000e0: ce8f 94bc 2d69 2ebd 6cd7 ad3d 3b42 ba3c
000000f0: 71a6 d6bc 7661 9cbd 5169 13be e8e9 0cbd
00000100: 2c90 c93c 9f6f 2a3d f541 96bb 9702 2abe
00000110: 861e 64bd 052f 8dbc 2519 bbbd 2a4f cabd
00000120: f422 47bd 1840 1b3e 5f99 5f3e 7ce3 a5bd
00000130: 04df 8c3d 1c42 a23d 2f54 163d bea3 34bc
00000140: b7ef 393b 8252 1e3e 14ef 0e3d 0364 463d
00000150: 9718 003e 4010 e53c 3e3d f93d d4cc abbd
00000160: 89cb e6bd 8f24 133e 1c9f c03d 27ed e1bc
00000170: e1ff cabd d59a 33ba ba1f 49be dcc6 6bbc
00000180: e1f5 853c 8162 d13d 8c0e 4fbe b27e 213e
00000190: 8971 3bbe e2d9 903d 32f1 d2bd ee6f 12bc
000001a0: cadf e3bd ed91 a3bc 7832 2abb 425c bfba
000001b0: 08b9 eb3c e68c f73d cd70 243e b587 413e
000001c0: b916 dcb9 b357 a7bd f171 533e 414f c7bc
000001d0: 3095 debd 8de4 b0bd 58fd dc3d cf3b 1cbe
000001e0: 440a 07bd 0b07 febc 03a4 063c b815 e93d
000001f0: aee0 fb3d 7649 8c3d 2be9 663e 7c99 a9bc
00000200: a7ac 21bd 3044 be3d 82e0 d7bd adab 313d
00000210: b01d f43d 6c8b 65bc 2fdc 50bc 725c 0e3e
00000220: b92b 02be 8740 1fbc d0ac d9bb c405 27be
00000230: 9d8d 003e 793a 2c3e fbbb fabc 6c94 2a3c
00000240: 382f 263e 4607 ddbd d1b2 24bd 2589 323c
00000250: 71eb 0f3e 297f 023d da1e 2f3c e0a8 113e
00000260: 8891 bc3d 2a91 fdbd ba9f 033e 3b2e bf3d
00000270: c16c a1bd b7fc a93d bfce af3c 67c2 40bd
00000280: 42c5 b6bc 6134 3dbe 24ff 043e 2196 04be
00000290: b649 d43d bd91 fc3d 2972 9a3d 57cb 463e
000002a0: cb11 c439 815f f6bd 896f 14be aa2c 323e
000002b0: 15de 143e 72cf b73d 8891 433c bfc6 5e3e
000002c0: 52ef 0e3d a922 3b3c e7bb 2d3e 1dbf bb3d
000002d0: 60fb 8bbd 6402 8b3d 3e12 02be beb6 54bd
000002e0: 6ba1 6dbd cc5c 1d3e 60cd 3e3d 632e 18be
000002f0: be04 c53c ad8b 33bc 6254 6bbc 2b88 503d
00000300: 50fb b0bd f295 803d 3dc2 623d e1b1 423d
00000310: 645b b6bc 3749 52bc ede6 34bd 404a dfbd
00000320: d423 c4bd 6cdf a0bb deea 843d cfac 59bd
00000330: 9488 343e ef50 053c 9b85 123c 3796 f0bc
00000340: 061b c6bb f9e4 553e 3754 30bd 2388 ab3c
00000350: e345 f03d 7703 bf3d 1094 29be d6dd dabd
00000360: dff8 27be 5428 b2bc bc70 5dbb 634b abbd
00000370: 97a8 c63c 7b50 523d 62fb 493d a717 1d3e
00000380: 0c2c cf3d dad2 94bc bb26 083e d257 fc3d
00000390: 8812 2a3e 9e20 cebc 7a34 0bbd 254e fcbc
000003a0: a296 dabd 0ffe 0fbc f8e6 033e 926a 033c
000003b0: b8f1 0d3e 8690 71bc 2452 363d cf99 353e
000003c0: c2f3 cd3c 356b 66bc f63e 9e3d a9d1 66bd
000003d0: 9c25 553d a78e 4bbb f7ef 7dbc ccb7 15bc
000003e0: c087 3abd 5ee8 0f3c 7301 3c3e 08a9 343e
000003f0: e633 363e d56b 173a edbb babc 277c 9d3d

bias f4 [8]
0.059222262 0.09501249 0.10515138 0.00046771098 0.07459201 0.052246194 0.048673507 -0.14534551
00000000: 0b93 723d e995 c23d 9b59 d73d 1b37 f539
00000010: b2c3 983d 1b00 563d df5d 473d 74d5 14be

weight f4 [128, 8]
-0.14984615 0.34767634 0.20830607 0.060635444 0.007829481 -0.15042746 0.4077813 0.23923434
-0.004192842 0.16722749 0.2524597 0.08779391 0.39723694 0.075463735 -0.14135195 -0.13569072
0.22810748 -0.0009813037 -0.023011357 0.27509132 -0.34854966 -0.2830438 -0.28953657 0.1376714
0.12665242 0.0917753 -0.11898773 0.18305096 -0.27895588 -0.1117384 0.33027852 0.076985605
-0.093264155 0.23257297 -0.07724108 -0.19290572 0.1936714 -0.045534357 -0.10966221 0.3583622
0.2980461 -0.17619681 0.06543447 0.06233515 -0.22756168 0.12708846 0.45912045 0.058454894
0.25190616 -0.26192898 0.03967446 -0.1579071 0.5189473 -0.12371441 0.3296875 0.24719276
0.4964665 0.03913222 0.46284592 -0.21393147 0.06578009 -0.20559967 0.10403715 0.24098572
-0.0074253767 0.24036041 -0.18508127 0.096585 0.009065351 0.3575587 0.3441077 0.2634643
-0.0682738 -0.21644984 -0.27831814 0.1953965 -0.3160812 0.04414961 0.40731904 -0.4485641
0.3677618 0.26213524 0.30807963 -0.16179219 -0.30284318 -0.094657294 0.38340804 -0.17289367
-0.17646742 0.089357324 -0.13042569 -0.046390694 0.1263454 0.4131834 0.38994566 0.21518087
0.06509658 0.28126353 -0.08509988 0.45220256 0.17307849 -0.03678903 0.05306393 0.10237685
0.13880396 0.108679555 0.3273751 0.43258056 -0.091066174 -0.24719591 0.17113495 0.26447704
0.19010656 0.21778174 0.271725 -0.01728113 0.26864356 0.38910103 0.34544432 0.076713055
0.22977051 0.4302691 0.1613234 0.0989567 -0.07438704 -0.14014307 0.0022410343 -0.15219192
0.24159975 -0.21648398 -0.02484856 0.20968485 -0.11466582 0.20621191 0.25583816 0.07708812
0.012209094 0.29638764 0.05720432 -0.21472237 0.25854895 0.28397766 0.35719603 -0.13503441
0.37792233 -0.027970025 -0.13921456 -0.1266978 -0.22454803 0.41515073 0.3202219 0.09747985
-0.17430134 -0.05444767 0.47533417 0.3796926 0.321595 0.36517942 -0.04675019 -0.044537418
-0.011640837 0.018145747 0.32860896 -0.13393551 0.12342789 -0.14501119 0.18139206 0.106791645
-0.09639169 0.42277852 -0.02459305 -0.09512407 -0.2017127 0.2273217 0.4378743 0.15173891
-0.025388187 0.14921966 0.22358719 -0.012123549 0.3080555 -0.114984185 0.17663044 0.22619466
-0.36613235 -0.054758873 0.17885783 0.3044871 -0.11612417 -0.24044783 0.0038490444 0.002067478
-0.03923894 -0.20074396 0.22491913 0.29761264 -0.26697683 0.20903078 0.19388326 0.37145385
0.03653731 -0.12170977 0.3513801 -0.122767076 -0.049033605 0.40558913 0.42916447 0.05259211
0.29760662 0.29095975 -0.07141059 -0.035661194 0.06392866 0.031260252 0.1612594 0.2166232
0.046835247 -0.21834786 0.3039186 -0.106205724 0.097815394 0.38949585 0.2245468 0.09427444
-0.039403245 0.40397865 0.19076692 0.27661765 0.19138548 -0.022234257 0.28877375 -0.13220687
0.2559289 -0.18131153 -0.12562254 0.042187512 -0.36269104 -0.03515899 0.31520554 0.3620348
0.18485759 -0.23421942 -0.15493007 0.25324386 -0.003471528 0.19312999 -0.21961975 0.004109927
0.11389841 0.13481614 0.1655626 0.36998546 -0.3318639 0.13209157 0.29515913 -0.10472559
00000000: 4571 19be a202 b23e 304e 553e df5c 783d
00000010: 3947 003c a809 1abe b6c8 d03e d9f9 743e
00000020: 1c64 89bb af3d 2b3e 6642 813e 4bcd b33d
00000030: a462 cb3e bb8c 9a3d 91be 10be 82f2 0abe
00000040: 0295 693e 179f 80ba 5082 bcbc c5d8 8c3e
00000050: 1a75 b2be 1eeb 90be 233e 94be bbf9 0c3e
00000060: 2cb1 013e b0f4 bb3d d7af f3bd b671 3b3e
00000070: 4ed3 8ebe 1ad7 e4bd 441a a93e a1aa 9d3d
00000080: 4701 bfbd 9c27 6e3e 9230 9ebd 1489 45be
00000090: cc51 463e 3c82 3abd 9596 e0bd 407b b73e
000000a0: 8099 983e f06c 34be 8202 863d 2453 7f3d
000000b0: ee05 69be 7a23 023e d611 eb3e 666e 6f3d
000000c0: d8f9 803e 8e1b 86be b081 223d 66b2 21be
000000d0: bbd9 043f fb5d fdbd cdcc a83e 1920 7d3e
000000e0: db30 fe3e 1b49 203d 24fa ec3e da10 5bbe
000000f0: b6b7 863d b888 52be 6e11 d53d f6c4 763e
00000100: 9350 f3bb 0a21 763e f285 3dbe 5bce c53d
00000110: d786 143c ef11 b73e e22e b03e cbe4 863e
00000120: 22d3 8bbd 07a5 5dbe b77f 8ebe 0516 483e
00000130: 65d5 a1be 39d6 343d 1f8c d03e 32aa e5be
00000140: 464b bc3e 9736 863e 9dbc 9d3e daac 25be
00000150: 430e 9bbe afdb c1bd 0f4e c43e 0a0b 31be
00000160: e0b3 34be f900 b73d 508e 05be 2b04 3ebd
00000170: b060 013e c68c d33e f5a6 c73e 6058 5c3e
00000180: 5b51 853d c601 903e d948 aebd 1887 e73e
00000190: 7d3b 313e 18b0 16bd 9059 593d f4aa d13d
000001a0: a022 0e3e 6393 de3d b69d a73e 337b dd3e
000001b0: e780 babd ed20 7dbe 003e 2f3e 8969 873e
000001c0: 4bab 423e 2d02 5f3e 8a1f 8b3e 2891 8dbc
000001d0: a68b 893e 4038 c73e 14de b03e bc1b 9d3d
000001e0: f648 6b3e 3b4c dc3e f631 253e cfa9 ca3d
000001f0: 3c58 98bd aa81 0fbe 51de 123b 33d8 1bbe
00000200: ed65 773e faad 5dbe 358f cbbc a0b7 563e
00000210: ead5 eabd 3729 533e 38fd 823e 60e0 9d3d
00000220: a708 483c 1fc0 973e 144f 6a3d 2ee0 5bbe
00000230: 8760 843e 8565 913e 66e2 b63e 7646 0abe
00000240: 097f c13e 6521 e5bc 438e 0ebe 11bd 01be
00000250: ebef 65be a38e d43e 20f4 a33e 84a3 c73d
00000260: 0d7c 32be 8504 5fbd 005f f33e 1267 c23e
00000270: 1aa8 a43e ccf8 ba3e 217d 3fbd de6c 36bd
00000280: 36b9 3ebc 64a6 943c 6f3f a83e 6426 09be
00000290: c3c7 fc3d d07d 14be d7be 393e 94b5 da3d
000002a0: 0269 c5bd 6d76 d83e 5d77 c9bc 69d0 c2bd
000002b0: c68d 4ebe 05c7 683e 0f31 e03e 7261 1b3e
000002c0: e3fa cfbc 0acd 183e 0af4 643e daa1 46bc
000002d0: 73b9 9d3e d47c ebbd 9cde 343e 939f 673e
000002e0: b375 bbbe d74a 60bd 8226 373e bce5 9b3e
000002f0: 82d2 edbd f537 76be 4040 7c3b 867e 073b
00000300: 03b9 20bd d38f 4dbe 3351 663e af60 983e
00000310: 30b1 88be 2a0c 563e 5589 463e 332f be3e
00000320: 25a8 153d f942 f9bd 18e8 b33e 4e6d fbbd
00000330: 76d7 48bd 61a9 cf3e 72bb db3e d36a 573d
00000340: e55f 983e adf8 943e b73f 92bd 7911 12bd
00000350: 07ed 823d c00a 003d 2f21 253e 79d2 5d3e
00000360: 51d6 3f3d 9596 5fbe 389b 9b3e 6382 d9bd
00000370: 7053 c83d 006c c73e 99ef 653e f512 c13d
00000380: 4c65 21bd 4ad6 ce3e 6758 433e d4a0 8d3e
00000390: 8efa 433e 9e24 b6bc 27da 933e 3d61 07be
000003a0: 1d09 833e bba9 39be 32a3 00be d0cc 2c3d
000003b0: a4b2 b9be e002 10bd 9f62 a13e a05c b93e
000003c0: 4f4b 3d3e 37d7 6fbe fda5 1ebe 2ea9 813e
000003d0: 9382 63bb dec3 453e 00e4 60be 91ac 863b
000003e0: 9243 e93d 3e0d 0a3e 3e89 293e bc6e bd3e
000003f0: 11ea a9be 0343 073e 191f 973e 5f7a d6bd

bias f4 [128]
-0.21846491 0.15681563 -0.26890296 0.32270414 0.24338612 0.37883398 0.08146633 0.27548578
-0.1913603 0.21013774 0.15041775 -0.18776906 -0.24761412 0.018870253 -0.113813125 0.34579533
0.16160536 0.19167355 -0.15467156 -0.23124479 0.1970401 0.28149882 0.35664523 0.0039498894
-0.016415445 -0.20969553 -0.022284182 -0.13356198 0.12807149 0.30697176 0.16732597 -0.28652412
0.28335065 -0.045469787 0.38048276 -0.14326067 -0.09041271 0.28904238 0.3162114 -0.0857153
-0.06948991 0.13957003 -0.16547605 -0.062809646 0.34574717 0.15308465 0.18637617 0.38664895
0.39610428 0.03881373 0.29475355 0.2519424 0.2644623 0.28547242 -0.3165822 0.30405518
0.34686816 0.38774374 -0.24499454 -0.061186668 0.030848833 0.33635008 -0.112810545 -0.05954301
0.21221076 0.077612795 -0.2126424 0.31985226 0.17516744 0.34131873 0.037092753 0.10114948
0.07490496 -0.059554774 -0.2915175 0.35799736 -0.032194052 -0.221761 -0.15437049 0.08058018
-0.091663554 0.011668228 -0.3359744 0.18133225 -0.1578902 -0.25413233 0.06258887 -0.25953916
-0.27877384 -0.18627648 0.3484676 -0.026523491 -0.16473642 0.2603225 -0.19268999 0.21793629
-0.109687835 -0.03604023 0.114565976 0.08628078 0.071179 0.4080348 0.28836507 -0.1181879
-0.12511882 -0.042289834 -0.22798732 0.17489941 0.00066560804 0.022367325 0.3559659 0.35255924
-0.19676319 -0.16520967 -0.08362623 -0.045946915 0.41938087 -0.08021691 0.22197409 -0.048058733
0.09506889 0.37816033 0.29693273 -0.12088971 0.3061171 0.24818745 0.23015325 0.248667
00000000: 44b5 5fbe 4794 203e a6ad 89be 7a39 a53e
00000010: 363a 793e 87f6 c13e d2d7 a63d 790c 8d3e
00000020: f4f3 43be 592e 573e 1c07 1a3e 8846 40be
00000030: 8e8e 7dbe ca95 9a3c db16 e9bd 160c b13e
00000040: e07b 253e 1246 443e 3962 1ebe 6fcb 6cbe
00000050: e1c4 493e 9d20 903e 349a b63e 136e 813b
00000060: af79 86bc 6dba 56be 518d b6bc 79c4 08be
00000070: 2c25 033e 672b 9d3e 8057 2b3e 4ab3 92be
00000080: 5613 913e 873e 3abd a3ce c23e edb2 12be
00000090: 4d2a b9bd 5dfd 933e 76e6 a13e 818b afbd
000000a0: ba50 8ebd 72eb 0e3e 8e72 29be 58a2 80bd
000000b0: c605 b13e 39c2 1c3e 65d9 3e3e daf6 c53e
000000c0: 2ece ca3e 25fb 1e3d f0e9 963e 98fe 803e
000000d0: 9a67 873e 7129 923e 1017 a2be 1fad 9b3e
000000e0: b498 b13e 5986 c63e d9df 7abe df9e 7abd
000000f0: b1b6 fc3c 1436 ac3e 3709 e7bd 5fe3 73bd
00000100: c74d 593e 75f3 9e3d eebe 59be adc3 a33e
00000110: 185f 333e 54c1 ae3e 92ee 173d 7527 cf3d
00000120: c667 993d b5ef 73bd c841 95be 6e4b b73e
00000130: e9dd 03bd 5115 63be 4c13 1ebe 3907 a53d
00000140: 1aba bbbd 182c 3f3c d604 acbe 29af 393e
00000150: f8ad 21be a21d 82be 982e 803d 51e2 84be
00000160: 72bb 8ebe 43bf 3ebe 586a b23e cb47 d9bc
00000170: aab0 28be fe48 853e 8650 45be b12a 5f3e
00000180: 04a4 e0bd ec9e 13bd 91a1 ea3d fab3 b03d
00000190: 4cc6 913d f0e9 d03e 96a4 933e 7f0c f2bd
000001a0: 261f 00be 1b38 2dbd 8275 69be d518 333e
000001b0: 337c 2e3a ae3b b73c 2a41 b63e a582 b43e
000001c0: 4a7c 49be b92c 29be 3b44 abbd d532 3cbd
000001d0: 17b9 d63e c348 a4bd 2d4d 633e 3cd9 44bd
000001e0: 7ab3 c23d 3b9e c13e 9107 983e 0695 f7bd
000001f0: 61bb 9c3e da24 7e3e 4bad 6b3e 90a2 7e3e

weight f4 [128, 136]
0.13376765 -0.026853388 -0.03982027 0.019751955 -0.038290147 0.05555877 -0.16365215 0.113730066
0.0563342 0.12912314 0.013076862 -0.07143816 0.0016459738 -0.109620996 0.018418005 -0.013758606
0.06222411 -0.5003415 -0.031111972 0.083393216 -0.0104970345 0.033301685 -0.06295953 0.057326052
-0.020616421 -0.008103418 0.001563607 0.08776034 -0.02196927 0.010895219 0.067523435 -0.30518848
0.06137067 -0.39115444 -0.18236388 -0.09937969 0.0038274927 -0.012243749 -0.09466169 -0.053453784
-0.06471701 0.0075895027 0.115572795 -0.08751421 0.22454794 -0.2331466 0.07578324 -0.24524444
-0.038272265 -0.053189754 -0.2470296 -0.097001396 -0.00746511 -0.010138925 -0.5713611 -0.014980363
0.02694795 -0.02092873 -0.08338751 0.1185522 0.026732525 0.13220681 -0.008763677 -0.19976504
-0.097938865 -0.23384458 -0.009923319 -0.17097741 -0.007492036 -0.50546986 0.057559274 -0.10214753
0.028908515 -0.1916487 0.09840545 0.054355446 -0.16420388 -0.08682117 0.04584683 0.08053747
0.019179696 -0.3578524 -0.0742162 -0.083856866 -0.22797191 0.075623035 -0.07237128 -0.048143733
-0.17283697 0.0713635 0.028742407 -0.07155819 0.0028128603 -0.05360709 0.014010703 0.0106647685
0.0009232253 0.05560064 -0.18893726 0.035691194 0.11026178 0.03417139 -0.0041812747 -0.08334959
-0.02879344 0.016505118 0.30975574 0.09055534 -0.0059767244 -0.010497345 -0.08095954 -0.02277783
0.07428793 -0.14494035 -0.057436123 0.06142408 0.10261976 -0.07800472 -0.06696579 0.0589321
-0.09824873 -0.11324151 0.014894308 -0.061119914 -0.17923099 -0.002729394 0.029557608 -0.0706299
0.17008594 -0.08551105 0.3014481 0.15292193 0.10575177 -0.08806195 -0.042143933 0.15152696
-0.06868394 -0.04148101 -0.0035926467 -0.014588449 -0.010104189 -0.084667645 -0.109626986 -0.06138679
-0.020111771 -0.08261399 -0.056657452 -0.09346621 -0.086550415 -0.15886474 0.088287234 -0.041050766
0.11423348 -0.12912634 -0.08353351 0.08431997 0.053555507 0.06816405 -0.06828737 -0.051093165
-0.018347517 -0.04522808 0.08198808 -0.052626155 0.010090319 -0.05254708 0.015498528 -0.033579078
-0.03284557 0.056149278 -0.16643402 -0.16863155 0.054734122 -0.018830938 -0.029647317 0.09845476
0.027335435 -0.042061713 0.030057797 0.0714214 0.34278715 0.16064943 -0.08904159 -0.026705863
-0.020984769 0.03391393 0.035304762 -0.027523769 -0.046181574 0.012608107 -0.16484135 -0.05980177
-0.021807112 -0.042459164 -0.0069836085 -0.008666149 -0.08501661 -0.0061081084 0.00794327 -0.12891075
-0.010112147 -0.10879206 -0.045188382 0.05368823 -0.031394336 -0.4048256 -0.0010009023 0.01229807
-0.05844297 0.13666652 0.108324066 -0.09244662 -0.022705046 -0.08873704 0.062394306 -0.07963242
0.0282477 0.016554508 -0.072278194 -0.07180768 -0.1703108 0.06985938 -0.06708199 0.098262005
-0.22253299 -0.04218879 0.010997366 -0.020442298 0.08816756 0.045554727 0.08395779 -0.014710452
-0.06430024 0.077188045 -0.16084483 0.016509498 0.06062964 0.031049257 -0.03246327 -0.024342576
-0.13180554 0.08816053 0.16949369 -0.045850437 -0.04363492 -0.07938435 -0.033918902 -0.04384418
0.021126047 -0.011112019 0.022260943 0.018638972 -0.023099111 -0.056333717 -0.14567347 -0.062188778
00000000: 63fa 083e a3fb dbbc 941a 23bd dace a13c
00000010: 21d6 1cbd 9891 633d 6e94 27be 4feb e83d
00000020: b1be 663d db38 043e 5640 563c 2c4e 92bd
00000030: b7bd d73a f980 e0bd 5be1 963c c76b 61bc
00000040: b5de 7e3d 6116 00bf 89de febc 10ca aa3d
00000050: c1fb 2bbc 5967 083d edf0 80bd b9ce 6a3d
00000060: c5e3 a8bc 33c4 04bc f2f1 cc3a b1bb b33d
00000070: e6f8 b3bc dc81 323c ba49 8a3d aa41 9cbe
00000080: d05f 7b3d 6545 c8be 99bd 3abe 9487 cbbd
00000090: acd6 7a3b 019a 48bc fddd c1bd 5bf2 5abd
000000a0: 5a8a 84bd 5db1 f83b 6eb1 ec3d a63a b3bd
000000b0: e5ef 653e fbbd 6ebe 3e34 9b3d 5c21 7bbe
000000c0: 61c3 1cbd 80dd 59bd 54f5 7cbe aba8 c6bd
000000d0: e29d f4bb bc1d 26bc b944 12bf 3270 75bc
000000e0: f2c1 dc3c ba72 abbc 12c7 aabd 7fcb f23d
000000f0: 2bfe da3c 3961 073e 8795 0fbc 358f 4cbe
00000100: 2c94 c8bd f474 6fbe 6b95 22bc b414 2fbe
00000110: c17f f5bb 7966 01bf 46c3 6b3d b932 d1bd
00000120: 8dd1 ec3c 8f3f 44be cc88 c93d d1a3 5e3d
00000130: 1025 28be 4ccf b1bd e3c9 3b3d d4f0 a43d
00000140: bd1e 9d3c 6e38 b7be aafe 97bd 26bd abbd
00000150: 7871 69be 40e0 9a3d 6537 94bd 5d32 45bd
00000160: 2dfc 30be 0727 923d 3275 eb3c 1a8d 92bd
00000170: f757 383b 1c93 5bbd 268d 653c 48bb 2e3c
00000180: 9a04 723a 7fbd 633d c578 41be ee30 123d
00000190: eed0 e13d 4df7 0b3d 1303 89bb 31b3 aabd
000001a0: 38e0 ebbc be35 873c 4e98 9e3e 1475 b93d
000001b0: 66d8 c3bb 0efd 2bbc 1ece a5bd 9298 babc
000001c0: 4524 983d 3e6b 14be 2442 6bbd d197 7b3d
000001d0: 4f2a d23d f0c0 9fbd 5c25 89bd c962 713d
000001e0: a136 c9bd 2aeb e7bd 4107 743c e058 7abd
000001f0: 5488 37be a2df 32bb cc22 f23c 69a6 90bd
00000200: 022b 2e3e 6b20 afbd 6857 9a3e 9197 1c3e
00000210: 6294 d83d d359 b4bd 1e9f 2cbd e229 1b3e
00000220: 2aaa 8cbd fee7 29bd 9c72 6bbb 6404 6fbc
00000230: 0a8c 25bc 3b66 adbd 1d84 e0bd b770 7bbd
00000240: 71c1 a4bc 8631 a9bd a511 68bd 366b bfbd
00000250: 5841 b1bd 70ad 22be f0cf b43d d924 28bd
00000260: 3ef3 e93d b239 04be 9e13 abbd f3af ac3d
00000270: 055d 5b3d 9899 8b3d 40da 8bbd 1147 51bd
00000280: 884d 96bc 1441 39bd 5ee9 a73d 868e 57bd
00000290: de51 253c 9b3b 57bd 8aed 7d3c 378a 09bd
000002a0: 1489 06bd c9fc 653d ae6d 2abe c0ad 2cbe
000002b0: e330 603d 5743 9abc eede f2bc a6a2 c93d
000002c0: 90ee df3c e748 2cbd c53b f63c 6245 923d
000002d0: cc81 af3e 4981 243e 705b b6bd 41c6 dabc
000002e0: 40e8 abbc 55e9 0a3d ba9b 103d 8779 e1bc
000002f0: e428 3dbd 3c92 4e3c 2ccc 28be b3f2 74bd
00000300: d4a4 b2bc a9e9 2dbd c1d6 e4bb 77fc 0dbc
00000310: 301d aebd 8726 c8bb 7d24 023c 2e01 04be
00000320: 6bad 25bc 5fce debd 7417 39bd 31e8 5b3d
00000330: 5997 00bd 4d45 cfbe b530 83ba d87d 493c
00000340: e561 6fbd 4ff2 0b3e 02d9 dd3d a754 bdbd
00000350: efff b9bc c4bb b5bd 2c91 7f3d 5216 a3bd
00000360: b867 e73c 529d 873c 9706 94bd e80f 93bd
00000370: f465 2ebe 6f12 8f3d 4862 89bd 973d c93d
00000380: b0df 63be 27ce 2cbd 4c2e 343c 9b76 a7bc
00000390: 3291 b43d 9897 3a3d 10f2 ab3d 1c04 71bc
000003a0: d8af 83bd c414 9e3d 82b4 24be ed3e 873c
000003b0: c956 783d 035b fe3c 35f8 04bd 156a c7bc
000003c0: 08f8 06be 828d b43d c18f 2d3e abcd 3bbd
000003d0: 88ba 32bd 4394 a2bd 8cee 0abd f495 33bd
000003e0: 8810 ad3c 300f 36bc 955c b63c c2b0 983c
000003f0: 593a bdbc 2fbe 66bd 6d2b 15be a9b9 7ebd

bias f4 [128]
0.06960127 0.01930171 0.030646585 0.08883873 -0.066819996 0.08174717 -0.013849448 -0.027481642
0.08361998 -0.0710659 -0.041442 -0.061139945 0.027776772 0.015870627 -0.00886576 0.021885652
-0.004847621 0.09697873 0.06849451 -0.066198565 -0.047218606 0.032594964 0.007500135 -0.030553699
-0.011934544 -0.023315381 -0.053717233 0.1068204 -0.033335745 -0.049585946 0.037687045 -0.089270934
0.019472469 -0.076498844 -0.09460005 -0.10469989 -0.047338888 -0.07297621 -0.090789504 -0.02998843
0.03750181 -0.032155827 0.042873938 -0.05787998 0.03909578 0.02953329 0.060066596 0.11294091
-0.0068076663 -0.03584463 -0.05217363 -0.02281983 -0.081868134 0.027978782 -0.031361904 0.030462742
-0.115442 0.14396891 0.061234277 0.044061504 -0.015350126 0.030222142 -0.058045242 -0.085375935
-0.047191747 0.017244527 -0.09893527 0.11743735 -0.007031875 0.024335312 -0.06824364 0.011519824
-0.06288454 -0.031793907 0.073640145 0.023767198 0.008838206 -0.009087594 -0.01584928 -0.06102318
-0.030988943 -0.0047216793 -0.061339714 0.062089857 -0.032690268 -0.045837317 0.027874326 -0.041192446
0.04196145 -0.07279952 -0.06478276 0.08060076 0.02538738 -0.044075068 -0.028490953 0.031429745
-0.06742578 0.07361125 -0.09223923 -0.07296946 -0.09090421 0.03902468 0.00759029 0.023615988
-0.014487275 0.06873816 0.0043460582 0.023138665 0.016093241 -0.11505926 0.04128522 -0.077733666
0.06269307 0.00703258 0.121747166 -0.06925122 0.0748625 0.010287986 -0.12163052 -0.06434146
0.063803494 0.05413407 0.06513652 0.031657785 -0.039896734 0.07852958 -0.07208603 -0.007765485
00000000: 1c8b 8e3d 9f1e 9e3c 8c0e fb3c 14f1 b53d
00000010: ecd8 88bd 0f6b a73d cce8 62bc 2e21 e1bc
00000020: f440 ab3d 008b 91bd 16bf 29bd e16d 7abd
00000030: 1d8c e33c 1e03 823c b141 11bc 8a49 b33c
00000040: cbd8 9ebb c99c c63d da46 8c3d 1d93 87bd
00000050: 4c68 41bd 4c82 053d b1c3 f53b c04b fabc
00000060: 1b89 43bc e6ff bebc 9a06 5cbd a7c4 da3d
00000070: 108b 08bd a21a 4bbd bb5d 1a3d aed3 b6bd
00000080: ba84 9f3c 6dab 9cbd acbd c1bd e56c d6bd
00000090: 6ce6 41bd 8d74 95bd d9ef b9bd 4caa f5bc
000000a0: 7f9b 193d d4b5 03bd 959c 2f3d 8f13 6dbd
000000b0: e622 203d ccef f13c 6408 763d 904d e73d
000000c0: d812 dfbb d2d1 12bd 04b4 55bd a7f0 babc
000000d0: 7baa a7bd c233 e53c 5775 00bd 008d f93c
000000e0: db6c ecbd 966c 133e cbd0 7a3d d679 343d
000000f0: 187f 7bbc 6d94 f73c d9c0 6dbd 94d9 aebd
00000100: 224c 41bd 6544 8d3c 939e cabd fe82 f03d
00000110: a56b e6bb d95a c73c 52c3 8bbd a5bd 3c3c
00000120: 9cc9 80bd 543a 02bd a5d0 963d 6db3 c23c
00000130: 1fce 103c 22e4 14bc 59d6 81bc 71f3 79bd
00000140: 86dc fdbc 51b8 9abb 5a3f 7bbd ef51 7e3d
00000150: 3be6 05bd e9bf 3bbd b358 e43c 69b9 28bd
00000160: c5df 2b3d ea17 95bd d3ac 84bd 0312 a53d
00000170: 32f9 cf3c 0f88 34bd dc65 e9bc 7abc 003d
00000180: 8716 8abd 7fc1 963d ece7 bcbd 0371 95bd
00000190: fd2b babd 58d8 1f3d f8b7 f83b 5176 c13c
000001a0: 095c 6dbc 98c6 8c3d 6169 8e3b 4c8d bd3c
000001b0: f9d5 833c 30a4 ebbd b11a 293d d432 9fbd
000001c0: 3965 803d 8f71 e63b 9456 f93d 95d3 8dbd
000001d0: 8351 993d f18e 283c 6c19 f9bd 75c5 83bd
000001e0: 68ab 823d b0bb 5d3d 4c66 853d 98ab 013d
000001f0: c26a 23bd 1ed4 a03d d7a1 93bd 9c75 febb

weight f4 [128, 256]
-0.08260899 -0.18522571 0.035460234 -0.02726893 -0.040806126 -0.088308334 -0.017803384 0.010310122
-0.19611013 -0.17889898 -0.007598066 -0.024316715 -0.099373534 -0.062857546 -0.08925078 0.020420397
0.0035740316 -0.13157801 0.08421452 0.08310026 -0.023959689 -0.014850879 0.041182656 -0.055437844
-0.081397854 -0.07309912 -0.008051558 -0.01917839 0.00916402 -0.052197516 0.070913225 -0.07267658
-0.14297678 -0.28752032 -0.044425018 0.08340449 0.0064353575 0.08718715 0.055091992 0.00809243
-0.019846283 -0.09397504 -0.046587784 0.084167875 -0.1164557 -0.1612242 -0.005721595 0.0047829077
-0.08411544 0.092898674 -0.33635697 -0.07285057 -0.10725993 -0.09417052 -0.027568834 0.0697613
0.04641895 0.10520061 0.011890053 0.06455914 0.03582583 0.059020717 -0.06280373 0.0059196684
0.01766217 -0.007820337 -0.17830725 -0.11713529 -0.02916539 -0.2523738 -0.15318191 -0.080431335
-0.16556296 -0.010349786 0.08040524 0.053681582 -0.009351044 -0.037991166 -0.080734394 0.053089797
0.029565835 -0.15579155 0.06516852 -0.05685376 0.04948539 -0.029567601 -0.056083944 0.059910487
-0.04901786 0.07178963 -0.015929848 0.051598314 -0.11407367 -0.054694973 0.023752095 0.041560896
-0.011957499 -0.042289466 -0.099525936 -0.026843237 -0.10583802 -0.09702213 -0.012449321 -0.012220852
-0.12842064 -0.1839667 -0.02163686 0.069582425 -0.23443593 -0.08740125 -0.0663791 -0.05400123
-0.045509413 -0.034060698 -0.1332373 -0.08038708 0.038860153 0.019452324 -0.023518195 -0.10729886
-0.09585463 -0.054308645 -0.024434894 -0.23864828 -0.09447485 -0.006597845 0.0094709555 -0.07328201
0.069869824 0.0670667 0.12782387 0.036106758 0.048683465 0.011836444 0.031535473 -0.0011785214
-0.044512853 0.072668396 -0.06587739 0.12976512 0.00230424 0.06181841 -0.0953147 0.05548237
-0.042654354 0.018905785 0.07139829 -0.005800866 -0.13567561 -0.01025075 0.054116536 -0.07629718
-0.049331177 0.04362916 -0.033806756 0.06429793 0.111416966 -0.03856341 0.03825116 0.10716054
0.03094892 0.114265576 0.033484194 -0.024568925 -0.0522213 0.030701324 0.23354034 0.089451544
0.042053945 0.099101976 -0.07801901 0.00620327 -0.10502705 -7.386978e-05 0.07241343 0.039306764
-0.090207346 -0.050699722 0.06667321 0.023002582 -0.02205435 -0.00029351667 0.060914233 0.08415427
-0.045579504 0.13023171 -0.10311945 -0.11463163 0.049841322 0.13250357 0.03232561 0.0018843906
-0.07861383 -0.022537528 -0.09010049 0.08707856 -0.0031786223 0.112109855 0.039785706 -0.10723779
0.020539384 0.13270375 -0.0034763431 -0.07158582 0.0072883163 -0.03777944 -0.004001157 0.04370449
0.02362907 -0.11670299 -0.027544629 0.060899843 -0.051256776 -0.024877395 -0.011988039 0.04726526
0.060285974 0.03604752 0.026607161 -0.06019528 0.054985296 0.09380486 -0.02047215 -0.005262422
-0.050750844 -0.047836997 -0.036491636 0.06827717 -0.028914152 -0.020764327 0.04794256 -0.106603645
0.049156234 -0.08020543 -0.06304672 -0.05115457 0.051104847 -0.013253781 0.013467112 0.07290656
-0.14444609 0.0035783786 -0.0043051243 0.01925928 0.0018755508 0.016714837 -0.0831412 0.076018065
0.08060655 -0.06815241 0.044095308 -0.010383959 -0.014647051 -0.007437809 0.04288927 0.06059418
00000000: e72e a9bd cfab 3dbe c03e 113d 1763 dfbc
00000010: 5324 27bd 00db b4bd 67d8 91bc c9eb 283c
00000020: 18d1 48be 4b31 37be 32f9 f8bb d933 c7bc
00000030: 5a84 cbbd 75bb 80bd 1dc9 b6bd ad48 a73c
00000040: 4d3a 6a3b 63bc 06be aa78 ac3d 7830 aa3d
00000050: 1c47 c4bc 1a51 73bc 25af 283d cb12 63bd
00000060: ebb3 a6bd feb4 95bd afea 03bc 001c 9dbc
00000070: b024 163c 10cd 55bd f43a 913d 75d7 94bd
00000080: 8168 12be dd35 93be 02f7 35bd f9cf aa3d
00000090: b1df d23b 2d8f b23d 24a8 613d 1d96 043c
000000a0: ac94 a2bc fc75 c0bd d5d2 3ebd 3560 ac3d
000000b0: 5380 eebd f517 25be 387c bbbb f0b9 9c3b
000000c0: b744 acbd a941 be3d fb36 acbe ae32 95bd
000000d0: 18ab dbbd 79dc c0bd 09d8 e1bc 03df 8e3d
000000e0: cc21 3e3d 6b73 d73d 7fce 423c 9537 843d
000000f0: 1bbe 123d b5bf 713d 3e9f 80bd c7f9 c13b
00000100: 41b0 903c df20 00bc 2d96 36be a0e4 efbd
00000110: 42ec eebc 2437 81be b8db 1cbe 2fb9 a4bd
00000120: 5689 29be 2692 29bc 81ab a43d 38e1 5b3d
00000130: 1f35 19bc a09c 1bbd 1358 a5bd b074 593d
00000140: 0d34 f23c d287 1fbe 1377 853d 7ddf 68bd
00000150: 31b1 4a3d c137 f2bc 47b8 65bd b364 753d
00000160: f4c6 48bd 7106 933d 507f 82bc c158 533d
00000170: 759f e9bd d607 60bd c193 c23c c23b 2a3d
00000180: 63e9 43bc b837 2dbd 41d4 cbbd 59e6 dbbc
00000190: 9bc1 d8bd 8ab3 c6bd 3df8 4bbc f839 48bc
000001a0: b380 03be c461 3cbe c93f b1bc 3b81 8e3d
000001b0: f90f 70be 6dff b2bd c4f1 87bd 6530 5dbd
000001c0: 1468 3abd 3b83 0bbd 5c6f 08be fba1 a4bd
000001d0: d32b 1f3d 7b5a 9f3c 3ba9 c0bc 81bf dbbd
000001e0: 6f4f c4bd be72 5ebd b02b c8bc 3760 74be
000001f0: 087c c1bd bc32 d8bb 112c 1b3c e114 96bd
00000200: e917 8f3d 445a 893d 43e4 023e aee4 133d
00000210: 5068 473d a5ed 413c 572b 013d 9e78 9aba
00000220: 1c53 36bd 2bd3 943d baea 86bd 26e1 043e
00000230: bb02 173b 4d35 7d3d 5a34 c3bd 7b41 633d
00000240: 55b6 2ebd 4ee0 9a3c 4439 923d 3115 bebb
00000250: 8cee 0abe c3f2 27bc 4da9 5d3d b241 9cbd
00000260: 7d0f 4abd 7db4 323d f478 0abd a2ae 833d
00000270: 942e e43d abf4 1dbd 40ad 1c3d fc76 db3d
00000280: 9788 fd3c 1204 ea3d b926 093d c544 c9bc
00000290: 00e6 55bd 5881 fb3c 3325 6f3e 5f32 b73d
000002a0: c240 2c3d faf5 ca3d 6ec8 9fbd cd44 cb3b
000002b0: 6c18 d7bd 89ea 9ab8 7e4d 943d 2100 213d
000002c0: a1be b8bd 83aa 4fbd f78b 883d e96f bc3c
000002d0: 53ab b4bc 24e3 99b9 3481 793d 1359 ac3d
000002e0: 93b1 3abd 765b 053e 4a30 d3bd fdc3 eabd
000002f0: 6a26 4c3d 04af 073e dc67 043d a8fd f63a
00000300: 4a00 a1bd 9fa0 b8bc 9b86 b8bd 3e56 b23d
00000310: 6f50 50bb da99 e53d 56f6 223d 7d9f dbbd
00000320: 3642 a83c 7ee3 073e 5cd3 63bb 969b 92bd
00000330: d4d2 ee3b 9dbe 1abd 231c 83bb 7b03 333d
00000340: c091 c13c fa01 efbd 46a5 e1bc 1d72 793d
00000350: a0f2 51bd aecb cbbc 7b69 44bc 3899 413d
00000360: 6dee 763d 90a6 133d 43f7 d93c 538f 76bd
00000370: 4338 613d c31c c03d 36b5 a7bc 6570 acbb
00000380: 1ee0 4fbd baf0 43bd 4178 15bd e7d4 8b3d
00000390: 5fdd ecbc f319 aabc 6b5f 443d 0353 dabd
000003a0: 0c58 493d bf42 a4bd a41e 81bd 7487 51bd
000003b0: 5153 513d 6326 59bc 29a5 5c3c 0950 953d
000003c0: ade9 13be 3b83 6a3b 0012 8dbb a3c5 9d3c
000003d0: 0bd5 f53a 8eed 883c ef45 aabd 5caf 9b3d
000003e0: 0c15 a53d 7e93 8bbd 489d 343d 7b21 2abc
000003f0: 2ffa 6fbc ddb8 f3bb a9ac 2f3d 9a31 783d
