E-GraphSAGE/experiments/binary_model/CPCA_GATE_MLP_NF-BoT-IoT-v2_best_model.pth (torch, 824186 bytes, 54 tensors)

weight f4 [128, 78]
00000000: 94c7 0e3c 3518 863d 5449 b33d a718 88ba
00000010: aac1 6f3d d079 b9bd 891a f33d 2a50 aabd
00000020: b692 343d 03e1 7d3d f5ee 42bd aed6 acbb
00000030: d194 b03b 05c3 653d aee2 143c aad7 ec3d
00000040: df97 0dbc 6281 aabd ced7 58bd 4d13 c2bd
00000050: 53d3 653d 1318 dabd fd5c d3bd c1a9 033d
00000060: cd9c a6bc 6ee0 b83c 4e1e ddbc 75c1 dd3d
00000070: fd7d 153d 8328 52bd 599c d23d ef84 44bd
00000080: 5d47 aebb 4215 d4bc 0c56 e63d a7a9 953b
00000090: 0b4c 31bb 06cd 34bb b599 af3d eacc ab3d
000000a0: 7ef7 7cbb f077 34bd 702a e4bd 00ab 80bc
000000b0: c52a e13b 8710 a33d 13a5 a5b9 764d e1bd
000000c0: 4f02 fd3c b9e3 febb 7a5c 03be c7d8 03be
000000d0: c8d0 babd 5aa7 cb3b aba3 0a3d 7dda 84bd
000000e0: e293 913c f9bb a83d 0adc 883d 27af dabc
000000f0: 5f44 a8bd 873c e8bd ac0f e23d e1fe 4d3c
00000100: 11b2 11be c759 aa3c f3a3 033d 00e2 863d
00000110: 1ca4 98bd e2ac 6d3c 8efc 503d b69e bd3c
00000120: a990 313d 7ec9 efbc 87ab 303d 9107 1dbe
00000130: b042 643d 495c cc3d fa82 5c3d 06ec 5bbd
00000140: dd4e a5bd 4821 133d d263 b63d 3e4d 10bd
00000150: 449b e53d 2b4f a4bd 3b89 873d f2bf ca3c
00000160: 2271 573d ed8f aebd 20c8 0e39 d2e2 98bd
00000170: 93da 4bbd dcee ce3d ed2a 6c3d cbac 3fbd
00000180: 5b4c 7c3d 30c3 8ebd 4d77 e63c fa3f 283d
00000190: 8ae9 b43d ce4c 41bd eaae 9d3d e95e 1fbd
000001a0: c2f0 9f3c 3fdc 96bc 2996 07bd 8ad7 7bbd
000001b0: 398c cc3b a369 2b3c b90b 1f3d 3002 843d
000001c0: 3e78 8e3d 7345 823d e44e 4cbb 9e94 debd
000001d0: 5ee8 a9bc d1af d53d ca6c 173d 45d4 e2bc
000001e0: ac83 e93d 6fed c7bd 1608 97bc 37d4 18be
000001f0: 7baa 9d3c 5a47 0cbd 5bc5 1f3d e8f2 70bd
00000200: 3eb7 0c3e f574 623c 9056 9dbc e041 c63d
00000210: 4af4 7a3d ee7e 843d 6a77 d03d 9b4f 4d3d
00000220: 80eb f53c a5bf 8bbd 3861 c13d fbf7 b6bd
00000230: 4229 cb3d 9be5 5abb b49f 93bd f69d dc3d
00000240: b886 3a3d b8e8 f7bd e92b a23d 41db 593d
00000250: 869a 5c3d 453e b2bd 09e5 0b3d a70e 2d3d
00000260: ab76 36bd b44b 013e 4e9c 51bb 88f3 9dbd
00000270: 57b4 b4bd 37ec a83b 82b5 373d 2cd6 0dbd
00000280: 21e6 8fbb 1194 b23d e361 8a3c 298d 963d
00000290: c6e8 d3bc b1a7 503d ebe5 aabd 2aec e4bc
000002a0: 5da1 b8bd b77c c03c c35b bdbd 3a15 b73d
000002b0: 4776 7ebb 7a6b 9c3d 89e7 80bc b028 a0bc
000002c0: 9d50 3dbd 6445 44bd 86e3 223d 2fdc 903c
000002d0: 8db8 adbd f4d4 d63c 0e8b 9f3d f02c c2bd
000002e0: c677 14bd c11c 973d 9362 d0bc e816 303d
000002f0: 4640 1c3d f4d4 973c 6f2c 8a3d ab0b afbd
00000300: ba59 d4bd fa99 813d 99e1 dcbd 9772 ff3c
00000310: 146f 0dbe 0124 90bd 9a42 ab3c 6424 c83d
00000320: 4df0 89bc 9201 733d 790b 64bd 1e30 f6bd
00000330: dd67 61be 3b89 d6bd de6c e0bd e543 34be
00000340: a661 93bd be7f 7e3c 9dda f63d 1151 c6bd
00000350: 6446 743c 7f1b 1c3c 8920 9a3d 8c9f c63d
00000360: b959 7cbc a02d 30bd c642 393d f851 3f3c
00000370: 4405 cbbd c44e e83d 22bc 1bbe ccb9 69bd
00000380: f723 95bd 897a 0e3d 7b82 00bd f58d d7bd
00000390: 3bd0 a3bc 89b7 2b3d ee8a c0bc 9818 47be
000003a0: ef84 82bd c85e 3cbd 57b3 0b3d 6774 833d
000003b0: e49e f7bd 79af e2bc c313 0bbd 6959 f7bd
000003c0: 5ea5 c3bb d77e 67bd baaa 00be 5760 ebbc
000003d0: d147 8a3d ecff 2ebd 9058 fdbc 6243 a53d
000003e0: e1db 9cbd ad22 303d 17d7 7cbd 777b 863d
000003f0: 8e9b d2bd 70cc 29bd 3aca 813d b964 aabd
0.008714575 0.06547586 0.087542206 -0.0010383324 0.0585343 -0.09056437 0.118702956 -0.08316071
0.044085227 0.061982166 -0.04759117 -0.0052746153 0.005388834 0.05609419 0.009087248 0.11564572
-0.008642166 -0.08325459 -0.052940182 -0.094763376 0.056109738 -0.10649123 -0.103204705 0.03214431
-0.02033844 0.022567954 -0.02699199 0.108279146 0.036497105 -0.051308166 0.10283727 -0.047978338
-0.0053185658 -0.025889043 0.11246881 0.0045673433 -0.0027053382 -0.0027588024 0.08574239 0.08388694
-0.0038599665 -0.044059694 -0.11140907 -0.01570654 0.0068715536 0.07962137 -0.00031594242 -0.110011026
0.03088489 -0.0077786115 -0.12828246 -0.12875663 -0.09121853 0.006215018 0.033847492 -0.06486986
0.017770711 0.08238978 0.06682594 -0.026694847 -0.08216166 -0.1133967 0.110381454 0.012572975
-0.14228083 0.020794762 0.032138776 0.06586075 -0.074531764 0.0145065505 0.051022105 0.023146968
0.04335085 -0.029270884 0.04313233 -0.15334918 0.05572766 0.099785395 0.053835846 -0.053691886
-0.080716826 0.03592041 0.08905758 -0.035229914 0.11211255 -0.080229126 0.066179715 0.02474973
0.052598126 -0.085235454 0.00013616728 -0.074651375 -0.049768995 0.101041526 0.057658125 -0.046795648
0.061596256 -0.06970823 0.028133059 0.041076638 0.088336065 -0.047192387 0.07699378 -0.038908873
0.019523982 -0.018415568 -0.03310219 -0.06148485 0.006242302 0.0104621975 0.03882954 0.0644573
0.06956528 0.06360903 -0.0031174952 -0.1086819 -0.020740684 0.10433925 0.036968984 -0.027689109
0.114020675 -0.09762084 -0.018436473 -0.14924704 0.01924633 -0.034247734 0.039006572 -0.058825403
0.13741776 0.01382183 -0.019206315 0.096805334 0.06126813 0.064695224 0.101790264 0.050124746
0.030019522 -0.06823663 0.09442371 -0.08934017 0.09919979 -0.0033401016 -0.07208195 0.10772316
0.045538634 -0.121049345 0.079185314 0.053187612 0.053858303 -0.08703283 0.03415397 0.0422503
-0.044546764 0.12626535 -0.0031984034 -0.077124655 -0.088234596 0.005155112 0.044850834 -0.03462808
-0.004391447 0.08719648 0.01689238 0.07351143 -0.025867831 0.050941173 -0.083446346 -0.027944643
-0.090151526 0.023496969 -0.09246018 0.089395955 -0.0038827823 0.07637687 -0.015735405 -0.019550651
-0.046219457 -0.04791774 0.039767765 0.017683117 -0.08482466 0.02622459 0.077901945 -0.094812274
-0.036247037 0.07378531 -0.025437629 0.042990595 0.038147233 0.018534161 0.06746756 -0.08547147
-0.103686765 0.06328197 -0.10785217 0.03118257 -0.13811904 -0.07038117 0.020905782 0.09772566
-0.016838217 0.05932767 -0.055675004 -0.120208964 -0.22012277 -0.104753934 -0.10958265 -0.17604025
-0.07196359 0.015533386 0.12053416 -0.09683431 0.014909361 0.00952804 0.07525737 0.096984
-0.015402251 -0.04301226 0.045229696 0.011677258 -0.09913114 0.11343148 -0.15208486 -0.057061955
-0.072822504 0.034784827 -0.031374436 -0.10525123 -0.019996753 0.04192308 -0.023503747 -0.19442976
-0.06373011 -0.045988828 0.03410658 0.06418686 -0.12090853 -0.027671563 -0.033954393 -0.120776005
-0.005970641 -0.05651745 -0.12565127 -0.028732462 0.06751979 -0.042724535 -0.030926019 0.08069493
-0.07659126 0.04300182 -0.061728563 0.06566518 -0.10283576 -0.041454732 0.063374 -0.083199926

bias f4 [128]
00000000: 1e81 993d 3b78 99bc 5ebf 823d 94e7 81bd
00000010: 6f3e 3abd fa50 a3bc f677 80bd 335f c6bc
00000020: 3cd1 56bb d19d 1dbc b0bd 9e3d ffb5 ae3d
00000030: 570e 2d3d 3bcb f33c ab32 61bc d337 0c3d
00000040: 9cfc 18bc ae3c 393c d78f 983d 9c87 473b
00000050: 092d e03a a2d1 bcbc 655a bbbd 76a9 c23d
00000060: 8993 a23d c838 423d ee74 63bd 3eb1 4e3d
00000070: 9657 9ebd bdd9 803d 8c9b 913b 98db 04bd
00000080: 5df3 ccbc 54fa bebd c920 edbc 6b39 2e3d
00000090: 999c 49bc f0fc dcbd 81e6 193d 101a bebd
000000a0: 5dfc 91bd 39e4 8d3d aacf 3bbd 9639 823d
000000b0: 3be4 7a3d eaea e7bd ad16 b4bb b4f1 af3c
000000c0: 55b3 4c3d 7522 a2bc 527f d0bd 06a3 b13d
000000d0: 75c4 d73c 2f36 ac3d a0ef 8b3c 4491 d1bd
000000e0: c96e a1bc 96a2 d63b 7a20 2f3d f671 8f3c
000000f0: 5a87 69bd 2a4f 263d 578f 083d a6ef 79bb
00000100: 6771 ae3c d19c 31bd f34b 323d 6b26 dc3d
00000110: 5a91 e3bc 5ad1 ba3d 804d 393d 2a26 e43b
00000120: 609d 853c 84e8 673d be2d cebd 62ba 88bc
00000130: a6ed 963d 3cf3 9e3d cd6d 36bd 43ed 16bc
00000140: c148 a23d 5d47 7ebd f1f2 dfbd 1654 01bc
00000150: 4739 93bd 709b a63d 43a3 db3d 07e7 bc3c
00000160: 8cbb 9ebd 8b0b 73bd 9481 6b3d 9ad3 17bd
00000170: c7de 283d 5036 5abd 8aa2 5e3d 147c d6bd
00000180: 2cd4 63bd 5c76 87bd 6f24 a3bc 33a1 db3b
00000190: 18ef 54bc 5b12 4e3d 7bbe dabc 2ed9 eebd
000001a0: 1b78 30bd c096 be3c 2277 b1bc 8e91 e0bc
000001b0: f372 513d 2094 a0bb 864c 073d 53c0 dcbd
000001c0: 9fe2 533d 4c76 78bb 769b a83d 13d2 cd3d
000001d0: 05cc 5e3a 8dae 06bb 1374 143d 613e 7cbb
000001e0: 26d3 d73d f9c1 853c 3fbd 7bbd 8ba7 813d
000001f0: 2896 193d 1b56 c13d 7e2f f8bc 9762 6c3d
0.0749533 -0.018734088 0.06384157 -0.06342998 -0.045469698 -0.019936074 -0.06272881 -0.024215316
-0.0032778522 -0.009620146 0.07751024 0.08530807 0.042250004 0.029759994 -0.01374499 0.034232926
-0.0093375705 0.011305971 0.0744931 0.003044582 0.0017103265 -0.02304918 -0.09148101 0.09504978
0.07938296 0.047417432 -0.055531435 0.050462 -0.077315494 0.0629153 0.0044435915 -0.032435983
-0.025018388 -0.0932509 -0.028946297 0.042535227 -0.012305402 -0.107904315 0.03757334 -0.09282315
-0.071282126 0.06928296 -0.04585234 0.0635864 0.061252814 -0.11324103 -0.005495867 0.021477558
0.04997571 -0.019791821 -0.101805344 0.086736724 0.026338795 0.08408772 0.017082036 -0.10232785
-0.019706147 0.0065501435 0.04275558 0.017510395 -0.057013847 0.04060284 0.033339825 -0.0038137226
0.021294309 -0.043362442 0.043529462 0.10749515 -0.02777927 0.09121962 0.045239925 0.0069625573
0.016310394 0.05661823 -0.100673184 -0.016690437 0.073695466 0.07761237 -0.044538308 -0.009211841
0.07924033 -0.062079776 -0.10935009 -0.007893583 -0.07188659 0.08135116 0.10724499 0.023059381
-0.077506155 -0.05933718 0.057496622 -0.037067033 0.041228082 -0.053274453 0.054354228 -0.10472885
-0.055622265 -0.06614372 -0.019914834 0.006702566 -0.0129964575 0.050310474 -0.026702156 -0.116625175
-0.04308329 0.023265243 -0.021663252 -0.027413156 0.051135015 -0.0049004704 0.033031963 -0.107788704
0.051729795 -0.0037912307 0.08232777 0.10049834 0.0008499029 -0.0020550818 0.03624351 -0.003848933
0.1053832 0.016327845 -0.061459776 0.063307844 0.037496716 0.094402514 -0.030296084 0.05771121

weight f4 [128, 167]
00000000: 930c ddbd 224a ebbd ad14 85bd c1d1 e6bd
00000010: f42a 5fbd a08f 6cbd 962c 1cbd 868a d2bd
00000020: 68f4 83bd 7b76 a1bd 76f2 c5bd 6ce5 79bc
00000030: e72c 30bc 137a 98bc 3bdf 87bd 3e93 df3c
00000040: a50a 71bc 313f b6bc 600c f6bb f339 043c
00000050: 23ff 82bd 2c5e bfbd 591f b3bd ec0b b83c
00000060: a5fd efbd f0c5 fbbc ac7f efbd aee0 e3bd
00000070: cc92 603c 51cd dabd a55e ed3c 0952 c9bc
00000080: d381 c03b 0964 95bb be79 103d 9952 c0bd
00000090: 964c 97bd ee54 a63c 4554 f53c 7944 dbba
000000a0: 0dd7 a6bc 3272 953d 0048 03bd b88b 87bd
000000b0: d80d 9ebb ec2c ca3d 7f9c fa3c db88 debd
000000c0: d079 c63c 25da 96bd c018 8ebc 33e5 573d
000000d0: fc25 813d e505 9cbd dd9a a63d 7ffb 683d
000000e0: 6b06 763c 373e c1bd e497 1fbd 6d5f 153d
000000f0: 616a 0f3d 2c9e 61bd c8d5 6fba c037 acbd
00000100: 62ab 6ebd cf9e 74bb 422f 103d 53ae 24bd
00000110: 97ad 573d 2eb4 ae3c 66fc 033d 68a5 4dbd
00000120: 0576 943d fae9 70bd 7aef 63bd a5f6 4c3c
00000130: b07f 663d 2c01 fd3c 11e7 c43d fbca 0c3d
00000140: 6f29 23bd f2a8 0abd 4927 9f3d 1760 8dbd
00000150: 2262 85bd a79e cd3c 9b44 0fbd a679 5d3d
00000160: 4b56 05bd 0fd7 ce3b 5b4e 93bc 9968 1ebd
00000170: db42 083d c61e 3e3d f936 1d3d 4e16 94bc
00000180: 07ad 83bd dca4 81bc 6252 9b3d af51 6a3d
00000190: 9f1f 9abc 67a5 bbbc bb1a 443d 1723 1dbd
000001a0: 18d1 0ebc 9459 7e3c d6ef a23d cfe2 0bbe
000001b0: 3e31 b0bc 6312 f2bd 95ab 9f3c c55f 313c
000001c0: 16db 343c 228c b8bb c533 7cbd 9254 333d
000001d0: 1c4f 4dbd 948c c33c db73 2dbd 37a3 5bbd
000001e0: ed61 91bc 7389 f03d ce04 c1bd 5ae2 f23c
000001f0: 6389 713c 1d38 58bd 6f18 ecbc d113 24bd
00000200: 07d7 003d 02f2 61bd e110 363d 2e31 9f3c
00000210: 8d9a 4d3d c39a 203d 6768 533d 229d 103d
00000220: 03f5 fc3d 3eab 66bd 0de1 843c 38cf b93d
00000230: 3bc5 dbbc f0f8 0b3d 7b16 573d 8fcf b03c
00000240: 4f25 8d3d 803c c53b af37 bebc 856c 85bd
00000250: 88c1 6abc 1493 5c3d d195 dabc 3402 0bbd
00000260: c469 e73d 192e b53d eec5 7d3d 9ac4 6fba
00000270: 0f56 6d3d ff72 4b3b 4d7d dc3d 4679 c53d
00000280: cdf6 9dbd 2c9a 7c3d cb24 02bd d29f c1bd
00000290: 0887 1bbd c4b5 893c a083 623d a0f1 863d
000002a0: 70b2 663d d1ee e63a 3ef5 503b 8773 843c
000002b0: dd9a 723d 1c3b 1e3d 0819 943d 1642 713d
000002c0: a6df c63d 7ff9 9b3d 0b54 1f3d 0119 c5ba
000002d0: 15ec b73d aa46 b33d 5829 d03d 72e5 913d
000002e0: 29e3 ce3d bbba cf3d 543f babc 3f6d 5ebc
000002f0: 633e f33c 390b ca3a 25db a73d f280 d9bb
00000300: 98d5 433d 6a41 fb3c ffe0 e0bc bff0 31bc
00000310: ed3b 733d 0733 b93d 88d8 13bc 5a00 01bd
00000320: ffef d33d e957 b63d f453 fc3c 8772 c23c
00000330: 5646 513d 532e 6c3d 091f 8ebd 0810 9bbb
00000340: 66cb 13bb af83 4e3c 097b 9bbd 4056 8eba
00000350: 4b00 3fbd 3713 cf3c 0981 c6bc 7656 98bd
00000360: 4859 5abc 99b8 453c 3986 f6ba 43cd 11bc
00000370: a37e 3f3d 0307 8a3d 1a0b 47bd 1860 813d
00000380: 5d03 9cbc 3cc2 82bd 719d acbd 7fc0 8cbd
00000390: 8e63 4abd f7b7 27bc 4df0 60bd ac76 2fbd
000003a0: 333b 15bc 8a28 fdbc e8db 0bbd 73d0 07bd
000003b0: b120 583d 5adf 4b3d 7ab1 38bd 5dfd 55bd
000003c0: 7404 b73d 46d2 3bba 99ea 90bc b801 5c3c
000003d0: 7753 72bd d8ad 65bd 1833 8b3c 4c92 9738
000003e0: da5b e6bd 80fb a03d 6e2c 083d 832c 783c
000003f0: 2ebc 013d d8c2 44bd e6ba 8bbb 8067 74bc
-0.10793414 -0.11488749 -0.06498084 -0.11270476 -0.054484323 -0.05775416 -0.038128458 -0.102803275
-0.06443101 -0.078839265 -0.096653864 -0.015252452 -0.010752893 -0.018612897 -0.06634375 0.02729189
-0.0147120105 -0.022246929 -0.0075087994 0.008070457 -0.0639632 -0.09344134 -0.087462135 0.022466622
-0.11718301 -0.030734032 -0.11694273 -0.111268386 0.013706874 -0.10683692 0.028975794 -0.02457525
0.0058748513 -0.0045590443 0.035272352 -0.09390754 -0.073876545 0.02030417 0.02994741 -0.001672878
-0.020366216 0.07297172 -0.032051086 -0.06618446 -0.0048234276 0.098718494 0.030592201 -0.10865947
0.024228007 -0.073658265 -0.017345786 0.052708816 0.06306073 -0.07618312 0.081350066 0.05688047
0.015016179 -0.09435695 -0.038963214 0.03646796 0.03501356 -0.055082485 -0.00091489824 -0.08409071
-0.058268912 -0.0037326103 0.03520132 -0.04020531 0.052655783 0.02132615 0.032223128 -0.05020657
0.07249073 -0.058816887 -0.055648305 0.0125099765 0.056274116 0.030884348 0.09614385 0.034373265
-0.039834436 -0.033852525 0.07771165 -0.06903093 -0.06512858 0.025100065 -0.034977537 0.05407109
-0.032553 0.006312258 -0.017981699 -0.03867397 0.033266883 0.046416067 0.038382504 -0.018077042
-0.06429487 -0.015825681 0.07584073 0.057206806 -0.018813906 -0.022906018 0.047877055 -0.038363542
-0.008716844 0.015524287 0.07955901 -0.1366074 -0.021507856 -0.11819913 0.019490996 0.010826056
0.011038562 -0.0056319395 -0.06157281 0.043781824 -0.050124273 0.023870744 -0.042346817 -0.05362245
-0.01774689 0.11744966 -0.094247445 0.029648948 0.014742228 -0.05278789 -0.028820245 -0.04005796
0.031455066 -0.055162437 0.04444969 0.01943263 0.05019622 0.039210092 0.051613238 0.035306104
0.1235142 -0.056315653 0.016220594 0.09072727 -0.026827445 0.034172952 0.052511673 0.021583347
0.06891882 0.006019175 -0.023219911 -0.06514839 -0.014328368 0.053851202 -0.026682766 -0.033937648
0.1129947 0.08846683 0.06195634 -0.00091464224 0.0579434 0.0031043885 0.10766087 0.09642272
-0.07713089 0.061670467 -0.03177337 -0.094543114 -0.037970573 0.016810305 0.05530131 0.06589055
0.056322515 0.001761878 0.0031884457 0.016168369 0.05922972 0.03863059 0.07231337 0.058900915
0.09710626 0.07615947 0.03889851 -0.0015037359 0.08980576 0.087537125 0.10164136 0.07123841
0.10101921 0.10143038 -0.022735275 -0.013575851 0.029692834 0.0015414722 0.081960954 -0.006637686
0.04781112 0.03067084 -0.027451036 -0.010860621 0.05938332 0.09042936 -0.009023793 -0.031494476
0.1034851 0.08903486 0.03080175 0.023736252 0.05109247 0.057661366 -0.06939513 -0.0047321357
-0.0022551655 0.012604638 -0.075918265 -0.0010859445 -0.04663114 0.025277717 -0.02423145 -0.07438366
-0.01332695 0.012067937 -0.0018808312 -0.008899036 0.04675163 0.06739619 -0.04859457 0.063171566
-0.019044572 -0.063847035 -0.08428467 -0.06872653 -0.04941135 -0.010236732 -0.05491667 -0.042837784
-0.0091083525 -0.03090312 -0.034145266 -0.033157777 0.052765552 0.04977355 -0.04509113 -0.05224358
0.08936396 -0.0007164817 -0.01768999 0.013428144 -0.05916163 -0.056073993 0.016992137 7.227491e-05
-0.11247988 0.0786047 0.033245496 0.015147331 0.031673603 -0.04803738 -0.0042642234 -0.014917254

bias f4 [128]
00000000: 298c 84bb 834b 54bc 32bb 563d aae0 dabc
00000010: 7e1d 85bc 8d27 9ebd d4e7 b5bd f338 583d
00000020: fc4c c83c af2e b43c c9e7 493d b57a ad3d
00000030: f477 4e3c 9fb7 b5bc ddc5 1d3c f94a c5bc
00000040: a19a 9b3d d2b7 d53c 7e3b af3d c530 21bb
00000050: 72e0 60bd b3ee 60bd 10ee 16bd 957f 873d
00000060: 5bfe 713c 36e2 4b3d 658e 35bc 248a 953d
00000070: 8f25 13bd c10d 26bd 28fa edbb 8bc9 a1bd
00000080: 3916 463d c16b a53d 55d2 82bd e881 27bd
00000090: ad2e c1bd 62d7 183c 437c bd3c df69 783d
000000a0: fb90 513d f163 4dbc 7627 cdba 4409 efbc
000000b0: 5873 023d ebf5 afbd 8ab9 1c3a 28e2 f4bc
000000c0: aeaa f73c 2c2b 0e3c 0ecd 1a3d f761 a03d
000000d0: 6466 83bd 7b76 5d3d bab7 48bd f497 22bd
000000e0: eae3 2c3d 68cd 543b f9c5 a4bd 41eb 83bd
000000f0: 3f05 3d3d c14b cdbc f664 483d e354 03bd
00000100: aec0 9dbc 7c5b cebc a42d 9f3c bb36 82bb
00000110: 2cf9 5f3d 559a 76bd cbea 4fbd 50a4 6cbb
00000120: da02 af3d 3fba 953d 65ff 8b3d 3763 0ebc
00000130: 938d 71bd 299d f2bc 040d 3b3d 710b b53d
00000140: e506 02ba c0fe 393d ca28 3c3c 3bd3 953d
00000150: e979 7b3d ca4d 133d 3418 21bd 6c76 bd3d
00000160: fd94 ae3d 6f3b 723b e3a4 90bc 70d9 293d
00000170: dbdc b73d fcef 3ebc 3b6f 7d3c 8d6f 6c3d
00000180: 5a38 18bd 8d86 e53c 76de bf3c a8a2 47bd
00000190: 5e12 ca3b 660f a6bb 2013 133d 235f 61bd
000001a0: c10c 74bd 3540 9bbd a027 823d 40f8 d13b
000001b0: 2594 5fbd 8d34 863a bf46 61bc f07d 90bd
000001c0: 7173 a3bd ec5d 30bc 078a 16bd 386d 7dbd
000001d0: 352b 523d f73c 463c c688 68bd b4ac 85bc
000001e0: b79e 483d dbc9 be3c 1536 98bc bc87 80bd
000001f0: 407c 363d 5e4d 08bd b43e 00bd 5161 35bd
-0.0040450287 -0.0129574565 0.052424617 -0.026718456 -0.016249415 -0.077223875 -0.08882108 0.052788686
0.024450772 0.021994917 0.049293313 0.0847067 0.012601841 -0.022182284 0.009629694 -0.024083601
0.075978525 0.026088629 0.08556269 -0.002459572 -0.054901548 -0.05491514 -0.036848128 0.06616131
0.014770116 0.04977628 -0.011081313 0.07301739 -0.03592449 -0.04054046 -0.007262487 -0.078997694
0.048361037 0.08077193 -0.06387774 -0.040895373 -0.09432731 0.009328695 0.023130542 0.06064784
0.051163655 -0.012536035 -0.0015652019 -0.029179223 0.03184828 -0.08591827 0.0005978575 -0.029892996
0.030232754 0.008677285 0.03779321 0.07831185 -0.06416014 0.05406807 -0.04900334 -0.039695695
0.042209543 0.0032471064 -0.08045573 -0.064413555 0.04614758 -0.025060536 0.04892441 -0.032063376
-0.019256916 -0.025190108 0.019430943 -0.0039738095 0.05468099 -0.060205776 -0.050761025 -0.003610868
0.08545466 0.07310914 0.06835822 -0.008690647 -0.058972906 -0.029615955 0.04566671 0.08840073
-0.0004960134 0.045408964 0.011484334 0.0731568 0.06139556 0.035962857 -0.039329723 0.09251103
0.08524511 0.0036961695 -0.01765675 0.04146713 0.08977672 -0.011653896 0.015468414 0.05772357
-0.037163116 0.02801826 0.023421507 -0.048739105 0.0061667403 -0.0050677536 0.03590691 -0.05502237
-0.059582476 -0.07580606 0.06355214 0.0064077675 -0.05458464 0.001023905 -0.013749777 -0.07055271
-0.07981003 -0.01076458 -0.036752727 -0.061871737 0.051310737 0.012099496 -0.056771062 -0.016317703
0.048979487 0.023289612 -0.018580476 -0.06275889 0.044552088 -0.033276908 -0.0313098 -0.04428226

weight f4 [32, 128, 1, 1]
00000000: 2b7f e8bc 4275 df3d 8eb0 813d e05b 02be
00000010: 44d2 c5bd 4d7f 92bc 9e36 a7bd 5ab2 88bd
00000020: 6f5b 3c3e 5460 da3c 2860 833d 5a99 113d
00000030: cb3b 42bd f3e7 073e f52b 14bd 2173 e43d
00000040: 3e59 463b d756 bf3d bd4a cf3c f07c 66bd
00000050: dc7a c83d 8589 e83d 2614 043d 03e1 49bd
00000060: 1ccb b33d b7b3 843d 3dcc 26bd 824b 2e3d
00000070: 24e0 59bc ec4b 62bd 285b de3c 5ea3 48bd
00000080: a137 fabd 0c92 1abc ea69 053d 78bd c53d
00000090: 607a 68bd c251 95bd 7e31 fd3d 165e 43bd
000000a0: 3c4e 1d3d 685d 043d 3d05 3e3d 40e3 023c
000000b0: a3b9 ca3d d8ff 123e 794e e23d 689a 403b
000000c0: 1a39 8dbd 598f 90bd a478 dc3d 0a98 d03b
000000d0: e6f4 923c fd9a 1ebb 0f21 a13d be42 663b
000000e0: a263 a3bd fd5c e0b9 d2ee ca3d 362b fc3a
000000f0: 8059 563d bb43 de3d 623f 8cbc 405c c9ba
00000100: 9daa 133d 23a5 593d 79f9 3f3d b1c7 8e3d
00000110: 4f42 93bd 06ff a0bb c6b2 383d 86b3 a83d
00000120: c873 9ebd 5df7 613d 0c5d 06bb f7fc 463d
00000130: 8bfc ccbc c350 c7bc d785 a43d 7386 bbbc
00000140: 7abd 103d 7f02 0d3d c2bb 8c3d 93e6 10bd
00000150: 5395 84bd 74b4 0c3d 9477 bdbc 5576 df3d
00000160: 2b2f babc 1071 65bd fed8 4bbd c03e 153e
00000170: bebb 313d 74bb c6bd a2a5 f3bc 6156 52bc
00000180: 76ce 07be 2f3d 783b 388e 9fbc 33f5 eabd
00000190: 0499 babc 390f f4bc 9f10 2a3b 4f28 87bd
000001a0: d8af 303e c67d 873c 7d77 c53d 1867 d5bc
000001b0: 83ec 403d 29ec c0bc f579 b5bd 1a44 ba3d
000001c0: c1ae 413d 19d4 093e 40cb 5fbd 41ba b9bc
000001d0: fb9d 383d 500c da3d 7ecd ba3d e519 3e3d
000001e0: af11 35bd 67d8 31bd 7e07 f83c 5ffc 3cbd
000001f0: 22a3 d23c 3961 37bc 8f75 cd3c a1b1 4a3d
00000200: 1e44 8c3d 20fb 7abd 2a55 d5bd 60f9 02bc
00000210: b287 33bc d375 54bd 7e35 32bd df48 c93d
00000220: df06 523d 7989 fbbc f53a 6a3d b40b f8bb
00000230: 4f67 503d 0081 97bc 5c42 0fbd 1c87 9f3d
00000240: e370 15bd 2d8b 2dbd 205c 273d 56de 8d3d
00000250: 4c64 803d b6e7 d4bc 5b3f b3bc df04 c7bd
00000260: 5767 e0bc 9b18 c83c c636 2fbd 1ec8 d7bd
00000270: 795d 7b3d b9d2 51bd 6779 b2bb 0f85 393d
00000280: 01c2 47bc 90b2 34ba 37bb 46bd 6b4d 2abd
00000290: afa9 6bbd 83fa e3bc 0cf3 713d a0a6 0b3b
000002a0: 87b2 29bd 0976 b33d 6484 903d 0b7d 28bd
000002b0: ffb4 cdbb 8521 2dbb 3ea9 8d3d 32f4 0a3c
000002c0: 28ae 153d 6b54 d6bd 5814 8cbd 0455 0dbd
000002d0: 3fd8 843d 2e5f d8bd df25 d2bd 213d a83d
000002e0: 625c 10bd 43a8 9d3d ad96 77bd e956 683c
000002f0: 7f72 63bd 9e04 203d 7c33 adbd feb3 503d
00000300: 146f 50bc 4a09 083d fa0e a73d 5987 a33d
00000310: 5847 b13d e247 9fbd 2152 93bc f2a4 6bbd
00000320: c83d 323d 0a3c 163d 2d55 f6bc 9490 843c
00000330: ce1e b53c ce7e 79bc 62e1 df3c 03bb fbbc
00000340: f844 05bd 0a53 90bd 7518 7bbd e337 633d
00000350: 329a bcbc 8c63 1abd 7ceb 843c 9421 9e3d
00000360: 50c7 973c 9d4d 17bd 95d7 593c a4b4 933d
00000370: 23b9 1fbd 6866 7c3d 3397 26bd 3d0f 91bd
00000380: 158f 2b3e ca2c 8fbc a3d3 2f3d 84ff 9f3d
00000390: 4bbf 113d d83b 21bd 745d ad3d 0d0f 63bd
000003a0: f1a6 3dbd d4a7 303d 3dec 893c 50f4 423b
000003b0: 3ad5 adbd a11f 07bc b842 e5ba 72f7 5f3d
000003c0: e667 a8bd a3a1 5fbd e50c 503a 1b55 70bd
000003d0: 51fa 4b3d a6d1 76bd 8e94 973d 2c2f b6bd
000003e0: 2a0a 6cbd eb30 26bd 5b38 b23a 4c50 623d
000003f0: 8e6a 5b3d d3d5 903d 38ca 92bd 6f32 493d
-0.02838095 0.10911037 0.06332503 -0.1273036 -0.096592456 -0.017882967 -0.08164714 -0.06674643
0.18394254 0.026657261 0.06414825 0.035546638 -0.047420304 0.13272075 -0.036174733 0.111547716
0.0030265595 0.09342735 0.025304193 -0.056271493 0.097890586 0.11354355 0.032245778 -0.049286854
0.087789744 0.064795904 -0.04072212 0.04255248 -0.013298068 -0.055248186 0.027143076 -0.048983924
-0.122176416 -0.009434234 0.03257171 0.09655279 -0.05675733 -0.07290985 0.123629555 -0.04769715
0.03840469 0.03231564 0.046391714 0.007988751 0.09898689 0.14355409 0.11050124 0.0029388908
-0.06895657 -0.070585914 0.10765198 0.0063657807 0.017939042 -0.0024201267 0.078676336 0.0035134996
-0.07977988 -0.0004279389 0.099088326 0.0019238952 0.052331448 0.10852762 -0.017120067 -0.0015362576
0.03605138 0.053136002 0.046868775 0.06971682 -0.07190382 -0.0049132137 0.045092367 0.082373664
-0.07736927 0.055167545 -0.0020502238 0.04858109 -0.025022766 -0.024330502 0.080333404 -0.022891259
0.03533695 0.03442621 0.068717495 -0.035376143 -0.06473794 0.03435178 -0.023128308 0.10911242
-0.02272757 -0.056016028 -0.049767487 0.14574718 0.043391936 -0.097037226 -0.029742066 -0.012837977
-0.13262352 0.0037878265 -0.019476995 -0.11472549 -0.022778042 -0.029792415 0.0025949848 -0.06599485
0.17254579 0.016539466 0.09641931 -0.026050135 0.047100555 -0.02355011 -0.08861152 0.090950206
0.0472858 0.13459815 -0.054637194 -0.02267182 0.045072537 0.1064688 0.09121226 0.046411414
-0.044206318 -0.043419268 0.03027701 -0.046139117 0.025712553 -0.011192613 0.02508047 0.049485806
0.0684893 -0.061274648 -0.104166344 -0.007994026 -0.010957645 -0.05187018 -0.043508045 0.09828352
0.051276084 -0.0307052 0.057185132 -0.0075697545 0.050879773 -0.01849413 -0.034975395 0.07789442
-0.03648461 -0.042369056 0.04085934 0.06927173 0.0626913 -0.025989395 -0.021880796 -0.09717726
-0.027393026 0.024425795 -0.042776845 -0.10536216 0.06136844 -0.05122635 -0.005446601 0.04529291
-0.01219225 -0.0006893063 -0.048518386 -0.041577738 -0.05753487 -0.027829414 0.05906968 0.0021309033
-0.041430023 0.08762748 0.070565015 -0.041134875 -0.00627768 -0.0026417684 0.06917046 0.008481072
0.03654304 -0.1046532 -0.06839818 -0.034504905 0.06486558 -0.10565029 -0.102611296 0.082147844
-0.035244353 0.07698109 -0.06044643 0.014180877 -0.055529114 0.039066903 -0.084570855 0.050952904
-0.012721796 0.033211984 0.081571534 0.079848 0.08656186 -0.077773824 -0.017983498 -0.05753035
0.04351595 0.03667835 -0.030069912 0.016182221 0.022109415 -0.0152279865 0.02732915 -0.030728823
-0.032536477 -0.070470884 -0.06130262 0.05547322 -0.023022745 -0.03769259 0.016225569 0.07721248
0.018527657 -0.036939252 0.013296028 0.07212189 -0.03899492 0.0616211 -0.04067154 -0.070829846
0.167538 -0.017477412 0.042926442 0.078124076 0.03558282 -0.039363712 0.084650904 -0.055434275
-0.046301786 0.043128803 0.01683628 0.0029747672 -0.08487935 -0.008247287 -0.0017491197 0.05467934
-0.08222942 -0.05459751 0.0007936492 -0.058674913 0.049799267 -0.06025853 0.074013814 -0.08895716
-0.05762688 -0.040573996 0.0013597118 0.05525236 0.053568415 0.07072034 -0.071674764 0.049120363

bias f4 [32]
00000000: 421f a73c a9d1 8f3d 005d 55bd 3f7b 9cbc
00000010: 304f 403d 29ea bfbc a62c 953d e92f 0d3d
00000020: 90ae 173d b400 2abd dbc8 62bd 11aa 0dbd
00000030: a61a 793d 86cf 963c 6c46 6cbd 016a 8d3d
00000040: f26d 343d 6076 a7bd b653 5d3d fccf c0bb
00000050: 37e3 b03d d296 91bc 5fc5 da3d a86f 233c
00000060: 455d f93b 2059 e4bd c5b7 003d 8f11 bc3d
00000070: d95a 1b3d be47 3c3c 7dd9 5fbd a60f d13d
0.020400647 0.070224114 -0.052090645 -0.019101737 0.04695052 -0.023427086 0.07283907 0.03446952
0.03703171 -0.041504577 -0.055367332 -0.034586016 0.06081643 0.018409502 -0.057684347 0.06904984
0.044050165 -0.08176875 0.05403491 -0.0058841687 0.08637088 -0.017772112 0.10682177 0.009975351
0.0076099955 -0.11149812 0.031425256 0.091830365 0.037928436 0.011491714 -0.054650772 0.10208063

weight f4 [128, 32, 1, 1]
00000000: 2903 68bd b45c c23d 6c40 ed3c bf11 a5be
00000010: 3993 8a3d ad88 253e 41c1 06bd 504b 473e
00000020: fa24 b0bd 505d c33d 2306 a43d a5c7 37bc
00000030: 6472 afbd 3f4d c13c 6d87 fe3d c555 43bc
00000040: 13d6 fa3c 8fe1 a73d 7bf2 a9bc 4ea5 e23d
00000050: 9311 c83c c29e 1c3c 488b 323e ab11 14be
00000060: 1c2d 453e 6a9e 4fbd ddb6 82bc e2de 433e
00000070: ccca 5fbd 3e21 503e b888 813d 6aa1 1abd
00000080: 8406 05be 61ef 0fbe 44be 4ebe 3456 33bc
00000090: c0ff 34bc d8a1 a83d cb42 b33d 3b96 92bd
000000a0: f48e d23d e4b6 dc3d a9c9 2bbd c932 b6bc
000000b0: 3f5f 843d d23a 34bc 3038 bbbd 4191 a53d
000000c0: 646d cdbd 1034 13be 2bce 3dbe 46fc a53c
000000d0: f56d e5bd 61a0 f43d a5f2 ac3c d43a b6bd
000000e0: 8874 043d 21f8 c3bd eb5b 37be dee3 41bd
000000f0: 2d79 a7bd 9f65 2d3d 3871 a3bc 2cd6 29bd
00000100: 6010 fcbd 7d57 99bd d151 87be 56df e2be
00000110: 50f6 583e bf5d c2bd 8c51 62bc c6a2 9f3c
00000120: ffdd 79bd 69e8 03be 3560 a5bd b35e 693d
00000130: e27f 073e 98b1 29be a84f edbc 44b3 62bd
00000140: 201d ef3d 2810 97bc c154 82bd d9e1 9abc
00000150: dd82 003e 7c08 e33d bb38 fe3d 0de1 033c
00000160: 7115 fabd f788 dd3d 85ab 1f3e a3f2 2bbe
00000170: 1b68 21be d09b d2bd 6c26 0c3d fec6 dc3c
00000180: 72de cd3d ba5e 693e aaed 44be e99b c13d
00000190: 3c1b f53c d001 513e ed66 d9bb 4937 f6bd
000001a0: c72f 1f3e e73c b0bd cdcd 1d3e 56e4 7bbc
000001b0: 1350 28be 33aa a2bd 1e14 653b a17e 023b
000001c0: c7e5 133e 4897 efbd 0a7f 08be 7f93 f4bb
000001d0: 14c7 3bbd f86d 0c3d 9849 2e3e 0adf 6f3d
000001e0: 8dd6 2d3e 8ad6 493c 9b77 eebd 4ecc 3abd
000001f0: 0bd3 1a3e cc71 6a3d 27d6 283e f212 01be
00000200: a707 9d3d 1ac4 88bd 6580 c7bc b9c3 0b3e
00000210: f480 1d3e cedb afbd 72d0 193e 5317 16be
00000220: e6d1 01be 8724 71bc a555 b33d ef6c 9bbc
00000230: c38a 7f3d 9be8 cb3d b622 eb3d 67b6 2f3c
00000240: de54 393e c538 463d 2c14 9abd 24a6 a6bd
00000250: 5808 67bc 25a3 06be a943 253e 12ca ef3d
00000260: a872 0bbc 9e9c bc3d 5d92 f0bb ee0c babd
00000270: dff8 48bd b45c b53d 79da 833b f85f b8bd
00000280: fc48 05be 3889 083a bb3b 1abe fa6d aebe
00000290: 14e5 6f3e 1c08 9fbd ab49 1d3b 44f4 033e
000002a0: 9d01 563e 8a26 863d 7e85 433e f447 41bd
000002b0: 4f52 ddbc 6680 c0be 7f48 343e 180e ff3c
000002c0: fa50 fb3d e082 b43d 71e2 47bd 8652 b9bc
000002d0: 4239 9cbd 616b 803d 9164 ad3d a06f 473d
000002e0: cb93 19be 8755 ddbc dd7a 04be 2b9f a63d
000002f0: e4c4 35bd 10ce afbd 2030 fcbd 286d 393e
00000300: 1fe4 903d d5e0 0cbe cd60 243d 83dc 8a3d
00000310: 13dd bd3d 09fb a1bd f781 8c3d 5528 24be
00000320: 8439 b93c faa6 32be 5833 1c3e 0602 56bd
00000330: f196 623d 666e bb3d c661 873d 3320 cbbd
00000340: acf2 2e3e 5de9 a83d abc1 f5bd 952b 853d
00000350: bc8d 0cbd d0c0 b23d 0d40 483d a823 0dbe
00000360: c181 313e 74c0 c73d e482 963d fc33 913c
00000370: 937d 81bc eb51 a63d 166e 62ba 0d9d 25bd
00000380: aea1 68be 9561 113e be23 87bc 3712 5bbe
00000390: adf5 b33d 3627 f53d 7923 7cbd fddf 7cba
000003a0: 6afc f53d 2d3e a03d b377 81bd a963 3a3e
000003b0: c2cf 463d 952d a1be b8df f83d 6576 0bbe
000003c0: eda5 debd 981e 6dbc 6e7e f0bd e034 21bd
000003d0: 11fd 3c3e 94f1 f6bd 80bc 0ebe 1c7f d4bd
000003e0: 48f4 8dbb 14b4 fdbd 94a1 03bd 92a6 a83b
000003f0: 666f 2a3e ad93 46bd 9fdb 253e 8839 013e
-0.05664364 0.09490338 0.028961383 -0.32240102 0.06766362 0.16165419 -0.032899145 0.19462323
-0.08600803 0.09539282 0.08008983 -0.011217033 -0.0856674 0.023596404 0.12428174 -0.0119223045
0.030619657 0.08197319 -0.020745507 0.110666856 0.024422443 0.009559335 0.17435944 -0.14459865
0.19255489 -0.050688185 -0.015956337 0.19127992 -0.05463676 0.20325181 0.06324905 -0.037751593
-0.12990767 -0.1405616 -0.20189768 -0.010945845 -0.011047304 0.08233994 0.08752974 -0.071575604
0.102811724 0.10777071 -0.041940365 -0.022241013 0.06463479 -0.011000352 -0.09141576 0.080843456
-0.1003063 -0.14375329 -0.18535678 0.020261895 -0.11202613 0.11944652 0.021111796 -0.08897939
0.032337695 -0.09568811 -0.17906158 -0.04733645 -0.08177409 0.04233324 -0.019951448 -0.041464016
-0.12307811 -0.0748739 -0.26429608 -0.44311017 0.21187711 -0.09490537 -0.013813388 0.019486796
-0.061002728 -0.12881626 -0.08074991 0.056975078 0.13232377 -0.16571653 -0.028968647 -0.055346742
0.11675477 -0.018440321 -0.06363822 -0.01890652 0.1254992 0.11085603 0.12413164 0.008049262
-0.12211121 0.108171396 0.15592773 -0.16791777 -0.1576237 -0.10283625 0.03421633 0.026950356
0.10052194 0.22790042 -0.19231287 0.094535656 0.029920213 0.20410848 -0.006634584 -0.120222636
0.1554557 -0.08605366 0.15410538 -0.015374264 -0.16436796 -0.07942619 0.0034954618 0.0019911902
0.14443122 -0.116987765 -0.13329712 -0.007463872 -0.045844153 0.034284562 0.17020261 0.058562316
0.16976376 0.0123192165 -0.11643907 -0.045604996 0.15119569 0.05723743 0.16487943 -0.12604883
0.07667475 -0.066780284 -0.024353215 0.13648881 0.15381223 -0.08586846 0.15020922 -0.14657335
-0.12677726 -0.014718181 0.0875657 -0.018972842 0.062388193 0.09956475 0.1148123 0.01072464
0.1809878 0.048393983 -0.07523379 -0.081371576 -0.01410111 -0.13148172 0.16139092 0.11708464
-0.008511223 0.0920956 -0.0073416666 -0.090844974 -0.049065467 0.08855572 0.0040238467 -0.090026796
-0.13016123 0.00052084355 -0.15061848 -0.3406828 0.2342723 -0.077652186 0.0024000208 0.12886149
0.20899053 0.065503195 0.19093892 -0.04718776 -0.027016787 -0.3759796 0.1760578 0.03113465
0.122713044 0.08814025 -0.048799936 -0.022622358 -0.076281086 0.06270481 0.08466447 0.04869044
-0.14997785 -0.027018322 -0.12937494 0.08135828 -0.044377223 -0.08584225 -0.123138666 0.18108046
0.07074761 -0.13757642 0.04013138 0.067803405 0.09270682 -0.07909209 0.06860726 -0.1603101
0.022610433 -0.17446509 0.15253961 -0.052248023 0.05531973 0.09151916 0.06610446 -0.09918251
0.1708476 0.082476355 -0.1199983 0.06502453 -0.034314856 0.08728182 0.04888921 -0.13783133
0.17334653 0.097535044 0.07349184 0.017724983 -0.015806949 0.08121093 -0.000863762 -0.04043298
-0.22717926 0.14197381 -0.016496535 -0.21393667 0.08787093 0.119703695 -0.061557267 -0.0009646414
0.12011035 0.07824359 -0.06321659 0.1820208 0.048537977 -0.3148009 0.12152046 -0.13619383
-0.108714916 -0.014472626 -0.117428645 -0.039357066 0.18455912 -0.12057796 -0.13939095 -0.10375807
-0.004332099 -0.12387863 -0.032136515 0.00514681 0.16644058 -0.04848068 0.1619706 0.12619603

bias f4 [128]
00000000: c9d3 2d3e b586 493d cac4 453e 82cf 6fbd
00000010: 9167 b7bd 98a5 d1bc 8a1b a53c 4bab 1e3e
00000020: 453d 8c3d 3b15 0c3e eba9 27be dbbd 33be
00000030: c715 b93d 8b23 a93d be7b cfbd 72d3 7c3d
00000040: bd0a 94bd 1aff dbbc 5227 a6bd f6d2 34bc
00000050: d179 553e 6f71 c03d 9a82 62bd 98c7 e1bd
00000060: 5943 543d d5d4 09be 2d2c cf3d d510 4b3e
00000070: 4133 05be ff5f 563e 38a1 a0bc 5d81 38bc
00000080: cc67 a3bd d79a e1bd b7ea 213e 57a3 90bc
00000090: 1422 4cbd fbd6 3c3e 11ff a73d 25d3 f93c
000000a0: 8c97 163e 2299 553d b3c6 79bc ba0a 44bc
000000b0: 7a90 eabd bbc3 fe3c b094 913d f58c 913d
000000c0: b496 0a3c 52fd e93d 15c0 063e 0b81 7e3c
000000d0: 3609 c3bd 8a5c 143e adac 133e ac81 f93c
000000e0: a3fb f5bc 782f 0f3e 04bb 0fbe 164e e3bd
000000f0: 71fa 073e ab38 d93d 5daa 8abc e39a acbd
00000100: 199c 953b 52bd 8fbd a931 09be f24b 2cbd
00000110: c0cb a4bc f403 493d e416 3a3e a200 603e
00000120: 8beb 2b3e 9b1f 343e ce8e c43d 8124 7abd
00000130: 23ce 853d ec61 0c3e 3ebe 083e b43d fd3d
00000140: 8358 e3bc 6ec7 b6bd c9b8 8fbd 38b7 e2bd
00000150: bd3b da3d de38 893d 55eb 36be 5edb 43bd
00000160: 5504 86bd 530c 62bd 1837 2e3e a4fe 9dbc
00000170: 3082 09be 4848 303e 811c 0b3c b6fa 423e
00000180: 802f 25bd b209 03be 9f26 203e 0217 f93b
00000190: 0ac4 263e ec09 ae3d 2534 903d 5c01 333e
000001a0: b5dc a0bc c152 2a3d 371f eb3d b223 3cbe
000001b0: ffa7 f9bc 9ca2 553e 920e 173e 1a12 65bd
000001c0: 7d9a 17be d4b0 b33d d10a 9fbd 161a 3ebd
000001d0: 2fb3 cfbd 424a 8d3c 99b7 58bd d27b 0b3e
000001e0: 47ad 643e 7075 ddbd f87a fabd f4c8 dc3d
000001f0: 7732 12be f564 a73c d36a 073a 6e85 efbc
0.16975321 0.049200732 0.1931335 -0.058547504 -0.089553006 -0.025591657 0.020154733 0.1549503
0.06847624 0.13679974 -0.16373412 -0.17552893 0.09037357 0.082587324 -0.10131024 0.061725087
-0.07228611 -0.02685504 -0.081129685 -0.011036625 0.2084725 0.09396636 -0.055300333 -0.110243976
0.05182204 -0.13460095 0.10115848 0.1983064 -0.13007833 0.20935057 -0.019608125 -0.011261311
-0.07978782 -0.110158615 0.15812193 -0.017656012 -0.049837187 0.18441384 0.08202947 0.03049619
0.14706248 0.052147992 -0.0152451275 -0.011965448 -0.11453338 0.031099191 0.07108438 0.071069635
0.008458782 0.1142527 0.13159211 0.015533696 -0.09523241 0.14488426 0.1442134 0.03045734
-0.030027216 0.13982952 -0.14036185 -0.11098878 0.1327913 0.10606512 -0.016926939 -0.0842798
0.0045657274 -0.07018532 -0.1339785 -0.042064615 -0.020116687 0.049076036 0.18172795 0.21875241
0.16789071 0.17590182 0.0959755 -0.06106997 0.06533458 0.13709229 0.13353822 0.123652846
-0.027752167 -0.08924757 -0.07017667 -0.110701025 0.106559254 0.067003 -0.1786321 -0.047816627
-0.06543795 -0.055187535 0.17013204 -0.019286461 -0.13428569 0.17215073 0.008490683 0.19040951
-0.040328503 -0.12796667 0.15639733 0.0076016197 0.1628572 0.08497986 0.07041196 0.17480987
-0.019636491 0.041582827 0.11480563 -0.18372992 -0.030475615 0.20862812 0.14751652 -0.055925466
-0.14805026 0.08773962 -0.07765735 -0.046411596 -0.101415984 0.017247323 -0.052909467 0.13621452
0.22331725 -0.10813415 -0.12230486 0.10780516 -0.14277063 0.020433882 0.00051657594 -0.029238429

weight f4 [128, 1, 5, 5]
00000000: eacd 173e 4021 d63c c0da 9c3c 9a4c 03be
00000010: ea7b 803d 977c c83d ad73 2dbe 5da6 dfbd
00000020: 72b5 013e 7a77 423d 32f6 183e dddd 06be
00000030: 6ed2 943d 58a7 153e 07c3 85bd 1ad9 ec3c
00000040: a050 0d3e e546 32be 40d9 e83c 6dc9 463d
00000050: 9d53 b03d 0dd6 65bd 2742 f1bd e7e4 eebd
00000060: 3750 f9bd f00e 233e aada eabd fa7f 1cbe
00000070: 4ddf e83c b360 c03d 474a ba3d 5f27 163e
00000080: 0a2e 3dbe 7dcb 2abe 40d0 8fbd 8858 38be
00000090: 62b1 0fbe a5ae bb3d 3762 22be 2fec 083e
000000a0: 9adc d33b edb2 65bd 77d5 09be f33c 2cbe
000000b0: 88eb 093e 400a 73bd b278 053e aad2 15be
000000c0: cd6c 01bc 0386 843d 33c8 79bd 874a 92bd
000000d0: 5003 a93d 339d a9bc 3a5d 86bd cdbf 633c
000000e0: 2fef 24be 1072 8bbd 2382 d1bd 678b fcbb
000000f0: c08f 47be fd93 2b3e db15 22be b35e 8c3c
00000100: c32f f4bd 20e3 283d 8768 d03d e7e6 9abc
00000110: 2d2f 7b3d e70e f73d f0e2 d53d d58f 49be
00000120: 67b6 9d3c 67ac 11bc 0d4b a0bd 1a0d c03c
00000130: 833d 973d 8ba5 2bbe 9786 fe3d fd7a ffbd
00000140: 3de3 cfbd d87d 42be 973b f83d 0a06 04be
00000150: 9add 41bc adc4 38bd cdb2 963c 8b6a 0fbe
00000160: fa55 ef3d 4b06 333e e5bb 04be fa0d 0b3e
00000170: 73ab 58bd 9b75 3ebe 7305 463e 179c fbbd
00000180: 8dc4 d5bc 33ba f9bd d7d6 1e3e a34c 9a3d
00000190: db66 32be f006 09be bdb4 2bbe 0020 a03d
000001a0: 37be 2bbe 3a95 103d 8d10 8dbd 8d5d 83bc
000001b0: 4d17 10be 4052 70bd 87b0 7cbd 13fd 093e
000001c0: 0f7e 2dbe 1ab2 16be c253 25be aab6 a7bd
000001d0: 33b9 d83d 338d 23be a78f 36bd 2ad0 003e
000001e0: 07c4 febd 4d60 9b3d 6313 393e 0f24 043e
000001f0: 0dd0 09bd 736e bebc 2d32 b3bd 45b9 343e
00000200: 0de4 b73d 2b3f 17be babc dcbd 4013 f53d
00000210: 2dc2 203e 2003 3cbe 4b5d 0c3e 6728 eb3b
00000220: 33e1 7d3d 0974 08be 67a3 0e3d 55f5 003e
00000230: d311 043e cd17 d53c f396 4a3e 4377 853d
00000240: 5588 12be 97a6 bfbd e05c 033e 101f 2cbe
00000250: 420c 373e d275 0abe d0da 2c3e 53ce dc3d
00000260: 4382 b43d 505b 1bbe aa76 04be 3759 333e
00000270: 90cf 95bd b5b0 0e3e c781 403d 2baf 1bbe
00000280: 3726 82bd 3791 1c3e 42f5 27bd f3a2 e0bd
00000290: b3f8 0a3e aff2 30be aad3 04be 2b0d 18be
000002a0: 677b a3bc 404c 86bc cd6a babd 6d38 553d
000002b0: fb16 013e 772f 43be 0854 16be c0e4 cd3c
000002c0: 6874 46be 1dd1 113e 003a 003d cd47 593c
000002d0: fa7e 08be f329 aebc 40cc 153e e093 8ebd
000002e0: 2dde d13d cdf0 93ba 6716 44be f654 043e
000002f0: 2fa8 083e 67f7 5ebd afa5 49be 9b76 06be
00000300: 1a4a 6f3d fd33 ddbd d5ce 17be 583d 16be
00000310: 3079 3bbe c00b 1bbe a76f 6a3d 539e 0a3e
00000320: 4097 2cbe da3e e13c c734 293e 53fe 493d
00000330: 00ec 0b3c b5d9 22be 609c bb3d 1fdc 283e
00000340: 8068 df3d c07f 61bd d589 14be 53aa 333d
00000350: c49e 86be 02c2 32be b38a d2bc 33f7 e33d
00000360: 906e 213e e7f7 d9bd cb0a 293e 725a 1cbe
00000370: 5a75 51bd 807e c23c bb3e 143e f595 23be
00000380: 3d55 d5bd 5213 163e 13ec a93d 2dc9 343e
00000390: b230 243e 2de5 363e 8734 023d c3e9 f23d
000003a0: 3b6b 00be 272e 2f3d 03fc c43d 9dd4 1ebe
000003b0: 62c4 3abe 28a8 46be 90c7 333e 1ad7 a5bd
000003c0: 3361 ff3c 8753 d2bd 7585 1ebe 5aab 3d3e
000003d0: b307 dabc d318 a4bd 2776 ad3c f32e abbc
000003e0: 82d2 2f3e 8096 973c 22c2 333e 3a3b 9bbd
000003f0: 00d4 7ebb 0707 3abe cdac 10ba 02f1 11be
0.14824644 0.026138902 0.019147277 -0.1282219 0.06273635 0.097893886 -0.16938658 -0.10920403
0.12666872 0.047477223 0.14937666 -0.13170572 0.07266699 0.14614618 -0.06531339 0.028912116
0.13800287 -0.17409857 0.028423905 0.04853194 0.08609698 -0.056112338 -0.11780196 -0.116647534
-0.12173503 0.15923667 -0.11467488 -0.15283194 0.02842679 0.09393444 0.090961985 0.14663456
-0.18474594 -0.16679187 -0.070221424 -0.18002522 -0.1403251 0.0916417 -0.15857778 0.13371347
0.0064655067 -0.05607884 -0.13460337 -0.16820125 0.13468754 -0.059335947 0.13034323 -0.14631143
-0.007899475 0.06470873 -0.06098194 -0.07143121 0.08252585 -0.020704841 -0.0656075 0.013900709
-0.16106866 -0.06808865 -0.102299 -0.0077070477 -0.1948843 0.16755672 -0.1582865 0.017135
-0.11923172 0.04123223 0.10176187 -0.018908931 0.061324287 0.12063389 0.104436755 -0.19683774
0.019252015 -0.008891202 -0.07826815 0.023443747 0.07384779 -0.16762368 0.12428015 -0.1247463
-0.10150764 -0.18993318 0.12120741 -0.12892929 -0.011832619 -0.04510944 0.018395806 -0.14005487
0.116863206 0.1748287 -0.12962301 0.1357955 -0.05289788 -0.1859955 0.19338016 -0.12285631
-0.0260947 -0.12193718 0.15511642 0.075341485 -0.17422049 -0.13381553 -0.16768165 0.078186035
-0.1677178 0.035298564 -0.068879224 -0.01603582 -0.14071389 -0.05867219 -0.061691787 0.13475446
-0.16942619 -0.14716378 -0.16145232 -0.08189137 0.10582199 -0.15971832 -0.04457059 0.12579408
-0.12439733 0.07586727 0.18073802 0.1290438 -0.03364568 -0.023246026 -0.08749805 0.176488
0.08979044 -0.1477019 -0.10778184 0.11966562 0.15699072 -0.18360567 0.13707463 0.007176447
0.061982345 -0.13325514 0.0348238 0.12593587 0.12897424 0.026012326 0.19784145 0.06516888
-0.14309819 -0.09357946 0.12828398 -0.16808724 0.1787577 -0.13521507 0.16880345 0.10781541
0.08813908 -0.15171552 -0.12935892 0.17514502 -0.0731498 0.13934596 0.046998765 -0.1520354
-0.06354945 0.1528977 -0.04100538 -0.1096858 0.13571434 -0.17280076 -0.12971368 -0.14848773
-0.019956304 -0.01639378 -0.09102402 0.052055765 0.12606423 -0.19061075 -0.14680493 0.02513349
-0.19380343 0.14239927 0.031305313 0.013261748 -0.13329688 -0.021260237 0.14628696 -0.06961799
0.10247455 -0.0011286974 -0.19149171 0.12923035 0.13345407 -0.05443516 -0.1969211 -0.13131182
0.058420278 -0.108009316 -0.14824994 -0.14671838 -0.18307948 -0.15141201 0.057235386 0.13536958
-0.16854572 0.02749579 0.16524039 0.049314808 0.0085401535 -0.15903361 0.091606855 0.1649022
0.10908604 -0.055053473 -0.14505704 0.043863606 -0.26293004 -0.1745682 -0.025700903 0.11131134
0.15764832 -0.10642987 0.16508023 -0.15268877 -0.051137306 0.02374196 0.14477055 -0.15975173
-0.104166485 0.14655808 0.08296981 0.17654867 0.16034201 0.17860861 0.031788375 0.11860993
-0.12540905 0.042768624 0.0961838 -0.15510793 -0.18238977 -0.19400084 0.17556596 -0.08097668
0.031174278 -0.10269838 -0.15480597 0.18522397 -0.026615 -0.08012547 0.021174503 -0.02089641
0.17170146 0.018504381 0.17554525 -0.07579656 -0.0038883686 -0.18166743 -0.00055189134 -0.14252093

bias f4 [128]
00000000: 8e6f 193e 1bec 0d3e 7679 81bd aea6 cd3d
00000010: 0142 0d3e c2fb 453e bd28 033e 600b 17bd
00000020: 3b06 c1bd ee20 413c c4c8 2bbe 58f5 86bd
00000030: 04cb a1bd da2f 263d 7554 93bc 5ee1 1f3e
00000040: cc31 bf3d 77e7 663e f9eb 213e fb3c 90bd
00000050: 3d76 99bd 4d2a 463e c206 363e 30f6 e9bd
00000060: 16f5 2fbe e718 c4bc 362d d23b d6ce d43d
00000070: d6f7 113e c48f e2bd 00fd d3bd 9350 15be
00000080: 2d95 15be 003e 833d 1f2b c7bd 3db7 b5bd
00000090: 4033 f5bd a5da c1bd e224 363e 3b6b 1dbd
000000a0: 7cb5 e5bd f323 18be 5f6a 87bc 6643 47be
000000b0: 6dce e5bd 073e 1fbd e4f3 40be 93d1 31be
000000c0: b403 65bd beba 403d bcbd 4e3c 20ea b93d
000000d0: 0d34 d6bd ea26 2bbe c6df c83d 797a 11be
000000e0: 1aad dabd eeeb 20be 1771 193e 5253 6dbd
000000f0: 3c8d ef3d 7672 993d 609f dabd ca9c a03d
00000100: 196e aabd 6d0e c3bd c13e 3dbe ff87 f93d
00000110: 4881 d13c 29f9 a7bd 012c bebd 86d8 b8bd
00000120: d60f b9bd af9c 7cbd 16bc 7c3d 1bba 303d
00000130: 9e17 e63d 67f5 1b3e 5354 4a3d c2ae 32be
00000140: 6514 90bd 3eaf 1c38 128d 33be 8616 ac3d
00000150: a6d6 8bbd df8b 2dbd cdd1 6cbd 84ee 29be
00000160: cc38 bf3d 4866 01be e14f f03d 04a8 a63d
00000170: f2a7 373e c4c1 e2bb cdbe 7fbe 90c5 973d
00000180: 72c0 7abd 900a cfbd 5435 293e e7a3 34bd
00000190: f32e a8bd 0f5b 49be 8223 2e3d 4dc9 133e
000001a0: f087 033e 48f4 06be 022c 4a3d 87ac d03d
000001b0: 70b1 fbbd 3c90 20be b9ae c53d c8b1 5f3e
000001c0: d7a1 82bd 361d 5fbe f223 35be 1b52 81bb
000001d0: fa05 183e 6231 6b3d de4a 5bbd c247 d839
000001e0: 03c2 2dbe bddb bcbd e861 08be dc26 b7bd
000001f0: 7fd7 d2bc 409f 36be 2294 bc3b 5231 5c3e
0.14983961 0.13859598 -0.06321995 0.10041557 0.1379471 0.19334319 0.12808509 -0.036876082
-0.094250165 0.011787636 -0.16775805 -0.06589764 -0.0790005 0.04057298 -0.017984608 0.15613315
0.0933567 0.22549234 0.15812673 -0.07042881 -0.07493255 0.19352074 0.17776015 -0.1142391
-0.17183337 -0.023937656 0.006414081 0.10391013 0.14254698 -0.11062577 -0.1035099 -0.14581518
-0.14607687 0.0640831 -0.097250216 -0.088728406 -0.11972666 -0.09465531 0.17787507 -0.03843234
-0.11216256 -0.14857464 -0.016530214 -0.19459304 -0.11221013 -0.038877513 -0.18843037 -0.17365102
-0.055911735 0.04705309 0.012618478 0.09077859 -0.10459147 -0.16714063 0.098083064 -0.14206876
-0.10677548 -0.15715 0.14984547 -0.05794079 0.1169686 0.07492535 -0.106749296 0.07842405
-0.08321781 -0.09524236 -0.1848097 0.12184142 0.025574341 -0.082018204 -0.09285737 -0.090256736
-0.090362236 -0.061672863 0.06170281 0.043146234 0.11234973 0.15230332 0.049396824 -0.17449477
-0.0703514 3.7356505e-05 -0.17534283 0.084027335 -0.0682805 -0.04236972 -0.05781727 -0.16594893
0.09337005 -0.12636673 0.11733986 0.08137515 0.1793516 -0.0069200713 -0.24975128 0.07410729
-0.061218686 -0.101094365 0.1652425 -0.044101622 -0.0821208 -0.19663642 0.04251433 0.14432259
0.12844825 -0.13179123 0.049358375 0.10189157 -0.12289703 -0.15680021 0.09652466 0.21845162
-0.06378525 -0.21788487 -0.17689493 -0.0039465553 0.1484603 0.057420142 -0.053538196 0.00041252194
-0.16968541 -0.09221599 -0.13318598 -0.08942959 -0.025737522 -0.17834187 0.0057549635 0.21503189
