E-GraphSAGE/experiments/binary_model/GAT_NF-BoT-IoT_best_model.pth (torch, 294384 bytes, 14 tensors)

attn f4 [1, 1, 128]
000000 47 0b bf 3d 71 f7 81 bd d8 f7 77 3e ac fc ef 3d
       0.09328323 -0.06346024 0.24215639 0.11718115
000010 1a 91 d6 bd 90 25 eb bd da 5b 80 be 04 59 88 be
       -0.10476895 -0.11481774 -0.25070077 -0.26630414
000020 bf 56 76 bd a4 bd ef 3d 78 6b 13 3d a6 d7 93 3d
       -0.06014132 0.11706093 0.035991162 0.07218866
000030 cb 97 44 3d 12 30 22 3e 51 5c a2 3d 77 69 51 bd
       0.047996324 0.1583865 0.07927764 -0.05112597
000040 95 58 27 3e e6 25 12 3d 1b bb 40 3d ed 3b fd bd
       0.16342385 0.035680674 0.047053438 -0.123649456
000050 96 a3 86 be 9d ae 22 3e 95 bf e6 bd 52 21 6e 3d
       -0.2629668 0.15886922 -0.1126701 0.058137245
000060 0f 2c 6b be e6 96 3b be 44 4d 39 3e eb 53 d4 3d
       -0.22966026 -0.18319282 0.18095881 0.103675686
000070 68 86 e9 bd d3 02 b2 bd 45 c2 05 be d5 65 2b be
       -0.11402589 -0.08691945 -0.13062389 -0.16738065
000080 e6 75 ed 3c 3f d6 4a 3b e0 09 12 3c cc 5d 91 bb
       0.028986882 0.0030950455 0.008913487 -0.0044362303
000090 83 e7 7c bd e7 65 7f bd 9a a4 0d 3d 9c e3 7e 3d
       -0.061744224 -0.06235304 0.034580804 0.062228784
0000a0 d8 48 8d b9 88 5d c4 bd 73 84 b1 bd 30 05 ed bc
       -0.0002694789 -0.09588152 -0.08667841 -0.028933138
0000b0 42 5c c1 bd 84 17 2a be 59 29 d5 bc 7a 52 4b 3b
       -0.09441425 -0.16610533 -0.026020693 0.0031024502
0000c0 96 74 af 3d 4d 8f 69 3c 8e 64 2c be af 4e 7b 3c
       0.08567159 0.014255357 -0.16835234 0.015338584
0000d0 8f ba 59 be df 0c 29 3e 9c 17 3c be fc 55 3a be
       -0.21262573 0.16508816 -0.18368381 -0.18196863
0000e0 7c 5f af bd 6f 0d 0d 3e 7a e9 2a 3e 8f f1 3e be
       -0.08563134 0.13774656 0.16690627 -0.18646835
0000f0 b3 80 c1 3d 93 b6 61 be d8 3b be 3c 97 55 cb bd
       0.094483756 -0.22042303 0.023221895 -0.09928434
000100 f0 2e 4b be 4f 10 d8 bd e3 08 2c 3e 42 4a a7 3d
       -0.19842124 -0.105499856 0.16800265 0.081684604
000110 63 4b 28 bd da cc 19 bd 41 22 07 be d7 a6 39 bd
       -0.04108752 -0.037548877 -0.1319666 -0.045325126
000120 11 1a c8 3d d5 fd df bd 7e b1 41 be e1 8e ed bd
       0.09770597 -0.109370865 -0.18915364 -0.115995176
000130 9d 3e cb bd db e2 11 be a3 db ac bd 68 ec 2e 3e
       -0.09924052 -0.14246695 -0.0844033 0.1708237
000140 40 a3 26 3e 7d 06 d3 3d 8f 83 7a 3d 7f 22 9a 3d
       0.16273212 0.10303972 0.06116062 0.07526111
000150 86 19 05 bd e3 ef d8 bd 37 82 00 be 3c 81 dc bd
       -0.032495044 -0.1059263 -0.12549673 -0.10766837
000160 18 82 76 3e 50 9d 07 be 25 d3 a2 bd 80 a5 a9 3d
       0.24073064 -0.13243604 -0.07950429 0.0828352
000170 6d 24 12 be c0 b6 3a be e8 5a 8a 3d 39 c9 50 3d
       -0.14271708 -0.18233776 0.0675562 0.05097315
000180 1d 2b 1c 3d a3 d0 33 be e5 58 94 bd 21 84 1e 3d
       0.038127054 -0.17560057 -0.07243518 0.038700227
000190 26 71 8a be 7f 8f 39 be 9f a4 b3 bd 3e 1d 18 bc
       -0.2703945 -0.18121146 -0.08771633 -0.009284316
0001a0 b7 0e 39 3d 0b 80 84 bc 82 bd 52 3e 97 9e 76 3e
       0.04518005 -0.016174337 0.20580104 0.24083935
0001b0 a6 f3 f4 bd ff ac 3e bd a0 14 d8 ba 92 9d 87 be
       -0.11960535 -0.0465517 -0.0016485639 -0.26487404
0001c0 6c fd ba bd b9 f6 15 be 44 d9 7e bd 6c 67 39 3e
       -0.09130368 -0.14644898 -0.06221892 0.18105859
0001d0 6f ac 2b bd ed dc ec bc ef c3 b7 3d c0 cb bf 3d
       -0.041912492 -0.02891394 0.08972918 0.09365034
0001e0 18 12 6a 3d 5a 3b eb bc 21 7c e5 3d a8 f6 3a be
       0.05714616 -0.028714824 0.11205316 -0.18258154
0001f0 88 96 24 bd 99 73 88 be 73 e5 7e 3d 72 24 a1 bd
       -0.04018262 -0.26650694 0.06223054 -0.078682795

bias f4 [128]
000000 87 41 f1 b8 eb 95 ac 38 72 be 8b b9 09 c2 76 ba
       -0.00011503981 8.2295235e-05 -0.0002665404 -0.0009413069
000010 2b 42 13 39 a6 d0 6b 3a 69 dd 7e 3a cd a4 7c 3a
       0.00014043662 0.00089956296 0.0009722324 0.00096375943
000020 1c 38 e7 b8 13 85 2e ba 9d 15 75 b9 93 85 6b ba
       -0.000110253895 -0.0006657403 -0.00023373072 -0.00089844427
000030 8a c6 07 b9 4f 1c 7e ba da 3e 6f ba 08 8b 6c 3a
       -0.00012948565 -0.00096935494 -0.0009126492 0.0009023403
000040 14 5a 81 b8 9e dc 2c ba 67 fa 75 ba da 6e 25 3a
       -6.167978e-05 -0.0006594154 -0.0009383321 0.00063107687
000050 3e 48 80 3a 55 d1 74 ba f6 45 0f 39 e7 ea 24 b9
       0.0009787155 -0.0009339054 0.00013663605 -0.00015727767
000060 44 16 7f 3a e8 00 56 39 21 26 57 b9 d2 bf 7a ba
       0.0009730796 0.00020408968 -0.00020518202 -0.00095653266
000070 c7 63 76 3a fc 36 71 3a fb e4 73 3a 68 26 07 39
       0.0009399023 0.0009201614 0.0009303835 0.0001288891
000080 42 20 74 ba 72 a6 9e b9 16 eb 65 b8 52 9e 14 3a
       -0.0009312668 -0.0003026012 -5.4816795e-05 0.00056693435
000090 b3 72 38 ba c1 d1 a9 38 c6 e6 66 ba 64 e1 33 ba
       -0.00070361345 8.097618e-05 -0.00088081916 -0.0006861894
0000a0 55 f9 42 ba a3 a1 f8 38 75 1f 67 3a e6 57 1d 38
       -0.0007437666 0.00011855669 0.0008816638 3.751358e-05
0000b0 a4 53 fb 38 11 12 46 39 2d d0 61 ba 81 a1 55 3a
       0.00011984192 0.00018889482 -0.00086140895 0.0008149371
0000c0 5e 08 df b8 a6 37 34 b8 82 d2 25 39 be 99 77 ba
       -0.00010635027 -4.296717e-05 0.00015814046 -0.00094452116
0000d0 7a b4 5d 3a 62 dc 43 b9 c9 7b 56 39 8d 9a 4e 3a
       0.0008457374 -0.00018678748 0.00020454744 0.0007881306
0000e0 a3 cc c1 38 ea e1 6a ba 5a a4 c3 b9 e4 cf 7a 3a
       9.241074e-05 -0.00089600554 -0.0003731575 0.0009567721
0000f0 cb 97 7f ba 1d 7a 7f 3a 71 32 4e ba 25 8a 00 39
       -0.0009750097 0.00097456743 -0.0007865793 0.00012258494
000100 74 5a 5e 39 62 a7 78 3a 7f 0c 73 ba 6e 1a 56 ba
       0.00021205266 0.0009485391 -0.00092715764 -0.00081673905
000110 8c de 3e 3a c8 95 3f 3a 9e ad 75 3a 4c 60 44 3a
       0.0007281087 0.0007308391 0.0009371879 0.0007491156
000120 b4 73 75 ba c0 f0 74 3a 11 59 49 39 eb 74 95 39
       -0.00093632494 0.0009343736 0.00019202034 0.00028506605
000130 ec 1a 56 3a 66 b5 67 3a 88 de 4a ba fc 19 73 ba
       0.0008167464 0.0008838981 -0.0007738848 -0.00092735863
000140 fa 54 40 b9 5b 69 a2 b9 3a cf 01 ba 92 8a 40 ba
       -0.00018342203 -0.00030977544 -0.00049518386 -0.00073448673
000150 e0 49 6b ba 25 43 74 3a 51 cb 75 3a 81 9b 7d 3a
       -0.0008975547 0.00093178666 0.0009376305 0.0009674356
000160 be 53 7c ba 6b 0d 79 3a 27 d4 60 3a 28 b3 0c ba
       -0.00096255157 0.00095005956 0.0008576535 -0.00053672725
000170 0f 97 2e 39 77 28 55 39 aa da b3 b8 18 3c 12 ba
       0.00016650207 0.00020328337 -8.5761145e-05 -0.00055784127
000180 dd e6 0c ba 8b 3a 7c 3a b0 66 d5 38 9c 25 6f ba
       -0.00053749775 0.00096217607 0.000101757585 -0.00091227307
000190 f2 db 7a 3a 93 b5 54 39 d5 88 57 3a da 1e 78 ba
       0.00095695176 0.00020285537 0.00082219887 -0.00094650465
0001a0 38 41 75 ba 1d 1b 6d ba 0b 14 60 b9 e6 c3 34 b9
       -0.00093557267 -0.0009044873 -0.00021369771 -0.00017239116
0001b0 41 f6 6c 3a 51 7f 9d 38 f5 ad 5d ba cf 5a 80 3a
       0.000903938 7.510058e-05 -0.00084564026 0.0009792688
0001c0 25 1b 1a 39 c4 f5 79 3a e3 db a8 38 d7 cf 79 ba
       0.00014696697 0.0009535218 8.051821e-05 -0.0009529567
0001d0 99 fd 32 ba 97 cd 38 3a 91 5f ee b8 e9 8d 7a ba
       -0.000682795 0.0007049678 -0.00011366525 -0.00095578894
0001e0 71 7a 62 ba c0 b4 13 ba 58 47 13 b9 53 17 56 39
       -0.0008639461 -0.0005634539 -0.0001404559 0.0002041732
0001f0 49 20 5c 3a de f7 77 3a 65 69 35 b8 c4 3d 23 3a
       0.0008397145 0.00094592373 -4.325192e-05 0.00062271603

weight f4 [128, 8]
000000 ac 88 7e bd 95 72 d6 3b 9b 49 85 bd 17 66 3e 3b
       -0.06214206 0.006544421 -0.0650818 0.002905255
000010 e6 90 98 3e 4f b9 16 be d3 88 7a be 57 1e 92 be
       0.2979805 -0.14719127 -0.24466257 -0.28538772
000020 e4 28 b7 bc 0f a3 b1 bd 2f 94 16 3e 48 00 09 3d
       -0.022358365 -0.08673679 0.14704965 0.033447534
000030 99 1e 72 3e e2 e0 67 bc 9a a9 95 bd df b1 e5 bd
       0.23644485 -0.014152737 -0.073077396 -0.11215567
000040 94 b5 f6 3d 41 f3 06 bd 08 15 0c be 1c 3d 41 bb
       0.12046352 -0.03294683 -0.13679898 -0.0029485887
000050 4b 3c 05 be 33 c4 f5 bd e4 1a 06 be 24 23 45 3e
       -0.13011281 -0.12000313 -0.13096195 0.19251686
000060 5d 1d 99 bd 0e de ca 3e 4f 33 4a bd 6b e5 2f be
       -0.07476304 0.3962254 -0.049365338 -0.1717736
000070 ff 2d 6c bd f5 b2 73 3e a6 d5 19 3e f0 35 78 3e
       -0.057661053 0.23798735 0.15022907 0.24239326
000080 fb 52 c1 3d 14 42 c8 3c d6 7a 83 be b8 37 16 be
       0.094396554 0.024445571 -0.25679654 -0.14669693
000090 70 45 34 bd 8b ad cc 3d 86 34 21 3e da 00 22 bd
       -0.044011533 0.09994038 0.15742692 -0.039551593
0000a0 41 b3 f2 bd d6 b4 99 3d 9a 3f 5e 3d 42 22 50 3e
       -0.11850596 0.07505195 0.054259874 0.20325568
0000b0 be 61 04 bd c6 c2 a2 3d dc cd 67 3e 56 d7 ff 3d
       -0.032319777 0.07947306 0.22637123 0.12492244
0000c0 da 45 0b be fb 4b 67 bc c1 59 b1 be f5 c4 69 3c
       -0.13600865 -0.014117236 -0.3463879 0.01426815
0000d0 76 18 af bd ed e2 ff 3d ed 44 74 bd 2b 06 99 be
       -0.085495874 0.124944545 -0.059636045 -0.29887518
0000e0 ee f8 f1 bd 3e b3 1c bd f6 81 e7 bd e6 73 2b be
       -0.11815058 -0.038256876 -0.11304085 -0.1674343
0000f0 87 e3 22 3d c1 01 0d be 85 44 cf be 82 f0 1e be
       0.03976777 -0.137702 -0.40481964 -0.15521434
000100 b7 d1 db 3d 1d db 99 3e db ac 9c bd 51 e7 f1 bd
       0.10733359 0.30049983 -0.07650157 -0.11811698
000110 00 6b b3 bd 1d 0e 2f be e4 82 88 3d 1e 3f a2 3e
       -0.08760643 -0.17095228 0.066655904 0.3168878
000120 a4 22 81 be 5b ff 4b be 5b cd db 3d 83 f2 4f 3c
       -0.2522174 -0.19921629 0.10732528 0.012692097
000130 4d 46 2e 3e f7 44 1c bd 85 e0 35 be 62 fc aa bd
       0.17019005 -0.038151708 -0.17761429 -0.083489195
000140 91 27 f9 3c 24 60 ea bd 7b fd 9a 3e 7d 9c 8e be
       0.030414375 -0.114441186 0.30271515 -0.27853766
000150 48 47 46 3e bc 8d 88 3d 4d 3a 86 bc 5f 75 ef bd
       0.19363129 0.06667659 -0.016385222 -0.11692309
000160 7a c9 b2 3d 22 ad c2 bd 94 5f 83 3c ea a1 3b bd
       0.08729835 -0.09505679 0.016036786 -0.04580871
000170 2d dc 63 bc 73 71 ce bd 55 74 52 be b5 50 fa bc
       -0.0139074745 -0.100802325 -0.2055219 -0.030556062
000180 40 d3 20 be 81 ce 45 bd 20 de 99 be 24 7a 60 be
       -0.15705585 -0.04829264 -0.3005228 -0.21921593
000190 f4 66 1b 3e c2 5f ea bb 68 9e 21 3e 6f 3b b0 bc
       0.15175992 -0.0071525285 0.15783083 -0.021512715
0001a0 41 ce 55 3e e9 f5 89 3c 89 d5 9a bd 1d 4c d1 3c
       0.20879461 0.016840892 -0.0756026 0.025548989
0001b0 fc 03 42 bd e5 5c 10 be ee 43 5a be 82 bd 8c 3d
       -0.04736708 -0.14097936 -0.21314976 0.06872083
0001c0 b9 5e 29 bd 3f 87 1f 3d e3 bd 49 be 2a 71 79 3e
       -0.0413501 0.03894734 -0.19701342 0.24359575
0001d0 8a 54 30 be 40 67 d4 bd c7 0c 4d 3e 50 38 78 be
       -0.17219749 -0.10371256 0.20024405 -0.24240232
0001e0 a1 ab f3 3c 4a e4 d1 bd cc 81 f4 bd d5 40 c9 3c
       0.029744925 -0.10248621 -0.11938819 0.024567047
0001f0 7b 48 8c 3e 57 ec 88 3e 95 b6 87 3c c5 07 91 3e
       0.27399048 0.26742813 0.016566554 0.2832624
000200 0b 28 07 3e 5f 13 1a be 53 c2 85 3d 1d 4e 9c 3d
       0.13198869 -0.15046452 0.06531205 0.076320864
000210 aa 93 d6 bd 1c 53 b7 3e 0b 36 e5 bd 5e ac de bd
       -0.104773834 0.35805595 -0.111919485 -0.1087272
000220 de 6e 38 be 86 2f 51 3e 9e 99 55 3e c8 af 2c 3e
       -0.18011042 0.20428285 0.20859382 0.1686393
000230 22 8d 02 3c 85 89 98 bd 16 45 b4 3d af b7 b1 bd
       0.007968219 -0.07448105 0.088022396 -0.08677613
000240 e1 a4 4e 3e 89 5c ae 3e 9e dc 6d be b0 9e 4c 3e
       0.20180084 0.34054974 -0.2322869 0.1998241
000250 3f c8 2c 3e 04 d9 ff bd 74 9d 31 be ab 3e 91 3e
       0.16873263 -0.12492564 -0.1734522 0.28368124
000260 c2 5f dd bd a2 ae 3d ba 44 b9 8e 3e 27 c6 02 3e
       -0.1080928 -0.00072358 0.2787572 0.12770902
000270 f6 27 9f bd 8b d2 a1 3d e0 fd 33 3e 05 85 f6 bd
       -0.07771294 0.07901486 0.17577314 -0.1203709
000280 41 07 07 bd 21 09 53 3c 0f f5 20 3c 14 9a 9c be
       -0.032965902 0.0128805945 0.0098240515 -0.30586302
000290 d3 5f 79 be 14 e9 4d 3e 87 cc 1d 3e 8d 99 7b 3e
       -0.2435296 0.20108443 0.15410052 0.24570294
0002a0 b4 a3 a3 bd a1 d1 3e be c2 3d 99 bd 71 12 2f 3e
       -0.07990208 -0.18634655 -0.074824825 0.17096879
0002b0 d1 e6 92 3b a0 09 19 be ef af ee bc 66 bd 8e 3c
       0.004483082 -0.14945078 -0.029136626 0.017424297
0002c0 dd 39 8d 3d f5 c9 1c be de 67 0f 3c 44 a8 64 3d
       0.06895802 -0.15311415 0.008752791 0.055824533
0002d0 9d c2 7a 3e db 42 80 3e 6c 1b 32 bd 38 b8 11 bd
       0.24488302 0.25051007 -0.043483183 -0.035576075
0002e0 30 4b 24 be 83 78 21 bd 18 a8 34 be df 6f 18 be
       -0.16044307 -0.03942157 -0.17642248 -0.14886425
0002f0 65 1a 05 3b cc 27 00 3c 57 f8 84 3e 2f fa b6 3b
       0.0020309922 0.007821988 0.25970718 0.0055840234
000300 62 96 de bc 27 16 39 3e ef 97 cd 3d 5a 77 14 3d
       -0.027171317 0.18074857 0.10038745 0.036246635
000310 3c 91 d5 bd 75 90 18 ba 5f bd 42 be 9f 30 6f be
       -0.10428092 -0.00058198656 -0.19017552 -0.23358391
000320 84 bd 4c 3d 95 57 c1 3e 90 42 37 3a e7 3c 9b 3e
       0.049985424 0.37762132 0.00069908146 0.30319902
000330 18 3c c1 b9 93 ec 26 3e 0f 38 55 3c e5 f7 e4 bc
       -0.00036856602 0.16301183 0.013013854 -0.027950237
000340 93 76 f1 bd 31 63 01 be 76 d8 97 3e ca d0 6c bc
       -0.11790194 -0.12635495 0.29657334 -0.014454076
000350 da 19 eb bb c3 ed 33 be ab e0 c9 3c 96 57 84 3e
       -0.0071747126 -0.17571168 0.024643263 0.25848073
000360 9d f1 51 3b 74 6a a1 bd 03 7e 9f bc 42 88 90 3e
       0.0032034882 -0.078816324 -0.019469267 0.28228956
000370 d4 d6 fc 3b 88 44 36 be 19 14 98 be 6d 4e 3e 3d
       0.007716039 -0.1779958 -0.29702833 0.04646151
000380 38 76 96 3c 4d fe 3c 3e 0b 2c ca 3c 5a 38 ab be
       0.018366918 0.18456383 0.024679204 -0.3344143
000390 1b 2d 41 be e0 9e 35 be c4 2d 09 3d 6b 85 00 3e
       -0.18864863 -0.17736387 0.03349091 0.12550895
0003a0 d8 5f 58 3e 69 88 8f 3e 4f 91 bd bd 16 35 8f be
       0.21130311 0.2803376 -0.09256231 -0.2797019
0003b0 8d 4a 4e be 77 83 f9 3d 53 8b 10 3d 78 70 96 3b
       -0.20145626 0.12183278 0.03528912 0.004591044
0003c0 8c 90 a0 bd d0 38 bd 3d 98 14 2d 3e 05 8b b2 bd
       -0.0784007 0.09239352 0.16902387 -0.08717922
0003d0 4f e7 8f be 96 b8 d9 3e c8 a3 5d 3e 91 db 09 3d
       -0.28106162 0.4252364 0.21644509 0.03365666
0003e0 96 ce b9 3d 44 34 ed 3c 48 1f 28 bd 17 75 07 bd
       0.09072606 0.028955586 -0.041045457 -0.03307065
0003f0 98 90 8e be 87 ff f5 3d ae bb fc bd b3 2d 3c 3d
       -0.2784469 0.120116286 -0.123404846 0.04594202

weight f4 [128, 8]
000000 91 74 0d be fb 67 0b bc d6 99 86 be ee 2a 9f 3c
       -0.13813998 -0.008508678 -0.26289243 0.01942965
000010 bf 0f 2e 3e 9f bc 0c bd 71 37 a7 bd 7e ef 0a 3e
       0.16998194 -0.03435957 -0.081648715 0.13567922
000020 81 4e 8a be ac 3c 39 be cb 69 15 be 4c 4e d7 bd
       -0.2701302 -0.1808955 -0.14591138 -0.10512981
000030 a1 bf 01 be 2d f4 a3 3e c6 38 98 be 30 48 43 3d
       -0.12670757 0.3202223 -0.29730815 0.047676265
000040 28 1d 5b be 01 80 79 3e 10 6c 74 be ec 7b 23 3e
       -0.21397841 0.24365236 -0.23869348 0.15965241
000050 d4 96 d4 bd 8f 9d c2 3e e8 28 8d bd 9a 2f 98 3c
       -0.10380331 0.38010833 -0.06892568 0.018577386
000060 df 85 10 3e 93 27 06 3e dd 09 ce be 1b 18 73 3d
       0.14113568 0.13101034 -0.402419 0.05934916
000070 da c6 eb bd be ce b4 3d 6f 0b 71 3e ae 58 2c bd
       -0.11512537 0.088284954 0.23539518 -0.04207676
000080 67 fb 85 be 26 b2 02 be 41 ab 42 bd 5a 8d c6 3d
       -0.26168367 -0.1276327 -0.0475266 0.096949294
000090 9d 2f 3e be 5d 8b 1d bd f5 2f 6c 3e 26 16 7d 3d
       -0.1857285 -0.038462985 0.23065169 0.0617887
0000a0 5e d3 d1 3d 41 ae dd bd 92 a2 30 3e 66 94 83 3d
       0.10245393 -0.10824252 0.17249516 0.06424789
0000b0 54 3d a0 be 97 cb de 3e c3 8e e7 bc 6b 8f bc 3d
       -0.3129679 0.43514702 -0.028266316 0.09207042
0000c0 36 bc 72 bd 4e 03 6b bd 78 41 77 3e c1 c6 58 3e
       -0.059261523 -0.0573762 0.24146068 0.21169569
0000d0 4a aa ac 3e 68 d7 1a bd 0f 5d 8b 3c 15 b7 3f 3e
       0.3372367 -0.037803084 0.017012147 0.18722184
0000e0 42 a6 11 3d e0 87 42 3e d2 c2 6f bd bb f6 f7 3d
       0.035558946 0.18997145 -0.058535405 0.12107607
0000f0 f2 ab 02 3e a9 60 c4 3d 38 9b 80 3d c4 61 1b 3e
       0.12760904 0.09588749 0.062796056 0.15174013
000100 94 c3 34 3d 16 22 b9 3c f4 21 2a 3d 04 30 82 be
       0.04413183 0.022599261 0.041536286 -0.25427258
000110 ef 6d a4 3e be e6 1a be 6e bf 81 3e b5 97 c7 bd
       0.32115123 -0.15127084 0.25341362 -0.09745733
000120 0d 25 96 3e d9 21 56 3e d3 d0 d4 3c 16 8a 6a be
       0.29325143 0.2091135 0.025978481 -0.22904238
000130 c0 2c 4d 3e ad 1c 7c be 26 e4 58 be 74 0f 1a bd
       0.20036602 -0.24620314 -0.21180782 -0.037612393
000140 23 e1 b7 bc 0f ed 2e 3c 75 f3 e6 bd 7d 0c f6 bd
       -0.02244622 0.010676636 -0.112769045 -0.12014101
000150 cf 1e 9e bd a3 fc 53 be 95 df a3 3e c5 75 0a be
       -0.0772072 -0.20701842 0.32006517 -0.13521488
000160 a8 38 5f bd 50 df 79 3d 03 ee 0d 3d 8d b6 93 3e
       -0.05449739 0.061003983 0.034650814 0.28850213
000170 30 30 88 bd 2f c7 ff 3c ac a3 bd bc a8 1e 6c 3e
       -0.06649816 0.031222908 -0.023149334 0.2305857
000180 df 54 bf 3d 6b 9b 92 be 2e cc 94 3d 19 c5 a8 bc
       0.0934236 -0.286342 0.07265507 -0.020601796
000190 46 4a 27 3d ab ef 45 3e 0c 46 e2 bd 0d 37 07 3e
       0.040842317 0.19329707 -0.11048517 0.13204594
0001a0 05 c1 b0 bc 8b 74 a3 3d be 30 0a 3e 6b 6c 4b bd
       -0.021576414 0.07981213 0.13495156 -0.049663942
0001b0 1d eb 84 be ae 48 96 3d 52 7f 8d 3e 40 fd 00 3c
       -0.25960627 0.07338081 0.276362 0.0078728795
0001c0 f7 4d b9 bd f3 74 35 be 47 cd a2 bd 9e 8b 01 3d
       -0.09048074 -0.17720394 -0.0794931 0.03162729
0001d0 cf 39 2a 3d c1 f0 82 bb 3b 7f 5e bd fa de 80 3d
       0.041559037 -0.0039959853 -0.054320555 0.062925294
0001e0 5c d8 5f be 6d 95 64 be 7d cc e0 be 4d d0 85 be
       -0.21859878 -0.22322626 -0.43906012 -0.26135483
0001f0 a0 bc 2f 3e 6e f4 70 bd 3b 8d 31 be 5a 3b 3e 3d
       0.17161798 -0.058826856 -0.17339031 0.04644332
000200 d2 db 5f 3c 70 cb 16 be f8 c0 25 be 2a fc cf 3c
       0.013663249 -0.14726043 -0.16186893 0.025388796
000210 0a 88 d2 be f5 50 64 3c 4c e5 46 bd 46 9f bc bd
       -0.41119415 0.013935317 -0.04855852 -0.092100665
000220 83 fe c5 3d c7 0d 2e be 51 b5 9a 3e c6 51 d2 bd
       0.09667685 -0.16997443 0.30216458 -0.10269503
000230 f3 e6 0c bd 8a 31 29 be 6c 8d 6b 3e ae e6 b7 3e
       -0.034399938 -0.16522804 0.23003167 0.35918182
000240 fb 67 ce 3e 71 0d 19 3e e8 e7 91 3e f0 c8 dd bd
       0.40313706 0.14946534 0.28497243 -0.108293414
000250 72 e3 2c bd 23 c3 57 3e 82 94 1d bd 31 97 0d 3f
       -0.042209096 0.21070533 -0.038471706 0.55308825
000260 c3 60 39 3e 9c e7 d7 3d 33 aa ee bd 0d bc 2e be
       0.18103318 0.10542223 -0.11653557 -0.17063923
000270 9f 3c 31 3e ac c3 11 3e 3f 15 0b 3e 73 61 34 be
       0.17308281 0.14234799 0.13582323 -0.17615299
000280 2d fd 51 bd 06 a7 57 3e 21 96 37 3d d8 17 6f 3d
       -0.051266838 0.21059808 0.04482091 0.05837235
000290 51 32 bb bd 62 f0 ac 3e 5f 28 69 3d 68 00 81 3e
       -0.091404565 0.33777148 0.056923267 0.25195622
0002a0 55 bb e0 bd d4 0d 58 3e 8a ab 83 3d 10 58 ac 3c
       -0.10973231 0.21099025 0.06429203 0.021038085
0002b0 c7 56 47 bd 01 cd c9 bd cc f9 06 bd d4 4a b0 3e
       -0.04866674 -0.098535545 -0.03295307 0.3443209
0002c0 6e 28 1b be 57 d8 5e be 41 4a c2 bb aa 47 58 3e
       -0.15152141 -0.21762215 -0.005929262 0.21121088
0002d0 62 64 f9 be 0b 4f d8 3d 9e 3d 9e be 17 eb c7 3c
       -0.48709399 0.10561951 -0.30906385 0.024404092
0002e0 b9 df b0 bd 22 e1 a7 bd d4 db 85 3e dd 10 0a be
       -0.08636422 -0.081972376 0.26144278 -0.13482995
0002f0 67 d1 b8 bd 62 95 ef 3d c4 85 43 3d b4 90 b3 bd
       -0.09024315 0.116984144 0.04773499 -0.08767834
000300 5c f8 08 3e fa 39 e6 3d f8 51 16 3e d8 42 97 3e
       0.13375992 0.11241527 0.14679706 0.29543185
000310 9f b1 af 3d 53 0c 9e be 5f 58 01 3e c9 35 71 3d
       0.085788004 -0.30868778 0.12631367 0.058889184
000320 f0 7f 8b be 9a 37 01 bd f2 05 09 3e c8 df 4d 3c
       -0.27246046 -0.031547166 0.13381174 0.012565561
000330 c7 8c 61 3d 6e 5a 85 bd 08 31 91 bb 24 ba e8 3d
       0.055065896 -0.06511389 -0.004430894 0.113636285
000340 a1 f9 1d bc fd 87 c0 bc 08 24 73 bd 53 ad 11 be
       -0.009642036 -0.023502344 -0.059360534 -0.14226274
000350 ac 25 1e be db b6 36 3e 29 5f 58 3d f1 48 0a be
       -0.15444058 0.17843191 0.052825127 -0.13504387
000360 05 e3 fb 3d ab b1 78 3e 29 60 9e 3d af 33 a5 3e
       0.1229916 0.24286525 0.07733185 0.32265994
000370 a1 65 28 3e 59 2a 57 be 7e ee 8e bd 83 d4 bd 3d
       0.16445018 -0.21012248 -0.069790825 0.09269049
000380 89 57 91 be 48 d6 02 3d 99 14 d7 bc cc 56 6f bd
       -0.28387097 0.031942636 -0.026254939 -0.058432385
000390 ea f7 67 3b 17 03 82 bd 96 fe e7 bd c9 30 fb ba
       0.003539557 -0.063482456 -0.11327855 -0.0019164319
0003a0 c5 91 bb 3c fc 4c 7f 3d 14 27 cd bd 18 43 8d bc
       0.022896657 0.062329277 -0.10017219 -0.017243907
0003b0 40 b2 c1 3e fd 35 3b be d1 1a d8 bc 72 02 39 bb
       0.37831306 -0.18282314 -0.026379975 -0.0028230217
0003c0 54 23 be bd 42 a6 52 3c 54 a0 05 3a b2 d6 82 bc
       -0.09284082 0.012857022 0.0005097438 -0.015971515
0003d0 71 dd de 3d 00 0a 36 bd ba dd fb 3d d6 cb dd 3b
       0.1088208 -0.04444313 0.1229815 0.006768684
0003e0 28 15 9a 3c fc 60 92 bd b0 4e f4 bd a0 32 03 3c
       0.018808916 -0.071474046 -0.11929071 0.008007675
0003f0 d2 2c a7 bd 8d 5d f4 3d f8 ac 19 be 5f 8a 68 bd
       -0.08162846 0.11931906 -0.15007389 -0.056772586

weight f4 [128, 8]
000000 84 1f 06 3e 60 b0 63 be ea 6e 0a be f4 77 b2 bd
       0.1309796 -0.2223525 -0.13518873 -0.087142855
000010 af 70 a7 be 70 78 1e 3e e3 26 0b 3e 5b 93 c6 bd
       -0.32703158 0.15475631 0.13589053 -0.096960746
000020 e5 14 53 3e ae 7e 4b be ea 51 a4 bd 8a a5 a3 3d
       0.2061344 -0.19872543 -0.08023436 0.079905584
000030 96 55 5c bd c3 93 10 3e 7a 8a ea bc b5 d4 27 bd
       -0.05379256 0.14118867 -0.028630484 -0.040974338
000040 fb 59 5b be 78 4f b4 bc c1 e0 02 3d ef 77 62 be
       -0.21421044 -0.02201055 0.031952623 -0.22116064
000050 9e 95 14 3d e8 e1 41 3e 73 18 c9 bc ab 77 b4 bd
       0.0362755 0.18933833 -0.024547791 -0.08811887
000060 df d1 4d 3e f0 e4 59 3e 81 ff 4a be 3d 14 57 3e
       0.2009959 0.21278739 -0.1982403 0.21003814
000070 cf c8 88 bd 6a 5c f2 bd 5e a7 fd be 75 8a 5a 3e
       -0.06678926 -0.11834033 -0.49541754 0.2134188
000080 da 48 e5 3d 8d cd c6 3d f2 5f fb 3d c4 be a1 3c
       0.11195536 0.097071745 0.122741595 0.019744284
000090 32 6f a9 3d 03 63 cf be 17 f8 91 3d 3c 25 6a bd
       0.08273162 -0.40505227 0.071273975 -0.057164416
0000a0 ef de 7a be 86 c9 de 3d db d3 1b 3d 1b 68 f3 3d
       -0.24499105 0.10878281 0.038043838 0.11885091
0000b0 4a a3 61 3d 99 e6 86 bd 94 cf 0c 3e 8d 97 3a 3a
       0.055087365 -0.06586952 0.1375106 0.000711792
0000c0 3c 0b a9 3d 63 50 13 be 38 55 03 3e 4b a9 79 3e
       0.08254096 -0.14386134 0.12825477 0.24380986
0000d0 95 0c c1 3d 5e c8 8b bc 52 0a 3d be d1 21 65 3e
       0.09426228 -0.017063316 -0.18460968 0.22376181
0000e0 24 de 47 be 0e c5 79 be 6e 1a ee 3d 62 fc 47 3d
       -0.19518334 -0.24391577 0.11626135 0.048824675
0000f0 4c 41 86 bd a6 d2 55 3e fd 5a 08 be 69 11 db bc
       -0.06555423 0.20881137 -0.1331596 -0.0267417
000100 b7 00 3c be de b1 05 be 3a 3c e9 bd 1b 80 fd bd
       -0.18359648 -0.13056132 -0.113884404 -0.1237795
000110 06 ea 41 3d 3f 1c 87 be 82 92 80 be 94 63 86 3e
       0.047342323 -0.26388738 -0.25111777 0.26247847
000120 fa ac 52 3d 51 dd ae 3d 8c 8d e6 bb 8c 1e 0b be
       0.051434495 0.085383065 -0.0070359167 -0.13585871
000130 71 3c a5 bc b0 3d 87 3e 7e 95 97 bb 13 67 19 3e
       -0.020170422 0.2641425 -0.004625975 0.14980726
000140 b4 b7 9e 3d 22 29 16 bd b2 c4 d3 bd f0 8e b4 bd
       0.07749882 -0.03666032 -0.10340251 -0.08816326
000150 c4 ca e6 3d 3d 40 a2 3e 7c e5 fe 3d 00 fe 21 b8
       0.11269143 0.31689635 0.124461144 -3.8621947e-05
000160 a7 f0 a1 be 99 2d 9a 3d 57 8a 89 be 40 a9 41 be
       -0.31628916 0.07528228 -0.26863357 -0.1891222
000170 ed c2 83 3e 81 22 6d be 6c 63 34 bd 6d d7 0d 3e
       0.25734654 -0.23157693 -0.04404013 0.1385171
000180 f9 8c 8b bd d9 41 ad bc 45 af d7 3c d5 3c 3a be
       -0.06813998 -0.021149563 0.026328692 -0.18187268
000190 25 03 08 3e 60 45 a2 bd 4b b8 00 3e 0c 7e 6b 3e
       0.1328245 -0.079233885 0.12570302 0.22997302
0001a0 92 6b b6 3d aa 61 02 be 65 47 f1 3d ab 80 23 be
       0.08907236 -0.12732568 0.117811956 -0.15967052
0001b0 d7 59 c7 3e 03 c9 0d 3e b3 2f 81 3d 4f 3e e5 3a
       0.3893573 0.13846211 0.06307926 0.0017489883
0001c0 d0 05 82 be a1 cb 0b 3e 6e c1 25 3e 51 33 31 3e
       -0.2539506 0.13651897 0.16187069 0.17304732
0001d0 09 85 e7 3e ea 59 ca bd e2 fd 1a 3e a5 d3 33 be
       0.45218685 -0.09880431 0.15135911 -0.17561205
0001e0 52 fc 1e be 6a c0 03 3e e6 59 a1 3e c2 f2 5f 3e
       -0.1552594 0.12866369 0.315139 0.21869949
0001f0 9c 04 6a 3d 8c 18 1b 3e 55 a3 ee 3e c2 02 c6 bd
       0.057133302 0.15146083 0.46608987 -0.09668495
000200 91 b2 fa 3e 57 c4 83 be ca 2e b5 3e 18 15 dc 3d
       0.4896436 -0.25735733 0.3538726 0.10746211
000210 b1 32 15 be 2a be 0a be 2b d3 98 3c 1a 62 d9 3b
       -0.14570118 -0.13549104 0.01865538 0.006634009
000220 fa 18 85 3e 03 fd ef 3d 20 66 03 be b0 47 8e be
       0.25995618 0.1171818 -0.12831926 -0.27789068
000230 03 48 2c be bc 38 ad bd 91 65 ce bd 50 b3 63 3e
       -0.16824345 -0.08458087 -0.10077966 0.22236371
000240 66 7b 31 bd e3 95 fd bc 0c 4a 1f 3d e8 fa 7d 3e
       -0.043330573 -0.03095526 0.038888976 0.24802744
000250 05 71 eb bc 00 cf 88 bd 39 b7 2d 3c 3b 4a 9f 3c
       -0.028740415 -0.06680107 0.010602766 0.019444576
000260 ed 09 15 3e 77 ec 36 be 4c 2c f3 bc 31 f1 ba bd
       0.14554568 -0.17863642 -0.029684208 -0.09128035
000270 1d 97 98 3d 65 78 fd bd 64 d1 1c be 09 96 1a be
       0.074506976 -0.12376479 -0.15314251 -0.15096296
000280 53 c7 85 3d 9f 05 83 3d 7f de f0 bd f4 ed 24 be
       0.06532159 0.063975565 -0.11761188 -0.16106397
000290 46 74 7e 3e d7 bb 6e be 1a 13 88 3e 00 bb 13 3e
       0.24849042 -0.23313843 0.26577073 0.14426804
0002a0 97 c6 e3 bc 85 a3 ec bc 63 b5 8c 3e 03 91 99 bd
       -0.027804656 -0.028886566 0.27482137 -0.07498362
0002b0 5f 06 1b bb e8 b0 2e bd 79 86 05 3e ad 76 97 be
       -0.002365492 -0.04264918 0.13039578 -0.2958273
0002c0 63 4a ef 3c bc 38 22 be c9 ff 99 3d e4 26 27 be
       0.029210275 -0.15841955 0.0751949 -0.1632343
0002d0 c8 ff 9e 3d 9b 84 00 be 90 be 82 be 65 4e 87 3e
       0.0776363 -0.12550585 -0.25536013 0.26426998
0002e0 04 ff d8 3d 7b 0f fc 3d 55 51 59 3b 53 32 3a be
       0.10595515 0.1230764 0.003316005 -0.1818326
0002f0 2f 4a a9 3d dc 9f 09 3e e4 4f 18 bd 4b 36 4d be
       0.082661025 0.13439888 -0.037185565 -0.20040242
000300 99 10 d3 bd 0c 12 a6 bb 87 42 4d 3d 83 88 1d 3e
       -0.103059 -0.0050680693 0.050112274 0.15384106
000310 33 1a 27 bd 52 a3 0e 3e ad 14 d7 bc 3c 21 99 3d
       -0.04079647 0.1392949 -0.026254976 0.07477042
000320 a7 f1 e6 3d b1 d8 04 bc 99 9d b5 bd c8 b1 ce bc
       0.1127656 -0.008108304 -0.0886795 -0.025231257
000330 1c e4 8a 3e 22 23 05 be a8 6a 34 3e b8 89 fa be
       0.2712716 -0.13001683 0.17618811 -0.48933196
000340 4f 4e 95 be 22 bd 34 bc 53 02 10 3e 00 2c a7 3d
       -0.29161307 -0.011031421 0.14063387 0.08162689
000350 75 5d 96 3d 6d 5b 46 be 42 3e b1 3d 95 f0 e6 3c
       0.07342044 -0.19370814 0.08654453 0.02819089
000360 0f 26 0d 3d a6 b9 7d bd 79 fc 09 be ce c9 84 bd
       0.034460124 -0.061944626 -0.13475217 -0.06483804
000370 18 f6 b6 3a 30 2e e2 b8 34 e2 c2 bd 66 3c a7 3d
       0.001395884 -0.00010785123 -0.09515801 0.08165817
000380 24 b5 ab 3e e2 cf ab 3e 4f fd 27 bc 35 57 18 bd
       0.33536637 0.3355704 -0.010253265 -0.037192542
000390 4c fa 13 3e 18 b1 e0 3d d8 08 11 3e 50 e8 30 3e
       0.1445095 0.10971278 0.1416353 0.1727612
0003a0 ce 3f 2d 3d e5 67 61 be 32 a0 40 3c 5f ac a9 be
       0.042297177 -0.22012289 0.011756944 -0.3313932
0003b0 8c d2 64 3e 3f 70 2a 3e 4b e0 31 3d a6 00 5e 3e
       0.22345942 0.16644381 0.043426793 0.21679935
0003c0 be 01 9b bb 1a 83 b7 ba 03 4e c4 bd a6 94 99 3e
       -0.0047304323 -0.0014000863 -0.09585192 0.29996222
0003d0 4f de b3 bd e9 ae 8c be c6 c0 84 be c2 63 47 3e
       -0.087826364 -0.27477196 -0.25928324 0.19471648
0003e0 e9 24 67 bc ef 26 69 3e 58 76 c1 be 8b 1a 98 bd
       -0.014107921 0.22768758 -0.37785602 -0.07426938
0003f0 2e f6 45 3e 11 b4 50 3e d4 f4 1a be a1 4a f1 3c
       0.19332191 0.2038119 -0.15132457 0.029454531

weight f4 [128, 8]
000000 03 3e ce 3d 4e 1a a4 bc 12 90 f6 3d 14 ab 81 bd
       0.100704215 -0.020032074 0.12039198 -0.06331459
000010 60 a3 59 bd c0 35 f1 3c 9c 8e 90 bd a2 53 13 3e
       -0.053134322 0.029444575 -0.070584506 0.14387372
000020 7c 0c 58 be 19 5b b8 bd ce cb 19 3e fe b5 e3 3d
       -0.21098512 -0.090017505 0.15019152 0.11118697
000030 bd dc 49 3d 74 ad 37 3e ae d8 22 3d c5 13 98 be
       0.049282778 0.17937261 0.039757423 -0.29702583
000040 eb 69 d4 be 86 ca c6 bd 69 0b c9 bd b7 30 8b bd
       -0.4148706 -0.09706597 -0.098166294 -0.06796401
000050 89 16 7a 3e ff b3 80 3c 8e 97 d9 bd 8d 52 52 3e
       0.24422659 0.015710829 -0.1062461 0.20539303
000060 53 dd 01 bf b3 8e b3 3d 13 f0 c2 3e c9 68 54 be
       -0.5072834 0.08767452 0.38073787 -0.20743097
000070 b0 8a 89 3e 8a c7 3d be 55 ca 83 3e bb 11 a3 be
       0.26863623 -0.1853315 0.25740305 -0.31849465
000080 ed d3 44 be 81 50 9f 3e 21 9d 6d bd 4b 4f 08 be
       -0.19221468 0.31116107 -0.058011178 -0.13311498
000090 64 fb 17 3e d7 1b d0 3d f2 cc 1d 3d c0 5e 64 3d
       0.14841992 0.1016156 0.03852553 0.055754423
0000a0 c8 0c 07 be 65 fe 5c bd d4 2c 29 bd 70 7b 6c 3e
       -0.1318847 -0.053953547 -0.041302517 0.23093963
0000b0 6d 21 1f 3d cc d1 75 bd 03 6f a2 3d 12 48 12 3c
       0.038850237 -0.06001453 0.0793133 0.008928316
0000c0 99 19 6d be 0d af 80 3d da cf 53 be 8c c4 9e bd
       -0.23154296 0.06283388 -0.20684758 -0.07752332
0000d0 02 ac 92 bc 93 7b c5 3d 6f fc a6 3d 7c 15 90 3e
       -0.017904285 0.096427105 0.08153617 0.2814139
0000e0 44 01 8a bd 63 08 98 be 5f 59 83 be 5f 6b 13 be
       -0.06738523 -0.296939 -0.25654122 -0.14396428
0000f0 90 28 e2 b9 0a 07 82 bc 56 be e6 3d 76 fd d3 bd
       -0.000431363 -0.015872497 0.112667724 -0.10351078
000100 eb 1a 8a 3c ea 68 7a be d2 db 91 3d f3 3b a7 bd
       0.016858539 -0.24454084 0.071220055 -0.08165731
000110 6f a3 d8 bb f4 5d 19 be 66 7e 1d 3e 19 a7 0f 3e
       -0.0066112797 -0.14977247 0.15380248 0.14028586
000120 00 8c 9e 3d 66 7b 26 3e c0 52 f9 3c d4 d9 99 3d
       0.07741547 0.1625801 0.030434966 0.075122505
000130 96 32 b3 3a 58 c2 70 3e 3e 0e cf bd 9e d0 85 be
       0.0013671692 0.23511636 -0.10110138 -0.26135725
000140 ec 4c b0 3e 35 5b 3d 3e e3 19 34 be 9d df 8b 3c
       0.34433687 0.18491824 -0.17588 0.0170744
000150 7b 63 9a 3d fa db 36 be b1 b0 c6 3d 1e df 6a 3e
       0.07538506 -0.17857352 0.0970167 0.22936675
000160 76 47 0e be 40 74 bb ba 03 ed fb bb a6 ca 8a bc
       -0.13894448 -0.0014301613 -0.007688166 -0.016942333
000170 22 af 8e be e2 67 d5 bd e6 ec f2 bd 34 25 52 bd
       -0.2786799 -0.10420205 -0.11861591 -0.05130501
000180 b6 eb 5d bd de 0a 25 3d b7 e0 32 be c5 fd fc 3d
       -0.05417987 0.040293567 -0.17468534 0.1235309
000190 20 73 a9 3e 01 d3 61 bd 22 24 54 bc 1f 11 f3 3e
       0.33095646 -0.05513287 -0.012948068 0.47474
0001a0 6b 21 d2 bc 66 e3 3e be ac b6 55 3d 3d 46 89 bd
       -0.0256507 -0.18641433 0.052176163 -0.0670285
0001b0 ad 83 92 be 8f 17 b9 3d 03 b7 d6 bd a3 eb d4 be
       -0.28616086 0.090376966 -0.104841255 -0.41586027
0001c0 c0 55 65 3e 65 59 2d bd 88 02 8a 3c d7 f8 50 3d
       0.22395992 -0.04232158 0.01684691 0.051018562
0001d0 be c7 cc 3d 70 f4 5a be 70 51 6f 3e 7f 27 22 3e
       0.09999035 -0.21382308 0.2337091 0.15835379
0001e0 31 07 77 3d 15 bf 96 3d b0 42 5a 3c 6f da 54 be
       0.060309593 0.07360665 0.013321564 -0.20786451
0001f0 64 a9 bd be a3 66 63 3e 4e 4d f4 bd c2 cb 61 be
       -0.37043297 0.22207122 -0.11928807 -0.22050384
000200 bb 28 cc 3d 56 5d 83 3e b1 a5 78 3e 0d e0 a0 3e
       0.09968706 0.25657147 0.24281956 0.31420937
000210 00 51 13 3e 51 cb 01 bd 99 b0 7e ba 1c 8d 0c be
       0.14386368 -0.03168804 -0.0009715646 -0.13725704
000220 7e 25 04 be dc ba 7d 3e 76 cd 2e be d5 7d c0 bd
       -0.12904927 0.24778312 -0.17070565 -0.093990006
000230 cb cf 8c 3d 7b 41 4a be b5 0a a8 3d 28 4a 05 be
       0.06875571 -0.19751541 0.08205167 -0.1301657
000240 11 6f d9 bd ef 4e 23 3d f9 ef 84 be 18 76 74 bd
       -0.10616887 0.0398702 -0.25964335 -0.059682935
000250 29 2e a4 bc ef f9 fb 3d 4c f5 7f 3d 3d 9e 98 be
       -0.020041542 0.123035304 0.062489793 -0.29808226
000260 bf f2 c4 3e a5 a2 82 3e 07 0a 0c bd da 2d f2 bd
       0.3846645 0.25514713 -0.03418925 -0.11825152
000270 3b 0f 02 bc 6c 16 27 3e 3f 10 de bc db 09 dd bd
       -0.007938202 0.16317147 -0.027107356 -0.107928954
000280 c4 b6 6f 3e d4 c1 82 be 65 6d 04 3c 6a b7 9a 3c
       0.23409563 -0.25538504 0.008082722 0.018886287
000290 c2 12 2c be 94 98 76 bd 21 e5 8f 3d f4 83 8e 3d
       -0.1680403 -0.060204104 0.07026125 0.06958762
0002a0 7e e0 ae be 9d 95 9a 3d ee f3 c9 3e 84 95 4e 3e
       -0.3415565 0.07548068 0.39443916 0.20174223
0002b0 6e f2 29 3e 45 a4 89 3d 26 43 e8 bd d9 83 80 be
       0.16596386 0.06720785 -0.113409325 -0.25100592
0002c0 e0 cf 0f be d2 c0 2e bd 79 08 e2 3d 1e d6 ba 3d
       -0.14044142 -0.042664357 0.11036772 0.09122871
0002d0 b6 02 27 3e d7 b4 cd bb 54 c5 c8 3d b2 63 8b 3d
       0.16309628 -0.0062776613 0.09803262 0.06806125
0002e0 71 91 14 3d eb f4 05 bd 09 0f fb bc 38 ad 61 bb
       0.036271516 -0.032704275 -0.030646818 -0.0034435522
0002f0 8c 12 ce 3d 57 4f c4 bd 73 8d 33 3c 4e 08 4a bd
       0.10062131 -0.095854454 0.010959017 -0.049324326
000300 05 f5 2a be d8 c2 88 3d e5 42 27 3e e5 ee ef be
       -0.1669503 0.066777885 0.16334112 -0.4686195
000310 9f 76 f3 3d aa 2e c1 3c 0e ed 49 3e f3 59 e9 bd
       0.118878596 0.023581821 0.19719335 -0.113941096
000320 dc b8 d4 be 3a 91 b4 3d 3d 6a 19 3e 4e ef 0d be
       -0.41547287 0.08816762 0.14981933 -0.13860819
000330 9c a3 fb 3d f3 19 14 be a3 b0 39 3e 6f 78 a7 3e
       0.122870654 -0.14463024 0.18133788 0.3270907
000340 d3 34 13 be c7 99 34 3e fd 9b 55 3c 9a 2b 17 bd
       -0.1437562 0.17636786 0.013037679 -0.036906816
000350 30 53 9b 3e ec 8d 0c bd 22 ab a1 3e 10 ba 31 3e
       0.30336905 -0.034315035 0.31575876 0.17356133
000360 a2 51 6d 3e 68 51 0c 3e dd 5b 81 3e e7 dc 8c be
       0.23175672 0.13702929 0.252654 -0.27512285
000370 d7 71 5c bd b8 9f 49 3e 04 5e f9 bd a1 ea 07 3e
       -0.053819504 0.19689834 -0.12176135 0.13273098
000380 f7 6c 3c 3e 23 a9 a9 bd 1b e1 75 3d b7 6e 59 bd
       0.18400942 -0.082842134 0.06002913 -0.0530841
000390 64 2d df 3d f5 8b 66 3e 4d f0 4a 3e b1 1e 52 3d
       0.108973294 0.22514327 0.1981823 0.0512988
0003a0 17 28 10 bd fe ed b2 3c 81 4f 8c be 38 a6 20 be
       -0.035194483 0.021842 -0.27404407 -0.15688407
0003b0 86 17 a3 3c e5 98 32 bc 75 2c 8b bd 77 81 4d 3e
       0.019908678 -0.010900711 -0.06795589 0.20068918
0003c0 b7 81 ce 3d 5e 4a 9a bd c8 09 bc 3d da af 78 3e
       0.10083335 -0.07533716 0.09181553 0.24285832
0003d0 3a 78 b5 be 4e d4 2d 3d da 40 84 bd 54 81 43 3c
       -0.35443288 0.042438798 -0.06457682 0.01193269
0003e0 95 26 9e bd a5 b9 39 3d 63 2d 7c be 31 5a 1e 3e
       -0.07722203 0.04534306 -0.24626689 0.15464093
0003f0 be 95 8c bd e2 a8 a6 bd 95 95 50 be b8 d2 9a be
       -0.068644986 -0.081376806 -0.20369561 -0.3023889

attn f4 [1, 1, 128]
000000 61 5c 4d 3e 34 ec e2 bd e7 e5 3a 3d 80 25 21 bd
       0.20054771 -0.110802084 0.04562941 -0.039342403
000010 03 ab 25 be a3 49 8e bd 90 dc 70 ba 6d 2b 9d bd
       -0.16178517 -0.06947639 -0.000918814 -0.076742984
000020 9c 14 53 3e fe 58 fe bd f1 27 80 3e 6c 63 eb bd
       0.2061333 -0.12419318 0.25030473 -0.114935726
000030 d2 d7 95 3d a4 7f 9a 3d ec 58 3b 3e ff 7b eb bd
       0.07316555 0.07543877 0.1829564 -0.1149826
000040 9c b8 9f 3d 1e 3f 8d bd a6 2f 2f bd fe 55 59 3c
       0.07798883 -0.06896804 -0.04277005 0.013265131
000050 a5 06 db bd 9d 6b 33 be 6d 5b 52 3d 37 dd 87 3d
       -0.10694627 -0.1752152 0.05135672 0.0663399
000060 9c 8c 12 3e ca 98 84 3e 9a c3 ac 3c 53 64 86 bd
       0.1431145 0.2589782 0.021089364 -0.06562104
000070 f8 ba dc bd 3f 95 36 be 53 cc f4 bb d0 c1 5c bd
       -0.10777849 -0.1783037 -0.0074706464 -0.05389577
000080 81 70 1c bb 14 41 d8 bd 0a dc 54 be 78 de ae 3d
       -0.0023870768 -0.10559288 -0.20787063 0.08538526
000090 4d 1e bc bd 81 56 2f be 0e d4 db 3d de 80 ca 3c
       -0.09185467 -0.17122842 0.107338056 0.024719652
0000a0 38 9e e9 3d dd b0 79 3c b4 15 f8 3d 5f 26 9d bc
       0.11407131 0.015239921 0.121135145 -0.019183336
0000b0 11 99 33 bd 3f 7a 34 be ce 50 bb bc cc e9 ad bd
       -0.043847147 -0.17624758 -0.02286568 -0.08491859
0000c0 14 fb 10 bd 0b 9c 0c be b0 16 44 be a0 d1 e5 bd
       -0.035395697 -0.137314 -0.1914928 -0.112216234
0000d0 42 c6 01 3d 31 bd 87 bd aa 83 f6 bd dd 7d bb bd
       0.031683214 -0.06627882 -0.12036832 -0.09154866
0000e0 9e 51 20 be 10 c3 1a bd a5 59 20 3e eb f6 a0 3c
       -0.15656134 -0.037783682 0.15659197 0.01964899
0000f0 ed 3d a7 bd f5 05 54 be a1 29 4f 3e 5d de 80 3e
       -0.08166108 -0.20705397 0.20230724 0.2516965
000100 a9 27 10 3e 22 52 36 3c c6 64 37 be 9e 43 20 3c
       0.14077629 0.01112798 -0.17909536 0.009781746
000110 0e af f2 bc cd 18 58 3c 5d 28 6d bd c2 55 07 be
       -0.029624488 0.013189507 -0.05789982 -0.13216308
000120 c6 34 40 bb 1c cd 0f bd a7 80 a0 bd de d3 42 3d
       -0.002932833 -0.035107717 -0.078370385 0.047565334
000130 65 48 47 3e 30 71 c9 bd df 04 51 bb c0 be 1b 3c
       0.1946121 -0.09836042 -0.0031893773 0.009505928
000140 7f e7 4c 3e 76 08 9f 3e d1 2f 78 3e f8 59 e8 3d
       0.20010184 0.31061143 0.2423699 0.11345285
000150 cf 06 0d bd 1c 78 e6 39 fd 34 d1 bd 11 85 18 bd
       -0.03443032 0.00043958507 -0.10215185 -0.037236277
000160 9f 13 de bc 8c 05 a1 3d 53 98 5c 3e 59 c2 9a bd
       -0.027108965 0.07862386 0.21542482 -0.075566
000170 d5 a7 21 bd b2 94 fc 3d da 73 3b be a4 04 f9 3d
       -0.039466698 0.12333049 -0.18305913 0.12159088
000180 f4 b2 ef bd 1e bb b7 3c bc df 15 3e b2 81 44 3e
       -0.117040545 0.022428092 0.14636129 0.191901
000190 9d cd 0b be 7e 60 4d 3d b7 46 9a bd 41 1c 84 be
       -0.13652654 0.05014085 -0.07533019 -0.25802806
0001a0 5a 97 dc 3c bd 9e f0 3c f3 87 07 be 3a 50 09 be
       0.026927639 0.029372567 -0.13235454 -0.1340951
0001b0 a2 91 98 bc 95 4d a7 3c 4e 09 e5 3c 7e bb 08 be
       -0.01862413 0.020422736 0.027958538 -0.13352773
0001c0 44 5a 1c be 8b 20 dd bb fb e5 7d 3d b7 99 93 bd
       -0.15268809 -0.006748264 0.061986905 -0.07207053
0001d0 dd cb 91 3c d0 ff 6c be 72 3d ab 3d 38 56 6f be
       0.017797405 -0.2314446 0.08361329 -0.23372734
0001e0 08 50 77 bc 54 5f 28 3d 76 c2 0f be e7 a6 95 bb
       -0.0150947645 0.041106537 -0.14039025 -0.0045670155
0001f0 47 3e f4 3d 5a 83 f4 3d 3c 6d e4 bd 64 47 89 bd
       0.11925941 0.11939116 -0.11153647 -0.0670307

bias f4 [128]
000000 aa a7 0f 39 1d d2 6a ba c2 ac 23 3a d2 66 47 ba
       0.00013700002 -0.0008957701 0.00062436995 -0.0007606569
000010 d6 2e 73 ba 74 72 fc b9 c4 bc 08 b9 a5 59 61 ba
       -0.00092766935 -0.0004815046 -0.00013040291 -0.0008596427
000020 ee 1f 40 3a b4 be ba b8 4a 0d 2d 39 84 3d 6b ba
       0.00073289766 -8.9046924e-05 0.00016503516 -0.0008973705
000030 cb bd 5a 3a 90 f6 5f 3a 01 a1 04 39 5b fc 54 ba
       0.00083443214 0.00085435156 0.0001264848 -0.0008124762
000040 c0 bb 5f 3a 15 0d f1 b9 5c fd 06 b8 ab df 00 3a
       0.0008534752 -0.0004597685 -3.218405e-05 0.00049161416
000050 43 65 4f ba b4 9e c6 b9 85 be 24 38 1d 0b 5b 3a
       -0.00079115125 -0.00037883746 3.9278082e-05 0.0008355843
000060 ad 3e 9f 39 57 89 33 39 51 4e 1d 3a a7 a8 4c b8
       0.0003037354 0.00017121933 0.0006000745 -4.879446e-05
000070 77 c0 6a ba 72 d0 74 ba 46 af 18 b7 34 d9 28 b8
       -0.0008955071 -0.0009338922 -9.100715e-06 -4.0256607e-05
000080 9c 63 5c b9 6a 46 e1 b8 dc 0f 77 ba f1 dd 63 3a
       -0.00021017942 -0.00010741952 -0.00094246655 0.00086924346
000090 ec 73 8f b8 66 98 72 ba e7 31 6a 3a bb 69 a3 37
       -6.8403635e-05 -0.00092542765 0.00089338276 1.9480349e-05
0000a0 70 b0 6b 3a c0 51 4d 37 d2 2f be 38 c0 46 4f b8
       0.000899083 1.2237986e-05 9.068813e-05 -4.9418537e-05
0000b0 69 4a 4c ba 52 a0 74 ba c6 19 2b ba 0a ad 63 ba
       -0.00077930704 -0.0009331751 -0.0006526973 -0.00086851476
0000c0 17 bd 3c ba 4c 10 d3 b8 44 d9 67 ba d9 b0 6b ba
       -0.00071998074 -0.000100642996 -0.0008844326 -0.0008990891
0000d0 b1 74 39 3a 9a fb 52 b8 1a f8 b4 b8 59 b4 93 b8
       0.00070745783 -5.0302224e-05 -8.6292814e-05 -7.0430986e-05
0000e0 ce 99 72 ba 45 2a 0e b8 8a a0 2a 3a 3a cb 1b 3a
       -0.0009254486 -3.3894805e-05 0.00065089075 0.0005943064
0000f0 e9 3d b2 b8 60 f5 18 b9 27 41 68 3a 25 f1 36 39
       -8.499233e-05 -0.00014587259 0.0008859806 0.00017446706
000100 2a 37 70 3a 92 44 97 39 78 da 64 ba a7 18 06 37
       0.00091634935 0.00028852053 -0.0008730064 7.992762e-06
000110 cd 78 bc b7 0e 7b 00 3a 84 b3 9a b8 7f 4e c5 b8
       -2.2467599e-05 0.0004901149 -7.3767296e-05 -9.408313e-05
000120 c5 6e 77 b9 5a f2 41 ba f1 fd 61 ba e8 f9 1e 38
       -0.0002359702 -0.0007398479 -0.0008620909 3.790288e-05
000130 2f b8 0b 39 c0 49 68 ba 5e af 81 b9 82 79 d2 39
       0.00013324687 -0.0008861087 -0.00024735456 0.00040144852
000140 4f 6e 76 3a 25 cf 7b 3a 72 0c 79 3a 50 8e ac 38
       0.00094005925 0.0009605757 0.00095004507 8.228107e-05
000150 d7 23 26 ba 55 db 2f b8 97 29 55 ba 7d 4d 44 ba
       -0.0006337738 -4.192752e-05 -0.00081315025 -0.00074883533
000160 00 9a 19 ba 2c 2d 46 3a 32 a5 18 39 0f d6 47 ba
       -0.00058594346 0.0007559832 0.0001455739 -0.0007623145
000170 ab 8f 45 ba a8 f3 5f 3a b6 3b 75 ba d6 2b 6d 3a
       -0.0007536362 0.00085430825 -0.0009354906 0.00090473646
000180 7a f2 3f b9 2e 81 98 37 18 93 6e 3a 9d 11 0a 39
       -0.00018305509 1.8179966e-05 0.0009100898 0.00013167267
000190 4b e3 ca b8 fa 56 50 3a 46 c4 60 ba 9d 3b 70 ba
       -9.674447e-05 0.0007947531 -0.0008574169 -0.00091641565
0001a0 3b e6 ae 37 e8 aa 2d 3a a9 bb 6e ba d6 a0 6f ba
       2.0849626e-05 0.0006624893 -0.0009106943 -0.0009141093
0001b0 67 2a 1f ba b9 c1 5c 38 db 3b 32 3a 35 8b 6f ba
       -0.0006071687 5.2632506e-05 0.00067990803 -0.000913787
0001c0 31 66 71 ba c2 ae a5 b6 81 fd 58 3a 4c 81 60 b8
       -0.0009208648 -4.9377277e-06 0.0008277521 -5.352618e-05
0001d0 93 11 ae 37 37 92 78 ba de a9 83 38 ee c4 22 b9
       2.07506e-05 -0.0009482237 6.278207e-05 -0.00015522886
0001e0 83 86 12 ba 2d 28 47 3a cb 8c 70 ba 3c e9 3c b9
       -0.0005589502 0.0007597234 -0.0009176253 -0.00018015964
0001f0 53 f1 05 39 e5 ee b4 38 57 41 af b8 8e 83 50 b8
       0.00012773769 8.6275664e-05 -8.356821e-05 -4.9713584e-05

weight f4 [128, 128]
000000 4b a1 81 be 28 fe 44 bd 6e a7 85 bd 88 62 0f be
       -0.2531837 -0.048093945 -0.06526075 -0.1400243
000010 58 4e 15 3d 33 49 0f be 19 f0 ae be ac 94 ae 3d
       0.036451668 -0.13992767 -0.34167555 0.08524451
000020 66 a9 9f bc 47 a1 7d bd bb 08 62 3e 4f b2 51 3e
       -0.019489955 -0.061921384 0.22073643 0.20478176
000030 8f 21 db 3d 7e c9 e4 bd ac c2 27 be c6 c6 31 be
       0.1069976 -0.11171244 -0.16382855 -0.17360982
000040 fc 34 6f 3e 70 b3 89 3d b6 82 72 3d 7f 68 b2 bd
       0.23360056 0.06723678 0.059206687 -0.08711337
000050 c3 b9 13 bd f1 ed 5c 3a e9 d1 a3 bc 17 30 7e 3d
       -0.036065828 0.000842779 -0.019997554 0.06205758
000060 34 f7 ef 3d 31 e7 cf be 47 5a 79 be 1f d4 a7 bd
       0.11717072 -0.40606073 -0.24350844 -0.08194756
000070 86 ba 3f 3e 34 c8 6b 3e b0 da 14 be e8 00 11 be
       0.18723497 0.2302559 -0.14536548 -0.14160502
000080 83 89 4d 3d d3 ba 10 3d 81 e0 54 3a fa fc fe 3d
       0.05017997 0.03533442 0.0008120612 0.12450595
000090 55 4d 88 3d 6f 93 01 3e 27 42 81 bd 16 f0 11 3e
       0.06655375 0.12653898 -0.06311446 0.14251742
0000a0 fb 9a b7 bc 50 b7 1b 3e 5c e4 03 be 87 7a 8d 3d
       -0.022412768 0.15206647 -0.12880081 0.06908136
0000b0 0c 7e 06 3d 99 85 2e bd 7b b4 49 be 4e e6 d3 bc
       0.03283505 -0.042607877 -0.19697754 -0.025866654
0000c0 8b 47 9c bd 43 f0 4f 3e fd f6 d0 3b 06 68 8f bb
       -0.07630833 0.20306496 0.0063770995 -0.004376414
0000d0 00 d4 60 be 04 14 22 3d 55 7b 14 3e 66 3f 89 bd
       -0.21955872 0.03956987 0.14500172 -0.067015454
0000e0 4f 45 5a 3e 85 e4 37 3e 9f 23 36 be 43 6d 5a 3e
       0.21315502 0.17958267 -0.17787026 0.21330743
0000f0 3d 27 be 3d b2 48 e5 bc b8 51 35 3d ae 4e a9 3d
       0.09284828 -0.027988765 0.044267386 0.0826696
000100 50 73 9f 3e 4b b3 93 bd 17 16 b7 3d 38 63 0e bd
       0.31142664 -0.07211932 0.0893976 -0.03476259
000110 de fd c4 3d 6b c3 5c be 42 2b 0a bd 1a df 33 be
       0.09618734 -0.21558921 -0.03373266 -0.17565575
000120 31 ad 8b 3d b4 b5 f6 3d b4 b7 32 3d 0d 84 62 bd
       0.06820143 0.12046376 0.043632224 -0.055301715
000130 de 95 62 be a2 47 ae bd 61 f3 75 3d cf cd a8 3d
       -0.22127482 -0.085097566 0.060046557 0.0824238
000140 b1 9e 94 bd fa 9c ec bd 7a 03 d0 3c 6c ef 65 3c
       -0.072568305 -0.115533784 0.025392283 0.014034133
000150 20 0a cb bd 73 aa 00 be ac 25 0a 3e b8 80 bd 3d
       -0.099140406 -0.12565021 0.13490933 0.09253067
000160 bc 93 94 3c 43 ca 92 bd a6 93 d3 3d 77 52 4e 3e
       0.018136851 -0.071674846 0.10330896 0.20148645
000170 23 1c 16 3c d6 43 12 3e 00 c6 26 be c3 86 50 3e
       0.009161982 0.1428369 -0.16286469 0.20363908
000180 5d 03 83 bd 0a be d9 3d d4 a8 ec 3d 14 a4 ec 3c
       -0.06397126 0.1063195 0.11555639 0.028886832
000190 6c 8e 45 bd 14 82 b4 bc 27 f9 ca 3c 94 49 43 3c
       -0.048231527 -0.022034682 0.024777008 0.011919398
0001a0 23 98 02 be dc 64 15 3e ed 96 66 bd b4 b3 10 3c
       -0.12753348 0.14589256 -0.056296278 0.008831907
0001b0 2d f8 32 3e d9 5d dd bc 4d a9 bc 3d 99 ea 3a be
       0.17477484 -0.02702229 0.09211979 -0.18253554
0001c0 c2 fa 7b 3e 90 51 09 be 62 c1 76 3d 5e 36 03 bd
       0.24607375 -0.1341002 0.060243018 -0.03203427
0001d0 7b 98 1f 3e 5f 56 11 be d8 85 b5 3d 56 00 78 3e
       0.1558551 -0.14193104 0.08863419 0.24218878
0001e0 38 05 90 bd d1 e1 a0 3d e0 d3 ec bd 76 f7 b1 3d
       -0.070322454 0.07855571 -0.115638494 0.086897776
0001f0 a5 f5 ef 3d 1d 3d fc bd f2 18 60 3d ab 3d 86 3e
       0.11716775 -0.12316344 0.05471129 0.26218924
000200 e9 1e ad bd 39 8b 39 3d 35 50 3f 3d 15 07 a7 bd
       -0.08453161 0.04529879 0.04670735 -0.08155648
000210 82 e0 fc 3d 29 37 d5 3c 64 0b a4 bd 99 12 e9 bd
       0.12347509 0.026027279 -0.08009985 -0.113805
000220 f5 e1 02 be 6e bb 41 be 83 9b 2b 3d 4d 2b f9 bc
       -0.12781508 -0.18919155 0.041896354 -0.030416155
000230 83 b9 b7 3d 6b 0d 29 bd fa 0b 38 3d 29 1a 97 3d
       0.089709304 -0.041272562 0.044933297 0.073780365
000240 d7 ca e0 bb 5c 75 e4 3b b3 eb c9 3d 80 e5 01 be
       -0.006860118 0.006971998 0.09859409 -0.12685204
000250 cc ca 15 bd 8c f5 3c 3e 56 b2 4e be fd fa 2a bd
       -0.036570355 0.18453044 -0.20185217 -0.041743267
000260 d3 e2 85 bd 00 a6 f8 3a 4b e1 2a 3d 7f 28 ca bd
       -0.06537404 0.001897037 0.041718762 -0.09871005
000270 3d 6c e2 3d f8 c2 73 3d e4 f5 59 be bb bd fb 3d
       0.11055801 0.05951211 -0.21285206 0.122920476
000280 04 34 1a be 6e 3e 46 bc 9b f9 19 be e1 95 d1 3d
       -0.15058905 -0.012099845 -0.15036623 0.10233665
000290 4b ff 56 3d 15 40 93 bd ec 40 38 3a e2 01 ef bd
       0.05248956 -0.07189957 0.0007028717 -0.11670281
0002a0 b3 1e c6 3d 81 f6 80 3d 4d ce 4d bd 82 04 bb 3d
       0.09673824 0.06297017 -0.050245572 0.09131719
0002b0 5e 8b d0 bd 7e 55 7c bd f3 11 2a be b5 32 24 3e
       -0.10182832 -0.06160497 -0.1660841 0.16034968
0002c0 21 65 be bd c9 05 a2 3d 1e 26 0a 3e d7 a7 40 bb
       -0.092966326 0.0791126 0.13491103 -0.0029396915
0002d0 ba 04 15 bd 52 4b 8f be 22 9b bd bd 02 ee 5c 3e
       -0.03638146 -0.27987152 -0.09258105 0.21575168
0002e0 5b 3b f4 bc 2b b2 f3 bd 2d 28 82 3d 0b f7 2a 3d
       -0.02981346 -0.11899217 0.06355319 0.041739505
0002f0 06 fe 0c bd 6c 6f 3b bd 1b 70 38 be 8b 34 17 bd
       -0.034421943 -0.045760557 -0.18011515 -0.036915343
000300 98 79 06 bd 32 f7 45 bd b4 f6 6a be 7a 5b 3a bd
       -0.032830805 -0.048331447 -0.22945672 -0.045497395
000310 c4 5e 12 3d df 7c 96 3d a8 6f 86 3e 9c 19 44 bd
       0.035734907 0.07348036 0.26257062 -0.047875986
000320 ea d3 e6 be 00 b1 21 3c df 18 ba 3d ce e7 12 3e
       -0.45083553 0.00986886 0.09086775 0.14346239
000330 46 82 07 be 49 79 a2 3d c7 97 29 bd c6 c5 28 3d
       -0.13233289 0.079332896 -0.04140451 0.041204236
000340 86 53 04 3d e7 1a 16 be dd 4b 28 3e 06 d3 8e 3d
       0.032306217 -0.146587 0.1643519 0.06973843
000350 6e 52 e0 3c e3 4e b1 3d 4d 5a 09 be 99 c8 9c 3d
       0.027383056 0.086576246 -0.13413353 0.076554485
000360 b0 5f c2 3d dc b1 96 bd 21 c5 12 3d b8 ff 57 bd
       0.09490907 -0.07358143 0.035832528 -0.052734107
000370 dd ac d1 3d b4 6b 3c bc d1 27 a7 bc ff 38 99 bd
       0.10238049 -0.011500288 -0.020404728 -0.07481574
000380 32 15 6a 3e 12 ed e9 bc 2d 90 61 3d 3d 15 38 3e
       0.22859648 -0.028555427 0.055069137 0.17976852
000390 dd 70 36 be 18 b3 6b bd be 5c 2e 3d f8 25 67 3d
       -0.17816491 -0.057543844 0.042568915 0.056432694
0003a0 68 19 25 bb b6 8e 47 bd c7 c6 5d bd bb ba 55 3e
       -0.0025192145 -0.048720084 -0.054144647 0.20872013
0003b0 27 53 2c bd 4e 9f 13 bd 2d 9e 27 bd 95 a5 ba bd
       -0.042071488 -0.036040597 -0.040922333 -0.091136135
0003c0 44 32 89 bd 33 fc 52 bd 7b db ba 3c 6e 10 32 be
       -0.066990405 -0.051510047 0.022809735 -0.1738908
0003d0 62 58 8c 3d 9c c6 97 3d 1a 2f 92 3b c6 61 8d 3c
       0.06852795 0.074109286 0.0044611814 0.017258536
0003e0 e2 5b a3 3d f0 08 6e bc 57 70 d5 3d d1 0b 1a be
       0.0797651 -0.014528498 0.10421818 -0.1504357
0003f0 1e 13 82 bd 47 ec c3 bc b3 2f ea bc 45 48 b1 bd
       -0.063513026 -0.023916377 -0.028587198 -0.086563624
