E-GraphSAGE/experiments/binary_model/GAT_NF-ToN-IoT_best_model.pth (torch, 17652 bytes, 10 tensors)

attn_l f4 [1, 4, 8]
000000 e9 3a 80 3b 8d 09 1d bf 9f ad 39 3c a4 28 37 3f
       0.0039132726 -0.613427 0.011332898 0.7154639
000010 c4 dd 0b 3f 6f a9 7f 3e 79 01 39 3e 3f 99 d4 bd
       0.5463526 0.24966978 0.18066968 -0.10380792
000020 54 06 98 3e 42 30 3a bf 2d 2c ad 3e 7f a3 c4 be
       0.29692328 -0.72729886 0.33822766 -0.38405988
000030 4a 9b e2 39 10 76 26 3e 8a d9 f7 3e 38 bf b1 bc
       0.00043221778 0.16255975 0.48408157 -0.021697626
000040 b2 8d 01 bf 70 1d 3b bf 83 5b cc 3e d6 35 7e bd
       -0.50606835 -0.73091793 0.39913568 -0.06206306
000050 8a 8d 14 3e 02 f7 86 be 51 2a 1c bf 7f 59 36 bd
       0.14507118 -0.26360327 -0.6100207 -0.044518944
000060 64 6e da 3e ac 5b 99 3d cb 54 27 3d b7 a1 b2 3e
       0.42662346 0.07488188 0.04085235 0.34889004
000070 62 65 a9 3e 66 80 ae be f0 07 b4 3e d0 c7 59 3e
       0.3308516 -0.34082335 0.35162306 0.21267629

attn_r f4 [1, 4, 8]
000000 66 f0 96 be e4 8f 88 be cd 20 12 bb 46 62 bd 3b
       -0.29480284 -0.2667228 -0.0022297383 0.0057795374
000010 c5 76 27 be 72 17 00 3c e8 56 5c 3d 3e b8 fe be
       -0.163539 0.00781809 0.053793818 -0.4974994
000020 51 85 c1 bd 7d e2 ed bd 6a 60 e5 bd b7 f4 d1 3c
       -0.09449256 -0.11615465 -0.1120003 0.025629384
000030 c3 44 72 3e b3 08 5f be e1 64 37 3e e8 3c 8a be
       0.23659043 -0.21780662 0.17909576 -0.26999593
000040 9f dd e7 bc 9e 55 d3 3e 8b 9c 74 be 63 a8 f6 be
       -0.02830392 0.41276258 -0.23887841 -0.48175344
000050 8c be 9f be 9a 75 0c bd 47 fd a4 bd c7 78 45 3f
       -0.31200063 -0.03429184 -0.08056121 0.77137417
000060 e5 38 b4 be 02 44 2b 3e 6e bf 09 be cf 39 ac be
       -0.35199657 0.16725162 -0.13451931 -0.33637854
000070 27 78 2b bd ff 7b cd 3d fd 27 bc 3c a5 ef 31 3f
       -0.041862633 0.10033416 0.022968287 0.69506294

bias f4 [32]
000000 28 a5 c4 3b 49 c9 c4 bb fb c7 c4 3b bf 92 cb bb
       0.0060011335 -0.0060054404 0.006005285 -0.006212562
000010 39 80 28 bc eb 41 1e 3c 0d 34 49 bc b0 c8 c4 bb
       -0.010284477 0.009659271 -0.012280476 -0.006005369
000020 73 ab c4 bb db 31 a5 3b 41 2c bf bb 84 c9 c4 3b
       -0.0060018837 0.0050413436 -0.005834133 0.006005468
000030 ba c9 c4 bb 42 48 86 bc 68 fc 4e bc f8 c4 95 bc
       -0.006005493 -0.016391877 -0.0126334205 -0.018282399
000040 1d 8c c4 bb 9a 87 88 bc e0 c7 c4 3b fc 95 b0 3a
       -0.005998148 -0.016666222 0.0060052723 0.0013472433
000050 f2 fc 65 3c b1 5e c1 3b c3 6d 74 bc 12 a4 12 bc
       0.014037358 0.0059011807 -0.014918747 -0.00895025
000060 22 8d c4 3b b5 99 1c bc 25 be c4 bb e3 8b 0f 3c
       0.0059982697 -0.009558131 -0.0060041123 0.008761379
000070 a1 d7 0d 3c 12 d2 37 bc d0 07 6f bc 9d c9 c4 3b
       0.008657367 -0.011219518 -0.014589265 0.0060054795

weight f4 [32, 8]
000000 4a f8 2b bf 55 69 03 bf 8f 73 78 3e 56 1a a8 be
       -0.67175734 -0.513326 0.24262832 -0.32832593
000010 a2 b8 ea 3d 30 a9 64 3d ea a8 16 bf cb 79 91 3e
       0.11460997 0.055825412 -0.5885149 0.28413233
000020 67 34 4d be c7 e0 92 bd 56 56 60 3d 0b 10 54 bf
       -0.20039521 -0.07171779 0.054769836 -0.8283698
000030 83 4a 68 3e 28 41 a8 3e 92 de c5 be 95 14 13 3d
       0.22684674 0.3286221 -0.3864637 0.0359083
000040 6a 6d 2a be 30 f1 cb 3d 51 e0 1f be 5f a3 fc be
       -0.166433 0.09958112 -0.15612914 -0.49343392
000050 ce d2 0e 3e 7e 95 84 3e fa 2f 1b be f3 fd 2f bc
       0.13947603 0.25895303 -0.1515502 -0.010741699
000060 16 6f dc bc 7f f5 55 3f ae 85 9b be 88 0b 80 3d
       -0.026908439 0.8357772 -0.30375427 0.062521994
000070 67 fb 43 3e 81 8b 39 bf 08 4e bd 3c fb d0 0a 3e
       0.19138871 -0.7247849 0.023108497 0.13556282
000080 9e d9 7b be 48 eb 2d 3e bb 66 87 3e 9d b8 9d be
       -0.24594733 0.16984284 0.26445565 -0.3080491
000090 d5 91 1a 3f 9b a8 7b 3e 8d 55 88 be b4 9b b6 3e
       0.6037877 0.24576037 -0.2662777 0.35665667
0000a0 b8 75 0c 3e e7 ee 7b be 61 f7 6f bd 10 46 42 3e
       0.13716781 -0.24602853 -0.05858553 0.18972039
0000b0 dd 8f 66 be c8 eb 0d 3e 94 0a 38 be 1e 0f f2 3e
       -0.22515817 0.13859475 -0.17972785 0.47277158
0000c0 ca d3 4f be cf 62 b7 3e b1 33 bb be b8 46 a4 3e
       -0.20295635 0.35817572 -0.36562875 0.32085204
0000d0 c0 cb a5 bd 5c 9d e9 bd e5 62 4f 3f 10 ba 05 3e
       -0.08095503 -0.11406967 0.81010276 0.13059258
0000e0 34 af 9f be 44 0c d1 bd c2 df 66 3e a5 72 aa be
       -0.31188357 -0.102074176 0.22546294 -0.33290592
0000f0 cf 91 6e 3e f7 46 7d be 22 46 ae bd ee f9 8a 3d
       0.23297809 -0.24734102 -0.085094705 0.067859516
000100 9f b8 fb 3e 8f 14 41 bf ce 7e 1a be 19 d8 bb be
       0.49164292 -0.75421995 -0.15087435 -0.36688307
000110 ce 66 19 be c0 6d cc bd b2 31 19 bf 13 dd f4 bd
       -0.14980623 -0.09981871 -0.59841454 -0.11956229
000120 c3 ff d0 3d 85 39 00 ba 33 d6 cd bb b1 6b d7 3d
       0.10205033 -0.00048913836 -0.006281638 0.105185874
000130 78 6f 06 3f d5 07 9c be 3e 0e 87 3e eb 18 70 be
       0.5251384 -0.30474725 0.26378053 -0.23447005
000140 ab c0 46 bd 08 98 f6 bd 88 fe 08 bf e1 ef 08 3e
       -0.048523586 -0.120407164 -0.53513384 0.13372757
000150 84 74 d5 bd a2 1d df bd 52 38 8c bd 80 4c 25 be
       -0.10422614 -0.10894324 -0.0684668 -0.16142464
000160 a5 8c 00 bf 37 6f 1a 3f 9b 18 d2 be 93 c0 c3 bd
       -0.50214607 0.6032595 -0.41034397 -0.09558215
000170 69 b6 c2 3c 49 42 f5 3d 46 97 3c 3d b0 f1 1b be
       0.02376862 0.119755335 0.046042703 -0.15228915
000180 26 a5 21 3f a9 ce 77 3e 0c d5 19 be 6b b4 4d 3d
       0.6314262 0.24199928 -0.15022677 0.050220888
000190 83 a7 06 bf 76 04 4d 3d 39 62 e6 3d 73 02 0c bf
       -0.5259935 0.050053082 0.11249203 -0.5469124
0001a0 67 f2 cd 3d 89 94 20 be 85 34 56 bc ec 0c a6 3d
       0.10056 -0.15681662 -0.013074045 0.081079334
0001b0 fc 0c 50 3d cc 07 5a 3e e2 85 28 3e 9e 09 eb be
       0.050793633 0.21292037 0.16457322 -0.45905775
0001c0 ab 7e 17 3e 8e 8b 2e 3e 8b 3c 8c be 1a e1 0d 3e
       0.14794414 0.17045423 -0.2738994 0.138554
0001d0 f8 a4 57 3e 8f d8 a4 3e a9 d1 21 be 94 03 5e be
       0.21059024 0.3219647 -0.15802635 -0.21681052
0001e0 a6 13 bd bb 63 ed 95 bd fc 9e 05 3e 3d 80 14 3f
       -0.0057701645 -0.073206685 0.13048929 0.58008176
0001f0 a0 a0 4b bd af 0f 1f 3e 6d 60 85 3e 53 45 66 3e
       -0.04971373 0.15533327 0.2605013 0.22487383
000200 08 a5 40 be 73 b9 b0 be 37 99 d3 bd de 13 80 3e
       -0.18812954 -0.34516487 -0.10331958 0.25015157
000210 6c 9c 01 be 49 2e a6 be ab 2d e7 be 1d c7 08 3d
       -0.12657326 -0.32457188 -0.4515203 0.033393014
000220 98 1a 6f 3d bc 5e c1 3e 33 3a 09 bf 32 0c 76 3d
       0.05837497 0.3776759 -0.5360443 0.060070224
000230 de dd 84 3e 0c 44 21 3f ca a0 42 3f 95 c2 fd 3e
       0.2595052 0.62994456 0.76026595 0.49562517
000240 f3 a2 90 3e b7 77 b0 3e f9 9f b3 bd 99 ae 20 be
       0.2824932 0.34466335 -0.08770747 -0.15691604
000250 e9 53 4f bd b2 bd dd be 85 3a 9a be f7 ac 95 be
       -0.050617132 -0.4330879 -0.30122772 -0.29233524
000260 ab 66 e6 3c ef 08 89 3e a2 41 5a be cb ae ec be
       0.028125128 0.26764628 -0.213141 -0.46227106
000270 40 6a 97 3d cf 93 06 3f 5e 05 bf bd ec 85 77 3e
       0.073933125 0.5256929 -0.093271956 0.24172181
000280 db fa e2 3e 87 5e 3c bd 18 19 f4 bc 28 be 8e 3a
       0.44332013 -0.045988586 -0.029797122 0.0010890411
000290 f7 10 63 3e fb 78 7e be f0 aa 10 3f 61 9f a7 be
       0.2217444 -0.24850838 0.5651083 -0.32738784
0002a0 ff df 0f bf a3 ed 31 3e 5a d9 a0 bd 95 67 8a bd
       -0.56201166 0.17375807 -0.078539565 -0.06758038
0002b0 4c e3 3b be 73 12 53 bd 5f a2 17 bb c5 3b b2 be
       -0.18348426 -0.051531266 -0.0023137552 -0.34811226
0002c0 e2 1d b8 be ac 3b 08 3e b4 bf af 3e c1 f4 d6 be
       -0.359603 0.13304013 0.34325945 -0.41983607
0002d0 65 1d 5e 3d bc ad ae bd d4 a9 b1 3e 81 fb 93 bd
       0.05422725 -0.08529231 0.3469988 -0.07225705
0002e0 b4 e4 2b 3e 58 ef 10 3d 40 6d 8b be a7 8e 2b be
       0.16786462 0.035384506 -0.2723179 -0.16753636
0002f0 95 04 e4 3e 36 9e b1 3e 20 93 83 be 52 8e d6 3e
       0.44534746 0.34691018 -0.25698185 0.41905457
000300 52 2e 38 3e 89 b0 cb be 4c 85 9f be 29 08 a3 be
       0.1798642 -0.39783123 -0.31156385 -0.31842163
000310 ba 02 e5 be 96 43 ec 3e 54 dd 16 bf 75 1b bd be
       -0.44728643 0.46145314 -0.5893147 -0.3693501
000320 c3 67 f9 bd b5 7a 1a bf 4f 48 92 3e 80 2c 6f 3f
       -0.12177994 -0.60343486 0.28570792 0.93427277
000330 0a a0 0a be 16 b4 fc bd eb cb ef bd b4 97 8f bc
       -0.13537613 -0.12339036 -0.11708816 -0.017528392
000340 dc 8a 7e be 1a d6 3d 3d 63 64 80 bd eb 2c a6 3e
       -0.24857658 0.04634676 -0.06269147 0.32456145
000350 a0 32 87 be 87 59 52 bd cf 25 dc bd 5e df f9 be
       -0.2640581 -0.05135491 -0.10749399 -0.48803228
000360 24 ca 11 bd 4e e2 e7 3d ce b2 91 be fd ba 0b 3f
       -0.035593167 0.11322461 -0.2845673 0.54582196
000370 ab 5a 76 be 35 bd 1f be 40 2e 9a 3e bb 7e 53 bd
       -0.24058025 -0.1559952 0.3011341 -0.05163453
000380 d2 f8 20 3f 2c 0c 35 be 65 68 4b 3e 03 ab 7f be
       0.6287967 -0.17680424 0.19864042 -0.2496758
000390 57 55 9f 3e 9b d8 b2 be 76 0f 4b bd 4e c0 41 3e
       0.31119797 -0.34930882 -0.04957529 0.18921015
0003a0 c8 6f 4f be 05 9e 0f 3f b9 e3 5f be 6b ac 88 3d
       -0.20257485 0.56100494 -0.21864213 0.06673511
0003b0 90 4a f0 bd d9 18 b5 3e ac db 33 3f 9b 7a 1a be
       -0.11732972 0.3537052 0.7025707 -0.15085833
0003c0 e7 8c 89 bd fb 04 e8 3a d4 e7 05 3f b6 77 b5 bd
       -0.06716328 0.001770168 0.52306867 -0.08860724
0003d0 d6 72 44 bf a8 f0 9d 3e b6 de ec 3e 11 92 f0 3d
       -0.76737726 0.3084767 0.46263665 0.1174661
0003e0 09 21 0c be 01 46 a0 be 97 a0 81 3e 47 fa 99 be
       -0.13684477 -0.3130341 0.25317833 -0.3007376
0003f0 59 b7 c8 3e 65 75 d3 be 16 36 8b 3e 46 e6 f2 3d
       0.39202383 -0.41300502 0.27189702 0.118603274

attn_l f4 [1, 1, 39]
000000 12 77 09 be 2d 7f 50 3e b3 83 92 3d 03 1f 92 3e
       -0.13424328 0.20361014 0.07154026 0.28539285
000010 a3 a0 de 3e 7f 98 78 bd 8d 0e 4c bb 05 4e ca 3d
       0.4348193 -0.060692307 -0.0031136603 0.09878162
000020 3f 39 c0 3e 59 48 67 3e b4 f2 9e 3c 4e 31 38 3c
       0.37543675 0.22586192 0.01940284 0.011242224
000030 29 be f1 be 9d cc 04 3e 1d 4a 11 3e 0a 7b 0a bf
       -0.47215393 0.12968679 0.14188428 -0.5409399
000040 94 4b 03 be 90 1d 13 be 64 bf e3 3c 29 e8 c3 3d
       -0.128218 -0.14366746 0.027801223 0.095657654
000050 23 fb 7d bd 04 e5 1a 3e 27 62 c6 bd 05 c1 b3 be
       -0.06200708 0.15126425 -0.0968669 -0.351082
000060 37 4d 8f 3e 6a b9 ae 3c 04 97 f3 bd 5a bd a6 be
       0.27988598 0.021328647 -0.11894038 -0.3256634
000070 f3 24 b5 be 16 dd 5c 3d 2b 1d 28 be b1 31 b3 be
       -0.35379753 0.05392178 -0.16417377 -0.3499885
000080 d7 aa 44 be 57 65 90 3e 58 d0 b7 3e 6c 6a 3c 3e
       -0.19205795 0.28202316 0.3590114 0.18399972
000090 0a cd 58 3e 1b 0e e6 3d 4c 3f 33 be
       0.21171966 0.11233159 -0.17504615

attn_r f4 [1, 1, 39]
000000 de ca 0d 3e b0 71 79 3d 3c 74 09 3e 99 9d bc 3e
       0.13846919 0.060899436 0.13423246 0.36838987
000010 37 ac 93 3e dc da c0 3e c2 4f 0b be a1 77 ef 3d
       0.28842327 0.37666976 -0.13604644 0.11692739
000020 e0 c5 77 3d 42 84 fc be 07 ee 9b bc 56 f3 50 be
       0.060491443 -0.49319655 -0.019034399 -0.20405325
000030 0b 24 f3 bd 17 75 f3 bd be a6 a5 be 2c c7 00 3f
       -0.11872109 -0.118875675 -0.32353777 0.5030391
000040 98 ce 04 3e 8b 97 7c be 3e fa 44 3d 09 aa dd bd
       0.12969434 -0.24667184 0.048090212 -0.10823447
000050 93 ef d8 bd 0f 5a 19 3e 04 17 43 3e e9 4d 94 be
       -0.1059257 0.14975761 0.19051749 -0.2896569
000060 52 ba 81 be de c1 39 3d 1a 9e ac 3d ea 10 a8 bd
       -0.25337464 0.0453509 0.08428593 -0.08206351
000070 82 62 e9 3d 72 85 a6 be d4 58 88 bd 73 7a b0 be
       0.11395742 -0.32523686 -0.066575676 -0.3446842
000080 94 4d e1 be ee 42 28 be 25 14 c2 3e f6 0f 8a 3e
       -0.440045 -0.16431782 0.37905994 0.26965302
000090 4a af 95 be 35 53 b2 3d 33 22 d3 bd
       -0.29235297 0.08707277 -0.10309257

bias f4 [39]
000000 82 eb 5e bc e8 51 db bb e9 65 bb bc 84 05 29 3c
       -0.013605954 -0.0066931136 -0.022875743 0.010316256
000010 48 70 56 3c ae 72 19 3c 78 85 62 3c 64 fc 3d bc
       0.013088293 0.009365721 0.013825767 -0.011595819
000020 2e cb f8 3b ab 70 92 bb 95 a7 99 bb 98 5d 10 3c
       0.0075925803 -0.0044689975 -0.004689167 0.008811377
000030 1b c8 25 3c cc 12 58 bc e4 9e 4a bc a7 ca 29 bc
       0.01011851 -0.013188075 -0.012366984 -0.0103632575
000040 ce db 4c bc 46 a1 d6 3b 90 99 9a bc 3a 2a 3f 3c
       -0.012503577 0.006549987 -0.018872052 0.011667782
000050 a3 03 10 bc 0e 3f 70 3c 23 b4 e1 3b 9a 0f 5b bc
       -0.00878993 0.014663471 0.006887929 -0.013370419
000060 e9 ad 64 3c ba 42 86 bb 17 3b 2c bc 20 51 82 3c
       0.013957479 -0.00409731 -0.010512135 0.015907824
000070 76 e5 4b bc 11 56 2a 3c 93 1c 46 3c 05 39 a1 3b
       -0.0124448445 0.010396496 0.012091774 0.0049201273
000080 b7 65 69 3c a3 5d 80 bb a1 88 63 3c 1e 64 11 bc
       0.014245442 -0.0039174124 0.013887555 -0.008873967
000090 c4 3a 01 bc 82 59 63 bc d6 bf 42 3c
       -0.007887546 -0.013876321 0.011886558

weight f4 [39, 32]
000000 4a 66 f0 be 27 da d7 3d d2 a0 e6 bd 77 12 fa 3e
       -0.4695304 0.10539656 -0.11261143 0.48842213
000010 a5 7a 52 3d fb ed 44 be 1b cf 94 be 5f 6e 00 3c
       0.051386494 -0.19231407 -0.2906426 0.0078388145
000020 3d 73 62 bd 82 8b 15 bc 7c 63 7a be 85 fd 29 3e
       -0.05528568 -0.0091275 -0.24452013 0.16600616
000030 c4 3e 9c 3d 0b c7 8c be bf 9e 4b 3e 80 42 61 3e
       0.07629159 -0.27495608 0.19884776 0.21998024
000040 02 54 6f be a5 ee 8b 3e cb f7 75 3d dd 5f 77 bd
       -0.2337189 0.2733051 0.060050767 -0.060394157
000050 13 5c 0b be 1a b9 b4 3e eb 6d 45 3d 24 55 0a be
       -0.13609342 0.3529747 0.04820053 -0.13509041
000060 6f 41 d6 3d ce f7 b4 3d 97 c0 59 bd da 98 36 be
       0.10461699 0.088363275 -0.053162184 -0.17831746
000070 d5 88 9a bd 55 2d 25 be db b7 85 3e 44 a4 cf 3d
       -0.0754563 -0.16130574 0.26116833 0.10138753
000080 91 51 d5 3d 0e 96 de bc 6f 6b 97 3e 2e eb b1 bd
       0.10415948 -0.027171161 0.29574153 -0.08687435
000090 fe 71 f9 3e 68 17 00 be b0 b0 b1 be e3 70 dc ba
       0.48719782 -0.12508929 -0.34705114 -0.0016818311
0000a0 c4 b4 7d bc e6 06 fc 3d 3b 36 15 bf 87 83 a0 3d
       -0.015484992 0.12306003 -0.58285874 0.07837587
0000b0 ab 91 fe bd d4 64 b8 3d fd 06 05 be 79 c5 25 be
       -0.12430128 0.090036064 -0.12990947 -0.16188611
0000c0 02 95 f6 3d 7d 38 97 be 3b ae 97 3e c7 5e 63 be
       0.1204014 -0.29535285 0.29625115 -0.22204123
0000d0 d0 f1 00 bc 22 86 7a 3e d8 a9 90 3e 09 25 2f bd
       -0.007870153 0.2446523 0.2825458 -0.04275993
0000e0 8b 2a cd 3e e1 ed a2 bb 72 f8 8a be 6c 96 bb bd
       0.4007152 -0.004972205 -0.27142674 -0.0915955
0000f0 6f 3f 03 3d bd dd 36 3e 46 b5 50 bd 73 2f 29 bf
       0.032042917 0.17858024 -0.050954126 -0.66088027
000100 05 52 a1 3c 70 4a 75 be fd 99 06 3f 8d f1 8e be
       0.01969243 -0.23954177 0.5257872 -0.27918664
000110 1d ed 12 bf 9e 5b 7f 3d 84 86 9f 3d 88 9e 64 3e
       -0.57393056 0.062343232 0.07789329 0.223261
000120 c7 57 b3 ba 47 8f aa 3e ba 40 b8 3e 63 bb fc 3e
       -0.0013682776 0.33312437 0.35986882 0.49361715
000130 3b 86 b5 be 40 b2 cd be 8c c4 15 be 58 20 8e 3d
       -0.35453972 -0.40175056 -0.14625758 0.06939763
000140 aa 21 6f 3d e8 e6 9e 3e ca 9b d6 3e 73 e9 13 be
       0.058381714 0.31035542 0.41915733 -0.14444523
000150 dc 1c 9a 3c 75 62 c1 3d 6a 57 55 3e 87 a3 a7 be
       0.01881259 0.09442607 0.20834127 -0.3274195
000160 5f 8d f0 3e a3 97 12 3e 0f 65 a8 bd 90 16 9d bc
       0.46982858 0.14315657 -0.082224004 -0.019175798
000170 4c 6d 9d be 4a 13 6a 3d 59 a7 84 3e 65 23 f6 3e
       -0.3074745 0.0571473 0.25908926 0.4807388
000180 63 1a 96 be 60 04 48 3d 51 58 00 be 6a e3 a5 bd
       -0.29317006 0.048832297 -0.1253369 -0.081000164
000190 d2 4c db 3c 4d 54 74 3b 4d 4d 05 3e ff 51 f0 bd
       0.02677003 0.0037281692 0.13017769 -0.117343895
0001a0 ee bc d6 bd 83 cf 3a 3c 74 25 9c bc 39 f2 86 bd
       -0.10485254 0.011402014 -0.019060828 -0.06589169
0001b0 26 f0 83 be 7a b9 05 3e cf 4a 8a 3e ab ec 14 be
       -0.25769156 0.13059035 0.270102 -0.14543407
0001c0 ae 1e e2 be 3d 59 1b be 4e aa 8d bd 08 fc 08 be
       -0.44164032 -0.1517076 -0.06917249 -0.13377392
0001d0 d7 c8 70 bd 1c 14 8f 3e db 9c 89 be 26 d2 6f 3e
       -0.058785286 0.2794503 -0.26877484 0.23420009
0001e0 ea 1b 25 be 3b 87 e4 3e 2f 80 04 bf 74 8c b1 3d
       -0.1612393 0.44634423 -0.5175809 0.086693674
0001f0 82 29 88 be 9d 45 ad 3e 56 dc 18 3d 65 a6 8b 3e
       -0.26594168 0.33842173 0.037319504 0.27275386
000200 2a 37 8d bd 0f e6 a1 be 51 51 1a 3e fc 66 5d 3e
       -0.06895287 -0.31620833 0.15070082 0.21621317
000210 4a 41 c2 be 0d 20 4b 3e e4 15 d5 be 68 18 00 3e
       -0.37940437 0.19836445 -0.41618264 0.1250931
000220 82 56 c2 3d be b0 14 be cc 93 30 bd 5f eb 11 3e
       0.09489156 -0.14520547 -0.0431097 0.14249943
000230 07 3d 0c 3e 88 70 82 3d 17 1f a2 be 2b db 6e 3e
       0.13695155 0.0636912 -0.31664345 0.23325793
000240 9a 69 0b 3f 30 27 b8 be ba 99 cd bd a7 9a dd 3e
       0.5445801 -0.35967398 -0.10039087 0.43282053
000250 64 81 a4 bd bf 67 6a be e7 d3 19 3e ab 6b 80 3e
       -0.08032492 -0.22891138 0.1502224 0.25082144
000260 9d 83 c6 bd 70 2d 97 3e d1 82 7d 3e 7e 86 b5 be
       -0.09693072 0.29526854 0.24756934 -0.35454172
000270 ad c2 76 bd 07 97 71 3e c1 a4 1d 3d 1a 40 4e be
       -0.06024425 0.23592769 0.0384872 -0.2014164
000280 6c 51 3a 3d 9e b2 96 be 0e 2d 36 3e c9 3d 80 3e
       0.045487806 -0.2943315 0.17790624 0.25047138
000290 85 43 81 3d 2f 95 31 3e 46 54 a1 3e a5 a1 01 3d
       0.063117065 0.17342065 0.31509608 0.031648297
0002a0 08 66 91 3e be 05 48 3e d2 4f 3a be 2c 6a a2 be
       0.28398156 0.1953344 -0.18194512 -0.31721628
0002b0 4c da 8b be 28 09 18 bf 9d 85 9a 3e 50 a3 59 be
       -0.27314985 -0.5938897 0.30180064 -0.21253705
0002c0 79 36 61 3e 99 8d a0 3d 97 3f 3f 3e 31 26 87 be
       0.21993436 0.078395076 0.18676601 -0.26396325
0002d0 ef 73 8e 3e b0 3e cb be 8b 9c 61 be 9b ef 01 3e
       0.27822825 -0.39696264 -0.22032373 0.12689058
0002e0 2b 68 23 bd 01 08 66 3e bc 47 ae bc 0a 48 2c 3d
       -0.039894264 0.22463991 -0.02127444 0.04206089
0002f0 43 44 df bc 14 a9 c7 3e 35 6a bb bd f3 6d 00 3f
       -0.02725423 0.38996184 -0.09151117 0.5016777
000300 74 20 6c 3d fd ff 2a bb cb 2a 38 bd ac 13 bf bb
       0.057648137 -0.0026092522 -0.044962686 -0.0058312025
000310 58 77 b3 3e c5 e4 95 3e 06 31 f2 3d 89 15 f1 be
       0.3505199 0.292761 0.11825757 -0.47086743
000320 ae 2b ca 3d 68 e0 87 be 8b 54 b7 bd 26 df e8 bd
       0.098716125 -0.26538396 -0.08951672 -0.11370687
000330 54 88 15 be 3c ce bd be 17 f1 9a be 77 74 cb 3e
       -0.14602786 -0.37071407 -0.30262062 0.39737293
000340 2b e1 38 3a d3 33 77 bd 0f e9 96 3e 8c f3 f0 be
       0.00070525956 -0.060352158 0.29474685 -0.47060812
000350 01 68 66 3e 7c eb 67 be 92 58 c7 bd ac 10 55 bd
       0.22500612 -0.22648424 -0.0973369 -0.052017853
000360 37 08 5e be 5b b2 ce bd 7c 95 60 3e f4 d1 84 3e
       -0.21682821 -0.10092612 0.21932024 0.25941432
000370 04 96 53 be 07 5e 05 bf 3d ce 56 bd 8d eb b1 3e
       -0.20662695 -0.520966 -0.052442778 0.34750023
000380 d0 50 41 3e d1 53 d0 3b b9 63 c0 bd d7 a4 1e 3d
       0.18878484 0.006357648 -0.093940206 0.038731422
000390 c3 19 1a be 93 73 f0 be ca 2f 2c bd f7 33 96 bd
       -0.1504889 -0.46963176 -0.042037763 -0.0733413
0003a0 8f 7a 15 3e 24 d4 91 bd b8 8b 2d 3e 4d ab 98 bd
       0.14597534 -0.07120541 0.1694783 -0.07454548
0003b0 20 a9 ef 3e 87 ce 57 bc 6c 2c 3d be 4a 9b b9 bc
       0.4680872 -0.013171799 -0.18473977 -0.022657055
0003c0 eb 04 b4 3d ec de fa 3d 9e cd 60 3d c3 21 e5 bd
       0.087900005 0.1224955 0.05488359 -0.1118808
0003d0 60 f6 07 be 4a 30 fe bd 2f c9 9c be a2 66 2d 3c
       -0.13277578 -0.12411554 -0.3062224 0.010583552
0003e0 5e 89 fd bc 29 39 48 3e 23 a7 8c be 37 ee a4 bd
       -0.03094929 0.19553055 -0.27471265 -0.080532484
0003f0 f5 74 fb bd 89 9d 68 3e bd 91 ef 3d f0 ce d2 be
       -0.12278167 0.22716345 0.11697719 -0.41173506

weight f4 [10, 78]
000000 27 7c c4 3b 11 f6 98 bb 1f 21 6b 3d 69 fe 93 3d
       0.0059962454 -0.0046680053 0.057404634 0.07226259
000010 99 bc af bd d7 37 12 3d 71 c2 ba bd 86 b0 41 bd
       -0.08580894 0.035697784 -0.09119118 -0.047287486
000020 49 e8 35 3d 6e ed 77 3c 6b 24 ca bd 94 d5 9e 3a
       0.044410978 0.015132291 -0.098702274 0.0012118095
000030 29 70 bf 3d ca 6f a8 3d c9 58 ac bd 97 4e ab 3d
       0.09347565 0.08224447 -0.08415372 0.08364599
000040 4b 1f 8e bd 48 e3 4c 3d 43 08 36 3d 98 3c 9c 3c
       -0.069395624 0.05002144 0.044441473 0.019071862
000050 ac 37 eb 3c 50 df cb 3d 6e 77 3d 3d 4e fc 92 3d
       0.02871307 0.09954703 0.046256475 0.071770296
000060 8a fa 2d bd ad f1 8f 3d e9 4d ad bd c9 36 a4 bc
       -0.04247526 0.07028518 -0.08462126 -0.020045655
000070 73 ca 7c bb 36 77 37 3d 4a 85 27 bd c8 18 b9 3d
       -0.0038572818 0.044791423 -0.0408986 0.0903793
000080 9b e4 ad 3d 13 5c 08 bd b5 05 f6 bd 06 bf bc bd
       0.08490869 -0.033290934 -0.12012807 -0.09216122
000090 3b 00 eb 3c 9b 1e c8 3d a8 5a f3 3c b7 f1 7d 3d
       0.028686633 0.097714625 0.029706314 0.061998095
0000a0 0c fa 0c 3d db 61 be 3c 86 df bf 3d 15 81 d3 bd
       0.03441815 0.02324002 0.093688056 -0.10327355
0000b0 22 85 c7 3c b8 76 57 bd f1 fb b1 bd 94 32 03 3c
       0.024355475 -0.052603453 -0.08690632 0.008007664
0000c0 48 a7 0b 3e 16 f2 a0 3d ff cd 0a bc 17 48 aa 3d
       0.13638031 0.07858674 -0.008471965 0.08314531
0000d0 2e d7 9a 3d cc be 72 3c 67 09 b1 3d 4e fe f9 3d
       0.075605735 0.014815997 0.086443715 0.12206708
0000e0 70 ef bd 3d fa cb a5 3d 02 8c 8d 3c 36 17 a6 3c
       0.09274185 0.08095546 0.017278675 0.02027474
0000f0 20 95 16 3d fb 4c 9c 3d 26 79 7e bd c1 98 ca bd
       0.03676331 0.0763187 -0.062127255 -0.09892417
000100 aa ce 94 bd 2a 16 4a bc d0 24 12 3d 78 d2 c5 3d
       -0.072659805 -0.012334386 0.03567964 0.09659284
000110 3b 0b aa 3d 22 3a ce 3c c7 de ae bd 11 0f d7 bd
       0.08302923 0.025174204 -0.08538585 -0.105009206
000120 ae c5 10 3d 14 7a 95 3d 0e b2 a2 bd f1 b2 fc 3c
       0.035344772 0.07298675 -0.079441175 0.030847045
000130 9f a3 01 3e c5 43 c4 bc 2d 19 93 bd d8 a2 8b bd
       0.12660073 -0.023958096 -0.07182536 -0.06818169
000140 ec 7f bc bd 86 d8 75 bb cd a5 98 bd 94 72 70 bd
       -0.09204087 -0.0037513091 -0.07453499 -0.05870302
000150 0e 4e 9b 3d 7b ab 3d 3d 8a 3d 60 3d 43 b1 f9 3c
       0.07583247 0.046306115 0.05474619 0.030480033
000160 31 b1 19 3d 48 1b 8d 3d a9 97 f7 bc 98 59 51 bd
       0.0375225 0.06889969 -0.030223684 -0.051110834
000170 3a 77 36 bc da 39 e1 bd cf 70 3d bd 8c 71 59 bd
       -0.011136824 -0.109973624 -0.04625016 -0.053086802
000180 47 a4 42 bd f7 45 81 bd 5b 2f f1 3c e4 ce 91 3d
       -0.04751995 -0.06312173 0.029441526 0.071195394
000190 dc 1c d1 bc 43 98 96 bd 49 35 a0 3d cf 13 90 3c
       -0.025526457 -0.0735326 0.07822663 0.01758757
0001a0 1c 30 2c 3d 3d 5b 01 3d 43 63 aa bc 37 91 34 bd
       0.04203807 0.031581152 -0.020799285 -0.0440838
0001b0 19 3a ca 3d b1 dc d6 3c 1c 77 c9 bc 7f 81 b5 3c
       0.098743625 0.02622828 -0.024592929 0.022156475
0001c0 1a 48 7a 3d ec 8f 5a bc ce bb f3 3c 06 0a 60 bd
       0.061103918 -0.013339978 0.029752638 -0.05469706
0001d0 a0 af 73 3b 71 35 14 3d 45 d9 b7 3d 5e 3e 97 bc
       0.0037183538 0.03618378 0.08976988 -0.018462356
0001e0 b4 52 0b 3d a7 99 ad 3d 20 22 cb 3d 84 92 cc bb
       0.03401442 0.084765725 0.09918618 -0.006243052
0001f0 31 41 09 3d df 1a a3 bc 46 d8 cd 3d 2d d4 08 be
       0.033509437 -0.019910274 0.100510165 -0.13362189
000200 87 15 3a bd 13 bb 23 bd d9 c8 21 bc 0b 9a 30 bd
       -0.045430686 -0.03997333 -0.009874546 -0.043115657
000210 a1 e8 25 bd fa 17 9d 3c b1 35 d4 bd a5 8b 12 bd
       -0.040505055 0.019176472 -0.10361803 -0.035777707
000220 2f c0 ef bd 90 d1 88 bd 56 ef 69 3d f9 60 fe bd
       -0.11706578 -0.06680596 0.057113014 -0.1242084
000230 ee 7f a0 ba f2 46 1e 3d d0 32 a5 bd 78 93 11 3d
       -0.0012245157 0.038641877 -0.08066332 0.035541028
000240 8c 19 bd 3d ee 8e c1 bd 71 24 f4 bc 11 fe fd 3c
       0.09233388 -0.0945109 -0.029802533 0.031004937
000250 a0 d5 80 bd 56 66 3e 3d 0a cf 88 3d b3 56 61 bd
       -0.06290746 0.046484314 0.066801146 -0.055014323
000260 9e 31 68 3d ca 69 5e bc 19 88 c2 bc 7f 19 9a bb
       0.056687944 -0.013575027 -0.023746537 -0.0047027464
000270 23 9f b4 3d ba 3f 5a bd fb 79 c3 3d 06 39 4c bd
       0.088194154 -0.05328343 0.0954475 -0.04985907
000280 5d 89 64 bd 48 39 d6 bd cc 2b ce 3d 07 de 11 bd
       -0.055795062 -0.10460144 0.10066947 -0.035612132
000290 5d c5 fe bd 0f 90 1f 3c fa b4 a5 3d 8d 6c 03 3e
       -0.12439988 0.009738936 0.08091159 0.12834378
0002a0 ac 63 22 bd b8 6c 45 3a 46 8f b6 3d fb ec 66 bc
       -0.039645836 0.0007531154 0.08914046 -0.0140945865
0002b0 a0 c5 81 bd be 20 de bd 46 40 0c be 08 57 e6 3c
       -0.06336522 -0.10846089 -0.13696393 0.028117672
0002c0 76 79 cb 3d 83 b2 37 3d 0a 2e e2 3d ae 42 cd 3d
       0.09935276 0.044847976 0.110439375 0.10022484
0002d0 bd 96 c1 bc 1f 72 57 3d 47 cf 57 bd 9f 5f bc bd
       -0.023631448 0.05259907 -0.05268791 -0.09197926
0002e0 82 63 07 be fa fd cf bc 6b 26 77 3d 53 1b bb 3d
       -0.13221553 -0.02538966 0.060339373 0.09136071
0002f0 24 2f c8 bd 22 79 19 bb 27 bf 78 3d fe cb a6 bb
       -0.09774616 -0.0023418148 0.060729172 -0.0050902357
000300 7d 2a aa bd 7c 51 9b bd 62 f0 ec 3d 40 c5 c5 bd
       -0.08308885 -0.07583901 0.11569287 -0.09656763
000310 9d fa c2 3d 6a 87 2a bd 51 77 ee bd 8c 0d a1 bd
       0.09520457 -0.041633047 -0.116438515 -0.07863912
000320 20 df a8 3d 84 80 80 3d 74 2e e3 3d c6 54 85 3d
       0.08245683 0.062745124 0.110928446 0.0651031
000330 0a 46 b2 3c 09 57 b1 3c c9 0b ac 3d 86 45 72 3d
       0.021761913 0.021647947 0.08400685 0.059148334
000340 9e 95 0e 3e b9 77 78 bd 56 59 12 bd 67 15 96 bd
       0.13924262 -0.06066105 -0.03572973 -0.07328301
000350 83 b4 61 3c 54 4a 58 bd 15 4e 9a bc a1 f2 de bd
       0.0137759475 -0.05280526 -0.01883606 -0.108861215
000360 f1 da f1 3d 95 be 00 3e 58 e6 26 bd 54 57 c9 bc
       0.11809338 0.12572701 -0.040747017 -0.024577774
000370 f4 b7 2b 3e db ee b1 bd 52 4d 80 3c c9 68 7d bd
       0.16769391 -0.08688136 0.01566187 -0.06186751
000380 07 5d 20 3e f8 23 27 3c c5 61 bd 3d c1 f8 af bd
       0.15660487 0.010201447 0.09247164 -0.08592368
000390 4e ae a7 bd fd 3a 03 bd 7d 39 38 bd 6c 95 80 3c
       -0.08187543 -0.032038677 -0.0449767 0.01569625
0003a0 76 d1 bf ba fb 48 df 3d 84 ba c9 bd 5f ac bb bd
       -0.0014634568 0.10902592 -0.09850028 -0.091637366
0003b0 ff fc 69 bc 7e 50 13 bd 8d 53 8e bd a9 bf 95 3c
       -0.01428151 -0.035965435 -0.0694953 0.018279867
0003c0 72 6c 40 bd f2 31 da bc 79 e3 ba 3c 92 31 2d bd
       -0.04697842 -0.026635144 0.022813546 -0.042283602
0003d0 22 0d 80 bd 69 2c 8a 3d 10 b6 82 3d 0e e5 9a bd
       -0.06252505 0.06746752 0.06382382 -0.0756322
0003e0 58 dc 93 bd e3 a8 02 bd 29 77 5e bc a4 b0 85 3d
       -0.072197616 -0.031899344 -0.013578215 0.06527832
0003f0 06 63 5f 3d 89 cd cc 3d 9c 99 06 bc bb fc a5 bd
       0.054537795 0.1000014 -0.008215334 -0.08104845

bias f4 [10]
000000 ed 6c d3 bd 4a 5a 27 bd 72 cd a3 bd cb ce a1 3d
       -0.1032351 -0.04085759 -0.0799817 0.07900771
000010 e2 0f 91 3d d8 8b bf ba 28 8a 98 3d fb f2 28 3d
       0.070831075 -0.001461382 0.07448226 0.04124735
000020 59 53 a9 bd 39 be ac bd
       -0.082678504 -0.084347196
