E-GraphSAGE/experiments/binary_model/None_SFF_MLP_NF-BoT-IoT-v2_best_model.pth (torch, 380084 bytes, 18 tensors)

weight f4 [128, 78]
00000000: ac35 ad3d 7ff1 a43d a995 a83d 37de ec3c
00000010: bfe5 673d ff68 d43d a251 3e3d 0902 d0bd
00000020: 17ff 4e3c 0716 80bd 8932 ccbd c74a 7ebd
00000030: 7c27 813c cf71 7a3d d906 3c3d 606f 07bd
00000040: 9dc8 5ebc 7316 343d c0f6 ef3d e09b eb3d
00000050: 466a 38bc aea2 9d3d 8c8a f13d 07ce c6bd
00000060: 511a 013d d7ba 83bc a1cd 6dbd 1598 303d
00000070: 89a6 cabd f4bb b6bd 10c0 b13d ce2a 37bc
00000080: 4af9 6fbd 578a 99bd da08 533b ba92 663d
00000090: 8e80 79bd 9d63 7d3d 79c1 b33d 5ccb 0dbe
000000a0: 3a81 afbd ab11 7fbd 01dd 09be 4822 28bc
000000b0: 4fea 333e dd2e d63d 8ca6 c3bd 2438 dc3d
000000c0: 745c 99bd 7fa9 333d c440 003d b8ce 05be
000000d0: 02af 40bd 620c 14be 8694 95bd 0ba3 8abd
000000e0: 7585 bbbb 0a5e 17bd 646d 71bd 02f6 32bd
000000f0: 98c8 ccbd ef7e f43a 91c2 4abd 92a1 d6bd
00000100: 3a26 913d 89ec c1bd 4140 8f3c df32 b5bd
00000110: 54fa 6e3d 257b 1a3d 96bf 1bbc d3ff 70bd
00000120: d402 7c3d 4c27 af3d 1e37 53bc 9666 a2bc
00000130: 236c 213b 0703 ba3c fe78 cabd e477 b63c
00000140: 19b7 9bbd 10b4 5f3d 3ab8 fbbc a83d e1bd
00000150: e691 c43c aae7 b0bd 14b6 f2bd 4b72 06be
00000160: 6903 a13d 227c acbd 6067 f4bd f577 563d
00000170: c822 fd3c 7f79 9ebd 0fde 43bd d191 6d3d
00000180: c67c 2abc 95ec acbd 8ac4 f3bd 4cec b2bc
00000190: 12c8 e4bd c8e1 2f3d 31f8 bdbd ea88 ab3d
000001a0: 184f 0e3d 3796 e73c 442b 51bc 64e6 d23b
000001b0: 21da 3cbd 6164 2bbc df9c eebd ece2 a1bd
000001c0: 6009 05be 6970 8c3b 90f3 5e3d fa1e 01be
000001d0: e713 82bd f48f 8f3d 15a0 803d 6b95 4cbd
000001e0: a07c 373c d0fe 3c3c 1b8c 56be d6a2 6fbb
000001f0: 4249 893d 7399 60bd eebe e4bc 53d0 cebc
00000200: b077 103e 05f0 b63d 95f9 293c a22c 383d
00000210: c1c4 ea3d 5dae 01be 1570 dc3d d8e0 25bd
00000220: 38ce ca3d ff47 f93d 9ea2 453d 0c7e 223e
00000230: 7f51 be3d 8f75 9b3d eb96 11bc 014e c5bc
00000240: 7898 e23c 0a17 993d 2483 eb3d f591 e6bc
00000250: 1746 27bd 7cf9 ca3d c114 283d 8acd a0bd
00000260: 93d1 813d 9b74 233c bf88 9a3d 9838 a83b
00000270: 3351 763d 0e0d 9bbd c537 11bd dafb de3d
00000280: 0862 fd3c a0f7 48bd f7cb b7bd d344 fe3d
00000290: 07d7 96bd a436 103c 75f7 503d ea22 adbd
000002a0: 3a5e a63d 09fa 8cbd c3bc 03bd be16 4abd
000002b0: d0ca 0a3d 9851 823d b859 c2bd 518e 9c3d
000002c0: 0e02 c0bc 7e90 88bd f9d5 473d 17cc aabd
000002d0: 7dae 7f3d 1b69 92bc d846 243d ab6b 52bd
000002e0: 77b4 bc3d d63d 4e3d 8f9b a53d 7a44 91bc
000002f0: 370d 99bd a78c a93d 7513 a33c bbfd 7abd
00000300: ff4a fdbc 0eb2 ec3b 4dd2 413d 672e 293d
00000310: 34a9 1d3d 717d 8f3d 20e9 0cbc 6e93 103e
00000320: ceff 433e 0679 1dbd 9286 bebd 9c35 dfbb
00000330: 3930 0dbb e824 3fbd 2373 2cbc 6425 033d
00000340: 4af4 583d 8ea0 5b3c ea1d 38be a250 d23d
00000350: 96c9 083c 631f a63d e2ad 0a3e aa7d 3f3d
00000360: 1535 f5bb 54ee 053e bc2d 223e 5ca2 fe3d
00000370: 3478 8d3d aef6 dfbc e6cd 02be 4703 9b3d
00000380: 5d25 a03d 0d65 b4bd ff16 69bd 8b1f ea3d
00000390: 6410 84bd 2f3f 703e e958 9dbd 7751 29ba
000003a0: 41f4 06bd 6630 033e fc2f 6d3d b7ae 8bbd
000003b0: d58c c03d 87b0 8b3d e6c3 933d 3614 653d
000003c0: 2a9d 433d 8552 643d b1b7 543d 9258 ee3c
000003d0: 03a2 bc3d 2e2d 0e3d 0785 ed3d 4e27 393c
000003e0: 8eab c5bc 157f 47bd b717 bfbc 43e6 d0bd
000003f0: 64f3 dbbd 88b5 4abc a04f bd3d 0883 a23d
0.08457503 0.08053874 0.082316704 0.028914554 0.056615587 0.10371589 0.04646457 -0.10156638
0.01263406 -0.062542014 -0.09970576 -0.062083032 0.015765898 0.061143693 0.045904968 -0.0330652
-0.013597635 0.04396672 0.11716986 0.1150434 -0.011255806 0.07697044 0.11794004 -0.09707265
0.031519238 -0.016080303 -0.05805743 0.043113787 -0.09895045 -0.08922568 0.08679211 -0.011179639
-0.05858735 -0.07497089 0.003220132 0.056292273 -0.060913615 0.061862577 0.08777136 -0.13847107
-0.0856957 -0.06227271 -0.13463213 -0.01026208 0.1756985 0.10458157 -0.09553251 0.107528955
-0.07488337 0.043862816 0.031311765 -0.13067138 -0.0470419 -0.14457849 -0.07303719 -0.06769379
-0.0057226964 -0.036954917 -0.058942214 -0.043691643 -0.09999198 0.0018653552 -0.04950196 -0.10480036
0.07087369 -0.094689436 0.017486693 -0.088475935 0.0583442 0.037715096 -0.009506127 -0.058837723
0.061526135 0.08552417 -0.012891559 -0.019824307 0.0024631105 0.022706522 -0.09886359 0.022273965
-0.076032825 0.05461508 -0.030727495 -0.10998088 0.023995351 -0.086379364 -0.11851135 -0.13129537
0.078619786 -0.08422114 -0.1193378 0.052360494 0.030900374 -0.07738017 -0.047819193 0.05800039
-0.010405725 -0.08443562 -0.11902721 -0.02184119 -0.11170973 0.04293993 -0.092758544 0.08375724
0.0347434 0.02826987 -0.012766663 0.006436156 -0.04610646 -0.010460944 -0.116510145 -0.0790461
-0.12991858 0.0042858613 0.054431498 -0.12609473 -0.06351452 0.07009879 0.06280533 -0.049947184
0.0111991465 0.011535361 -0.20951883 -0.0036565564 0.06703426 -0.05483384 -0.027923074 -0.025245821
0.14108157 0.08932499 0.010374446 0.04496444 0.11463309 -0.1266417 0.107635655 -0.04049763
0.09902614 0.12171935 0.048250787 0.15868396 0.09292888 0.07590782 -0.008886079 -0.024085047
0.027660593 0.074750975 0.114996225 -0.02814577 -0.040838327 0.099108666 0.041035417 -0.078517035
0.06338801 0.009976531 0.075456135 0.0051336996 0.06013603 -0.07570849 -0.035453577 0.108878806
0.030930534 -0.04906428 -0.0897445 0.12415471 -0.07365232 0.00880209 0.051017243 -0.08453925
0.08123441 -0.06883628 -0.03216244 -0.049338095 0.033884823 0.06363219 -0.09489769 0.07644332
-0.02343848 -0.06668185 0.048788045 -0.08339708 0.062422264 -0.017872384 0.040106624 -0.05137221
0.092141084 0.05035194 0.08086311 -0.017732847 -0.07473224 0.082787804 0.019906739 -0.061277132
-0.03091955 0.007223374 0.0473197 0.04130402 0.038491443 0.07006348 -0.008600503 0.1411874
0.1914055 -0.038445495 -0.09303011 -0.0068118107 -0.0021543636 -0.046666056 -0.010525498 0.03201808
0.052967347 0.013404978 -0.17980161 0.10269286 0.008348843 0.08111455 0.13542894 0.046750702
-0.0074831345 0.13079196 0.15837759 0.12433311 0.069076926 -0.027339306 -0.12773857 0.075689845
0.078196265 -0.088083364 -0.056906696 0.114317976 -0.06448439 0.23461603 -0.07682974 -0.00064589776
-0.032947782 0.12811431 0.05790709 -0.068204336 0.094018616 0.06820779 0.07215099 0.055927478
0.047757305 0.05574276 0.051932994 0.029094968 0.09210589 0.034711055 0.115976386 0.011300875
-0.024129655 -0.04870518 -0.023326738 -0.10200169 -0.107397825 -0.012372382 0.09243703 0.079351485

bias f4 [128]
00000000: f3c7 adbd 5469 013d 45bf 3abd 8948 573d
00000010: 3692 3dbd 0039 edbd 6479 1e3d 5dfe e63d
00000020: cd55 88bc 5cf2 89bc 1393 a8bd 1338 3e3d
00000030: 37a2 4e3d 6b66 003e e4e4 29bd 8e1a c3bd
00000040: 61ac e2bd 59dd 183d dcb2 e53d 2b2a 0e3b
00000050: 550a aabd cf40 86bd 4fe1 bfbd e17c 51bb
00000060: a8bf 0d3c 5930 c73d 31c3 1dbb 05cb b73d
00000070: 0847 b13d 64a3 a53d 7c2a a9bb 12be 5c3d
00000080: ce1d a8bb 6804 09bc b5e3 fd3d 399f cb3d
00000090: 60ac 8c3b fb83 77bc 579f b8bd 7b80 ed3d
000000a0: e4f0 dabd 932d a3bd e365 c43d c27c 6b3d
000000b0: 3c27 013d 7694 963d 0062 753d 7611 87bc
000000c0: 0d88 adbc a8bc 323d 8aad a13d 8749 bd3d
000000d0: 9eba d63d bfd5 5bbd 6b76 73bc 355b 9b3d
000000e0: be1f d73c 2f3a 183d de76 d63d 167d 57bd
000000f0: f61d 9d3d 90d3 7fbc 0e67 1cbd 4efd bebd
00000100: 37a7 233d 74dc bc3d 70b0 9f3d 7e14 febc
00000110: d3b0 6a3d f3be 003d 1f76 603d 56d8 d7bd
00000120: 4cbf a0bd 016e b8bd 3f69 ba3d f9b4 913d
00000130: 8167 68bd 6ff9 aebc 31ac b4bc 610b 2f3d
00000140: 9731 c63d 284d 8bbd 35da b2bd 1690 c6bd
00000150: 9288 9e3c 2a07 b0bd 510b a5bc 1278 d9bd
00000160: d513 00bd 8ead fb3d 2e2d de3c aef8 1a3d
00000170: 96e1 b23c 0cb6 95bb 21fb a6bd 05ac e43d
00000180: 217c ce3d 03ef 893c 5852 e63c 90c1 9bbd
00000190: a7b9 73bd ea1e bb3c 363e 20bd 22ea 8bbd
000001a0: 3ebc 343d 3d41 aebd d45e 063e 6dc6 7d3d
000001b0: 8b12 da3c 2b00 af3d f3fe bd3b df8a 413d
000001c0: 4c38 94bd b189 043e df77 d5bd dbed 033d
000001d0: 46ed 933d 96af c63d 46da 6e3d 974a 7a3d
000001e0: 3f69 babd 7ef0 a0bd a45e a0bd e8da 4b3d
000001f0: 13d8 e0bd 120c 2abd 29b0 68bd 2511 de3d
-0.08485403 0.03159459 -0.045592565 0.05255941 -0.046282016 -0.115831375 0.038689986 0.11278985
-0.016642476 -0.016839199 -0.08231177 0.046440195 0.05044767 0.1253907 -0.041478053 -0.09526549
-0.11068035 0.03732047 0.11215755 0.0021692615 -0.08302752 -0.0655533 -0.09369146 -0.0031965303
0.008651651 0.097260185 -0.0024072642 0.0897427 0.08656126 0.08087805 -0.0051625352 0.053892203
-0.005130506 -0.008362867 0.12396947 0.09942479 0.0042930096 -0.01510715 -0.09014767 0.11596771
-0.106904775 -0.07967677 0.09589746 0.057492025 0.031531557 0.073525354 0.059907913 -0.016487818
-0.021183038 0.043636948 0.07894428 0.0924254 0.10484813 -0.05367064 -0.014859776 0.07585756
0.026260253 0.037164863 0.10471891 -0.052609526 0.0767173 -0.015614405 -0.038184218 -0.09325658
0.03995439 0.092217356 0.07797325 -0.03101563 0.05729754 0.031432103 0.05480015 -0.1053931
-0.07848987 -0.090053566 0.09102105 0.07114596 -0.056739334 -0.021359174 -0.022054764 0.04273546
0.09677427 -0.06801826 -0.08733026 -0.09695451 0.019352231 -0.085951164 -0.020146998 -0.10618605
-0.031268913 0.12288962 0.027121153 0.037834816 0.021836083 -0.004568821 -0.08153368 0.111656226
0.100822695 0.016837602 0.028115436 -0.076052785 -0.059503224 0.02284189 -0.03912183 -0.06831767
0.044124834 -0.08508537 0.13122112 0.06195681 0.02662017 0.08544954 0.0057982146 0.04725158
-0.072373 0.1294315 -0.10423254 0.03220926 0.07222991 0.09701459 0.05831363 0.06110629
-0.09102105 -0.0785837 -0.07830551 0.049769312 -0.10978713 -0.041515417 -0.056808624 0.10843114

weight f4 [128, 167]
00000000: 1508 273c 9270 2ebd 7b55 f83c b59b 923d
00000010: 0e1d aa3d 7d06 62bd abd3 393d e341 71bd
00000020: 2d2d af3d 70b1 a03c ce39 bd3c 098e c33c
00000030: 451a 843c 37f6 593d 2757 27bb 09a9 273d
00000040: a9c3 cbbc 5b41 77bd 1a1c fabc 4f1f c73b
00000050: 3727 59bd 79f4 d7bb 230f 0bbd 79a1 57bc
00000060: 8946 b33d 4b9e 71bd d9f6 333d 1f3b 97bc
00000070: fcc5 3abc 479a 863d 6209 2abd 104a 973d
00000080: 7cf1 febc 874c 61bd fbfd 3dbd 7cb7 0e3c
00000090: fec2 a53d 3fe1 923d aa67 1d3d 2bdd 7d3c
000000a0: 2d0b 4dbd 3a22 303d f585 0fbb d0a1 38bd
000000b0: 26b1 2bbd 008b 29bc b683 733c 1420 16bc
000000c0: dd95 61bd e76f 303d d182 983d 835e 7d3d
000000d0: 3f7f 373d aab2 5bbd 6fa8 0cbd 049a 36bd
000000e0: 1f1c 673d d1bd b53c 51ab 523c e6ba 8f3d
000000f0: 6391 81bd 7e95 623d 5492 c7bd 27ac 0ebd
00000100: 10ad 973d 2058 21bd 6fe1 e23d 2e28 1b3d
00000110: a4cd 843b 15e8 3a3c 1126 da3c 0be3 3f3d
00000120: 3aae 643d a7e6 533c 0202 a63d 0a02 343d
00000130: 1c10 5fbd b0c3 8ebd c370 003c 13ed 85bd
00000140: 4060 3b3d 487a 13b9 efe0 babd 1440 2cbd
00000150: 4c95 40bc efe6 ef3c 3912 72bc 1a7a ce3b
00000160: 9020 83bd 269c 563d a66f 6cbc 82a1 693d
00000170: e1a1 25bd f74c f4bc 1ccd 693c 1377 24bd
00000180: afb7 17bd 742f bdbd 89a2 74bd aa84 be3d
00000190: 1307 613c 8ac7 8e3b 4e68 f53c a485 b63d
000001a0: ecae 31be d5fa 953d 001b 8abd d248 55bc
000001b0: f6b0 633d 632e aebc 7ad2 4b3d f799 283c
000001c0: b2f5 a4bd 3c4f ac3c 421e a8bd 49db c93b
000001d0: ea7b 10bd f087 dbbc 11cd a1bd 0f01 d3bc
000001e0: 4248 0fbc e0bf 243d a0b2 ab3d 8555 2f3d
000001f0: ad8a 9fbd 82ee 8cbc b845 903d c1a8 7dbd
00000200: 1de6 33bd 3975 0ebc d455 86bd f3cb 9bbd
00000210: 0899 acbd 866c 9cbb 6f63 be3d 2543 563a
00000220: bbe3 e83b 062c 3b3d 90e5 5e3d 870d c8bd
00000230: 1291 84bd a50f 993c d7e0 083c 7376 e1bd
00000240: 157a 1d3d 868a 753d 33b4 0abd 4bba 813d
00000250: dbed 913d ea75 acbd 8d0b 1e3d 6a92 41bd
00000260: ac09 673d bad3 e13c 48d6 333b 2f90 e93b
00000270: d457 27bd 85b5 d23b 46b7 84bd b5cf 833d
00000280: e374 d4bd c34f a6bd 2fd5 febb 7593 ffbd
00000290: d823 97bc 7f6b 983d 268c a03d cf91 efbc
000002a0: ac89 99bd 9907 373d 7aa1 0c3c 777d d9bb
000002b0: 05a3 303d fa49 86bd 08be 60bd 93e4 42bd
000002c0: 868c a4bc 0748 263d be0b 073d 7c8c 803d
000002d0: 9952 933d 153c 94bd c8c2 cc3c d3fd 87bd
000002e0: 97fd 093d 8152 40bd 9f19 53bd f168 863d
000002f0: a839 a53c abf1 9c3d 0268 923d f64f da3a
00000300: 8c47 5ebd 4892 5f3d eb5b 603d d6fc 8fbd
00000310: 95d0 563d 0bd6 333d ef0c 6ebd 9660 0abd
00000320: 0ec1 e0bc 773f 903d 8133 54bd 1476 ca3c
00000330: ca87 88bd cf04 03bd 2188 123d aad4 e7bc
00000340: aa81 a1bc 69a9 85bd 1e75 3cbd dd67 ef3b
00000350: 5cb8 3dbd a32c 70bc f072 1ebd 7893 f93b
00000360: db65 e9bc 188e 663c 5bad c5bb a444 38bd
00000370: 5e16 273d d795 c93b 8d8c 953c 2da2 4a3d
00000380: 4564 e73c 50e6 a03d 8b90 5fbd 7c6e 973d
00000390: 7cee 323d 8c3b 8ebd 8fa7 37bd e296 91bd
000003a0: ff8a b73d aac4 1ebe 9447 07bb 554f e63c
000003b0: 0cc8 66bb 5b94 93bd ec68 2e3c 1440 f8bc
000003c0: b6fe 0abd 0b18 0d3d 256a 763d 009c b4bc
000003d0: b2db 07bd 7277 1d3d ecd0 443d eb1d a9bd
000003e0: 11a9 8c3d df94 45bd c84d d0bc 8b01 223d
000003f0: cc4e 78bc ed36 65ba 6eba 9abb 969c 543d
0.010194798 -0.042587824 0.030314198 0.07158605 0.08306323 -0.05518197 0.045367878 -0.058900725
0.085535385 0.019615859 0.023098852 0.023871439 0.016125808 0.053213324 -0.0025534125 0.04093269
-0.024873571 -0.060365062 -0.030530978 0.0060767303 -0.053015914 -0.0065904227 -0.033949982 -0.013161057
0.08753688 -0.05898885 0.043936584 -0.018460808 -0.011399742 0.06572395 -0.041512854 0.07387173
-0.031121008 -0.055004623 -0.046384793 0.008710738 0.080938324 0.071718685 0.03842894 0.015494625
-0.050059486 0.04300139 -0.0021899913 -0.04507619 -0.04191699 -0.010348082 0.014862945 -0.009162921
-0.05507456 0.04307547 0.07446826 0.06185771 0.044799086 -0.053637184 -0.03434032 -0.044580474
0.056423303 0.022185238 0.012858228 0.0701807 -0.063265584 0.055318348 -0.09744707 -0.034832146
0.07406056 -0.039390683 0.11078154 0.037880115 0.0040528346 0.011407872 0.02662948 0.046847384
0.055830218 0.01293341 0.08105852 0.043947257 -0.054458722 -0.06970918 0.0078393845 -0.06539359
0.045746088 -0.00014064566 -0.09124934 -0.042053297 -0.011754345 0.029284922 -0.014774852 0.0063011767
-0.06402695 0.05239501 -0.014430916 0.05703879 -0.040437583 -0.029821856 0.014270093 -0.04015262
-0.03704041 -0.092375666 -0.059725318 0.093026474 0.013734597 0.004357283 0.029956963 0.08912209
-0.17351884 0.07323233 -0.06743431 -0.01301785 0.055588685 -0.021262353 0.049761273 0.010290614
-0.08054675 0.021033876 -0.08208896 0.006160174 -0.035274424 -0.026798218 -0.079004414 -0.02575734
-0.008745255 0.04022205 0.083836794 0.042806167 -0.07790122 -0.017203573 0.07044548 -0.061928514
-0.043920625 -0.00869494 -0.06559339 -0.076072596 -0.08427626 -0.004773679 0.09296309 0.00081734575
0.0071072257 0.04569628 0.054418147 -0.09768205 -0.064729825 0.018684218 0.008354387 -0.110089205
0.038446505 0.05994656 -0.033863258 0.06334361 0.071254455 -0.08420928 0.038585234 -0.047258772
0.05640571 0.02756678 0.0027440954 0.0071277837 -0.040855244 0.00643033 -0.06480269 0.06436101
-0.10373857 -0.08120682 -0.0077768783 -0.12479297 -0.018449709 0.07442378 0.07839231 -0.029244332
-0.07496962 0.04468498 0.008583421 -0.006637271 0.043124218 -0.06557079 -0.054868728 -0.047581267
-0.020086538 0.040596034 0.032970183 0.06276795 0.07193489 -0.07238022 0.024995223 -0.0664021
0.033689108 -0.04695368 -0.051538106 0.06562985 0.020169094 0.07663282 0.07148744 0.001665591
-0.05426745 0.054582864 0.05477516 -0.070306465 0.052445013 0.0439053 -0.058117803 -0.033783518
-0.027435806 0.07043355 -0.05180693 0.024714507 -0.06666525 -0.031987008 0.035774354 -0.028299648
-0.019715149 -0.06526453 -0.04601013 0.0073060826 -0.046318397 -0.01465908 -0.03868383 0.0076164566
-0.028490951 0.014071964 -0.0060326285 -0.044987336 0.040792815 0.0061518955 0.018255496 0.04947107
0.028246054 0.078564286 -0.054581206 0.0739412 0.043684468 -0.069449514 -0.04483753 -0.07108857
0.08962058 -0.15504709 -0.002064203 0.028114 -0.0035214452 -0.07206031 0.0106451325 -0.030303992
-0.033934318 0.034446757 0.06015982 -0.022047043 -0.033168502 0.03844399 0.048050806 -0.082576595
0.06868184 -0.048237678 -0.025427714 0.039552253 -0.015155505 -0.00087438413 -0.004721931 0.051907144

bias f4 [128]
00000000: 0df8 ffbc 0a33 56bd 340b 6a3d 88f4 afbc
00000010: 4164 543d 2942 fe3c ce47 663d 9780 70bd
00000020: 0a4e 223d 9a24 8abd f83d 03bd 589e 403d
00000030: 0814 31bd 2a6d b2bb 30f1 d4bc f95e 03bd
00000040: 0179 1fbc b5b2 213d ff5c 793d 71ea d9bc
00000050: d161 073d 1fe8 1bbd ce52 90bc eaa4 383b
00000060: e541 92bd 5f39 1cbd 4b8d b43d eaf9 92bd
00000070: f21c 1d3d b5fc 563d 0dfd a23c e46e d83d
00000080: 5b8a 05bd 38bd b63c 37c2 83bc 5d30 773d
00000090: 6902 f2bc 1132 833d 751e b4bc 3302 21bc
000000a0: fff8 663d 55c9 b93b 93dd 47ba 73b7 97bd
000000b0: d345 743d 6ca5 823d 777b 773c 4cac 84bd
000000c0: c329 013d 7f20 d5bc 2d74 46bd 8889 713d
000000d0: 169b 473c aa3d 733d e49a 523d 4d39 30bc
000000e0: 19e6 873c ebf7 2fbd 1dbc ec3c 0db4 35bd
000000f0: 9ec0 9dbc 3c82 94bc 9bf6 61bd 115a 36bd
00000100: 3f7f 9b3d 7216 a13d f39f 7dbd 9e6f 9dbd
00000110: f6e4 c3bc 3fd4 49bd c453 44bd c6fe 1ebd
00000120: 8005 1abd 30cc 883d e5c1 723d 5940 b73d
00000130: 1d74 593d 9e88 523d 6ba8 bd3d bb53 6b3d
00000140: 2d6f 2b3d eb10 2b3a c5d9 68bd df72 68bd
00000150: 8237 e23b 9648 8abd d39c 293d a91f 923d
00000160: bfcf 6ebc ef4e 29bd d8d7 3dbc fc02 3ebd
00000170: de9e 913d 7b55 51bc 31dd 853d 999a b5bc
00000180: ff0a 63bd 2622 0fbd d1ed 293d a50f 983d
00000190: 0b52 b93d ee6c 96bb c5d1 8ebd 9741 d4bc
000001a0: 28e3 85bd a7c5 8c3d a5d5 b13d 5126 b93d
000001b0: 165c 1dbd 20ba 61bd e5bb 343d d0b4 5abd
000001c0: fdcc edbc 846a 8bbd 45f4 b83c 7e70 c53b
000001d0: 9658 763d 8fbf c83b 2893 6b3d 564b 77bd
000001e0: 1c61 83bd a56e 1bbd 255d 683d 622c a03b
000001f0: fc5d 413d 5fc6 7f3d 56a0 a13d 64da 59bd
-0.03124621 -0.05229477 0.05713959 -0.021478906 0.051853422 0.031037407 0.056220822 -0.058716383
0.039625205 -0.067452624 -0.03204152 0.04702601 -0.043231994 -0.0054451423 -0.025993913 -0.032072995
-0.009733439 0.03947707 0.060879704 -0.026601048 0.03305227 -0.038063165 -0.01761761 0.0028174468
-0.07141475 -0.03814065 0.08816012 -0.071765736 0.038357683 0.052487094 0.019896055 0.10568026
-0.03260265 0.022307023 -0.01608382 0.060348857 -0.029542165 0.06406034 -0.02198718 -0.0098271845
0.056389805 0.0056697526 -0.00076242647 -0.07408037 0.059636902 0.06379208 0.01510512 -0.064781755
0.031533968 -0.026016472 -0.048450638 0.05896905 0.012182971 0.05938498 0.051417246 -0.010755849
0.016589211 -0.042961042 0.028898293 -0.044361163 -0.019256886 -0.018128507 -0.055166822 -0.044519488
0.0759263 0.07865609 -0.061920118 -0.07687305 -0.023912888 -0.04927468 -0.047931448 -0.03881719
-0.0376029 0.06679571 0.059266943 0.0894782 0.05308925 0.05139982 0.09260639 0.0574529
0.041854072 0.00065256533 -0.056848306 -0.056750175 0.0069035897 -0.06752126 0.041409325 0.07134945
-0.014575898 -0.041335043 -0.011587106 -0.046389565 0.0711038 -0.012776728 0.065363295 -0.022168444
-0.05543041 -0.034944676 0.041486565 0.07424859 0.090488516 -0.004590622 -0.06973604 -0.025910182
-0.06537467 0.06873637 0.086833276 0.090405114 -0.038417898 -0.055109143 0.044124503 -0.053395092
-0.02902841 -0.068074256 0.022577414 0.006025373 0.060143076 0.006126351 0.057513386 -0.06037458
-0.064150065 -0.037947316 0.056729455 0.0048881033 0.04720877 0.06244504 0.0789191 -0.05318679

weight f4 [128, 167]
00000000: 01bf 783c d5db cbbc 0608 94bd 7815 78bd
00000010: 6e1e 5ebd 226a 3a3a 5f42 e4bc f6f6 093e
00000020: c613 0ebb bce6 0abc 5af6 f2bb f75e 373b
00000030: 9b6d b1bd 88c5 3ebb a8e2 133d 99a4 e9bd
00000040: 5570 e0bd be36 653d 7b62 58bd 972c 953d
00000050: 5788 663b 946c e7bc 7fbd 1cbc 3f0b 37bd
00000060: 9198 f2bc bc7b 89bc 8013 7fbc 452b afbc
00000070: 38e1 253d e2dc 423c c200 083c 6ca9 9bbb
00000080: ac94 93bd 84b8 38bd c69b c3bd 87f8 45bd
00000090: 861f c2bc 68b7 273a 6048 7f3c 18b2 d33b
000000a0: 589f 873d 0577 aa3c 270a 4cbd f0e0 e53c
000000b0: 8eea cdbd 093c 5e3c ad59 afbd 187a f23b
000000c0: 461e d2bc 43ce 80bd 16a5 6dbc bcb1 a4bc
000000d0: 59ca 69bd 60a7 98bd 30ab adbc e1d5 19bd
000000e0: 0d99 cebd 1040 b7bb f246 0ebd 9601 54bd
000000f0: 1d81 033d 8604 a1bd 8023 8ebd 2032 53bd
00000100: b6bf 9dbd ce4a 4f3c fdcc e3bd 05a5 413c
00000110: e5e8 243d 9c22 d33b 94fd 68bd b346 9ebb
00000120: 6981 fa3c 1090 abbc 689a 4b3d a432 cfbc
00000130: a247 393d 8190 1c3d e085 b6bd 4e94 213d
00000140: 39a4 103d cb4c 53bd 02d0 1c3b 2ae1 303d
00000150: 6921 4abd a125 34ba 5d29 60bd 2d5d 92bc
00000160: 474e b2bc 6a5d 9abd 5c53 aabd 2349 0bbb
00000170: 3506 a9bb 6188 94bd a618 34bd 05b3 553d
00000180: 0fe7 233d 7f7e 29bd ec23 1d3d 901e a8bd
00000190: 1d7b de3c 08ac b2bd bb8e a83c aecb d43c
000001a0: 6f9c adbd f88f 133d 8a0d e5bc 3151 ff3c
000001b0: d449 513c 3734 1bbe f989 9a3c 824d 023d
000001c0: 44f2 32bb ec09 573e 814f a93d 9b0d 44bd
000001d0: b672 103d c3b6 eb3d 278d 563c 1657 ec3c
000001e0: dcbb 80bd 2671 58bd 650c b13d dd92 79bd
000001f0: ea9e 18bd 9d72 083d 86d8 24bd e46c 8a3d
00000200: 4822 c4bc 146d 26bd 47a3 8e3c 81e6 083d
00000210: 0638 963d 0df3 d13c 645f 5abc 26d9 0dbd
00000220: 171e 333d 08e7 933c 18df 543c e813 34bd
00000230: 94f1 28bc 4327 653d 54de a0bc 6b13 083d
00000240: f2cd 7a3d 905e 343d 2a37 b83d a353 0ebc
00000250: 996c b9bd f5c9 9abd 4afc bebc 1da9 21bc
00000260: 1857 bc3b c9f2 3bbb c991 2ebd b9e8 cfbb
00000270: 0cc7 83bd 1bac a0bd bc04 60bd 4e34 00bd
00000280: 00ff 023d 27c9 ad3d daf6 abbc 7f5f 003d
00000290: ad74 9b3b 9f63 87bb 44a9 6c3d fb54 e43c
000002a0: dd1e 283d b8e4 68bd c555 88bc 0fcc 483c
000002b0: fe24 dcbc eed1 61bd 69f6 27be cb79 a83d
000002c0: 5fb0 0abd 6710 0dbc ad7d 24bb 38fd 12bc
000002d0: 48ef 593d 7657 32bc f5d5 843a c2fb d63d
000002e0: 9a53 3bbd 5ca4 a6bd bc90 913d 3941 38bd
000002f0: f9a7 60bb e1c9 853d d866 b83d 2526 623d
00000300: 4c37 673d 0db8 aebd d111 a0bd 62c2 903d
00000310: 787d 33bd 2862 013d 48cb 413d a30c ba3a
00000320: e1d3 083d e12a 76bd b9bf 263d 3083 1b3b
00000330: 157c 4cbd 8cb2 aa3d 6964 763b 0c0c 2b3b
00000340: 18fd 7cbd 5966 40bd 165a cfbd 9ef4 dbbd
00000350: 35cd 60bc 342b 8abb 23e6 9abc d5c0 75bd
00000360: bf22 20bd f2b5 06bd e4a8 5dbd f806 babd
00000370: 9ba6 91bd b4da 9fbd dcf7 ac3d a5ca 36bc
00000380: fccb cfbc 7268 873c f3d3 c03c cb95 24bb
00000390: fca2 473d 2fca b93c b892 74bd 21ee 83bd
000003a0: 8c55 adbd 0d44 6cbd 928c 223d 2db4 22bd
000003b0: eca7 f43c df64 7fbd 26b8 43bc 0509 953c
000003c0: e76b 043c 836a bd3c 7daa d6bc 053c 29bd
000003d0: 1b7e 11bd 55c3 fa3c 7e8c 96bd 57d4 9ebc
000003e0: be2a 66bb 03cb f5bc 3c3c 21bd cac9 253d
000003f0: e681 3c3d 4182 c93c 8767 4a3d 0976 35bd
0.015182258 -0.024885098 -0.07228093 -0.06056735 -0.05422824 0.0007111152 -0.02786368 0.13473114
-0.0021679266 -0.008477863 -0.0074146213 0.0027980187 -0.08663484 -0.0029109437 0.036104828 -0.11408348
-0.10958926 0.05596041 -0.052828293 0.072838955 0.003517648 -0.028250016 -0.009566664 -0.04468846
-0.029613765 -0.016782634 -0.015568614 -0.021382937 0.04049799 0.011893483 0.008300962 -0.0047504213
-0.07206091 -0.045097843 -0.09551196 -0.048332717 -0.023696672 0.0006397874 0.01558122 0.0064604394
0.06622189 0.020808706 -0.04981437 0.02806136 -0.100545034 0.013564118 -0.08562026 0.0073998086
-0.025649201 -0.06289341 -0.014504692 -0.020104282 -0.05707774 -0.07453799 -0.021199793 -0.037557486
-0.10087786 -0.0055923536 -0.034735627 -0.051759325 0.032105554 -0.07862191 -0.06940365 -0.051561475
-0.077025816 0.012652112 -0.11123083 0.011819129 0.040261168 0.0064433347 -0.056882456 -0.0048302053
0.030579286 -0.020942718 0.0497078 -0.025292702 0.04523433 0.038223747 -0.089122534 0.039448075
0.035312865 -0.051586907 0.0023927693 0.043183483 -0.04934827 -0.0006872062 -0.054726947 -0.017866695
-0.021765841 -0.075373486 -0.08316681 -0.002125331 -0.0051582106 -0.07252575 -0.04396882 0.05217268
0.040015277 -0.0413804 0.038364336 -0.08208954 0.027158314 -0.087242186 0.020575872 0.025976028
-0.08477103 0.03602597 -0.027960557 0.031166645 0.01277395 -0.15156637 0.018864619 0.0318122
-0.0027305046 0.20999879 0.08267117 -0.047864538 0.035265647 0.115094684 0.013095177 0.02885012
-0.06285831 -0.05284228 0.08644942 -0.060931075 -0.037260927 0.03331243 -0.040245555 0.067590505
-0.023942128 -0.04063137 0.017411841 0.03342295 0.073349044 0.025628591 -0.013328407 -0.034630917
0.043729868 0.0180545 0.012992643 -0.043964297 -0.010311503 0.055945646 -0.019637264 0.033221643
0.06123156 0.044035494 0.08994897 -0.008686933 -0.090539165 -0.075580515 -0.02331366 -0.00986698
0.005747687 -0.0028678647 -0.0426195 -0.0063448814 -0.064344496 -0.078453265 -0.054692015 -0.03129988
0.03198147 0.084856324 -0.020991731 0.031341072 0.0047441334 -0.004131749 0.05777861 0.027872553
0.04104506 -0.05685875 -0.01664246 0.012255683 -0.026873108 -0.055131845 -0.16402592 0.08226355
-0.033859607 -0.008609868 -0.0025099323 -0.008971505 0.053206712 -0.01088511 0.0010134565 0.10497238
-0.045734026 -0.08136818 0.07107684 -0.044984076 -0.0034279807 0.06532646 0.09003991 0.05521216
0.05644922 -0.08531199 -0.07815898 0.070683256 -0.04382083 0.03158775 0.047313005 0.001419444
0.03340519 -0.060099486 0.040710185 0.0023729317 -0.04992302 0.08334836 0.003759647 0.002609971
-0.061764807 -0.046972606 -0.101246044 -0.107400164 -0.0137208 -0.004216576 -0.018908566 -0.059998352
-0.039095636 -0.03288836 -0.054116145 -0.090833604 -0.071118556 -0.07805386 0.08445713 -0.011156713
-0.025365822 0.016529296 0.023538565 -0.0025113698 0.04873942 0.022679416 -0.059710234 -0.06441904
-0.084635824 -0.057682086 0.03968484 -0.03972261 0.029865228 -0.062352058 -0.01194576 0.018192777
0.008082367 0.023122078 -0.026204342 -0.041317005 -0.035520654 0.03061072 -0.073510155 -0.01938836
-0.0035120691 -0.03000403 -0.039364085 0.040475644 0.04602232 0.024598243 0.049415138 -0.04430202

bias f4 [128]
00000000: cba9 843d d29a 773d b38b ef3c 5229 97bd
00000010: 6eb5 583d f955 d53c 14cb 333d 8ac0 32bd
00000020: 60d9 1bbb b540 2d39 a6b8 663d e3ad 393c
00000030: 1778 09bd fa99 2d3d ac33 873d bfd1 4ebd
00000040: ea02 43bd 50b2 0c3d 7ed0 343d 7d02 8d3d
00000050: fc71 a43d 9c61 b6bb a7c7 1a3d 2a71 5f3c
00000060: ac17 47bd f264 7c3c 4a59 853d c24b a6bc
00000070: 199b 6a3c 1063 81bd 884c 46bd c3a6 48bd
00000080: d125 833d b9e1 973d e210 fcbb 09ab b23c
00000090: 4df6 92bd 3351 f33c dc5c 8a3b 3e4d afbd
000000a0: a46b 83bd d589 2b3d 2dc0 31bd e12e 5e3d
000000b0: eb8a 07bc e05d d4bc 18d2 3abd f8d5 92bc
000000c0: b517 d2bc 3621 52bc d295 93bd 4943 e4bc
000000d0: 7ba9 c7bc f4a5 553d 1186 2e3c b3d9 db3c
000000e0: fa71 5eba c141 af3c 6350 823d 73d1 98bd
000000f0: 19ec 0fbd 7632 8bbd f333 123d 5ed7 3d3d
00000100: 38d3 67bd 75ae 62bd 89c3 273d a8f5 863d
00000110: 1a92 2b3c 7cb5 dbbc 221a d73b 86cd 9bbd
00000120: 370d 673d 7d58 06bc c5d0 cc3c d4ac 893d
00000130: 54e6 14bd af9b 873b 5d1c 4fbd 44de 2cbd
00000140: 381b a13c 87c6 4f3b f870 66bd e666 2c3c
00000150: 59b2 903d 273e 853d 134a 523d 0c2c 1c3d
00000160: 3bcb 34bd e87c 01bd bdb9 64bd 8064 273d
00000170: 266a be3c caf2 643d 023f d93c 8125 233d
00000180: a1f2 74bd ea01 a73d 17d1 27bd 3c73 443d
00000190: 5d02 923d a67c 743d f956 d53c 7dfc 55bc
000001a0: 8df5 993c 728b 38bd bff1 89bc 2e45 b9bd
000001b0: 22fa ba3c 2273 5dbc 8215 a5bd e5c9 283d
000001c0: e257 813d dcdf 583d 1a65 f5bb 9ac8 9dbb
000001d0: 5e7c 4d3c 096f 95bc 98d0 90bd e834 4d3d
000001e0: 9458 c23d f92c 27bd 5adf 2abd ef62 363c
000001f0: 8500 ca3c 3ef5 84bc 72e6 db3c f12b 55bd
0.06477698 0.060450383 0.029241418 -0.07380928 0.0529074 0.026041972 0.043894842 -0.04364065
-0.0023780689 0.00016522671 0.05632844 0.011332962 -0.033561792 0.04238317 0.066016525 -0.050493
-0.0476102 0.03434974 0.044144146 0.0688524 0.08029553 -0.005565835 0.03778806 0.01363782
-0.04860656 0.015404927 0.06511171 -0.020299796 0.014319205 -0.06317723 -0.04841283 -0.04898716
0.06403697 0.074161 -0.0076924423 0.021810072 -0.071758844 0.029701805 0.0042224955 -0.08559655
-0.06417015 0.041879494 -0.043396164 0.054243926 -0.008272867 -0.02592367 -0.045610517 -0.017924294
-0.02564607 -0.012825301 -0.0720631 -0.027864115 -0.024372807 0.05216022 0.010652081 0.026837206
-0.0008485612 0.021393659 0.06362989 -0.07461824 -0.03513727 -0.06796734 0.035694074 0.04634797
-0.05659792 -0.055342156 0.04095796 0.06589824 0.010471845 -0.026819937 0.0065643946 -0.0760756
0.056409087 -0.008199808 0.025001893 0.067224175 -0.03635247 0.004138432 -0.05056416 -0.042204157
0.0196663 0.0031704025 -0.05626008 0.01052258 0.07065267 0.06505995 0.051340174 0.038127944
-0.04413913 -0.03161326 -0.055841196 0.04086733 0.023243975 0.055895604 0.026519302 0.03983069
-0.0598017 0.08154662 -0.040970888 0.04796146 0.07129357 0.059689187 0.026042448 -0.013060686
0.018793846 -0.04505486 -0.016838906 -0.09046398 0.02282435 -0.013516219 -0.08060743 0.041208167
0.063155904 0.052947864 -0.007488859 -0.0048151733 0.0125418585 -0.018241422 -0.07071036 0.050099283
0.09489551 -0.040814374 -0.04171691 0.011131986 0.02465845 -0.016230222 0.026843283 -0.05204386

weight f4 [128, 256]
00000000: c628 9c3d 3c34 0c3d f759 57bc 1fa3 a5b7
00000010: 76bc 723d 4145 a9bb 0ea4 8bbc 4fc9 bf3d
00000020: 647e f13c c25d 913d 6c13 40bc 4a7b ec3c
00000030: 2cd0 51bc 9221 033d f932 0f3d ac9b 0abd
00000040: 3feb e6bc b4cd b83b ed71 55bd 5b56 943c
00000050: 18d3 97bd 79b3 90bd 6c5f b83c 59f6 75bd
00000060: 07b0 91bd ca16 85bc af93 85bb e18d 353d
00000070: 038a f33c e3a8 233d 2641 b5bc 58ee 86bc
00000080: b92e e6bb 38a7 253d ea00 993c 3f33 9cbd
00000090: 2ce7 bfbd 3c43 7dbc d90b 91bc aeb1 d23c
000000a0: 050c 7a3d 4b65 043b 7e99 b7bb 356f f6bc
000000b0: 5371 253a 5ebd 743b 0f0d f9bc 355f b3bc
000000c0: e1d0 17bb aac7 393d d8ee 333c eb35 b13d
000000d0: 055d 92bd 21f3 6abd 472e 243b 6568 edbc
000000e0: caa2 68bd a5eb 913d ddb5 bc3c 0db5 a6bd
000000f0: f65c 7bbd cfac 72bd 6708 2d3d a38a 93bd
00000100: 6a9a 94bd 6d0f 4c3d 2b43 61bd 9441 063d
00000110: a1c8 9f3d a4d6 623c e1df 073d 6e31 c4bd
00000120: fde3 083d d3c3 d8bb bcfe b0bc 3848 45bc
00000130: c1ce 4a3d e3bf 07bd ab8f 1cbd b590 4a3d
00000140: 2b45 ba3c a087 8bbd b0cd b4bd 3ba7 d13c
00000150: 48aa 14bc 1afd 94bc 70f7 183c 8251 f13c
00000160: 0639 25bc 337f cd3c 933a 883c 75fc 29bd
00000170: 889c ab3c 421e 26bc 9739 833d b20c 87bd
00000180: ff7e 04bc dc34 773d 28ba eb3c a09c 24bc
00000190: 3fcc 5d3c fa54 6ebd 7bd0 503d c5c9 62bc
000001a0: 99a0 11be 02a0 903d 66a8 853d 61a8 52bc
000001b0: aedb bb3b 63b1 09be f753 58bd 3554 9ebd
000001c0: 668e e5bb 2486 fd3d bea1 80bb d1d2 2a3d
000001d0: d9b3 b73c 92b0 1e3d 4073 393d 2ccd 16bc
000001e0: bcfa 913d 5389 1f3d aad6 0abd 5e17 cbba
000001f0: 5ba7 7bbd 0380 10bd 03bf 49bc e1b5 09bd
00000200: 68c2 3c3d 88b3 98bd df6b 8a3c 556d 69bd
00000210: 30e2 cabd 1e56 e13c d3ca 323d f626 c73c
00000220: 96e7 813c 1ac3 bd3d 6928 513d d70d 63bd
00000230: 1407 23bd 252f e33c f5c6 583d 541e a2bd
00000240: 6933 c33d 10e8 97bd d615 343b 08b9 823c
00000250: 70e1 853c 1360 7abd 417f 90bc b61a 703d
00000260: 30c3 37bc 16c2 913c 6615 bb3c 811a 44bd
00000270: 85df 843d e8f0 5a3c 0ec9 eb3c cde2 babc
00000280: 8a1b d5bc f4b5 293d 29fa 60bd 8dd2 0f3d
00000290: 5f81 aebd 563c ae3d 87e9 0fbb 2203 acbb
000002a0: 1537 5e3d 1010 2a3c cc85 a7bb 5f58 84bc
000002b0: fce8 c13d 36e9 dbbc ad43 b0bb 7db3 a6bd
000002c0: 9c5f cabb 6249 28bb f921 8d3c e507 e83d
000002d0: d24f 8cbc 3369 2bbd 5f99 7ebd 204a cc3a
000002e0: 89d0 d83c df04 5fbd 8d28 f23d 40fb 123d
000002f0: 97d2 a6bd cedc db3c 0ad7 f1bd 8a99 81bd
00000300: 6390 a43d d5c5 d13c e8dc e53d 14a7 9ebd
00000310: c7d9 11bd 92d7 8fbc 9646 8f3d 2006 033d
00000320: 7bc3 1d3d c6ec eebd 260b 943d f09b 063d
00000330: d10b 45bd 8ed3 073d 9d2a 8bbb deed 38bd
00000340: 680d e4bb 2cd2 24bd 447a 453d f252 fb3c
00000350: 5464 913b 1b65 8a3d 3b51 cb3c 30af a9bd
00000360: a620 1ab9 7ef3 c23d 0d18 5a3d 89b7 663d
00000370: 0126 38be c3f9 a33d 00ea dc3c 0c51 19bd
00000380: d66e a2bc a481 033d 10c7 c8bc 4da1 08bd
00000390: 8e01 a43d 8cc9 f63c df5d 31bd f013 2d3d
000003a0: 4512 7dbd d0bd c8bc 7032 51bd d80f fb3c
000003b0: f578 f03c 4580 42bb ae45 80bd f2d6 a03d
000003c0: 39f9 b5bc d41f 3c3c 8824 5f3c 183e 0dbd
000003d0: 268e 63bd d49d b33d e8e0 4bbd 2dde 20bb
000003e0: 9e0e 923a b2dd 02bd 471e 323c c141 9f3d
000003f0: 2cb5 753b 82f0 673d d9d2 91bd daa2 53bd
0.076249644 0.034229502 -0.013144008 -1.9745492e-05 0.05926176 -0.0051657264 -0.017046 0.093645684
0.029479213 0.07097961 -0.011723381 0.028867383 -0.01280598 0.032014437 0.03496072 -0.033839867
-0.028188346 0.005639756 -0.0521106 0.018107584 -0.0741331 -0.07065482 0.022506438 -0.06004939
-0.07113653 -0.016246218 -0.004076443 0.04432476 0.029728895 0.039955985 -0.022125792 -0.016471073
-0.0070246127 0.040442675 0.018677194 -0.07626962 -0.093702644 -0.015457924 -0.017705845 0.02571949
0.06104662 0.0020201977 -0.0056030145 -0.030082325 0.0006311137 0.0037344317 -0.030401735 -0.021895984
-0.0023165273 0.04535643 0.010982238 0.08652862 -0.07146648 -0.057360772 0.0025051998 -0.028980443
-0.056795873 0.07125024 0.023035938 -0.081400014 -0.06136795 -0.059246834 0.04224434 -0.07204177
-0.07256015 0.0498194 -0.054995697 0.032777384 0.07801939 0.01384512 0.033172492 -0.095797405
0.03342055 -0.006615141 -0.021605842 -0.012041144 0.049513582 -0.03314198 -0.03822295 0.04945441
0.02273806 -0.06812978 -0.08828294 0.025592437 -0.009073801 -0.018187094 0.009336337 0.029457811
-0.010084396 0.025085067 0.016629493 -0.041500527 0.020948663 -0.01013905 0.06407469 -0.06594218
-0.008086919 0.060353145 0.02877529 -0.010047108 0.013537466 -0.05818651 0.050980072 -0.013842051
-0.1422142 0.07061769 0.0652626 -0.0128575275 0.005732975 -0.13446574 -0.05281445 -0.07730905
-0.0070055006 0.12379101 -0.003925531 0.041704956 0.022424625 0.03874261 0.045275927 -0.00920419
0.07127902 0.038949322 -0.033896126 -0.0015494635 -0.0614389 -0.03527833 -0.012313607 -0.03362072
0.046083838 -0.07456118 0.01689714 -0.056989033 -0.09906423 0.027506884 0.04365046 0.02431057
0.0158575 0.09265728 0.05106393 -0.05543312 -0.039801672 0.027732441 0.052924115 -0.07915941
0.0953129 -0.07417309 0.0027478836 0.01595737 0.016342849 -0.06112678 -0.017638804 0.058619224
-0.01121597 0.017792743 0.022837352 -0.04787684 0.064879455 0.013363101 0.028782394 -0.022813225
-0.026014108 0.04143329 -0.05492607 0.035112906 -0.08520769 0.08507602 -0.0021959262 -0.005249397
0.05425175 0.010379806 -0.0051123854 -0.01615542 0.09468266 -0.026844602 -0.0053791613 -0.081397034
-0.0061759483 -0.0025678505 0.017228113 0.11329631 -0.017127905 -0.041848373 -0.062157985 0.0015586056
0.026466625 -0.054448005 0.11824141 0.035884142 -0.081456356 0.026838686 -0.118085936 -0.063281134
0.08035352 0.025607029 0.11223775 -0.077467114 -0.03560808 -0.017558847 0.06995885 0.031988263
0.038516503 -0.11666255 0.07228689 0.032863557 -0.048106972 0.03316074 -0.0042470233 -0.045148723
-0.006959606 -0.040239498 0.048212305 0.0306792 0.004437009 0.067575656 0.024819007 -0.082853675
-0.00014698747 0.09519099 0.053245593 0.056327377 -0.17983247 0.08006623 0.026967049 -0.037430808
-0.019828241 0.032106057 -0.024508983 -0.033356953 0.08008109 0.030125402 -0.043302413 0.042255342
-0.061785 -0.024504572 -0.05107349 0.030647203 0.029354552 -0.0029678505 -0.0626329 0.078534976
-0.022213565 0.011482198 0.01361955 -0.034483045 -0.055555485 0.08770338 -0.049775034 -0.002454649
0.0011143272 -0.031949706 0.0108714765 0.077762134 0.003749202 0.05662585 -0.07120294 -0.05166898

bias f4 [128]
00000000: b55d 083d c253 bfbc 8091 25bd 41de 403d
00000010: 29c7 0d3d 41b8 dc3c 8b8f b93c 9b63 1d3d
00000020: 5f0f 05bc 5afe a0bc 6119 2fbc a739 d53c
00000030: 02c6 fbbc 7223 613b 6929 24bc eda6 e739
00000040: d9a6 37bc 4505 6c3d e82f 97bc 6775 973c
00000050: a232 78bc 264c 81bb 4f45 573c 67c4 853d
00000060: bc8e eebc c84f 783d 9d6f 01bd ad79 f4bc
00000070: f0f3 3f3d c71e fcbb 4d9b 6a3d 7f29 7abd
00000080: b224 843c 6ef9 89bc 41ac 8cba d9b0 de3a
00000090: c383 333c 09ee 1a3d acba 02bd c48b fcbc
000000a0: 0610 a83d 6d09 513d 70d5 4a3d fdeb 163d
000000b0: 897b 503d 4604 c6bc 8137 313d ad87 48bd
000000c0: bf40 1dbd e2ef df3b d5d0 83bd ac47 163d
000000d0: 83d3 293d 15a0 c1bc 1a06 34bc 5def 88bc
000000e0: 9881 293d 74f0 723b 87c9 543c a1c3 0a3d
000000f0: 986c 553d b519 623c d248 ab3b 6c60 af3c
00000100: 7b5e 4a3d e799 2e3d c371 443c 02ab 493c
00000110: b113 173d 633e 1a3c 11a9 87bd 7e37 f1bc
00000120: 6038 32bd b7f7 513d 97c1 b2bb 5324 223d
00000130: 7248 1cbb 5f08 113c 6582 02bd 7014 843d
00000140: 20c6 103d 3c2e 9fbc fd0b 57bb 1515 c63b
00000150: baf1 40bd c741 913d 4f86 74bd 6c95 8cbc
00000160: 61f0 d13b dbf5 2a3d b48f 043d 5609 87bd
00000170: 0a3c 92bc a6db f53c 2787 aa3b 7e2f e43b
00000180: c72a 27bd ca64 8b3d ccf2 763d 29c1 9d3d
00000190: c3f6 843d 253a d23b ff88 993a 7470 e23c
000001a0: 8e3e 963b 6b51 123c 7371 463d 54b0 db3c
000001b0: 4cb5 eebc 9ff4 c7bb 0b75 ec3c c6e5 01bd
000001c0: 34a4 51bd bdda a2bc 8a7a a53c 1b4e 803c
000001d0: f75d cabc d6f3 2b3c d2cb 23bd 5029 27bd
000001e0: 9aa9 80bd c4bc 043c 8d15 593d 8449 9fb9
000001f0: 6639 60bd abbb 1bbd 4ddd 8d3c c3b0 563d
0.03329249 -0.023355369 -0.040421963 0.047086958 0.034613762 0.026943328 0.022651454 0.03842507
-0.008121341 -0.019652534 -0.010687203 0.026028467 -0.030734066 0.0034353402 -0.010019639 0.00044184123
-0.011209213 0.057622213 -0.01845546 0.018488599 -0.015148791 -0.003945845 0.013139083 0.065316014
-0.029120795 0.06062296 -0.031600583 -0.029843176 0.046863496 -0.0076940986 0.057277013 -0.06107473
0.016130779 -0.01684257 -0.0010732488 0.001698996 0.010956707 0.037824664 -0.031916305 -0.030828364
0.08206181 0.05103438 0.049519956 0.03684615 0.050899062 -0.02417196 0.043265823 -0.048957516
-0.038391825 0.006834016 -0.06436316 0.036689445 0.04146148 -0.023635903 -0.010987783 -0.0167157
0.041383356 0.003706959 0.012987501 0.033877973 0.052105516 0.013800074 0.0052271867 0.021408282
0.04940651 0.04262724 0.0119900135 0.012308838 0.036884014 0.009414288 -0.06624044 -0.029445406
-0.043510795 0.05126163 -0.0054552066 0.039585423 -0.0023846892 0.0088520935 -0.031862635 0.06449211
0.035345197 -0.019431226 -0.0032813542 0.0060449936 -0.04710553 0.07092624 -0.0596984 -0.017161094
0.006406829 0.041738372 0.03236361 -0.065935776 -0.017850894 0.030011963 0.0052040997 0.0069636693
-0.04081228 0.06806333 0.060290143 0.07702858 0.064923786 0.006415623 0.0011713802 0.027641512
0.004585094 0.008930544 0.048448037 0.026817478 -0.029139183 -0.006102159 0.028864404 -0.03171327
-0.051181987 -0.019879693 0.020200033 0.015662244 -0.024703009 0.010495147 -0.0399893 -0.040810883
-0.06282349 0.008101646 0.052999068 -0.00030381617 -0.05474224 -0.03802077 0.017317438 0.052414667

weight f4 [8, 128, 1, 1]
00000000: 9fe2 23bd e724 7abd 7e1b 5a3d 1b57 043d
00000010: 8040 08bd c794 c3bc abee 8d3d 9f6e a5bd
00000020: 505e 503d 0c20 f4bc 23b5 043d ee34 9cbd
00000030: 5c7d 05bd 73ec c5bc c45d 8fbc a9e6 ac3c
00000040: 3dde bdbb 9967 bebd 11c1 60bd 0d57 8fbd
00000050: 263d 193d 422f b13b f990 23bd c087 a03d
00000060: 69d3 66bd 08ec 59bd 70f5 7c3d a179 bcbd
00000070: f01e 68bd 9c1f 393c a2c9 80bd 3e95 bdbd
00000080: 0c80 25bd 57fe b1bd 4578 9fbd 0085 38bd
00000090: 7e24 76bb 95d7 773d ac43 913d 7d7a 9e3b
000000a0: 9964 26bd db83 333c 12da 66bd 81a0 ecbc
000000b0: 6d60 0cbc 793f 9a3d 05a6 573d cad0 aebd
000000c0: f9bc 88bd 4a0f c83c 25c4 fbbc 466b 833d
000000d0: 8fab e73c d770 1c3d c62a 9d3c b95a 613d
000000e0: 16ca c2bd 3f68 01bd 2f50 75bc a1fb 81bd
000000f0: fe29 25bd 06d5 f93c d31a 50bd 4955 a5bc
00000100: c912 debc 0ce6 b1bd 110c 9e3d 0e6d 97bd
00000110: 9324 b8bd f7f0 4cbd 04f1 8c3d e62a 543d
00000120: 4dc1 3d3d 4ef0 1a3d cc48 563d 5a65 c1bb
00000130: e476 47bc 2d3d d7bb b74e 993c 24b5 39bd
00000140: d0fa a0bc 1c56 a3bd 54b6 57bd 7f81 9cbd
00000150: fcb4 3ebd 91f0 43bc 9e95 4a3c 1a97 9cbd
00000160: 4e2e a1bd e6a1 a6bd f9d8 013d 193e 973d
00000170: 08e7 963d 1edf ae3c 6886 a13c 2142 8d3d
00000180: f3f4 a7bd 9e5f 84bd d912 91bc d157 8fbc
00000190: ba80 a23d 7979 b73c c103 bfbd 1b21 d23c
000001a0: ed3f 673c e6d6 cdbc 0da8 023c fb78 b7bd
000001b0: 4501 80bd d83d 9b3d f687 94bd f117 64bd
000001c0: f0ed c73c ef94 e9bc 9e5b 05bd 0619 babc
000001d0: 8e4a 62bc e6cd 46bd 8c96 5d3d c2b8 aabd
000001e0: be21 83bc 2d67 9abd c92f 90bc 93fd 99bd
000001f0: d171 68bd 1d4f a7bd e96f 50bd 6deb 8abd
00000200: f29a c73d 51e4 263d 48e8 773d f758 ffb9
00000210: 6bd9 693d cea6 7f3d 3f8a 5a3d 7be8 4ebd
00000220: 151b 73bd d645 b53d 0615 a13d 480a cbbc
00000230: f69f a1bb a0f1 9d3d d2f2 c73c 3ef4 f53d
00000240: 75b1 18bd 5d14 fd3d 0a82 ec3c 0ab4 653d
00000250: 97f5 853d 0bb3 62bd 4115 36bc 51bd 7dbc
00000260: d5ca de3c c213 d2ba 5ae1 3abc 7f63 9b3d
00000270: 3f12 ef3d 7daa 9d3d f1a9 e23d 4dce ddbd
00000280: 49d6 3d3d 682b 37bd d979 b13d 80d0 bb3d
00000290: b6a0 80bd c6b7 1e3d 69a4 733d b3a7 78b9
000002a0: d481 893d 5aa2 ca3d 660d 57bd 55ae 6f3d
000002b0: f41e 24bd 9de2 2bbc 8fe7 153d 7ec4 dabc
000002c0: 7a67 073e cd90 64b9 b026 d13d 3958 ba3d
000002d0: b190 893c 1996 a73d c34c ed3d 20c6 a1bd
000002e0: d6c0 d13d c102 97bd 7fa0 e83d 4876 173c
000002f0: 3504 e83d 1575 f53c e1c6 873c 619f 703e
00000300: 9794 e23d 40f5 273d 4d6a a33c cd14 b93d
00000310: 9e34 b8bc 306a 263d 6368 4abc 3a57 523d
00000320: 4be5 723d 3ff5 8cbc 5e74 1fbd dcf0 ea3c
00000330: 15c2 93bd 24cc 863c 478c 013c ad21 f73d
00000340: 463e a93d 5c21 34bd a54f 42bc 7c19 0dbc
00000350: a4eb 58bd 94de e13d afd1 9d3d e8a6 e23d
00000360: 07a9 833d 54e8 e5bc 033f 953b 19f0 8e3d
00000370: b5ca 45bc 95f2 c4bd b20e b7b9 d41c 99bd
00000380: bf72 043e da9b 153d 5376 003e 05d1 48bd
00000390: 196f cb3d 6e71 55bc 4a00 513d 24ed 7bbd
000003a0: e7bc 163c 39a0 013e c043 36bd cabb c93b
000003b0: 7894 6bbd 1485 9b3b 2f8f 99bc 79b9 d33d
000003c0: 2e69 bb3c 5364 c13d bbeb c3bc a908 80bc
000003d0: 6f20 a13d fa52 35bd 161e 2c3d e1c7 9d3c
000003e0: 9a36 963d cca6 37bc 9428 2d3d 9200 b4bc
000003f0: 52d1 64bc cd80 293d 0ea9 2c3d da12 923d
-0.040011045 -0.06107035 0.053248875 0.032309633 -0.033264637 -0.023874654 0.06930288 -0.0807774
0.050871193 -0.029800437 0.032399308 -0.07627283 -0.032590255 -0.0241606 -0.017500766 0.021106081
-0.005794315 -0.092971034 -0.054871622 -0.069990255 0.03741183 0.005407245 -0.03993318 0.07838392
-0.05635396 -0.053203613 0.061757505 -0.092028864 -0.05667013 0.01129904 -0.062884584 -0.09256981
-0.04040532 -0.086910896 -0.077866115 -0.045048714 -0.0037558372 0.06050833 0.070929855 0.004836379
-0.04062328 0.01095673 -0.05636031 -0.028885128 -0.008567912 0.07531638 0.052648563 -0.08535917
-0.06676669 0.024421353 -0.030733177 0.06416945 0.028280048 0.03819355 0.019185435 0.05501816
-0.09511201 -0.031593557 -0.014972731 -0.063468225 -0.04032325 0.030497085 -0.05080683 -0.020182269
-0.027108567 -0.08686456 0.07717145 -0.073938474 -0.08991351 -0.05003449 0.068819076 0.051798724
0.046326924 0.03782683 0.05231552 -0.0059019746 -0.012174342 -0.006568572 0.018714292 -0.045338765
-0.019650847 -0.079754084 -0.052664116 -0.07641887 -0.04655932 -0.011959211 0.012364773 -0.07646008
-0.0787016 -0.081363484 0.031701062 0.07384891 0.073682845 0.021346625 0.01971741 0.06897379
-0.08201017 -0.0646355 -0.017709183 -0.017497929 0.07934709 0.02239679 -0.09326888 0.025650552
0.014114362 -0.025126886 0.007974637 -0.08958622 -0.06250242 0.07580155 -0.07252495 -0.055686895
0.02440545 -0.0285134 -0.032558076 -0.02271701 -0.013811721 -0.048536204 0.05409865 -0.08336021
-0.0160073 -0.075392105 -0.01760091 -0.075190686 -0.05674917 -0.081693865 -0.050887976 -0.06783185
0.0974635 0.040745083 0.060524255 -0.00048703674 0.05709211 0.062414937 0.053354498 -0.05051468
-0.059352 0.08851211 0.07865338 -0.024785176 -0.004932399 0.07712102 0.024407778 0.12009476
-0.03727861 0.123573996 0.028870601 0.0560799 0.06540983 -0.05534653 -0.011113466 -0.015487031
0.027196327 -0.0016027617 -0.011406267 0.07587337 0.11673402 0.07698534 0.1106757 -0.108303644
0.046346936 -0.04471913 0.08665819 0.091706276 -0.06280653 0.03874948 0.059482966 -0.00023713596
0.06714216 0.09894247 -0.052503012 0.058515865 -0.04006858 -0.010491041 0.036597785 -0.026705023
0.13223067 -0.00021797717 0.10212457 0.090988584 0.016792627 0.08182926 0.11586907 -0.078991175
0.10241859 -0.07373572 0.11358737 0.009244509 0.113289274 0.029963056 0.016574325 0.23498298
0.110634975 0.041005373 0.01994815 0.090371706 -0.022486027 0.040628612 -0.012353989 0.051352717
0.059300702 -0.017206786 -0.038929336 0.028679304 -0.072147526 0.016454764 0.00790698 0.1206697
0.08263831 -0.043977126 -0.011859809 -0.008612033 -0.0529591 0.110287815 0.077060096 0.11066991
0.06428724 -0.028064884 0.0045546307 0.06979389 -0.012072255 -0.09616581 -0.0003491543 -0.07476202
0.12934397 0.036525585 0.12545137 -0.04902746 0.099332996 -0.013027532 0.051025666 -0.06150545
0.009200311 0.12658776 -0.044498205 0.0061564194 -0.057514638 0.0047460888 -0.018745033 0.103381105
0.022877302 0.094429635 -0.023916116 -0.01562913 0.07867514 -0.044268586 0.04202088 0.019260349
0.07334633 -0.011209201 0.042275026 -0.021972928 -0.0139659215 0.0413826 0.04215341 0.07132502

bias f4 [8]
00000000: d8f1 4a3b 53a6 c63d 5b32 4f3d 15a5 b33d
00000010: 403b aabb f950 8d3d 138a 863c 838e cc3d
0.0030966904 0.096996926 0.050585132 0.08771721 -0.0051950514 0.0690021 0.01642326 0.099881195
