E-GraphSAGE/experiments/SCSA_MLP_NF-BoT-IoT_best_model.pth (torch, 374146 bytes, 20 tensors)

weight f4 [128, 16]
0.25498104 0.13377772 0.27511257 -0.20192009 -0.025950389 -0.04092651 -0.15596491 -0.0056874366
-0.03627854 -0.18457843 0.064647675 0.023370177 -0.17326677 -0.31838664 -0.2201593 -0.16681269
-0.08243866 0.06356546 -0.030161547 0.17831875 -0.0475362 0.17445724 -0.11329476 0.10257588
-0.00789128 -0.21427925 0.19869429 -0.15821727 0.14444844 -0.17477077 0.31409085 0.17464675
-0.16496825 0.028989866 0.09549783 0.1294133 -0.11349097 0.16036072 0.24178886 0.122378245
-0.07965581 -0.0461403 -0.12970929 0.15008964 0.25020653 0.2653678 0.44428024 -0.06372413
0.027422717 -0.25957805 -0.094317794 -0.2130001 0.069058806 -0.2709763 -0.15819852 -0.0804473
-0.31436604 -0.28822103 -0.015094512 -0.10222328 -0.07530772 -0.09417748 -0.17968184 0.018646544
-0.12115553 -0.15065703 0.02114913 0.06822109 -0.017139995 -0.08149311 0.0021334633 0.03243399
0.19327277 0.18247361 -0.0734157 0.21595716 0.22281355 0.2610671 0.0975169 0.30273956
-0.07981811 -0.022257444 -0.07809938 0.22417206 0.0977067 -0.21370792 -0.019944452 0.25765362
-0.07236031 -0.14001928 0.013678226 0.18004167 0.22251305 0.25636202 -0.009583602 -0.037354633
0.030239986 -0.14057314 -0.19311355 -0.17748143 -0.26335347 -0.13712254 0.066223 0.17684086
-0.14546366 0.07767112 -0.29132286 0.04555041 0.11870652 0.011823627 0.029041233 0.073339775
-0.084363446 -0.27610454 -0.24313435 0.13651791 -0.034330208 -0.057481766 0.016145397 -0.19484207
0.21337427 0.0637962 -0.108138144 0.25566176 -0.28281546 0.110048555 0.0078112064 0.1316703
-0.21832108 0.039173424 0.03986603 0.050781358 -0.19091761 0.051475808 -0.19002637 -0.007735765
-0.043703146 0.21509197 0.22556823 0.042693198 -0.15879996 -0.21554215 -0.4473779 -0.14972997
-0.1467498 -0.04766015 -0.004346323 0.04395359 0.0626227 0.012517033 -0.015115652 -0.15255949
-0.21166122 0.18564211 0.14272285 -0.18552484 -0.016801504 -0.26273626 -0.07417127 -0.32159254
-0.08244265 0.18927038 -0.0827379 0.05967822 0.06389368 0.10851779 -0.113512136 0.22083634
-0.17057803 0.034812223 0.15962309 -0.12564677 -0.044560947 -0.008875039 -0.5449657 0.018705964
-0.16427048 -0.085328184 -0.018225035 0.10308058 0.024789372 0.025399217 0.043954596 -0.19257851
-0.20381978 -0.25350517 -0.24916987 0.136942 -0.06600178 0.05496963 -0.31907046 -0.31701642
-0.06805834 0.13121977 -0.1796443 -0.19101085 0.199185 0.16343178 -0.24402839 -0.19352598
0.14559235 -0.15477394 0.27996513 0.27594844 -0.24118471 -0.18860641 0.12459509 0.2568349
-0.19105212 0.22830461 0.015271137 -0.11456876 0.21803017 0.1250081 -0.022647327 0.06532328
-0.21884775 -0.26161754 0.07093649 -0.1323017 0.0059924647 -0.3062387 -0.2627893 -0.16148426
0.0758538 -0.059380163 0.08831008 0.08898501 0.20826744 -0.11474981 0.17385851 0.056646325
-0.017257124 0.21987788 0.23283342 0.22005759 0.26264516 -0.2402108 0.22082561 0.33492848
-0.26633975 0.1358841 -0.25217444 -0.20345512 0.19243333 -0.1743787 -0.27638027 -0.1047727
-0.35312572 0.032665804 -0.18984684 -0.14509371 -0.02884366 0.1226725 -0.4337232 -0.07325067
00000000: e08c 823e 07fd 083e 8edb 8c3e 24c4 4ebe
00000010: e995 d4bc 8ea2 27bd 44b5 1fbe ad5d babb
00000020: ce98 14bd 2102 3dbe 0066 843d d072 bf3c
00000030: d86c 31be 9303 a3be 7171 61be f2d0 2abe
00000040: 9ad5 a8bd 9c2e 823d 5915 f7bc 3199 363e
00000050: 52b5 42bd eba4 323e 1507 e8bd 4e13 d23d
00000060: 6d4a 01bc 056c 5bbe 8476 4b3e b503 22be
00000070: 4bea 133e 1cf7 32be 84d0 a03e 99d6 323e
00000080: 70ed 28be 287c ed3c 5e94 c33d ec84 043e
00000090: f46d e8bd 9a35 243e 8097 773e 72a1 fa3d
000000a0: 9622 a3bd 9cfd 3cbd 83d2 04be 19b1 193e
000000b0: 121b 803e 4ade 873e b378 e33e cc81 82bd
000000c0: 9ba5 e03c 6ae7 84be b029 c1bd b31c 5abe
000000d0: b46e 8d3d 68bd 8abe cbfe 21be 8ec1 a4bd
000000e0: 96f4 a0be b591 93be f94e 77bc 705a d1bd
000000f0: ef3a 9abd 1fe0 c0bd 84fe 37be a3c0 983c
00000100: 6420 f8bd d645 1abe f140 ad3c 80b7 8b3d
00000110: 2d69 8cbc dce5 a6bd 93d1 0b3b 81d9 043d
00000120: 4ce9 453e 5dda 3a3e f85a 96bd e023 5d3e
00000130: 3c29 643e 96aa 853e f1b6 c73d ae00 9b3e
00000140: ad77 a3bd 3e55 b6bc 91f2 9fbd 5c8d 653e
00000150: 731a c83d 40d6 5abe 8c62 a3bc 2deb 833e
00000160: a431 94bd 3761 0fbe a31a 603c d85c 383e
00000170: 76da 633e e241 833e 8a04 1dbc 2c01 19bd
00000180: d9b9 f73c 68f2 0fbe 8fbf 45be b1bd 35be
00000190: 44d6 86be da69 0cbe ed9f 873d c515 353e
000001a0: 6df4 14be 0912 9f3d 4528 95be 1193 3a3d
000001b0: 671c f33d e3b7 413c e1e7 ed3c 2a33 963d
000001c0: bec6 acbd 935d 8dbe 36f8 78be 5acb 0b3e
000001d0: d59d 0cbd 0072 6bbd 5a43 843c ae84 47be
000001e0: c97e 5a3e 95a7 823d 8877 ddbd 19e6 823e
000001f0: 30cd 90be 2361 e13d 26f5 ff3b 94d4 063e
00000200: 908f 5fbe 5074 203d 904a 233d 1d00 503d
00000210: e87f 43be 4cd8 523d 4696 42be 4d7c fdbb
00000220: 1202 33bd 1241 5c3e 5cfb 663e 10df 2e3d
00000230: 759c 22be 15b7 5cbe b70e e5be d052 19be
00000240: 9445 16be 4a37 43bd 9a6b 8ebb ae08 343d
00000250: 5540 803d 3e14 4d3c a4a7 77bc 8e38 1cbe
00000260: b8bd 58be f718 3e3e f025 123e 39fa 3dbe
00000270: 4fa3 89bc 5e85 86be 1be7 97bd c7a7 a4be
00000280: b1d7 a8bd 18d0 413e 7d72 a9bd 2671 743d
00000290: b1da 823d 933e de3d 0d79 e8bd ec22 623e
000002a0: 02ac 2ebe 4397 0e3d 3c74 233e 8ca9 00be
000002b0: 8a85 36bd 9d68 11bc df82 0bbf 403d 993c
000002c0: 8536 28be 8bc0 aebd ab4c 95bc e91b d33d
000002d0: 1513 cb3c 0512 d03c bc09 343d 4d33 45be
000002e0: 22b6 50be 6ecb 81be 6326 7fbe 863a 0c3e
000002f0: f12b 87bd d627 613d 345d a3be fa4f a2be
00000300: 2c62 8bbd 7a5e 063e adf4 37be 5998 43be
00000310: 27f7 4b3e a95a 273e 94e2 79be ad2b 46be
00000320: 2916 153e 0f7d 1ebe 9757 8f3e 1d49 8d3e
00000330: 20f9 76be 0a22 41be b62b ff3d dd7f 833e
00000340: 2ba3 43be afc8 693e ca33 7a3c 07a3 eabd
00000350: 4d43 5f3e 2002 003e e386 b9bc 36c8 853d
00000360: a019 60be bcf2 85be 2747 913d 197a 07be
00000370: 705c c43b 52cb 9cbe 528c 86be 215c 25be
00000380: 3d59 9b3d 9d38 73bd eadb b43d c63d b63d
00000390: 0f44 553e f301 ebbd f707 323e fa05 683d
000003a0: d05e 8dbc ab27 613e e26b 6e3e c756 613e
000003b0: 6d79 863e d2f9 75be 1c20 623e bf7b ab3e
000003c0: af5d 88be 3425 0b3e 021d 81be 8a56 50be
000003d0: 3e0d 453e 5490 32be b781 8dbe 1293 d6bd
000003e0: e5cc b4be 94cc 053d 3667 42be 7293 14be
000003f0: 8a49 ecbc b83b fb3d f810 debe 7304 96bd

bias f4 [128]
-0.12275275 0.25847024 0.2048693 -0.042915013 -0.23230638 0.065606005 -0.1281088 0.050775964
0.038972363 -0.011117322 -0.20400287 -0.12349328 -0.22036754 0.20512357 0.0014170269 -0.2344514
0.22288646 0.20093112 -0.14302158 0.0030882056 -0.112322725 0.16050744 0.16406414 -0.105009474
-0.13238642 -0.08579313 -0.21903823 -0.24926199 -0.25296968 0.15678144 0.22031713 -0.04077186
-0.008387584 -0.24662144 0.06879056 0.17959242 0.28629142 0.14851932 0.27277735 -0.23629436
0.250662 0.12231936 -0.017146386 -0.20445737 -0.027092494 -0.12662426 0.045376256 0.08839395
-0.096862644 -0.14022286 0.026535295 -0.02117379 0.18412095 -0.19376037 -0.10638932 -0.026529942
0.10886844 -0.11029132 0.21209556 0.01846149 0.2240683 -0.04311188 0.06580832 0.21753347
0.19600433 0.13995375 0.19767384 0.17055406 -0.26172173 -0.006406292 -0.14877884 0.02291695
-0.19285664 -0.219278 0.16481788 0.11380104 0.0665773 -0.12248313 -0.21415257 0.2875681
-0.12949504 -0.19221956 0.25414193 0.1947446 -0.23307869 0.038413685 -0.2023106 0.03091035
0.012677442 0.03453143 0.1781527 0.20771678 0.08054603 -0.023401199 0.10466101 -0.19140582
0.035379585 -0.19650728 -0.18044761 -0.04194383 -0.19672346 0.06086468 -0.20941828 -0.009777471
-0.19001226 0.1477655 0.027366806 0.16913202 -0.2419834 -0.074667186 0.07451414 -0.26193246
-0.11198608 -0.16105497 0.19288212 0.011500026 0.17761776 -0.2386745 0.0136474725 0.16436054
-0.20635578 0.1136675 0.14706223 -0.07393045 0.11139749 -0.16241258 -0.13485819 0.21135104
00000000: cb65 fbbd 3656 843e 42c9 513e a7c7 2fbd
00000010: b9e1 6dbe 715c 863d f42e 03be 75fa 4f3d
00000020: 7ca1 1f3d 6e25 36bc 21e6 50be 0bea fcbd
00000030: 07a8 61be ea0b 523e 88bb b93a 0714 70be
00000040: 593c 643e e3c0 4d3e 4074 12be 7e63 4a3b
00000050: 7509 e6bd 105c 243e 6e00 283e 350f d7bd
00000060: 4e90 07be 4fb4 afbd 8f4b 60be 893e 7fbe
00000070: 3e85 81be 508b 203e d09a 613e 6500 27bd
00000080: 146c 09bc 558a 7cbe 11e2 8c3d 13e7 373e
00000090: ca94 923e 7315 183e 79a9 8b3e 26f7 71be
000000a0: c556 803e 9382 fa3d 9476 8cbc 465d 51be
000000b0: 14f1 ddbc caa9 01be 74dc 393d e307 b53d
000000c0: ec5f c6bd 9596 0fbe 8c60 d93c a874 adbc
000000d0: 348a 3c3e 1e69 46be a5e2 d9bd 5255 d9bc
000000e0: 6bf6 de3d 6ae0 e1bd 942f 593e 8d3c 973c
000000f0: 2972 653e 1596 30bd 83c6 863d 18c1 5e3e
00000100: 5cb5 483e 0950 0f3e 036b 4a3e b9a5 2e3e
00000110: 6400 86be dfeb d1bb 7b59 18be 54bc bb3c
00000120: 367c 45be 698a 60be 05c6 283e 8510 e93d
00000130: ae59 883d 6fd8 fabd d04a 5bbe 203c 933e
00000140: 599a 04be 34d5 44be e41e 823e 216b 473e
00000150: 2eac 6ebe ab57 1d3d 832a 4fbe b437 fd3c
00000160: 0cb5 4f3c d470 0d3d a96d 363e b5b3 543e
00000170: 51f5 a43d dfb3 bfbc 8358 d63d e3ff 43be
00000180: 2fea 103d 3439 49be 42c7 38be 4bcd 2bbd
00000190: e071 49be 3e4d 793d bf71 56be b031 20bc
000001a0: 9392 42be d74f 173e 5a30 e03c f230 2d3e
000001b0: 7fca 77be 1ceb 98bd df9a 983d 031c 86be
000001c0: f558 e5bd 98eb 24be e482 453e 9b6a 3c3c
000001d0: 6ee1 353e 1767 74be a699 5f3c 214e 283e
000001e0: ee4e 53be 82ca e83d 7b97 163e d968 97bd
000001f0: 5e24 e43d 7c4f 26be 4418 0abe 686c 583e

weight f4 [128, 136]
0.110132605 0.11678527 0.03169554 0.07109639 0.028202295 0.101642236 0.070091814 0.07026206
0.07515129 -0.01630615 0.011500805 -0.091698416 0.010199072 -0.02342668 -0.028058926 0.0013752402
0.11143813 0.06435759 0.074270725 -0.028515166 -0.11523624 0.06365645 0.07581897 -0.028798763
0.020682896 -0.05664293 -0.020637436 -0.019099498 0.18450448 0.043220147 0.02364526 0.076734275
-0.049277663 -0.12990189 0.0010895355 0.19103427 -0.10042074 0.070754245 0.039501254 -0.074184775
-0.12663586 0.007431389 0.04657365 0.025178367 -0.056848206 -0.08886182 -0.0435316 0.021265905
-0.038553085 0.049926277 0.06407955 -0.08091072 0.058109593 0.0934865 -0.0723772 -0.12031444
-0.11502155 0.11073701 -0.10368195 -0.029654525 0.0026230232 -0.06655053 0.11851499 -0.037501685
0.08639741 0.018005205 0.100430764 -0.064313926 0.07698585 0.076732725 -0.0053713047 0.13146707
0.09925526 0.12565589 0.004952671 0.056174196 0.04834378 -0.060647234 -0.02451396 -0.012052584
0.008862161 -0.05213733 0.046002403 -0.11763877 0.03948983 -0.0004909124 0.06071706 0.06564221
-0.07130101 0.035911363 0.050369572 0.097094506 -0.046346575 0.09415625 0.022957977 0.024319358
-0.086360134 -0.04501149 0.08445558 0.022430988 0.02178522 -0.0017182118 -0.07849302 -0.012485301
-0.09432873 -0.016214658 -0.07921191 -0.054278955 -0.050110113 0.081351876 -0.120969705 0.03050591
-0.013447615 0.016456882 0.02705961 0.019772613 -0.00903002 -0.0051297206 -0.0017139567 0.05352277
0.0024628604 -0.00723284 -0.018183585 -0.10889346 0.056352235 0.041663967 0.007445188 -0.13010755
0.018055178 0.003516827 -0.06309249 -0.02378259 -0.022617413 -0.031686623 0.051944602 0.0056322287
-0.06415251 0.030524822 0.0034099268 0.0506854 -0.053139444 0.053814694 -0.07078429 0.028614046
-0.042086802 0.060299274 -0.023303118 0.0068009994 -0.06609418 -0.005474944 -0.040262397 -0.020361016
0.019754203 -0.080919325 -0.056625165 -0.04055426 0.08378936 0.04528663 0.11142196 -0.09907688
-0.17927192 -0.015961913 0.07010228 -0.07254557 -0.054203056 -0.021116134 -0.015709786 -0.051508013
0.013272939 0.250098 -0.071039535 -0.12216419 0.034032654 0.016415276 0.04924301 0.010757486
0.0108436635 0.07985352 0.1336137 0.11168109 -0.0396923 -0.043605637 -0.000576079 -0.030216733
0.023614455 -0.06344025 0.06621212 0.011155493 -0.09276672 -0.050468154 0.06636578 0.067674145
0.056832403 -0.019159744 0.10624314 -0.07742635 -0.017344683 0.10464893 -0.089688234 0.03601381
0.063188195 0.10960598 -0.03407097 -0.08396794 0.013293873 0.034308493 -0.010166741 -0.089456566
0.0060662962 0.07864508 0.052532885 0.016643494 -0.028110422 0.031954654 -0.046527017 -0.067679465
0.022698468 -0.07266437 0.058829617 -0.006638473 0.040744364 -0.09330866 0.0216996 -0.041492783
-0.019139832 0.0303693 -0.06438638 0.049827408 0.106224984 0.07075111 -0.028605137 -0.05256668
0.05302449 -0.03564093 0.1378612 -0.046925616 -0.040227983 -0.048516814 0.01879922 -0.07268159
0.07316357 0.13537294 -0.08123079 -0.0030998054 -0.12869456 -0.09329961 -0.03277855 -0.06911301
0.035387818 -0.020855503 0.09017131 0.09674077 -0.025370397 -0.065066166 0.06748437 -0.1139467
00000000: 348d e13d 1e2d ef3d 2fd3 013d fc9a 913d
00000010: 8008 e73c ce29 d03d 4c8c 8f3d 8ee5 8f3d
00000020: ebe8 993d 7a94 85bc df6d 3c3c 61cc bbbd
00000030: 021a 273c 4fe9 bfbc d5db e5bc 6741 b43a
00000040: ad39 e43d eacd 833d 401b 983d a398 e9bc
00000050: fa00 ecbd 505e 823d fa46 9b3d 62eb ebbc
00000060: 2d6f a93c 6b02 68bd d70f a9bc 8d76 9cbc
00000070: beee 3c3e 9c07 313d b4b3 c13c dc26 9d3d
00000080: 60d7 49bd 0005 05be bfce 8e3a 7d9e 433e
00000090: 64a9 cdbd 9ae7 903d 11cc 213d 30ee 97bd
000000a0: d5ac 01be 0283 f33b 03c4 3e3d dd42 ce3c
000000b0: aad9 68bd 30fd b5bd 314e 32bd d635 ae3c
000000c0: d7e9 1dbd 7f7f 4c3d 243c 833d 85b4 a5bd
000000d0: 5304 6e3d da75 bf3d 7f3a 94bd 6b67 f6bd
000000e0: 6b90 ebbd 16ca e23d 3457 d4bd 0cee f2bc
000000f0: 07e7 2b3b a54b 88bd fdb7 f23d 5e9b 19bd
00000100: 20f1 b03d a77f 933c a5ae cd3d 05b7 83bd
00000110: c2aa 9d3d 0c26 9d3d c501 b0bb 4e9f 063e
00000120: 5746 cb3d f0ab 003e 044a a23b ea16 663d
00000130: 2104 463d 3c69 78bd 80d1 c8bc 3478 45bc
00000140: 9932 113c f48d 55bd 046d 3c3d 98ec f0bd
00000150: 17c0 213d 93b0 00ba 74b2 783d 6c6f 863d
00000160: 4406 92bd cb17 133d 5350 4e3d 7cd9 c63d
00000170: e8d5 3dbd fed4 c03d 5e12 bc3c 6439 c73c
00000180: 95dd b0bd f85d 38bd 0cf7 ac3d 31c1 b73c
00000190: eb76 b23c 9f35 e1ba f3c0 a0bd 268f 4cbc
000001a0: 6c2f c1bd 9ad4 84bc db39 a2bd 9c53 5ebd
000001b0: 4340 4dbd d09b a63d f7be f7bd 88e7 f93c
000001c0: 6353 5cbc 95d0 863c 1dac dd3c 2dfa a13c
000001d0: a6f2 13bc 3717 a8bb d8a6 e0ba b13a 5b3d
000001e0: f167 213b 7601 edbb bef5 94bc 8903 dfbd
000001f0: 9ad1 663d d6a7 2a3d c3f6 f33b ea3a 05be
00000200: 74e8 933c 917a 663b a336 81bd b5d3 c2bc
00000210: 2748 b9bc d5c9 01bd ddc3 543d 8f8e b83b
00000220: 6462 83bd 310f fa3c 1479 5f3b 7e9b 4f3d
00000230: bfa8 59bd cc6c 5c3d 5bf7 90bd 0168 ea3c
00000240: 3663 2cbd 5ffc 763d 2ee6 bebc ebda de3b
00000250: 635c 87bd 2967 b3bb 2fea 24bd 25cc a6bc
00000260: 91d3 a13c 08b9 a5bd caef 67bd 391c 26bd
00000270: c299 ab3d 797e 393d 3231 e43d d2e8 cabd
00000280: 0f93 37be 8fc2 82bc c991 8f3d c692 94bd
00000290: 0604 5ebd befb acbc cfb1 80bc 11fa 52bd
000002a0: be76 593c d80c 803e 2d7d 91bd 3831 fabd
000002b0: d365 0b3d 5479 863c 0ab3 493d 2b40 303c
000002c0: 9fa9 313c 3e8a a33d 08d2 083e 0eb9 e43d
000002d0: 6594 22bd d39b 32bd 0204 17ba 1589 f7bc
000002e0: 1a73 c13c f6ec 81bd 389a 873d 87c5 363c
000002f0: 7afc bdbd b2b7 4ebd c8ea 873d be98 8a3d
00000300: 18c9 683d e5f4 9cbc 0196 d93d b591 9ebd
00000310: 7016 8ebc 2e52 d63d 77ae b7bd 3883 133d
00000320: d068 813d 1a79 e03d 008e 0bbd 62f7 abbd
00000330: 8bce 593c 1087 0c3d 6792 26bc 0135 b7bd
00000340: c8c7 c63b ac10 a13d b92c 573d f057 883c
00000350: d447 e6bc e2e2 023d 1d93 3ebd 889b 8abd
00000360: 23f2 b93c 0fd1 94bd 53f7 703d 8c87 d9bb
00000370: 90e3 263d 9c18 bfbd 5cc3 b13c 56f4 29bd
00000380: 23cb 9cbc 0ac9 f83c 02dd 83bd d317 4c3d
00000390: 7c8c d93d f5e5 903d 5255 eabc 2950 57bd
000003a0: 3530 593d 39fc 11bd 7d2b 0d3e 1335 40bd
000003b0: 19c6 24bd 91b9 46bd d200 9a3c 16da 94bd
000003c0: c8d6 953d 349f 0a3e 545c a6bd 1b26 4bbb
000003d0: 82c8 03be de13 bfbd cd42 06bd 1f8b 8dbd
000003e0: d1f2 103d 29d9 aabc bcab b83d 0620 c63d
000003f0: 94d5 cfbc 6941 85bd 3f35 8a3d e35c e9bd

bias f4 [128]
0.021164477 -0.04263789 0.0099150445 0.001084123 0.07994674 0.066172294 0.020466674 -0.049661014
-0.038644753 0.08216095 0.10672669 -0.027205016 0.010350159 0.027266003 -0.02502543 -0.10546016
-0.009225479 -0.0022613066 0.040296238 0.08712327 -0.033970345 0.003078939 0.009187034 0.09082486
0.10274817 0.065223604 -0.0018167997 0.0030623171 -0.0058165495 0.054954868 -0.024715533 0.07626263
-0.03009392 0.0061388174 -0.09450466 -0.017595856 -0.085758075 0.04125136 0.10408915 -0.003511093
0.07152245 0.02457327 0.029409448 0.039516285 0.0040814076 0.05815721 0.0065219495 0.017231323
-0.0033213606 -0.05392492 -0.009305046 -0.061096676 0.064590596 -0.0053483094 0.071700186 0.038753487
0.01944025 0.030069368 -0.0072788866 -0.018929152 -0.058121357 0.06779123 0.026396157 0.013722388
0.0077089197 -0.0775756 0.08831677 0.06699579 -0.0027072928 0.041291382 -0.055670403 -0.04678379
-0.024545051 0.05388587 0.022322677 -0.0017459787 0.110759355 -0.0196464 0.0010595974 0.027245058
-0.011308872 0.02590182 0.060127206 -0.06215395 0.028812224 -0.014189939 0.043362148 0.0047030817
0.10686188 -0.03498163 0.10816826 -0.02415917 0.061552342 -0.08717554 0.013709124 0.035260748
0.005662414 -0.00017318364 0.035960134 0.021341834 0.04335199 -0.019240795 0.11390494 -0.021981463
0.07502256 0.07957846 0.03028218 0.03787905 0.011488395 -0.047629837 0.099401765 0.07301627
0.049063228 -0.0849806 0.015488895 0.0848197 0.022251556 -0.04978119 0.053312257 0.10511603
0.05425079 -0.0035609335 -0.07011417 0.083388716 0.06403978 -0.09622711 -0.12684214 0.0872258
00000000: 2061 ad3c 11a5 2ebd b672 223c 2219 8e3a
00000010: 1ebb a33d 5785 873d baa9 a73c 5969 4bbd
00000020: f649 1ebd 0044 a83d 8693 da3d 0edd debc
00000030: b793 293c f45c df3c 2102 cdbc 7ffb d7bd
00000040: 7726 17bc 6e32 14bb ab0d 253d af6d b23d
00000050: 7d24 0bbd 06c8 493b 3785 163c 6202 ba3d
00000060: a26d d23d f493 853d af21 eeba 28b1 483b
00000070: c198 bebb 5b18 613d 3b78 cabc 952f 9c3d
00000080: 8687 f6bc 2228 c93b a98b c1bd 2f25 90bc
00000090: eea1 afbd 30f7 283d b12c d53d 5e1a 66bb
000000a0: 5d7a 923d e24d c93c 15ec f03c d4db 213d
000000b0: 54bd 853b 4136 6e3d 14b6 d53b b428 8d3c
000000c0: 2fab 59bb 60e0 5cbd 3174 18bc 8240 7abd
000000d0: 1348 843d df40 afbb 8cd7 923d fabb 1e3d
000000e0: 2941 9f3c 0954 f63c ba83 eebb 4f11 9bbc
000000f0: a910 6ebd 21d6 8a3d c13c d83c ded3 603c
00000100: 1b9b fc3b f5df 9ebd 6cdf b43d 1735 893d
00000110: d66c 31bb 2721 293d a606 64bd 5ca0 3fbd
00000120: b412 c9bc 6eb7 5c3d 0cde b63c 53d9 e4ba
00000130: cdd5 e23d 7df1 a0bc 30e2 8a3a 0731 df3c
00000140: d948 39bc 0e30 d43c f247 763d 2495 7ebd
00000150: 9d07 ec3c eb7c 68bc 829c 313d 4f1c 9a3b
00000160: 67da da3d e648 0fbd 5287 dd3d 74e9 c5bc
00000170: 4f1e 7c3d 1789 b2bd 3c9c 603c 936d 103d
00000180: c58b b93b a198 35b9 ef4a 133d 12d5 ae3c
00000190: db91 313d df9e 9dbc fe46 e93d 7812 b4bc
000001a0: 6ea5 993d 08fa a23d 5612 f83c 1027 1b3d
000001b0: d239 3c3c 8117 43bd 2793 cb3d 8e89 953d
000001c0: 86f6 483d 4f0a aebd 22c5 7d3c f3b5 ad3d
000001d0: e548 b63c 5ce7 4bbd f45d 5a3d 1347 d73d
000001e0: 1436 5e3d 8d5e 69bb 0598 8fbd b4c7 aa3d
000001f0: 4a27 833d b812 c5bd e8e2 01be 71a3 b23d

weight f4 [8, 128]
-0.12578566 0.09652005 -0.023381451 0.051406518 0.048674785 0.07897541 -0.10432375 -0.039613135
-0.064398356 -0.023816207 -0.005270642 -0.0033017315 -0.042086013 0.06720494 -0.021104747 -0.06958329
-0.044960786 -0.03642047 -0.041822452 0.052530464 -0.16256024 0.04048976 -0.06527213 0.018881299
-0.100694776 0.13002573 -0.100722104 -0.14599137 0.0070580216 -0.031230932 -0.07497735 0.042425077
0.05181308 0.104018144 0.057059806 0.009567642 0.005783841 0.017582841 -0.07820416 -0.058548562
-0.025882088 -0.018195933 -0.025931126 0.016948566 -0.026540156 0.023486992 0.056430165 0.011022826
0.005059648 0.090685 0.048958845 -0.106303245 -0.09136528 -0.064058125 -0.08871608 0.03125708
0.12060929 0.06220756 -0.05890284 -0.077325635 -0.04659571 -0.06148361 0.0011278321 -0.043922585
0.043939736 0.055703424 0.055521633 -0.06385617 0.064409584 -0.08658914 -0.08063646 0.0059682094
-0.07584293 -0.060208976 0.08630154 0.032814804 -0.037685584 -0.06186707 -0.06328187 0.09182364
0.1012936 -0.05974707 -0.05259612 0.025331374 -0.052491676 0.10327346 -0.046331774 0.032932743
-0.046749096 0.070390604 -0.051685385 -0.027332503 -0.029694296 0.01593434 0.07740741 0.010615305
0.10239691 0.015432952 -0.047765233 0.030684253 -0.10772836 -0.008752902 -0.0825105 -0.0691783
0.049171254 -0.0065090866 0.09574047 0.056053925 -0.09398065 -0.051748022 -0.033891827 -0.00828348
-0.098756336 0.016318103 -0.043721132 0.028284268 0.04434153 -0.10896075 -0.046741985 0.0019145375
-0.08268989 -0.06345002 -0.08550569 -0.020937735 -0.061312456 0.05589838 0.10742047 0.016321275
-0.24771282 -0.1046944 0.106172495 -0.042401943 -0.025520748 -0.10700226 0.05589029 -0.091851
0.020163666 0.019879647 -0.0654481 0.0099099595 -0.120816484 -0.027076345 -0.07972554 0.15300752
0.047750074 0.043799877 -0.1583944 -0.012734903 -0.103905134 0.15469599 0.08135135 -0.011826211
0.049722433 0.16061704 0.016190756 0.10211014 0.118353255 0.01276346 0.10216946 -0.0014305498
0.084271885 0.108715564 0.059875 -0.05034259 0.047081172 -0.06972659 -0.059064414 -0.027028201
-0.15565218 0.09338992 0.07638793 0.10611555 0.16443048 -0.020694483 0.057306916 0.018123863
0.10073773 -0.08179163 0.039304756 -0.027178979 0.06824396 -0.03978718 0.06765917 0.11045022
0.026192479 -0.11724138 -0.14707206 0.09412106 -0.08614631 -0.057249296 -0.00538418 0.022559397
-0.060293287 0.017654145 0.0677998 -0.090971045 -0.04617343 0.012846839 0.080598205 0.012232381
-0.045012075 0.05055463 -0.12951246 0.054807633 -0.07384691 -0.004915496 -0.10118678 -0.10638231
-0.042713016 0.010017369 0.027223244 0.01996303 -0.16491885 -0.017018354 -0.0031300813 -0.0936599
-0.03429866 -0.0724075 -0.08024674 -0.11531065 0.0007807668 0.04089413 -0.08775412 0.040086295
-0.14289874 -0.008020606 0.05671506 0.032384843 0.1741429 -0.11359965 0.0082196575 -0.07769958
-0.13678053 0.17015287 -0.1119336 -0.20127366 -0.08606844 -0.0036300153 0.10464108 0.071797095
0.16319565 0.013041069 0.08676324 0.022070574 0.003304589 0.043063007 0.07290338 -0.053360537
0.19064754 -0.040619496 0.024998128 0.013057301 0.04729935 0.013676713 0.0898908 -0.12941979
00000000: f5cd 00be 4eac c53d 758a bfbc a48f 523d
00000010: 365f 473d dcbd a13d b1a7 d5bd 6241 22bd
00000020: 49e3 83bd 351a c3bc 5ab5 acbb dd61 58bb
00000030: 6262 2cbd bea2 893d dde3 acbc af81 8ebd
00000040: cd28 38bd a12d 15bd 054e 2bbd 2f2a 573d
00000050: 3176 26be 97d8 253d 65ad 85bd f4ac 9a3c
00000060: 1039 cebd 7725 053e 6447 cebd c37e 15be
00000070: fa46 e73b 03d8 ffbc ba8d 99bd ebc5 2d3d
00000080: f439 543d 7707 d53d 8bb7 693d 99c1 1c3c
00000090: 6086 bd3b e409 903c 8129 a0bd 9ed0 6fbd
000000a0: ac06 d4bc a30f 95bc 836d d4bc b8d7 8a3c
000000b0: be6a d9bc cb67 c03c 5123 673d 1599 343c
000000c0: 67cb a53b 0fb9 b93d 1289 483d 84b5 d9bd
000000d0: b81d bbbd e830 83bd c7b0 b5bd 6d07 003d
000000e0: 0102 f73d 5bcd 7e3d 1b44 71bd e75c 9ebd
000000f0: 25db 3ebd 3dd6 7bbd c4d3 933a 2be8 33bd
00000100: 27fa 333d 4629 643d a76a 633d 06c7 82bd
00000110: 2ce9 833d a655 b1bd ba24 a5bd f890 c33b
00000120: 8a53 9bbd b09d 76bd ddbe b03d d168 063d
00000130: 335c 1abd 5368 7dbd ed99 81bd 080e bc3d
00000140: 0573 cf3d 58b9 74bd 076f 57bd be83 cf3c
00000150: 8301 57bd 0981 d33d 63c6 3dbd 7ce4 063d
00000160: fb7b 3fbd f328 903d 0eb4 53bd 6ae8 dfbc
00000170: 7441 f3bc bc88 823c c787 9e3d d1eb 2d3c
00000180: 79b5 d13d 7eda 7c3c 7aa5 43bd 8b5d fb3c
00000190: b0a0 dcbd 5568 0fbc 44fb a8bd 5aad 8dbd
000001a0: cc67 493d 2d4a d5bb 9413 c43d cd98 653d
000001b0: ed78 c0bd bcf5 53bd 28d2 0abd 6fb7 07bc
000001c0: c340 cabd 8bad 853c ee14 33bd 69b4 e73c
000001d0: 779f 353d d026 dfbd 8674 3fbd 38f1 fa3a
000001e0: 5159 a9bd 16f2 81bd 9b1d afbd 9d85 abbc
000001f0: c522 7bbd b3f5 643d 43ff db3d 32b4 853c
00000200: 6ea8 7dbe 056a d6bd f770 d93d a9ad 2dbd
00000210: e310 d1bc 0024 dbbd 37ed 643d 611c bcbd
00000220: 462e a53c a4da a23c a709 86bd 625d 223c
00000230: a26e f7bd 36cf ddbc 2547 a3bd 01ae 1c3e
00000240: 9595 433d 8067 333d 2432 22be 0ea6 50bc
00000250: 37cc d4bd a068 1e3e 899b a63d b9c2 41bc
00000260: c0a9 4b3d cb78 243e 7aa2 843c 1f1f d13d
00000270: 3163 f23d d51d 513c 393e d13d 4981 bbba
00000280: bd96 ac3d 44a6 de3d 7d3f 753d 0834 4ebd
00000290: 30d8 403d d0cc 8ebd 87ed 71bd 3f6a ddbc
000002a0: 4963 1fbe 3743 bf3d 4671 9c3d 1c53 d93d
000002b0: 7760 283e 7a87 a9bc a8ba 6a3d 7f78 943c
000002c0: 954f ce3d 5f82 a7bd 06fe 203d 73a6 debc
000002d0: 7dc3 8b3d e2f7 22bd e490 8a3d ba33 e23d
000002e0: 9c91 d63c 401c f0bd 0f9a 16be 8bc2 c03d
000002f0: 7a6d b0bd 3d7e 6abd c76d b0bb 7cce b83c
00000300: 18f6 76bd 6d9f 903c 9fda 8a3d 074f babd
00000310: 5a20 3dbd 8c7b 523c ac10 a53d 536a 483c
00000320: 955e 38bd 5f12 4f3d ea9e 04be f87d 603d
00000330: 0c3d 97bd 2b12 a1bb 043b cfbd f8de d9bd
00000340: d8f3 2ebd e41f 243c 4803 df3c 8289 a33c
00000350: 7de0 28be 136a 8bbc 0d22 4dbb c3d0 bfbd
00000360: c07c 0cbd 624a 94bd 6758 a4bd fd27 ecbd
00000370: 5fac 4c3a 9a80 273d 6fb8 b3bd 8731 243d
00000380: 0c54 12be dc68 03bc 0d4e 683d f8a5 043d
00000390: 8452 323e efa6 e8bd beab 063c f520 9fbd
000003a0: 3210 0cbe 8e3c 2e3e 713d e5bd af1a 4ebe
000003b0: a644 b0bd 8de5 6dbb 104e d63d 5b0a 933d
000003c0: c31c 273e 35aa 553c edb0 b13d 59cd b43c
000003d0: ce91 583b d662 303d 5e4e 953d 9490 5abd
000003e0: 1c39 433e a160 26bd e0c8 cc3c 4aee 553c
000003f0: f7bc 413d 4b14 603c ab18 b83d 9f86 04be

bias f4 [8]
-0.043980487 -0.071946934 0.07109063 -0.056947283 0.08836889 -0.07866398 -0.08182408 0.119763516
00000000: e224 34bd ea58 93bd f797 913d 8e41 69bd
00000010: c0fa b43d 951a a1bd 6293 a7bd 9346 f53d

weight f4 [128, 8]
-0.21532914 0.113482274 -0.32151926 -0.056833375 0.09581069 -0.25816986 -0.3338135 0.03075207
-0.029737841 0.31170323 0.33801147 0.28125757 0.19833241 -0.11380128 0.4502933 0.013289393
0.13512743 -0.10890163 -0.2230323 -0.07684416 0.08208835 0.266302 0.020178346 -0.15261514
0.33558893 -0.07602103 -0.13751043 -0.24728252 0.011913364 -0.013671786 0.128183 -0.16895796
-0.109397605 -0.32241142 -0.0010064293 0.051255856 0.13015269 0.06502948 0.14514716 0.34131923
-0.16108467 0.21061164 -0.02427936 -0.15313405 -0.114046484 -0.16845612 0.11261908 -0.21745114
-0.33093914 0.15953153 -0.25548345 0.10280884 -0.3035557 -0.34734076 -0.0024776882 0.18510908
0.05268359 -0.118732914 -0.2224233 0.12328611 0.39485016 0.15822576 -0.31187445 0.40260777
-0.23161164 0.110567085 0.34689352 0.17269519 -0.21891657 0.010689752 -0.11295983 -0.23406765
0.3382793 0.35437894 0.40845254 0.13895945 0.20887074 0.024534931 -0.20130882 0.3125295
0.35620368 0.09789489 -0.19739485 0.094632015 0.3845269 0.096468434 -0.36950657 0.014837358
-0.05210124 -0.084624335 0.2683677 0.124738224 0.01623906 0.34462956 0.2290896 -0.16613553
0.05983857 0.32860735 -0.076698184 0.10708487 0.21907398 0.25421718 -0.29188442 0.27645686
0.2420684 0.2544781 -0.035120994 0.18554576 0.08734923 -0.22647104 -0.2655249 0.106692806
0.088859774 0.28737786 0.018537497 -0.15771386 0.31831017 0.042931654 0.40298 -0.03391172
-0.119412504 -0.12479828 0.30140632 -0.23750082 0.1652274 -0.2126888 0.10044016 -0.15936041
-0.04631301 -0.10623899 0.27544242 0.082755856 -0.02682088 0.4946813 0.21612023 0.381835
0.18991192 0.09355779 0.33247834 0.32404593 0.14541633 -0.14882036 0.18163587 -0.22699836
-0.0870086 -0.12869266 -0.06058392 0.44611192 -0.013802556 -0.09674314 0.4146233 0.12342495
-0.05363875 0.2658252 -0.037482146 0.067857265 -0.30302742 -0.34774587 0.32887203 0.18155928
0.5319044 0.18970414 -0.01321512 0.16554795 0.2672177 0.1688435 0.019455044 0.03187581
0.01356346 0.41879472 0.27804115 -0.25032753 0.22371273 -0.3475834 0.07508984 0.16423607
0.2527325 -0.24256338 -0.038623594 0.14527953 -0.12707427 -0.11841831 0.30228978 -0.019293195
-0.08792003 -0.3876648 -0.09865409 -0.19805437 0.04890234 -0.25858766 -0.10620031 0.000987872
-0.26460022 -0.25209498 0.30587336 -0.24860378 -0.25966516 -0.09844081 -0.15196192 0.16550593
0.35693225 0.2694944 0.066814564 0.0021462552 0.33279973 0.47398293 0.27982378 0.11054706
0.06933405 0.26818386 -0.22098346 0.3767168 0.37266216 -0.024851685 0.22423288 0.3762709
0.2952353 -0.19933766 0.25284734 -0.028808257 -0.07862351 0.22688538 0.3156607 0.13572156
-0.11474813 0.23579554 -0.10928108 0.25152776 0.059710484 -0.38279837 -0.08408212 0.058343448
0.27712375 -0.09118274 -0.083440855 0.0122339735 -0.14006168 -0.06280259 -0.33457634 -0.3157447
0.32669434 0.26483828 0.33309424 -0.07948367 -0.1663156 0.24074009 0.013252652 0.31105247
0.19542971 0.3834113 0.06421923 -0.22039226 0.06569209 -0.16750754 0.33566248 -0.16849627
00000000: 3e7f 5cbe 6569 e83d 2c9e a4be 1dca 68bd
00000010: 6538 c43d d72e 84be 9ae9 aabe c4eb fb3c
00000020: c69c f3bc 9197 9f3e d70f ad3e fe00 903e
00000030: a717 4b3e a510 e9bd d88c e63e c1bb 593c
00000040: d85e 0a3e d107 dfbd 9462 64be 7960 9dbd
00000050: f01d a83d bc58 883e 0f4d a53c 2547 1cbe
00000060: 50d2 ab3e eab0 9bbd 89cf 0cbe a137 7dbe
00000070: 4530 433c a0ff 5fbc 6842 033e 5103 2dbe
00000080: da0b e0bd 1c13 a5be 2aea 83ba a9f1 513d
00000090: bf46 053e 2d2e 853d 75a1 143e 65c1 ae3e
000000a0: 61f3 24be 94aa 573e 82e5 c6bc 2ccf 1cbe
000000b0: 3491 e9bd c37f 2cbe d5a4 e63d 83ab 5ebe
000000c0: db70 a9be 3c5c 233e bace 82be 718d d23d
000000d0: a76b 9bbe a6d6 b1be b660 22bb 3c8d 3d3e
000000e0: c0ca 573d 3e2a f3bd efc2 63be 6e7d fc3d
000000f0: cd29 ca3e ef05 223e 02ae 9fbe 9b22 ce3e
00000100: 9a2b 6dbe ff70 e23d 079c b13e 02d7 303e
00000110: aa2b 60be 1224 2f3c 7c57 e7bd 6eaf 6fbe
00000120: f232 ad3e 2871 b53e b120 d13e 634b 0e3e
00000130: 36e2 553e 7bfd c83c e623 4ebe de03 a03e
00000140: 5460 b63e 1e7d c83d e021 4abe 6ece c13d
00000150: b6e0 c43e 3e91 c53d f72f bdbe 6418 733c
00000160: 1c68 55bd 864f adbd 7e67 893e c176 ff3d
00000170: c707 853c 4973 b03e 7796 6a3e 6f1f 2abe
00000180: 4a19 753d 393f a83e f013 9dbd 504f db3d
00000190: ee54 603e c128 823e e071 95be c18b 8d3e
000001a0: c7e0 773e f44a 823e 08db 0fbd b5ff 3d3e
000001b0: 27e4 b23d 06e8 67be e1f2 87be c281 da3d
000001c0: 1dfc b53d 3123 933e f3db 973c be7f 21be
000001d0: 8df9 a23e 1ad9 2f3d 6553 ce3e 04e7 0abd
000001e0: 8b8e f4bd 3e96 ffbd ee51 9a3e 6a33 73be
000001f0: 5f31 293e 18cb 59be 92b3 cd3d 602f 23be
00000200: b6b2 3dbd d493 d9bd ca06 8d3e e77b a93d
00000210: 76b7 dbbc de46 fd3e 9f4e 5d3e e17f c33e
00000220: 4578 423e 3a9b bf3d 9a3a aa3e 59e9 a53e
00000230: 05e8 143e 5d64 18be c1fe 393e 4272 68be
00000240: 9131 b2bd 02c8 03be d826 78bd c868 e43e
00000250: 1e24 62bc 4421 c6bd 8149 d43e 38c6 fc3d
00000260: 4eb4 5bbd 3e1a 883e e186 19bd c0f8 8a3d
00000270: 6926 9bbe bf0b b2be ea61 a83e adea 393e
00000280: e32a 083f cd41 423e 3b84 58bc 6785 293e
00000290: c2d0 883e 4fe5 2c3e 2f60 9f3c 3690 023d
000002a0: 4639 5e3c 436c d63e 695b 8e3e ee2a 80be
000002b0: f314 653e 74f6 b1be b4c8 993d 802d 283e
000002c0: 2766 813e 8962 78be c633 1ebd 28c4 143e
000002d0: c21f 02be 4d85 f2bd bac5 9a3e c30c 9ebc
000002e0: 6b0f b4bd 007c c6be 280b cabd c4ce 4abe
000002f0: d24d 483d 9a65 84be 8c7f d9bd 7c7b 813a
00000300: ae79 87be 9812 81be 6f9b 9c3e fd91 7ebe
00000310: d5f2 84be 569b c9bd e89b 1bbe 637a 293e
00000320: d3bf b63e 2cfb 893e 13d6 883d 30a8 0c3b
00000330: ba64 aa3e e4ad f23e 1045 8f3e 7f66 e23d
00000340: 03ff 8d3d 654f 893e 7d49 62be 06e1 c03e
00000350: 93cd be3e c395 cbbc 4e9d 653e 94a6 c03e
00000360: 1529 973e 2c1f 4cbe 3575 813e 4bff ebbc
00000370: 5d05 a1bd a454 683e 479e a13e 98fa 0a3e
00000380: 1101 ebbd 6374 713e c2ce dfbd 3fc8 803e
00000390: fb92 743d 26fe c3be 3f33 acbd 8af9 6e3d
000003a0: 2ae3 8d3e 04be babd 0ae3 aabd 0171 483c
000003b0: 546c 0fbe a59e 80bd 974d abbe 4aa9 a1be
000003c0: 7b44 a73e e298 873e 548b aa3e 56c8 a2bd
000003d0: a34e 2abe 9284 763e a721 593c 4542 9f3e
000003e0: ba1e 483e 7c4e c43e 5f85 833d 82ae 61be
000003f0: 9389 863d 1987 2bbe f4db ab3e 498a 2cbe

bias f4 [128]
-0.20406665 -0.09360889 -0.29083413 -0.09480071 0.26751617 0.3361357 -0.043821048 0.41096154
0.28293085 0.026300624 0.34102544 -0.043014765 -0.17057475 0.31471235 -0.15455833 -0.119344376
0.37870628 -0.041202158 0.08188941 -0.093864754 0.28253123 -0.04439502 0.32239032 -0.16865855
-0.037488524 0.49400654 -0.219614 0.2081976 -0.18096831 0.22892933 0.1345223 0.12852062
0.3149545 0.014115709 0.35549414 0.15794614 0.0397969 0.35834637 -0.0681383 -0.14807037
0.361217 0.2079645 0.16350481 0.28929907 0.3878759 0.06752553 0.100232705 0.22219376
0.11104198 0.21520719 0.15252934 0.2850096 -0.06313665 -0.24389535 0.20210268 0.14696385
0.0044062072 -0.046627406 -0.23993887 -0.02467056 0.019923868 0.17841768 -0.28358102 -0.12004349
-0.23625599 -0.19021694 0.2356024 0.23158707 -0.32547903 0.23248695 0.01676364 -0.025539212
0.102857515 -0.2607386 -0.18076846 0.06783247 0.24804646 0.073604584 -0.32497454 -0.19337727
-0.28391767 -0.10610565 -0.04187482 -0.30496866 0.1428516 0.2667609 0.32218176 0.1726633
0.14405136 0.16661811 0.16164301 0.37859297 0.15756072 -0.12675957 0.050214745 0.34421313
0.36180323 -0.2709982 -0.27008036 -0.14634746 0.11897534 0.18906353 -0.04556651 -0.11670746
-0.12938885 -0.051242027 -0.021448199 -0.09553792 -0.32554412 -0.30129907 -0.21844728 0.27790785
0.2870227 0.089719556 -0.03956506 -0.17641515 -0.19545095 0.2545147 -0.33058152 0.23014356
0.27224484 -0.021381427 -0.1256868 -0.18252389 0.10012594 0.10476485 -0.036771797 0.3490994
00000000: d9f6 50be 05b6 bfbd 36e8 94be e026 c2bd
00000010: e1f7 883e fa19 ac3e b37d 33bd 8d69 d23e
00000020: 50dc 903e 6874 d73c e39a ae3e 4030 30bd
00000030: 26ab 2ebe fa21 a13e 8a44 1ebe d36a f4bd
00000040: cae5 c13e 98c3 28bd a3b5 a73d 2a3c c0bd
00000050: efa7 903e 8dd7 35bd 5810 a53e d4b4 2cbe
00000060: 918d 19bd 6dee fc3e 7ee2 60be c031 553e
00000070: c24f 39be 736c 6a3e 37c0 093e e99a 033e
00000080: b741 a13e 9345 673c 5403 b63e a2bc 213e
00000090: 1302 233d 2d79 b73e 188c 8bbd c29f 17be
000000a0: 6ff1 b83e a5f4 543e ce6d 273e 021f 943e
000000b0: ac97 c63e d34a 8a3d ce46 cd3d c386 633e
000000c0: fa69 e33d 465f 5c3e a730 1c3e c7ec 913e
000000d0: ca4d 81bd b4bf 79be 01f4 4e3e b17d 163e
000000e0: f261 903b 61fc 3ebd 89b2 75be ea19 cabc
000000f0: 6137 a33c 20b3 363e 8831 91be 5cd9 f5bd
00000100: 17ed 71be 3bc8 42be c141 713e 2925 6d3e
00000110: 30a5 a6be 0f11 6e3e e753 893c 9c37 d1bc
00000120: f6a6 d23d 887f 85be 5e1b 39be c0eb 8a3d
00000130: e4ff 7d3e 00be 963d 1063 a6be b104 46be
00000140: a85d 91be eb4d d9bd ee84 2bbd da24 9cbe
00000150: b147 123e e294 883e 02f5 a43e a6ce 303e
00000160: 3382 133e f09d 2a3e bf85 253e f0d6 c13e
00000170: 9957 213e 43cd 01be faad 4d3d b43c b03e
00000180: 463e b93e 47c0 8abe f947 8abe 1cdc 15be
00000190: 58a9 f33d df99 413e f3a3 3abd 5204 efbd
000001a0: 837e 04be 29e3 51bd 22b4 afbc 63a9 c3bd
000001b0: b8ad a6be df43 9abe a5b0 5fbe f049 8e3e
000001c0: a4f4 923e e3be b73d f90e 22bd 2ca6 34be
000001d0: 4b24 48be c04f 823e fb41 a9be c1aa 6b3e
000001e0: ad63 8b3e 1a28 afbc 0ab4 00be 8be7 3abe
000001f0: d40e cd3d f48e d63d 069e 16bd 28bd b23e

weight f4 [128, 136]
0.096482776 0.0024614308 0.041971393 -0.05767574 0.031703897 0.039650135 -0.13462558 0.059094705
-0.08915199 -0.080991335 -0.048680443 -0.028393442 0.010659356 0.07870298 0.036292043 -0.06312813
-0.10834936 0.095972 -0.052900184 -0.05717457 -0.04355916 -0.022194257 -0.028283192 -0.09029824
0.04157299 0.08461024 -0.03446717 -0.036376107 -0.010931578 0.06916336 -0.011148178 -0.039733194
0.07378113 0.091996886 0.049089476 -0.00065750367 -0.007211961 0.0077680545 -0.079768084 0.039577536
-0.008018759 0.017669084 0.02546434 0.10515606 0.09726506 0.04785227 0.054670148 -0.07295309
0.0057918164 -0.009238572 -0.027315784 0.15510006 -0.03226857 0.0150430575 0.046398796 -0.04634937
0.12705529 -0.00068849424 -0.023873413 0.020278025 0.0151642915 -0.10816916 0.045658056 -0.061017644
0.030529154 -0.021578806 -0.021528656 -0.09634866 -0.053202424 -0.053770255 -0.01693033 -0.026136732
-0.0900092 -0.06871776 -0.06115523 -0.008052691 0.01274274 0.0029577594 0.09942382 0.06320453
0.0618969 -0.059856318 -0.10076686 0.07699998 -0.13611476 0.05231254 0.03989359 -0.058327187
0.11761883 -0.0328343 0.057718817 0.028606411 0.19193818 0.06781229 0.05048164 -0.028295422
0.045151636 0.10650691 -0.002161365 0.032413345 -0.0740407 -0.035078477 0.008635435 0.027357532
0.05189641 0.044575002 -0.018655863 -0.06674513 0.051968966 -0.00419506 0.047278937 -0.09492037
0.042594172 -0.009568752 -0.09268695 0.096245654 0.01972278 0.033605248 -0.12555525 -0.11433367
-0.088090606 0.044106435 0.00037520772 -0.032009594 0.00800743 0.072745174 0.060755637 -0.06300667
-0.029211316 -0.012991233 0.058400508 -0.084373884 -0.03927613 -0.03755098 0.02321208 0.06806443
0.06251674 -0.041200943 -0.0416108 0.012362492 -0.083244205 0.06293779 -0.115678504 -0.2747578
0.057872586 -0.031026874 -0.004794176 -0.01849023 -0.06546512 -0.0937388 -0.022044359 0.0010591843
-0.11164806 0.070614904 -0.09914061 0.06489352 -0.015747441 -0.074319705 0.055779435 -0.09454893
0.011274807 -0.04443888 0.021351334 0.14018972 -0.19836842 -0.079845436 -0.023758817 0.06383109
-0.09142756 0.052440964 -0.06907117 -0.047662526 -0.19967172 -0.023189977 0.0016157884 -0.1904945
0.037375942 0.026287584 -0.023178883 0.011928325 0.017705608 0.0933189 -0.015834397 -0.069337636
-2.0269725e-05 -0.052178763 -0.05192568 -0.02457675 0.0024256378 -0.046633836 0.0103721395 0.046464764
-0.092072286 0.0065948926 -0.09102763 -0.024301687 -0.064127624 -0.09155969 0.11299839 -0.112738974
0.026993899 -0.09652988 -0.02519726 -0.066227876 -0.07310791 -0.11490091 0.0007762517 -0.01771732
-0.14854881 -0.110230744 -0.1192141 0.03166315 0.06932101 -0.0103208395 0.00077842444 0.0073601482
0.03237514 0.018698413 0.01474275 0.06129189 -0.084137246 0.07379823 -0.046768837 0.026305819
-0.023729503 0.09315472 0.11642143 0.00023928667 -0.071549915 -0.071918994 -0.00033819507 -0.02353098
-0.07306389 0.0025945655 0.020000398 0.030862609 -0.06711141 0.07912983 0.012591701 0.120256215
0.004731058 0.057371777 0.027580267 -0.06019251 -0.008676095 -0.09085212 0.029388508 0.028888827
-0.0711288 -0.033714052 0.0023253707 0.07084107 0.035077814 -0.02097107 0.010432771 0.051171307
00000000: c398 c53d f54f 213b 32ea 2b3d 663d 6cbd
00000010: f2db 013d 2e68 223d 4adb 09be 4a0d 723d
00000020: 5295 b6bd c9de a5bd 2565 47bd 5d99 e8bc
00000030: 94a4 2e3c 072f a13d f7a6 143d 5249 81bd
00000040: 45e6 ddbd f88c c43d ddad 58bd e22f 6abd
00000050: 176b 32bd bbd0 b5bc 27b2 e7bc 49ee b8bd
00000060: 7148 2a3d 2248 ad3d 722d 0dbd 1dff 14bd
00000070: 5d1a 33bc 85a5 8d3d d9a6 36bc 46bf 22bd
00000080: 901a 973d dd68 bc3d 0c12 493d 535c 2cba
00000090: 5052 ecbb 2a8b fe3b 735d a3bd 0e1c 223d
000000a0: 1d61 03bc c1be 903c 979a d03c 0f5c d73d
000000b0: e732 c73d be00 443d ceed 5f3d 6e68 95bd
000000c0: 47c9 bd3b 615d 17bc 5ac5 dfbc 8dd2 1e3e
000000d0: 0c2c 04bd 2877 763c aa0c 3e3d d6d8 3dbd
000000e0: c81a 023e 117c 34ba 2d92 c3bc 1a1e a63c
000000f0: a673 783c cb87 ddbd f103 3b3d a3ed 79bd
00000100: 4718 fa3c 09c6 b0bc dd5c b0bc 7252 c5bd
00000110: c9ea 59bd 333e 5cbd 7ab1 8abc b31c d6bc
00000120: be56 b8bd e6bb 8cbd e87d 7abd 6fef 03bc
00000130: edc6 503c f8d6 413b b79e cb3d 6071 813d
00000140: 9b87 7d3d e62b 75bd db5e cebd 2ab2 9d3d
00000150: ab61 0bbe ad45 563d 7667 233d 7de8 6ebd
00000160: 24e2 f03d 427d 06bd 916a 6c3d fe57 ea3c
00000170: 718b 443e 2be1 8a3d d6c5 4e3d cdcb e7bc
00000180: ecf0 383d 4b20 da3d b0a5 0dbb dbc3 043d
00000190: a7a2 97bd 73ae 0fbd a47b 0d3c e71c e03c
000001a0: 5491 543d 4794 363d 2ed4 98bc acb1 88bd
000001b0: 69dd 543d b776 89bb 8fa7 413d 9c65 c2bd
000001c0: 3a77 2e3d 41c6 1cbc a8d2 bdbd 711c c53d
000001d0: ab91 a13c a8a5 093d 8e91 00be c527 eabd
000001e0: d968 b4bd f3a8 343d 87b7 c439 7e1c 03bd
000001f0: 9831 033c 6cfb 943d e7da 783d a409 81bd
00000200: 924c efbc 2ed9 54bc 5f35 6f3d 37cc acbd
00000210: 02e0 20bd 0ecf 19bd 4327 be3c 5d65 8b3d
00000220: c708 803d 52c2 28bd 1670 2abd 0d8c 4a3c
00000230: f07b aabd 87e5 803d dae8 ecbd 0ead 8cbe
00000240: ce0b 6d3d 122c febc 7718 9dbb d378 97bc
00000250: 9412 86bd 21fa bfbd 5f96 b4bc 54d4 8a3a
00000260: bda7 e4bd 8c9e 903d 3b0a cbbd e5e6 843d
00000270: c700 81bc ee34 98bd fa78 643d dfa2 c1bd
00000280: f8b9 383c 8b05 36bd fee8 ae3c e58d 0f3e
00000290: 1721 4bbe 0186 a3bd daa1 c2bc e0b9 823d
000002a0: 5f3e bbbd 56cc 563d 3075 8dbd c839 43bd
000002b0: be76 4cbe e8f8 bdbc ddc8 d33a fd10 43be
000002c0: 8417 193d 0f59 d73c a4e1 bdbc 056f 433c
000002d0: 5a0b 913c fb1d bf3d 23b7 81bc e400 8ebd
000002e0: e708 aab7 66b9 55bd 06b0 54bd 2e55 c9bc
000002f0: 73f7 1e3b 1f03 3fbd e8ef 293c d651 3e3d
00000300: 6590 bcbd f819 d83b b26c babd 5514 c7bc
00000310: 5855 83bd a683 bbbd b36b e73d b1e3 e6bd
00000320: 4f22 dd3c 75b1 c5bd 7c6a cebc 7ba2 87bd
00000330: 9ab9 95bd 2b51 ebbd 5f7d 4b3a ea23 91bc
00000340: 2e1d 18be a8c0 e1bd 8626 f4bd 38b1 013d
00000350: 2cf8 8d3d bd18 29bc 2e0f 4c3a 662d f13b
00000360: cb9b 043d 6a2d 993c 938b 713c 340d 7b3d
00000370: 2650 acbd 8723 973d ae90 3fbd 4d7f d73c
00000380: 6064 c2bc e7c7 be3d 5c6e ee3d 07e9 7a39
00000390: c388 92bd 444a 93bd c64f b1b9 0bc4 c0bc
000003a0: 85a2 95bd 9609 2a3b e0d7 a33c 95d3 fc3c
000003b0: b571 89bd d20e a23d 6c4d 4e3c e448 f63d
000003c0: fe06 9b3b abfe 6a3d 03f0 e13c 6c8c 76bd
000003d0: 2e26 0ebc ad10 babd 2bc0 f03c 43a8 ec3c
000003e0: faab 91bd bf17 0abd 3f65 183b 1f15 913d
000003f0: c1ad 0f3d 85cb abbc 37ee 2a3c 0199 513d

bias f4 [128]
-0.04988003 -0.073798865 -0.030299446 0.020089934 -0.0594267 0.018091006 0.083926484 0.05779637
0.024112053 -0.010219354 -0.03195452 -0.01724184 0.018618772 -1.2517862e-05 -0.015144407 -0.013877715
-0.037458785 0.027760744 -0.09941662 0.055281237 -0.049347486 0.09887079 -0.03191874 0.07115101
0.061825715 0.038984433 0.0442011 0.046038494 0.114096455 -0.06973487 0.020659847 0.054214165
0.028297232 0.04176234 -0.11752144 0.025065923 0.059261736 0.097873755 0.10173359 0.07869048
-0.02493236 0.015383173 -0.005807898 -0.014975051 0.051999565 -0.06504353 0.056794852 0.049159307
0.033906408 -0.04829696 -0.030455945 0.0034170472 -0.06774131 0.047329295 0.07428856 -0.10829555
-0.052778747 0.08196664 0.0065964693 -0.11504323 0.09931687 -0.02331014 0.06938666 -0.090166576
0.07336151 -0.015481006 -0.097492866 -0.02862163 0.06250307 -0.075398736 -0.109848656 0.055407144
0.05061852 -0.058202293 -0.060482167 0.087834015 -0.00854362 -0.060541164 -0.054071955 -0.10193393
0.019750264 -0.025708735 -0.08904954 0.08360191 -0.04199978 -0.03177179 -0.024555996 0.036593955
0.102562994 -0.034518927 0.056908328 0.024368456 -0.01912448 0.06515069 -0.030291751 0.062981345
-0.09396167 0.07220576 -0.05815229 0.029901784 0.057987858 -0.040242445 0.025416512 0.02210066
0.019132538 0.10529041 -0.053987227 -0.006836725 0.10915333 0.009079747 -0.030375015 -0.04248179
-0.0045554964 -0.05554232 -0.07882301 -0.091713786 0.068382844 0.016759297 0.02546471 0.0298486
0.047808144 0.08632766 -0.11177743 -0.07423714 0.012084768 0.027666008 0.039496746 -0.023655314
00000000: 014f 4cbd dc23 97bd 8b36 f8bc a593 a43c
00000010: 6969 73bd 9733 943c a6e1 ab3d e3bb 6c3d
00000020: a486 c53c 146f 27bc bee2 02bd c23e 8dbc
00000030: 6586 983c cf03 52b7 3f20 78bc 5b5f 63bc
00000040: 626e 19bd 806a e33c f19a cbbd 946e 623d
00000050: 9720 4abd c57c ca3d 3abd 02bd 9fb7 913d
00000060: f63c 7d3d 24ae 1f3d 360c 353d dc92 3c3d
00000070: 67ab e93d 28d1 8ebd d73e a93c ac0f 5e3d
00000080: 99cf e73c fd0e 2b3d 15af f0bd 0d57 cd3c
00000090: 6fbc 723d 0972 c83d b359 d03d 7928 a13d
000000a0: f33e ccbc b409 7c3c 2e50 bebb eb59 75bc
000000b0: 7ffd 543d 8b35 85bd b8a1 683d 455b 493d
000000c0: 72e1 0a3d 08d3 45bd bf7e f9bc 8af0 5f3b
000000d0: f5bb 8abd 5ddc 413d 9a24 983d 0fca ddbd
000000e0: 872e 58bd 20de a73d 3227 d83b c99b ebbd
000000f0: a566 cb3d e8f4 bebc 981a 8e3d 41a9 b8bd
00000100: 8f3e 963d 0ca4 7dbc 57aa c7bd e977 eabc
00000110: 9c01 803d a76a 9abd 55f8 e0bd 9af2 623d
00000120: 5d55 4f3d 8765 6ebd 26bc 77bd 52e2 b33d
00000130: 8afa 0bbc 03fa 77bd 8e7a 5dbd bcc2 d0bd
00000140: 4ecb a13c 209b d2bc 9b5f b6bd 7a37 ab3d
00000150: f607 2cbd 2323 02bd a829 c9bc 8be3 153d
00000160: 8c0c d23d b863 0dbd b518 693d 5ba0 c73c
00000170: f1aa 9cbc ba6d 853d 6826 f8bc 5dfc 803d
00000180: fa6e c0bd 9de0 933d 1831 6ebd 96f4 f43c
00000190: ad84 6d3d 43d5 24bd 4a36 d03c 710c b53c
000001a0: d7bb 9c3c 80a2 d73d b621 5dbd 9b06 e0bb
000001b0: c88b df3d 38c3 143c 06d5 f8bc 6301 2ebd
000001c0: 4646 95bb 5880 63bd f56d a1bd 70d4 bbbd
000001d0: 4e0c 8c3d cb4a 893c 5e9b d03c 0d85 f43c
000001e0: 79d2 433d 8ecc b03d 91eb e4bd a409 98bd
000001f0: 31ff 453c d3a3 e23c 57c7 213d cac8 c1bc
