E-GraphSAGE/experiments/SE_MLP_NF-BoT-IoT_best_model.pth (torch, 374098 bytes, 20 tensors)

weight f4 [128, 16]
0.1846554 -0.25614068 0.059682034 0.15135485 -0.060384046 -0.04720885 0.18367356 -0.26850083
0.26915523 0.09261928 -0.19109161 0.118561454 0.21407299 0.028302863 -0.16176781 -0.034329135
-0.13053031 0.22711815 0.098164864 -0.21051027 -0.17438473 -0.0056446586 -0.05639442 0.15335326
0.002390486 0.2176338 -0.1827549 0.26892433 -0.25029835 0.27682865 -0.1446461 -0.15051377
-0.14896062 0.2504279 0.1267783 -0.047952432 0.115102544 0.11958118 0.14006193 0.23466438
-0.05332134 -0.13682072 0.021788305 -0.020554056 -0.12068435 -0.38392866 -0.34663808 -0.064435996
-0.23663917 -0.024812987 0.16629943 -0.13261065 -0.20172852 0.097558185 0.20200685 -0.031251002
-0.18562916 -0.06293796 0.28376302 -0.05043787 0.10287709 -0.37808877 -0.32289302 -0.1769543
0.100129165 0.12204326 0.13629675 -0.096021794 0.14024857 -0.14169015 -0.0471741 0.016785845
-0.3860803 -0.052997638 0.06785547 -0.09501152 -0.09154251 -0.32420048 -0.011172378 0.09008132
0.055324316 -0.07230878 0.041545074 -0.11934451 -0.2639157 -0.17188098 -0.07555769 -0.012749105
-0.17308903 0.18028957 -0.032077115 0.0067269136 -0.07190957 -0.2380379 0.008212797 -0.25363278
-0.12191811 0.09018946 0.071437806 -0.13393076 -0.1333817 -0.18399404 0.0044458224 0.043054253
-0.0560405 -0.02022076 -0.17838281 -0.1580634 -0.08740976 -0.13523221 -0.34705848 -0.2301687
0.028573336 -0.21799242 0.20904586 0.037606906 0.27091444 0.13824134 -0.13863635 0.13597423
-0.035375614 -0.053676005 0.17544441 -0.2344356 0.14583737 0.3259555 0.43184233 0.21340036
-0.16036677 0.058484215 0.008382271 -0.04401781 -0.05319694 -0.18929833 0.19124591 0.06901358
-0.30321917 0.22615658 -0.17383368 0.056354288 0.14431126 -0.2985213 -0.116209425 -0.1811962
-0.16012321 0.005109755 0.1531799 -0.013328938 -0.017376104 -0.10873465 -0.12483635 -0.21730493
-0.1761083 0.115819834 0.11164028 -0.1108826 -0.17637093 0.14016397 -0.4510962 -0.30905417
-0.039355658 0.1593468 0.14441852 0.015845133 0.109328724 -0.07146602 0.23980074 0.16464587
0.19950207 -0.19649224 -0.006375052 0.24288501 0.020725956 0.014128875 0.3937162 0.0040996135
0.070957564 -0.10816065 -0.19674452 -0.16002552 -0.0939774 0.07109188 0.023729602 -0.12966901
-0.18130308 -0.256872 -0.006617796 -0.23361848 -0.11557995 0.24875318 0.053425487 -0.022882065
-0.09328722 -0.2466357 -0.15428852 -0.1403093 -0.1198188 -0.17893745 0.108097985 -0.09643432
-0.08290427 -0.109801844 0.0077975616 -0.2235833 -0.22303519 -0.10414998 -0.43866336 -0.18612923
-0.18408309 -0.09575155 0.21930356 0.053809512 -0.09127831 -0.006570629 -0.112742506 0.143665
0.08285509 0.20842163 0.1400114 -0.04461191 -0.25685385 0.2184006 -0.06771999 0.040045284
0.1354384 0.24621695 0.04392429 -0.04199798 -0.18405688 -0.09614368 -0.020562384 0.2082574
0.33014974 -0.02986479 0.28147766 0.32795492 -0.09711675 0.29826716 0.014251799 -0.117189504
0.26780054 -0.17406806 -0.16436556 -0.20218691 0.24853075 -0.10324106 0.15994257 0.22719783
-0.082504265 -0.10943936 0.008651885 -0.26353103 -0.0018419744 0.07576661 -0.19162355 -0.13177581
00000000: 4e16 3d3e df24 83be 2675 743d c4fc 1a3e
00000010: 4355 77bd 115e 41bd ec14 3c3e f178 89be
00000020: b7ce 893e 2daf bd3d 85ad 43be 59d0 f23d
00000030: f335 5b3e 68db e73c 76a6 25be b59c 0cbd
00000040: bda9 05be a991 683e a90a c93d 0190 57be
00000050: e991 32be d4f6 b8bb d6fd 66bd a308 1d3e
00000060: b3a9 1c3b 65db 5e3e 1a24 3bbe 73b0 893e
00000070: 1b27 80be 7cbc 8d3e 1b1e 14be 4820 1abe
00000080: 2289 18be 1638 803e 2cd2 013e c569 44bd
00000090: e2ba eb3d fae6 f43d 656c 0f3e dc4b 703e
000000a0: 7a67 5abd bb1a 0cbe 637d b23c fb60 a8bc
000000b0: 5b29 f7bd 4c92 c4be 8c7a b1be 05f7 83bd
000000c0: 8a51 72be 9b44 cbbc 664a 2a3e 16cb 07be
000000d0: ec91 4ebe 96cc c73d e2da 4e3e 0d01 00bd
000000e0: 9215 3ebe 9ee5 80bd 6349 913e f197 4ebd
000000f0: 39b1 d23d da94 c1be 3c52 a5be 8233 35be
00000100: 8510 cd3d d1f1 f93d 6091 0b3e 13a7 c4bd
00000110: 529d 0f3e 3917 11be a139 41bd 7882 893c
00000120: 51ac c5be 0d14 59bd cff7 8a3d 6695 c2bd
00000130: a47a bbbd 9bfd a5be 5a0c 37bc 8e7c b83d
00000140: c09b 623d a016 94bd 2b2b 2a3d e56a f4bd
00000150: f51f 87be 9101 30be fdbd 9abd 9fe1 50bc
00000160: 403e 31be d49d 383e 4b63 03bd 716d dc3b
00000170: 5345 93bd 35c0 73be f88e 063c 28dc 81be
00000180: 34b0 f9bd 40b5 b83d fc4d 923d 2525 09be
00000190: 3695 08be ef68 3cbe 43ae 913b a859 303d
000001a0: b98a 65bd 02a6 a5bc fca9 36be 5fdb 21be
000001b0: e303 b3bd 507a 0abe a6b1 b1be 58b1 6bbe
000001c0: a112 ea3c 6839 5fbe 1e10 563e b309 1a3d
000001d0: 4cb5 8a3e 238f 0d3e b0f6 0dbe d43c 0b3e
000001e0: 05e6 10bd 5fdb 5bbd b3a7 333e e30f 70be
000001f0: 6456 153e a4e3 a63e 701a dd3e a085 5a3e
00000200: 3037 24be 258d 6f3d cb55 093c 054c 34bd
00000210: 09e5 59bd 6cd7 41be f8d5 433e fe56 8d3d
00000220: 8b3f 9bbe 9795 673e 7501 32be c1d3 663d
00000230: 55c6 133e c9d7 98be 35ff edbd 7f8b 39be
00000240: 57f7 23be bb6f a73b 31db 1c3e 9e61 5abc
00000250: 5558 8ebc 46b0 debd 33aa ffbd 2f85 5ebe
00000260: bc55 34be f332 ed3d a9a3 e43d 6b16 e3bd
00000270: 959a 34be 2587 0f3e 15f6 e6be 593c 9ebe
00000280: 6633 21bd cf2b 233e 73e2 133e a7cd 813c
00000290: bde7 df3d c75c 92bd 538e 753e ed98 283e
000002a0: 454a 4c3e 4335 49be d0e5 d0bb d9b6 783e
000002b0: 7bc9 a93c cc7c 673c 2b95 c93e 0d56 863b
000002c0: 3352 913d 5583 ddbd 6577 49be bbdd 23be
000002d0: 3977 c0bd 9f98 913d 9564 c23c f4c7 04be
000002e0: 84a7 39be ba84 83be 19da d8bb af39 6fbe
000002f0: 2eb5 ecbd 27b9 7e3e afd4 5a3d 2b73 bbbc
00000300: 5f0d bfbd 128e 7cbe cffd 1dbe 3ead 0fbe
00000310: 8f63 f5bd 613b 37be 7a62 dd3d 5b7f c5bd
00000320: b7c9 a9bd cadf e0bd b082 ff3b 05f3 64be
00000330: 5663 64be 964c d5bd 7c98 e0be a998 3ebe
00000340: 4780 3cbe 6319 c4bd 1d91 603e 5d67 5c3d
00000350: 1ff0 babd 6e4e d7bb 8be5 e6bd eb1c 133e
00000360: eeaf a93d 7b6c 553e 265f 0f3e faba 36bd
00000370: 5982 83be 68a4 5f3e c7b0 8abd 8606 243d
00000380: 5db0 0a3e 4c20 7c3e f5e9 333d 1306 2cbd
00000390: 6879 3cbe fae6 c4bd 7272 a8bc 6e41 553e
000003a0: 6309 a93e 01a7 f4bc d71d 903e b5e9 a73e
000003b0: 26e5 c6bd 79b6 983e 6180 693c 0d01 f0bd
000003c0: 271d 893e e63e 32be 724f 28be 160a 4fbe
000003d0: d87e 7e3e 0d70 d3bd fcc7 233e 8ca6 683e
000003e0: fff7 a8bd be21 e0bd a3c0 0d3c 8aed 86be
000003f0: 686e f1ba 862b 9b3d f738 44be 3df0 06be

bias f4 [128]
-0.21404095 0.25675124 -0.060829 -0.08819943 0.25074732 -0.023768332 -0.01521548 -0.14451258
0.14870493 0.20894499 -0.21221437 0.013643593 -0.20254357 -0.02498769 0.22443356 0.080667384
-0.08339206 0.13265014 0.17784107 -0.056935612 -0.15803488 0.13937432 0.020585848 -0.19531807
-0.02651219 0.09456736 0.24557099 -0.034456775 0.045808405 -0.067981884 0.123697005 0.10074925
0.17933513 -0.0838089 0.042124722 0.17717367 0.075402185 0.25373417 0.17962949 0.048300773
-0.24816723 0.19288635 -0.08106805 -0.15696387 -0.013826359 0.030519234 -0.013620738 0.086019315
-0.16439864 -0.12749606 0.010569301 -0.20726827 -0.06202795 0.2579843 -0.12244702 0.03671082
-0.13342933 0.16251801 0.25821555 0.1109105 0.13826378 -0.1847906 -0.057693023 -0.113540575
0.09831115 0.2527946 -0.20572916 0.23187485 0.08149977 0.039755046 -0.039260436 -0.09310421
-0.0036597007 0.11014359 0.22471382 0.16806544 -0.16864485 0.10484234 -0.047746684 0.21713473
0.025276853 -0.015361197 -0.022700796 0.18160157 0.10749359 -0.006467132 -0.04275286 -0.10998663
-0.13312434 -0.1293285 0.28539366 0.14200899 -0.20629545 0.25347605 0.020749165 0.0020414928
-0.18772013 0.008357087 -0.038727723 -0.026743032 -0.16990337 -0.23239721 0.20502363 0.24889441
-0.0010013022 -0.11993525 -0.17438492 -0.108406805 -0.13836016 0.264813 0.2412992 0.22912855
-0.18305187 -0.14349301 -0.0049973764 -0.120429166 0.25450766 -0.15394123 0.028838554 0.038905647
0.21431309 0.23228092 -0.20056441 0.1767218 -0.17266692 0.21519804 0.14106348 0.14842352
00000000: 8d2d 5bbe e674 833e d427 79bd e7a1 b4bd
00000010: f461 803e ceb5 c2bc 594a 79bc 1bfb 13be
00000020: 1b46 183e adf5 553e b94e 59be 6089 5f3c
00000030: 9567 4fbe fcb2 ccbc e9d1 653e f134 a53d
00000040: 75c9 aabd 70d5 073e f81b 363e 5135 69bd
00000050: e5d3 21be 24b8 0e3e a7a3 a83c 7601 48be
00000060: 1830 d9bc 88ac c13d f676 7b3e 8c22 0dbd
00000070: 98a1 3b3d 163a 8bbd db54 fd3d 9f55 ce3d
00000080: a1a3 373e 00a4 abbd f98a 2c3d 046d 353e
00000090: 766c 9a3d 72e9 813e cbf0 373e 08d7 453d
000000a0: 8d1f 7ebe 0084 453e 0107 a6bd 23bb 20be
000000b0: f487 62bc 7903 fa3c 8429 5fbc e52a b03d
000000c0: 1e58 28be 548e 02be dd2a 2d3c 223e 54be
000000d0: 0511 7ebd 8516 843e 81c5 fabd 165e 163d
000000e0: b3a1 08be 1f6b 263e d434 843e 0b25 e33d
000000f0: 0595 0d3e bf39 3dbe 854f 6cbd f687 e8bd
00000100: 5b57 c93d 4b6e 813e aaaa 52be 9a70 6d3e
00000110: 5ae9 a63d 30d6 223d 8dcf 20bd 6cad bebd
00000120: 97d7 6fbb f692 e13d 611b 663e 5919 2c3e
00000130: 3cb1 2cbe 95b7 d63d 0792 43bd 9158 5e3e
00000140: 6711 cf3c 88ad 7bbc 05f7 b9bc c3f5 393e
00000150: 9925 dc3d 3cea d3bb 9f1d 2fbd ac40 e1bd
00000160: bf51 08be b16e 04be 1e1f 923e ce6a 113e
00000170: 1d3f 53be 9dc7 813e 27fa a93c 91ca 053b
00000180: b539 40be 2aec 083c f6a0 1ebd 3414 dbbc
00000190: 26fb 2dbe 89f9 6dbe b7f1 513e 2dde 7e3e
000001a0: 203e 83ba 9da0 f5bd f691 32be 6304 debd
000001b0: 49ae 0dbe 9295 873e 2317 773e ada0 6a3e
000001c0: f371 3bbe d5ef 12be 08c1 a3bb 91a3 f6bd
000001d0: d44e 823e c5a2 1dbe d53e ec3c 875b 1f3d
000001e0: e474 5b3e 0ddb 6d3e c260 4dbe 8ff6 343e
000001f0: 99cf 30be e05c 5c3e f272 103e 56fc 173e

weight f4 [128, 136]
0.09026018 0.0041633905 -0.011844647 0.08451413 0.08280507 -0.051466756 0.045860436 0.039368957
-0.05650476 -0.042654596 0.08084187 -0.06400199 -0.08195992 -0.080338486 -0.026158247 -0.015484479
-0.04982574 0.0047244574 0.05417276 -0.007843212 0.013066998 -0.020765895 -0.03559554 0.09206156
-0.02620982 -0.01587425 0.13452376 -0.065096274 -0.049365196 -0.0625077 -0.014851626 -0.064024046
0.070683256 0.07668539 0.013405565 0.05737953 0.033889014 0.05006309 0.033112787 -0.0754096
-0.07444607 -0.011439387 -0.072506994 -0.15557113 0.0013846348 0.0044640927 0.00223102 -0.11460066
-0.007797765 -0.051522773 -0.02981475 -0.012865513 -0.012011741 0.02491062 0.056690875 -0.043397564
-0.009496891 -0.017303681 0.05264649 0.024073912 0.033862583 0.1106607 0.04804355 0.07689408
0.15571003 -0.011338755 0.047813453 0.0050228043 -0.016200274 -0.016245965 0.06646737 -0.03492683
0.1159571 0.03981345 0.06944945 -0.11172582 0.060258158 -0.035888623 -0.024799734 0.04021913
0.026880743 -0.07223286 -0.08173227 -0.10779068 -0.034419347 3.0139689e-05 -0.10953492 -0.106140286
-0.01482087 0.0939834 0.017043274 -0.058976807 0.029772058 -0.08254947 0.04956265 -0.09028561
-0.0060680234 0.043754235 0.01335144 -0.014859063 0.020988567 -0.06174956 -0.10479258 0.042042106
-0.13365431 -0.0058316328 0.09155614 -0.046813946 0.08541777 0.09749342 -0.087299 0.035558745
-0.052594338 -0.011603513 0.038526498 0.028383326 -0.053028386 -0.0060148975 0.043013584 0.09265998
-0.0027218186 0.07379883 0.065861486 -0.054320604 -0.015860928 -0.02962667 -0.024939088 0.037675418
0.08600756 -0.071157046 0.032142136 0.10652934 -0.06129407 -0.05558798 -0.12219989 -0.013960229
-0.004250823 -0.08157036 -0.0599604 -0.10051261 0.05957294 -0.058247756 -0.04929427 0.056470018
-0.04304802 0.1279417 0.022516076 -0.04352208 -0.01989007 -0.030840669 0.04756971 -0.14681762
-0.00878976 0.10019041 -0.02219947 -0.08630777 0.024921652 0.015283441 0.11004775 -0.12738095
-0.027519379 0.13372508 -0.03749265 0.064823486 0.025356572 -0.021271147 0.02894947 0.020635035
0.045554552 0.0016315699 0.16354081 -0.026835788 -0.031657472 0.08076886 -0.048018955 0.059180126
0.019785853 0.027354471 0.07018605 -0.09790135 -0.03492389 -0.081823885 0.048466977 0.036343932
0.021491364 -0.035356604 -0.0029219287 -0.00076872756 -0.021379607 0.0830355 0.026760366 0.017544419
-0.028236175 -0.15171364 0.046287157 0.091296084 0.051611997 0.15732925 0.061447512 -0.06799409
0.072383374 -0.061263252 -0.08242282 -0.09860824 -0.06666686 0.027297108 -0.050287742 0.08002206
0.15569063 -0.0520622 -0.11480103 0.024947537 0.10397857 0.0036825545 -0.104320675 -0.056719523
-0.03903657 -0.035523426 -0.013029542 0.08929019 -0.015647288 -0.015170599 0.15492785 -0.07172588
0.118188515 -0.011775379 0.066065684 0.059350144 -0.05778909 -0.005143966 0.041056942 -0.028070403
-0.01998283 -0.1587947 0.0606901 -0.07832997 0.06691566 0.08809509 0.068675436 -0.076948896
-0.029304203 -0.0008233743 0.13261478 -0.111966565 -0.09719867 0.013736286 0.02050422 0.12780522
-0.046355512 0.018453244 0.038215496 -0.057173688 0.0007351807 -0.085123874 -0.04590464 -0.028391518
00000000: 54da b83d 0d6d 883b 0d10 42bc bf15 ad3d
00000010: b495 a93d cece 52bd 27d8 3b3d 5841 213d
00000020: 8971 67bd 96b6 2ebd 6c90 a53d 7a13 83bd
00000030: 9ada a7bd 8188 a4bd d249 d6bc 9db2 7dbc
00000040: 1316 4cbd 9fcf 9a3b 42e4 5d3d d180 00bc
00000050: f616 563c 3d1d aabc a1cc 11bd c58a bc3d
00000060: fab5 d6bc b70a 82bc 99c0 093e 3251 85bd
00000070: 2933 4abd 0904 80bd 3c54 73bc 0a1f 83bd
00000080: 62c2 903d 3b0d 9d3d 04a3 5b3c cc06 6b3d
00000090: 35cf 0a3d f40e 4d3d 46a1 073d 5970 9abd
000000a0: 2e77 98bd 446c 3bbc 8c7e 94bd 0a4e 1fbe
000000b0: a27c b53a 8647 923b 4e36 123b c0b3 eabd
000000c0: 6584 ffbb 8b09 53bd 103e f4bc dfc9 52bc
000000d0: e5cc 44bc 5b11 cc3c b134 683d a5c1 31bd
000000e0: d998 1bbc 73c0 8dbc d9a3 573d a736 c53c
000000f0: 7eb3 0a3d 14a2 e23d 50c9 443d a57a 9d3d
00000100: 7372 1f3e 2fc6 39bc 0ad8 433d 5696 a43b
00000110: 70b6 84bc 4216 85bc 0b20 883d 700f 0fbd
00000120: eb7a ed3d 6e13 233d 833b 8e3d 82d0 e4bd
00000130: 42d1 763d f3ff 12bd d028 cbbc d1bc 243d
00000140: 0135 dc3c d2ee 93bd 4063 a7bd 5cc1 dcbd
00000150: 4dfb 0cbd 7dd4 fc37 d853 e0bd 1460 d9bd
00000160: 3cd3 72bc 5e7a c03d 569e 8b3c aa91 71bd
00000170: 88e4 f33c b20f a9bd 3502 4b3d a9e7 b8bd
00000180: 45d6 c6bb a437 333d 00c0 5a3c 6d73 73bc
00000190: 37f0 ab3c 1bed 7cbd 7e9d d6bd 5834 2c3d
000001a0: addc 08be 4817 bfbb c981 bb3d fbbf 3fbd
000001b0: 83ef ae3d a1aa c73d d1c9 b2bd 0ca6 113d
000001c0: 296d 57bd a91c 3ebc f6cd 1d3d 2684 e83c
000001d0: 4b34 59bd 9e18 c5bb 032f 303d 84c4 bd3d
000001e0: 8a60 32bb d723 973d 63e2 863d 487f 5ebd
000001f0: c7ee 81bc a1b3 f2bc 0f4d ccbc 8a51 1a3d
00000200: bb24 b03d c9ba 91bd 79a7 033d 0e2c da3d
00000210: 7e0f 7bbd 39b0 63bd f043 fabd 72b9 64bc
00000220: 7d4a 8bbb 5c0e a7bd 0999 75bd 8ed9 cdbd
00000230: c102 743d 3395 6ebd cae8 49bd 1b4d 673d
00000240: 1f53 30bd 2603 033e a273 b83c 3544 32bd
00000250: 80f0 a2bc 92a5 fcbc 75d8 423d 5c57 16be
00000260: ed02 10bc a130 cd3d aadb b5bc 21c2 b0bd
00000270: 7e28 cc3c 6667 7a3c b760 e13d 2770 02be
00000280: 5270 e1bc 3aef 083e e591 19bd 2dc2 843d
00000290: 96b8 cf3c d440 aebc 7027 ed3c ce0a a93c
000002a0: 6997 3a3d 67da d53a 3e77 273e bad6 dbbc
000002b0: 44ab 01bd 256a a53d 86af 44bd dc66 723d
000002c0: f115 a23c 7c16 e03c b4bd 8f3d 8180 c8bd
000002d0: 5a0c 0fbd 4893 a7bd 4f85 463d 60dd 143d
000002e0: a80e b03c 16d2 10bd d47d 3fbb 6f84 49ba
000002f0: 4924 afbc 840e aa3d 8e38 db3c 50b9 8f3c
00000300: 8d4f e7bc d25a 1bbe 9a97 3d3d 71f9 ba3d
00000310: 1a67 533d eb1a 213e 63b0 7b3d 7c40 8bbd
00000320: bc3d 943d 2def 7abd 4ccd a8bd 1ef3 c9bd
00000330: a288 88bd 2f9e df3c 85fa 4dbd 9be2 a33d
00000340: 5d6d 1f3e 2c3f 55bd cd1c ebbd c75e cc3c
00000350: b7f2 d43d 0357 713b 14a6 d5bd bb52 68bd
00000360: cfe4 1fbd 0381 11bd dc79 55bc c6dd b63d
00000370: be2e 80bc 1b8e 78bc 68a5 1e3e 05e5 92bd
00000380: d20c f23d 85ed 40bc 724d 873d 2319 733d
00000390: 41b4 6cbd b78e a8bb 532b 283d e7f3 e5bc
000003a0: 08b3 a3bc 149b 22be 2f96 783d 776b a0bd
000003b0: 140b 893d 336b b43d b5a5 8c3d 6297 9dbd
000003c0: 5e0f f0bc b7d7 57ba 2bcc 073e ba4e e5bd
000003d0: 1910 c7bd 290e 613c 77f8 a73c 5fdf 023e
000003e0: 47df 3dbd 422b 973c da87 1c3d f52e 6abd
000003f0: 24b9 403a 6d55 aebd 8106 3cbd 5495 e8bc

bias f4 [128]
0.0010255848 0.0016613294 0.060344305 -0.11295424 0.07977462 0.014803562 0.061703026 -0.061487604
-0.031164724 0.011600843 -0.0155442525 -0.0077535743 0.073257335 -0.03783521 -0.009294285 0.088944286
0.04495525 -0.08972115 0.011086016 -0.042930745 0.06595909 0.03993211 -0.07161247 -0.035042185
-0.028324809 0.0685052 -0.077818856 0.006973772 -0.049031775 0.06946448 0.063280165 0.0104456805
0.03489676 0.038885348 0.0292448 0.06331783 0.037470378 0.06077428 -0.06285807 0.060005594
0.04338298 -0.04581973 0.0024764624 0.093490236 -0.01368851 0.057816602 -0.010900897 -0.041264717
0.042763136 0.05287813 -0.012489296 0.03902669 0.05342631 0.09457886 0.050469797 0.059018936
0.084508836 -0.026913371 -0.0010003888 0.025976742 0.039638452 0.06628714 0.05493727 -0.09094378
0.03215378 0.072206415 -0.059772626 0.09384535 0.07864866 0.10937532 0.107121184 0.043591775
0.07985963 0.050138157 0.00017024245 -0.021697097 0.049214732 0.05576537 -0.073475294 0.0103652915
-0.02438023 -0.024530478 -0.025481325 0.010534703 -0.06467471 -0.06580387 0.010549325 -0.034641467
-0.07013101 -0.059282996 -0.07588861 -0.0854588 -0.110516205 -0.07261649 0.054389905 0.045343954
0.046523064 0.07287814 0.0468183 0.079623744 0.06467985 -0.0036829582 0.03351225 0.086789586
-0.025115982 -0.03806882 0.0058599487 0.026868202 0.061800603 0.08982327 -0.01594441 0.091808066
0.020309903 0.05261042 0.08716844 0.10728782 0.043963116 0.053857636 -0.013464204 -0.051895022
-0.00075917644 0.0033424983 0.08628373 -0.0112717785 0.021326123 -0.020708563 -0.06895153 0.010679628
00000000: ea6c 863a f7c0 d93a 972b 773d 8d54 e7bd
00000010: e060 a33d a48a 723c 50bc 7c3d 6dda 7bbd
00000020: 2a4d ffbc 7611 3e3c 52ad 7ebc b211 febb
00000030: f107 963d 18f9 1abd 0f47 18bc 6c28 b63d
00000040: ff22 383d b9bf b7bd 1fa2 353c 26d8 2fbd
00000050: 8f15 873d da8f 233d 8fa9 92bd 6588 0fbd
00000060: 6e09 e8bc 744c 8c3d 7e5f 9fbd 3d84 e43b
00000070: 8bd5 48bd 6543 8e3d 0899 813d 5c24 2b3c
00000080: e8ef 0e3d 3e46 1f3d ca92 ef3c c7ac 813d
00000090: 8a7a 193d 74ee 783d bbbb 80bd 6dc8 753d
000000a0: 5ab2 313d 78ad 3bbd 254c 223b cf77 bf3d
000000b0: c645 60bc 1ad1 6c3d ad99 32bc 3105 29bd
000000c0: 6628 2f3d bd96 583d e79f 4cbc 73da 1f3d
000000d0: 8cd5 5a3d 90b2 c13d 6bb9 4e3d d7bd 713d
000000e0: f812 ad3d 6e79 dcbc 7a1f 83ba 2dcd d43c
000000f0: ee5b 223d 8dc1 873d e705 613d bc40 babd
00000100: afb3 033d f5e0 933d 24d4 74bd fe31 c03d
00000110: 8c12 a13d 2b00 e03d 5a62 db3d 4a8d 323d
00000120: 728d a33d ab5d 4d3d 1c83 3239 1cbe b1bc
00000130: 6395 493d 3b6a 643d 377a 96bd 2fd3 293c
00000140: 0cb9 c7bc 24f4 c8bc 36be d0bc bf99 2c3c
00000150: 2d74 84bd 2ec4 86bd 13d7 2c3c 36e4 0dbd
00000160: d9a0 8fbd bad2 72bd 7d6b 9bbd 0605 afbd
00000170: 5256 e2bd f4b7 94bd f3c7 5e3d 95ba 393d
00000180: f88e 3e3d 2241 953d 8cc4 3f3d c611 a33d
00000190: df76 843d c95d 71bb 2444 093d bdbe b13d
000001a0: 08c0 cdbc 0dee 1bbd d004 c03b b41a dc3c
000001b0: a122 7d3d 43f5 b73d da9d 82bc de05 bc3d
000001c0: f460 a63c 067e 573d 5e85 b23d b7b9 db3d
000001d0: ab12 343d d399 5c3d f798 5cbc e08f 54bd
000001e0: 7803 47ba d10d 5b3b 86b5 b03d 44ad 38bc
000001f0: 1fb4 ae3c 01a5 a9bc 7636 8dbd 9bf9 2e3c

weight f4 [8, 128]
0.1144389 -0.0442055 -0.08748752 -0.07033177 0.02587345 -0.085405685 0.0044968217 0.04705362
-0.01788202 0.044018615 -0.044804137 0.012372414 -0.060184397 -0.055379134 -0.006907492 -0.09078542
0.012806928 -0.020548163 0.05303063 -0.062576175 -0.013788331 -0.0013365338 -0.0816952 -0.043496396
-0.020446304 -0.10854029 0.055155776 -0.007368402 0.021304045 0.011744918 0.03311911 -0.030516854
0.044529114 -0.047480375 -0.065203406 -0.08433769 0.07808242 0.028498871 -0.025614291 0.0074470392
0.010243864 -0.028135333 -0.06321062 -0.028085649 0.051219516 0.054692008 0.10820145 -0.032117587
-0.016512606 -0.088232666 0.001654469 0.09877293 0.04008838 0.0077507105 0.018437926 0.017378082
-0.055858806 0.028869297 -0.008260281 -0.08464834 -0.05004067 -0.08172979 0.04100858 0.08197099
-0.017177017 -0.07136287 -0.08106799 -0.09145209 -0.011600219 -0.075081214 -0.051631812 -0.11623985
0.023969058 0.028921882 0.029254913 -0.06729947 0.048673015 -0.0007918284 0.06809296 -0.060930192
-0.064416826 -0.11567229 -0.051870864 -0.015192881 0.023875758 0.026105242 0.09559435 0.057183865
0.04684756 -0.06171951 0.016084261 0.063950345 0.04875861 -0.017851183 -0.06880393 -0.02199531
-0.01618998 -0.06448506 -0.058927063 -0.018051472 0.08155543 -0.039608907 -0.01629276 -0.05841867
0.028287536 0.033361185 0.059358418 0.0033797848 0.023682373 0.07885723 -0.028704247 0.007843566
-0.035883937 0.0372656 -0.05598881 0.03534468 0.04969966 0.048886575 0.016517017 0.053276733
-0.10872403 -0.050186466 0.05555685 -0.085299 -0.039818123 0.07518921 0.049849205 -0.057974856
-0.002151109 0.120299526 0.11933067 -0.05145141 -0.03542671 -0.022905193 -0.09008788 -0.10429702
-0.0016091241 -0.06347202 0.069207706 -0.082912564 0.013596892 -0.08905348 0.087889545 0.07410902
0.038788352 0.032487325 -0.004327623 0.044649396 0.10001126 -0.07747427 -0.022754146 -0.067380905
0.061480995 0.03676489 0.12545985 0.0922197 -0.00502298 0.042911373 -0.0076745283 0.035139523
0.06109888 -0.051690422 -0.029760914 0.046942133 0.06790247 0.012564186 -0.055966474 -0.066410765
0.03116468 -0.06513383 -0.08008469 0.09030086 0.0226663 7.61806e-05 -0.0075751944 -0.091247246
0.016009336 -0.10718867 -0.017822398 -0.063711405 0.054731205 0.057098184 0.047370035 0.066153735
0.08925862 0.071719244 0.0057206154 0.11058441 -0.05583888 0.069543764 0.10502433 -0.053800173
0.023146696 0.025151668 0.019215206 0.019464437 0.007710471 0.085386805 0.07584221 0.0028405227
-0.07372954 -0.07813944 0.00965239 0.018606147 -0.055977616 0.03757008 -0.0054590544 0.02262984
-0.020437222 0.14882924 -0.07290385 -0.07331321 -0.09622869 0.024652565 0.039264504 0.03868555
-0.1379795 -0.09716885 0.123642504 0.052313417 0.06910027 0.061241835 -0.039302114 0.017724486
0.04090985 -0.017449338 0.11883492 0.049521808 0.08667186 -0.004841721 0.06706841 0.016962336
-0.053257044 0.04065456 -0.040317263 0.10575475 0.052016456 0.06578109 -0.017578324 -0.0072830315
0.071050026 -0.12648007 -0.014315415 0.030055368 -0.0054279245 -0.00072693574 -0.048113115 -0.017756622
0.033553224 -0.04571422 -0.025680225 0.036608174 -0.07874306 0.11858136 0.027555631 -0.0006870754
00000000: f15e ea3d d410 35bd a82c b3bd 1a0a 90bd
00000010: 8ff4 d33c 2de9 aebd 135a 933b 4cbb 403d
00000020: 507d 92bc dd4c 343d 8b84 37bd aab5 4a3c
00000030: ea83 76bd 3bd5 62bd 3e58 e2bb b5ed b9bd
00000040: 26d4 513c 9f54 a8bc a536 593d f027 80bd
00000050: 74e8 61bc a22e afba d04f a7bd 4729 32bd
00000060: 027f a7bc 5f4a debd 06eb 613d a372 f1bb
00000070: d285 ae3c c26d 403c e7a7 073d 7bfe f9bc
00000080: 2964 363d c87a 42bd 5d89 85bd 3db9 acbd
00000090: ade9 9f3d 7776 e93c 10d5 d1bc 4b06 f43b
000000a0: e1d5 273c 127c e6bc 9274 81bd e013 e6bc
000000b0: 8ecb 513d ba04 603d b998 dd3d bb8d 03bd
000000c0: 7245 87bc 54b3 b4bd c4da d83a 7649 ca3d
000000d0: b733 243d acf9 fd3b 220b 973c 7b5c 8e3c
000000e0: 34cc 64bd 4e7f ec3c 2156 07bc 1c5c adbd
000000f0: 72f7 4cbd f361 a7bd 9df8 273d 68e0 a73d
00000100: d1b6 8cbc b226 92bd f906 a6bd 3c4b bbbd
00000110: d80e 3ebc 2ec4 99bd e17b 53bd 290f eebd
00000120: c25a c43c 95ed ec3c 00a8 ef3c 4ed4 89bd
00000130: 5b5d 473d b492 4fba 5274 8b3d f091 79bd
00000140: f8ec 83bd 98e5 ecbd 8b76 54bd 90eb 78bc
00000150: 1897 c33c a9da d53c f8c6 c33d a139 6a3d
00000160: 3ae3 3f3d 99cd 7cbd 24c3 833c 66f8 823d
00000170: 1cb7 473d a53c 92bc 13e9 8cbd 822f b4bc
00000180: d9a0 84bc be10 84bd 815d 71bd aee0 93bc
00000190: 8906 a73d f33c 22bd 6578 85bc 6a48 6fbd
000001a0: 43bb e73c bda5 083d d021 733d 617f 5d3b
000001b0: 8901 c23c e67f a13d 2b25 ebbc 4d82 003c
000001c0: 09fb 12bd d0a3 183d 8654 65bd 95c5 103d
000001d0: df91 4b3d 4a3d 483d b24e 873c b438 5a3d
000001e0: b4aa debd 5390 4dbd 948f 633d 3eb1 aebd
000001f0: 5418 23bd cdfc 993d ae2e 4c3d 0b77 6dbd
00000200: 9ff9 0cbb 995f f63d a363 f43d b7be 52bd
00000210: 991b 11bd aca3 bbbc ff7f b8bd ad99 d5bd
00000220: 3fe9 d2ba 9efd 81bd c5bc 8d3d 10ce a9bd
00000230: 80c5 5e3c ac61 b6bd 6fff b33d 78c6 973d
00000240: 89e0 1e3d 6e11 053d bcce 8dbb 49e2 363d
00000250: b4d2 cc3d d4aa 9ebd e766 babc 00ff 89bd
00000260: 7fd3 7b3d c896 163d 8c78 003e afdd bc3d
00000270: cf97 a4bb d6c3 2f3d 9c7a fbbb 76ee 0f3d
00000280: d242 7a3d 56b9 53bd 29cd f3bc 6546 403d
00000290: 7310 8b3d 04da 4d3c 1a3d 65bd 5e02 88bd
000002a0: 124d ff3c e364 85bd 7103 a4bd a8ef b83d
000002b0: adae b93c 26c3 9f38 5639 f8bb d6df babd
000002c0: 0326 833c bc85 dbbd 4700 92bc 207b 82bd
000002d0: d42d 603d c9df 693d 1507 423d 9c7b 873d
000002e0: 39cd b63d 8ae1 923d 0074 bb3b 147a e23d
000002f0: 4fb7 64bd f66c 8e3d ff16 d73d 925d 5cbd
00000300: 249e bd3c df0a ce3c 3569 9d3c e273 9f3c
00000310: 1ea8 fc3b 47df ae3d 2953 9b3d 1028 3a3b
00000320: 83ff 96bd 9207 a0bd 0f25 1e3c eb6b 983c
00000330: c948 65bd 16e3 193d dee1 b2bb 3762 b93c
00000340: f66b a7bc b166 183e 9d4e 95bd 3c25 96bd
00000350: 8c13 c5bd 2df4 c93c d1d3 203d bd74 1e3d
00000360: 804a 0dbe 7600 c7bd 4838 fd3d 9846 563d
00000370: 7184 8d3d b8d8 7a3d 41fb 20bd f132 913c
00000380: 1691 273d eaf1 8ebc b95f f33d 61d7 4a3d
00000390: 0481 b13d 4da7 9ebb 2a5b 893d 99f4 8a3c
000003a0: 0f24 5abd 6585 263d b723 25bd f295 d83d
000003b0: 350f 553d 3cb8 863d 6b00 90bc 7fa6 eebb
000003c0: ad82 913d fe83 01be 348b 6abc ad36 f63c
000003d0: bbdc b1bb d58f 3eba 4212 45bd 5676 91bc
000003e0: 1b6f 093d d53e 3bbd 565f d2bc 74f2 153d
000003f0: 0b44 a1bd c9da f23d 59bc e13c d91c 34ba

bias f4 [8]
0.036564656 -0.022366133 -0.09924975 -0.038400006 0.07211746 -0.047663968 -0.04030821 0.065189555
00000000: d2c4 153d 2e39 b7bc 7443 cbbd 5349 1dbd
00000010: 52b2 933d 4b3b 43bd 391a 25bd 1a82 853d

weight f4 [128, 8]
-0.102940984 0.21752037 0.09148903 -0.30144963 -0.24306265 0.22639503 -0.045966443 0.30007997
0.29721087 -0.25183362 -0.26706582 0.024744898 0.23737898 0.22244829 0.18874866 0.40777874
0.26446623 -0.30681217 0.1573144 -0.3468461 0.061736297 -0.23528884 -0.17682597 -0.031012477
-0.095380016 0.044727936 0.17864467 0.43033937 -0.09497642 0.2148274 0.042086676 -0.13107193
-0.014030274 0.24636644 0.17240556 0.24427469 -0.37441874 0.0085295625 0.33134958 0.015321382
-0.14690907 0.26811016 0.16298185 -0.27510393 0.19368376 0.34181485 0.11321047 -0.24788855
-0.1346747 0.17429322 -0.035234302 0.074841835 -0.10694371 -0.10018112 0.296612 -0.08990974
0.11251288 -0.07227989 0.2614051 0.21356991 0.17082807 -0.16055211 -0.056070913 -0.17290899
0.006564853 -0.01677973 -0.06357589 -0.06049178 0.30968392 -0.19054875 -0.08830587 -0.08986518
0.12726422 0.0072420356 0.41221288 0.34275755 0.280586 0.027239753 0.2501618 0.22695543
0.35308105 0.16860457 0.07931317 0.020489007 0.3952886 0.35680124 0.020980658 0.19222566
0.23914076 -0.025642099 0.11624346 0.27405035 -0.09645678 0.07032784 -0.027879031 -0.07501362
-0.28845364 0.046357974 0.3906035 0.091745526 -0.10960609 -0.22294106 -0.30022228 -0.16666135
-0.108807735 -0.0014607327 -0.033222668 0.15186515 0.3907295 -0.31103998 -0.16449691 -0.121359505
-0.11847842 0.20327124 0.05384604 0.36586457 0.37379673 -0.2860094 0.28626642 0.04461437
0.15454994 -0.03293956 -0.06887221 -0.14956932 -0.106300324 -0.22107317 0.1558199 -0.31177023
-0.055980343 0.19349208 0.1920667 0.32825696 0.15501012 -0.040001445 -0.28839004 0.12463933
0.14903991 0.33910114 0.29760012 -0.026666228 0.17952454 0.10611318 -0.040963616 -0.18030089
0.087960005 0.3388848 -0.12256986 -0.13799843 -0.30502868 0.26888943 0.022347355 0.30704352
0.24697635 -0.27702615 -0.17895003 0.38041902 -0.2714368 -0.034001015 0.084584594 0.24683537
-0.054105736 -0.060174026 -0.045510698 0.17606744 0.23682344 0.22453117 -0.17109483 -0.25667644
-0.30429655 0.026971426 0.08118049 -0.05297649 0.22565529 0.28906146 -0.07742106 -0.1139248
-0.03902514 0.11482625 -0.4107305 -0.16345033 -0.031448163 -0.20432132 0.06420149 -0.23581403
-0.08989635 -0.0886839 0.19490172 0.17702778 0.17891848 0.31245753 -0.28820103 0.21198504
-0.16554531 0.42802435 0.21529856 -0.24803019 0.22196689 -0.12761562 0.33444196 0.10669767
-0.06688814 0.038435303 -0.15379119 -0.23520572 -0.26987457 0.30885088 -0.351183 0.11522427
0.15190387 0.036780998 0.14944378 0.22327407 0.19179325 0.16310656 0.074362665 0.32254115
0.17810895 -0.1467036 0.11516677 0.2237127 -0.11260787 0.19572267 -0.1943272 0.17517641
0.27050105 0.106941685 -0.02669274 0.21375237 0.017707879 -0.32052955 -0.23337102 -0.037909213
0.27406493 0.09681357 0.30680448 0.19177641 -0.16119657 0.22827452 0.10424545 -0.12348489
-0.012134687 0.04692136 0.25475463 0.063652985 0.14722762 0.28484452 -0.12802906 -0.22358817
-0.09604252 0.38749447 0.1354887 0.15075815 -0.022610052 -0.20800298 0.016196413 0.3292101
00000000: b9d2 d2bd a9bd 5e3e 9a5e bb3d 9b57 9abe
00000010: 6ae5 78be 19d4 673e 4f47 3cbd 15a4 993e
00000020: 062c 983e 56f0 80be dabc 88be d0b5 ca3c
00000030: 7a13 733e 7cc9 633e 5447 413e 60c8 d03e
00000040: 1e68 873e 7c16 9dbe 0717 213e d095 b1be
00000050: 33df 7c3d 8fef 70be de11 35be e10d febc
00000060: 9956 c3bd a434 373d a1ee 363e 7155 dc3e
00000070: ff82 c2bd b7fb 5b3e 1463 2c3d b837 06be
00000080: 3cdf 65bc 7c47 7c3e 158b 303e 2523 7a3e
00000090: d0b3 bfbe 94bf 0b3c a7a6 a93e 8906 7b3c
000000a0: 556f 16be bc45 893e b7e4 263e 6cda 8cbe
000000b0: 0955 463e 5b02 af3e e4da e73d 7fd6 7dbe
000000c0: 2ae8 09be ec79 323e d851 10bd ad46 993d
000000d0: 4e05 dbbd c22b cdbd 87dd 973e 9922 b8bd
000000e0: 276d e63d 7b07 94bd e4d6 853e 12b2 5a3e
000000f0: 8eed 2e3e c667 24be 9daa 65bd 0e0f 31be
00000100: fa1d d73b a575 89bc 1434 82bd 3bc6 77bd
00000110: e48e 9e3e 361f 43be b5d9 b4bd 3c0b b8bd
00000120: 8d51 023e 994e ed3b 910d d33e eb7d af3e
00000130: f8a8 8f3e e725 df3c 3515 803e 0167 683e
00000140: 0ac7 b43e ada6 2c3e f16e a23d 90d8 a73c
00000150: 4463 ca3e a7ae b63e a1df ab3c ced6 443e
00000160: 51e1 743e 610f d2bc 0d11 ee3d 5450 8c3e
00000170: 228b c5bd 0b08 903d 9162 e4bc bea0 99bd
00000180: 32b0 93be dce1 3d3d 2ffd c73e 14e5 bb3d
00000190: 2879 e0bd a94a 64be bcb6 99be 46a9 2abe
000001a0: 97d6 debd 0e76 bfba 7e14 08bd 8a82 1b3e
000001b0: b20d c83e a240 9fbe e171 28be 558b f8bd
000001c0: d0a4 f2bd 5626 503e aa8d 5c3d 9a52 bb3e
000001d0: 4962 bf3e d36f 92be 8391 923e 8fbd 363d
000001e0: 5742 1e3e a2eb 06bd e00c 8dbd b328 19be
000001f0: fcb3 d9bd 0161 62be 408f 1f3e 59a0 9fbe
00000200: a54b 65bd ca22 463e 22ad 443e 4c11 a83e
00000210: f9ba 1e3e 8ed8 23bd dca7 93be e842 ff3d
00000220: eb9d 183e aa9e ad3e 0b5f 983e 2273 dabc
00000230: 48d5 373e de51 d93d 77c9 27bd cca0 38be
00000240: 6024 b43d 4f82 ad3e e805 fbbd 764f 0dbe
00000250: b82c 9cbe e0ab 893e cd11 b73c cf34 9d3e
00000260: 5ee7 7c3e 5fd6 8dbe ad3e 37be 48c6 c23e
00000270: c4f9 8abe a644 0bbd b03a ad3d 69c2 7c3e
00000280: fa9d 5dbd 0a79 76bd 6d69 3abd 064b 343e
00000290: d881 723e 80eb 653e 7c33 2fbe 186b 83be
000002a0: c2cc 9bbe 2ef3 dc3c f541 a63d e0fd 58bd
000002b0: 2e12 673e ddff 933e ef8e 9ebd 6851 e9bd
000002c0: d3d8 1fbd 062a eb3d 454b d2be 865f 27be
000002d0: cacf 00bd 9c39 51be 127c 833d 3c79 71be
000002e0: 941b b8bd e89f b5bd 5194 473e c546 353e
000002f0: 6836 373e 6ffa 9f3e 168f 93be 9b12 593e
00000300: b684 29be 0226 db3e 3a77 5c3e a0fb 7dbe
00000310: 4a4b 633e abad 02be fa3b ab3e 4f84 da3d
00000320: a6fc 88bd 566e 1d3d 707b 1dbe c5d9 70be
00000330: 002d 8abe b421 9e3e 42ce b3be b4fa eb3d
00000340: b08c 1b3e aca7 163d ca07 193e f5a1 643e
00000350: 7365 443e 6805 273e 744b 983d 1d24 a53e
00000360: 3162 363e 7839 16be 8edc eb3d f114 653e
00000370: f49e e6bd 866b 483e b6fd 46be 7261 333e
00000380: 1d7f 8a3e 3e04 db3d bcaa dabc e7e1 5a3e
00000390: 1d10 913c 731c a4be d0f8 6ebe b146 1bbd
000003a0: 3d52 8c3e 3146 c63d 7a15 9d3e 0961 443e
000003b0: b710 25be ccc0 693e a37e d53d a5e5 fcbd
000003c0: 91d0 46bc 9d30 403d 336f 823e 7f5c 823d
000003d0: d6c2 163e 24d7 913e 0d1a 03be 4cf4 64be
000003e0: f1b1 c4bd ad65 c63e 8dbd 0a3e 5860 1a3e
000003f0: b738 b9bc bcfe 54be 57ae 843c 3a8e a83e

bias f4 [128]
-0.19851264 0.207599 0.11551145 -0.25882512 0.28474292 0.30418137 -0.27560568 -0.17733493
0.1395438 -0.07296695 0.2315918 0.30900446 -0.30253473 -0.21527706 -0.064311475 0.27218387
0.08824145 -0.0904196 0.23616415 0.27616927 -0.2801075 0.13538197 -0.14963855 -0.10761984
0.27730843 0.026795814 -0.026137335 -0.049633186 -0.2284803 0.31724152 -0.04829424 -0.09032069
0.13506863 0.2968343 0.16604315 0.2325755 -0.0041262624 0.034423888 0.48379406 0.2918346
-0.19130163 0.2796459 0.35489017 -0.35623062 -0.14257452 -0.030447848 0.31015995 0.08096652
-0.32386044 -0.09079595 0.14385544 0.1379957 -0.16731957 -0.04139626 0.04809422 0.0149212405
0.26108682 0.08713986 -0.26997313 -0.11824084 0.22810003 0.14525652 0.19766833 -0.16023123
0.12115225 0.29991013 0.10888352 -0.2225505 0.14817835 0.0046618204 -0.23450431 0.14828464
0.24669388 0.02828147 0.3682971 -0.05596663 0.17918046 0.18754731 -0.20164369 -0.046556912
-0.20423599 0.19605887 0.36615834 0.24649723 -0.27215132 0.12703398 -0.14250027 0.08569272
0.22625871 -0.02399272 0.39033356 0.2763079 0.3024035 0.10874655 0.13303047 -0.29365736
0.38609537 0.3067434 0.19881536 -0.10272638 -0.27992803 -0.23444566 0.15778342 0.1204097
0.08785353 0.31182432 -0.14870578 0.36646107 -0.28044927 0.3188273 -0.14602116 0.18998386
-0.27889052 -0.17842206 0.2539539 -0.07002366 0.37041116 0.40249282 0.0016048143 -0.044924155
0.07172534 0.17525488 -0.19931999 0.00084914 0.10094105 -0.050272994 -0.086495176 -0.2722257
00000000: e646 4bbe d594 543e 4491 ec3d ba84 84be
00000010: d3c9 913e a9bd 9b3e 301c 8dbe 4a97 35be
00000020: 92e4 0e3e b26f 95bd 6726 6d3e d535 9e3e
00000030: d5e5 9abe 9771 5cbe bcb5 83bd af5b 8b3e
00000040: efb7 b43d e92d b9bd 04d5 713e 0f66 8d3e
00000050: 406a 8fbe 92a1 0a3e d93a 19be ca67 dcbd
00000060: 5ffb 8d3e e582 db3c f71d d6bc 2b4c 4bbd
00000070: bdf6 69be 7b6d a23e 2ed0 45bd 0efa b8bd
00000080: 6e4f 0a3e aafa 973e 3707 2a3e 4628 6e3e
00000090: 9935 87bb 1000 0d3d dbb3 f73e 586b 953e
000000a0: 93e4 43be bf2d 8f3e 2ab4 b53e dc63 b6be
000000b0: 0eff 11be c46d f9bc 49cd 9e3e c6d1 a53d
000000c0: 09d1 a5be 3af3 b9bd d74e 133e bf4e 0d3e
000000d0: d255 2bbe 208f 29bd 72fe 443d 3878 743c
000000e0: 2cad 853e 6276 b23d eb39 8abe 4128 f2bd
000000f0: 0e93 693e 20be 143e 9169 4a3e a813 24be
00000100: ac1e f83d d28d 993e 53fe de3d 47e4 63be
00000110: 11bc 173e 2fc2 983b e621 70be eed7 173e
00000120: 529d 7c3e 8bae e73c 7091 bc3e 443d 65bd
00000130: 157b 373e 670c 403e af7b 4ebe 76b2 3ebd
00000140: 3d23 51be a8c3 483e 1b79 bb3e c569 7c3e
00000150: 6b57 8bbe 3215 023e 97eb 11be aa7f af3d
00000160: 5db0 673e 618c c4bc cdd9 c73e 3b78 8d3e
00000170: a2d4 9a3e 83b6 de3d 2439 083e 425a 96be
00000180: 4bae c53e 790d 9d3e 4196 4b3e 3562 d2bd
00000190: ba52 8fbe 8612 70be fa91 213e 5c99 f63d
000001a0: 8dec b33d 70a7 9f3e 5446 18be c9a0 bb3e
000001b0: 0c97 8fbe 553d a33e 9286 15be 218b 423e
000001c0: bdca 8ebe 46b4 36be 3f06 823e 9168 8fbd
000001d0: 88a6 bd3e 8a13 ce3e a258 d23a 6402 38bd
000001e0: bce4 923d 0476 333e 8a1a 4cbe d298 5e3a
000001f0: 2eba ce3d 0eeb 4dbd 6224 b1bd 2b61 8bbe

weight f4 [128, 136]
0.024777634 -0.15783998 0.13685672 0.0362095 -0.057393055 0.06725654 -0.07742929 0.009928485
-0.044191346 0.047681384 -0.00075886043 0.067869075 0.08133048 -0.03708861 -0.06914535 -0.08880929
-0.05426208 -0.0064750775 -0.06439299 0.13483259 -0.0109417215 0.046908304 0.034192998 0.014241708
-0.105450705 -0.12378312 -0.11756974 -0.010787949 0.0072878445 0.028262086 -0.24818397 -0.03802262
0.086864874 0.07695052 -0.037871324 -0.009125978 0.07836753 -0.057134777 0.008768118 0.019784305
0.07003173 -0.031345256 0.056326654 -0.06845479 0.008596614 0.042754192 0.15718643 -0.012310646
0.06335899 0.008227471 -0.036496308 -0.034809984 -0.050261635 -0.00889754 -0.053022392 0.0060634296
0.04020129 -0.045481637 -0.0047326265 0.060323525 0.08985196 0.02980379 0.041502185 -0.3242854
0.06870054 -0.054270364 -0.13771702 0.0043507903 -0.02732282 -0.08076515 -0.059094135 -0.029998576
0.028546145 -0.086395465 0.014875476 0.010441161 0.008062975 -0.035529636 -0.22373912 -0.034477767
-0.062024027 -0.04263921 -0.0017709748 -0.045103136 -0.09909127 -0.23973449 -0.06419811 0.019779962
0.09575945 0.11357663 -0.037346546 -0.07920343 0.10817896 0.037546292 0.08823471 -0.015246903
0.03217425 0.0497419 -0.058303073 -0.038914334 -0.013854864 0.03444442 0.03502863 0.062943585
0.00475178 0.061894983 0.08371416 -0.08388013 -0.024531538 -0.020876866 0.051117525 0.0010012877
0.11985066 -0.058936447 -0.074177854 -0.016682189 0.04059889 -0.09201206 -0.056227215 -0.034563407
-0.04663737 -0.045269065 -0.052447557 0.0798838 0.07677965 0.22724088 0.0645273 -0.06206043
-0.018286822 -0.007400933 0.047002252 -0.057858557 0.06650624 -0.030441934 0.021208223 -0.08222382
-0.043568257 0.0026890498 -0.03908875 0.053850085 -0.04396795 0.02654527 -0.016221274 0.03327925
0.06606377 0.020667301 -0.10052137 0.013048953 0.047745407 0.038037427 0.071540065 -0.047133524
0.049614806 0.023604775 -0.004600739 -0.1717311 0.07085221 0.06743506 -0.103545055 -0.059886478
-0.018252756 -0.05182976 0.104461886 0.12564987 0.00833528 0.042187992 0.0015225157 -0.027297687
-0.048358385 -0.1416183 -0.091048665 -0.03275939 -0.02878424 0.015036679 -0.00024181137 0.07458423
-0.13311139 -0.010021948 0.017747326 0.015660739 0.088574156 0.044212345 -0.10904744 -0.04025072
0.099592485 -0.030132562 0.05055217 0.074574806 0.113188684 0.064635865 -0.013831781 0.1038643
-0.026151564 -0.02633191 -0.015198327 0.049523123 -0.04172705 -0.04655954 -0.02382303 0.14563987
0.02638803 -0.034943935 0.10150096 0.081265904 0.10344299 0.010155906 -0.05576983 -0.082091555
0.07456796 0.01143147 0.059676614 0.047547795 0.08506401 0.035698175 0.11307109 0.005164733
0.08520594 -0.12056238 0.016895514 -0.1186392 0.07461988 0.12655668 -0.012897182 0.0856408
-0.025998445 0.07556164 0.060126554 0.050913047 -0.050227106 -0.04822255 0.0063263425 -0.037558395
0.031736724 0.008853657 0.07026473 -0.009927401 -0.037831854 0.1315977 0.022031972 -0.031337045
-0.068644926 0.013163576 -0.06259709 -0.047128353 -0.03930944 -0.025542405 -0.047514748 -0.051575
-0.06698586 0.14444172 -0.00076794974 0.054595936 0.027358083 0.0048790975 -0.012041145 -0.049537
00000000: 77fa ca3c cea0 21be 2b24 0c3e 6a50 143d
00000010: fb14 6bbd ccbd 893d 3f93 9ebd 16ab 223c
00000020: fc01 35bd 8e4d 433d 43ee 46ba f1fe 8a3d
00000030: 9890 a63d 3aea 17bd 149c 8dbd a5e1 b5bd
00000040: ea41 5ebd e32c d4bb 79e0 83bd 8e11 0a3e
00000050: e844 33bc ec22 403d f50d 0c3d 0e56 693c
00000060: 8af6 d7bd 0182 fdbd 67c8 f0bd f0bf 30bc
00000070: dfce ee3b e485 e73c f023 7ebe 9bbd 1bbd
00000080: 36e6 b13d 3c98 9d3d f61e 1bbd 2085 15bc
00000090: 287f a03d 2806 6abd 27a8 0f3c b212 a23c
000000a0: cc6c 8f3d e263 00bd c7b6 663d 0632 8cbd
000000b0: d0d8 0c3c 051f 2f3d 7bf5 203e 97b2 49bc
000000c0: 5cc2 813d 84cc 063c 277d 15bd ea94 0ebd
000000d0: 25df 4dbd fdc6 11bc 022e 59bd bcaf c63b
000000e0: 1caa 243d f44a 3abd 2614 9bbb cd15 773d
000000f0: 4e04 b83d 1427 f43c 32fe 293d bc08 a6be
00000100: deb2 8c3d 9a4a 5ebd b105 0dbe 1391 8e3b
00000110: 1bd4 dfbc 3368 a5bd b10c 72bd 93bf f5bc
00000120: 9bd9 e93c 1bf0 b0bd 45b8 733c 6711 2b3c
00000130: 911a 043c 8687 11bd de1b 65be 8f38 0dbd
00000140: e80c 7ebd 74a6 2ebd 0e20 e8ba 11be 38bd
00000150: 5df0 cabd f57c 75be 4c7a 83bd 9609 a23c
00000160: 881d c43d dd9a e83d b1f8 18bd 6835 a2bd
00000170: ee8c dd3d 24ca 193d 66b4 b43d 25ce 79bc
00000180: 25c9 033d 2abe 4b3d 34cf 6ebd a364 1fbd
00000190: 83ff 62bc 9815 0d3d 2e7a 0f3d 91e8 803d
000001a0: d2b4 9b3b 9885 7d3d 5472 ab3d 58c9 abbd
000001b0: 5df6 c8bc f605 abbc 9c60 513d a43d 833a
000001c0: 4374 f53d 5867 71bd 8fea 97bd 16a9 88bc
000001d0: 064b 263d d270 bcbd 824e 66bd 5c92 0dbd
000001e0: d406 3fbd 0e6c 39bd 40d3 56bd 1e9a a33d
000001f0: a63e 9d3d d5b1 683e e426 843d 1433 7ebd
00000200: 3fce 95bc 8783 f2bb 6f85 403d 18fd 6cbd
00000210: 6c34 883d 5d61 f9bc debc ad3c f664 a8bd
00000220: a174 32bd c53a 303b 861b 20bd e891 5c3d
00000230: bd17 34bd 7775 d93c 7ae2 84bc d34f 083d
00000240: 714c 873d 794e a93c 26de cdbd 47cb 553c
00000250: b090 433d 22cd 1b3d 9983 923d 150f 41bd
00000260: e538 4b3d cd5e c13c ccc1 96bb 47da 2fbe
00000270: f71a 913d 651b 8a3d 6e0f d4bd 864b 75bd
00000280: ce86 95bc 714b 54bd 1df0 d53d 5caa 003e
00000290: b390 083c 51cd 2c3d 268f c73a 669f dfbc
000002a0: 7113 46bd 6304 11be b977 babd b62e 06bd
000002b0: edcc ebbc 675c 763c bf8e 7db9 9ebf 983d
000002c0: 5a4e 08be 1933 24bc d762 913c f34a 803c
000002d0: 5e66 b53d 0118 353d 4454 dfbd f0dd 24bd
000002e0: 25f7 cb3d 90d8 f6bc cb0f 4f3d adba 983d
000002f0: 78cf e73d cf5f 843d b29e 62bc ceb6 d43d
00000300: ce3b d6bc 05b6 d7bc 6702 79bc c2d8 4a3d
00000310: fce9 2abd 37b5 3ebd 8428 c3bc 9e22 153e
00000320: b62b d83c 5f21 0fbd bcdf cf3d bd6e a63d
00000330: ebd9 d33d f564 263c e86e 64bd 9e1f a8bd
00000340: 16b7 983d 0f4b 3b3c 776f 743d 7ac1 423d
00000350: 0a36 ae3d 4038 123d d191 e73d ec3c a93b
00000360: 7480 ae3d 69e9 f6bd 7668 8a3c 1cf9 f2bd
00000370: 4fd2 983d 1398 013e b44e 53bc 7264 af3d
00000380: b1fa d4bc 10c0 9a3d 4347 763d 338a 503d
00000390: f0ba 4dbd 0285 45bd 354d cf3b d5d6 19bd
000003a0: 5efe 013d ee0e 113c f4e6 8f3d 8aa6 22bc
000003b0: 93f5 1abd 8cc1 063e 657c b43c 465b 00bd
000003c0: b695 8cbd 0aac 573c e732 80bd a909 41bd
000003d0: ef02 21bd 4e3e d1bc d39e 42bd 4f40 53bd
000003e0: e22f 89bd 88e8 133e 3c50 49ba fd9f 5f3d
000003f0: 0f1e e03c d6e0 9f3b 3948 45bc 4fe7 4abd

bias f4 [128]
-0.074776635 0.016116811 -0.0035325286 -0.050856866 0.0374141 0.121585794 -0.018428138 0.002836552
0.06666559 -0.099496394 0.019561987 0.033893842 0.06367069 0.071741395 -0.032391813 -0.07822033
0.018903118 0.04950836 -0.094092146 -0.021588583 -0.087591946 -0.08976048 -0.03887814 0.042198587
0.07837936 0.08257754 0.05269729 0.050145376 0.034086052 0.06939962 -0.008289402 0.07384304
0.06820971 -0.009707228 0.06593303 -0.018939003 0.07005044 0.07167068 0.11569614 -0.08080378
-0.07019353 -0.008230171 -0.049809635 0.015302551 -0.02006529 0.0018979136 0.03918372 0.0044265026
0.054080635 0.061186273 0.04166699 0.018204236 -0.07321821 0.08197199 -0.10405559 0.031243667
0.006066199 -0.096772626 0.060411952 0.034911674 0.057950985 -0.06861294 0.07022286 -0.06381379
-0.065024465 0.056500696 -0.0012780338 -0.0078264 0.034995012 0.06140954 -0.07913508 0.060910657
0.0216393 0.09250084 0.097940914 0.020699292 0.02145039 0.030801943 0.009137998 -0.03640201
-0.00074110756 -0.05104018 0.0043662367 -0.08828205 0.056299698 -0.03584957 -0.07902817 0.044318426
0.065779485 -0.0500131 -0.02235169 0.04576492 0.008889627 0.04077273 -0.042286173 -0.057140466
0.01697813 0.09513688 0.06984483 -0.0062416825 -0.007909855 0.10666852 -0.053711295 0.014617547
0.0071749124 0.026197739 0.064812556 0.086402714 -0.05157121 0.007930121 0.109719664 0.056369364
-0.00917159 -0.07383155 0.09754595 -0.01750307 -0.031777192 -0.10372295 0.026846237 0.021905882
0.017113619 -0.09887135 -0.064344384 -0.09998934 0.064893864 -0.013082592 0.015490539 0.037347175
00000000: 7e24 99bd 6707 843c ff81 67bb 4a4f 50bd
00000010: 873f 193d f901 f93d 9bf6 96bc 72e5 393b
00000020: f887 883d c4c4 cbbd 7640 a03c 45d4 0a3d
00000030: c765 823d 27ed 923d 47ad 04bd fb31 a0bd
00000040: b6da 9a3c 47c9 4a3d 62b3 c0bd 8ada b0bc
00000050: 6863 b3bd 58d4 b7bd af3e 1fbd 6dd8 2c3d
00000060: 5c85 a03d 6a1e a93d 1dd9 573d 3d65 4d3d
00000070: d19d 0b3d 6321 8e3d 46d0 07bc 053b 973d
00000080: 88b1 8b3d 110b 1fbc e507 873d f825 9bbc
00000090: 9b76 8f3d 14c8 923d 19f2 ec3d 747c a5bd
000000a0: a0c1 8fbd d7d7 06bc 3005 4cbd 8db7 7a3c
000000b0: f75f a4bc 6ac3 f83a 1c7f 203d 320c 913b
000000c0: a883 5d3d 759e 7a3d 01ab 2a3d 0d21 953c
000000d0: 6ef3 95bd eee0 a73d 191b d5bd b8f2 ff3c
000000e0: f7c6 c63b ba30 c6bd 8672 773d 8bff 0e3d
000000f0: 035e 6d3d f184 8cbd 01d1 8f3d ceb0 82bd
00000100: 8c2b 85bd 466d 673d b383 a7ba 4d3a 00bc
00000110: ee56 0f3d 9288 7b3d 9311 a2bd 747d 793d
00000120: e744 b13c 1571 bd3d 3f95 c83d 9091 a93c
00000130: bab8 af3c 5b54 fc3c 8bb7 153c 461a 15bd
00000140: e346 42ba 820f 51bd a612 8f3b 38cd b4bd
00000150: 839a 663d 00d7 12bd 85d9 a1bd 3d87 353d
00000160: 65b7 863d 89da 4cbd e41a b7bc ff73 3b3d
00000170: cca5 113c 4e01 273d 4434 2dbd 1f0c 6abd
00000180: b815 8b3c 20d7 c23d ce0a 8f3d 0787 ccbb
00000190: 5698 01bc 0675 da3d 6000 5cbd 707e 6f3c
000001a0: 871b eb3b a49c d63c 72bc 843d e8f3 b03d
000001b0: 553c 53bd 57ed 013c b4b4 e03d 90e3 663d
000001c0: 7044 16bc ff34 97bd 2cc6 c73d 9962 8fbc
000001d0: cd28 02bd b36c d4bd a4ec db3c f773 b33c
000001e0: dc31 8c3c 107d cabd fdc6 83bd 36c7 ccbd
000001f0: 13e7 843d 5e58 56bc 08cc 7d3c 5af9 183d
