E-GraphSAGE/experiments/SEKAN_NF-BoT-IoT_best_model.pth (torch, 373818 bytes, 20 tensors)

weight f4 [128, 16]
00000000: b219 20be a251 a63b 18fe 2b3e c188 8dbd
00000010: 4c8a 773d 5b2d 903d acda 233e a5b8 efbd
00000020: e61e e73d 0c56 19be ac74 1bbe 7bff 9d3d
00000030: 8bd8 52be 9ccf 3a3c a3d9 7dbe 47d3 7fbd
00000040: 79ec a6bc 1f95 5abe 097e 51be 9384 2cbe
00000050: b61f c1bd a227 a6bb 7efe dabd 231f 1a3e
00000060: 33a3 353e b570 143d 103a 03be 393f 5e3e
00000070: 3bf7 93bd e8ba bb3d 8e0c c73d e2d6 d13d
00000080: 3410 94bc ce61 10be 4c4c 12be 6c6d 12be
00000090: f261 07be 4e92 40be ec71 5d3e 6a82 00be
000000a0: 76bd 00bd 991d 803e 0af9 03bb 2ecd 653e
000000b0: 77dd 853c 6b8c 5c3d 9577 663e eca6 5b3b
000000c0: badb 2e3e 6a23 d83d f6cf 68be c4e4 5b3d
000000d0: 40a6 13be dedc 1ebe c05f 443e 3c7a 33bd
000000e0: 57b0 46be 72aa 4b3e 0882 163e 849b 00be
000000f0: a668 01be 7526 7c3e 737f 74be 21f3 babd
00000100: 3a31 c0bc 7d45 0a3e ea2b babd 2589 413e
00000110: 52ca d4bd 0f08 68be dd75 773e ba69 8a3d
00000120: dcc4 d23d 9a1c 8a3d 83d3 acbd b540 603e
00000130: e97e fd3d 4eaa d1bd fe2f a63c ec55 e33d
00000140: fdff 3abe 4176 173e e3a0 4a3e e1f7 3abe
00000150: 635e 0ebe 7143 783e 5996 5f3d 7b91 49be
00000160: 88ff c13d 3634 07be 0637 6c3e b9f8 ccbc
00000170: af03 7dbc b3c8 cbbd 8aac 5bbe ec60 2cbe
00000180: 65d8 a2bd 908a 55be 5ae9 66be eaa5 00be
00000190: d803 66be 4034 06be e62e 7abe e288 0dbd
000001a0: 6d84 5cbc 1891 03be 4d3e 983d d428 af3d
000001b0: 6cee 76bd ec1d b93d 2193 6a3e 2c42 bb3d
000001c0: fa19 d9bd ae29 1fbe 3ef8 583d 760f 12be
000001d0: 7296 3dbd c686 493d 8e8a e1bd 5ebc 203e
000001e0: 8f2d 30bc a64a 7c3e 83c7 ce3d 1461 6cbe
000001f0: 0793 60be 8dc6 e5bd e2c7 4d3e d25d 50be
00000200: 00d6 92bd 9402 0f3e 04a6 0d3b cca9 873d
00000210: 225e 653e 387d 883d 4ce3 d8bd 5f68 5bbc
00000220: bd62 0dbe 821c 1dbe 70f2 213e cbbe 13be
00000230: f7aa 7abd d5d8 0dbd 9ec0 c4bd 2121 41be
00000240: 568b 0fbc 2c26 1b3e dc94 583e e2f6 203e
00000250: 4b30 e5bc 943a 18be 9ba0 d8bd 7519 c23d
00000260: 63d6 66be 89c2 dfbd e5cb 84bd 467e e23d
00000270: 5230 253e ce4b 3b3e d6ee ec3d 0de7 003e
00000280: 8abf e83d b4de 303d 91eb 60bc b06f 20be
00000290: 3422 1a3d 9168 1ebc caca de3d ea01 b03d
000002a0: 06a5 48be 0a3e 34bd 26fe f83d 6e8f 803e
000002b0: 63a0 0c3e 0b97 3cbe 572c bfbd 5c39 49be
000002c0: 866d 54bc dc4f 033e ccaf 093e 8a1b 693e
000002d0: 30fb 57be 3121 97bd 2fea cd3d 0f35 9f3d
000002e0: e5dd ccbd 3e46 cdbd 5678 093e 9053 b23c
000002f0: 7237 2d3b 3fbd 143e b05a 39bd d42c b5bd
00000300: 245e 643e c2db c1bb 507c 133d ac67 1e3e
00000310: 9e9d 44be 102b ac3d 46c7 69be e8a9 f13d
00000320: 16db f03d 4d33 343e a8ce 6cbe fba2 c6bd
00000330: dd38 d1bd 2f24 b43d d81a 75bd 486c bebd
00000340: b408 a33d 618c 4fbe 6d8d c7bc 81e9 01be
00000350: c4da d2bd 90a3 ff3d cd82 143e e91e 4abe
00000360: b234 e6bd 5244 283b 2c78 8f3d 5bc1 6abe
00000370: 4126 4b3d 957e 023e 8fe0 653d 6609 2d3e
00000380: 3d48 7fbe d82e 863d 6d2f 233e 7351 173e
00000390: 749d 953d acfc e8bd 2a0c 71ba b13f d2bc
000003a0: 8920 113d b86a e33d bf90 003e cec6 163e
000003b0: 534a f93d b87e 0cbc 3261 eebd d97d 4ebe
000003c0: d507 6bbe 3d62 b3bd db37 ed3d c978 293e
000003d0: 5bae 273e f175 113e bdeb 82bd 91f1 97bd
000003e0: b980 2a3d 44db a23b 0390 51be 30b5 2f3e
000003f0: 9f7e 43be 3784 26be f789 19bd 8e69 59be
-0.15634802 0.0050756494 0.16796148 -0.06910849 0.060434625 0.07039901 0.16001385 -0.1170514
0.1128519 -0.1497423 -0.15181226 0.07714745 -0.20590417 0.011402037 -0.24790053 -0.06245735
-0.02037643 -0.21345948 -0.20458235 -0.16847448 -0.094298765 -0.0050706426 -0.10693072 0.1505094
0.17738037 0.0362403 -0.12815118 0.21703805 -0.0722489 0.09166509 0.097191915 0.10246064
-0.018074133 -0.1409981 -0.14286917 -0.14299554 -0.13220957 -0.18805811 0.21625489 -0.12549749
-0.031430684 0.2502258 -0.0020137453 0.22441551 0.016340954 0.05384485 0.22506554 0.0033516241
0.17076007 0.1055363 -0.22735581 0.053684965 -0.14418888 -0.15513942 0.1917715 -0.043817744
-0.19403206 0.19889238 0.1469804 -0.12559325 -0.12637576 0.24624045 -0.23876743 -0.091284044
-0.023460973 0.1350307 -0.09090407 0.18899973 -0.10390152 -0.22659324 0.24166055 0.06758447
0.10291454 0.067437366 -0.0843878 0.21899684 0.12377722 -0.10237561 0.020286556 0.11100373
-0.18261714 0.14791204 0.19787936 -0.18258621 -0.13903193 0.24244477 0.054586742 -0.19684403
0.09472567 -0.1320351 0.23067865 -0.025020944 -0.015442773 -0.0995039 -0.21452537 -0.16833848
-0.0795143 -0.20853639 -0.22549954 -0.12563291 -0.22462404 -0.1310587 -0.24431953 -0.03455437
-0.013459307 -0.12848318 0.07433758 0.08552709 -0.06028597 0.0903891 0.22907688 0.09143481
-0.10600658 -0.15543243 0.052971117 -0.1426371 -0.046286054 0.049200796 -0.11012755 0.15696856
-0.0107530495 0.24637851 0.100966476 -0.23083907 -0.21931086 -0.11219511 0.2009578 -0.2034829
-0.071697235 0.13965827 0.0021613846 0.06624183 0.2239919 0.066645086 -0.105902284 -0.013391583
-0.13807197 -0.15342906 0.15815139 -0.1442825 -0.0611982 -0.034630615 -0.09607051 -0.18860294
-0.008761248 0.1515128 0.21150535 0.15719178 -0.02797713 -0.14866096 -0.10577508 0.09477512
-0.2254272 -0.109257765 -0.06484202 0.11059241 0.16131714 0.18290636 0.11568992 0.12588139
0.11364658 0.043181136 -0.013728038 -0.15667605 0.037630275 -0.009668485 0.10878523 0.08594115
-0.19594201 -0.044004478 0.1215785 0.25109428 0.13733058 -0.18416993 -0.09334629 -0.19650787
-0.012965566 0.12823433 0.13445967 0.22764412 -0.21091914 -0.07379378 0.100544326 0.07773792
-0.100032605 -0.10023163 0.13424811 0.021768361 0.0026430753 0.14525317 -0.045252502 -0.08846441
0.22301537 -0.0059160898 0.036007226 0.15469235 -0.19200751 0.08406651 -0.22829923 0.11799985
0.11760537 0.17597695 -0.23125708 -0.09699055 -0.10215924 0.08795964 -0.059840053 -0.09297997
0.07960644 -0.20268394 -0.02435943 -0.12686731 -0.102956325 0.12482369 0.14503022 -0.19738354
-0.112405196 0.0025675488 0.07005343 -0.22925322 0.04959703 0.127436 0.05612236 0.16898116
-0.249299 0.065519035 0.1593606 0.14777164 0.073054224 -0.11376318 -0.0009195233 -0.025665136
0.03543142 0.11104339 0.12555216 0.14724275 0.12172379 -0.008575134 -0.11639632 -0.20165195
-0.22952206 -0.08758972 0.11582919 0.16549982 0.16375105 0.14205147 -0.0639262 -0.07419122
0.041626666 0.004969986 -0.20465092 0.17158961 -0.19091271 -0.16261373 -0.03748509 -0.21231672

bias f4 [128]
00000000: 16f8 89bd 611d 3ebe 2a49 e33d d05e 423e
00000010: ca2c 9dbd ff94 533e 8e9d 5b3e 0da0 3f3e
00000020: 70c7 8a3d c24b 223e 75ba 5c3e e494 093e
00000030: d072 123d f0da f7bd 04ed bbbd d1b7 69be
00000040: 1139 5abe 43e6 18be e3c3 ddbd 2b10 21be
00000050: 259f 553e b9e5 b4bc 9893 13be f705 efbd
00000060: e3de 1abc 4eed ecbd 16d3 87bd a078 4cbe
00000070: 22f1 853d fec8 17be 018d 2dbe 3ea1 f9bd
00000080: c8cb 253e 119b 0cbe 0d9f 26bd bfc9 8abc
00000090: 7f85 343e dfd7 16be 7ab5 63bd 4f64 133e
000000a0: 4cf3 0f3e 4274 0abe 7d98 2f3e 86a4 1dbe
000000b0: dd64 483e 8a08 7b3e b086 80bd b000 cfbd
000000c0: 3aa9 5b3e 143d 7dbd 73e8 0b3d 6628 b63d
000000d0: b1c2 9d3d 8578 4fbe 4b12 1abd 5e58 d23d
000000e0: 72af 55be e37b eabd ee3a 183d c5cd 163e
000000f0: 9d17 e5bd d4fd bd3d 5592 9dbd 20c1 80be
00000100: 8f81 31be 8083 0dbe bf4c 293e 4d7d 3f3e
00000110: b649 0e3e 7a81 9cbc 582c b2bb a07c ca3d
00000120: 1b6f 11be e1d8 91bd a370 363e 0bf8 efbd
00000130: 26cb fd3d 1a75 013e 40f5 613e fb3a 8bbd
00000140: 5a2f 03be d5ec 493d 933d 2abe ccd1 91bd
00000150: e20f 0f3d 5e65 4c3d fbba b13c f543 40be
00000160: fa10 7cbe b259 18be e5bb 29be 1a61 163d
00000170: 441b 3fbd b947 fb3d d54c bebc d1e7 03be
00000180: 8230 1cbe 031a 16be 28dc 873c a0cf 40be
00000190: 0025 52bc a791 4ebd d7b8 d33c 6231 9bbd
000001a0: 9d4f 303e 33b7 2c3e 734d a33c 54c5 46be
000001b0: 653e 203e d044 b13d 5413 f3bd 2a8c 05be
000001c0: c82d 0e3e d68e 44be a394 e2bd 0404 dc3d
000001d0: f001 903d 8725 26be 8225 f7bc bd3a 273e
000001e0: e4d1 713e b3c6 073b 5f89 323e 11a6 963c
000001f0: aca2 793c 3e64 6abe 449e 2a3c 5cad 95bd
-0.06736772 -0.18565895 0.11097939 0.1898148 -0.076745585 0.20662306 0.21446821 0.18713398
0.06776321 0.15849212 0.21555503 0.13435704 0.035754025 -0.12102306 -0.091760665 -0.22824027
-0.21310832 -0.14931588 -0.10828378 -0.15728824 0.2086149 -0.022082197 -0.14411771 -0.116710596
-0.009452554 -0.115687 -0.06632058 -0.1996789 0.06540133 -0.14822766 -0.1694832 -0.12188958
0.16191018 -0.13731028 -0.040679026 -0.016941903 0.1762905 -0.14730786 -0.05559299 0.14393733
0.14057654 -0.13520911 0.17148013 -0.15394792 0.19569726 0.24514976 -0.062756896 -0.10107553
0.21451274 -0.061825827 0.034157228 0.08894424 0.0770315 -0.20260818 -0.0376151 0.10270761
-0.20867708 -0.11449411 0.037165575 0.14726932 -0.111861445 0.092769295 -0.07693926 -0.25147343
-0.17334579 -0.13819695 0.16533183 0.18700142 0.13895306 -0.019104708 -0.005437415 0.098870516
-0.1420254 -0.071214445 0.17816405 -0.11717232 0.12392263 0.12642327 0.22066212 -0.06798359
-0.12811032 0.049298126 -0.16625051 -0.07120094 0.034927256 0.04990136 0.021695605 -0.18775924
-0.24615851 -0.14877966 -0.16575582 0.036713697 -0.046656862 0.122695394 -0.023229996 -0.128814
-0.1525288 -0.1465836 0.01658447 -0.18829203 -0.012826204 -0.050431874 0.025844974 -0.075777784
0.1721787 0.1686676 0.019934392 -0.19411212 0.15648802 0.08655703 -0.11868921 -0.1304175
0.13884652 -0.19195113 -0.110635065 0.107429534 0.070316195 -0.16225253 -0.030169252 0.16331
0.23615223 0.00207178 0.17435215 0.018389734 0.015236538 -0.22889802 0.01041371 -0.07308456

weight f4 [128, 136]
00000000: 72a4 c9bb bed3 9d3d 2ce0 34bd c9ad d6bc
00000010: 1570 5fbc 442d 303c 003b 8d3d b23a 693d
00000020: 762c a9bd 19cb 983d f6fa 5b3d 600e a3bd
00000030: 0bfc 0d3d 35db 99bc 788e e33c c40b a43d
00000040: ed28 8f3d 9f76 9dbc 2068 38bd 7655 8ebd
00000050: 77a8 4f3d 9575 1c3c 0154 423d c499 f43c
00000060: 4912 ca3c 393f 43bd 41f1 eb3b 82b8 943d
00000070: aebf 853d 6f5b 7fbd c442 3d3d e8f4 65bb
00000080: e685 9dbb 0232 bc3c b282 823d e351 0e3d
00000090: 0fc1 1abd c5b8 493d 899d 8e3b 91a6 89bc
000000a0: 7148 75bd 9686 a7bd f457 a63c e59a 1a3d
000000b0: e034 8b3c 639c af3d cf08 95bd 968f c5bc
000000c0: 5c9c 6ebd 9a41 793d 2c61 9a3d 671d 3b3d
000000d0: 48ed 36bc 515d 85bc 77a3 c2bc 58b5 c4bc
000000e0: 0606 f93b 0215 37bd 6fdb 8d3d fede 4fbd
000000f0: bf62 a1bd b6e2 a13d 57b2 923b 494f d43c
00000100: f550 9bbd f3f8 9f3d d49a a43d bebd abbd
00000110: ac8b c9bc 0a95 debc b6b6 853c 0e3c 9fbc
00000120: 89f2 913d 6387 16bd ad68 72bc 8391 213d
00000130: 74b1 82bb a4d4 643d eee2 8abd e62d 953d
00000140: 14bd 633d 8c2f 7abc 7f37 0fbc 32d1 9abc
00000150: e1cf 70bc 11e7 363d 3056 893d 5cbf 5abc
00000160: f88d 81bd 02b0 093d 000e 86bd b5d7 41bd
00000170: f0a8 3b3d c2d3 bbbc d2aa 283d 5edc 823d
00000180: ec39 903d 3989 563d d9f6 3b3a 6adb 0e3d
00000190: 9759 e3bc 288f 8f3d 5707 8dbd b230 203c
000001a0: 4c6f dabb 982b 92bd c59e 003d f7f1 83bd
000001b0: 309f 2cbd f1f7 8c3d cc86 3ebd 208a bfbc
000001c0: f3d1 00bd 9e90 2fbc eb29 0ebd 4d90 e9bc
000001d0: e42a 253d b669 6dbd 2f38 423d e023 2e3d
000001e0: ede5 53bc 4654 d53c abcd 59bd f03c b1bd
000001f0: d4ce 51bd 3a5f a63d 6aba d2bb 2bac 9a3d
00000200: 6957 683d c3ef 7c3c 8b01 ea3c 331c 593d
00000210: 6fd2 533d e868 173d f4e0 5dbd b7b5 923d
00000220: c5c5 bbbc 82e0 a2bd 2f05 a5bc 7ab1 a83d
00000230: 3617 88bc b948 a53d f44e 943c d8dd d53a
00000240: 5c78 7bbc 6a0f ae3d f32f 103d 5635 823c
00000250: 0afa a7bc dbf9 22bd ed37 21bd e7a6 debc
00000260: 4db6 11bd 6c8d 833b a87c aabd 91bf afbd
00000270: f483 2a3d e498 8ebd bc44 2dbd a5d2 fcbc
00000280: 9393 46bd b00c 193d 11b6 833c 0cb2 583d
00000290: b550 e53c 3b2d 9e3a 4f9c 57bc 6192 85bd
000002a0: 693b 80bd 7e5e e83c 847d 79bd a58d f13c
000002b0: b7a3 48bd 51b4 9a3d ced3 42bd ffc8 9dbd
000002c0: 0725 2a3b aa69 52bd 8ae2 32bd f6e9 07bd
000002d0: 4657 3cbc dcde a83c 63bf afbc 4e33 20bc
000002e0: e0f9 fb3c 27a8 80bd 7cd6 85bb adf8 27bc
000002f0: f588 0e3c de99 9a3d dbe0 87bc 6a0b 693d
00000300: 2380 a2bd f0e9 fa3c 1ffd cabc e018 8bbc
00000310: a539 d83c 9633 5c3d 87d8 3b3d e048 af3c
00000320: 60c5 8e3d f72c 68bd 7cb9 6b3d 5c06 39bc
00000330: a7c1 0a3c 790d 083d fcca 32bd 9faf 223d
00000340: e548 65bc 1f16 713d 9ab2 483d c4ba 9c3d
00000350: e474 8d3c 6224 593c fbac 4ebd 6c0b 12bc
00000360: ae02 683d fd99 4fbc 5bc4 763d 5205 863c
00000370: 230f 9f3c dcec 593d 0bbd 893d 607f dfbc
00000380: 515b e83c 3e0d 83bd f5ce 86bd 3509 52bd
00000390: c4e0 6b3c 0a6e 993d 2212 8d3d 9049 a4bc
000003a0: 5b90 833d b339 17bd e5c0 033d cb79 0fbd
000003b0: 5e03 823d 6cde 9c3d dfe9 483d 8b14 8b3c
000003c0: e94b 9cbd 06bb 87bd 99ab 98bd 57ad 5cbc
000003d0: b1c4 0f3c fb55 8cbd d6ac a2bd 68e7 93bd
000003e0: 4636 493c 0df5 9d3c df4d 8e3d da10 13bd
000003f0: 23d1 14bc 7121 8b3d f400 7e39 c557 403d
-0.0061536366 0.07706402 -0.0441591 -0.026205914 -0.013637562 0.01075298 0.06896019 0.05694074
-0.082604334 0.07460613 0.053706132 -0.07961726 0.034664195 -0.018781284 0.027777895 0.080100566
0.06990228 -0.019221602 -0.045021176 -0.06949894 0.05069777 0.009549518 0.047443394 0.029858477
0.024666922 -0.047667716 0.0072003906 0.072617546 0.065307006 -0.062343057 0.04620625 -0.0035088602
-0.0048072217 0.022973064 0.063725844 0.034746062 -0.03778177 0.049248476 0.0043522757 -0.016803058
-0.05988354 -0.08179967 0.020305611 0.037745375 0.016992986 0.0857475 -0.07277071 -0.024116319
-0.058254585 0.06085358 0.07538065 0.045682337 -0.011164971 -0.016279848 -0.023759587 -0.024012253
0.007599595 -0.04469777 0.06926619 -0.05074977 -0.078801624 0.0790457 0.004476826 0.025916712
-0.07583801 0.07811155 0.080373436 -0.083858 -0.024602734 -0.027170677 0.016322475 -0.019437816
0.07126338 -0.03675021 -0.014795464 0.03944541 -0.003988439 0.055866852 -0.06781565 0.07284145
0.05560024 -0.015270125 -0.008741259 -0.01889858 -0.014698 0.044653956 0.06705892 -0.013351288
-0.063259065 0.03361512 -0.06545639 -0.047324855 0.04581541 -0.022928122 0.041178532 0.06389688
0.07042298 0.05237696 0.0007170267 0.03487722 -0.02775268 0.07009727 -0.068861656 0.009777235
-0.0066660997 -0.07137221 0.031401414 -0.064426355 -0.042144 0.068832286 -0.04651527 -0.023381293
-0.031450223 -0.010715632 -0.034707945 -0.02851119 0.040324107 -0.057962142 0.047416862 0.04251468
-0.012933237 0.026041161 -0.053174656 -0.08654201 -0.051222637 0.08123632 -0.0064309137 0.0755237
0.056723986 0.015438023 0.028565189 0.05300541 0.051714357 0.03696528 -0.05416961 0.071635656
-0.022921452 -0.07952978 -0.020144073 0.08236976 -0.01661263 0.08070511 0.018104054 0.0016316725
-0.01534852 0.08499034 0.035201978 0.015894573 -0.02050497 -0.039789062 -0.039359976 -0.027179195
-0.035574246 0.0040146615 -0.083245575 -0.0858146 0.041629747 -0.06962755 -0.04230188 -0.030862162
-0.04848058 0.037365615 0.016078027 0.052904174 0.027992586 0.0012067923 -0.0131598255 -0.0652206
-0.062613316 0.02836537 -0.060910717 0.029486487 -0.048984256 0.07553924 -0.047565274 -0.077043526
0.0025962011 -0.0513703 -0.043673076 -0.033182107 -0.011495417 0.02061408 -0.021453565 -0.009777857
0.030758798 -0.062820725 -0.0040844064 -0.01025216 0.008699645 0.07548879 -0.016586712 0.05689565
-0.079345964 0.030629128 -0.0247789 -0.016979635 0.026394675 0.053760134 0.045860793 0.021397054
0.0697124 -0.056683507 0.05754994 -0.01129302 0.008469022 0.033215974 -0.043650612 0.039718267
-0.01399443 0.058858987 0.048998453 0.0765281 0.017267652 0.013253303 -0.050457936 -0.008913856
0.05664318 -0.012670991 0.060245853 0.016359959 0.019416397 0.053204402 0.0672551 -0.027282417
0.028363856 -0.0639901 -0.06582443 -0.05127831 0.01439685 0.074916914 0.06888224 -0.020054609
0.06424018 -0.03692026 0.03216638 -0.03502826 0.063482985 0.07659611 0.04905116 0.01697757
-0.07631666 -0.06627469 -0.07454605 -0.013469062 0.008774922 -0.06852337 -0.07943122 -0.072218716
0.012281006 0.019281888 0.069484465 -0.035904743 -0.009083065 0.06793488 0.00024223683 0.046958704

bias f4 [128]
00000000: b9ff 263d 08de d7bc c91b 933c 55a1 8fbd
00000010: fee7 9dbd f201 913c bb45 aebd 50bd b2bd
00000020: 5cab 98bc a183 90bd 10e3 433d 459f 1fbd
00000030: be83 213d 93ca 1e3d 4d7d e0bc ca4f 833c
00000040: 9260 e3bc 1870 0abd cfa4 7fbd 7e76 b1bd
00000050: 4197 52bc e90a 53bd 78fd 8f3d 0acd 8dbd
00000060: 2434 4f3d 8030 6fb9 e9ca 36bd 06e3 643b
00000070: 30d8 223d 8445 e93b 8c72 7ebd eb5e 5b3d
00000080: c6a9 d93c 3617 923d 0ff5 80bd 4ec5 9e3d
00000090: 9f41 b73b d608 223d c11e a0bd 9be1 3f3d
000000a0: 571c 8fbb 26d5 193d 83ad 5cbd 9c84 42ba
000000b0: 9f77 debc f8a1 a9bc 38ed a63c b9ce 00bd
000000c0: 24c0 64bd 095f a7bd 5ded 5b3d 3635 a5bd
000000d0: 84a3 b9bc cee4 1abd 8cd7 0cbd 4ba9 363d
000000e0: ab3a 79bc 6b98 b83c a65b ce3c bd6f 953b
000000f0: 6c75 e73b eff6 5bbc 8748 cb3c 428c a5bd
00000100: 698b 9abd 99df acbd fd34 ac3d 9742 763d
00000110: 7236 2fbd 63a3 5b3d 997c 82bb 5819 7bbd
00000120: 68d3 a4bd d75d 37bd 8cde 353d 522c 8abd
00000130: f8bf 843c 2012 ef3c c2f9 8e3d 2705 28bd
00000140: 8293 61bd fdd5 10bd a369 83bd fbd2 183d
00000150: 9c3b 8dbb 5847 d93c eb4d 053d 903b b3bc
00000160: 0c02 dfbc 2f6f 803d 347e 983d fa98 4ebc
00000170: 9d91 7d3a 851c 9d3c 00e3 513d 10db 42bd
00000180: 084a e03a d7cf 203d 6969 36bb 1a40 84bd
00000190: bfc7 4e3d 7388 94bd 0d55 973b f2a9 0ebc
000001a0: fa00 a33d 0163 3f3a 268a 6abd 6b7a 21bd
000001b0: b551 84bd ebc9 8f3d 0051 2f3d b92b e13b
000001c0: e89d a3bc 59fb a6bd 0bce 643d a84e a6bd
000001d0: 09ad ab3d 8857 25bd d4de 103d d1cf a83c
000001e0: 61a3 66bc 6990 8e3c c30d 9c3d 7ed6 65bd
000001f0: ff5d 683d 58f7 9cbc c9b4 9b3d 89ee ae3c
0.04077122 -0.02635099 0.017957585 -0.070131935 -0.077102646 0.017701123 -0.08509394 -0.08727515
-0.018636398 -0.07056356 0.047823966 -0.03897025 0.03943228 0.03876741 -0.027403498 0.016029257
-0.02775601 -0.033798307 -0.062413033 -0.08665179 -0.012853445 -0.051524077 0.07030767 -0.06923874
0.050586835 -0.00022810884 -0.044627104 0.0034925356 0.039756954 0.0071188826 -0.06212096 0.053557318
0.026570212 0.071333334 -0.06296741 0.07752477 0.0055925394 0.039559208 -0.07818366 0.046846014
-0.004367392 0.03755679 -0.05387641 -0.0007420273 -0.02715665 -0.020707116 0.020376787 -0.031447146
-0.055847302 -0.081724234 0.053693164 -0.0806679 -0.022660978 -0.03781586 -0.03438525 0.044595044
-0.015211741 0.022533616 0.025190186 0.0045604394 0.0070635583 -0.013425573 0.024814857 -0.08083393
-0.075461216 -0.08441085 0.08408544 0.0601221 -0.042776532 0.053622615 -0.0039821384 -0.061303467
-0.08048135 -0.044767227 0.04440169 -0.06746735 0.01620482 0.029183447 0.06981231 -0.04102054
-0.055072315 -0.035360325 -0.06416633 0.03731058 -0.0043100845 0.026523277 0.03254501 -0.021878988
-0.027222656 0.062712066 0.07445946 -0.012609715 0.0009672882 0.019178638 0.051241875 -0.047572196
0.0017111907 0.03926071 -0.0027833825 -0.06457539 0.05048346 -0.07252588 0.004618293 -0.00870751
0.07959171 0.00073008245 -0.057260655 -0.039423387 -0.06460897 0.07020935 0.042801857 0.006871667
-0.019972757 -0.081534095 0.05586056 -0.08120471 0.08382613 -0.04036668 0.035368755 0.020606907
-0.0140770385 0.017402845 0.07619812 -0.05611276 0.056730267 -0.019160911 0.076028414 0.021353977

weight f4 [8, 128]
00000000: a573 903d dcd9 acbb 1a70 34bd eefe 943c
00000010: 8647 f1bc 463d 833d 9313 9abd 38d8 b3bd
00000020: 3af3 863d d542 8cbd 906f 08bd 095c 61bd
00000030: cee3 4f3d 1053 8fbc 0446 bfbc 5f62 f9bb
00000040: 1fa7 b3bd e37e 36bd 27ee b7bb 6589 513d
00000050: 4216 5e3c 8a15 94bc 7387 5a3d 4780 2e3d
00000060: 2140 043d b00d 86bd a2a7 8cbd 7df5 c83c
00000070: bad4 593d 10b2 19bd 5dd4 72bc fffd 8fbd
00000080: 24d7 6bbd 5f6a 183c f54f d93c 2699 d8bc
00000090: cea4 89bd af1e 243d 5774 db3c f942 683c
000000a0: db12 b8bc beaa 44bd ebae 57bc d440 713d
000000b0: 98dd cd3c b071 97bd 4980 933d 7e29 a23d
000000c0: fc45 7abd f564 a13b 3e5b 953d 5cec 813c
000000d0: 27fc 413c 52b2 d7bb 41f2 0cbd 8db1 24bd
000000e0: da80 97bd d00e 443d 7eeb 67bd 9aa4 f8bb
000000f0: d57d a23d 4a73 5bbd cbea 72bd 3b2b 5dbd
00000100: e544 103d 470b c4bc 6f55 9fbd 5fa2 cebc
00000110: 5838 793c ffef a4bb c7e8 603d cfdf 33bc
00000120: b5b8 27bd 9a4b acbd 3adc 1a3d 7f96 6d3c
00000130: 7900 1cbd 7fde 50bd 1853 18bd fb93 103d
00000140: 71f7 f0bc 19fb 95bd e452 083d 6052 a53b
00000150: d941 88bd 343d 27bd 99ab a63d 1e1b 473d
00000160: 85b0 89bd 6c2c 383c 5089 ca39 057b a4bd
00000170: e8ff 46bd ebfe 36bd 183a 973d a230 573d
00000180: 6df6 223d 92e6 d9bc e945 f93a 3aed 54bd
00000190: 3d0b 003d e361 103a d33f 62bb 17b4 a03b
000001a0: f6e8 a63c 44da afbd f7f8 c2bc d856 943d
000001b0: a69a 0f3d b811 4f3c fdf2 6e3d 3c86 23bd
000001c0: 491d a6bd 372e 723d e3bb 5cbd 0e88 563d
000001d0: 38af 8dbb 054d 0bbd abc7 0bbc fc83 7dbd
000001e0: 7f74 f03c 8df0 873d 1130 9c3d ae6f 02bd
000001f0: ece3 4a3d c5cd 743c cc85 a3bd 994a 96bd
00000200: 14ea 2c3c 04e4 953d 1cf9 aebd 0854 2bbd
00000210: 9118 08b9 0208 a13d 91f1 853d 3c8f 94bd
00000220: f9fb 61bd 3daa 7c3d 5521 9a3c 688e 3b3d
00000230: 2153 b3bd c01a 84bd dd83 333d 4d47 8f3d
00000240: 2403 9f3d 2b2f 76bd 021b 5abd 0e8f a13d
00000250: 16d0 b1bb 128c a5bd f6aa a93d 533d 36bd
00000260: dd57 9bbc f121 a73d a081 8a3c f732 29bd
00000270: 41e8 193d 6993 95bd b173 80bd 6f6d 16bd
00000280: 03e4 993b ddf3 9dbd 6e17 b83b 2f16 aebd
00000290: 428f e33b 8780 39bd 06ae d5bc c58e 243b
000002a0: 56a1 a2bd 98e7 b2bd 61b9 a73b 2d52 2bbd
000002b0: 3e4b 17bc 70e5 89bd f574 abbd 0106 9fbd
000002c0: ba2c a5bd de85 673d b6e7 13bc a6ae 06bd
000002d0: 54eb 5a3d cd31 47bd be71 2d3d 4367 ce3c
000002e0: 2ae1 7bbd 0025 8bbd 8ba0 983d d468 5fbd
000002f0: 95c9 933d 2d93 d5bc e8b3 9dbb 7ba6 a2bd
00000300: 7992 583c a1cc 11ba cede a23d db89 84bc
00000310: 6982 453d 733e 6f3c a9f7 2f3d 1221 bbbc
00000320: ace6 503d 2bbd 8c3c 1b6a 293d a251 b83c
00000330: de2a 0bbd 51a4 9abd 5a90 69bd 75be 99bd
00000340: c2ff 123d 6841 09bd 784f ab3d c329 5dbd
00000350: fc72 93bd 007b 77bb 5900 10bd 7781 533d
00000360: be95 783d 3c38 663d bfb4 523d 0d84 613d
00000370: 8278 2c3d 704c 9fbd b374 493d c837 87bd
00000380: 975d 09bd e410 d9bc be07 013c 91f9 023d
00000390: 0e6e 48bd 6a47 f93b e259 323b 72ac b43d
000003a0: 44c1 8abd 12ac 13bd 873b 42bd 6591 84bd
000003b0: 918c ad3d 5992 99bd d151 a5bd 1d64 7a3d
000003c0: 0153 b03d 5db8 2d3d 4731 f43b 549e 6f3d
000003d0: adb5 8c3d 177a 973d 2cfe 0d3d a066 3cbd
000003e0: 1a8e f13c e737 86bd 1f6c b93c 3a57 86bd
000003f0: 5753 173d 162a b1bd a034 ab3d e414 8c3d
0.070533074 -0.0052749943 -0.04405222 0.018187966 -0.02945305 0.06408171 -0.07523265 -0.08781475
0.065893605 -0.06848685 -0.03330952 -0.055019412 0.05075436 -0.017495662 -0.023348816 -0.0076106037
-0.0877211 -0.044554602 -0.005613107 0.05115642 0.013555111 -0.018076677 0.05335183 0.042602804
0.03228772 -0.065455794 -0.06867911 0.02453112 0.053181387 -0.03752333 -0.014821139 -0.07030868
-0.05757822 0.009302705 0.026527384 -0.026440214 -0.06720887 0.040068325 0.026788874 0.014176124
-0.022469928 -0.048014395 -0.013164262 0.058899716 0.025130078 -0.07394731 0.07202203 0.0791807
-0.0611019 0.004925365 0.07292794 0.015859775 0.011839903 -0.0065825367 -0.03441072 -0.040208388
-0.07397623 0.04786569 -0.056621067 -0.0075879814 0.07934157 -0.053576745 -0.059305947 -0.053996306
0.035221953 -0.023931159 -0.07779967 -0.025223909 0.015211187 -0.0050334926 0.054909494 -0.010978653
-0.040947635 -0.08412857 0.03780768 0.014501213 -0.03808639 -0.05099344 -0.03718862 0.035297375
-0.029414864 -0.07323284 0.033282176 0.0050452203 -0.066531844 -0.040829852 0.081381984 0.048609845
-0.067231216 0.01124106 0.00038630748 -0.080312766 -0.048583895 -0.044676702 0.073841274 0.052536614
0.03978579 -0.026599202 0.0019018027 -0.05198405 0.031260718 0.00055077503 -0.0034522905 0.004904281
0.020374756 -0.08586553 -0.023800356 0.07243127 0.035059594 0.012638502 0.0583372 -0.039922938
-0.081110545 0.059126105 -0.05389012 0.052375846 -0.004323866 -0.034009 -0.008531491 -0.06189345
0.029352425 0.06637678 0.076263554 -0.031844787 0.04953377 0.014941637 -0.07984504 -0.07338447
0.010553855 0.07318881 -0.085436076 -0.041828185 -0.00012979122 0.078628555 0.06540216 -0.07253882
-0.05517194 0.06168579 0.018814722 0.045790106 -0.0875609 -0.06450415 0.043826926 0.069960214
0.07764271 -0.060103577 -0.053248413 0.07888614 -0.005426417 -0.08083357 0.08284561 -0.044492077
-0.018962795 0.08160771 0.016907513 -0.04130837 0.03757501 -0.07303507 -0.062720664 -0.036725458
0.0046963706 -0.07712529 0.0056180274 -0.08500325 0.006944568 -0.04528859 -0.026083957 0.0025109511
-0.07940929 -0.08735579 0.0051185344 -0.041826416 -0.009234248 -0.06733215 -0.08371917 -0.07764817
-0.080651715 0.05652415 -0.009027412 -0.0328814 0.053447083 -0.048631478 0.0423448 0.025195723
-0.06149403 -0.067941666 0.07452496 -0.05454333 0.07216183 -0.026071155 -0.0048127063 -0.0794191
0.013218516 -0.0005561803 0.07952653 -0.016179016 0.048220072 0.014602291 0.042960797 -0.022842918
0.051001236 0.017180046 0.041360956 0.022499863 -0.03397643 -0.07550872 -0.05702243 -0.0750703
0.03588844 -0.033509642 0.08364767 -0.053994905 -0.07199666 -0.0037762523 -0.03515658 0.05163714
0.06068968 0.056205973 0.051441904 0.055057574 0.042107113 -0.07778251 0.04918356 -0.06602436
-0.03353652 -0.026497312 0.007875381 0.031976286 -0.04893308 0.00760739 0.002721422 0.08821954
-0.06775144 -0.03605277 -0.04742005 -0.06473044 0.084740765 -0.07498617 -0.08072246 0.06113063
0.08609582 0.04241215 0.0074521634 0.058500603 0.068705894 0.07396334 0.034666225 -0.04599631
0.029486705 -0.06553631 0.022634564 -0.06559606 0.036944713 -0.086506054 0.08359647 0.06839922

bias f4 [8]
00000000: b450 ef3b bbbd a0bd 7c00 8a3d beeb 9e3c
00000010: b172 62bd cf14 08bd af55 6bbd 81f8 b3bd
0.0073033217 -0.07848688 0.06738374 0.01939952 -0.05528516 -0.03322297 -0.05745476 -0.08787633

weight f4 [128, 8]
00000000: 21ae a3be 29c0 34be c6f8 ac3e f002 31be
00000010: 2e44 7fbe c8eb 6f3e 6fbe 3bbe ebfb 39be
00000020: fea5 b13e 969d 15be 2889 b23e 9918 1d3e
00000030: 3ace 0ebe 32ac ae3e 6a82 f93d 087c 263e
00000040: b1e5 aabe 231b 393e ca33 433e 31d2 673d
00000050: 750e 5c3e d993 e0bd d534 95be fdfb 543d
00000060: d37e fbbd 2331 02be 940a a5bd c2ac b4bd
00000070: 67fb 563d 3e2a 843e 6218 b13e 382f 873e
00000080: b52f a7be ea8e 693e bc49 123e d530 b43e
00000090: 2268 a7be ae20 aa3e 7ed5 b7bd b629 8abe
000000a0: 7e03 a03c 5175 6bbc c826 b9b9 71d3 363d
000000b0: 86dc 803e 61fd fabb 841e a4bd e76e 333e
000000c0: 12a1 0abd 3d2e f23c d236 073e d212 cfbc
000000d0: 1915 68be aefb 9bbe bdfb 163e 82df a33e
000000e0: a84d 0ebe 9fc2 a33e 074b 553e 164c c9bc
000000f0: bead 99be 41fe 8e3d 21f0 b4be 9f14 49be
00000100: 18ac 2abe 4ac4 9ebe 7847 853d 765a 10bd
00000110: 9dc0 1bbe 77e8 de3d 63e9 793e ab34 92be
00000120: 09d4 193e 35d4 a1be 709b 683e 7def 8a3e
00000130: 5547 4e3e 2da3 c83d d4c5 8a3e a182 e93c
00000140: 7ed8 8ebe 0b46 c7bd 2ce9 8b3e 1046 73be
00000150: 6122 18bc 061c debd 8fe9 47bc 6a2b 62be
00000160: 9ab3 cfbb fb8b b6bc 535c 543e e5be b5bd
00000170: 3108 a13e 305c dfbd 9e7f 5e3d 21de 1ebc
00000180: 4d63 2d3d 5a65 17be fbfc 083e d7d0 3bbe
00000190: fd10 8dbe 53a1 433e 35b5 8b3e af14 0b3d
000001a0: da54 af3e dd00 633e 0019 923b 277d 9e3e
000001b0: 59f3 c3bd 96ca a8bb c6e4 903e 4796 513e
000001c0: 6186 b8bd 4216 51bd c7f3 93bd 3c1b 8d3e
000001d0: 430b 973e 081b 4f3e d640 6dbe 0e82 94be
000001e0: 9153 a5bd 1cfe aabe ea03 56be 954c a23e
000001f0: ec4c a9be 2806 97be 9f27 ac3d 4378 b23e
00000200: 427d 7a3d 3532 28be af12 283e 1da8 8c3e
00000210: 025d 67be a4d9 a3be 73f0 6e3d 6ee6 3dbe
00000220: 33fd 74be 254d a23e dd92 273e ea9d 293e
00000230: 557b 29be 31c8 94be 7b9a 1cbc 88c5 80be
00000240: 07b8 93be c39b 703e e4a9 963e 6af6 ccbc
00000250: 62a1 afbd d3ac 04be 3117 b3be 961d 1c3d
00000260: a4e5 ffbc 37fe 723d a363 76be 45fe d33c
00000270: d25d 6cbd cd20 513e a2f8 9b3e 5f82 74bd
00000280: 9557 74be fcca 52bd ff20 4d3e 0170 2ebd
00000290: 2287 e6bb 8cf3 88be 6623 87be 682b 79be
000002a0: bfdb 963e 8e66 303e e2fa 0a3e ae1e 57be
000002b0: 1d1e abbe 1a62 83be bf99 253e 206e 7ebe
000002c0: 5fd5 22be 9b64 2fbe 33e1 66be 66cd ef3d
000002d0: 0de4 6abd 7776 a8be acac a7bd b1bb 6c3e
000002e0: acbb 37be aa24 5e3e 5416 7fbd 792b 823e
000002f0: 3f2e 843e 2d2d 033e c034 543e aad2 823e
00000300: 6665 4b3c d817 84be f60f 73be 1ebf cebc
00000310: 9eec dfbd c5a5 8abe 7be2 fbbc 113f a4bd
00000320: 27e4 9c3d c8b8 733e 6e95 a93e 6b5b 2e3e
00000330: bd97 fd3c 5cad eebc e9ab 5e3e baef a73e
00000340: 2971 56bd 456a c9bd 097d 8b3e 2382 cd3d
00000350: decc 8abe 2ca8 aebd 98fe 15bd 2a37 f6bd
00000360: 9dc1 57bd f637 67be 4c36 863e a13c be3d
00000370: 4260 b0bd ced0 8f3e 9dbc 95bd 9fa6 723d
00000380: 1a7a 1dbe 7b84 20be b9cb ffbd ab4b abbc
00000390: ddf9 173e e710 95be 0185 a73e b6b6 543e
000003a0: 6599 6ebe 550f 4d3e 9cb4 033e 6d39 60bd
000003b0: bf6d 48be 95aa 853e 9d3e 023e 90d0 633e
000003c0: 3899 573d 9104 9fbe a092 b4be 8a1f 183e
000003d0: 1e58 45be 3fca febd 4120 e5bd 8e3a 92be
000003e0: d27c 49be d74a 9ebe aa55 dc3d ddd4 853e
000003f0: a248 883e 55d1 80be 1a08 173e 3bcb 993e
-0.31968787 -0.17651428 0.3378355 -0.17286277 -0.24928352 0.23429787 -0.18334363 -0.18162505
0.34696954 -0.14610896 0.34870267 0.15341415 -0.13945857 0.3411575 0.12183078 0.16258252
-0.33378366 0.18076758 0.19062725 0.05659694 0.2148989 -0.109657 -0.2914187 0.051998127
-0.12280049 -0.12714057 -0.08058658 -0.088220134 0.05248585 0.25813478 0.34588915 0.26403213
-0.32653585 0.22808424 0.1428594 0.35193506 -0.32696635 0.33228058 -0.08976267 -0.26984948
0.019532915 -0.014371232 -0.00035314844 0.04463524 0.25168246 -0.0076595997 -0.08013633 0.17522775
-0.033845015 0.029563064 0.13204506 -0.025277529 -0.22664298 -0.30465454 0.14744468 0.3200646
-0.13896811 0.31984422 0.20829402 -0.024572413 -0.30015367 0.06982089 -0.35339454 -0.19636773
-0.16667211 -0.31009132 0.06507772 -0.03524252 -0.15210195 0.10884183 0.24405436 -0.28555807
0.15022291 -0.31607214 0.22715545 0.2713584 0.20144399 0.09796748 0.27104056 0.028504672
-0.27899545 -0.097301565 0.27326334 -0.23757195 -0.00928554 -0.10845189 -0.012201681 -0.22086874
-0.006338549 -0.022283545 0.20738344 -0.08874301 0.31451562 -0.10906255 0.054320924 -0.009696514
0.04233103 -0.14784756 0.13377754 -0.18341385 -0.27552024 0.19104509 0.27286687 0.033955272
0.34244424 0.22168298 0.0044585466 0.3095486 -0.09567899 -0.0051511033 0.2829954 0.20467483
-0.09010006 -0.051046617 -0.07224231 0.2755984 0.2950078 0.20225155 -0.23169264 -0.29005474
-0.0807258 -0.33396995 -0.2089993 0.31699052 -0.330665 -0.29496884 0.084059946 0.34857377
0.06115461 -0.16425402 0.16413377 0.2747201 -0.22594073 -0.32001984 0.05833478 -0.18544933
-0.23924713 0.31699482 0.16364618 0.16564146 -0.16550954 -0.29058984 -0.009558315 -0.25150704
-0.2885134 0.23496918 0.2942649 -0.025019843 -0.08575703 -0.12956552 -0.3497863 0.038114153
-0.03123743 0.05932447 -0.24061446 0.025878081 -0.05770666 0.20422669 0.3046313 -0.059694644
-0.23861535 -0.051463112 0.20032118 -0.042587284 -0.007035152 -0.26748312 -0.26394194 -0.24332964
0.29464528 0.17226622 0.13572267 -0.21007797 -0.33421412 -0.25660783 0.1617193 -0.24846697
-0.15901707 -0.17128222 -0.22546844 0.117090985 -0.057346392 -0.32902882 -0.081872314 0.23118474
-0.17942685 0.21693674 -0.062277153 0.25423792 0.25816533 0.12810202 0.20723248 0.2555135
0.012414312 -0.2579944 -0.23736557 -0.025237616 -0.10933803 -0.27079597 -0.030747643 -0.080198415
0.07660704 0.23800957 0.33121818 0.1702706 0.030956144 -0.029135399 0.21745266 0.32800084
-0.05235401 -0.098347224 0.27243832 0.10034587 -0.27109426 -0.0852817 -0.036619753 -0.120222405
-0.05267488 -0.22579941 0.262133 0.09288908 -0.0861211 0.28088993 -0.07311366 0.059240934
-0.1537861 -0.15675537 -0.12490029 -0.020910105 0.14841409 -0.29114458 0.3271866 0.20772824
-0.23300703 0.2002538 0.12861866 -0.054742265 -0.19573115 0.26106706 0.12719198 0.22247529
0.052636355 -0.3105817 -0.35268116 0.14855781 -0.19271895 -0.12440919 -0.111877926 -0.285603
-0.19676521 -0.30916473 0.107585266 0.26138964 0.26617914 -0.25159708 0.14749184 0.30037865

bias f4 [128]
00000000: e6a6 863e 15a5 f5bd 53af 6fbe 8fea 8abe
00000010: d9a7 1e3e 4f21 b0be 926a 6abe ad25 613e
00000020: dd40 b13e 9bf6 93bd 2656 523e 81b6 c53d
00000030: 38d8 7f3e ca5d 3e3e a061 f8bd ad55 a0be
00000040: a7b1 953e 58a9 193e fc0d f9bd 04aa a6be
00000050: 6eca db3c d7ff 203c de41 e4bd 5d70 a43d
00000060: 7a74 b3be 2553 a23e 5b92 3ebe 2597 5dbe
00000070: 614b 3c3d 5f80 d5bd 239d 5ebe f7e8 4fbe
00000080: 69c6 8a3e 0156 963e 0231 3abe 5aa5 46be
00000090: f140 5d3e bfee 1ebd b1cc 4b3e cd1a f9bd
000000a0: d9da 42bc 69de aebe ee4f 853e 0a61 2f3e
000000b0: 2df7 ecbd 0145 53bd ccbe 09be dbd0 12be
000000c0: 75cc 833e 9399 393e 8447 2b3e 0e98 b43d
000000d0: 3c5f adbd acdc 353e 125b 273c c07b c0bd
000000e0: d3ca a1bd 1c93 8dbb ea5f 04bc ea00 07be
000000f0: 1eb5 5f3e 0118 51be db65 c43d f075 a1be
00000100: d6ed 753e d46e 673e c6de 873e f07e 26bd
00000110: afab a0be 3ced 46be 0c50 95bd a674 463e
00000120: 12f8 033e b778 68bd 3b7c 0f3e 56a8 13be
00000130: 9a99 92bd 8e9e 423e 39d0 63bd e0f5 37be
00000140: 9c56 a63d 90c9 f1bd 9095 8f3e e9cb 2bbe
00000150: b9e3 85be 94b8 223e 298f 8d3e e488 8b3d
00000160: fadb 7abe 449d 78be e595 4abe a889 92be
00000170: bba8 4fbe e1e1 97bd dee8 a83e 6c8f 37be
00000180: da90 5e3d 3161 0bbe c14b f73d 12cc 413e
00000190: 6b52 90be 3563 93be 0139 2e3e 18ee 29be
000001a0: 7525 2abe f7a3 b8bd 9d77 3fbe 4e54 8abd
000001b0: 91d1 44be 9fb1 f7bc 0c87 613d 4de4 06be
000001c0: 46b9 91bc 02d3 ad3e 761c b1bd 1689 0c3e
000001d0: 7cf7 4f3c 8706 98be 48a7 debd 133d 6ebe
000001e0: fdd0 34be e2ef 463e 13cb 063e 5d9d 313e
000001f0: 50cf 83bd aaeb 72be ca62 8abe 4813 4cbe
0.26299208 -0.119943775 -0.23406725 -0.2713208 0.15493716 -0.34400412 -0.22892216 0.21987028
0.346198 -0.07224771 0.20540676 0.096539505 0.24984825 0.18590465 -0.121279955 -0.31315365
0.292371 0.15006006 -0.121608704 -0.32551587 0.026829924 0.009826622 -0.11145376 0.08029244
-0.35049802 0.3170406 -0.18610518 -0.21639688 0.045970324 -0.104248755 -0.2173963 -0.20303713
0.271045 0.2936249 -0.18182757 -0.19399014 0.21606804 -0.038801905 0.19902302 -0.12163315
-0.011892998 -0.3415406 0.26037544 0.17126861 -0.115705825 -0.05157948 -0.1345169 -0.14337485
0.25741926 0.1812499 0.167265 0.08818065 -0.0846543 0.17759961 0.010214584 -0.093986034
-0.07900014 -0.0043205153 -0.008079508 -0.13183942 0.21846434 -0.20419313 0.0958974 -0.31535292
0.24016508 0.22600871 0.2653715 -0.0406484 -0.31380984 -0.19426435 -0.07290658 0.19380435
0.128876 -0.056755748 0.14012234 -0.14419684 -0.071582034 0.19005796 -0.0556185 -0.17964888
0.08121988 -0.11806023 0.28043795 -0.16777004 -0.261503 0.15890723 0.27648285 0.06813219
-0.24497977 -0.24278742 -0.19783743 -0.28620648 -0.2027921 -0.0741613 0.32990164 -0.17925805
0.05433736 -0.13611294 0.12074996 0.18925503 -0.2818788 -0.28786626 0.17013933 -0.16594732
-0.16615851 -0.09015649 -0.18697973 -0.06754361 -0.19220568 -0.030236064 0.05506043 -0.13173027
-0.01778854 0.3395005 -0.086480066 0.13724169 0.012693282 -0.2969248 -0.1087175 -0.23265485
-0.17657848 0.19427446 0.13163404 0.17345186 -0.06436026 -0.23722711 -0.27028495 -0.1992923

weight f4 [128, 136]
00000000: 8d4a 1d3c 0438 08bc 5b10 4fbd 4743 413c
00000010: 0c5d a5bd 02ca d63c 4407 0c3c 59fb 683c
00000020: a2af 313a 525a 243d 13ca 223d 4db3 7dbd
00000030: f99f 403d a70c 57bd a29f 833d 4367 5a3d
00000040: c444 e4bc 0604 413d 8e3e a23d 7d15 8abd
00000050: 44c2 a53d b477 99bd c862 553c 282b 613d
00000060: a64d 91bd bee8 41bd 5709 3b3c 43b9 0d3d
00000070: c801 81bd d5af 1ebd 9119 163d 846a c5bc
00000080: 021a 89bd 5dc5 813b 6277 573d 2edf 4abc
00000090: e328 4dbd c5b4 483d 1d09 12bd 4161 903a
000000a0: 4797 70bd ae4c a73d fc7d 2b3d d63d 43bd
000000b0: 2835 8dbd 4331 a2bd 7c94 7dbd 3bcf 76bc
000000c0: 14b6 9a3c afe5 40bd ded4 9bbd b44c 26b9
000000d0: 3414 9d3d 1a04 a43d 84c2 75bd 0757 f3ba
000000e0: e1d2 2e3c cb93 b7bc c8d3 553d fdb5 693c
000000f0: 3eda 26bd 8253 29bd dcea 323d e3ec 9f3c
00000100: 4c6b 973c a328 99bd 3f2b 39bc 2484 53bc
00000110: ecd9 81bc 6a6d b3bc eab1 64bd 1b82 4e3d
00000120: 227c 963c 59c3 6ebd b5e5 0b3d 92ad 0bbd
00000130: 062e 90bd d9bd 26bd 8f1c b33d 9fdb 553d
00000140: 7e11 1b3d 493c 1a3d 4ab6 25bd b986 b9bc
00000150: 46fb 72bd b3af caba e7b8 163d 4e56 333d
00000160: bf0b 71bc 54cd 76bb 88e1 a8bd 5513 85bc
00000170: 9285 753d 5960 98bd 4454 8ebd fc3b 6fbd
00000180: acf5 30bd 7163 63bd 27ea 4ebc 95fe 96bd
00000190: 3b3d 993d 0030 253d a05e 6dbd dab9 82bd
000001a0: a4d7 063d 2abf 8b3b f6a2 663d 7789 6d3d
000001b0: 0a2f debc 38ce 27bd 3826 aebd d249 92bd
000001c0: b775 93bd 88ba 87bd 3250 993d b504 84bd
000001d0: 54fb 86bd c8eb 06bb 2d7f 09bd 2da4 293c
000001e0: aebe 923b a76e a83c c716 44bd f5df 85bd
000001f0: 32fe 93bc 330c 8bbd 4f96 83bc 2d70 393d
00000200: 573b 603d 8319 053c 0e67 793d d7d9 f43c
00000210: 0466 893d 5565 393d 9465 2e3c b3f9 a73d
00000220: f388 3c3c 5e17 d13c 0faa 873c 5828 eb3c
00000230: bc28 4a3d 184c ae3d 918a 45bd 2bdc f73c
00000240: 45f7 9fbd 3a23 a7bd d8c7 a7bb 23c7 e83c
00000250: 2de0 a0bc 88be f03c b503 4abc 3956 a4bd
00000260: 0068 333d 1ccb 8cbb 6ca1 a3bd 4d8e 60bd
00000270: 6059 3a3d 67c5 c03b 788e 8a3d 8849 da3b
00000280: 29e3 1a3d 6fa0 843d b754 90bc e5b1 a3bd
00000290: 20ac ab3d f8b0 b0bc de57 04bc 6f7e af3d
000002a0: 1157 333c 5c02 7e3d 4b81 76ba 3c5a 353d
000002b0: 51a3 983d 0ffc 5bbd 298a 0fbd d69d 62bd
000002c0: 9018 813d c48e 643c 2921 6b3d 9d3b 3abd
000002d0: c6e7 8fbd 7545 553c a74d 473d 377a 60bd
000002e0: 4063 4abd d97d 84bd 8e98 e93c 948a 3abd
000002f0: 0e35 913d 94a5 9f3d 4762 a13d c4e6 163c
00000300: 24b2 b0bd d1eb 503d c86d d13c add8 a43c
00000310: 82ef 1cbd b85e 0d3d e933 a83d 0a1e 2f3c
00000320: fd0a abbb 04fb 43bb 106a 49bb 3639 93bd
00000330: a720 86bd b67c c13c 1f57 43bd 2970 66bd
00000340: f629 91bd bad9 a2bd c796 b23c 5592 413c
00000350: e53a a3bd a3aa a8bd 82b5 8abd b019 aa3d
00000360: b341 b33c 583a ef3c 1ee9 94bd 2b96 8e3d
00000370: 0ab3 7a3d 02a6 17bd 6971 923d 0af2 0f3d
00000380: f8aa b43c 15b8 683d a6cd 493d 1d27 7c3d
00000390: 2dce 7e3d 910b a43d 294e 2dbd 4c8b a5bd
000003a0: b017 603d 21c5 9c3d 6103 9dbd f3e7 793d
000003b0: 4938 e83c 519a 2abd 7e9c 153c a33a a2bd
000003c0: 3f77 943d f6a1 3d3c 5394 8f3d 7539 1abd
000003d0: 5287 783d bff6 57bd a955 35bd e9d1 b03c
000003e0: dc58 06bd d3fe dfbc 9590 5ebc b54e 9fbd
000003f0: 479f 3f3d 69dc 573c 58de 3cbb 9631 74bb
0.009600294 -0.008314136 -0.050552707 0.011795825 -0.08074388 0.026219372 0.008546654 0.014220082
0.00067781855 0.0401252 0.039743494 -0.061938573 0.04702756 -0.0525023 0.06426932 0.053321134
-0.027864821 0.047122978 0.079220876 -0.0674238 0.08093694 -0.07493535 0.01302404 0.054972798
-0.070948884 -0.0473411 0.011415801 0.034600507 -0.06299168 -0.038741905 0.036645476 -0.024098642
-0.06694414 0.003960295 0.052604087 -0.012382312 -0.05008782 0.04900052 -0.035653222 0.0011015312
-0.05873802 0.08168922 0.041868195 -0.047666393 -0.068949044 -0.07919552 -0.061909184 -0.015064056
0.01888565 -0.047094043 -0.076089606 -0.00015859568 0.07669869 0.08008595 -0.059999958 -0.0018565365
0.010670395 -0.02240934 0.052203923 0.014264581 -0.040735476 -0.041339405 0.04368101 0.019522136
0.01848378 -0.07478454 -0.011301815 -0.012909923 -0.015850984 -0.021902759 -0.055833735 0.050417047
0.018369738 -0.058291767 0.034154613 -0.034101076 -0.07040028 -0.040708397 0.087456815 0.0522114
0.03785848 0.03765515 -0.040457048 -0.022647249 -0.059321664 -0.0015463739 0.03679743 0.04378348
-0.014712273 -0.0037659006 -0.08246142 -0.01624457 0.059941836 -0.07440252 -0.06949666 -0.058406815
-0.04320304 -0.055514757 -0.012629068 -0.073727764 0.07482382 0.04032898 -0.05795157 -0.063831046
0.032920495 0.004264732 0.056307755 0.057992425 -0.02712204 -0.04096815 -0.085033834 -0.07142986
-0.07200187 -0.06627375 0.07485999 -0.0644621 -0.06590906 -0.0020587314 -0.03356855 0.010354084
0.004478297 0.020560576 -0.047873285 -0.06536857 -0.018065546 -0.06789436 -0.016062884 0.045272995
0.05474409 0.008123758 0.060889296 0.02988903 0.06708911 0.045262653 0.010644335 0.08201923
0.011507261 0.025523838 0.016560582 0.02870576 0.049355254 0.085106075 -0.04822785 0.030256351
-0.07810835 -0.08161016 -0.005120259 0.028415268 -0.019638145 0.029387727 -0.012329985 -0.08024258
0.043800354 -0.0042966735 -0.07989773 -0.05482321 0.04549539 0.005882907 0.06765455 0.0066615976
0.037814293 0.06475913 -0.01761852 -0.07992915 0.083824396 -0.02156876 -0.00807759 0.08569037
0.010946051 0.06201397 -0.00094034214 0.044275507 0.07453025 -0.05370718 -0.03504387 -0.055326305
0.06303513 0.013950054 0.05740467 -0.045467008 -0.07026629 0.013017048 0.04865804 -0.054804053
-0.04941106 -0.06469316 0.028515127 -0.045542315 0.070901975 0.077952534 0.07880073 0.009210292
-0.08627728 0.051006142 0.025565043 0.02012285 -0.03831435 0.03451416 0.08213026 0.010688314
-0.0052198158 -0.0029904256 -0.0030733384 -0.071886465 -0.06549197 0.023619037 -0.047690507 -0.056259308
-0.070880815 -0.07951684 0.021800412 0.011814673 -0.079702176 -0.08235671 -0.06772901 0.08305681
0.021881914 0.029202625 -0.07271026 0.06962236 0.0612059 -0.03702355 0.071505375 0.035142936
0.02205418 0.05681618 0.049268387 0.06156074 0.062208343 0.080100186 -0.042310867 -0.080832094
0.05471009 0.07654787 -0.0766666 0.06101222 0.028347151 -0.041651074 0.009131549 -0.0792134
0.07249307 0.011574259 0.070107125 -0.03765245 0.060675927 -0.05272555 -0.044271145 0.021584468
-0.032799587 -0.02734319 -0.013584276 -0.07778684 0.046782758 0.0131751085 -0.002881905 -0.0037261

bias f4 [128]
00000000: f750 983d df1e 883c ddb6 a7bc 4f5e 80bd
00000010: 7044 813b b9a6 9ebd ac52 0abd 9e7e ff3c
00000020: 0833 91bc c0bc a1bd ad64 b2bd b78e d8bc
00000030: ac3f 8b3c 54b3 8fbd b14a 81bd 4d2e 7bbc
00000040: dac2 583d d9ca 7cbd 0daf 3dbd a69b c93c
00000050: 3b16 a9bd 6796 463d b111 7f3d 0874 b9bc
00000060: acb8 913d b791 70bd f3ac 1a3d f69f d63c
00000070: bb1d 48bc ff67 4cbc 2020 63bd e8e1 95bd
00000080: f023 8f3c 0269 a53c fe8c 033d 9918 98bd
00000090: 3c14 a6bd 5f78 743c 9138 493d 57c1 ac3c
000000a0: 3674 aa3c 959f 68bd 3e7e 823d a282 123d
000000b0: 7ffc aa3d 506e adbc 1e4e 74bd 8187 a6bd
000000c0: 8b07 28bd c5ee a33d 05f3 843a f854 93bd
000000d0: 0390 113d 3b19 2f3d cee1 5c3d 9f3b 96bc
000000e0: af01 e1bb 2aa9 573d 8902 073d 3a58 453d
000000f0: 032a c83c 6c1f 663d 021f d73c 9b97 1bbc
00000100: f68c ee3c 8a3a c4ba 8347 26bd ed13 73bd
00000110: c385 913b 34e3 9f3a 5ffa 8ebd 73b5 9ebd
00000120: e10e dbbc c867 b23c d660 ba3c e540 8fbd
00000130: 20e0 a23d caca ee3c be96 75bc cff0 aebd
00000140: e7c4 2a3d d744 d4bc 0cfa c03c 5fb5 82bd
00000150: 4340 a83d 4787 c73c 6e7c aa3d 241d 16bd
00000160: 300c 2ebb 0991 15bd e7cd e33b 5694 4e3d
00000170: 2481 30bd 5328 a2bd 8cd5 de3b 14be 973d
00000180: 1153 66bd 6fd6 2cbd 8c6d 33bd f05c c3bc
00000190: 0ee7 723d 7b0d 11bc a879 6a3d aeb3 bd3b
000001a0: c7ec 9fbd 665b 773d 3fcf 22bd 9291 5ebd
000001b0: 4c73 953d 0d6b a33c def7 953c be69 52bd
000001c0: 6193 9bbd 572e c9bc c2c9 64bd a987 ab3c
000001d0: ba85 0abd ce11 21bd 8fb6 863d cd4b 20bd
000001e0: 8584 8c3c eced b4bc b300 973d a17e 0dbd
000001f0: 8b88 1f3d 1f98 fcbc d498 a13d e883 05bc
0.07437318 0.016616283 -0.020472938 -0.06267988 0.003944926 -0.077466436 -0.03377025 0.031188305
-0.017724529 -0.07897329 -0.08710609 -0.02643524 0.016998135 -0.07016626 -0.063130744 -0.015330863
0.0529202 -0.061716888 -0.04630952 0.024610352 -0.08256193 0.04848328 0.06227273 -0.022638336
0.071153015 -0.058732715 0.037762593 0.026199322 -0.01221412 -0.0124759665 -0.05545056 -0.07318479
0.017473191 0.020191673 0.032116883 -0.07426567 -0.08109328 0.014921277 0.04912621 0.021088285
0.020807367 -0.056792814 0.06371735 0.035769112 0.08348941 -0.021170765 -0.05964481 -0.08131314
-0.04102282 0.08004526 0.0010143226 -0.07193941 0.03553773 0.04274867 0.05392628 -0.018338976
-0.006866656 0.05265156 0.032961402 0.048179843 0.024434095 0.05618231 0.026259903 -0.009496595
0.02911995 -0.0014971059 -0.040595543 -0.059345175 0.0044409945 0.0012198449 -0.06981348 -0.077494524
-0.026740493 0.021778002 0.022751253 -0.069947995 0.07952905 0.029149432 -0.014989553 -0.08542024
0.041691687 -0.025911732 0.023556732 -0.0638225 0.08215382 0.024356497 0.08324514 -0.036648884
-0.0026557557 -0.03651527 0.0069520357 0.050434433 -0.043091908 -0.079178475 0.006800359 0.074093014
-0.056231562 -0.042196687 -0.043805644 -0.023848027 0.059302382 -0.008853312 0.057244927 0.0057892418
-0.078088336 0.0603899 -0.039748427 -0.054338045 0.07297382 0.019948507 0.018306669 -0.051370375
-0.0759647 -0.02455823 -0.055856474 0.020938711 -0.033818938 -0.03932362 0.06577789 -0.03913479
0.017153034 -0.022086106 0.0737318 -0.03454459 0.038948577 -0.030834256 0.07890478 -0.008149125
