E-GraphSAGE/experiments/SK_MLP_NF-BoT-IoT_best_model.pth (torch, 374098 bytes, 20 tensors)

weight f4 [128, 16]
000000 64 8d 4c be bf a3 d6 bd 28 af 9f bc 22 ff 29 be
       -0.19975811 -0.10480451 -0.0194927 -0.16601232
000010 0d 24 91 3d b7 1d f4 bd fd a8 94 bd a6 4e 31 be
       0.07086954 -0.1191973 -0.072587945 -0.17315158
000020 6f 36 a2 bc 12 87 16 3e 6f c5 53 be 48 e5 c9 3d
       -0.019801347 0.14699963 -0.20680784 0.09858185
000030 57 a4 12 3d 70 60 98 3d b4 ae a5 be 68 86 80 bb
       0.035801258 0.07440269 -0.3235985 -0.0039222725
000040 02 17 87 3e 46 cd 06 3e 1c 65 61 be 38 9a 61 3e
       0.2638474 0.13164243 -0.22011226 0.22031486
000050 ec fa 30 be 0f 12 bb bd bb 1c ba bd 68 bb 66 3e
       -0.17283219 -0.09134304 -0.09087511 0.22532427
000060 17 eb 87 3e 22 7d 5c bc d2 ae 47 3e eb de ef bd
       0.26546547 -0.013457568 0.19500282 -0.1171244
000070 60 a2 37 3e ae 34 28 be 29 21 35 3e 99 d3 b3 3e
       0.17933035 -0.16426346 0.17688431 0.35122374
000080 35 ad 83 3d 16 1f 47 3e cb c7 9e bd 17 ac f2 3d
       0.06429521 0.19445452 -0.07752951 0.1184923
000090 20 3c 78 be fc a2 fd 3d 11 86 5d 3c 81 ab c6 3d
       -0.24241686 0.123846024 0.013520733 0.097006805
0000a0 9c 9f 36 be a5 fa 1a 3e ab be 1e 3d 03 63 33 be
       -0.17834324 0.15134676 0.038756054 -0.17518239
0000b0 4c d2 84 3e 8b 4f 19 be d2 a3 ce bd 5f 1c 9d be
       0.25941694 -0.1497175 -0.1008984 -0.30685708
0000c0 ce 1e b0 3d de 93 7d 3e 84 a8 32 be 20 8e 03 be
       0.085996255 0.24763438 -0.17447096 -0.12847185
0000d0 54 5c 32 3e ce ef 57 3c 1d 74 64 3b d4 2a 4f 3e
       0.17418033 0.0131797325 0.0034859248 0.20231181
0000e0 59 6f cf be f3 5e 8d bc bf 4b 00 be 70 55 e3 bc
       -0.4051464 -0.01725719 -0.12528895 -0.0277507
0000f0 3b c7 0b 3e 1d a0 c5 be ab b6 c5 be 5e ab 8c be
       0.13650219 -0.3859872 -0.38615927 -0.27474493
000100 66 82 5d bd 36 03 5c be b4 d4 20 be b4 75 8a bc
       -0.054079436 -0.214856 -0.1570614 -0.016901828
000110 10 d6 07 be 20 fd 45 3e a6 b9 2c be 90 6f 54 3e
       -0.13265252 0.19334841 -0.16867694 0.20745683
000120 09 5e 97 3d dc 8f af bd 8c 73 f8 bd 4d e9 78 3d
       0.07390983 -0.08572361 -0.12131414 0.060769368
000130 01 0e 2a be 9d 8d 9c 3e 02 24 6b 3e b7 11 69 be
       -0.16606905 0.30576792 0.22962955 -0.22760664
000140 64 28 0b be 9b 93 f6 bc 68 25 69 be 86 d6 bb bd
       -0.13589627 -0.03009968 -0.22768176 -0.091717765
000150 c6 85 88 bd 26 08 53 be ce fc 19 3e 1c 75 5e 3e
       -0.0666614 -0.20608577 0.15037844 0.21724361
000160 56 6e 5f be 73 c0 52 3d e9 a2 8d bd e0 76 89 be
       -0.21819434 0.051453065 -0.06915838 -0.26848507
000170 f6 e6 46 bd 0d f9 d7 3e 73 de c4 3d 2c 72 6c be
       -0.048560105 0.42182198 0.09612741 -0.23090428
000180 f5 a9 78 3d 51 a8 14 3d ca 9a 86 be 6c e7 f2 3c
       0.06070896 0.03629333 -0.2628997 0.029651366
000190 28 2e 8b bc e6 d8 4e 3e 02 4a f5 3d 52 db 07 be
       -0.016989782 0.20199928 0.119770065 -0.13267258
0001a0 af 29 7d 3e d4 a4 0e 3e e4 b7 20 3e da 4a 70 3e
       0.24722932 0.13930064 0.15695149 0.23466054
0001b0 0c 9e 35 3e dd 7e ff 3b 1d 42 d4 3e fe c6 d6 3e
       0.17736071 0.0077971057 0.4145669 0.41948694
0001c0 26 e8 c3 3d 32 a1 e5 3d 16 eb b5 3d e2 08 82 3e
       0.09565763 0.11212386 0.0888273 0.25397402
0001d0 9d 40 30 3e 41 d8 50 be 07 4d 26 be 75 6f ed bd
       0.17212148 -0.20394994 -0.16240321 -0.11593524
0001e0 4d c6 64 be d7 94 77 be b4 32 60 3c e9 6a e0 3c
       -0.2234127 -0.24177872 0.013683964 0.027394729
0001f0 c1 25 25 be 46 2e 75 be ed 7c c0 be fd a6 9b be
       -0.16127683 -0.23943433 -0.3759531 -0.3040084
000200 89 40 f4 3c 0e 50 dc 3d c0 c3 64 3e 82 c1 2d 3e
       0.029815929 0.10757457 0.22340298 0.16968349
000210 01 79 22 3d b2 bc 1a 3d 21 5a 2f 3d 52 43 d9 bd
       0.03966618 0.03777761 0.042810563 -0.106085435
000220 a7 49 fd bb 52 fa 19 be 8f af f9 bd 16 8e 6f 3e
       -0.0077297273 -0.15036896 -0.12191688 0.23394045
000230 79 6e 39 3e 82 55 f2 3d 4f 17 af 3e e9 e5 9d 3d
       0.18108548 0.118327156 0.3419747 0.077098675
000240 86 67 f1 bd e0 da 1d be 52 da 09 be 4d 00 8e be
       -0.11787324 -0.15415525 -0.13462189 -0.27734604
000250 cd 70 46 be b4 74 f4 bc b1 37 48 3d f7 ae 39 be
       -0.19378968 -0.029840805 0.048881236 -0.1813315
000260 75 e9 86 3e b5 8e 18 be dc 63 10 bd 2f 76 88 be
       0.2634999 -0.14898188 -0.035251483 -0.26652667
000270 e7 25 f9 3c 08 02 87 3e f9 55 c5 3e d6 c5 29 bb
       0.030413581 0.26368737 0.38542154 -0.0025905273
000280 63 01 28 3e 76 71 04 be e1 b9 14 3d 41 1f 30 be
       0.16406779 -0.12933907 0.03631008 -0.17199422
000290 59 83 73 be 16 5a 92 3d bf fd a9 bd 05 6d 78 be
       -0.23780574 0.07146089 -0.08300351 -0.24260338
0002a0 9d 8a 45 3e fa fc a9 bd e0 95 9c 3d 20 d4 51 3e
       0.19291158 -0.083002046 0.07645774 0.20491076
0002b0 ff d7 7d 3e de 03 c3 3e bb 92 65 3e bd 29 b6 3e
       0.24789427 0.38088888 0.22419254 0.3557872
0002c0 b8 73 25 be 31 b0 85 3e 35 d4 b0 bd cf 9a d0 3c
       -0.16157424 0.26110986 -0.08634225 0.025464443
0002d0 bc fa 0a bd 98 43 5b be 08 61 83 3d 0a 28 73 3e
       -0.033930525 -0.21412504 0.064149916 0.23745742
0002e0 17 43 ab 3e 4c 66 d3 bd ca 97 66 3e c6 a6 d4 bd
       0.33449623 -0.10322246 0.2251884 -0.10383372
0002f0 43 10 35 3e 19 fd 73 3e e3 80 3e bc 4a 9c 96 3e
       0.17681985 0.23827018 -0.011627409 0.29416114
000300 bf a4 ce 3d 09 c1 b6 bd ad bc c0 bd a4 bd 95 3d
       0.100900166 -0.08923537 -0.09410987 0.07311562
000310 87 4b 66 3e b5 f4 3b 3d d9 63 62 be 2d 0f 82 bd
       0.22489749 0.045887668 -0.22108401 -0.06350551
000320 9d 53 8f be 62 d8 31 be e8 df 9f bd a4 f8 fc bd
       -0.2799348 -0.173677 -0.078063786 -0.12352112
000330 80 ef 15 be a5 8a 5b 3e dc 6e 8e be 78 8f 87 bd
       -0.14642143 0.21439607 -0.27818954 -0.06619161
000340 12 a5 39 3d 74 11 46 be db df f7 3d b8 13 ab 3d
       0.04532344 -0.19342595 0.12103244 0.083533704
000350 97 fe 8a bd 84 c1 53 bd 9a fa 6e be 00 40 75 be
       -0.067868404 -0.051698223 -0.23337784 -0.23950195
000360 c4 19 00 be 8b e5 7d 3e 60 68 82 be 5e 18 03 be
       -0.12509829 0.24794595 -0.25470257 -0.12802264
000370 bf 59 54 be 65 cd 99 be 34 00 e1 be 3c c0 90 be
       -0.2073736 -0.30039516 -0.43945467 -0.28271663
000380 58 b5 30 3e 60 b7 21 be c6 61 67 be 38 26 36 3e
       0.17256677 -0.15792608 -0.22595891 0.17788017
000390 4a c3 1f 3e 43 56 7f 3d 74 53 eb 3d 3c e9 53 be
       0.1560184 0.062338125 0.11490527 -0.2069444
0003a0 79 32 c1 3e 88 08 97 3d 73 65 17 3e eb d2 8c 3e
       0.3773382 0.07374674 0.14784794 0.27504668
0003b0 cc 03 c7 bd 27 48 87 3e 81 c5 88 3e 51 97 81 3e
       -0.09717521 0.26422235 0.26713184 0.25310758
0003c0 18 f2 7f 3d 8d 1f 36 be 53 00 64 bd 7f 72 dd bd
       0.062486738 -0.17785473 -0.05566437 -0.10812854
0003d0 f3 32 4c bd 20 a6 75 bc 7b e5 7e bd db 08 71 3e
       -0.049853276 -0.014993221 -0.06223057 0.23538534
0003e0 05 cc 9a 3e e6 29 1b 3e 7d 11 7a be 77 8a fd 3d
       0.3023378 0.15152702 -0.24420734 0.12379926
0003f0 da 45 75 3b f8 d1 90 bd 19 3b 95 3c 52 91 9d bd
       0.0037425668 -0.07071298 0.018216657 -0.07693733

bias f4 [128]
000000 30 29 18 3e 28 36 34 3e a3 88 bb bd f3 21 6d bd
       0.14859462 0.17598784 -0.09156921 -0.057893705
000010 8a bd bf bd 97 a5 33 3d 36 cd 77 be 72 95 78 3e
       -0.093623236 0.04385909 -0.24199376 0.24275759
000020 12 15 4c 3e 61 f9 80 bd 14 11 8a be c3 69 2e 3e
       0.19929913 -0.06297565 -0.26966155 0.17032532
000030 0b 0d 15 3e 3f d5 87 bc a4 7e 74 be b2 bc 46 3e
       0.14555757 -0.016581176 -0.23876435 0.19407919
000040 7c ba bf 3d b9 af 4f 3d 9e 37 69 be b2 ca cd bd
       0.09361741 0.05070469 -0.22775123 -0.10048427
000050 dc bb 08 3e 4e e8 7a be 5c 7f 4b be 9e 7f 06 3e
       0.13352913 -0.2450268 -0.19872802 0.1313462
000060 68 bc 70 bd b3 17 03 3e 2d 3e 06 3d cf 3e 4c 3e
       -0.05877343 0.1280201 0.03277414 0.19945835
000070 5e 64 0c be 43 da 2f be 4b fe b9 bd 4c 2f 2f 3e
       -0.13710162 -0.17173104 -0.09081706 0.17107886
000080 b6 14 b2 bc f6 2c 3b be 09 4a 5a 3e bb 5a fd bd
       -0.021738391 -0.1827887 0.21317305 -0.12370821
000090 5d 7e 70 bd a5 00 0a 3e 5f fc bc 3d 7b b7 5d bd
       -0.05871426 0.13476808 0.092278235 -0.05413006
0000a0 7d 39 b3 bd 38 d3 7d 3d 9f 9c 80 3d 2e 37 24 be
       -0.087511994 0.061969012 0.06279873 -0.16036674
0000b0 c7 ae ea 3d 56 ea 44 be f6 21 72 be cd cf c7 3d
       0.114591174 -0.19230017 -0.23645768 0.09756432
0000c0 04 f2 a5 3c 4e 29 1d be 47 7b 06 be 70 cf ed bd
       0.020257004 -0.15347788 -0.13132964 -0.11611831
0000d0 6b 47 0b 3e 79 2c 73 3e f0 c0 b6 3d bf 82 4c be
       0.13601463 0.23747434 0.08923519 -0.1997175
0000e0 32 0d b9 3d 2f 4f 18 be 5d ff 8f 3d 1c fb 61 3e
       0.0903572 -0.14873956 0.070311286 0.22068447
0000f0 6d fc 7a 3d ff d2 67 be 3e a7 8b 3d 53 52 37 3e
       0.06127589 -0.22639082 0.06819008 0.17902498
000100 00 79 b9 3d e3 1e e7 3d cc 82 22 be f5 29 41 be
       0.09056282 0.11285188 -0.15870208 -0.18863662
000110 41 73 e8 bc 7d c6 65 be ad f4 d7 bd c0 ab c9 3b
       -0.02837527 -0.22438999 -0.10544715 0.0061545074
000120 53 23 1f 3e 34 74 ac bd d9 64 e6 3c f2 98 d4 3d
       0.15540819 -0.084206015 0.02812426 0.103807345
000130 95 bc 0b 3e 3a 09 94 3d 6d 6d 43 3d 67 c4 44 be
       0.13646157 0.07228322 0.04771178 -0.19215547
000140 ae 10 3d 3c 61 9c 87 3d 1d ce 42 be 33 20 01 3d
       0.011539621 0.06621624 -0.19023938 0.03152485
000150 3f f1 3a be fb 4a 39 3e 6e 33 1b 3e 99 77 fc 3d
       -0.1825609 0.18095009 0.15156338 0.12327499
000160 4e a0 78 be 91 14 f5 3c 8b 9e 11 bd 04 b5 df bd
       -0.24279901 0.029917033 -0.03555159 -0.10923198
000170 a9 09 c4 bd c5 35 a6 3d 51 9a 5c bc 0c 5e f0 3d
       -0.09572155 0.081157245 -0.013464526 0.11736688
000180 ae 0c 91 3d 4a 2a b6 bb b1 9c 52 be c9 ba 5a 3e
       0.070824966 -0.0055592405 -0.20567586 0.21360315
000190 a3 21 d9 bd 69 07 f4 bb 77 81 0a 3c e9 82 cb 3d
       -0.10602119 -0.0074471724 0.008453718 0.099370785
0001a0 3c 25 16 be 2f ce d7 3d 84 16 87 bd 66 36 fd bd
       -0.14662641 0.10537373 -0.065960914 -0.12363891
0001b0 ef 8f 1d 3e 08 11 19 3e 72 0e 11 3e 8b 6d 18 3e
       0.15386938 0.14947903 0.14165667 0.14885537
0001c0 0a bb 2e be 0f be 09 be 64 50 f6 3d 8c a7 76 be
       -0.17063537 -0.13451408 0.12027052 -0.24087352
0001d0 99 10 4a 3e 0b c4 2f 3e 4d 46 29 be 97 29 6c bd
       0.19732894 0.17164628 -0.16530724 -0.05765685
0001e0 c4 9e 01 be 18 aa 85 be 0a 63 66 be ae 7d cc bd
       -0.1265822 -0.26106334 -0.22498718 -0.09984909
0001f0 56 f2 30 be e7 8f 82 3e 54 0d d1 3d a0 43 d5 3c
       -0.17279944 0.25500414 0.1020762 0.026033223

weight f4 [128, 136]
000000 18 5d 89 3d d5 41 c8 3c 06 b5 84 3d b7 6b 25 bd
       0.06707209 0.024445454 0.0647984 -0.040385928
000010 9f dc 0e 3c fd 4c 90 3c 9d 82 f3 3d 5b 3a 5c 3d
       0.008719592 0.017614836 0.11890147 0.05376659
000020 b7 f9 c5 bc 3c 2a 97 3d 28 6c c5 3d da 17 9e 3d
       -0.024166925 0.073811024 0.0963977 0.07719393
000030 59 b8 3f bd c7 25 07 be d1 61 fa 3d 77 90 18 3d
       -0.046806667 -0.13198005 0.12225688 0.037247147
000040 b7 1c a1 3c 8c 98 7d 3c 75 68 3d bd 83 2f 80 3d
       0.019667013 0.015478265 -0.046242196 0.06259062
000050 a4 b4 f3 bc 83 27 c1 bd e4 c5 82 3c 43 d3 9f 3d
       -0.029749222 -0.094313644 0.015963502 0.07803967
000060 45 4f 48 3d f6 e1 7b bc 5c 75 90 bd b4 5c bf 3c
       0.048903722 -0.0153736975 -0.070536345 0.023359634
000070 e7 58 e7 3d a6 c8 5d bd fb 7f 20 bd 3f 48 fc 3d
       0.11296254 -0.05414643 -0.03918455 0.12318467
000080 18 de 66 3d 0c e8 cb 3d 6e 4f ec bb d8 cf 3f 3d
       0.05636415 0.09956369 -0.007211617 0.046829075
000090 5a db 16 bd 54 1a 8c bc 2e 2a 3b 3d 52 f8 40 bc
       -0.036830284 -0.017102398 0.045694523 -0.011777954
0000a0 b6 eb 02 be 89 2c 6d bd d5 64 b5 bd a2 29 21 bd
       -0.12785229 -0.0579038 -0.08857123 -0.039346345
0000b0 1e fb ea 3c ec 93 c6 bd bd 9a 2a 3d 5b 53 81 bd
       0.028684195 -0.096961826 0.041651476 -0.06314727
0000c0 dc ea 02 3e 73 1e bb bd f8 a2 8e 3d 02 a1 90 3d
       0.12784904 -0.09136667 0.069646776 0.0706196
0000d0 27 57 47 bc e8 40 38 3d 84 6a e0 3c f1 9d d8 bd
       -0.012166775 0.044983774 0.02739454 -0.10577
0000e0 ce 96 fe 3d 6c d3 9a 3c 89 19 b4 3d a7 e9 20 bd
       0.124311075 0.018899642 0.08793933 -0.03928533
0000f0 f1 da e5 bd 8c 6d 58 bd 62 34 32 3c 5b a0 56 bd
       -0.112234004 -0.052838847 0.010876747 -0.05239902
000100 eb 79 1d 3d e5 ea 25 bd 2f cc 2f 3d d9 e2 ce 3d
       0.03844635 -0.040507216 0.042919334 0.101018615
000110 0e 49 5f 3c d4 d4 88 3c 25 f5 88 3d c4 89 f5 bd
       0.013628257 0.016703047 0.066873826 -0.11989167
000120 56 ce 89 3d 2b e7 ae 3d 48 bc c7 3c c5 d6 86 3d
       0.067288086 0.085401855 0.024381772 0.06583933
000130 56 9d 4d 3d a1 32 ae bc 32 06 46 3d 12 14 89 3d
       0.050198875 -0.021264376 0.048345752 0.06693281
000140 43 24 ed 3d a2 45 c5 bd af 07 a5 3d 27 f7 f3 3c
       0.11579182 -0.09632422 0.08058106 0.029780937
000150 0f ac 96 bd df 48 a2 3d a5 b0 27 bb 8f 0d 2b ba
       -0.07357036 0.07924055 -0.0025587466 -0.0006525153
000160 38 b3 6a 3b 96 0b f1 bc 72 89 d4 bd d2 80 0b bd
       0.003581239 -0.02942447 -0.10377778 -0.0340584
000170 17 48 67 bd d1 4a e5 3d 25 cf aa 3d 11 1c fe 3d
       -0.056465235 0.11195911 0.08340291 0.12407697
000180 25 c9 e4 bd bd 3e 01 3e 8e 5e 82 bd 48 31 c1 bb
       -0.11171178 0.12621589 -0.06365691 -0.0058957674
000190 3d bf e6 bd a0 ec 2c 3c 64 99 6e bd ba 94 c6 bc
       -0.112669446 0.010554463 -0.058251753 -0.02424084
0001a0 da 4f a4 3c f3 d9 14 3e fc 7c 85 bd d2 3e a3 bc
       0.020057607 0.14536266 -0.065179795 -0.019927416
0001b0 3d 57 97 bd 71 07 d1 bc 6e ff a0 bd 08 e5 d0 3d
       -0.07389686 -0.025516244 -0.07861219 0.10199934
0001c0 f9 4e 68 bd e9 67 64 bc 8e 72 90 bd 5f 7f a2 3c
       -0.05671594 -0.01394079 -0.070530996 0.019836126
0001d0 9d ee 98 3d b2 20 e9 bc 2f e8 91 3c 07 6b cd 3d
       0.07467387 -0.028457973 0.01781091 0.100301795
0001e0 ce d3 24 bc cf 77 0b 3d 6a ff 81 3d cc 6d cb bc
       -0.010060264 0.034049805 0.063475445 -0.024832629
0001f0 4f e4 01 3c 64 dd ec 3d 52 d6 03 3e fb e8 35 3d
       0.007927968 0.115656644 0.12874725 0.04441164
000200 be df a9 bc d0 8c f1 bc 11 e3 85 3c 7a 8a 79 bd
       -0.020736571 -0.02948609 0.016343625 -0.060923077
000210 c8 e0 c1 bd 13 2f a4 3d af ff d1 3d 07 cb b4 bc
       -0.09466702 0.08016791 0.10253846 -0.022069467
000220 cc 85 11 bd 48 2d 4f 3c 3a 56 d8 3d 2c a8 ba bc
       -0.03552799 0.012645073 0.105633214 -0.022785269
000230 fc f0 c4 3d f8 87 56 3b 4f c7 98 3d 43 2d 84 3c
       0.096162766 0.0032734852 0.0745989 0.016134864
000240 b6 e9 30 3c b8 f3 24 bd 55 c8 81 bd 95 9a 7b bd
       0.0107979085 -0.04027149 -0.063370384 -0.061426718
000250 3c 39 4c 3d 8f 81 64 bd 69 44 d3 3d 49 88 55 bc
       0.04985927 -0.05578762 0.103157826 -0.013032981
000260 c4 3f 5f 3c 13 64 5b bc c3 f9 15 3d 1c 9e 02 3d
       0.013626043 -0.013390559 0.036615144 0.031889066
000270 9b f2 11 3d 3f 4c 3c bd dd 32 87 3e c1 4f 4c bc
       0.035631757 -0.04597115 0.26405993 -0.012470187
000280 50 a0 04 3e 56 aa 17 bd f6 fd d8 3c e9 b5 ed bc
       0.1295178 -0.03702768 0.026488286 -0.029017406
000290 2c f3 89 bc a8 98 80 3d fc 6f d9 bc 7b ab 06 3d
       -0.016839586 0.06279117 -0.026542656 0.03287838
0002a0 75 04 b7 3d d7 bc 11 3d a5 c0 e9 3d 04 36 5b bd
       0.08936397 0.035580482 0.11413697 -0.05351831
0002b0 50 eb e4 3d ce a1 cd bd ef 59 83 bd 70 96 41 3c
       0.11177695 -0.100406274 -0.06413638 0.011815652
0002c0 1a 4f 25 3a d2 f7 2c 3d 83 3f d7 bc 61 81 72 bd
       0.00063060375 0.042228527 -0.026275402 -0.059205417
0002d0 0c d1 54 3d f8 35 aa bd d2 71 a7 3c 8c 3d 26 3d
       0.051957175 -0.08311075 0.020440016 0.04058604
0002e0 24 6f 3c 3c 58 30 8c 3c 5b bf 12 bd 4f e9 8e 3d
       0.011501107 0.017112896 -0.035827022 0.06978094
0002f0 3b 9f 15 bd eb f3 75 3d 25 30 86 bc 89 b3 1a be
       -0.036528807 0.06004707 -0.016380379 -0.1510755
000300 f8 61 57 3e a0 28 2a bb ff e6 68 bd 5b 22 e3 3d
       0.21033466 -0.0025964156 -0.05686092 0.11090537
000310 de 51 56 bc 40 3d 83 3e 3d bf 25 bd 42 30 b4 3d
       -0.013081042 0.25632668 -0.040465582 0.08798267
000320 e5 e2 85 bb 34 08 c0 3d 11 79 56 3c dc 1b cf 3d
       -0.004085886 0.093765646 0.013090388 0.10112736
000330 9a e7 0a 3d bf c5 62 bd c3 54 7b bd e7 a5 94 bd
       0.03391228 -0.055364367 -0.061360132 -0.07258206
000340 40 be d5 bc 9a e2 04 3e 59 31 dd ba 62 c1 33 3c
       -0.026091695 0.12977067 -0.0016875669 0.010971399
000350 fa 4e 46 3d 94 50 03 3d d1 62 54 3d d6 9e 20 bd
       0.04841516 0.032059267 0.05185205 -0.039213978
000360 60 7f ba bc fe 85 c8 3d f7 48 10 3d 88 06 13 bd
       -0.022765815 0.09791182 0.035225835 -0.0358949
000370 a4 c9 30 3d 61 c2 4c bd b4 ec d8 bd 5e df 21 3d
       0.04316105 -0.04999006 -0.105920225 0.03951966
000380 a8 51 76 3c 66 28 66 bd a7 14 2b bc e6 cd a1 3d
       0.015034117 -0.05619087 -0.010441936 0.079006
000390 08 09 26 3d e2 7a a4 bd 11 45 6e be 40 35 d5 3c
       0.040535957 -0.080312505 -0.23268534 0.026026368
0003a0 43 a7 00 3c e9 b6 69 bd 36 8e b8 bd 60 c3 9d bd
       0.007852378 -0.057059202 -0.090114996 -0.077032804
0003b0 cf 63 81 bd cc d8 46 bd 28 4f 80 bd fc f5 51 bc
       -0.06317865 -0.048546597 -0.06265098 -0.012814995
0003c0 ee 31 72 bd 35 f8 08 bd a3 a8 ad 3b 1f 04 b4 3d
       -0.059129648 -0.033439834 0.005299644 0.087898485
0003d0 07 e1 52 be a8 ae 73 bc 17 3d da bb 3b 01 42 3d
       -0.20593654 -0.014873184 -0.0066601145 0.047364455
0003e0 ba 2f a1 bd 24 ac 20 bd 4f 96 b5 bd c8 3b 28 bd
       -0.07870431 -0.039226666 -0.0886656 -0.041072637
0003f0 94 bf 38 3d 5f a5 01 bd 7a 7e 41 bb 42 dc 25 3d
       0.04510458 -0.03165185 -0.0029524849 0.040493257

bias f4 [128]
000000 2c 36 dc 3d fb 09 27 3d ca 3d bd bb 0d cf 36 3d
       0.1075252 0.040781002 -0.005775188 0.044631053
000010 4c 3f 83 3d 88 af be 3d fe 76 58 3c 4a 08 e0 3c
       0.06408557 0.09310824 0.013211964 0.027347703
000020 0e e1 ea bd 55 db 04 bc c0 70 3d bd 3a 4a a7 bb
       -0.11468707 -0.008108933 -0.046250105 -0.005105284
000030 c8 6d 38 3d 25 e3 74 3c 6f 68 9d 3d cc 8b 25 3d
       0.04502657 0.014946734 0.07685935 0.040416524
000040 4a 0c 65 bd a1 ef bd bc 5c 9f 05 bd 37 cd 82 3c
       -0.055919923 -0.023185553 -0.03262268 0.015966995
000050 89 e2 98 3d 1b 88 bd 3d ed 4a 8f 3d 49 7b 56 3c
       0.07465083 0.09254476 0.06996713 0.013090917
000060 95 76 88 3d 19 61 71 3b 2f 16 4a 3c a4 60 c7 bd
       0.06663243 0.0036831556 0.012334391 -0.097352296
000070 79 17 37 3c 5d 9b e2 3c e9 cf fb 3d 30 ea 83 3d
       0.01117503 0.027661974 0.12295515 0.06441152
000080 49 c8 9f 3d 4f 4e 7d 3d 4c e1 e2 bc a9 dd d1 3d
       0.07801873 0.06184226 -0.02769532 0.102473564
000090 0d 5b 03 bd 45 ce b9 3d f5 62 bf 3b 14 36 65 3d
       -0.032069255 0.09072546 0.005840654 0.055959776
0000a0 4c 98 0f bd a4 56 43 bd 18 6d 99 bc 16 71 58 3d
       -0.03505735 -0.04769005 -0.018728778 0.052842222
0000b0 fb 8b 22 3d fd c7 31 3c 01 29 63 3d 0a 93 c4 bc
       0.039684277 0.010850904 0.055459026 -0.023995895
0000c0 3d dd 97 3d 40 c9 41 3d 57 01 70 bb 60 6f 3b 3d
       0.07415245 0.047311068 -0.0036621892 0.045760512
0000d0 20 0d fb bc 24 2c 6d bc e9 ab 56 3d db f6 7a 3b
       -0.030645907 -0.014475856 0.05241004 0.003829411
0000e0 e6 ae ee 3c 47 db a1 3c 59 a0 83 bd ab 2b b3 3d
       0.029136132 0.01975788 -0.06427068 0.087485634
0000f0 66 80 9d bc be 04 6d 3d 4d b0 cd 3d 05 61 a8 3d
       -0.019226264 0.05786585 0.10043392 0.0822163
000100 73 0f 45 3d 92 6a b2 3d 86 fa 2c bd f4 96 7f 3d
       0.048110437 0.08711733 -0.042231105 0.06239982
000110 f7 58 82 bd ca 2f 3d bd 01 c9 e8 bd d2 a4 db bb
       -0.06364625 -0.046188153 -0.113664635 -0.0067029977
000120 9a 7e e9 3b d7 0b 79 bd 7e e3 49 3c 4f c8 63 bd
       0.007125688 -0.060802307 0.012322305 -0.05561095
000130 4b 24 e6 bd b4 b2 3e 3a 2e fc 28 bd 7f 10 bc 3d
       -0.11237391 0.00072745536 -0.041256122 0.09182834
000140 cb 3d 2a 3c 50 8a 07 3d 5f 17 d3 3d 2a 14 08 bd
       0.010390709 0.03309089 0.10307192 -0.033222355
000150 56 0c 99 bc 51 cb 82 3d 06 90 c1 3d d7 d9 44 bc
       -0.01868264 0.06386436 0.094512984 -0.012014828
000160 88 7c 47 bd 7c 4f 7e 3d 3c eb c9 3c b7 92 c4 3d
       -0.048702747 0.06208752 0.024648301 0.09598296
000170 41 09 5b 3d f4 d9 91 b9 b4 8f 6e bd 4b 69 b1 3d
       0.053475622 -0.00027818943 -0.058242515 0.08662661
000180 a3 bd 91 bd 14 ba 2f 3d ea c6 67 3d 60 fa a0 bc
       -0.071162485 0.042902067 0.056586184 -0.019650638
000190 13 8c 5a 3d c3 f3 20 3d 09 52 c8 bd e4 6e 5a bd
       0.05335624 0.03929497 -0.09781272 -0.05332841
0001a0 17 ae ce 3d e1 70 ff 3c 9d 9e 0e bd d9 d8 9e 3d
       0.10091799 0.031181755 -0.034819234 0.07756204
0001b0 f3 89 e1 bc d7 40 35 bd 52 8d 32 3d 27 6c b3 3d
       -0.0275316 -0.04425129 0.043591805 0.08760863
0001c0 3e 77 df 3c 84 f0 6d bd 36 21 0a 3d 53 b8 93 bd
       0.027278539 -0.0580907 0.03372308 -0.072128914
0001d0 84 96 d4 bc 5e 09 17 3c 44 cb 9b bd e2 81 34 3d
       -0.025950678 0.009218542 -0.07607129 0.04406918
0001e0 af 59 0f bc dd aa aa bd 54 d5 93 3b 20 51 cf 3c
       -0.00874941 -0.08333371 0.0045115147 0.025307238
0001f0 f9 b1 80 3d 73 84 5f bc 3f 59 76 3d e1 55 be bc
       0.062839456 -0.013642418 0.060143705 -0.02323431

weight f4 [8, 128]
000000 6d d7 ab bd ec 2e af 3d 56 82 3e 3d 94 04 cb bd
       -0.083906986 0.085538715 0.046511017 -0.099129826
000010 40 cd cc 3c b4 ea 91 3d b3 20 be 3d 6c cb d1 3b
       0.025000215 0.07124844 0.09283581 0.0064024236
000020 27 b6 3b bd 25 85 26 3e 6e 63 28 3d 44 94 16 3e
       -0.04582801 0.16261728 0.04111045 0.14704996
000030 ae 04 2f 3d df 75 c4 bd 70 8b a7 3c 15 3a 2e 3d
       0.042729072 -0.095927946 0.020452231 0.04253586
000040 7d d5 53 bd 6b 43 03 bd 47 ee 73 3d f4 1d be 3d
       -0.05171727 -0.032046717 0.05955341 0.09283057
000050 bf 6b 3f 3e d0 d3 da 3d 46 49 39 bd a7 92 e5 bd
       0.18693446 0.10684931 -0.045235895 -0.11209612
000060 1a eb 95 bd 2e e7 2e 3d fc f8 c6 bd 88 b6 82 bd
       -0.07320233 0.04270094 -0.09715459 -0.06382471
000070 2d 48 2d 3c 9e 24 4a 3d ce 9c f1 bd 2c b7 d0 bc
       0.01057629 0.049351327 -0.11797486 -0.025477968
000080 10 23 71 3d fc 5f 3d 3d 1c 44 3e bd 82 4c e0 bd
       0.05887133 0.046234116 -0.046451673 -0.10952093
000090 79 52 ba bc d8 2b 67 bb 32 51 8b 3c f2 11 be bd
       -0.022744404 -0.0035273936 0.01700649 -0.092807665
0000a0 d6 8e f6 bb 5b a0 34 3b 16 95 06 be 04 f9 2d 3d
       -0.0075243516 0.00275614 -0.1314281 0.042473808
0000b0 b4 73 01 3c 91 f2 ed 3d 1e 18 cb 3d 42 4a 14 3c
       0.007901121 0.116185315 0.09916709 0.009050908
0000c0 3c 46 f7 bd b6 13 97 3d 90 79 ee 3d ee 44 8b bd
       -0.12073943 0.073768064 0.1164428 -0.06800257
0000d0 3b 4f 3e 3d 58 01 e1 3d 29 32 64 bc 5f 7c 1e be
       0.04646228 0.109865844 -0.013927975 -0.15477131
0000e0 96 72 eb bd 43 d3 bf 3d fa ea a9 3d 78 89 26 3d
       -0.11496465 0.09366467 0.08296771 0.040658444
0000f0 ff 6e 57 bc bc fc 17 bd e8 af 37 ba d4 ed 0e 3d
       -0.013149022 -0.03710626 -0.0007007108 0.03489478
000100 23 3b bf bd 06 ce a4 3d 8a ac e5 3c 1e 7f b4 bd
       -0.09337451 0.08047108 0.028036375 -0.08813308
000110 1d 2a c5 3d 2a 66 f1 3d 7c 15 98 bd b0 5b 35 bc
       0.09627173 0.117870644 -0.07425973 -0.011069223
000120 c4 91 88 3d 27 44 89 bd e6 97 43 3c dd f3 7d 3c
       0.066684276 -0.06702452 0.011938071 0.015500036
000130 79 de 97 bd 44 3d f4 3d e8 06 3b 3d bd f6 f1 bd
       -0.0741548 0.11925748 0.045660883 -0.1181464
000140 fa 59 15 bd 7e 65 49 3d 2e ce b3 bc be a0 0e be
       -0.03646276 0.049169056 -0.0219489 -0.13928506
000150 18 ad 14 be 51 5a c0 3d c3 35 44 3b f9 be fb 3c
       -0.14519155 0.093922265 0.002993927 0.030730711
000160 ad 0b 37 3d 61 34 0c be 5a 33 70 bd 63 04 e8 3c
       0.04468887 -0.13691856 -0.058642723 0.028322404
000170 e4 fb bd 3c 85 91 df bc c3 38 0d 3e 4b 36 07 be
       0.0231914 -0.027291069 0.13791184 -0.13204305
000180 34 fa aa 3d 4c 87 d4 bd 14 82 85 bd db 85 f1 bc
       0.08348504 -0.10377368 -0.06518951 -0.029482773
000190 30 60 22 bd c3 e0 87 3d 19 9b a1 bd c2 b5 77 bd
       -0.039642513 0.06634667 -0.07890911 -0.060476072
0001a0 b5 7a 1b 3e 8e 9a 57 3d 2e 20 92 bb d4 77 c0 bc
       0.15183528 0.05263763 -0.0044594025 -0.023494639
0001b0 91 b7 33 3d 8a 6b 05 be 09 1c 82 bc 27 87 dd bb
       0.043876234 -0.13029304 -0.015882509 -0.006760496
0001c0 ae cd 39 3d bb 7a 82 3d 5f a3 c9 bd 63 66 fa bc
       0.045362167 0.06371065 -0.09845614 -0.0305664
0001d0 60 1f 87 3d d1 0a f8 3c fe 22 d5 3c 1f 31 1e bc
       0.06597781 0.030278595 0.026017662 -0.009655266
0001e0 8b c1 1f bc 32 f2 5c bd fc fc e2 3c 87 10 8f 3d
       -0.009750734 -0.053941913 0.027708523 0.06985574
0001f0 ae df e5 3d 70 dd c8 3d 52 35 6a 3d 52 ae 99 bd
       0.11224304 0.09807861 0.057179756 -0.07503952
000200 2c ac 1d bd f6 c4 d7 3c 67 94 bd bd 98 98 94 3b
       -0.038494274 0.026339035 -0.09256821 0.004534792
000210 6f 29 8c bd fc c6 03 bd d1 b3 c1 3d d5 a8 95 3d
       -0.0684384 -0.03217219 0.094581254 0.07307593
000220 c7 ea a9 3d e6 b2 da bd a1 6d d5 3c c2 8d 9d 3d
       0.08296733 -0.106786534 0.026053252 0.07693054
000230 f0 9b dd 3b 6c 20 37 bd 38 32 70 3e 98 13 4e 3c
       0.006762974 -0.044708654 0.23456657 0.012577914
000240 47 68 c1 3d ac 2e 19 bd df 34 43 bc 2b 79 10 3d
       0.094437174 -0.037398025 -0.011914461 0.035271805
000250 9a 79 b5 3b ad 6e 6e 3b 5b d4 e7 3d ff 2b 62 bb
       0.0055381777 0.0036381886 0.113198005 -0.0034511087
000260 09 58 16 bd 3c 90 1e 3e 44 70 43 3d 4e f1 50 3d
       -0.03670505 0.15484709 0.047714487 0.051011376
000270 cf 60 b0 3d 08 20 dd 3c 86 7a 59 bc 34 96 bf 3c
       0.08612215 0.026992813 -0.013273841 0.023387052
000280 92 a6 8d bd 68 08 34 3c 05 d5 f9 3c 6a 92 54 bd
       -0.069165364 0.010988332 0.030497083 -0.051897444
000290 72 63 d1 3c 3c c4 cb bd bd 0d 95 3d bb 1f 0e bd
       0.025560115 -0.09949538 0.07278011 -0.03469823
0002a0 26 d9 56 3b e3 8c 8b bd a3 9f 4b 3d 5b eb 1e bd
       0.003278324 -0.068139814 0.04971279 -0.03879867
0002b0 bb cb de bd 3c 9d 8e 3d 5b 88 a3 3d 72 f5 0b be
       -0.10878702 0.06963584 0.07984992 -0.13667849
0002c0 fe d0 e3 bc 73 4a 25 bd c9 f4 9a bc 5d 12 1e bd
       -0.027809616 -0.040354203 -0.01891555 -0.03859173
0002d0 15 52 a6 bd 1a e3 2e bd 32 13 94 3c 7a 29 fa 3c
       -0.08121125 -0.04269705 0.01807556 0.030537356
0002e0 86 0d 42 3d aa 77 23 bd c4 3a 9f 3d 64 3d fa 3d
       0.04737618 -0.039909042 0.077748805 0.122187406
0002f0 8c 8a a9 bc 11 94 a7 3d 16 5b ed 3b 95 1b 36 3d
       -0.020695947 0.08182538 0.0072435243 0.044459898
000300 67 70 85 3d f1 82 c2 3d a3 89 4e bd 28 42 44 3d
       0.0651558 0.09497631 -0.05042423 0.047914654
000310 de 7b 56 bd fd ee 38 3d 5a 8b 47 3c 05 dd de 3d
       -0.052364223 0.045149792 0.01217922 0.10882
000320 84 fa 0e 3e d7 ea 97 3d a5 d7 da bc 67 c9 7d bd
       0.13962752 0.07417839 -0.026714155 -0.06195965
000330 8a 8f 42 3d 7d d2 b5 3b 11 17 af 3d a1 d2 c9 bd
       0.04750017 0.005548774 0.085493214 -0.098546274
000340 d5 32 8f bd 57 be aa 3d df 5d dc 3c 29 02 a0 3d
       -0.06992117 0.08337086 0.02690023 0.07812912
000350 ce 7f 9e 3c 78 0c fb 3c 4b 77 fd bd 19 cc b6 3d
       0.019348051 0.030645594 -0.12376269 0.08925647
000360 c2 b7 4a bd 61 80 d8 bc e3 5a da bb 19 c4 88 bd
       -0.04949165 -0.026428403 -0.0066636666 -0.06678028
000370 ec e7 87 3d 55 9e cb bc 24 8c 4c bc a7 88 07 bd
       0.066360325 -0.024855772 -0.012484584 -0.033089306
000380 3f 41 9d 3d 9f 4b 53 3d c2 8b ec bd 62 81 b2 3c
       0.0767846 0.05158579 -0.11550094 0.02179021
000390 85 ab 29 be a8 07 85 3d 9b b3 65 b9 3f e9 d8 3d
       -0.16569336 0.06495601 -0.0002190605 0.10591363
0003a0 90 a2 a4 bd e3 aa 49 bd 90 d1 29 bc 35 24 67 bc
       -0.08038819 -0.049235236 -0.010364905 -0.0141077535
0003b0 c5 98 15 be 6d be f0 bc 92 29 28 3d f9 ce 59 bd
       -0.14609058 -0.029387677 0.04105527 -0.0531759
0003c0 55 05 85 bc 36 eb be bd 45 d9 a9 bd 58 59 79 bd
       -0.016237894 -0.09322207 -0.08293394 -0.06087622
0003d0 7e ce d9 3d 6a a7 60 bc d3 ee 8d 3d f8 87 a9 bc
       0.106350884 -0.01371179 0.06930318 -0.020694718
0003e0 77 8d 82 bd b4 54 b1 bd e8 f7 7e 3c 96 32 67 bd
       -0.063746385 -0.08658734 0.015562035 -0.056444727
0003f0 fd 5f d5 bd 8f 62 54 3d 4b b3 9b 3b f0 8e f1 3d
       -0.10418699 0.051851805 0.004751598 0.11794841

bias f4 [8]
000000 90 e4 ad bd 2a ff f6 bb 31 19 79 3b 68 6c c1 bd
       -0.084908605 -0.007537742 0.00380094 -0.09444505
000010 85 2f 1c bd 11 6a c4 3d 62 0d fd bc 41 88 89 3d
       -0.038131256 0.09590543 -0.03089017 0.067154415

weight f4 [128, 8]
000000 09 c1 81 bc 11 a9 b9 3e fb 47 5e 3e 0f 04 01 be
       -0.015839117 0.362618 0.21707146 -0.12599204
000010 95 0b e2 3d 68 7a 49 3c b5 45 fb bd aa 21 53 be
       0.11037365 0.01229725 -0.12269155 -0.2061831
000020 9e e7 a4 3d f7 73 ae 3e 48 6b d6 bd 99 fe a8 be
       0.0805199 0.3407285 -0.10469681 -0.33006743
000030 a9 fa 8e be 4f 4b 21 be a0 73 69 3e 4e 4a 17 3e
       -0.27925614 -0.15751384 0.22798014 0.14774439
000040 72 f5 1c 3e 14 7e 8d 3d 9f 11 e0 bd e9 2d 2e be
       0.15328005 0.06908813 -0.10940861 -0.17009701
000050 d3 df 51 be 35 80 fa bd 77 3f b6 3e 69 1f db 3d
       -0.20495538 -0.12231485 0.35595295 0.106993504
000060 4d 0a ca 3e 89 8e 35 3e cc a3 96 3b d6 5a 7e 3e
       0.39460984 0.17730154 0.004597163 0.24839339
000070 89 cb 93 3e 92 2d 25 3e ce a3 cc 3d 80 1e 8b 3e
       0.28866223 0.16130665 0.09992181 0.27171707
000080 38 48 80 be 02 6a 98 3e d2 5b ab be c5 f6 d1 3d
       -0.250551 0.29768378 -0.3346849 0.10252146
000090 99 f1 80 be ea b1 2a 3b da d0 a2 be 69 b5 b0 3e
       -0.25184324 0.0026045986 -0.31799966 0.34513405
0000a0 61 39 b5 3e 6e 51 0b 3e 6a 2a 3b be a9 3b 82 3e
       0.3539534 0.13605282 -0.18277898 0.25436142
0000b0 18 09 e7 bd 65 4f aa 3e 9c 6f e2 3d 51 bd c1 3d
       -0.11281031 0.33263698 0.11056444 0.09459937
0000c0 df 8f 52 bd 74 4f 48 be d2 82 20 be 5f ba 07 be
       -0.051406737 -0.19561559 -0.15674904 -0.13254689
0000d0 c3 87 a0 3e fa d8 72 bd cb 35 9e 3d 57 33 27 be
       0.31353578 -0.059288956 0.07725104 -0.16328178
0000e0 b2 11 81 be 97 ba 0b 3e c2 17 02 be 0b f2 85 3e
       -0.25208813 0.13645397 -0.12704375 0.26161227
0000f0 d2 2d 2e be 34 49 78 3e cc 6d a5 be 21 a1 0a 3e
       -0.17009667 0.24246675 -0.3231033 0.13538028
000100 30 92 b5 3e c4 4a 15 3e 3f f9 5b 3e d0 b8 a9 be
       0.35463095 0.14579302 0.21481799 -0.33148813
000110 e9 31 70 3c 32 ee 75 3e fc c1 9e 3e 38 7e 5d bd
       0.014660337 0.24016646 0.31007373 -0.05407545
000120 b9 08 3f be 5c b3 25 3e af 09 a9 be 5c 61 57 3e
       -0.18655671 0.16181701 -0.330152 0.21033233
000130 0d b4 c2 3d 7a 63 f8 bd 40 2c 9a be c6 6e 84 3c
       0.09506998 -0.12128349 -0.30111885 0.016166102
000140 ed 9f a5 3d 0d 46 77 3e 63 87 07 be 6b 54 90 be
       0.08087144 0.24147816 -0.1323524 -0.28189406
000150 db e6 fa bd 4b 1a 82 bd b2 ce 47 3c 9f 79 85 bd
       -0.122510634 -0.06352671 0.012195276 -0.06517338
000160 94 f1 d2 bd cb 24 76 3d 3d 86 9e be bc 0a 89 3e
       -0.102999836 0.060093682 -0.3096179 0.26766002
000170 7e 3d 84 be 7a e5 cc 3e 0f f1 2c bd aa e8 df bc
       -0.25828165 0.40018827 -0.04222208 -0.027332623
000180 57 f0 4d be 80 63 31 3d 8d 46 36 3e 66 2b 13 be
       -0.20111214 0.04330778 0.1780035 -0.14372024
000190 da 37 c5 3e 7d ff 57 be 43 5b 1d be 99 fb ab 3d
       0.38519174 -0.21093555 -0.15366845 0.08397598
0001a0 3b d4 9f be 6b cf be 3e 0f 25 10 be 80 7f 14 3e
       -0.31216606 0.37267622 -0.14076637 0.14501762
0001b0 c2 bb fd bd 41 8d 85 bd 95 35 36 be 1d 37 62 be
       -0.123893276 -0.06521083 -0.17793877 -0.22091337
0001c0 aa 23 eb 3d 40 0b ce 3d 3d 23 16 3e cf 41 a0 be
       0.11481412 0.100607395 0.1466188 -0.31300208
0001d0 36 8c 7d 3e c9 4a 8f 3d 0b 27 88 3e 64 3d cf 3e
       0.24760517 0.06996686 0.26592287 0.40476525
0001e0 26 5c ab be b6 50 3e 3e 11 87 c5 3d 8f c3 81 3d
       -0.3346874 0.18585476 0.096449025 0.06336128
0001f0 55 ad 97 bd d2 f7 a4 bd f0 c5 a0 be af 91 a0 3d
       -0.07406107 -0.080550805 -0.31401014 0.07840287
000200 af 90 cd be 7e 58 8e 3e 15 31 14 3e 6d 8d 0c 3e
       -0.40149447 0.2780189 0.14471848 0.13725825
000210 35 a4 06 be d5 c3 82 3e ad 63 86 3e 36 aa ed bc
       -0.13148578 0.25540033 0.26247922 -0.029011827
000220 f4 8f 3e be 9d c8 f1 3c f0 52 15 be 5f 2f f4 bb
       -0.18609601 0.029514605 -0.1458242 -0.007451936
000230 b2 4d 04 3d 1c a7 45 be 3d 46 d0 3e 7b e2 4a be
       0.03230066 -0.19302028 0.40678588 -0.19812958
000240 29 87 32 3e 15 a6 35 3e f8 47 1a bd c6 27 68 be
       0.17434372 0.17739137 -0.03766629 -0.22671422
000250 7b d6 85 be 36 ac 86 3e 62 10 1e bd 21 b7 13 be
       -0.26140198 0.26303262 -0.038589843 -0.14425327
000260 33 9d ad bc 08 0a 79 3c a8 7a 30 3e 4d 86 54 3e
       -0.021193122 0.015200146 0.1723429 0.20754357
000270 9e 8f 13 3e ff fc 55 3d 44 72 12 bc 3d ac 19 3e
       0.14410254 0.05224323 -0.008938376 0.1500711
000280 0a 80 a5 3e 53 11 5b bd da e9 88 3e 43 e6 9c 3e
       0.3232425 -0.05348332 0.26740915 0.30644426
000290 34 ec a2 be 09 b6 a3 3e 84 fd bd 3e 34 fe bd 3e
       -0.31820834 0.3197482 0.3710748 0.37108004
0002a0 6a d3 79 bd 74 40 53 bd c7 a9 a3 bd d9 44 31 3d
       -0.060992636 -0.05157514 -0.07991367 0.04327855
0002b0 c7 3e 87 3e f5 a7 9b 3e 56 6d 9f be d9 b1 9e 3d
       0.26415083 0.3040158 -0.31138104 0.077487655
0002c0 20 c6 b3 bc 1f d3 82 3e 43 73 81 be f6 dc 5c be
       -0.02194506 0.25551698 -0.2528325 -0.21568665
0002d0 18 1c be 3e 0f 12 b7 3e c8 18 4c 3e a5 d3 3d be
       0.3713081 0.35755965 0.19931328 -0.18537767
0002e0 97 9d a5 3e d5 09 db bd c7 25 f1 bc 3c eb ce 39
       0.32346794 -0.10695235 -0.029436959 0.00039466645
0002f0 80 1d 32 be 8d 3b 89 be 6f 2a 2e be d0 38 84 3e
       -0.17394066 -0.26803246 -0.17008375 0.25824594
000300 a5 24 75 be bc 8f 9f bd f0 89 6b 3e 2a bc b0 3e
       -0.2393976 -0.07791087 0.23001838 0.34518558
000310 6a a9 ac be b8 71 9f bd 0e 5f 95 3e 1c 25 41 3e
       -0.33723003 -0.07785362 0.29174083 0.18861812
000320 4f ed 85 3e f9 30 3c be 3b 69 b1 3d a9 6f 43 3e
       0.26157615 -0.18378057 0.08662649 0.19085564
000330 1e 0e 44 3e b5 8c fa bd 39 78 8d 3e 99 4f bb bd
       0.1914601 -0.12233869 0.27630785 -0.091460414
000340 64 17 db 3c 9b ac c5 3e 40 f2 d0 3d bb 30 12 be
       0.026744552 0.3860825 0.102024555 -0.14276402
000350 47 16 fd 3d f3 c4 ea 3d 3a c6 a7 3d 76 fc 98 3e
       0.12357765 0.11463346 0.081921056 0.29880112
000360 fe 51 4a be 73 9b 16 bd 39 c1 17 bd a8 7a ab be
       -0.1975784 -0.03676934 -0.037049506 -0.33492017
000370 c4 0b ba bd 68 e6 3f 3c 08 23 d2 3e f6 00 e5 3d
       -0.09084275 0.011712648 0.41042352 0.11181824
000380 9f d9 c0 3e 3a f2 1c 3d 28 c0 9a 3e 1c 47 19 3d
       0.37666032 0.038316943 0.3022473 0.03742133
000390 b7 8d 10 be 54 43 16 be 45 ab 72 3d e4 7d 8a 3e
       -0.1411656 -0.14674121 0.059245367 0.27049172
0003a0 f1 1b 6d 3e c7 60 53 3c e7 a3 75 3c a5 74 05 3c
       0.2315519 0.0129014915 0.014992691 0.008145486
0003b0 6c 38 ae be e7 8f 8d be 56 e0 8a 3e b1 2f eb bd
       -0.3402742 -0.2764885 0.2712428 -0.11483706
0003c0 d3 09 06 3e f7 69 59 be 45 31 44 3e dc 64 4d be
       0.13089685 -0.21231829 0.1915942 -0.20058006
0003d0 91 62 24 be 69 9a 9b be 46 f3 39 be de 12 7d be
       -0.16053225 -0.30391243 -0.18159208 -0.24714229
0003e0 f2 0f 47 3e fb eb 94 3e e7 d4 3b 3e f3 55 07 be
       0.19439676 0.2908629 0.18342935 -0.13216381
0003f0 00 6e 90 be 21 49 04 be 5e 8e ed 3e ec 26 94 be
       -0.28208923 -0.12918521 0.4639768 -0.28935945

bias f4 [128]
000000 5c 43 09 3c 38 c7 57 3e 66 45 b7 3e 94 25 ae 3e
       0.008377876 0.2107209 0.35795134 0.34013045
000010 37 87 1e 3e 4e ed c3 bc fc e0 36 3e 21 8e 79 3c
       0.15481268 -0.023916867 0.17859262 0.01523164
000020 40 2d 1f 3e e4 6a 33 be 29 64 32 be 3a ea 93 3d
       0.15544605 -0.17521244 -0.1742102 0.072224095
000030 a8 6f f0 bb cd 5e 7d be 43 56 9d 3e ec 5e bf bd
       -0.007337529 -0.24743195 0.30729875 -0.09344277
000040 02 8d 82 be 87 48 9c 3e 43 62 c0 bd 0f 60 bf 3d
       -0.25498205 0.30524084 -0.09393742 0.093444936
000050 14 4e 29 bc 50 11 ac 3d 3c a1 93 3e 35 e2 d9 3c
       -0.010333557 0.084017396 0.2883395 0.026597122
000060 57 ab a1 be e6 d6 98 3e 17 70 ca 3e 1b 96 a6 3e
       -0.31576034 0.29851454 0.39538643 0.32536396
000070 5e 0b b1 3e 3d 1f b8 3d 2a 8c b8 3e 5a 26 43 3e
       0.34578985 0.08990333 0.36044437 0.19057599
000080 56 48 58 bd b1 72 5b be 17 a9 d2 3d f8 c3 a9 3e
       -0.05280336 -0.2143047 0.102861576 0.33157325
000090 e6 7b 6d bd 1c bf 97 3e 97 f3 a4 3d d1 2b 84 be
       -0.057979487 0.29637992 0.080542736 -0.2581468
0000a0 59 d0 bc 3e 4f 61 d2 b9 72 a3 56 bd f9 84 0e be
       0.36877707 -0.00040126822 -0.052401967 -0.13917913
0000b0 19 ce 02 3d d0 93 88 3e 9b a2 91 3d 9d c3 8f 3e
       0.03193483 0.26675272 0.07111093 0.2807893
0000c0 4f be 26 be dd 1b 1f 3e ad 5e ae 3e 87 d5 a4 3d
       -0.16283534 0.15537973 0.34056607 0.080485396
0000d0 af b5 a3 3e 2d 06 4a 3e 03 f0 e1 bc 25 0e b0 bd
       0.3197455 0.19728918 -0.027580267 -0.08596448
0000e0 58 b3 0f be 05 3e 27 3e aa 81 e2 3d 22 71 4f bd
       -0.14033258 0.16332252 0.11059888 -0.050645
0000f0 ad e0 a0 3e c8 6b c2 3e 07 6f 8e be c3 62 0b be
       0.31421414 0.37972856 -0.27819082 -0.13611893
000100 63 30 11 3e 4f 20 85 bd 7b 04 b1 3e ce b3 91 3d
       0.14178614 -0.06500303 0.3457373 0.07114373
000110 2a 30 07 be 7e 54 ab 3e 2f d9 3d 3e 8f 1f 14 3e
       -0.13201967 0.334629 0.1853988 0.14465164
000120 88 d5 ce bc b9 92 19 be 61 5e fe 3d be b3 ce 3e
       -0.025248304 -0.14997377 0.12420345 0.40371507
000130 69 c1 24 bd 7c 6e 78 be cd 2e b9 3d b9 04 75 3e
       -0.040223513 -0.24260896 0.0904213 0.23927583
000140 20 dc 98 3e d7 88 ad 3e b7 dd 5d 3d 7b b8 a2 be
       0.29855442 0.33893463 0.054166522 -0.31781372
000150 bf c3 ce 3b f7 d6 18 bd 5e c3 54 bd fa 41 05 bd
       0.006309956 -0.03731438 -0.05194413 -0.032533623
000160 34 0e 53 3e c6 7d 8f 3e c2 34 81 3e 57 d6 03 3e
       0.20610887 0.28025645 0.25235564 0.12874733
000170 07 89 23 3e 11 f4 68 be 1d cc 8d bd fe 76 b6 3e
       0.1597024 -0.22749354 -0.06923697 0.3563766
000180 5a 2f 60 be 47 9e 62 3d dc 64 c8 3e 78 1b e5 bd
       -0.21893063 0.055326726 0.3913945 -0.1118688
000190 53 90 fc 3c db 88 83 be 18 8e 9c 3e eb 5d 5b be
       0.030830538 -0.2569035 0.3057716 -0.21422546
0001a0 76 3e 81 be 00 75 99 3e 36 93 a4 3e 7e ac a1 be
       -0.25242966 0.29972076 0.32143563 -0.31576914
0001b0 51 a0 04 3d 67 2f 14 3e 73 6d af 3d 2a ae 58 3c
       0.032379452 0.14471208 0.08565798 0.013225118
0001c0 20 37 b0 bd 56 7c b8 3d 4f d0 e8 3e 1f 10 7d be
       -0.08604264 0.0900809 0.45471427 -0.24713181
0001d0 ef 93 51 bc 73 b5 41 3e 0c d8 65 3e 71 41 97 3e
       -0.012791618 0.18916874 0.22445697 0.29542115
0001e0 ea a4 93 be ae b5 c5 bc 78 e7 16 bc 03 18 8e 3d
       -0.28836757 -0.024134483 -0.00921046 0.069381736
0001f0 ca a7 27 be 13 a9 29 be af 6c 87 3e 6e 8a 87 bd
       -0.163726 -0.16568403 0.26450107 -0.066182

weight f4 [128, 136]
000000 d5 42 ec bc 32 8c d4 3d 05 38 19 3c 8c f6 82 3d
       -0.028840462 0.10378303 0.009351735 0.06394681
000010 a0 29 65 39 13 f2 4d 3d 03 9e 51 bd 2e a7 27 3d
       0.00021854648 0.050279688 -0.051176082 0.04093092
000020 57 fe 9f 3c 15 7b f3 bd 11 e7 3e be 76 4a af bd
       0.019530458 -0.118887104 -0.18642832 -0.08559124
000030 3a 75 6a 3c d9 a3 be bd 58 fd 1d 3d 06 62 b4 bd
       0.014310176 -0.09308595 0.038571686 -0.08807759
000040 68 9c e1 3c 6f 34 e5 3d 80 48 2a bd 5a f5 a3 3d
       0.0275404 0.111916415 -0.041573048 0.080057815
000050 6a e7 5e 3d 08 ee 93 3c bb 92 80 3b 82 64 fa 3c
       0.054419912 0.018057838 0.0039237416 0.030565504
000060 6e 3c 19 bc d6 35 db bc aa 29 24 bd 9c 95 ab 3d
       -0.0093527865 -0.02675907 -0.040078796 0.08378145
000070 fd 68 60 3d 59 2f 3f bd 68 6b 18 3d 14 0d be 3a
       0.054787625 -0.046676014 0.037211806 0.0014499747
000080 0c 2d 9a bd a5 a2 86 3d ec bc bc bc 19 b7 61 3d
       -0.07528123 0.06573991 -0.023039304 0.055106256
000090 f4 f9 4c 3d 78 0c d0 3d 3e e3 c8 bd df 6d 1b bd
       0.05004306 0.10158628 -0.09808968 -0.037946578
0000a0 30 11 cc 3d 5a e8 39 3b bb b5 18 bd 59 25 15 3c
       0.09964216 0.0028367252 -0.037282687 0.009103143
0000b0 b8 23 f2 3c 05 43 92 bd db 03 fd 3d c4 25 75 3d
       0.029558048 -0.07141689 0.12354251 0.05985047
0000c0 88 cd 29 bd 8a 9c 4d 3d 2c 04 11 3e a2 81 74 3c
       -0.041455775 0.050198115 0.14161748 0.014923485
0000d0 b7 df 49 3d 3b f8 87 3c 77 7e af bc 70 4d 2f 3d
       0.049285617 0.016597858 -0.021422608 0.04279846
0000e0 32 2d a6 3c f1 1b 05 bc 36 c5 11 be 99 be 5c bd
       0.020285223 -0.0081243375 -0.14235386 -0.053892706
0000f0 fd 29 99 3e 40 d7 06 3d 92 b5 a3 3d f1 2f fc bc
       0.29914847 0.032920122 0.07993616 -0.030784579
000100 d4 d4 2b bd ce ff 46 3d f5 80 d1 3d 06 05 fe bd
       -0.041951016 0.048583798 0.10229675 -0.12403302
000110 b4 9a 93 3d 96 66 25 bd f4 24 92 3d 12 97 4a 3e
       0.07207242 -0.040381037 0.071359545 0.19784191
000120 17 4a 37 bb 2c 9c 6d bc c0 24 9c 3c 42 7a 45 bc
       -0.0027967745 -0.014502566 0.019060493 -0.012053074
000130 ce 20 c8 3c 1e 46 b6 bd b0 da 7b bd 53 f8 3f bd
       0.024429705 -0.089000925 -0.061487854 -0.04686768
000140 53 5c 80 bd 37 17 60 3d 94 db bb bc 19 6f e5 bb
       -0.062676094 0.05470964 -0.022931851 -0.0070017693
000150 06 fc 83 bd 78 66 5d 3c 53 c3 7b 3c ee 4f b4 bd
       -0.06444554 0.0135132 0.015366393 -0.08804308
000160 f2 47 e9 bd 31 bf f5 3c b2 74 ed bb 91 b1 0d 3d
       -0.113906756 0.029998394 -0.007246577 0.03459317
000170 16 ff ef bd a0 70 8d bd 4b 24 80 bd 63 a3 70 3d
       -0.11718576 -0.06906247 -0.06256922 0.058749568
000180 56 dc 4c bd 1a 99 d4 bd bf 07 ac 3d 42 9a 9f 3d
       -0.050014816 -0.10380764 0.08399915 0.07793094
000190 4b 8c 48 bd 9d ec 8f 3d 68 a3 ae bd 54 c3 e4 3c
       -0.04896192 0.07027552 -0.08527261 0.027925171
0001a0 1f 6f cb bd a2 24 56 3d 93 02 6d bd 5b 4b 76 3d
       -0.09933304 0.05228103 -0.057863783 0.06013046
0001b0 f0 70 b2 3d 06 ba 1e bd 21 56 2e 3d e9 ae d2 bd
       0.08712947 -0.038751625 0.042562608 -0.10287268
0001c0 d1 b6 1c 3d 27 5e 77 3d 56 fa e3 bd b6 26 87 3d
       0.038260285 0.060392525 -0.11131732 0.065991804
0001d0 d2 3a 76 bd 72 a7 97 3b 30 68 4a 3e 82 87 36 bd
       -0.06011469 0.0046281153 0.19766307 -0.044562824
0001e0 b4 eb 5b 3d a7 d6 07 bd fe cc b2 bd d2 fc ce ba
       0.05369158 -0.033163693 -0.087305054 -0.0015791899
0001f0 43 7e 51 3d 66 98 6f 3d 48 c7 c5 3d 56 41 1d bd
       0.051145803 0.058494948 0.096571505 -0.038392387
000200 36 df 33 3d e5 bb b2 bc c1 4e f1 3c b0 31 3a 3d
       0.043914042 -0.02181811 0.029456498 0.045457542
000210 c3 87 8f 3b ee ce 11 3e 79 1d 58 3e f2 c9 e1 3c
       0.0043801977 0.14239094 0.21104993 0.027562115
000220 0a 70 b9 bd 5f 82 92 3d de e4 be bc bc cd 0f bd
       -0.09054573 0.071537726 -0.023302492 -0.035108313
000230 3a 6c 8c 3d 09 65 b1 bd 0b 11 6a 3d 89 c8 e4 bc
       0.0685658 -0.08661849 0.05714516 -0.027927654
000240 57 67 29 3c 9a ce 83 bd fe e9 34 3e 4c 9d 5d bd
       0.01033958 -0.064358905 0.17667386 -0.054105088
000250 46 c7 d3 3c 9c 80 33 3e e0 9f f0 bd 20 14 de bd
       0.025851857 0.1752953 -0.11749244 -0.10843682
000260 d8 94 d2 3c f1 e2 e8 3c de 95 a7 bd db ed be bd
       0.02570574 0.028428527 -0.08182882 -0.09322711
000270 b3 95 0b 3d cc 16 40 3d f0 1d 06 bd ed a2 61 bc
       0.03407831 0.04689674 -0.032743394 -0.013771755
000280 23 d8 df bd f3 1b 3f 3d 68 35 7b 3d 2c bd 1c 3e
       -0.10929897 0.046657514 0.06133023 0.15306538
000290 61 fd 86 bd 40 7c 00 3d 3a 06 07 be 04 6a 9d bd
       -0.06591297 0.031368494 -0.13185969 -0.076862365
0002a0 0c 8f 50 bd ad ff bd bd 3e 52 1e 3c 86 a6 b0 3d
       -0.05091767 -0.09277282 0.009663163 0.08625512
0002b0 0a 24 cf 3d 05 60 99 bc b4 dc a2 3c 0a f2 ff 3d
       0.10114296 -0.018722543 0.01988063 0.12497337
0002c0 fe 9a f2 3c 27 3f b3 bd a4 5a d2 bd 57 a9 d1 bc
       0.029614922 -0.0875228 -0.102711946 -0.025593443
0002d0 c2 9b ef bd 42 f5 ec 3d d4 04 2e bd 8a 07 04 bd
       -0.1169963 0.11570217 -0.042485073 -0.032233752
0002e0 0c 3c 77 3e 50 8a 66 3d f8 30 90 bd 3a 3b 58 3b
       0.24144 0.05628425 -0.0704059 0.0032994286
0002f0 61 75 1a bd b4 07 1c 3c fb 65 c6 bd 54 92 c9 bd
       -0.037709597 0.009523321 -0.0968742 -0.09842363
000300 5b 4a f2 3b 88 d5 39 3d 09 50 ad b8 8a a9 70 bc
       0.007394118 0.045369655 -8.2641905e-05 -0.014688859
000310 a2 b5 5b 3e 8a 1c 65 bd f9 a0 62 3d 55 d5 71 3c
       0.21456006 -0.05593542 0.055329297 0.014760335
000320 81 7a 02 bd a2 00 05 be 09 37 b2 ba 0b b3 ec bd
       -0.03185511 -0.12988523 -0.0013596724 -0.11557587
000330 59 97 4c 3e 31 b9 72 3d de 10 ab 3d 28 68 1d bd
       0.1997961 0.059258644 0.083528265 -0.03842941
000340 88 09 eb bc 2d d4 b3 3d 94 1b 0e 3e a1 12 47 3c
       -0.028691068 0.08780704 0.13877708 0.012150438
000350 b7 f5 3a 3e 96 c2 b8 3b b4 f7 26 3e 72 2c 31 ba
       0.18257795 0.005638431 0.16305429 -0.0006758637
000360 43 05 2d 3d a7 82 dc bc 4c 29 a2 bd 3f ad 80 bc
       0.042241346 -0.026917769 -0.07918033 -0.01570761
000370 19 a6 98 3d dd 24 c1 bd 2a 71 f0 39 c1 66 aa bd
       0.074535556 -0.09430859 0.0004586068 -0.0832038
000380 25 1b 0a 3d 11 62 fa 3b aa 20 b1 bd 78 6a 39 bd
       0.033717293 0.007641085 -0.08648808 -0.045267552
000390 48 ab aa bb 4b 49 cc 3b 16 04 8a 3d 5d 13 a8 bd
       -0.0052084066 0.006234323 0.067390606 -0.08206818
0003a0 70 c4 c0 bc c3 69 88 3b d1 db 33 be 96 9e 90 3c
       -0.023531169 0.0041629984 -0.17564322 0.017653745
0003b0 d8 8b 8e 3d 6c 45 41 3b fd b1 d6 bc 99 cc 10 be
       0.06960267 0.0029490842 -0.026207918 -0.14140548
0003c0 fe 54 ab bd 8a ec 4f bd 7c 82 9d bd 76 6c 9e 3d
       -0.0836582 -0.05076269 -0.076909035 0.07735531
0003d0 db 2d 17 3e fd 7e d4 bd a9 bc ea 3d 35 38 55 bd
       0.14763586 -0.103757836 0.11461765 -0.052055556
0003e0 f8 da 4d bd 2b 0a 75 bd c6 02 a0 bd d5 b6 d6 3d
       -0.050257653 -0.05982415 -0.07813029 0.10484091
0003f0 54 2b dd bc 27 e4 ff bc 7d 6d 64 3e 5d 18 3e bb
       -0.0269982 -0.031236721 0.22307391 -0.002900622

bias f4 [128]
000000 72 a8 25 3c a7 96 cb bd 5d b3 e5 bc 02 f7 de 3d
       0.010110961 -0.09940844 -0.028039629 0.10886957
000010 2c ce 8b 3c 5a d3 7d bb 85 57 5b 3d 9e bb ae 3d
       0.017066084 -0.0038730712 0.053550262 0.08531879
000020 d9 9f b8 3d 52 09 d3 3d 8d 12 fe bd 68 d8 9e bd
       0.090148635 0.10304512 -0.12405882 -0.0775612
000030 53 c6 c8 bd 3e 04 06 bd ed 34 a5 3d db 0d 81 3d
       -0.09803452 -0.03271889 0.080667354 0.06301471
000040 06 92 a5 3d 44 ed 04 3c f2 73 3c bd e3 0c d6 3b
       0.080844924 0.008113209 -0.04600901 0.006532298
000050 ce 0f 48 bd d5 50 b7 3d 6b 5e 2b 3b 55 43 a5 bd
       -0.048843198 0.08950964 0.0026148807 -0.08069483
000060 a6 18 23 3d 63 d9 c0 3d c4 7b 4c bd 2a a8 a5 3d
       0.03981843 0.09416463 -0.04992272 0.080887154
000070 5e 8f a8 bd b1 5f d5 bb 01 f9 a7 3d 0e 70 bb 3d
       -0.0823047 -0.0065116514 0.082017906 0.09152232
000080 f8 c2 8a bd ce c9 5e bd b4 c1 57 bd 8e 45 71 3d
       -0.067754686 -0.054391675 -0.052674964 0.058904223
000090 6b a2 ec bb ec 37 9a 3c 70 a5 37 bd 74 3f 1f bd
       -0.00722151 0.018825494 -0.044835508 -0.038878873
0000a0 54 34 63 3c 27 f2 19 bd 46 f4 a6 bd 5b c8 9e 3d
       0.0138674565 -0.03758445 -0.0815206 0.077530585
0000b0 b1 b1 68 bd 7a 48 bb bd 62 c3 b3 bd cb 67 67 3d
       -0.056810085 -0.09144683 -0.08777501 0.05649547
0000c0 39 93 1e bd 4e 7d ba 3c 42 e2 be bc 6b fa 8a bc
       -0.03871462 0.022764828 -0.023301248 -0.016965112
0000d0 3b b0 d7 bd 72 09 14 3a 2d 29 a1 3d 1a 07 c3 3c
       -0.1053166 0.00056471594 0.07869182 0.023807097
0000e0 62 bd f0 3d 7c ef 17 3c 1a 5c 14 bd ca 88 8b bd
       0.11754872 0.009273406 -0.036220647 -0.068132
0000f0 29 28 25 3d 17 2b ba 3d b8 a6 e1 bc f4 5d 99 3d
       0.040321503 0.0909025 -0.027545318 0.07488623
000100 57 f0 a3 3d 0d e6 d6 3d 83 6e a4 bc 8a 29 2f 3d
       0.080048256 0.104930975 -0.020072227 0.042764224
000110 a4 4e ba 3d c7 22 fb bd 7e e8 c1 3d 1c 73 ac 3c
       0.09097031 -0.122624926 0.094681725 0.021050982
000120 6d ab eb 3d 2d 8d 93 3d ba d7 00 bd ea 49 83 3d
       0.11507306 0.072046615 -0.031455733 0.06410582
000130 be 90 4e bd ee 8c 73 3d fd 38 58 3d 21 1f f9 bc
       -0.050431006 0.059460573 0.052788723 -0.030410351
000140 e8 45 b8 3d f0 18 92 bc 64 91 cc bd 20 8a 3e bd
       0.089977086 -0.017834157 -0.099886686 -0.046518445
000150 70 66 a3 3c 4f 2a 7b bd a0 87 e1 3d a3 42 81 3d
       0.019946307 -0.061319645 0.110121965 0.06311538
000160 ad 92 c8 3d e3 2b aa bc d4 b7 c8 3c 76 7d e4 3c
       0.09793601 -0.02077288 0.024501719 0.027891856
000170 c0 4e be bd ef d8 ba bc 68 6f bb bd d4 31 79 bd
       -0.09292364 -0.02280852 -0.091521084 -0.060838535
000180 35 2a c0 bd bf d1 aa bd 19 35 b5 bd 75 eb c2 bc
       -0.0938305 -0.08340787 -0.08848018 -0.023793915
000190 d9 29 82 bd df 57 2b 3c fd 97 48 bc c3 3d 8f bb
       -0.06355638 0.010457962 -0.012243268 -0.0043713762
0001a0 1f 37 15 bc ea 39 d6 bc 9b 3f eb bb 8d 4b e5 3d
       -0.00910738 -0.026150662 -0.007179213 0.11196051
0001b0 26 80 dc bb 64 5f 0e ba e4 98 ba bd 7d 16 a3 3d
       -0.0067291437 -0.00054310844 -0.09111193 0.07963274
0001c0 8f 12 7d 3d 21 23 7e bd 63 6b 01 3e 12 f3 9f 3d
       0.061785277 -0.06204522 0.12638621 0.07810034
0001d0 d4 bd 96 3d 01 b0 d1 bc 7e 0f 4e bd 35 ba 5f 3d
       0.073604256 -0.02559662 -0.050307743 0.05462094
0001e0 93 21 84 b9 31 96 a7 bc 5a f9 f4 bd 7d d8 50 bd
       -0.00025202017 -0.020457359 -0.119616225 -0.05098771
0001f0 73 aa c8 3d e5 97 e5 3d b3 27 80 3d 39 3e 97 bd
       0.097981356 0.11210612 0.06257572 -0.07384915
