E-GraphSAGE/netflow/bot-iot/binary_best_model.pth (torch, 289284 bytes, 10 tensors)

weight f4 [128, 16]
00000000: 3d7e 033e 5001 593d 4937 3b3e 0d86 85bd
00000010: 950b 1f3c 05f0 72be 1901 d53d 8b03 5a3e
00000020: 945c 833e 68fe 73be 6132 473e 02f6 0ebe
00000030: daa2 a7bd 9340 543d 48c6 1fbd c720 ad3d
00000040: 1360 acbd cc85 28bc 74c7 ea3c 7e55 133e
00000050: 8c40 433e 303d 1d3e 578e fbbd e670 8bbe
00000060: 328d 90be e8c3 04bd 2e7d 8b3e f9e0 fb3d
00000070: d9dd 4e3d cf04 44be 110a 023d a9dc 37bd
00000080: e690 533e 1633 c8bd d424 3ebe 6ee7 ea3d
00000090: 1405 9e3c a41a 193e 16a0 4ebd 7e14 eabd
000000a0: 7f5d 923d 9d42 43be f697 9f3e 013a 193e
000000b0: 00a5 e73d 3e8a 9ebe 5054 7dbe a26e 3bbe
000000c0: 0984 223e 4ed2 0f3d 8480 313d 714c 11be
000000d0: 6c8b 41bd 8a7f babd 6499 5abd 9b24 20be
000000e0: f990 dcbc 2827 90be c1c3 f7bd 308d a33c
000000f0: 3a16 75be 593c 143d eb7e 4a3e 5bc7 3dbe
00000100: 4975 513e 132d 7dbe 18e4 383d d7bb 4a3e
00000110: 5d65 503e b5d4 5c3e 6367 62be ef18 c23d
00000120: c529 9d3e b30b bcbd 8114 96bc a313 92bc
00000130: 8441 8c3c 2351 80be 042a d03e b404 68be
00000140: bfbf 9bbd 4dbf 843d 3945 ed3d e658 b63c
00000150: ac89 dabc bce6 363e b2b0 3dbe 3012 7b3e
00000160: 6f18 3c3e bf3a 8c3e a7d2 3bbd e1ba 7ebe
00000170: 3078 6d3e c926 26be c4da 12bd ef53 14bd
00000180: 67f1 1b3e 9000 ad3d 4146 0dbe e74c 433e
00000190: 71b8 4ebe 1fac 02bd d95a 5b3e 8f5a 533e
000001a0: 381a d2bd b281 e9bd 68f0 243e d45b 13bd
000001b0: eb15 903d 9ceb 923e 50f2 b03e 593f bf3d
000001c0: f26b 27be 21fc 6abc 2e60 68be d0b9 26be
000001d0: a666 20be d0b7 67be 2a57 61be 1508 a43d
000001e0: 530b 7e3e 3b1a 503d 7f52 a93d 841e 15be
000001f0: 93ad 903e 3d26 7fbe 9b50 dabd 38b2 1a3e
00000200: 1893 80bd 1a82 7b3b 4236 ddbd 13c5 0a3e
00000210: 0721 4d3e ddb6 223e d5c3 643e d4e4 f63d
00000220: 0040 dbbd cfad 0abe 97fb 623e abcc 993e
00000230: 4382 06be bc5f 4cbe ef6e b0be 63db 4c3e
00000240: 525e e13d fe66 b73d 38b2 6dbe 2638 b6bd
00000250: 1057 4dbd f3be 75bb db0b 003e 826d 95bd
00000260: 959b 0d3e 6188 52be 6d57 f63d d501 163d
00000270: 0384 2dbd 2412 3bbe 0980 9fbe 6587 9cbd
00000280: 6d6f 4ebe ed6c 3d3e f318 863e 41a9 54be
00000290: efac 23be e3d6 023e cac3 4fbd 6043 9abc
000002a0: 51fd 0f3e 6ecf 9abd 6b39 debe 127f a7be
000002b0: fe94 7ebe c0c5 9c3c a3c5 e4be 0849 35be
000002c0: f5fa 68be 9477 b5bc b2f0 423e 9f18 c6bd
000002d0: da8a 01be b4b2 4bbe ad2b 19bd fa4f 0dbe
000002e0: cf1d c1be ae95 283e 9c15 57be af7f 9ebc
000002f0: 40cc 5b3e 373c 1bbd 4bf0 08be f3ad 15be
00000300: b1dd d9bd d5f4 adbd 075a 05be 414f 4e3e
00000310: b543 c13c 5b39 a13d 0f37 4cbe 5330 75bd
00000320: 4306 0b3e 84f9 4e3e 07fd 1abe 47f8 1abd
00000330: ee20 0c3d f76f bfbd 3c56 cdbd eb17 53bd
00000340: 932f 36be 076b 4c3e 0c6d 463c f50f 24be
00000350: 1954 153e dc4b ba3d c4b2 ae3d e83c a93d
00000360: c835 9b3e 104b 5f3c 4af9 8a3e af33 ffbc
00000370: 1f2b e2bb 9b52 733e e808 9a3d 3a60 183e
00000380: fa69 983d 25c8 20bd 687b 31be dc07 253e
00000390: 1421 b13d dd99 26bd 51e8 4f3d 38f8 d2bd
000003a0: e7c9 9e3e 86df 823c 5a23 65be c7c7 c03c
000003b0: b6e8 b83d 1376 cb3c 83b4 4cbe a5c5 dfbd
000003c0: e104 aebd 6e48 283e 1da8 88bd 409a 51bd
000003d0: 2675 69bb a636 06be 0034 09be 56e7 6cbe
000003e0: cc0a 083e bee5 78be 4b21 12be 3eeb 713c
000003f0: abe2 833d be95 2d3e 8a40 d03e 90e2 c4bd
0.12841125 0.052979767 0.18282808 -0.06519709 0.009707351 -0.23724373 0.104006 0.21290414
0.2565657 -0.23827517 0.19452812 -0.13961032 -0.08185358 0.051819395 -0.039007455 0.084535174
-0.08416762 -0.010285806 0.02865956 0.14388081 0.19067591 0.15355372 -0.122830085 -0.27234572
-0.28232723 -0.032413393 0.27243942 0.122987695 0.05050454 -0.1914246 0.03174788 -0.044888172
0.20660743 -0.09775369 -0.18568736 0.11469923 0.01928953 0.14951569 -0.05044564 -0.1142969
0.07146739 -0.1906838 0.31170624 0.14963533 0.11310768 -0.30964845 -0.24739194 -0.18303922
0.1587068 0.03511267 0.043335453 -0.14189316 -0.047252104 -0.091063574 -0.05336894 -0.15638964
-0.026924597 -0.28154874 -0.12097884 0.019964784 -0.2393426 0.036190365 0.19774978 -0.1853308
0.20454897 -0.24724226 0.045139402 0.19798218 0.20351167 0.21565516 -0.22109751 0.09477412
0.3069593 -0.09181919 -0.018320324 -0.01783163 0.017121084 -0.25061902 0.40657055 -0.22658044
-0.07604932 0.064818 0.11585469 0.022259187 -0.026676975 0.17861456 -0.18524435 0.24518657
0.18368696 0.2738857 -0.04585519 -0.24875976 0.23190379 -0.16225733 -0.035853162 -0.036212858
0.15228806 0.08447373 -0.13796331 0.19072305 -0.20187546 -0.03190243 0.21421374 0.20640014
-0.10258907 -0.114016905 0.16107333 -0.035976246 0.070354305 0.2869538 0.3455987 0.093382545
-0.16349772 -0.014342339 -0.2269294 -0.1628182 -0.15664157 -0.22628713 -0.22005907 0.08009354
0.24809007 0.050806265 0.08267688 -0.14562422 0.28257427 -0.2491693 -0.106599055 0.15107048
-0.06278056 0.0038377107 -0.108013645 0.1355174 0.2003213 0.1589007 0.22340329 0.12055364
-0.107055664 -0.13542865 0.22166286 0.30038962 -0.13135628 -0.19958395 -0.34459636 0.20005564
0.11004318 0.08955191 -0.23212516 -0.08897428 -0.050131857 -0.0037497848 0.12504523 -0.072962776
0.13828881 -0.20559837 0.12028394 0.03662284 -0.042362224 -0.18268639 -0.3115237 -0.07643012
-0.20159693 0.18498583 0.2619091 -0.2076769 -0.15983938 0.12777285 -0.05072383 -0.018830955
0.14061476 -0.07559095 -0.4340318 -0.32714134 -0.24861524 0.019137263 -0.44682035 -0.1770364
-0.22751983 -0.022151746 0.1903713 -0.09672665 -0.12650624 -0.19892389 -0.037395168 -0.1380004
-0.37718055 0.16463348 -0.21004337 -0.019347994 0.21464634 -0.037899222 -0.13372914 -0.14617138
-0.106379874 -0.08493964 -0.13022624 0.2014742 0.023591856 0.07872268 -0.19942878 -0.05986054
0.13576607 0.2021237 -0.15135585 -0.037834432 0.03421109 -0.093475275 -0.100262135 -0.05153648
-0.17791586 0.19962703 0.01211096 -0.16021712 0.14582862 0.090965 0.085301906 0.0826357
0.3031447 0.013628736 0.27143317 -0.031152574 -0.006902113 0.2376198 0.0752123 0.14880458
0.074420884 -0.039253373 -0.17332232 0.1611628 0.08648887 -0.04067408 0.050758664 -0.1030125
0.31013414 0.015975725 -0.22376767 0.023532761 0.09028761 0.024836576 -0.19990735 -0.109263696
-0.08497024 0.1643388 -0.0667269 -0.051172495 -0.0035622804 -0.13106784 -0.13398743 -0.23135123
0.13285369 -0.2430639 -0.14270513 0.014765559 0.06439718 0.16951653 0.4067424 -0.09613526

bias f4 [128]
00000000: ca82 3e3d 73ee cb3d fcca 133e 0b46 0fbc
00000010: ecd8 ef3d 8f3c 73be 7f8f d33d 109f 643e
00000020: 952f 16be 7543 a5bd 0785 15bd 0cdc 913d
00000030: 4899 90bd 2571 443e f4f1 dcbd eba6 b4bd
00000040: 06dc 393e 4ba1 273e 3faf b13c 4490 af3b
00000050: 6a99 4c3d 5079 d43d 5eff 4abe 4c0e ef3c
00000060: 11ea de3d 53dc 4d3d 1844 413d 9768 a23b
00000070: c010 77be f372 44be 73c5 a63d 954e 94bd
00000080: e2b3 60be 08e8 32be 6739 273e 0f6c 2ebe
00000090: 7e66 59be b232 203e c4a4 e4bd 3988 d7bd
000000a0: 8370 6b3d c11c 5abe 116a 98bc e67f 053d
000000b0: cda8 063e abbc 603e 0f07 bebd 9640 4a3d
000000c0: 9d19 0f3d 08ed 36be a7ba fe3d 4d8e 173e
000000d0: 5d31 e3bd 47cf 933a ffb7 673e 1661 07be
000000e0: c812 57bd 1683 22be d626 4d3e 7819 4fbe
000000f0: 0740 b2bd 012d 103e 7f15 c63d bd57 5cbe
00000100: b3dd a9bd 3f31 5fbd 1c4f 32bd 7ae2 f6bd
00000110: 63d3 8c3d cfb2 6a3e 978a 06bd fbc5 a1bc
00000120: 0ba4 973d d9ae 053e b75f 093e 7015 ec3d
00000130: 2452 ba3d e0c9 e6bd 9e1d 243e fe09 f43d
00000140: 8dbc 34be efa7 59be bcc6 063e 2404 5fbe
00000150: 9e34 79be 72e5 52bd 5ecd 433e 9d92 493e
00000160: 4098 ffbc 4da6 53be 0c74 06be 8e88 133e
00000170: d561 2d3d 9b02 07be dcab 713d 2228 153e
00000180: e8b1 633e e134 4d3d 5e77 0abe 12ab a93d
00000190: d3c4 f63d 573a 783e 12dc 3ebd 82f8 26be
000001a0: dc77 9d3c a7dc 22be 035b 253d 8b1c 96bd
000001b0: 1a2d 16be d879 7fbe 4c72 713d 5b69 96bd
000001c0: fb1e 7cbd b36c 74be 36c3 a13d 49ff 643e
000001d0: 91c1 ed3d 25f3 64bd 6980 8d3d cb61 e43d
000001e0: 1328 013e 968a 30be c29d 943d 37fe 67be
000001f0: 6f4d 0dbe bc94 f3bd a9be a73d 0f7d da3d
0.04651145 0.0995759 0.14432901 -0.008744727 0.117112964 -0.2375357 0.10330104 0.22326303
-0.14666589 -0.08069507 -0.036503818 0.07122049 -0.07060486 0.19183786 -0.107883364 -0.088208996
0.18150339 0.16370122 0.02169001 0.005357774 0.049950995 0.10374701 -0.19823977 0.029181622
0.108844884 0.050258946 0.04718408 0.0049563157 -0.24127483 -0.19184475 0.08143129 -0.07241551
-0.2194362 -0.17471325 0.16330491 -0.17033409 -0.21230504 0.15644339 -0.11164239 -0.10524029
0.057480346 -0.21300031 -0.018605264 0.032592677 0.1315033 0.21946971 -0.0927869 0.049378
0.034936536 -0.17863858 0.12437945 0.14800377 -0.110934 0.0011276983 0.22628783 -0.13220629
-0.052508146 -0.15870318 0.20034346 -0.2022456 -0.087036185 0.14079668 0.09672069 -0.21517844
-0.08294239 -0.054490324 -0.043532476 -0.12054916 0.06876256 0.22919773 -0.032847013 -0.019747725
0.074043356 0.1305498 0.13415419 0.115275264 0.09097698 -0.11268973 0.16026923 0.11915968
-0.17650051 -0.21255468 0.13161749 -0.21778923 -0.24336478 -0.051488347 0.1912131 0.19684835
-0.031200528 -0.20668907 -0.13130206 0.1440756 0.042329628 -0.13184588 0.05900179 0.1456609
0.22235835 0.050099257 -0.13522097 0.08284582 0.1204926 0.24241005 -0.046596594 -0.16305736
0.019222192 -0.15904485 0.04037 -0.07329663 -0.14665642 -0.24948823 0.058946893 -0.07344314
-0.061552983 -0.2386959 0.07898562 0.22363009 0.116091855 -0.055895943 0.06909258 0.11151465
0.12612943 -0.17240366 0.072566524 -0.22655569 -0.1379907 -0.11893603 0.081906624 0.10668384

weight f4 [128, 136]
00000000: 7541 bcbd 1d7f 2e3d c098 e5bc f604 a3bc
00000010: 743c 88bd 0635 acbd db0e 533b 674d 313d
00000020: edec 83bd bec4 95bd 69c5 7dbb 9d70 553d
00000030: 10eb 943c e5ec 8f3d de7f 6d3d 6574 42bc
00000040: 677f 193d 7fbd 50bd 291b e03c 31dd e13c
00000050: 481b 10bd ea20 f43c 5695 bb3c 12a1 123d
00000060: ab25 933d eec6 1e3b 33c7 413d 038e 01bd
00000070: d67e 933d cbce b93c a89f 603d d2d1 aebd
00000080: bf98 1d3d 9d6e 88bd 21c3 90bb 37df 48bd
00000090: ac98 bb3d c655 c63c 2b8e 44ba 5737 3a3d
000000a0: df28 893d f49f 953d 0088 a1bc b4f5 b7bc
000000b0: b5a6 593d d03b 2dbd 3408 933c 6dae 01bd
000000c0: 5d56 b43d c2bb 2dbc 0dbb 61bb e9a1 30bd
000000d0: ddcd a5bd 8413 cbbc 46d2 103d 2cc1 70bd
000000e0: bfc5 a2bd 74dd 793c e651 613d 527e cfba
000000f0: b7c9 a7bd 0105 503d 390d 1ebc 254a 6e3d
00000100: 3c0e 9e3d 186c b03d ae87 9b3d 78d2 38bd
00000110: 6128 0f3d 7bd1 af3d f5b1 073c e5d7 53bd
00000120: 8664 5ebd d96a 8bbd e72e 8ebd d57b ca3c
00000130: 2288 bd3d 6cc1 be3d 2926 833c e86c 8c3c
00000140: c40e a33d 386a 8f3d 80c4 3f3d f492 9a3c
00000150: 93ac 05bd 7163 8bbd 3655 7c3d 9f4b 7e3d
00000160: 79fe 6bbc 9480 1d3d 2766 82bc 59a5 bbbc
00000170: 6c93 8abc 8aad 873d 43e8 6ebc a5d0 2fba
00000180: a308 893d 0f70 b13d e3d6 8abb 1d66 41bd
00000190: ff1a a3bd 97fa 97bc 3e70 093d 075f 9a3d
000001a0: 9189 6bbc 6112 67bd 7f63 9c3c 5e05 123d
000001b0: 0121 483d d897 5cbd 506c da3c 045b 8c3c
000001c0: 44ae 9d3d 87b6 903d d8fe db3b 231f 2d3d
000001d0: fb75 62bd 418a b13d b0a4 79bd 9790 24bd
000001e0: 9801 d83c ac92 3abd 3115 2bbb 4e2a 333c
000001f0: 7737 113d 618d 68bc 679d 7c3d 1bc1 b53a
00000200: c7c3 adbd 14a2 603d 2f6c 5bbd 74cb 5abd
00000210: 0eb2 8a3d 9da4 093d 0d95 e5bb 3ada aabc
00000220: 5f18 7c3c a3c6 c73c b425 bebb 9809 243d
00000230: b45e c53b bc6e 1cbd 8d5c 99bd fc66 9ebd
00000240: 858b 313d 57fe 683d 9d54 663d 1d5d 59bd
00000250: f550 813b 694e b4bd 296b 903b 08d8 b23c
00000260: c00a 14bd d61a 7fbd 19cf 5cbd b6dc 23bd
00000270: 0192 b0bd 356e e53c d022 b5bd 277a d13c
00000280: 2c13 9abc ae32 ba3d 6577 08bd cbc7 f2bd
00000290: 87a1 40bd 227f 293d dd8c 7cbd 5d5d 923b
000002a0: 8ff6 283d b9e3 8dba e371 89bd a9a7 7bbd
000002b0: d951 3d3d 07f2 8e3d 76f7 5dbd 7ea9 863c
000002c0: 0391 58bc a2ad 52bd 919a dc3c 8479 a3bd
000002d0: 054c 173c e5fa 523d 0406 4c3d 2ee8 51bd
000002e0: 66c8 29bd e3ad 0e3c e469 f7bb f856 a73d
000002f0: 9008 b9ba 13b4 86bd bc18 31bc 5522 08be
00000300: ac37 17bc 1c62 4abd b612 e83b 6748 d5bc
00000310: 1dd4 003c 2ef1 4ebc f3d7 b93d 67ad 03bd
00000320: c1aa 6dbc 3527 63bd d455 0abb 29da d83c
00000330: 2f77 0f3d f5cd 433d 6015 afbd 8c5d b6bc
00000340: cbd1 443d 1c46 5abd 9119 e5bd 0400 e93c
00000350: a824 90bd 44ee a9bc f80b a73b c294 f33c
00000360: ea8a 4c3d 4274 253d 6b53 c3bd 0ed7 77bd
00000370: 3a41 abbd 044d 98bc 3653 913c a2be ba3c
00000380: 1e5e 563e 9071 ce3b 3371 533d 3dca a33d
00000390: 7375 eb3d 746f c5bd 9f03 a93c 3052 3e3e
000003a0: 3f87 573d 4204 5c3d 0e23 2c3c df95 a8bd
000003b0: e2a3 9cbc d023 80bc 9e9a cf3b 9866 0f3e
000003c0: c5f5 ff3c 42b8 d83c 5d71 60be 4227 283d
000003d0: ba06 a5bc 06c2 7ebd 4925 f6bc 2ab3 b13d
000003e0: 653c 03bc c020 553d 5f40 82bd ee80 9d3d
000003f0: 9931 9f3d 8227 393d a88f 823d ad3f e5bd
-0.091921724 0.042601693 -0.028026938 -0.019899826 -0.066521555 -0.08408551 0.00322049 0.043286707
-0.064416744 -0.07312916 -0.0038722402 0.05210935 0.018178493 0.07027606 0.05798327 -0.011868571
0.037475016 -0.050961968 0.027356701 0.027571293 -0.035182267 0.02980085 0.022898357 0.03579814
0.07184919 0.0024227458 0.04730911 -0.031629574 0.072019264 0.022681614 0.05483976 -0.08536114
0.03847575 -0.06661723 -0.0044177924 -0.049041 0.09159979 0.024210822 -0.00074979913 0.045462932
0.06697249 0.07305899 -0.01971817 -0.022456028 0.0531375 -0.04229337 0.017948247 -0.031660486
0.08805535 -0.010603847 -0.0034443766 -0.04312316 -0.08095906 -0.02478958 0.035356782 -0.058777973
-0.07947873 0.015250552 0.055009745 -0.0015830493 -0.08192771 0.050786022 -0.009646707 0.05817618
0.07717559 0.08614367 0.07594238 -0.045122594 0.034950618 0.08584877 0.008282174 -0.051719565
-0.054295085 -0.06807489 -0.0694254 0.02471725 0.09254481 0.09314236 0.016009407 0.017141774
0.07961801 0.070026815 0.046818256 0.0188689 -0.032635283 -0.06806076 0.0616047 0.062083837
-0.014403933 0.0384527 -0.01591785 -0.022905992 -0.016916 0.06624897 -0.014581743 -0.00067068107
0.066911004 0.086639516 -0.0042370423 -0.047216523 -0.079641335 -0.018552108 0.033554308 0.07537656
-0.01437606 -0.056414012 0.019090412 0.03564965 0.0488596 -0.053855747 0.026662976 0.017133243
0.07699254 0.07066064 0.0067137294 0.042266022 -0.055288296 0.08668948 -0.060948074 -0.040176954
0.026367947 -0.045550033 -0.002610516 0.010935379 0.035453286 -0.014193864 0.061673548 0.0013866754
-0.08484607 0.05484207 -0.05356997 -0.053416684 0.067722425 0.033604253 -0.0070062936 -0.020856012
0.01538667 0.02438671 -0.0058028344 0.04004821 0.0060232524 -0.038191542 -0.07488356 -0.077344865
0.043345947 0.056883182 0.056233037 -0.053067315 0.0039464184 -0.08804018 0.0044073057 0.021831527
-0.036143064 -0.062281452 -0.05390844 -0.04000541 -0.08621598 0.028006652 -0.088445306 0.025570942
-0.01880797 0.09091698 -0.03331699 -0.11854514 -0.047029044 0.04138101 -0.061657775 0.004466696
0.04125076 -0.0010825313 -0.06711175 -0.06143919 0.046220634 0.06979757 -0.054191075 0.016438242
-0.013218167 -0.05143512 0.026929172 -0.07982162 0.009234433 0.051508803 0.049810424 -0.051246814
-0.04145088 0.00870845 -0.007550465 0.08170885 -0.0014116932 -0.06577315 -0.01080912 -0.13294347
-0.009229582 -0.04940997 0.0070823086 -0.0260355 0.007863072 -0.012630744 0.09074392 -0.03214779
-0.014506043 -0.055457313 -0.0021108286 0.026471214 0.03502577 0.047803838 -0.08548999 -0.022261404
0.048051637 -0.053289518 -0.11186517 0.02844239 -0.070382416 -0.020743497 0.0050978623 0.02973402
0.049937166 0.040394075 -0.09537395 -0.060507827 -0.0836205 -0.018591411 0.017739873 0.022795979
0.2093434 0.006300159 0.051621627 0.07997558 0.11497011 -0.096403986 0.02063161 0.1858604
0.052619215 0.053714998 0.010506405 -0.08231711 -0.019121114 -0.015642077 0.0063355705 0.1400398
0.031245122 0.026455048 -0.21918245 0.041053064 -0.020144809 -0.062196754 -0.030047076 0.08676751
-0.008010005 0.052033186 -0.06359934 0.07690607 0.07773132 0.045203693 0.063750565 -0.11193786

bias f4 [128]
00000000: 8cfb 62bd 22f0 c4bc 1f63 13bd f8a3 ecbc
00000010: c3f3 983d 4196 e8bc 4434 763c 2c98 36bd
00000020: 2893 afbd fbe5 cebc 7bbb 0b3d cddc a23c
00000030: 6931 32bc 57f9 703d c577 76bc db16 bbbd
00000040: 9e55 3f3b 1580 073d 7d5f 0d3d 6d51 573c
00000050: 00de f9bc 3c24 6fbd ca1f e6bc f210 40bd
00000060: f970 12bd 4d8f 6abd 92bb a7bd d01b 0ebd
00000070: c31c 0c3d 886e 753d d4ab 2ebd 9188 263d
00000080: dfdc b93d 2406 b5bd e566 7fbd 155e c3ba
00000090: ae02 d5bd bc72 b5bc dc43 f7b9 4937 88bd
000000a0: c9d5 b03c 69ce 193d 771f 783b 6b41 84bd
000000b0: 2f52 31bd 1df0 06be b27c 9639 1ba5 433d
000000c0: 5883 c53c a6c9 263d cc10 bd3c dded 9cbd
000000d0: af55 c8bc 7c66 923d d34d 5c3d 01c7 ca3c
000000e0: 76c6 993d 8a85 903c b44f ec3c e69b 51bd
000000f0: f609 733d 69fc bf3c 0387 a63d 4190 8cbd
00000100: f4d0 683d 1fb8 b2bd e0f7 63bd 9b40 8dbc
00000110: 5410 c9bc 71ab 843c 094e 9a3d d1e2 63bd
00000120: 94bd e43c 11e0 8c3d c99c 3e3c 61db 37bc
00000130: 962d 64bd ebc0 92bd 42e5 75bd d9e6 ca3b
00000140: 455b b5bd 935b f43c 3dc8 0f3d 9e3c 473c
00000150: 564a 2fbd 8fb4 883d 1652 cf3c 68d2 113d
00000160: f8b0 b13c e51e c3bb 7502 7b3d be9a b03d
00000170: 2b93 5cbd 778e ff3b ae28 4fbd 9554 1d3d
00000180: 87de 37bd 59e8 8fbd f648 023d a9b3 93bd
00000190: 0505 513c 8d27 523d aa10 3abd f9f7 fbbc
000001a0: 8657 94bd a34f 56bd acc0 bc3b e50e 043d
000001b0: 2c11 8a3d 117f a4bd 2e33 463d d454 593d
000001c0: 702e bdbd 2f4e aa3b c2cf a9bc c69d 84bd
000001d0: 9b5f 3f3c ba27 6c3a 1405 92bd d771 0b3d
000001e0: efa3 11bd e46c 8a3d c941 8a3b 3179 0ebc
000001f0: 1d76 4abd e1a6 ccbc 8d89 4ebd 1424 313d
-0.055415675 -0.024040285 -0.0359832 -0.02888678 0.07468369 -0.02839196 0.0150271095 -0.044578716
-0.0857299 -0.025256148 0.034114342 0.019880677 -0.010876038 0.05883154 -0.015043204 -0.09135219
0.002919532 0.033081133 0.034514893 0.013141972 -0.030501366 -0.058384165 -0.02809133 -0.04689116
-0.03575227 -0.05726557 -0.08190073 -0.034694493 0.034207117 0.059919864 -0.042644337 0.040657584
0.09075331 -0.08839062 -0.062353987 -0.0014905358 -0.10400902 -0.022149436 -0.0004716207 -0.0665117
0.021586316 0.037550364 0.0037860551 -0.0645779 -0.043291267 -0.13177533 0.00028703135 0.04776488
0.024110481 0.04071965 0.023079298 -0.07662556 -0.02445492 0.071484536 0.053785156 0.024753096
0.075085565 0.017641801 0.0288466 -0.051174067 0.05933567 0.023435788 0.0813122 -0.06863452
0.0568399 -0.087265246 -0.055656314 -0.01724272 -0.024543919 0.01619503 0.07534415 -0.05563623
0.02792243 0.06878675 0.01163406 -0.011221738 -0.055707537 -0.071657024 -0.06003309 0.00619207
-0.08855299 0.029828822 0.03510307 0.012160448 -0.0427955 0.06675064 0.025307696 0.03560105
0.02169083 -0.0059546106 0.06128164 0.08623265 -0.053851288 0.0077989656 -0.050575905 0.03841074
-0.044889953 -0.07026739 0.031807862 -0.07212002 0.012757544 0.05130725 -0.04542605 -0.030757891
-0.07243256 -0.05232204 0.005760273 0.032240767 0.067415565 -0.080320485 0.048388653 0.053059414
-0.09237373 0.0051973085 -0.02072895 -0.064754054 0.011680509 0.0009008605 -0.07129875 0.034044113
-0.03555673 0.067590505 0.004219268 -0.0086958865 -0.049429048 -0.024981918 -0.050424147 0.043247297

weight f4 [128, 136]
00000000: 8908 8ebd e136 debc 3f21 b83c ed7e 273b
00000010: 8e06 96b9 3e6d c9bc ea24 473b 3b4c aa3d
00000020: ad4b 243d 1f0f c5bc 01ac d6bc e5b0 463d
00000030: 1701 a7bb 54a8 513c 05ae 65bb 7bdd 24bc
00000040: d1be edbc 62db 453e 8d0b d1bd 3371 cfbd
00000050: c44e e53c f21d be3c 41f1 c7bd 9889 fa3e
00000060: 4dcd c23d 80ac 33bd b84d 3ebe f435 86bd
00000070: fad3 533d 14a3 32bb d6a5 123d 7805 0dbe
00000080: ba8c 903d 1955 85bd e366 b83d 3bed 343d
00000090: 6666 6ebd 6bfb 34bd c9af 1a3e 9e06 b7bc
000000a0: ce5b d33d 6bfe 1abe 62b4 0fbd c8c5 c3bd
000000b0: 38a3 0e3d bf93 2cbd 3c67 3d3e a16c b7bc
000000c0: ef26 86bc 56ef 113d 95ad 90bd 026e 39bd
000000d0: 66c3 6bbd 97f0 9bbd f863 c13d 9c50 83bd
000000e0: 0b78 783d fcd3 44bd 7524 9abd 625f e83c
000000f0: 2fb8 46bd 600f 3abd ebfd f4bc 6c8c 7c3d
00000100: a35d 7c3d bbeb b03d f859 fbbc 9001 9a3c
00000110: d6bd bdba bcc0 6d3d cd10 083b ad37 693a
00000120: 8fd2 4ebd 4867 b83a 1adf aa3d 66f0 3fbd
00000130: 56e4 d83d d926 35bd 84ed 703d 290c 6fbd
00000140: 0bab 58bc 28a2 61bd d72e 883b 9d06 ed3d
00000150: ab10 f6bc 3642 ae3d 70dd b3ba ffa9 c8bb
00000160: 351d 7bbd 5573 883d 0d04 a23b af35 cf3c
00000170: 96bc 4c3d 5114 d7bc 3618 773d f7e7 583b
00000180: 08ac f13d 6aa0 02be 6549 223c c97b a93d
00000190: ad52 9fbd 011c 1c3d c708 5f3d 96db fd3b
000001a0: 086e 223e 2a61 213d 631c 183d ba01 043d
000001b0: 8462 03bd 8820 7d3c a73b 83bd 884c 23bc
000001c0: 6400 c13a 59c3 06bd 2326 88be 969a 0dbd
000001d0: 5ef5 cc3d b94e 803d 5940 83bb b762 173d
000001e0: a7b5 5f3c d308 c0bd 86b9 2fbd 219a 5d3d
000001f0: a399 1d3b 483b 3ebd fbef a53d 1555 d33c
00000200: 1400 56bd b1f3 a43d 355f 56bd 3cd2 243c
00000210: b89d 923d f8d0 b53c 7992 1abe 8e8a 03bd
00000220: f73b bf3b 103d dabd 22af 353e 7043 a4bc
00000230: 71f1 243e 3b68 55bd a03b 2fbc 6e8d b13c
00000240: 1e81 903d f1ad d63d a021 55bd 81be 5cbd
00000250: 561f d1ba 2f7f 183d 97c0 1e3d 002a 35bd
00000260: 2492 843d b57f c33d f52d 52bd 8542 57bd
00000270: 415d 073d 838e 0c3e b491 afbd 1eb0 133f
00000280: 40b3 443c b843 d3bc add6 2dbd e897 b63c
00000290: 627e 263e 8b1f 393d 58f9 c63b b82b 4abd
000002a0: 7054 a93d 8b44 40bb 4d4a 813d 5dbf dabc
000002b0: 31dd 3a3d ed61 863d 4389 8c3d 88fc 7ebd
000002c0: a866 86bc 6556 4d3d 7918 fbbc d2a0 633d
000002d0: e9e3 023d 5602 cebd 346f 763e f70b cebd
000002e0: 2621 05bc 3c56 033c 963e fe3c 2fdd f43b
000002f0: 92f0 96bb 63b8 f03a 026c 323a bf2b 4d3d
00000300: b5a4 163d b452 41bd 8e93 333c b0db 303d
00000310: d749 9ebc 558b 4b3d d834 803b 10e9 9abc
00000320: 21a0 bd3d f19b c23d 1f65 69bc 5ece a6bd
00000330: 0706 a43d 1d68 5cbb 7fd6 483e 0fad 8bbd
00000340: 42f6 513d 378c 7b3d eb74 9cbc dd12 973c
00000350: 92cd 8abc f2eb b3bd ca58 90bb 478a b6bd
00000360: d77e 00bd 5b30 5abd 8464 e2bb 2e94 fc3a
00000370: d631 58bd aaf8 4d3d 85fd 273d 12b3 6abd
00000380: 2a4d e93c 3d42 173e 2f7e d0bd 6daf b6bd
00000390: f89e b4bd 48dc a3bd 934e 073d 7601 823d
000003a0: c954 b73d 65fc 3d3d 3db1 073e 5a8f 783e
000003b0: ac97 12bd 7f94 d8bb ff74 8bbd 84a4 a1bc
000003c0: ce1a 9f3d 013b 37bd 1365 3bbb ef78 34bd
000003d0: 8e0c d9bc 220f 733d ff28 a4bd 158e b1bc
000003e0: 1918 cbbd fd93 c13b ded0 b1bd a127 033e
000003f0: d03d 533d db96 ee3c ec3b 953d 15bd 4e3e
-0.06935222 -0.027125778 0.02247679 0.0025557831 -0.00028615113 -0.024588224 0.0030386993 0.08315321
0.040111233 -0.024055062 -0.026205065 0.048508544 -0.0050965655 0.01279648 -0.003504635 -0.010062571
-0.029021652 0.19321969 -0.10207281 -0.10129013 0.02799166 0.023207638 -0.097628124 0.489331
0.09511814 -0.04386568 -0.18584335 -0.065532595 0.05171583 -0.0027257847 0.035802685 -0.13771617
0.070580915 -0.06510372 0.09003999 0.044171553 -0.058203124 -0.044185083 0.15106119 -0.022342023
0.10320245 -0.15136115 -0.035084136 -0.09559208 0.034823626 -0.04213309 0.18496412 -0.022390665
-0.016375987 0.03562864 -0.07064358 -0.045270927 -0.057559393 -0.07614248 0.09442896 -0.064118594
0.060661357 -0.048053727 -0.07526485 0.028365795 -0.048515495 -0.04542482 -0.029906234 0.061657354
0.061612736 0.08638712 -0.030682549 0.018799573 -0.0014476131 0.058045134 0.0020761967 0.0008896541
-0.050493773 0.0014068866 0.083433345 -0.04686012 0.105904266 -0.0442265 0.058820263 -0.058361206
-0.013224374 -0.055086285 0.0041559744 0.11573527 -0.030037245 0.085087225 -0.001372261 -0.0061237807
-0.06130715 0.06662623 0.0049443305 0.025294153 0.049984537 -0.026254805 0.060325824 0.0033097246
0.118003905 -0.12756506 0.009905194 0.08275563 -0.07779441 0.038112644 0.05445173 0.007747124
0.15862286 0.039399303 0.037136447 0.03222821 -0.032076374 0.015449651 -0.06407862 -0.009966977
0.0014724848 -0.03290114 -0.26591596 -0.034571253 0.100077376 0.06265015 -0.0040054736 0.036959376
0.013654149 -0.09376683 -0.04290154 0.054102067 0.0024047873 -0.046443254 0.08102413 0.025797406
-0.05224617 0.08054293 -0.05233689 0.010059889 0.07158989 0.02219437 -0.15094937 -0.032114558
0.005836006 -0.10656178 0.17742589 -0.020051688 0.16107728 -0.052101355 -0.010695368 0.021673884
0.07055877 0.104823954 -0.05203402 -0.053892616 -0.0015954773 0.037230667 0.038757887 -0.044229507
0.064731866 0.095458426 -0.05131336 -0.052553672 0.03304792 0.13726239 -0.085727125 0.5769061
0.012005627 -0.025789127 -0.04244106 0.022289231 0.16259149 0.045196097 0.0060722046 -0.0493581
0.08268058 -0.002933773 0.06313 -0.026702577 0.0456211 0.065616466 0.06862118 -0.06225255
-0.016406372 0.05013122 -0.030651318 0.055573292 0.031955633 -0.10059039 0.24065858 -0.10060876
-0.008125579 0.008016165 0.031035703 0.007472656 -0.004606315 0.0018365498 0.00068062556 0.050090548
0.03677817 -0.047198012 0.010960473 0.04317826 -0.019322319 0.049693424 0.0039125495 -0.018909961
0.09259058 0.095024 -0.014245301 -0.0814483 0.08008962 -0.0033631392 0.19613074 -0.06820118
0.05126024 0.061413016 -0.01909872 0.018441612 -0.016943727 -0.08785237 -0.0044051157 -0.08913093
-0.031370964 -0.05326877 -0.006908955 0.0019270235 -0.052781902 0.050285973 0.04101326 -0.05729968
0.028479178 0.14771362 -0.101803176 -0.089201786 -0.088193834 -0.08001 0.03303392 0.06347935
0.08951718 0.04638328 0.13251205 0.24273434 -0.035789177 -0.006609499 -0.068094246 -0.019731767
0.077687845 -0.044734005 -0.002859418 -0.044060644 -0.026495244 0.059340604 -0.08015632 -0.021674195
-0.09916706 0.005907534 -0.086824164 0.12808086 0.05157262 0.029124668 0.0728682 0.20189317

bias f4 [128]
00000000: 472e 3fbd 00b5 2abd 10f7 c03b 94e7 7dbc
00000010: 8f08 c13d 7e85 86bc 9371 803c 87e7 b33d
00000020: cb7a 97bd 1088 9fbd 25cc 4ebd d8bc a6bc
00000030: 438d a0bd 33c4 123c e21b 02bd cf68 31bd
00000040: 5252 e5bc 9b1f 043d 81b3 59bd e5be 6f3d
00000050: 02cb 19bd e52b 0a3d 8d63 0abd 3abe f63b
00000060: 1254 38bd 9529 95bc 960a 41bd 20dd 2c3c
00000070: 193f f43c 27a6 913d 637f a23d d908 28bd
00000080: b2db 52bc 4649 293d 457e 9b3d 6ae3 35bb
00000090: 3641 bf3a 5843 9a3d 9a7e 6d3d 060f 503c
000000a0: d477 18bd 4bc9 003d 6671 44bd 684e 173d
000000b0: 3f42 1b3d 20ef d0bb 3c6a 843d a872 ae3c
000000c0: b08b c7bd 620d f5bb 8ecf 2b3d 4c02 f4bc
000000d0: 909a 853d f698 be3d 1d85 053d 59b7 9c3d
000000e0: 4445 4ebd dd79 523d 8f17 8b3d 746f 38bd
000000f0: 3246 f8bc e298 96bc c063 39bd 1fae 9fbd
00000100: b525 b13c c3af 923c ad7a d63c 1dd9 8c3d
00000110: 0d4d b5bc 0036 b6bd 39dc 8e3d e633 19bc
00000120: ed74 433d c4ea ce3c 1082 50bc 5158 343d
00000130: 18f8 513c abad 593c 0701 363d a8e6 f83c
00000140: a8d1 a73d 2df3 303c c43e 9dbd 19fd 50bd
00000150: 3d2b 3cbc b520 a8bb 49d4 07ba 34b3 853d
00000160: 6515 40bd 6256 11bc 5577 053d 7180 afba
00000170: b49c 3e3d 3fb6 9cbb e04e 683b ed06 9dbd
00000180: 63ed 083d e9b6 7abd 8892 de3c 723e 88bb
00000190: eb87 5abd a282 efbc 7fa1 5abd e5b4 24bd
000001a0: 1d45 183c 61da 14bc a15c 4a3d 4578 38bd
000001b0: aec2 adbd e0a4 833d a1a6 4fbd 1357 0c3d
000001c0: c8c1 75bc 757e ab3c b6e8 58bd 2ee8 fbbc
000001d0: def0 75bc 3cd5 a23c 721f 89bd 71a0 a43d
000001e0: 3a17 d4bc b4dc cb3c a824 5a3d e6a7 383d
000001f0: e296 86bd b27a a1bc b120 8d3d 522a 28bc
-0.046674993 -0.04167652 0.005888827 -0.015497107 0.094254605 -0.016421076 0.015679156 0.08784395
-0.07396468 -0.07789624 -0.050487656 -0.02035372 -0.078394435 0.00895791 -0.031764872 -0.043312844
-0.027993355 0.032256704 -0.053149704 0.05853166 -0.03754712 0.033733267 -0.033786345 0.007530001
-0.04500205 -0.018208304 -0.047129236 0.010550767 0.029815244 0.07111769 0.07934453 -0.041024063
-0.012869762 0.041329645 0.075924434 -0.0027753958 0.0014591578 0.07532376 0.057982065 0.012698894
-0.037223652 0.031441968 -0.047959708 0.03694001 0.037904974 -0.006376162 0.06465575 0.021294907
-0.0974344 -0.007478402 0.041945986 -0.029786251 0.06523621 0.09306519 0.03259765 0.07652158
-0.050359026 0.05138575 0.06791603 -0.045028165 -0.03030691 -0.018383447 -0.045261145 -0.07796883
0.021624425 0.017906075 0.026181543 0.068773486 -0.022131467 -0.088970184 0.06975598 -0.009350752
0.04771893 0.02525843 -0.012726322 0.044029538 0.012815498 0.013286035 0.044434574 0.030383423
0.08194286 0.010800165 -0.07677987 -0.051022623 -0.011484918 -0.005130852 -0.0005181474 0.06528321
-0.046895403 -0.008870693 0.032584507 -0.0013389719 0.046536162 -0.0047824676 0.0035447404 -0.076673366
0.033429515 -0.061209593 0.02716948 -0.0041578347 -0.053352278 -0.029237095 -0.05337667 -0.040211577
0.009293822 -0.009085269 0.049404744 -0.045036573 -0.08484398 0.06427932 -0.05069602 0.034262728
-0.014999814 0.020934323 -0.052956305 -0.03075036 -0.0150110405 0.019877069 -0.06695451 0.08038414
-0.025889982 0.024885513 0.053257614 0.045081995 -0.06571747 -0.019711826 0.06891001 -0.010263996

weight f4 [128, 256]
00000000: 9442 3a3d 73bd 39bd 9499 7f3d d659 643d
00000010: 366b 2d3c 6118 cfbd ad50 30be 6272 233d
00000020: c0c1 29bd ea49 7abd 027e 3e3d df71 3ebd
00000030: e9be 41bc aca9 48bd fc5d 80bd 232b db3c
00000040: a0fa b5bd 56a4 0ebd d3f7 4fbd 5e5e bc3b
00000050: 2356 b33c b05b 503c fbcb d3bc a34c 533e
00000060: 7b1d 59bd 07c5 e73c 039d d73c fe7e 9d3b
00000070: a928 bdbd 20a9 0fbd 6c14 b5bd 81a8 b83d
00000080: 60dd 08bd d870 2abc 9f50 48bd 3930 6c3d
00000090: d638 8b3b d4db c73c 3c9d 623c cd14 a7bc
000000a0: 79a9 4bbd d4f7 223d 1071 e33c 6f39 76bc
000000b0: 1a80 43bb 9f87 a9bd 3b9f b83d 88e9 82bc
000000c0: dac8 f93c b41f 83bd eceb eabc 15ab 313d
000000d0: f98e 7c3d b55d 65be 53b5 28bc 792c 343c
000000e0: 4a87 ea3c 7bf8 00bd d2a8 7ebc 637f f3bb
000000f0: 9fa5 883d 74b9 923d a5c4 b6bd 59fb 00bd
00000100: b196 3e3d 1f8a 383d a0dc 413d de7b febc
00000110: 4d1a 56be a1d3 85bc 7e13 cf3d 18c6 0a3d
00000120: 68a5 ddbc 6ef6 64bc 905c 2cbc 0a44 edbc
00000130: 5aaf a3bd f49b e6bc 2884 003b 10da 96bd
00000140: 8c68 95bb e64d a9bd 3adb b13c 86e4 27bd
00000150: 7c0e 373d 0af9 43bd 5948 463c 7653 74bd
00000160: 1726 8c3c fe21 cbba c45f 2bbb 29ba 2b3d
00000170: 8f02 64bd e223 cdbc af45 10be 47e3 9b3c
00000180: c2ab 0ebd c10e 31bd d171 aa3d c1a8 17bd
00000190: 278d 293c 18f8 903d b1ba 843d c021 4f3d
000001a0: e976 f7bd b986 92bd d7ac e1bb cdb5 f63b
000001b0: a0d3 48bd e897 01bd b864 13bc 2d52 da3b
000001c0: 2246 c8bd f4f7 353c 4671 95bc a797 733d
000001d0: f30c 22be 7664 ec3c 39a0 65bb 1905 483d
000001e0: 3600 153d 35f9 61bb db12 54be 53c1 d43d
000001f0: 95fe ae3a d2ca 24bd 70ed 443d 0bc1 b43d
00000200: bac7 bf3c e1d5 b33d aea3 bc3c 065c b0bd
00000210: 153e 27bd 2c2b 2e3d 79fa b03d b915 fcbc
00000220: 9285 d838 65a1 acbc 9ba0 70bc 9c8d a6bc
00000230: 51d2 fa3d 97b0 93bd f7d6 04be 4d71 09bd
00000240: bc7b e43d 5772 c03c 2c68 21bd 506f 033d
00000250: f907 06be 8bd9 cc3d 7fc7 973d e4a8 cf3d
00000260: 7a83 9fbd 9209 9d39 f892 013d 3328 09be
00000270: b3a2 bebd f8b9 cc3d a9f8 53bd 6439 c9bd
00000280: 0a48 b83d 95a4 8c3d 6b34 b63c 4689 2ebd
00000290: 5d8f bb3d aad1 a9bd 3516 493d 1227 ccbc
000002a0: 5b10 253d fe9f 92bc f553 fb3c d324 92bc
000002b0: 9fa7 723d c4bc 27bd 5f0e 9dbd 8dce a73c
000002c0: 60b2 83bd 7b56 93bd 1f04 99bd f8a1 8d3c
000002d0: 23b2 f5bc cba3 65bc e77f 13bd 3d2b babb
000002e0: 937b d33b 7d9c d7bd a58d 26bc a803 143d
000002f0: 8219 563a 611f b23d 4cab 49bd 45d0 91bc
00000300: f690 f5bc ebb4 a93d c4b1 9cbd 21ae de3c
00000310: 9391 0c3d 89f6 3dbd 6049 933d 9732 10bd
00000320: fc73 25bb 21d1 99bb 6455 87bd 9031 d0bc
00000330: 2314 0b3c 318c 633d 3c97 403c 0e13 f03c
00000340: 5184 0f3d 3826 7b3d 9368 d33d cd24 36bd
00000350: fc6c 393d a297 62bb cddc 81bd 40ff 193d
00000360: 8d21 0abc 9c80 393d c757 a2bd 8c86 27bb
00000370: 2c69 37bd ad7a 833d 53fe a4bd e1c7 8a3d
00000380: 5e9f 213d 3707 cdb9 d0ec 9c3d 0d95 c63c
00000390: 232b e2bb 9e5d b4bd 8555 6e3d 8f8f 0abb
000003a0: 1044 5c3d b268 87bd eb88 b6bd 9c22 36be
000003b0: 51b9 32bd 1e8a 0b3c 3af3 febb 43d5 483d
000003c0: a470 2c3c 5879 2fbd ebb9 093d d760 2a3d
000003d0: f6e5 06bd c4e2 30bd 39a5 20bd a205 b43d
000003e0: d098 59bb dba8 77bd 41b5 933c e7c7 d83a
000003f0: 470b 2ebd 7c2b 033d a701 103d ba04 02bd
0.04547365 -0.04534669 0.062402323 0.055749737 0.010584643 -0.10112072 -0.17218275 0.039904006
-0.04144454 -0.061105646 0.04650689 -0.046495315 -0.011825302 -0.048989937 -0.06267926 0.026753968
-0.088856936 -0.03482469 -0.050773453 0.005748554 0.02189166 0.0127171725 -0.025854101 0.20634703
-0.05300663 0.028292192 0.026319986 0.0048063984 -0.09236271 -0.0350734 -0.08841786 0.090165146
-0.033414245 -0.010402881 -0.04890501 0.057663176 0.0042487187 0.024396814 0.013831433 -0.02039566
-0.04972217 0.03978713 0.027763873 -0.015028342 -0.0029830993 -0.08277821 0.09014746 -0.015980497
0.030491281 -0.06402531 -0.02867695 0.043376047 0.061659787 -0.22399028 -0.010297137 0.010996931
0.028628964 -0.03148697 -0.01554318 -0.007430957 0.06672215 0.071642786 -0.08924226 -0.031489704
0.04653043 0.045053598 0.047329545 -0.031064924 -0.2090847 -0.016336264 0.1011114 0.033880323
-0.02705641 -0.013974769 -0.0105201155 -0.028963108 -0.0799243 -0.028150536 0.0019610021 -0.07365811
-0.004559582 -0.08266811 0.02171098 -0.04098942 0.044691548 -0.047844924 0.01210221 -0.059649907
0.017108006 -0.0015497801 -0.002614961 0.041925583 -0.055666503 -0.025041524 -0.14089082 0.019029273
-0.03483177 -0.04322696 0.0832249 -0.03702617 0.010348595 0.0707857 0.06480921 0.050569296
-0.12083227 -0.071546026 -0.006887059 0.0075289966 -0.049029946 -0.03163901 -0.008996181 0.006662628
-0.09779002 0.01110648 -0.01824249 0.0594708 -0.15825252 0.028856497 -0.0035038127 0.048832987
0.036377154 -0.0034480814 -0.20710318 0.10388436 0.0013351018 -0.040232487 0.048078 0.088258825
0.023410667 0.087810285 0.023027267 -0.08611302 -0.04083069 0.04252164 0.08641524 -0.030772077
0.00010324562 -0.021073053 -0.014686729 -0.020331196 0.12247146 -0.07211416 -0.12972628 -0.033555318
0.11156413 0.023492021 -0.039405987 0.032088578 -0.13088979 0.100024305 0.07411098 0.10139635
-0.07788749 0.00029952504 0.0316343 -0.13394241 -0.09308376 0.09996408 -0.051750813 -0.098253995
0.08998115 0.06867329 0.022241792 -0.042611383 0.09158204 -0.08291943 0.049093444 -0.024920974
0.0402988 -0.017898556 0.030679682 -0.017839825 0.059241887 -0.040951505 -0.07668757 0.020484233
-0.06430507 -0.07194229 -0.07471489 0.017289147 -0.029992169 -0.014016102 -0.03601065 -0.005681424
0.00645394 -0.10527895 -0.010165607 0.0361363 0.0008167253 0.08697391 -0.049235627 -0.017799506
-0.02997635 0.082864605 -0.076510936 0.02718264 0.034318518 -0.046377692 0.071917295 -0.035204496
-0.0025246134 -0.0046941196 -0.06608084 -0.025414258 0.008488688 0.05555362 0.011754807 0.029305961
0.035038296 0.061315745 0.1032268 -0.04446869 0.04526995 -0.0034575243 -0.063409425 0.03759694
-0.008430851 0.045288667 -0.079268984 -0.0025562374 -0.044778034 0.06419883 -0.08056321 0.06776405
0.039458625 -0.00039106022 0.07662356 0.024240995 -0.006902115 -0.088069186 0.058187027 -0.0021142696
0.053775847 -0.06611766 -0.08912834 -0.1778664 -0.043633763 0.008516816 -0.0077804597 0.049031507
0.0105249025 -0.04284033 0.03362457 0.04159626 -0.03293415 -0.04318501 -0.03922007 0.08790137
-0.0033202656 -0.060463767 0.018030765 0.0016539068 -0.042491224 0.03202389 0.035157826 -0.03174279

bias f4 [128]
00000000: b8c8 0d3d 2029 7cbd 099d 57bd 167e 003a
00000010: f08c 7e3c 69bf 8e3d 69ab 713d 389e 32bd
00000020: 9096 633d 0d67 313d 1b61 153d 2b3e c43c
00000030: a76b 27bd 4d62 efbc d7fd 32bb 092d 7abd
00000040: b639 8a3c 6430 b73d 7556 643d b0ca 70bc
00000050: 35b1 853d 2bcc 403d 17db 223d ade1 e93b
00000060: dc45 a1bb c176 53b9 d665 97bc 70a2 c9bb
00000070: e1b9 0f3d 7ee8 40bd 447f 223d cacf 58bd
00000080: 69d4 403d eda6 bebc 1b78 853d 219e 0ebd
00000090: 12f5 f0bc 6e04 033c 8ddc 833c 67c3 6d3d
000000a0: 0ac6 433d d2db 89bd 55d6 09ba 353c b0bb
000000b0: c01e 183d e680 3c3d 6cec f33c ad8f e43c
000000c0: 12fa 63bd 8e7c 89bc 5eb2 413d d0aa d43c
000000d0: 7277 90bc 8b9f 35bd a622 9cbb a512 63ba
000000e0: b1de 73bc ca21 6f3d 7e04 f03b f249 71bb
000000f0: 806f 123a 67eb aebc 07ff 3d3d 6e72 b63c
00000100: 4457 94bc 9e56 153d 44b0 b13c b49c 033d
00000110: 2b4a 82bc 176c 4abc 0b20 233b da1b 0cbd
00000120: a2bd 7b3d 0804 7f3d 3b46 4339 fbea fe3c
00000130: 6ea2 27bc 1b18 203d 66a6 4ebc e53f 0cbc
00000140: 3409 9d3c 25ba 24bd 7d58 e03c 391f 81bd
00000150: 33f2 a73c 7ce9 ad3c 2aaf 4a3d 4568 04bd
00000160: fccb cebc 0251 25bd 54c5 31bd 0b72 34bd
00000170: 21e9 15bc 9590 5ebc f997 a8bc 322e 083d
00000180: 9654 a5bc 8b1c c1bc 521d 4dbd 54e9 423d
00000190: e7e2 fb3c 9578 563d 4c07 38bd f480 c93c
000001a0: 8603 9c3d 4122 33bd 0f2f a1bc de9f 95bc
000001b0: 2c4b dd3c 2e9e 6b3d 4049 a8bd c61b 0a3d
000001c0: 4064 8a3c 8986 133b 60ee 3bbd ba98 02bd
000001d0: 1520 133d 0535 b23d e0b6 b9bc 8af0 313d
000001e0: bd9a e5ba d857 4a3d fc94 8e3c 9ba9 f33c
000001f0: 7fec 983d 58e5 a2bb 9e38 b23b 95ef 9a3a
0.03461525 -0.061562657 -0.052639995 0.0004901601 0.015536532 0.06970102 0.05900136 -0.04360792
0.05556351 0.043311168 0.03646956 0.023955425 -0.04087415 -0.029221678 -0.0027311945 -0.061078105
0.016873222 0.08944777 0.055746514 -0.014696762 0.0652794 0.04706971 0.03975972 0.0071374984
-0.004921658 -0.00020166767 -0.018481176 -0.0061533973 0.035089377 -0.04709672 0.03967215 -0.052932538
0.04707757 -0.023272956 0.06517049 -0.034818772 -0.029413734 0.007996662 0.016096378 0.05804768
0.047796287 -0.067313805 -0.0005258073 -0.005378271 0.0371387 0.046021365 0.02977582 0.027900541
-0.055658408 -0.016783025 0.047289245 0.025960356 -0.017635081 -0.044341605 -0.0047648726 -0.0008662141
-0.014884637 0.058381833 0.0073247543 -0.0036817756 0.0005586073 -0.021352483 0.04638579 0.022271361
-0.018108018 0.036459558 0.021690495 0.032131866 -0.015904507 -0.012354872 0.0024890925 -0.03420625
0.061460145 0.062259704 0.00018622812 0.031117907 -0.010231597 0.03908549 -0.012612915 -0.0085601555
0.019169427 -0.040216584 0.027385945 -0.063047834 0.020501232 0.021229498 0.049483456 -0.032326
-0.025243752 -0.04036046 -0.043401077 -0.044054072 -0.009149821 -0.013584276 -0.020580279 0.03324718
-0.020181935 -0.02357318 -0.05007679 0.0475858 0.030747844 0.05236109 -0.044928834 0.024597622
0.076178595 -0.04373384 -0.01967576 -0.018264707 0.027013384 0.0575239 -0.08217096 0.033717893
0.016893506 0.002251061 -0.04588163 -0.031883933 0.035919268 0.08701519 -0.02267021 0.043442287
-0.0017517429 0.04940018 0.017405026 0.02974396 0.07466983 -0.0049711876 0.005438878 0.0011820669

weight f4 [2, 256]
00000000: 3779 78bd 97e3 503e 94ee 323e 8fc0 cebd
00000010: a8b6 a63d 1fb6 ca3d b58a 72bd e6e7 be3d
00000020: 5245 4e3d 2f9c b83b fcd2 963c 65d3 b53d
00000030: 9c4f 08bd a0de 58bc f4d5 8ebd cb8f d2bc
00000040: 0f1b 89bd fe13 533d da1d 6e3d bf2b a0bd
00000050: 56d4 9dbd 3356 cbbd 1b73 e93a 4c84 b5bd
00000060: f110 583d 1cce edbd 4845 943c a9d5 a4bd
00000070: eb8b 793d b0c3 d0bc 15f7 963b cb01 2dbd
00000080: b8a3 48bd 29fe 03be 2087 e5bd 4cb9 273d
00000090: 188a bdbd 6c6a b93d 4dde 95bd d75a ac3a
000000a0: 52ea af3d 2c69 8bbd 5100 213d 621f b5bc
000000b0: 0c48 ce3d 3b5a 29bb 04c8 463d cd82 06bd
000000c0: 2482 ad3d b2d0 3bbb 5c85 573c e555 13bd
000000d0: 32e6 3e3d 5726 cabd 9a50 edbd 0cfd b43d
000000e0: 8354 94bd 7dd5 aa3d 810d ba3d b881 85bd
000000f0: c0fa 08be 4cc2 c43d f0f5 47bc 550d 993d
00000100: c3c6 043e 29df 5a3c 3aeb 7c3d 7fe6 43bc
00000110: 58b5 c73c 229a d63d 714c ab3c de86 cabd
00000120: 78c0 793d 6579 703d 44a0 d9bd bf25 b03d
00000130: e1f2 a9bc 4cf5 463b 1f95 0e3d 5cd2 323d
00000140: f20f 70bd 9c66 a0bd 595e 97bc 4e77 e9bc
00000150: 4b89 a93d d88a 523c 53b4 993d 28dd ff3c
00000160: 3309 dd3d 46f2 8c3e b608 f03c ea1b 0d3e
00000170: 16b5 b23d 3e0f 833a fbcf 0dbe 84ff 96bd
00000180: 5c79 a7bd e921 273d 2bed 1e3d 6e05 193d
00000190: f07d 60bd 8381 9d3d 84dd 193d 419f 81bd
000001a0: b6e5 983d 4d0c 113e a535 023d 9c47 923b
000001b0: be20 74be b838 90bd 6a1c 283e c7bf a33d
000001c0: 8ab9 51bd d616 933d 2c30 173e dda6 babd
000001d0: 224f c8bd d2e7 b23d 59f8 2dbb 266c 8e3a
000001e0: 57ef 983d a79f 0f3d debf c7bd 8c79 d0bd
000001f0: d17c e0bb e72d e23d 791d 79bd faf5 b63d
00000200: 716a 80bd f3c8 7a3e 8984 1b3e bf2d 85bd
00000210: 4e34 db3c 32c9 073b cf2d 1e3c 5c1b fd3d
00000220: 06e0 bb3d 25ba 843b f133 9d3d 6a9e bb3c
00000230: 9009 9fbd 4e88 a23d 9e3a bebd ac00 ddbd
00000240: 55b7 3ebd 7adb db3d fdc0 993d 16af 73bd
00000250: 6a64 51bd c939 d4bd 31a6 ae3b c10e efbc
00000260: d6ea ac3d 65d0 b5bd ca31 fc3c 6ab6 b3bd
00000270: c430 c4bb b9d2 a8bc c390 65bd a9dc 37bd
00000280: 2771 86bd aecb abbd 7412 67bd ac48 a73c
00000290: 2285 2f3c 8df2 ca3d 7e44 0fbe 73a1 88bd
000002a0: e829 783c 5db9 22bd 7316 5e3d aa9f adbd
000002b0: 3f60 cb3d 698c 8ebd 1cce 0e3d 9af1 ccbd
000002c0: 3093 7c3a e620 123d fdd4 223d 28d9 88bd
000002d0: 076a 683c a21e 89bd 267a 86bd d378 8b3c
000002e0: 9a89 b5bd dd41 933d fe05 b23c 339f 42bd
000002f0: b91e d9bd cfce b5bb 9f9a c2bd 4f8c 153a
00000300: 9934 0e3d d954 8bbc 0981 a23d e647 bfbd
00000310: 8275 5f3d 7f01 a53d 2109 393d d6f2 44bd
00000320: 006e d9bb 2a97 593d 1d38 b3bd 4690 263d
00000330: ba60 28bd a9a7 663d fa84 3ebd e22b d1bc
00000340: 22e8 3e3c 7131 aebd 6c1e 87bd 8ce3 9abb
00000350: f770 473c d27b af3d beea f73c 95e1 42bc
00000360: 1428 873d 8b57 633e ca2f 153d 309f 283e
00000370: 4ee3 a03d 8cc5 adbd edb3 06be 0e9d a3bd
00000380: 8a06 94bd c483 d03b 4d98 893d d6aa 743d
00000390: 1784 dbbd e07c 783d 84c0 863d b4a8 0abe
000003a0: 4bb9 3b3d c372 093e 18f4 91bc d956 8dbd
000003b0: 9a13 70be 7bee 97bd f78b eb3d e023 13bc
000003c0: c1ae a1bd 0de6 be3b b2e7 dc3d 3b1e 71bd
000003d0: 9a67 8abd 008c c53d d950 9cb9 e511 b33d
000003e0: 646f a03d 01c7 9c3d 6a5f 91bd d375 d6bd
000003f0: 0609 0ebd 3be3 b83c 0119 bebc 5f95 053e
-0.060662474 0.20399319 0.17473823 -0.100953214 0.08140308 0.09898018 -0.059214313 0.09321575
0.050359078 0.005633853 0.018411152 0.08878211 -0.033279046 -0.013236672 -0.06974402 -0.025703331
-0.06694614 0.051532738 0.058133937 -0.07820844 -0.077065155 -0.099285506 0.0017810793 -0.08863124
0.05275053 -0.11611578 0.018099442 -0.08048565 0.06092445 -0.025483936 0.004607091 -0.042238038
-0.04898426 -0.12889923 -0.11207414 0.040948197 -0.09254855 0.090535015 -0.07317791 0.0013149631
0.08589615 -0.06807169 0.039306942 -0.022109691 0.100723356 -0.0025841135 0.048530594 -0.032839585
0.08472088 -0.0028658328 0.013154354 -0.035970587 0.04660625 -0.09870594 -0.11587639 0.08837327
-0.07242682 0.08341501 0.09084607 -0.065188825 -0.13376904 0.09607372 -0.012204632 0.07473246
0.12966447 0.01335887 0.061747767 -0.01195681 0.024378464 0.10478617 0.020910474 -0.09889005
0.060974568 0.05870952 -0.10626271 0.086009495 -0.020745696 0.003035861 0.03481018 0.043657646
-0.058608957 -0.07832071 -0.018477606 -0.028499272 0.0827814 0.012850486 0.07505097 0.031233385
0.1079277 0.2752859 0.029301029 0.1378018 0.08725946 0.0009999049 -0.1384887 -0.073729545
-0.08177444 0.040803824 0.0388004 0.037358694 -0.054807603 0.07690718 0.03756477 -0.063292034
0.07465689 0.14164849 0.03178944 0.004464103 -0.23840615 -0.07042068 0.16417089 0.07995563
-0.051202334 0.0718209 0.1476447 -0.09113858 -0.097807184 0.087356225 -0.0026545732 0.0010865971
0.074675255 0.035064366 -0.09753393 -0.10179433 -0.006850817 0.110439114 -0.060819123 0.08933635
-0.06270302 0.24490719 0.15187277 -0.06502866 0.02675834 0.0020719287 0.009654476 0.12358734
0.091735885 0.0040505105 0.07675923 0.022902686 -0.07765496 0.07936154 -0.09288524 -0.10791144
-0.046561558 0.10735221 0.07507513 -0.059493147 -0.051121153 -0.10362584 0.00532987 -0.02918184
0.08443229 -0.08877639 0.03078546 -0.08775027 -0.0059872586 -0.020608293 -0.05604626 -0.044888172
-0.06564551 -0.08388458 -0.056414083 0.020420395 0.010712894 0.09909544 -0.13990971 -0.06671419
0.01514671 -0.039727557 0.054220628 -0.08477719 0.09930467 -0.06960375 0.03486453 -0.10007019
0.000963497 0.035675906 0.039753903 -0.06682044 0.014185435 -0.06695296 -0.06566267 0.017025387
-0.08864136 0.07190297 0.021731373 -0.047515105 -0.10601563 -0.005548335 -0.09502148 0.00057048065
0.03471813 -0.017008232 0.07934768 -0.093398854 0.054555424 0.08056926 0.04517472 -0.04808315
-0.0066354275 0.053122677 -0.08750937 0.040664934 -0.04110787 0.056312237 -0.046513535 -0.02553362
0.011652024 -0.08505524 -0.065975994 -0.0047268327 0.012172929 0.08568539 0.030263301 -0.011894603
0.06599441 0.22201364 0.03642253 0.16466975 0.07855855 -0.08484945 -0.13154574 -0.0798894
-0.0722781 0.006363364 0.06718502 0.059733234 -0.107185535 0.060665965 0.06579688 -0.13540918
0.045831006 0.13422684 -0.017816588 -0.069013305 -0.23444977 -0.074185334 0.115013056 -0.008980721
-0.0789466 0.005825764 0.1078638 -0.05886672 -0.06758042 0.096458435 -0.00029814875 0.087436475
0.07833746 0.076551445 -0.07098277 -0.10471692 -0.034676574 0.02256929 -0.023205282 0.13045262

bias f4 [2]
00000000: 545a 3c3d 2eeb 59bc
0.04598458 -0.0133007
