E-GraphSAGE/netflow/bot-iot/EdgeGATKAN_binary_best_model.pth (torch, 155120 bytes, 11 tensors)

attn_l f4 [1, 8, 128]
0	0xbda520ba	-0.08062883
1	0xbd864b6b	-0.065573536
2	0xbd850177	-0.0649442
3	0xbe0d320e	-0.13788626
4	0xbc28def3	-0.0103070615
5	0x3d34db31	0.04415435
6	0xbd570198	-0.052491754
7	0x3ddb3ee3	0.10705354
8	0xbd84ade7	-0.06478482
9	0xbdb7c71b	-0.08973523
10	0xbc4e7e42	-0.012603344
11	0x3daf1f37	0.08550876
12	0x3dd2a11b	0.10284635
13	0x3cb443f6	0.022005063
14	0x3c93455e	0.017977413
15	0xbd9f663e	-0.07783173
16	0x3d9ef28f	0.07761108
17	0x3b5c8156	0.0033646426
18	0xbcc3c990	-0.023899823
19	0xbd667caa	-0.056271233
20	0xbddbc0a8	-0.10730106
21	0x3e11f08e	0.1425192
22	0x3d01d283	0.0316949
23	0x3c8c94cd	0.017160797
24	0x3d613cdc	0.05498968
25	0xbc11ef89	-0.008907207
26	0xbbdf14aa	-0.0068078833
27	0x3d608b93	0.05482061
28	0xbd563b32	-0.052302547
29	0x3dbd8ec2	0.092557445
30	0xbddcf1f0	-0.107883334
31	0xbd52f7c8	-0.051505834
32	0x3d6d15c4	0.057882085
33	0xbd8298a3	-0.063767694
34	0xbd5036f0	-0.050833642
35	0xbc9759df	-0.018475471
36	0x3cc28cab	0.023748716
37	0xba747c6c	-0.00093264016
38	0x3dadf94f	0.084948175
39	0x3d61b8e5	0.05510797
40	0x3ab6eef1	0.0013956708
41	0x3d78aa1d	0.060709108
42	0x3bbcce14	0.005761871
43	0x3d929f26	0.071592614
44	0x3d5e9447	0.054340627
45	0x3d26ff11	0.040770594
46	0xbba9e7f3	-0.005185121
47	0xbae97d71	-0.0017813874
48	0xbc5ef49a	-0.013608122
49	0xbdd5fbb3	-0.104483984
50	0x3dc605db	0.096690856
51	0x3c5fc98e	0.013658894
52	0xbda9d4ad	-0.08292518
53	0x3d8aea90	0.067830205
54	0xbc4fe7d1	-0.012689547
55	0x3de7dbde	0.11321233
56	0x3d62511f	0.055253144
57	0x3d20125c	0.03908001
58	0x3da1b2c4	0.07895425
59	0xbcbf332f	-0.023339836
60	0xbda66b82	-0.08125974
61	0x3db6df96	0.089293644
62	0x3d87c3f5	0.06629173
63	0x3d407fb3	0.046996783
64	0xbc7eb25a	-0.015545452
65	0xbc596488	-0.013268597
66	0x3dbe122a	0.09280808
67	0x3d033a08	0.032037765
68	0xbde76675	-0.11298839
69	0xbc444688	-0.011979707
70	0xbd14d088	-0.036331683
71	0xbbd3a644	-0.0064590294
72	0x3d46f3b7	0.04857227
73	0x3d91c414	0.07117477
74	0xbca4f3e4	-0.020135827
75	0x3dce85aa	0.10084088
76	0x3db19864	0.08671644
77	0xbbc9f436	-0.0061631454
78	0x3c961817	0.018322034
79	0xbc9156b8	-0.017741546
80	0xbca9f29e	-0.020745572
81	0x3ae5a5ec	0.0017520762
82	0xbc1d8efc	-0.00961661
83	0xbd119329	-0.035540733
84	0xbd63926e	-0.055559568
85	0xbb318f6a	-0.0027093538
86	0x3e405804	0.18783575
87	0x3df2253c	0.11823508
88	0x3d538851	0.051643673
89	0xbbad30a7	-0.005285341
90	0xbe1931ed	-0.14960451
91	0x3da86172	0.08221711
92	0x3e07a107	0.13245021
93	0x3d05c8e4	0.032662287
94	0x3c931f76	0.017959338
95	0x3ce2e6cd	0.027697945
96	0xbc5a4cca	-0.013323972
97	0xbe005c10	-0.12535119
98	0xbd063f7c	-0.032775387
99	0x3c383f71	0.011245594
100	0x3c52b0d9	0.012859547
101	0xbd83594e	-0.06413518
102	0xbc436bd0	-0.01192756
103	0x3c3c4b13	0.011492508
104	0x3c58e387	0.0132378405
105	0xbd700e51	-0.058607403
106	0x3d7aa96b	0.061196726
107	0xbcdc699b	-0.026905825
108	0xbde3bd9e	-0.11120151
109	0xbc09799b	-0.008390809
110	0xbd138a5c	-0.03602062
111	0x3d0d69eb	0.03452484
112	0xbdf3fb7b	-0.119132005
113	0x3c956421	0.018236222
114	0x3bee5237	0.0072729844
115	0x3d6d52d0	0.057940304
116	0xbcebf325	-0.028802464
117	0x3c621aac	0.013800304
118	0xbc78c57b	-0.015183802
119	0xbd48a3bb	-0.04898427
120	0xbcd9457c	-0.02652239
121	0xbd61c8a7	-0.055122998
122	0x3cc18896	0.0236247
123	0x3d8e3ff3	0.06945791
124	0xbd046fbb	-0.032333117
125	0x3dfae00a	0.12249763
126	0x3a7ff498	0.00097639253
127	0xbdbac45c	-0.09119484
128	0x3cc07ede	0.023497995
129	0x3d002178	0.03128192
130	0xbd7d11a9	-0.06178442
131	0x3d316b74	0.043315366
132	0x3c6a8c64	0.014315698
133	0xbc048b25	-0.008089815
134	0xbcede254	-0.029038586
135	0x3ca52d9f	0.020163355
136	0x3db1e629	0.08686478
137	0xbd925c4a	-0.07146509
138	0x3d3f85d4	0.046758488
139	0xbdc40154	-0.09570566
140	0x3cb4ca40	0.022069097
141	0xba5ef2f0	-0.00085048284
142	0x3d2cb1e7	0.04216185
143	0xbd1a41f2	-0.037660547
144	0x3d52c81d	0.051460374
145	0x3d059bfa	0.032619454
146	0xbd5109c5	-0.051034708
147	0x3daa2aeb	0.08308967
148	0xbce14582	-0.027498964
149	0x3cdb9839	0.026805984
150	0xbb0d349e	-0.0021546255
151	0xbc9a059c	-0.018801503
152	0xbd5d5aab	-0.054041546
153	0xbcab1482	-0.020883802
154	0x3da0e515	0.07856194
155	0xbb46d241	-0.0030337723
156	0x3d4040b3	0.046936702
157	0xbd96ea86	-0.073689505
158	0xbd9dfce6	-0.07714252
159	0x3caa5120	0.020790637
160	0xbcd05882	-0.025432829
161	0x3d837dbf	0.064204685
162	0xbcc2c80e	-0.023777034
163	0x3ded0ae8	0.11574346
164	0xbe2e7502	-0.17036822
165	0xbd226b74	-0.039653257
166	0x3cd2d697	0.02573709
167	0xbca4cc7c	-0.020117037
168	0xbdbadee4	-0.09124544
169	0xbdbba6da	-0.09162684
170	0xbd880972	-0.066424266
171	0x3d8d78bb	0.06907793
172	0xbd36ad67	-0.044598963
173	0xbb069ad8	-0.0020539071
174	0xbd3af32d	-0.045642067
175	0xbdd32d55	-0.10311381
176	0xbbe5b379	-0.00700992
177	0xbdbb3264	-0.091404706
178	0xbcb1c621	-0.02170092
179	0x3d4290e2	0.047501452
180	0xbd4daed9	-0.050215576
181	0x3e0b8be3	0.13627581
182	0x3ccb2bc1	0.024801137
183	0xbd12e872	-0.03586621
184	0x3dd8c90e	0.10585223
185	0xbbfdfc5e	-0.007751032
186	0x3cf9e1ce	0.03050318
187	0xbbf6ba40	-0.007529527
188	0x3d273588	0.040822536
189	0x3dbcd07e	0.09219454
190	0xbce28ce4	-0.027655073
191	0xbd41d9af	-0.04732674
192	0x3c94575d	0.018108064
193	0x3cff25a5	0.03114588
194	0x3d2c202e	0.042022876
195	0xbd0d23c3	-0.034457933
196	0xbb71a7a0	-0.0036873594
197	0xbc0fe73b	-0.008783157
198	0x3d8d2e27	0.068935685
199	0xbd86b5f1	-0.06577671
200	0xbc9f10ad	-0.019417131
201	0xbd27136f	-0.040790018
202	0xbc35e52e	-0.011102004
203	0x3d34bd0d	0.044125605
204	0x3d415e7c	0.047209248
205	0xbc9c4a12	-0.019078288
206	0x3d03e40a	0.032199897
207	0x3dbba3c9	0.09162099
208	0x3d2a6890	0.041603625
209	0xbcc73495	-0.024317065
210	0x3d83b840	0.06431627
211	0xbcfa1f9b	-0.030532649
212	0xbd715785	-0.058921356
213	0x3e33a65b	0.17543928
214	0x3d486c20	0.04893124
215	0x3c3af0da	0.011409963
216	0x3ce19949	0.027538912
217	0xbd373f8f	-0.04473835
218	0x3d8ca523	0.06867435
219	0xbca30a5d	-0.019902403
220	0xbd448686	-0.047979854
221	0x3d610896	0.05493983
222	0xbd38fb41	-0.04516149
223	0x3c914e50	0.017737538
224	0xbda3fbe1	-0.080070265
225	0xbd43df29	-0.047820244
226	0x3d779f22	0.060454495
227	0x3dc059ad	0.09392104
228	0x3d85aa5d	0.06526635
229	0xbdc9603e	-0.0983281
230	0x3c6ac9af	0.014330312
231	0xbbdbe8c5	-0.006711098
232	0xbc3aa207	-0.011391169
233	0xbda11873	-0.078659914
234	0x3c77c926	0.015123641
235	0xbcec11e5	-0.028817127
236	0x3ccb7eae	0.024840679
237	0xbc065c65	-0.0082007395
238	0xbcdeb920	-0.027187884
239	0xbd700a0f	-0.058603343
240	0x3d64f440	0.055896997
241	0xbca10dd8	-0.019659922
242	0xbd388501	-0.045048717
243	0x3d64c45b	0.05585132
244	0x3c84760e	0.016169574
245	0x3ca7327e	0.020409819
246	0x3d77ac37	0.06046697
247	0x3cc64d2b	0.024206718
248	0xbcebd6b6	-0.028788906
249	0x3df53d78	0.11974615
250	0x3b5eff55	0.0034026701
251	0xbd05586d	-0.032555033
252	0xbcf1f620	-0.029536307
253	0x3d96bf44	0.073607
254	0xbb8a2e99	-0.0042169807
255	0x3dcabfc0	0.09899855

attn_r f4 [1, 8, 128]
0	0xbd17317d	-0.03691243
1	0xbd238a89	-0.03992704
2	0xbce8428e	-0.028352048
3	0xba773067	-0.0009429515
4	0x3acd17c0	0.0015647337
5	0x3c26d65f	0.010182946
6	0xbcd59afa	-0.026074875
7	0xbdb8ad98	-0.090174854
8	0xbc36f8f6	-0.011167755
9	0xbce906f1	-0.028445693
10	0x3d867a61	0.06566311
11	0xbd86c4f8	-0.065805376
12	0x3db9a2b9	0.0906424
13	0x3c1919b6	0.009344509
14	0xbd87a378	-0.06622976
15	0x39e821e2	0.00044275733
16	0x3d167cf3	0.036740255
17	0x3b126e91	0.0022343735
18	0xbc8290c9	-0.01593818
19	0x3d4725da	0.048620082
20	0x3d2a9587	0.041646507
21	0x3de9f65e	0.11423944
22	0x3dd841d6	0.10559432
23	0xbd87ec8d	-0.06636915
24	0x3c964196	0.01834182
25	0xbcbb2a71	-0.022847386
26	0x3d445af4	0.047938302
27	0xbc576906	-0.013147598
28	0xbcfc737c	-0.030816786
29	0x3db323cd	0.08747063
30	0xbd03e1dc	-0.03219782
31	0x3b4f8488	0.0031664688
32	0xbdce6c21	-0.10079218
33	0xbc783925	-0.015150343
34	0xbd10a52e	-0.035313778
35	0x3c7393b7	0.014866761
36	0xbc04e4f0	-0.008111224
37	0x3c93c606	0.01803876
38	0xbd980507	-0.07422834
39	0xbd60c1af	-0.05487221
40	0x3d066384	0.03280975
41	0x3cee61d1	0.029099377
42	0x3e078c55	0.13237126
43	0xbd05ebce	-0.032695584
44	0xbd6afdeb	-0.05737106
45	0xbc5ef060	-0.013607115
46	0xbd330996	-0.043710314
47	0x3d365c55	0.04452165
48	0x3dbff073	0.09372034
49	0x3cd841f5	0.026398638
50	0xbe0de89a	-0.13858262
51	0x3cc9d247	0.0246364
52	0xbe097b84	-0.13426024
53	0xbb78d9b5	-0.003797156
54	0x3d8653b2	0.06558932
55	0x3db6e2e7	0.08929997
56	0x3cc958c2	0.024578456
57	0x3d4577e1	0.04821003
58	0x3cec0f78	0.02881597
59	0x3d7b9d53	0.061429333
60	0xbdf7754f	-0.12082922
61	0xbc12081a	-0.008913064
62	0xbd9cb936	-0.07652514
63	0xbdd8b57c	-0.105814904
64	0xbd79e8f5	-0.06101318
65	0x3dd75602	0.105144516
66	0xbd5a8d4b	-0.053357404
67	0xbba30e24	-0.004976051
68	0x3d521c91	0.051296774
69	0x3da8a8ac	0.082352966
70	0x3d37c9eb	0.0448703
71	0xbd00cbeb	-0.03144447
72	0xbd7325d2	-0.05936224
73	0x3d0e3536	0.034718715
74	0xba05e7a6	-0.00051080657
75	0xbc4a34d0	-0.012341693
76	0x3da18eb2	0.07888545
77	0x3cf7246e	0.030168738
78	0xbd6f969f	-0.058493253
79	0xbc80b7aa	-0.015712578
80	0xbd83087c	-0.06398103
81	0x3e0742e9	0.13209118
82	0x3d544d79	0.051831696
83	0x3d8b2574	0.06794253
84	0x3d502943	0.0508206
85	0xbd9fe4f7	-0.078073435
86	0xbbf8a858	-0.0075884275
87	0xbd8da3d9	-0.06916017
88	0x3ce9b522	0.028528754
89	0xbd3c75ca	-0.04601077
90	0x3c7301bb	0.014831956
91	0x3d08c609	0.033391986
92	0x3d6ec152	0.058289833
93	0x3cafce53	0.021460688
94	0xbd0a91a2	-0.033830293
95	0xbcdc25b3	-0.026873445
96	0x3d54e175	0.051972825
97	0xbd96b4c9	-0.07358701
98	0x3d77a800	0.06046295
99	0xbe44c5d8	-0.19216096
100	0xbcffe424	-0.031236716
101	0x3cf3ab31	0.029744716
102	0x3dd41c39	0.103569455
103	0xbc0e3ee9	-0.008681991
104	0x3d888d13	0.06667533
105	0x3c056d77	0.008143774
106	0x3cb286c4	0.021792777
107	0xbd11f687	-0.035635497
108	0x3c721a32	0.014776753
109	0x3e005af4	0.12534696
110	0x3a4493ee	0.000749885
111	0x3d710db8	0.058850974
112	0x3bcb6ada	0.006207806
113	0x3c3c883b	0.011507089
114	0x3be27f69	0.006912161
115	0xbd096f21	-0.033553246
116	0xbd0f8c89	-0.035046134
117	0xbc0a84f3	-0.008454549
118	0xbd88f884	-0.066880256
119	0xbd0ae0f5	-0.033905942
120	0x3d64d970	0.055871427
121	0x3c2f45d3	0.0106978
122	0xbc9ae235	-0.018906692
123	0xbd91cf63	-0.07119634
124	0x3d655a2e	0.055994205
125	0xbd62067f	-0.055181976
126	0xbced4e4e	-0.028968003
127	0x3d194565	0.037419695
128	0xbd6a54d2	-0.057209797
129	0x3dc5a9a5	0.09651498
130	0xbd2f4e4f	-0.04279929
131	0xbad6a54c	-0.0016376167
132	0xbd2f1e83	-0.042753708
133	0xbe0b01dd	-0.1357493
134	0x3d51eec9	0.051253114
135	0xbca799be	-0.020459052
136	0xbd7d514d	-0.061845113
137	0x3b403763	0.0029329888
138	0x3d8a9be6	0.067680165
139	0x3d9e37cb	0.077254854
140	0x3c11afb2	0.008891987
141	0x3dbb5512	0.09147085
142	0xbcfba913	-0.03072027
143	0x3c9d554d	0.019205714
144	0xbd840522	-0.064462915
145	0xbdc80c94	-0.09768024
146	0x3d96991b	0.07353421
147	0x3be5611a	0.007000101
148	0x3ceb7e6f	0.028746812
149	0xbbab836a	-0.0052341716
150	0xbd0943ab	-0.0335118
151	0xbc2e60bb	-0.0106431795
152	0x3c89ab78	0.016805395
153	0xbde37ca3	-0.11107757
154	0xbde14f42	-0.11001445
155	0x3d76784e	0.060173325
156	0xbd436161	-0.04770029
157	0xbcd6122a	-0.026131708
158	0xbc49cf9c	-0.012317564
159	0x3d49aa16	0.049234472
160	0xbcad706f	-0.021171777
161	0x3d9cd629	0.07658035
162	0xbcfb74af	-0.030695288
163	0xbd262b17	-0.040568437
164	0xbd1b579b	-0.037925344
165	0x3c3075f2	0.010770308
166	0xbcc7cc6d	-0.02438947
167	0x3d8343f9	0.06409449
168	0xbd063982	-0.032769687
169	0xbd30f5d7	-0.0432032
170	0x3d55de30	0.052213848
171	0xbd1bf555	-0.038075764
172	0xbc399b62	-0.01132855
173	0x3d016c67	0.03159752
174	0xbd9ca67d	-0.076489426
175	0x3d84eef9	0.06490893
176	0xbd01ae86	-0.03166058
177	0x3dd2250e	0.10260974
178	0x3e063b2f	0.13108514
179	0xbe0353a3	-0.12824874
180	0x3d162bb3	0.03666277
181	0xbdc86539	-0.09784932
182	0x3d71f32c	0.059069797
183	0xbd0e70b0	-0.034775436
184	0xbdc34477	-0.09534543
185	0x3ca8aab9	0.02058922
186	0x3d3053b3	0.04304857
187	0xbdc70d29	-0.09719307
188	0xbd51d2ce	-0.05122643
189	0xbd735683	-0.059408676
190	0xbdbef89f	-0.093247645
191	0xbd93489f	-0.07191586
192	0xbb921878	-0.0044584833
193	0xbb812f0f	-0.0039423774
194	0xbc6fe501	-0.014642001
195	0xbc362ccb	-0.011119078
196	0x3d33c81d	0.043892015
197	0x3cb29161	0.021797838
198	0x3df92c40	0.12166643
199	0x3e48e173	0.19617252
200	0xbd6e0b01	-0.058115963
201	0xbc5aa1fe	-0.013344286
202	0xbda0facc	-0.07860336
203	0x3de7549f	0.11295437
204	0xbbabbab3	-0.005240762
205	0xbc3568b2	-0.011072325
206	0x3dac609c	0.08416864
207	0x3dc3c6e5	0.095594205
208	0x3d4fea62	0.050760634
209	0x3b435fab	0.0029811661
210	0xbd8e20cc	-0.06939849
211	0xbd719b97	-0.058986273
212	0x3d8df6fa	0.06931873
213	0xbb55f77b	-0.003264873
214	0xbcfaa27f	-0.030595062
215	0x3d7c6418	0.061618894
216	0xbdf1fd21	-0.11815859
217	0xbc3077c4	-0.010770742
218	0xbd026827	-0.03183761
219	0xbd15077a	-0.036384083
220	0x3d9661c7	0.07342868
221	0xbd105e09	-0.03524593
222	0xbb2dffe1	-0.002655022
223	0xbd2b963a	-0.041891314
224	0xbdaf96d3	-0.08573689
225	0x3def53bf	0.11685895
226	0x3e005898	0.12533796
227	0x3c1bccef	0.009509309
228	0xbdc0e5c5	-0.09418825
229	0xbc5455d7	-0.012959919
230	0xbd64ad01	-0.055829052
231	0x3d4ec8cb	0.05048446
232	0x3ca51306	0.020150673
233	0xbd63febe	-0.055662863
234	0xbbb6f4c5	-0.005583378
235	0x3d837dfe	0.064205155
236	0xbb60f75e	-0.003432713
237	0x3d511efb	0.051054936
238	0xbd6ee0f0	-0.058319986
239	0xbd9c7d9e	-0.07641147
240	0xbd329724	-0.04360117
241	0x3d8a179e	0.06742786
242	0xbd2a5d6f	-0.04159301
243	0x3ceaf11d	0.028679425
244	0xbd7815fa	-0.060567833
245	0xbe021cda	-0.12706318
246	0xbd556c0f	-0.052105006
247	0x3d338fcb	0.043838304
248	0xbd2987e5	-0.041389365
249	0x3e0d640c	0.13807696
250	0xbc412c08	-0.011790283
251	0xbd6ce93a	-0.05783961
252	0x3bc27fe4	0.005935656
253	0xbd7bcade	-0.061472766
254	0x3d87ac8f	0.0662471
255	0x3e03a64c	0.12856406

bias f4 [1024]
0	0xba831127	-0.0009999619
1	0x3a80520e	0.0009790079
2	0xba827b03	-0.0009954873
3	0x3a82e0e8	0.000998524
4	0xba831236	-0.0009999934
5	0x00000000	0.0
6	0x387dddc2	6.052643e-05
7	0x3a82fa8f	0.0009992885
8	0xba8311a9	-0.000999977
9	0x3a830e78	0.0009998819
10	0x3a82fea4	0.0009994102
11	0x3a8311a1	0.0009999761
12	0x3a831010	0.0009999294
13	0x3a830f9e	0.0009999161
14	0xba831219	-0.00099999
15	0x3a8311fa	0.0009999864
16	0x3a830987	0.0009997346
17	0xba8311de	-0.0009999832
18	0xba8311cb	-0.000999981
19	0x3a83116f	0.0009999702
20	0xba81a4dd	-0.0009891052
21	0x3a831232	0.000999993
22	0xba8310bb	-0.0009999493
23	0x3a830f25	0.000999902
24	0xba831059	-0.0009999379
25	0x3a8311d1	0.0009999817
26	0x3a831172	0.0009999706
27	0xba8311cb	-0.000999981
28	0xba8310e5	-0.0009999542
29	0x3a831166	0.0009999692
30	0xba830f26	-0.0009999021
31	0xba8310d2	-0.000999952
32	0x3a824628	0.0009939121
33	0x3a8309e9	0.000999746
34	0xba831223	-0.0009999912
35	0x3a83106c	0.0009999401
36	0xba830c07	-0.0009998091
37	0x3a830c43	0.0009998161
38	0xba8311cc	-0.0009999811
39	0xba831151	-0.0009999668
40	0x36339f04	2.6765638e-06
41	0xba82f49c	-0.0009991112
42	0x3a831026	0.000999932
43	0x3a830889	0.000999705
44	0x3a82ff1a	0.0009994239
45	0xba831166	-0.0009999692
46	0xba830a8a	-0.0009997648
47	0xba83072c	-0.0009996644
48	0x3a830e95	0.0009998853
49	0xba83106e	-0.0009999403
50	0xba831159	-0.0009999677
51	0x3a830421	0.0009995737
52	0x3a8311cb	0.000999981
53	0xba8311ef	-0.0009999851
54	0xba82ce48	-0.000997969
55	0xba83110a	-0.0009999585
56	0x3a8311ba	0.000999979
57	0x3a830f1c	0.000999901
58	0x3a831116	0.0009999599
59	0x3a82f0d1	0.0009989982
60	0xba8306df	-0.0009996555
61	0x3a831209	0.0009999882
62	0xba830e33	-0.0009998739
63	0x3a83120a	0.0009999883
64	0xba82b5f8	-0.0009972444
65	0xba83093d	-0.000999726
66	0xb79caac1	-1.8676163e-05
67	0xba830f64	-0.0009999094
68	0xba8311a0	-0.000999976
69	0xb97a0bfa	-0.0002384632
70	0x3a8311e9	0.0009999844
71	0x3a8311f0	0.0009999853
72	0x3a830a44	0.0009997566
73	0xba8310c1	-0.00099995
74	0xba831053	-0.0009999372
75	0x3a831062	0.0009999389
76	0xba831019	-0.0009999304
77	0x3a830b73	0.0009997919
78	0xba831026	-0.000999932
79	0xba830be4	-0.000999805
80	0xba8310ca	-0.000999951
81	0xba830ecd	-0.0009998918
82	0xba8310f2	-0.0009999557
83	0xba8302b4	-0.0009995312
84	0x3a831231	0.0009999928
85	0x3a83107e	0.0009999422
86	0x3a831020	0.0009999312
87	0x3a830eb1	0.0009998885
88	0xba8311e1	-0.0009999835
89	0xba831156	-0.0009999673
90	0xba8311eb	-0.0009999847
91	0xba8310a8	-0.0009999471
92	0xba83116a	-0.0009999697
93	0x3a830dca	0.0009998616
94	0xba83044f	-0.0009995791
95	0xba831139	-0.000999964
96	0x3a830c52	0.0009998179
97	0xba830b51	-0.0009997879
98	0xba830d7c	-0.0009998525
99	0xba8310a0	-0.0009999461
100	0xba830fab	-0.0009999176
101	0x00000000	0.0
102	0xba82ff70	-0.0009994339
103	0x3a830ac0	0.0009997711
104	0xba83115c	-0.000999968
105	0x3a8310ae	0.0009999478
106	0xba830fcb	-0.0009999214
107	0xba83051a	-0.0009996027
108	0xba831199	-0.0009999751
109	0x3a83120f	0.0009999889
110	0x3a831148	0.0009999657
111	0x3a831198	0.000999975
112	0xba8311e2	-0.0009999836
113	0xba831177	-0.0009999712
114	0xba831158	-0.0009999676
115	0x3a830d1e	0.0009998416
116	0xba831196	-0.0009999748
117	0x3a831067	0.0009999395
118	0xba83117b	-0.0009999716
119	0xba83110f	-0.0009999591
120	0x00000000	0.0
121	0x3a83115c	0.000999968
122	0x38cdc537	9.811896e-05
123	0xba8311da	-0.0009999827
124	0xba83117e	-0.000999972
125	0x3a82f8c5	0.0009992352
126	0xba8311b0	-0.0009999778
127	0xba8307ff	-0.000999689
128	0x3a83120d	0.0009999886
129	0x3a810432	0.0009843169
130	0xba830bc6	-0.0009998016
131	0xba830c55	-0.0009998182
132	0xba8311eb	-0.0009999847
133	0xba830ff8	-0.0009999266
134	0x3a830ff8	0.0009999266
135	0x3a830d35	0.0009998443
136	0x3a831195	0.0009999747
137	0x3a82fbb0	0.0009993222
138	0xba830bc5	-0.0009998014
139	0x3a8311b0	0.0009999778
140	0x3a8310fa	0.0009999566
141	0x3a8310d7	0.0009999526
142	0xba83115a	-0.0009999678
143	0xba831214	-0.0009999895
144	0x3a8311c5	0.0009999803
145	0x3a831240	0.0009999946
146	0xba83106f	-0.0009999404
147	0xba831016	-0.0009999301
148	0x394ed3fb	0.0001972466
149	0x3a831110	0.0009999592
150	0xba8311fe	-0.0009999869
151	0xba831145	-0.0009999654
152	0xba830d5d	-0.0009998489
153	0x3a831127	0.0009999619
154	0xba8311b0	-0.0009999778
155	0xba831169	-0.0009999695
156	0xba8311db	-0.0009999828
157	0xba831022	-0.0009999315
158	0x39e8c632	0.00044398155
159	0xba831111	-0.0009999593
160	0xba831178	-0.0009999713
161	0xba8311ca	-0.0009999808
162	0xba8311ea	-0.0009999846
163	0xba831070	-0.0009999406
164	0xba830db7	-0.0009998594
165	0x3a8311c2	0.0009999799
166	0xba8311d9	-0.0009999826
167	0x3a830db7	0.0009998594
168	0xba8311b7	-0.0009999786
169	0x3a147873	0.00056637
170	0xba8311cf	-0.0009999814
171	0x3a830945	0.0009997269
172	0x3a830d7c	0.0009998525
173	0xba83100c	-0.0009999289
174	0xba831036	-0.0009999338
175	0xba830c6d	-0.000999821
176	0xba830c2d	-0.0009998136
177	0xba831047	-0.0009999358
178	0x3a8311c5	0.0009999803
179	0xba830ed2	-0.0009998924
180	0xba8310e4	-0.0009999541
181	0xba831163	-0.0009999688
182	0xba806cf7	-0.0009798099
183	0x3a82f81e	0.0009992158
184	0x3a831103	0.0009999577
185	0xba830af3	-0.000999777
186	0xba8311ee	-0.000999985
187	0x3a8303a9	0.0009995598
188	0xba831142	-0.000999965
189	0xba831204	-0.0009999876
190	0xba82a060	-0.0009966008
191	0x3a830eb8	0.0009998893
192	0x3a8303ff	0.0009995698
193	0xba82c132	-0.000997579
194	0x3a830641	0.0009996371
195	0x37b3f4e9	2.1452508e-05
196	0x3a830eb9	0.0009998895
197	0x3a83120e	0.0009999888
198	0xba82cafd	-0.0009978708
199	0xba831167	-0.0009999693
200	0x3a831125	0.0009999616
201	0xba830f90	-0.0009999145
202	0x3a830d7c	0.0009998525
203	0x3a8311bb	0.0009999791
204	0x3a830e19	0.0009998708
205	0x3a830cc7	0.0009998315
206	0x3a830bbd	0.0009998005
207	0xba830632	-0.0009996353
208	0x3a83114f	0.0009999665
209	0xba831024	-0.0009999317
210	0xba830566	-0.0009996116
211	0x3a8301c0	0.0009995028
212	0x3a8311cc	0.0009999811
213	0x3a8311fc	0.0009999867
214	0xba83120c	-0.0009999885
215	0x3a82f77f	0.0009991972
216	0x3a8311d4	0.000999982
217	0xba83111e	-0.0009999608
218	0xba83077f	-0.0009996741
219	0x00000000	0.0
220	0xba8310d7	-0.0009999526
221	0x3a8311cc	0.0009999811
222	0xba830cfd	-0.0009998378
223	0xba831157	-0.0009999675
224	0x3a83120a	0.0009999883
225	0x3a8310ae	0.0009999478
226	0xba830f53	-0.0009999074
227	0x3a82a375	0.0009966927
228	0x3a831177	0.0009999712
229	0x3a8310c5	0.0009999505
230	0xba831085	-0.000999943
231	0x3a830de6	0.0009998649
232	0xba831166	-0.0009999692
233	0xba8311ff	-0.000999987
234	0x39445c68	0.0001872644
235	0x3a830efc	0.0009998973
236	0x3a8311a1	0.0009999761
237	0xba831210	-0.000999989
238	0x3a831195	0.0009999747
239	0xba8310b8	-0.0009999489
240	0xba830ebf	-0.0009998902
241	0x3a8311aa	0.0009999771
242	0xba830d2c	-0.0009998432
243	0x3a830fee	0.0009999254
244	0x3a831210	0.000999989
245	0xba83009f	-0.0009994692
246	0xba8311e7	-0.0009999842
247	0x3a830a16	0.0009997513
248	0x3a830f87	0.0009999134
249	0x3a8311a0	0.000999976
250	0x3a830ff9	0.0009999267
251	0xba831051	-0.000999937
252	0xba830ef8	-0.0009998968
253	0x3a83075a	0.0009996698
254	0x3a83106a	0.0009999399
255	0x3a8306d2	0.000999654

attn_edge f4 [1, 8, 128]
0	0x3d05a012	0.032623358
1	0x3db7b3ca	0.08969839
2	0x3b65eaca	0.0035082572
3	0xbb8d9d35	-0.004321719
4	0xbd1b5be9	-0.03792945
5	0x3919d740	0.00014671404
6	0x3c96d251	0.018410834
7	0x3d09fc8b	0.03368811
8	0xbdd101ac	-0.10205397
9	0x3b8aaf90	0.0042323545
10	0x3d0bd8fa	0.03414247
11	0xbd2ad73c	-0.04170917
12	0x3bbbd40a	0.005732064
13	0x3d1453e5	0.03621282
14	0x3dbbbb2c	0.091665596
15	0xbda8df18	-0.08245677
16	0xbd23c525	-0.039982934
17	0x3d87193b	0.06596609
18	0xbd2b8a2f	-0.04187983
19	0x3bfe0f9e	0.0077533266
20	0x3c3f7bc8	0.011687227
21	0xbc942e73	-0.018088555
22	0x3d7ea1b7	0.062165942
23	0xbc1f006e	-0.009704692
24	0xbdbc054d	-0.091806985
25	0xbda8b445	-0.08237509
26	0x3b567458	0.0032723155
27	0x3d1eef9b	0.038802724
28	0x3d30d388	0.043170482
29	0xbc423a73	-0.011854756
30	0xbd2a5ed4	-0.04159434
31	0x3d700941	0.058602575
32	0xbd3b523b	-0.045732718
33	0xbcc355d1	-0.023844631
34	0xbdae541c	-0.08512136
35	0x3d184f59	0.037185047
36	0x3d5f3c4a	0.054500856
37	0xbdd12b3a	-0.10213323
38	0x3d5fa721	0.054602746
39	0xbd9ec158	-0.07751721
40	0x3dcae683	0.09907248
41	0xbcb6b679	-0.022303807
42	0x3db39e17	0.087703876
43	0x39d4e430	0.00040605804
44	0xbca63567	-0.020289136
45	0xbc25ed56	-0.010127386
46	0xbda49a56	-0.0803725
47	0xbd6c7c47	-0.057735708
48	0xbd497e83	-0.049192917
49	0xbe22f5dd	-0.15914102
50	0xbd5a391c	-0.05327712
51	0xbc1ad0cd	-0.009449196
52	0x3d461f3f	0.048369642
53	0x3c9bec63	0.019033616
54	0xbd955444	-0.07291463
55	0xbd42936c	-0.047503874
56	0xbd1b2f16	-0.0378867
57	0xbddeb910	-0.108751416
58	0x3d8f00c4	0.06982568
59	0x3d83271d	0.06403945
60	0xbcde5a9e	-0.027142819
61	0xbc3af560	-0.011411041
62	0xbd898a37	-0.067158155
63	0xbca06372	-0.01957867
64	0xbd3a0a0f	-0.04541975
65	0xbc733712	-0.014844673
66	0x3c9a4ca1	0.018835368
67	0x3dbec9aa	0.09315808
68	0x3d9ae1c1	0.075625904
69	0x3bc1cae7	0.0059140804
70	0x3da05e02	0.078304306
71	0xbc359c65	-0.011084651
72	0xbc59694f	-0.013269736
73	0x3d89c7da	0.06727572
74	0x3cf41a33	0.029797649
75	0x3d9cd495	0.07657734
76	0x3d33bb7b	0.043879967
77	0xbd515878	-0.05110976
78	0x3d415fde	0.047210567
79	0x3cf00bd4	0.029302515
80	0x3d513c6b	0.05108301
81	0x3d642bd9	0.05570588
82	0xbcf0f3b9	-0.029413091
83	0xbdbd4981	-0.092425354
84	0xbd3d0d6a	-0.04615537
85	0x3e19595d	0.14975496
86	0xbd96c9f5	-0.07362739
87	0x3b81f0b9	0.003965464
88	0x3cb6ce05	0.022315035
89	0x3c0c9882	0.008581283
90	0xbd6d5891	-0.05794579
91	0x3d624e27	0.055250313
92	0xbc4abbd4	-0.012373883
93	0x3ccfd527	0.025370194
94	0x3cf5aaf0	0.029988736
95	0xbd1260d9	-0.035736892
96	0xbd75f4c4	-0.06004788
97	0xbcbd1523	-0.023081368
98	0xbc4f5576	-0.012654653
99	0xbb446638	-0.0029968154
100	0x3bcf7a5b	0.0063317246
101	0x3d8a80b1	0.06762827
102	0xbd87a736	-0.0662369
103	0x3c2b4033	0.010452318
104	0x3dd9aa4b	0.10628184
105	0xbc9c510f	-0.01908162
106	0xbd1e4c74	-0.03864713
107	0x3da61935	0.081102766
108	0xbc9c31ec	-0.019066773
109	0xbd3e1153	-0.04640324
110	0xbdbb2380	-0.091376305
111	0xbbcbb808	-0.0062170066
112	0xbcd2973f	-0.025706885
113	0x3e0d8532	0.13820341
114	0x3ccfab1e	0.02535015
115	0xbd2fc8f2	-0.042916246
116	0xbd1a85c3	-0.03772522
117	0x3ce33235	0.027733902
118	0x3b1e5536	0.0024159676
119	0xbca552eb	-0.02018114
120	0xbd05beed	-0.032652784
121	0xbdc69d63	-0.09697988
122	0xbd24c7c1	-0.040229563
123	0x3db99365	0.090613164
124	0x3db1a978	0.08674902
125	0x3cb2f41f	0.021844922
126	0xbcfd5b40	-0.0309273
127	0xbc6d3222	-0.014477285
128	0x3dece74b	0.11567553
129	0xbc80da2d	-0.015729034
130	0x3c391e17	0.011298678
131	0xbc4c9415	-0.012486477
132	0xbcefc813	-0.029270208
133	0xbd9229bf	-0.07136869
134	0x3d43f9c7	0.047845628
135	0x3d75e19f	0.060029622
136	0xbda6b110	-0.08139241
137	0xbd92324a	-0.07138498
138	0xbe04fd5d	-0.12987275
139	0x3cf7dac1	0.030255677
140	0xbd97b406	-0.074073836
141	0xbdd1d100	-0.10244942
142	0x3d848917	0.0647146
143	0x3bc91a52	0.006137171
144	0x3d0bc89a	0.034126855
145	0xbd04bda1	-0.032407407
146	0x3e04a3ee	0.12953159
147	0x3da62fb2	0.08114566
148	0xbd53fb02	-0.05175305
149	0xbcb5767c	-0.022151224
150	0x3c2d99cc	0.01059575
151	0xbda9d84b	-0.08293208
152	0xbd8147bf	-0.063125126
153	0xbdde7515	-0.108621754
154	0x3cc9d59c	0.02463799
155	0xbdb772e7	-0.08957463
156	0x3d453788	0.04814866
157	0x3ddda428	0.10822326
158	0x3d14924f	0.036272343
159	0x3dcb477f	0.09925746
160	0xbbb0dd60	-0.0053974837
161	0xbd6abf9e	-0.057311647
162	0x3cb46e1d	0.022025162
163	0x3dc9ee28	0.09859878
164	0xbd16e662	-0.036840804
165	0x3cc05574	0.023478247
166	0xbc5bebcf	-0.01342292
167	0xbd162179	-0.036653016
168	0xbdf655b6	-0.12028067
169	0x3cf165b4	0.029467441
170	0xbd82d182	-0.06387617
171	0x3c64211b	0.013923909
172	0xbd8b4e5c	-0.06802055
173	0xbd11442f	-0.035465416
174	0xbb83bac4	-0.004020067
175	0xbe07ea52	-0.1327298
176	0xbca9684b	-0.020679614
177	0x3d24065c	0.040045127
178	0xbc811f95	-0.01576213
179	0xbc833d02	-0.016020302
180	0xbccb024e	-0.024781372
181	0x3d8f477d	0.06996057
182	0xbd4ae22b	-0.049532097
183	0x3d632f3d	0.05546497
184	0xbd14085b	-0.03614078
185	0xbc0e5dcc	-0.008689355
186	0x3ce61b26	0.028089117
187	0x3aa10f76	0.0012287933
188	0x3b48e456	0.0030653677
189	0xbe03d2aa	-0.1287333
190	0x3d40683e	0.046974413
191	0x3d037b9b	0.0321003
192	0xbd653a6f	-0.05596393
193	0xbcbc57ac	-0.022991024
194	0x3d24e483	0.04025699
195	0x3c145a13	0.0090546785
196	0xbcc7411c	-0.024323039
197	0xba8759e7	-0.0010326476
198	0xbda063e5	-0.07831553
199	0xbd012999	-0.03153381
200	0x3d744970	0.059640348
201	0xbc97af4c	-0.018516205
202	0x3dc821f8	0.09772104
203	0x3d7290ce	0.059220128
204	0xbd12160b	-0.035665553
205	0xbcae9fb8	-0.021316394
206	0x3d67ecef	0.05662244
207	0xbccee798	-0.025256917
208	0x3d685c80	0.05672884
209	0xbd3512bc	-0.04420732
210	0x3d0f8acb	0.035044473
211	0x3c98b340	0.01864016
212	0x3d3268a4	0.043556824
213	0x3dd8be22	0.1058314
214	0x3caf0d08	0.021368518
215	0xbd15561a	-0.036459066
216	0x3d1e99d9	0.03872094
217	0xbd86420d	-0.06555567
218	0x3d01ab3c	0.031657442
219	0x3d42531e	0.047442548
220	0xbca3f46c	-0.02001401
221	0x3d1d8b48	0.038462907
222	0xbce88a06	-0.028386127
223	0xbb77478f	-0.0037731861
224	0x3e1949c1	0.14969541
225	0xbb0e8c98	-0.002175128
226	0xbd366fc4	-0.04454018
227	0xbd0f55e8	-0.034994036
228	0xbbdfa884	-0.0068255085
229	0x3dad2b57	0.08455532
230	0xbb67e5da	-0.0035384805
231	0x3c0f03de	0.008728949
232	0xbd1a0ace	-0.03760796
233	0xbca720a0	-0.020401299
234	0x3da987d2	0.08277859
235	0xbb998fdd	-0.0046863393
236	0xbdd9ce39	-0.10635037
237	0x3c77055b	0.01507696
238	0xbd355418	-0.04426965
239	0xbccad75a	-0.02476089
240	0xbc96c265	-0.018403241
241	0xbc66fc80	-0.014098287
242	0xbcac7138	-0.02105008
243	0x3d5b8665	0.053594965
244	0x3d77bb1f	0.060481187
245	0x3c5fb1af	0.013653203
246	0xbd075071	-0.0330357
247	0x3d6766ab	0.056494396
248	0xbcb4fdff	-0.022093771
249	0x3e207944	0.15671259
250	0xbdb27fbc	-0.0871577
251	0x3d6721f2	0.056428857
252	0x3bd696a9	0.006548722
253	0x3cfcf167	0.030876828
254	0xbc9ed8ee	-0.01939055
255	0x3c73d8b3	0.014883208

weight f4 [1024, 8]
0	0x3d3eeea9	0.046614323
1	0x3c140ef6	0.00903677
2	0x3db0a8dc	0.08625957
3	0xbabd1a21	-0.0014427343
4	0x3cd24225	0.025666306
5	0xbdd6c81b	-0.10487386
6	0x3d875772	0.06608476
7	0xbc5674e1	-0.01308939
8	0xbd012470	-0.03152889
9	0x3c49b639	0.012311512
10	0x3c2d691d	0.010584143
11	0x3d817203	0.06320574
12	0x3b27525a	0.0025531263
13	0xbd1e0d20	-0.038586736
14	0x3bf7f4db	0.007567031
15	0x3c30ed0e	0.010798706
16	0xbc823120	-0.015892565
17	0xbbeb785a	-0.007185978
18	0xbcdfe916	-0.027332824
19	0xbdd4e89c	-0.10395929
20	0xbd5db5aa	-0.054128326
21	0xbcacb9cc	-0.021084689
22	0x3d01bb7c	0.03167294
23	0xbd37b3bc	-0.044849142
24	0xbe27a8f1	-0.1637304
25	0x3a9d2da0	0.0011991747
26	0xbd330eb7	-0.043715205
27	0xbc3ad3ec	-0.011403065
28	0xbdfc47b0	-0.12318361
29	0xbdc71314	-0.09720436
30	0xbc0141f6	-0.0078892615
31	0x3ab28410	0.001361968
32	0xbd016e8c	-0.031599566
33	0xbbe634d6	-0.0070253415
34	0xbd8f97c4	-0.07011369
35	0xbbf13b42	-0.0073618004
36	0x3be2dc80	0.0069232583
37	0x3d3b7f54	0.045775726
38	0x3b17adfb	0.0023144472
39	0x3d9f31cf	0.07773172
40	0xbc684fbf	-0.014179169
41	0xbd9c5410	-0.07633221
42	0x3d1282a5	0.035769124
43	0xbd9d8489	-0.07691295
44	0xbc93804c	-0.018005513
45	0x3d4e9cd4	0.05044253
46	0xbcd421b4	-0.025894977
47	0xbc951e03	-0.018202787
48	0x3d0bbc63	0.034115206
49	0xbd8cb08c	-0.06869611
50	0xbd8ecc7a	-0.069725946
51	0xbd0c97da	-0.034324504
52	0x3cf1484e	0.029453423
53	0xbce4d754	-0.027934708
54	0x3cae3525	0.021265576
55	0xbd5daa97	-0.054117765
56	0x3bbd3f1a	0.0057753446
57	0x3d2f3e34	0.04278393
58	0x3b5a45c9	0.0033305755
59	0x3dcf0af7	0.10109513
60	0x3df266cf	0.118360154
61	0x3c190f92	0.009342091
62	0x3c29e80f	0.0103702685
63	0x3cf48286	0.029847395
64	0x3cb60daf	0.022223322
65	0xbd890e43	-0.06692173
66	0x3d0f2c83	0.03495456
67	0x3cfbcc17	0.030736966
68	0x3caea5f2	0.021319363
69	0x3ca4d7b9	0.020122396
70	0x3d8f1986	0.0698729
71	0xbd868c5a	-0.06569739
72	0xbc497a0b	-0.012297164
73	0x3dd9fa35	0.10643426
74	0x3d448e7f	0.047987457
75	0xbcd6c8e4	-0.026218839
76	0x3d9fe4e4	0.07807329
77	0x3d3c1ce0	0.045925975
78	0xbdc9669c	-0.09834024
79	0xbcfbaab3	-0.030721044
80	0x3de2f837	0.110824995
81	0xbcc4a08a	-0.024002332
82	0xbda3153a	-0.07963033
83	0xbdc35a09	-0.09538657
84	0xbd13feef	-0.036131795
85	0xbccd0226	-0.025025439
86	0xbd83234f	-0.06403219
87	0x3d959ff0	0.07305896
88	0x3d27bf97	0.0409542
89	0xbe04cc6b	-0.12968604
90	0xbdbf7b30	-0.09349668
91	0xbd561682	-0.05226756
92	0x3d549c48	0.051906854
93	0xbcf8a628	-0.030352667
94	0x3aded3ce	0.0017000379
95	0xba9c52da	-0.0011926547
96	0x3b995cc3	0.0046802475
97	0x3c2dd7c0	0.010610521
98	0xbdf4dce4	-0.11956194
99	0xbd8d0765	-0.06886176
100	0x3d3536e3	0.044241797
101	0x3d85b12d	0.06527934
102	0x3bc65eba	0.0060537728
103	0x3cd523b7	0.026018007
104	0x3e778656	0.24172339
105	0xbcfef33d	-0.031121844
106	0xbddfa9ae	-0.10921036
107	0x3d7d7615	0.06188019
108	0x3d052848	0.03250912
109	0x3cfb4bff	0.030675886
110	0xba2fbb48	-0.00067036273
111	0x3da183a6	0.07886438
112	0x3dbda568	0.09260064
113	0x3cf11203	0.029427534
114	0xbc850756	-0.01623885
115	0xbd147200	-0.03624153
116	0x3d95b099	0.07309074
117	0xbe037e01	-0.12841035
118	0xbd2cac1e	-0.04215633
119	0xbd565a37	-0.05233213
120	0x3dbd86d5	0.09254233
121	0x3d020528	0.0317432
122	0x3d081124	0.03321947
123	0xbcb2c1d5	-0.021820942
124	0x3d104dc2	0.035230406
125	0x3c8050b5	0.015663484
126	0xbaa3df9b	-0.0012502553
127	0xbd933730	-0.071882606
128	0x3d1a56b6	0.03768035
129	0x3d3330f5	0.04374786
130	0x3cf0fe5d	0.029418165
131	0xbd33a82e	-0.04386156
132	0x3d4de655	0.05026849
133	0x3d8a61b1	0.067569144
134	0x3d08063c	0.03320907
135	0xbba73603	-0.0051028742
136	0xbd943c5f	-0.07238077
137	0x3d5c0679	0.05371711
138	0xbd91031b	-0.070806704
139	0xbdba695e	-0.091021284
140	0x3ae8726f	0.0017734299
141	0xbd9398cd	-0.07206879
142	0x3d219216	0.03944596
143	0x3df82be8	0.121177495
144	0x3d37db6a	0.044886984
145	0xbd53c554	-0.05170186
146	0xbca5922b	-0.0202113
147	0xbd0f5c40	-0.035000086
148	0xbd443701	-0.04790402
149	0x3d649fd0	0.05581647
150	0xbd11cf5e	-0.03559815
151	0x3c0075dd	0.007840601
152	0xbd80a1e2	-0.06280877
153	0xbb1ae422	-0.0023634513
154	0xbd548704	-0.051886573
155	0x3cb3e0e8	0.02195783
156	0xbc9d8e1f	-0.019232808
157	0x3cf43184	0.029808767
158	0x3d2f4b0d	0.042796183
159	0xbd59a68d	-0.05313735
160	0xbc93093a	-0.017948736
161	0xbd802a72	-0.06258096
162	0xbc855699	-0.016276645
163	0xbc74927e	-0.014927505
164	0xbc4151fe	-0.011799334
165	0xbe00956c	-0.12557
166	0x3cf692b2	0.030099247
167	0xbd12732e	-0.035754375
168	0x3d8fd911	0.07023824
169	0xbc55960d	-0.013036263
170	0x3dbd4563	0.0924175
171	0xbcea9e31	-0.028639885
172	0xbda22dc1	-0.07918883
173	0xbd981f98	-0.07427901
174	0x3c64aec4	0.013957683
175	0x3c38b619	0.011273884
176	0xbbc1c906	-0.0059138564
177	0x3cd2ebc5	0.02574719
178	0x3c956a56	0.018239181
179	0xbbf8fb94	-0.00759835
180	0x3dcaad5e	0.098963484
181	0xbcbe859c	-0.02325707
182	0x3d8d5ef1	0.06902874
183	0xbe1fb6a8	-0.15597022
184	0xbdad7a45	-0.08470587
185	0xbcaa52ac	-0.020791374
186	0x3d1323f9	0.035922978
187	0xbc670bce	-0.014101936
188	0x3d834171	0.06408966
189	0xbd4821db	-0.048860412
190	0xbddc623d	-0.10760925
191	0x3d83ac79	0.06429381
192	0x3dda080b	0.10646065
193	0xbc39706b	-0.011318306
194	0x3d11786f	0.035515245
195	0x3d07c628	0.03314796
196	0xbe4a7d12	-0.19774273
197	0xbd6ca4bb	-0.057774287
198	0x3d695b34	0.056971744
199	0x3c382b98	0.011240862
200	0xbde44557	-0.11146038
201	0xbce49d83	-0.027907139
202	0x3cd6d6fb	0.026225558
203	0x3da91292	0.08255495
204	0x3d24015b	0.040040355
205	0xbdaa2126	-0.08307104
206	0x3d41aa50	0.047281563
207	0x3c0b65e7	0.008508182
208	0x3cf73726	0.030177664
209	0xbd592776	-0.05301615
210	0x3d53710b	0.051621478
211	0x3c0c1a22	0.008551152
212	0xbc167334	-0.00918274
213	0xbd39a926	-0.04532733
214	0xbca5b338	-0.02022706
215	0x3cd7ae0f	0.026328115
216	0x3ca797e2	0.020458166
217	0x3ba2d3cc	0.004969096
218	0xbd804dae	-0.06264816
219	0xbd0c8dfc	-0.034315094
220	0x3d1e9fb9	0.038726542
221	0x3dc086d1	0.09400714
222	0x3bbb00c8	0.0057068802
223	0xbd82eb92	-0.06392588
224	0x3d249c21	0.04018796
225	0xbd3aa40e	-0.04556661
226	0x3d11f9a0	0.03563845
227	0x3cb3d564	0.021952339
228	0x3d927ed3	0.07153096
229	0x3dcf0d51	0.10109962
230	0xbd5222b4	-0.051302627
231	0x3e3d4c2f	0.18486093
232	0x3d920e9b	0.07131692
233	0x3d7af570	0.061269224
234	0xbc87bbed	-0.016569102
235	0xbdde644a	-0.10858972
236	0xbcdb61eb	-0.02678009
237	0xbd18e448	-0.03732708
238	0x3c4b610c	0.0124132745
239	0xbd8a3bca	-0.06749685
240	0xbc8c3b26	-0.017118048
241	0xbdcb5693	-0.09928622
242	0x3dbb75e3	0.091533445
243	0xbc58ce70	-0.013232812
244	0x3dd3b2e0	0.10336852
245	0x3c9efa87	0.01940657
246	0xbcaf9593	-0.021433627
247	0x3c967b07	0.01836921
248	0x3d57f5eb	0.05272476
249	0xbc996524	-0.018724985
250	0xbd9a712c	-0.07541117
251	0x3b92dbd0	0.00448177
252	0x3cd65418	0.026163146
253	0xbd930a28	-0.071796715
254	0x3d0fe19f	0.03512728
255	0x3c823caf	0.015898077

weight f4 [1024, 8]
0	0xbcb2a47f	-0.021806953
1	0x3d27e544	0.04099013
2	0xbd56e8e6	-0.052468203
3	0xbd827fa1	-0.063719995
4	0xbe0284cb	-0.12745969
5	0xbc6b001d	-0.014343289
6	0xbe21b9ff	-0.15793608
7	0xbd884266	-0.066532895
8	0x3c9ebbc0	0.019376636
9	0xbdf7b505	-0.120950736
10	0xbe32bbdf	-0.1745448
11	0x3c85e0a9	0.016342478
12	0xbdd672c5	-0.10471109
13	0xbd8a065a	-0.06739493
14	0x3d477d1c	0.048703298
15	0xbd4f1bf9	-0.050563786
16	0x3d65ccf4	0.05610366
17	0x3ce28362	0.027650539
18	0x3d8b5d23	0.06804874
19	0xbd13bd52	-0.03606922
20	0x3cff3372	0.03115246
21	0x3db561a9	0.08856518
22	0x3d6a0446	0.05713298
23	0x3d088223	0.033327233
24	0xbc1297de	-0.008947341
25	0x3cd6d580	0.026224852
26	0x3c111e62	0.0088573415
27	0x3bfeac19	0.0077719805
28	0xbcfbfee8	-0.030761197
29	0xbd1c92b7	-0.038225856
30	0xbc8e0d14	-0.01734022
31	0xbd97f8e2	-0.074205175
32	0xbe0bdeeb	-0.13659255
33	0xbda1328c	-0.07870969
34	0x3d799a17	0.060937967
35	0xbd866f23	-0.065641664
36	0xbd851186	-0.06497483
37	0x3c38f4a0	0.011288792
38	0xbd4c70e7	-0.04991236
39	0x3d0c3d58	0.03423819
40	0xbdc1ab3d	-0.09456489
41	0xbb075af1	-0.002065357
42	0xbccece93	-0.025244987
43	0xbd0d73a3	-0.034534108
44	0x3d22e393	0.039767813
45	0xbda21cdc	-0.07915661
46	0xbdfffe89	-0.124997206
47	0xbe0a08f1	-0.13479973
48	0x3d6c04d1	0.05762178
49	0xbb607fc6	-0.0034255846
50	0x3cce135c	0.025155716
51	0xbdc787b1	-0.09742678
52	0xbcbbd32f	-0.022927849
53	0xbca3a6bf	-0.019976972
54	0xbaccf96e	-0.0015638301
55	0xbda016fc	-0.07816884
56	0x3cff0674	0.031131007
57	0x3d4a3a23	0.04937185
58	0x3d3fd014	0.0468293
59	0xbc5fb40f	-0.013653769
60	0x3de6b82e	0.11265598
61	0xbcce594b	-0.025189063
62	0x3de1b7ba	0.11021371
63	0xbd87a43d	-0.06623123
64	0xbd94e724	-0.07270649
65	0xbc3aa812	-0.01139261
66	0xbc32fb45	-0.010924165
67	0x3e16d5f3	0.14730053
68	0xbd18ab26	-0.037272595
69	0x3c06de82	0.008231761
70	0xbd2b8332	-0.041873164
71	0x3e1bd5d1	0.15218283
72	0x3c272f33	0.010204124
73	0xbc870ccf	-0.0164856
74	0x3d8964fb	0.067087136
75	0xbd6a7cdb	-0.057247978
76	0x3d18920c	0.037248656
77	0x3cca3069	0.024681287
78	0xbd0c7346	-0.03428962
79	0x3df4a2a0	0.11945081
80	0xbd14376a	-0.03618566
81	0xbdcfc14a	-0.10144289
82	0xbce48f6f	-0.027900426
83	0xbd4ed607	-0.05049708
84	0x3c949e14	0.018141784
85	0xbdbd5558	-0.09244794
86	0x3d208716	0.039191328
87	0x3cd0aabf	0.025472043
88	0x3d7b50fe	0.061356537
89	0x3d1b38af	0.037895855
90	0xbd5dfa64	-0.05419387
91	0x3b6305e9	0.0034640974
92	0x3e0caeb7	0.13738523
93	0x3d2edae9	0.042689238
94	0x3cfe09ff	0.031010626
95	0xbcea5bdd	-0.028608257
96	0x3d08c88e	0.03339439
97	0xbbe42254	-0.0069621
98	0x3c792f35	0.015209009
99	0xbd5be32a	-0.053683437
100	0x3cfb949d	0.030710513
101	0xbdbb5320	-0.09146714
102	0xbc7ea886	-0.015543109
103	0x3cac2ef6	0.021018486
104	0xbb91bb3a	-0.004447368
105	0x3e19472d	0.14968558
106	0x3d98d87e	0.074631676
107	0xbd4f8f97	-0.050674047
108	0x3da65596	0.08121793
109	0x3d4933a9	0.049121533
110	0x3d40b063	0.047043215
111	0x3d4ac59e	0.04950487
112	0xbc1c7d33	-0.009551334
113	0xbc92fa4b	-0.017941615
114	0xbd3b4f2b	-0.045729797
115	0xbcc389d7	-0.023869438
116	0xbd8c284e	-0.06843625
117	0xbd26f809	-0.04076389
118	0xbd90cee5	-0.07070712
119	0x3d8431d9	0.0645482
120	0x3c4f36f3	0.012647378
121	0xbdff9c52	-0.124809876
122	0xbd5a4b08	-0.05329421
123	0xbd5aebf6	-0.053447686
124	0x3d9d4409	0.07678992
125	0x3c8ca94a	0.017170567
126	0xbd00e755	-0.031470615
127	0xbd24998d	-0.0401855
128	0xbd153645	-0.03642871
129	0x3da66ba2	0.08125998
130	0xba4c8948	-0.0007802439
131	0x3df1831e	0.11792587
132	0x3d02bae2	0.031916507
133	0x3dc867be	0.09785412
134	0x3cb819b2	0.02247319
135	0x3d8060e0	0.062684774
136	0x3c9aad56	0.018881481
137	0x3d66e85e	0.056373946
138	0x3d6b0cd9	0.0573853
139	0x3d318d15	0.043347437
140	0xbcfdc7b5	-0.030979017
141	0x3cd999b6	0.026562553
142	0x3dd80916	0.10548608
143	0xbddebae6	-0.10875492
144	0x3c7f523f	0.015583574
145	0xbc3cba5d	-0.011519042
146	0xbd48861a	-0.048956014
147	0x3cc152ce	0.023599055
148	0x3d2f00e4	0.04272546
149	0xbd962172	-0.07330598
150	0x3d72b7a4	0.059257165
151	0xbc2a36d3	-0.010389048
152	0x3d9aea58	0.07564229
153	0x3db558fc	0.08854863
154	0x3dafc3a0	0.085822344
155	0x3da8818f	0.08227836
156	0xbd4ed8b3	-0.05049963
157	0xbdc02df4	-0.09383765
158	0xbd802e01	-0.062587745
159	0xbc961aa4	-0.01832325
160	0x3dda638e	0.1066352
161	0xbda29f80	-0.079405785
162	0x3d8ae9bd	0.06782863
163	0xbb8f4162	-0.004371808
164	0xbcd26df7	-0.025687201
165	0xbdc1cbcb	-0.094626985
166	0xbc6a98b7	-0.014318637
167	0x3e0627ca	0.13101116
168	0xba92fba1	-0.0011213907
169	0x3dabab2d	0.083822586
170	0x3bbce7e4	0.005764948
171	0x3d8af177	0.06784337
172	0x3d8220ee	0.06353937
173	0x3d1a8cfd	0.037732113
174	0xbe1a0136	-0.15039524
175	0x3d86a325	0.06574086
176	0x3d8e8a24	0.06959942
177	0x3ce83a1a	0.028348017
178	0x3ca48556	0.02008311
179	0xbd825746	-0.06364302
180	0xbb9bbb20	-0.0047525316
181	0xbd7ffcb0	-0.06249684
182	0x3d6defdb	0.058090072
183	0x3d002a39	0.031290267
184	0x3d0caed2	0.03434641
185	0xbd5a47fe	-0.053291313
186	0xbd89a99f	-0.06721806
187	0x3de4057d	0.11133859
188	0x3db22df9	0.08700175
189	0xbcf92d96	-0.030417245
190	0xbc10c9bf	-0.0088371625
191	0x3e0b7252	0.13617828
192	0xbcc24e62	-0.023719016
193	0xbb915488	-0.0044351257
194	0xbd8a6b2c	-0.06758723
195	0x3e247bde	0.16062877
196	0x3d5382e0	0.051638484
197	0x3d98dc69	0.07463915
198	0xbd5e46b9	-0.054266665
199	0xbd995511	-0.07486928
200	0x3d21676f	0.039405283
201	0x3b19c8f4	0.0023465725
202	0xbcd28b52	-0.025701199
203	0x3c297d48	0.010344811
204	0x3d240319	0.040042017
205	0x3d3e3860	0.046440482
206	0xbbcc4584	-0.006233873
207	0xbd51e303	-0.051241886
208	0x3dc0ef65	0.09420661
209	0x3da0b649	0.07847268
210	0xbd28688f	-0.04111534
211	0xbccf7ece	-0.02532902
212	0x3df1190c	0.117723554
213	0xbd2a2bb7	-0.041545596
214	0x3cf9aa0f	0.030476598
215	0x3e12777c	0.14303392
216	0xba73edf1	-0.00093051704
217	0xbc9425fe	-0.018084522
218	0xbcc13864	-0.02358646
219	0xbda2558e	-0.079264745
220	0x3d86c8bd	0.065812565
221	0x3d18f7bd	0.037345637
222	0x3cd20b74	0.025640227
223	0xbdb7c096	-0.0897228
224	0x3dffcf72	0.12490739
225	0x3d6eb0a1	0.058273915
226	0x3da26f31	0.07931364
227	0x3d626c8e	0.055279307
228	0x3d32e902	0.043679245
229	0x3cbd7cbf	0.023130773
230	0xbd57c07c	-0.0526738
231	0xbc92b25d	-0.017907316
232	0xbd3f2703	-0.046668064
233	0x3d188aa9	0.03724161
234	0x3d327cd8	0.04357609
235	0xbc75a8a1	-0.014993818
236	0xbc36cb27	-0.011156834
237	0x3c556ca9	0.013026395
238	0xbc7050e3	-0.014667722
239	0xbc0ef4c1	-0.008725346
240	0xbd8d8775	-0.06910602
241	0x3d03d4b7	0.032185283
242	0xbd46de6a	-0.048551954
243	0x3d29399b	0.041314702
244	0x3df2d176	0.11856358
245	0x3c3fdcbd	0.011710343
246	0xbdf4e4e4	-0.1195772
247	0xbda9a136	-0.08282702
248	0xbc5c12d3	-0.013432222
249	0x3d3d50d1	0.04621965
250	0x3ca0a941	0.019611957
251	0xbd72d5a8	-0.05928579
252	0xbd97fa0c	-0.074207395
253	0xbd5680f9	-0.05236909
254	0x3d1fbf4e	0.0390008
255	0x3c85eabc	0.016347282

weight f4 [1024, 8]
0	0x3df5fc4d	0.12011013
1	0x3c41f1f4	0.011837471
2	0x3c6ebba6	0.014571106
3	0x3e3bb451	0.18330504
4	0x3c9656fe	0.018352028
5	0x3b893fb1	0.004188501
6	0x3cf2aa44	0.029622205
7	0xbcc06470	-0.023485392
8	0x3cd6f18e	0.02623823
9	0xbc8352bf	-0.016030667
10	0x3e0c192e	0.1368148
11	0xbd2af344	-0.041735902
12	0x3d996038	0.074890554
13	0x3c6870b6	0.014187029
14	0x3dfae0c1	0.122499
15	0x3ce3b30c	0.027795337
16	0x3d942b46	0.07234816
17	0xbd38960e	-0.04506498
18	0x3d691402	0.056903847
19	0x3d7a8c1f	0.061168786
20	0xbca1aafb	-0.01973485
21	0xbd2831ca	-0.041063108
22	0xbd409366	-0.04701557
23	0x3dae7629	0.08518631
24	0x3dacbba3	0.08434226
25	0xbceb9eba	-0.02876221
26	0xbdfe15e5	-0.1240652
27	0x3d475885	0.048668403
28	0x3daad6ba	0.08341737
29	0x3dda09fd	0.10646436
30	0x3c9aa90a	0.018879432
31	0x3cddf16a	0.027092654
32	0xbc115033	-0.008869219
33	0x3de59724	0.112104684
34	0x3bd0541d	0.0063576833
35	0x3d26508f	0.04060417
36	0x3d8ae72a	0.06782372
37	0xbd9b3989	-0.07579333
38	0xbdbc22ec	-0.09186348
39	0xbd8111cd	-0.06302223
40	0xbd69a20b	-0.0570393
41	0xbd806dbb	-0.062709294
42	0x3dc76add	0.097371794
43	0xbc25af74	-0.010112632
44	0x3d96062c	0.07325396
45	0x3d98be8c	0.07458219
46	0x3d3e0600	0.04639244
47	0xbaa6299f	-0.0012677199
48	0x3befcd28	0.0073181577
49	0x3d90679a	0.070510104
50	0x3b88444a	0.0041585313
51	0x3c890eaf	0.016730634
52	0xbd1cb520	-0.03825867
53	0x3d32f63e	0.043691866
54	0xbc4b6fc7	-0.0124167865
55	0xbd2015f3	-0.039083432
56	0xbddf06d8	-0.10889977
57	0xbcf67a9f	-0.030087767
58	0xbd042981	-0.032266144
59	0xbcb80011	-0.02246097
60	0x3da82ce3	0.082116865
61	0x3d296624	0.041357175
62	0x3de0fc21	0.1098559
63	0xbdaa1450	-0.083046556
64	0xbd3082f9	-0.043093655
65	0x3d75f972	0.060052343
66	0x3db12da1	0.08651281
67	0xbd82ef51	-0.06393302
68	0xbcdad876	-0.026714545
69	0x3d4c6ecf	0.049910363
70	0x3c770915	0.015077849
71	0xbd60fead	-0.054930378
72	0xbc9b7fd0	-0.018981844
73	0xbd8d68c9	-0.06904752
74	0xbe25bb58	-0.16184747
75	0xbbb0a58e	-0.0053908294
76	0x3d064b8e	0.0327869
77	0x3d6af759	0.057364795
78	0xbddd6b51	-0.108114846
79	0xbbe5e4c1	-0.007015795
80	0xbd2562dc	-0.040377483
81	0x3cda2d57	0.026632948
82	0xbca2c565	-0.019869516
83	0xbcca528e	-0.024697568
84	0xbc59337b	-0.013256903
85	0x3c6385d9	0.013886892
86	0xbd38b94a	-0.04509858
87	0xbd69628c	-0.056978747
88	0x3dd16d0c	0.10225877
89	0x3d94196c	0.07231411
90	0x3d9078a9	0.07054264
91	0x3d3fb566	0.046803854
92	0xbd70c794	-0.058784083
93	0xbd8c9171	-0.06863678
94	0x3d36e0cb	0.044647973
95	0xbc711466	-0.014714336
96	0xbd4a0031	-0.04931659
97	0xbd659091	-0.056046072
98	0x3c8734f5	0.016504744
99	0x3c753219	0.0149655575
100	0x3d8d45cf	0.068980806
101	0xbd0d769a	-0.034536935
102	0x3a8f3c0b	0.0010927928
103	0xbdca9305	-0.09891323
104	0xbcc065a0	-0.023485959
105	0xbd07bcbf	-0.033138987
106	0x3ca8e54d	0.020617152
107	0xbdaa67eb	-0.08320602
108	0xbd3dfc78	-0.04638335
109	0x3de202ca	0.11035688
110	0x3d7dc6dc	0.061957225
111	0x3d4049c1	0.046945337
112	0x3b5c8a31	0.0033651704
113	0xbdfd6d84	-0.12374404
114	0x3d5cb9cd	0.05388813
115	0x3d08f190	0.033433497
116	0xbca65f9b	-0.02030926
117	0xbd6760c0	-0.056488752
118	0xbd271818	-0.040794462
119	0x3dae589b	0.08512994
120	0x3e02adf0	0.12761664
121	0x3c978db6	0.01850019
122	0x3cde9d25	0.027174542
123	0x3d00c8cc	0.031441495
124	0x3bcaab35	0.0061849602
125	0x3da87132	0.08224715
126	0xbdcac162	-0.09900166
127	0xbd81abb0	-0.06331575
128	0x3e0fed92	0.1405547
129	0xbcfb28bb	-0.03065907
130	0x3d193638	0.037405223
131	0xbbe47204	-0.0069715995
132	0xbd6747ad	-0.05646484
133	0x3ca7b1bf	0.020470498
134	0x3dce09f1	0.1006049
135	0xbd6a3892	-0.057182856
136	0x3df8ea3d	0.121540524
137	0xbd29d48d	-0.04146247
138	0x3cf9f9a4	0.030514546
139	0x3d02a87a	0.031898953
140	0x3d182406	0.03714373
141	0x3cf8abb7	0.030355318
142	0xbca1cae0	-0.019750059
143	0xbcb2a58c	-0.021807455
144	0xbd40b11f	-0.047043916
145	0xbdb754da	-0.08951731
146	0xbd421bca	-0.047389783
147	0x3db2e3c1	0.08734847
148	0x3cabaf98	0.020957753
149	0xbdcd0eef	-0.10012614
150	0x3d5d5fdc	0.054046497
151	0x3a3dfce2	0.00072474603
152	0xbdfded84	-0.12398818
153	0xbbed2470	-0.0072370097
154	0x3ca92b57	0.020650549
155	0x3d2e0e63	0.04249419
156	0x3da18f1b	0.07888623
157	0xbd46f11b	-0.04856978
158	0x3d6741cd	0.056459237
159	0xbc916a3e	-0.017750856
160	0xbd1e333f	-0.03862309
161	0x3d2e02f3	0.04248328
162	0x3d0ed2d6	0.034869038
163	0x3dd879de	0.10570119
164	0xbcb12d95	-0.02162818
165	0xbddbca04	-0.10731891
166	0xbd5ea34c	-0.05435495
167	0xbdc83d59	-0.09777326
168	0xbcd5f0ea	-0.026115853
169	0x3e02a7d4	0.12759334
170	0x3d0cb0fe	0.03434848
171	0xbd99c07a	-0.07507415
172	0xbc98ee13	-0.01866821
173	0x3d7b6101	0.061371807
174	0x3bf7b338	0.0075592063
175	0x3c21b485	0.009869699
176	0xbb3449ec	-0.0027509881
177	0x3d1bb50f	0.038014468
178	0xbd43e588	-0.04782632
179	0x3c787090	0.015163556
180	0xbd845135	-0.064608015
181	0xbd797b6b	-0.060908716
182	0x3d2ad174	0.041703656
183	0xbdb6e1d2	-0.089297906
184	0xbd592e86	-0.053022884
185	0x3dd58a97	0.104268245
186	0x3d2eb33e	0.042651407
187	0xbc37fb67	-0.011229373
188	0x3bc5cfbc	0.0060367268
189	0xbd6b0543	-0.057378065
190	0x3d8a7dbb	0.067622624
191	0xbd10efd4	-0.035384968
192	0xbe02b9c8	-0.12766182
193	0x3d232fb1	0.039840404
194	0x3bee956c	0.007280996
195	0x3d192a5e	0.03739392
196	0x3dc196b9	0.09452576
197	0xbcec29b6	-0.028828483
198	0x3dde4c81	0.10854436
199	0x3d0915a4	0.033467904
200	0xbd2d3dcf	-0.042295273
201	0xbd214e14	-0.0393811
202	0x3cb573ae	0.022149887
203	0x3d251c57	0.04031023
204	0xbcd9ef40	-0.026603341
205	0x3cfffe14	0.031249084
206	0x3daef194	0.08542171
207	0xbd970b94	-0.07375255
208	0xbd021e24	-0.031767026
209	0x3d29b478	0.041431874
210	0xbc27a058	-0.0102311
211	0x3d7fc53e	0.062443964
212	0xbdbf6bb9	-0.09346718
213	0xbd0f3cb0	-0.034969985
214	0x3d1c996c	0.038232252
215	0x3d3b174e	0.045676522
216	0x3d59ffee	0.05322259
217	0x3d46a01e	0.048492543
218	0xbdbd9ebc	-0.09258792
219	0x3c2c2278	0.010506265
220	0xbd2443aa	-0.040103592
221	0xbd171d1b	-0.03689299
222	0x3c71de27	0.014762438
223	0xbddc14f4	-0.10746184
224	0xbdc644ff	-0.09681129
225	0x3d2f86c4	0.042853132
226	0x3c900ea2	0.017585102
227	0x3dbbe5f2	0.09174718
228	0xb9a2cae4	-0.00031050213
229	0xbdaccd9c	-0.084376544
230	0xbcc48088	-0.02398707
231	0xbd3c9ad1	-0.046046082
232	0xbdb81885	-0.08989052
233	0x3dce47c5	0.10072283
234	0xbd54b54a	-0.051930703
235	0xbd5cfe67	-0.053953554
236	0x3d115663	0.035482775
237	0x3cd381aa	0.025818665
238	0x39e3dc7c	0.00043461088
239	0xbd762736	-0.06009599
240	0xbd8b661f	-0.068065874
241	0x3bcc24d5	0.0062299767
242	0xbc2081ef	-0.009796604
243	0x3ce1da11	0.027569802
244	0xbdae5e92	-0.085141316
245	0xbd5fef0a	-0.054671325
246	0xbc9c6a1d	-0.019093568
247	0x3d1241e3	0.035707366
248	0xba938ac9	-0.0011256571
249	0xbb7de90e	-0.0038743648
250	0x3ccdfff6	0.025146466
251	0xbdbf1c66	-0.093315884
252	0x3cd29a06	0.02570821
253	0x3cd00ca5	0.025396654
254	0x3bd12a8e	0.0063832467
255	0x3d84f825	0.06492642
