E-GraphSAGE/netflow/bot-iot/EdgeGATKAN_multiclass_v2_best_model.pth (torch, 177817 bytes, 11 tensors)

attn_l f4 [1, 8, 39]
-0.011059936 -0.024545807 -0.05830595 -0.026145793 0.21749844 0.151816 0.07218166 -0.02547392
0.05356698 -0.07009534 -0.052097417 0.06952073 0.043746572 0.16084369 0.041320402 -0.050258484
0.10871686 0.099093296 0.09851078 0.04702308 -0.07617013 0.11737706 0.091189146 0.016232548
-0.10824217 -0.015435264 0.050138563 -0.14367668 0.013920452 0.006852015 -0.006535132 -0.06325253
-0.08690957 0.019687954 0.048101723 -0.034704834 0.17035325 0.19947171 -0.011242002 -0.101416625
0.15397446 0.013468196 0.26457438 -0.0589011 -0.14212099 0.16376218 0.17014587 -0.10799018
-0.1454085 -0.124576874 -0.08439061 -0.07373816 0.05050168 0.13740188 0.032223094 -0.09442594
-0.01946761 -0.010916843 0.06512182 -0.121235915 -0.05633899 -0.07434809 0.2890873 0.24146101
-0.17648245 0.17566447 0.09712633 0.111867376 0.06577165 0.18104796 0.099577956 0.02838912
0.043125663 0.07828791 0.086457826 0.1980707 0.07318285 0.11421577 0.08598077 0.19055858
0.19887291 -0.068961434 -0.051123112 -0.14891517 -0.18052626 0.064941995 -0.033042137 -0.116284
0.29468104 0.111464076 -0.14775103 0.06785451 0.073195405 0.101118036 0.08332613 0.012730056
-0.080079384 0.084433034 0.1413854 0.054968383 -0.06720944 -0.16123219 0.05779962 -0.007789405
-0.018574988 0.09656542 0.16104159 0.04163774 -0.15034609 0.1897304 -0.12583327 0.10039179
0.07241015 0.0043320586 0.055961434 -0.12349308 -0.16644314 -0.0017370629 -0.119489625 -0.1042068
0.06341917 -0.033836756 -0.127693 0.0020864464 0.09539594 -0.040941775 0.07594625 -0.11878227
-0.010025462 0.15675187 -0.16062322 0.0738118 0.07831882 -0.16798246 -0.05697345 -0.020136623
0.079152584 0.12479107 -0.1686236 0.044555068 0.09666557 -0.07202665 0.06285546 -0.07340263
0.13934399 0.1630889 0.112749524 -0.11119596 -0.029848564 -0.053421006 -0.100123934 -0.030094031
-0.08661841 0.006608999 0.17551088 -0.032284833 0.02521477 0.023921069 0.08114477 -0.0046646893
0.08281178 -0.078648195 -0.059614398 -0.03062682 -0.07059631 0.06965274 -0.07641974 0.07396246
0.10107795 -0.022295386 -0.14600357 -0.27163842 -0.027357837 -0.20873035 0.16200493 0.06424471
-0.0738602 -0.025654435 0.19024718 0.010998519 -0.11773579 0.07528338 0.14755811 -0.1662684
0.009734182 0.051100872 0.062015455 -0.02427747 -0.09922889 -0.05122642 -0.019877946 0.029759461
-0.06642347 0.02288435 0.11844603 0.07541183 0.1094268 -0.06389417 -0.04533342 0.11901516
-0.19264807 -0.14678675 -0.08589003 0.046239574 -0.2482618 -0.009410167 0.14059347 -0.16604352
0.041910935 0.18083051 0.1321546 -0.0332747 0.05071151 0.20390695 0.29227084 0.18918502
-0.14078176 0.1295286 -0.025183436 -0.21228395 0.12326254 -0.016581375 0.122375146 0.18035685
-0.01120762 0.20373468 0.06784158 0.00526781 -0.057218228 -0.11502323 -0.06458093 -0.012424336
-0.019062035 0.26290825 0.062092293 -0.05214525 -0.037336648 0.065901786 0.12049789 0.16736512
0.048375376 0.030443925 -0.046453364 -0.09945179 0.060998645 -0.11764607 0.01807685 0.06038132
0.06234227 -0.016936261 0.0794438 -0.1888377 -0.072277226 0.09161956 0.12048747 0.099502996
00000000: bc34 35bc 4a14 c9bc 38d2 6ebd b42f d6bc
00000010: e9b7 5e3e a775 1b3e fad3 933d afae d0bc
00000020: 0d69 5b3d 258e 8fbd 1a64 55bd e260 8e3d
00000030: 9b2f 333d 35b4 243e 953f 293d d7db 4dbd
00000040: f2a6 de3d 6df1 ca3d 05c0 c93d 469b 403d
00000050: 16ff 9bbd 6263 f03d 60c1 ba3d 1ffa 843c
00000060: 12ae ddbd 31e4 7cbc 185e 4d3d fb1f 13be
00000070: 9c12 643c de86 e03b a924 d6bb 8b8a 81bd
00000080: a5fd b1bd a248 a13c 5006 453d a826 0ebd
00000090: 1571 2e3e 5042 4c3e 6030 38bc 85b3 cfbd
000000a0: 7bab 1d3e b5a9 5c3c 4b76 873e 4842 71bd
000000b0: 2a88 11be 46b1 273e b83a 2e3e f529 ddbd
000000c0: f7e5 14be 2922 ffbd fcd4 acbd 0804 97bd
000000d0: d9da 4e3d 14b3 0c3e 5dfc 033d 6362 c1bd
000000e0: 8a7a 9fbc 8fdc 32bc 975e 853d 894a f8bd
000000f0: b6c3 66bd d043 98bd 4003 943e 8e41 773e
00000100: d1b7 34be 63e1 333e 2bea c63d b91a e53d
00000110: 49b3 863d a364 393e 87ef cb3d 4d90 e83c
00000120: 89a4 303d 6955 a03d cd10 b13d 0cd3 4a3e
00000130: e4e0 953d f5e9 e93d b016 b03d ca21 433e
00000140: 57a5 4b3e a73b 8dbd 7866 51bd 387d 18be
00000150: e0db 38be 4f00 853d 3157 07bd 4e26 eebd
00000160: 6fe0 963e 4747 e43d 0c4c 17be 4ef7 8a3d
00000170: 79e7 953d f916 cf3d e4a6 aa3d ba91 503c
00000180: a900 a4bd 3aeb ac3d 56c7 103e 8726 613d
00000190: 1aa5 89bd 0d1a 25be 4bbf 6c3d 443e ffbb
000001a0: 932a 98bc 17c4 c53d 16e8 243e 568c 2a3d
000001b0: 53f4 19be b048 423e 70da 00be 369a cd3d
000001c0: c64b 943d f1f3 8d3b d137 653d f1e9 fcbd
000001d0: 1270 2abe 29ae e3ba fab6 f4bd 606a d5bd
000001e0: e9e1 813d 6998 0abd f4c1 02be c3bc 083b
000001f0: f25e c33d 90b2 27bd b589 9b3d 1e44 f3bd
00000200: d641 24bc 9083 203e 6a7a 24be a42a 973d
00000210: 9e65 a03d 9803 2cbe fe5c 69bd 8ff5 a4bc
00000220: c01a a23d 7692 ff3d aaab 2cbe 607f 363d
00000230: 99f8 c53d b582 93bd 5dba 803d 1e54 96bd
00000240: 31b0 0e3e c700 273e 39e9 e63d b5ba e3bd
00000250: fa84 f4bc fccf 5abd c70d cdbd c287 f6bc
00000260: fe64 b1bd 4d90 d83b 20b9 333e 1a3d 04bd
00000270: 358f ce3c 1ef6 c33c 3b2f a63d 40da 98bb
00000280: 3999 a93d 4e12 a1bd 3a2e 74bd 19e5 fabc
00000290: cc94 90bd 19a6 8e3d f481 9cbd a179 973d
000002a0: f501 cf3d d0a4 b6bc f681 15be 3114 8bbe
000002b0: 8b1d e0bc 69bd 55be 9fe4 253e bb92 833d
000002c0: 0444 97bd 4029 d2bc 28d0 423e 2233 343c
000002d0: 761f f1bd 2c2e 9a3d 7919 173e 4342 2abe
000002e0: 1e7c 1f3c 264f 513d eb03 7e3d 8be1 c6bc
000002f0: 8438 cbbd cbd2 51bd 13d7 a2bc 1dca f33c
00000300: 0709 88bd f677 bb3c d593 f23d 8471 9a3d
00000310: 281b e03d f2da 82bd 89af 39bd 38be f33d
00000320: 8945 45be 444f 16be 1de7 afbd b565 3d3d
00000330: 5738 7ebe 1a2d 1abc bcf7 0f3e 5007 2abe
00000340: cdaa 2b3d a22b 393e 8953 073e 0d4b 08bd
00000350: dfb6 4f3d fccc 503e 86a4 953e b8b9 413e
00000360: 1829 10be 25a3 043e 7e4d cebc f760 59be
00000370: 1271 fc3d aad5 87bc d29f fa3d 77af 383e
00000380: 2aa0 37bc d39f 503e 87f0 8a3d 989d ac3b
00000390: a95d 6abd 4d91 ebbd 0243 84bd 718f 4bbc
000003a0: fc27 9cbc e99b 863e 7d54 7e3d 4296 55bd
000003b0: 50ee 18bd 84f7 863d 99c7 f63d c361 2b3e
000003c0: 4225 463d 8a65 f93c e245 3ebd 61ad cbbd
000003d0: b7d9 793d 6cf0 f0bd e715 943c 6752 773d
000003e0: 9c5a 7f3d eabd 8abc 6eb3 a23d ac5e 41be
000003f0: 1506 94bd 09a3 bb3d 22c2 f63d 3ac8 cb3d

attn_r f4 [1, 8, 39]
0.0053921053 -0.019541584 0.0464579 0.067705594 0.028354168 0.13969386 0.030572943 0.17553394
-0.1721802 0.015698027 0.041562244 0.16690442 0.06052191 0.12636718 0.11755526 -0.013657447
0.016267922 -0.025161782 -0.1526543 -0.15871087 -0.0007799741 -0.052539594 0.00897168 0.011049829
0.131649 0.05904774 -0.056856535 -0.08922974 -0.13982277 0.029102178 0.001660215 -0.17718568
-0.13876133 0.059536308 0.015360637 0.019351317 0.12569554 -0.11252499 -0.008844037 0.010346935
0.014415325 0.11551675 -0.07394197 -0.057946153 0.096874066 0.30574912 -0.014366866 0.12984274
0.024247007 -0.36797816 -0.10494495 -0.12709837 0.008620021 -0.042903546 -0.024701083 0.06341221
-0.016404545 -0.10485266 0.08990279 -0.08690944 -0.10573705 -0.14862397 -0.10378268 -0.11439273
-0.021418745 0.09518384 -0.18317164 -0.007380719 -0.10222859 -0.05076492 0.04894052 0.08752953
-0.08070367 -0.034598097 -0.066253796 -0.027098702 -0.08365613 -0.1459793 -0.023147564 -0.120657116
0.2097875 0.039552823 0.02062373 -0.045578305 -0.04802817 0.049566224 0.05386341 0.026740782
0.13011354 -0.09350212 0.16378738 0.33849347 0.0884277 0.18478301 0.05100217 0.107536785
0.18476444 -0.018120738 0.050422553 0.20841168 0.11549885 -0.017230252 -0.00063356606 0.26356155
-0.10209393 -0.05068984 -0.1985531 0.18487924 0.0108937165 0.13253498 -0.064050816 -0.076244034
0.033341084 0.0014134388 -0.108827375 -0.0032737104 0.19862004 0.23392428 0.0107400725 -0.08813016
-0.08362544 0.22192791 -0.02621973 0.02595787 0.09172273 0.07541189 -0.076456055 0.25162485
-0.09773822 -0.1690211 -0.03965565 -0.13505925 -0.018495375 0.03373795 -0.0032477707 -0.05073943
-0.0722767 0.04689254 -0.058855474 0.11971798 0.049124382 0.12537406 -0.106885046 -0.06329579
-0.015116585 0.0128789935 -0.13152592 -0.097003244 0.0021966456 -0.1328809 0.04621314 0.29760063
0.027454492 0.15416384 -0.04457203 -0.16511771 -0.06655717 -0.044131733 -0.016409626 0.16656655
0.13798599 -0.080351986 -0.03597479 0.096331544 0.16254081 -0.10125544 0.17729552 0.13218674
-0.042834263 -0.049817897 -0.07770913 -0.0019836463 -0.0008484326 -0.03201139 0.21200123 0.09657262
-0.14951082 -0.12351242 0.06100096 0.21769653 0.120167725 -0.12766531 0.015643174 0.013609966
-0.12859212 0.03258048 -0.118311025 -0.09308557 -0.046762135 -0.02360159 0.10431045 0.03574446
-0.03698316 -0.07293614 0.054409966 0.011694646 0.13577186 -0.20376447 -0.05373858 0.17259327
-0.1195877 -0.03506983 0.026753804 0.0052714385 -0.072968796 0.0051940586 0.06010941 0.040071204
-0.109109 0.016267693 0.11487395 -0.013179593 0.22311315 -0.058892515 -0.07238975 -0.14835016
-0.16800866 -0.08599463 -0.117676824 -0.19773015 0.10727936 -0.07304342 0.17104131 0.011489771
-0.15229733 -0.068173386 -0.047663588 -0.013776731 0.11033324 -0.11276681 0.038282476 0.16106316
0.08696504 0.20058814 -0.16944146 -0.07155876 0.014860251 -0.13951993 -0.042913243 0.06150522
-0.15584458 -0.15194401 0.065007776 0.06964439 -0.083311565 0.061060805 0.018223375 -0.005192148
-0.18285443 0.06244844 -0.027771976 0.18824737 -0.051862214 0.07535334 -0.04908057 -0.060855974
00000000: 42b0 b03b ac15 a0bc a44a 3e3d 3ba9 8a3d
00000010: 0047 e83c e80b 0f3e 1c74 fa3c 2bbf 333e
00000020: 0250 30be 2699 803c 2c3d 2a3d fee8 2a3e
00000030: d3e5 773d 6666 013e d0c0 f03d 7cc3 5fbc
00000040: 4e44 853c 1520 cebc 6951 1cbe 1a85 22be
00000050: 2d77 4cba c233 57bd f4fd 123c 580a 353c
00000060: ffce 063e 0bdc 713d 66e2 68bd 15be b6bd
00000070: b32d 0fbe b167 ee3c 929b d93a 2a70 35be
00000080: 7317 0ebe 58dc 733d 2eab 7b3c a786 9e3c
00000090: 55b6 003e 8173 e6bd 94e6 10bc 3186 293c
000000a0: 412e 6c3c 0c94 ec3d e36e 97bd f258 6dbd
000000b0: e965 c63d 268b 9c3e 0163 6bbc 7ff5 043e
000000c0: a9a1 c63c a267 bcbe 61ed d6bd 1326 02be
000000d0: fd3a 0d3c a1bb 2fbd ed59 cabc 43de 813d
000000e0: d362 86bc febc d6bd f41e b83d 94fd b1bd
000000f0: ab8c d8bd e230 18be 048c d4bd bc46 eabd
00000100: 5d76 afbc bfef c23d 5991 3bbe f5d9 f1bb
00000110: 395d d1bd e0ee 4fbd db75 483d af42 b33d
00000120: f747 a5bd bcb6 0dbd 12b0 87bd 19fe ddbc
00000130: e853 abbd 997b 15be f69f bdbc 141b f7bd
00000140: 89d2 563e 2402 223d 19f3 a83c 51b0 3abd
00000150: 30b9 44bd f405 4b3d e19f 5c3d 7c0f db3c
00000160: 7c3c 053e 0a7e bfbd e1b7 273e 044f ad3e
00000170: 9519 b53d c237 3d3e a7e7 503d 3f3c dc3d
00000180: e432 3d3e f171 94bc e187 4e3d df69 553e
00000190: a98a ec3d 7526 8dbc e615 26ba 8af1 863e
000001a0: 9f16 d1bd 26a0 4fbd 8151 4bbe fc50 3d3e
000001b0: 8f7b 323c 40b7 073e 132d 83bd d525 9cbd
000001c0: a990 083d 2343 b93a e3e0 debd bf8b 56bb
000001d0: 0d63 4b3e d989 6f3e 21f7 2f3c 967d b4bd
000001e0: d143 abbd 1241 633e c2ca d6bc 99a5 d43c
000001f0: 20d9 bb3d 8d71 9a3d fe94 9cbd f9d4 803e
00000200: fa2a c8bd de13 2dbe f66d 22bd f94c 0abe
00000210: 9d83 97bc ce30 0a3d 8dd8 54bb 26d4 4fbd
00000220: ce05 94bd 6412 403d 7012 71bd b32e f53d
00000230: a636 493d 0f62 003e 8ce6 dabd 39a1 81bd
00000240: 8eab 77bc 6a02 533c bbae 06be a3a9 c6bd
00000250: 99f5 0f3b ee11 08be fd49 3d3d 1c5f 983e
00000260: 3ee8 e03c 20dd 1d3e 2991 36bd 9e14 29be
00000270: 204f 88bd 7ac3 34bd 7b6d 86bc 6c90 2a3e
00000280: 334c 0d3e 958f a4bd 4d5a 13bd 7949 c53d
00000290: 1971 263e 035f cfbd f58c 353e f65b 073e
000002a0: fb72 2fbd da0d 4cbd f725 9fbd 1000 02bb
000002b0: 5969 5eba 601e 03bd da16 593e dec7 c53d
000002c0: 5d19 19be 14f4 fcbd 25dc 793d d7eb 5e3e
000002d0: 7f1a f63d b2ba 02be 1d26 803c 56fc 5e3c
000002e0: a7ad 03be 1c73 053d 0d4d f2bd a6a3 bebd
000002f0: a789 3fbd 1f58 c1bc b8a0 d53d c868 123d
00000300: a77b 17bd 8b5f 95bd fcdc 5e3d e79a 3f3c
00000310: c707 0b3e a2a7 50be fc1c 5cbd 4abc 303e
00000320: 65ea f4bd 62a5 0fbd cb2a db3c 08bc ac3b
00000330: aa70 95bd ec32 aa3b 4935 763d b421 243d
00000340: 8a74 dfbd d343 853c 0943 eb3d 38ef 57bc
00000350: c677 643e 4739 71bd 1441 94bd 1be9 17be
00000360: 760a 2cbe f41d b0bd 8c00 f1bd c679 4abe
00000370: 48b5 db3d ca97 95bd 7425 2f3e 983f 3c3c
00000380: d5f3 1bbe 7d9e 8bbd e53a 43bd ccb7 61bc
00000390: 65f6 e13d 49f2 e6bd 16ce 1c3d beed 243e
000003a0: ba1a b23d fa66 4d3e 1082 2dbe 668d 92bd
000003b0: 6978 733c 50de 0ebe ccc5 2fbd e6ec 7b3d
000003c0: b995 1fbe 3697 1bbe cc22 853d b8a1 8e3d
000003d0: 419f aabd e51a 7a3d 3049 953c e522 aabb
000003e0: 313e 3bbe efc9 7f3d 0e82 e3bc ebc3 403e
000003f0: 796d 54bd da52 9a3d b508 49bd 1d44 79bd

bias f4 [312]
-0.008143725 0.0040357257 0.01108188 0.018473871 0.01165305 0.024927882 0.0024916085 0.03578116
0.019543648 0.016360024 0.03345398 0.020804785 -0.012110094 -0.00429146 0.00427929 0.035774592
0.03525417 0.020774243 -0.019131497 -0.012588692 -0.023804875 -0.017106444 0.008770871 0.04926146
0.017341817 0.020967603 0.0062610335 0.022597123 0.011241325 0.015870355 -0.010958015 0.001287585
0.009402253 -0.012281598 0.042624306 0.0046696104 -0.008409196 0.027624194 0.039639313 -0.013722424
0.0125180585 0.0013632334 0.013063738 0.016968437 0.010825972 0.032483257 0.056396987 0.02130817
0.027302945 0.0186367 -0.016928885 -0.02019839 0.0034991878 -0.009854517 0.046056863 0.018596759
0.039640673 -0.0022443528 -0.016951554 -0.018658126 -0.017554244 0.014200695 -0.007950948 -0.017468482
0.0021962656 -0.035888847 -0.01606145 -0.0015402945 -0.015601811 -0.008269916 -0.0030905688 0.019856494
-0.03279889 -0.004166024 -0.014221796 -0.015405863 0.018163579 0.0071909856 0.021456366 -0.0070211296
-0.007977697 0.014756668 0.029860888 -0.028948896 0.012360838 -0.0011193707 -0.012009349 -0.0032429656
-0.011932011 0.019741757 0.00401601 -0.017470395 -0.007947541 0.0024437548 0.02268945 0.023127465
-0.012367415 -0.01970108 0.011142108 -0.005063056 0.004182915 0.0660785 -0.054876126 -0.004837591
-0.023927793 0.01870979 0.021469254 0.019723114 -0.011625746 0.014240387 0.0105391005 -0.027338902
-0.00393329 0.02008237 0.0434219 0.017669832 -0.029001936 0.01741716 0.013784016 0.0070488933
0.019414341 0.010066299 0.001952331 -0.031530336 0.017624957 0.041240506 0.029569186 -0.014696563
0.021159586 -0.012241967 -0.048282728 0.010472178 0.009849805 0.019338496 0.025718475 -0.01910449
0.009546154 0.019088764 0.01865335 0.04267272 -0.029478546 0.02918426 0.033188663 -0.013563816
0.011643077 0.029438866 0.019253498 0.034931317 0.00786175 -0.007150328 0.014982015 0.01141268
0.012092354 0.10837234 0.019357724 0.024769451 0.005594502 -0.028781315 -0.03384834 0.0013073232
0.024672518 0.023207052 0.013034913 0.027968947 0.04767319 0.007519802 0.016462764 -0.031390984
-0.009917522 -0.041919246 -0.012713927 0.010584411 0.0028744326 -0.0056311986 -0.013576073 -0.049824946
-0.042032093 -0.035249475 0.027066125 0.027456176 -0.037942108 -0.024624674 0.00800643 0.025291868
0.0118852565 0.0013396 -0.012231003 -5.487695e-05 -0.041532833 0.01899413 0.034483813 -0.016297668
0.0076519037 0.033290993 0.01334044 -0.03870455 -0.037151117 -0.017247459 -0.028265854 0.009827696
0.018691448 -0.030677821 0.016118648 0.046141196 -0.028402124 0.026863797 -0.016387153 0.014562867
-0.017445663 0.004123705 0.017738763 0.0060399906 0.0417716 -0.00145985 -0.02282217 0.008121683
-0.026296338 0.032467216 0.06422594 0.02088013 -0.0029258265 -0.00029450443 0.039753538 0.003650061
0.03339669 0.02323355 -0.008498494 -0.0085402625 0.019712524 0.032979485 -0.0089114485 0.069776915
0.0011270798 0.008000767 -0.0038967326 0.020047266 -0.0009728213 -0.020618241 0.011606492 -0.0069472
0.0046487018 -0.02846592 0.025795287 0.005428679 0.025902662 -0.00010589573 -0.017241769 0.008176198
-0.0190929 0.007008469 0.023657413 0.04044947 -0.020349486 -0.04190504 -0.015842056 0.02981651
00000000: 426d 05bc 1f3e 843b c690 353c 8456 973c
00000010: 6fec 3e3c 8f35 cc3c 414a 233b 448f 123d
00000020: 001a a03c 7505 863c 0a07 093d cc6e aa3c
00000030: 6a69 46bc 609f 8cbb 4939 8c3b 6188 123d
00000040: ad66 103d bf2e aa3c a8b9 9cbc cd40 4ebc
00000050: 7102 c3bc d022 8cbc b3b3 0f3c 62c6 493d
00000060: 6d10 8e3c 40c4 ab3c 5b29 cd3b 9a1d b93c
00000070: 892d 383c 8c02 823c 3f89 33bc 2fc4 a83a
00000080: e80b 1a3c c138 49bc d396 2e3d 8803 993b
00000090: b9c6 09bc 224c e23c d55c 223d 05d4 60bc
000000a0: 8b18 4d3c 86ae b23a 4a09 563c 6401 8b3c
000000b0: 6b5f 313c 2a0d 053d 8700 673d 798e ae3c
000000c0: 6daa df3c feab 983c 72ae 8abc 1877 a5bc
000000d0: a152 653b d774 21bc 1fa6 3c3d 3b58 983c
000000e0: 425e 223d fe15 13bb fcdd 8abc edd8 98bc
000000f0: ebcd 8fbc 08aa 683c b144 02bc 101a 8fbc
00000100: 39ef 0f3b 2f00 13bd 4d93 83bc b5e3 c9ba
00000110: bd9e 7fbc 8b7e 07bc 248b 4abb 16aa a23c
00000120: 2158 06bd 2483 88bb 8902 69bc df68 7cbc
00000130: c9cb 943c 5ca2 eb3b 43c5 af3c 8111 e6bb
00000140: e3b4 02bc f4c5 713c d29e f43c 3c26 edbc
00000150: 1d85 4a3c d9b7 92ba dcc2 44bc ef87 54bb
00000160: 7b7e 43bc 77b9 a13c bc98 833b 131e 8fbc
00000170: 6736 02bc 6727 203b 3adf b93c cf75 bd3c
00000180: b3a0 4abc 2964 a1bc 638d 363c fee7 a5bb
00000190: d610 893b 2a54 873d cac5 60bd a884 9ebb
000001a0: 3804 c4bc 4645 993c 4ae0 af3c 5e92 a13c
000001b0: ea79 3ebc 8350 693c 31ac 2c3c d5f5 dfbc
000001c0: d4e2 80bb c883 a43c 2adb 313d 53c0 903c
000001d0: 7895 edbc 6fae 8e3c 5ad6 613c 67fa e63b
000001e0: d30a 9f3c 1eed 243c 5ce5 ff3a f425 01bd
000001f0: 3762 903c ceeb 283d 143b f23c dac9 70bc
00000200: de56 ad3c 8892 48bc 1cc4 45bd 8093 2b3c
00000210: 1461 213c c46b 9e3c 8daf d23c 0581 9cbc
00000220: 7967 1c3c 0a60 9c3c e9ce 983c 97c9 2e3d
00000230: fe7c f1bc d413 ef3c d6f0 073d c53a 5ebc
00000240: 9bc2 3e3c c729 f13c 83b9 9d3c 2414 0f3d
00000250: 92ce 003c 4c4d eabb 2077 753c 40fc 3a3c
00000260: 021f 463c 51f2 dd3d 1794 9e3c 4ee9 ca3c
00000270: 1652 b73b cbc6 ebbc 8fa4 0abd 7d5a ab3a
00000280: 051e ca3c b71c be3c 6390 553c 221f e53c
00000290: f644 433d ac68 f63b ebdc 863c d593 00bd
000002a0: 1a7d 22bc 84b3 2bbd 134e 50bc 3d6a 2d3c
000002b0: fa60 3c3b eb85 b8bb 2d6e 5ebc 3e15 4cbd
000002c0: d829 2cbd c161 10bd c7b9 dd3c c6eb e03c
000002d0: 2f69 1bbd afb9 c9bc 672d 033c e430 cf3c
000002e0: 61ba 423c 8495 af3a 8b64 48bc ad2b 66b8
000002f0: 551e 2abd 9499 9b3c e63e 0d3d b082 85bc
00000300: d2bc fa3b 235c 083d dc91 5a3c aa88 1ebd
00000310: c52b 18bd 8b4a 8dbc cb8d e7bc 5804 213c
00000320: cf1e 993c 0e50 fbbc 410b 843c 8dfe 3c3d
00000330: 92ab e8bc 7711 dc3c 5a3e 86bc 1799 6e3c
00000340: 35ea 8ebc 2520 873b e250 913c 1deb c53b
00000350: b218 2b3d 7058 bfba 8ff5 babc cf10 053c
00000360: 6b6b d7bc 58fc 043d e488 833d ce0c ab3c
00000370: 39bf 3fbb b767 9ab9 9bd4 223d dd35 6f3b
00000380: f8ca 083d 4954 be3c 443d 0bbc 75ec 0bbc
00000390: 297c a13c 7f15 073d 5301 12bc 33e7 8e3d
000003a0: 86ba 933a a615 033c 5360 7fbb 2a3a a43c
000003b0: ef04 7fba 96e7 a8bc 2829 3e3c 56a5 e3bb
000003c0: 2354 983b 5c31 e9bc a350 d33c 0fe3 b13b
000003d0: d231 d43c 5614 deb8 9c3e 8dbc 76f5 053c
000003e0: b768 9cbc 4da7 e53b 31cd c13c 58ae 253d
000003f0: f7b3 a6bc 9fa4 2bbd 33c7 81bc c141 f43c

attn_edge f4 [1, 8, 39]
0.07756148 -0.023529792 -0.06606061 0.17450798 -0.13913 -0.17983806 -0.00878686 -0.05153126
-0.12326777 -0.18019585 -0.07146013 -0.100188285 -0.3295224 0.015116868 -0.12315184 0.05213647
-0.03818809 -0.10504618 -0.1733285 0.14054567 0.021054389 0.0081427945 0.13115603 0.13501616
0.18585008 0.023036046 0.26971328 0.05188768 -0.09922718 0.09939581 0.14900292 -0.21622793
0.03664132 0.099887505 -0.044478282 0.036894966 -0.023231475 -0.24488692 0.05095443 0.072502196
0.044545595 0.021401906 -0.021976298 -0.21678141 -0.17443416 -0.038816873 -0.25556824 -0.06773071
0.15009148 0.00604862 -0.071825124 0.006343957 -0.06318168 -0.08335671 -0.017471762 0.18861547
-0.06410074 0.12092054 0.12915881 -0.0008641001 -0.01747797 0.036924567 0.056370232 0.0951028
-0.063073196 0.0019412814 -0.02152872 0.14609306 0.056101926 0.043612204 -0.058816493 -0.053897977
-0.17495048 0.06971121 0.042699113 0.026291138 -0.13021572 0.11296805 0.091803946 -0.11947044
0.10032482 -0.16269772 0.06340971 0.16414225 -0.004700003 0.16728857 0.06470706 -0.10339073
-0.20494029 0.033137713 -0.034769442 0.081525676 0.12844194 -0.094943784 -0.17481308 0.0031618099
0.056867152 0.06594993 -0.052143767 0.015888829 -0.13388318 0.21924806 0.06609138 0.13027684
-0.036777742 0.2315407 -0.05471155 -0.098223284 -0.06160058 0.22518276 0.13662891 0.21480654
-0.08915254 -0.11526809 -0.021379177 0.11773821 -0.20653762 0.017434299 -0.013504374 -0.018862648
0.2159779 -0.13524176 -0.12846066 0.17135818 0.12362214 -0.11664207 -0.05837196 -0.18228294
-0.13119824 0.03665908 -0.1669673 -0.060586434 0.1897405 -0.24621136 0.26214498 0.16338608
-0.07050236 -0.12113908 0.14593361 -0.018401565 0.117140494 -0.01441809 0.026995879 0.009401867
0.022579592 0.08200332 -0.14749312 -0.16876814 0.26084414 0.19626778 0.019410115 0.14740786
0.10650729 -0.47080877 -0.055097423 -0.07975603 -0.007866713 -0.03701374 -0.019210009 0.151134
-0.08352106 0.021100016 0.03859564 0.29282364 0.012013815 0.102575764 0.20153658 0.13179599
-0.013693101 0.28118122 0.031642046 0.08952406 -0.07139702 0.08731978 -0.11085725 -0.050765194
0.15673582 -0.27215803 -0.057666793 0.049731247 -0.29340965 -0.28116563 -0.016500728 0.13412267
0.06735478 -0.043408614 0.17422582 -0.24861799 0.050345346 -0.18369739 -0.12638612 0.03652704
0.08156116 0.13386044 -0.13651438 0.265805 0.034550045 0.09650836 -0.059464097 0.11473037
-0.14239798 0.21603312 -0.018795907 0.035444617 0.022837348 0.05166027 -0.15218945 -0.0052359314
-0.073912285 -0.022121895 0.0033101237 0.08157336 -0.09290552 -0.10694042 0.12314572 -0.06616478
-0.034826517 -0.021306261 -0.1120639 -0.03403762 -0.09337354 -0.013396863 -0.13140912 0.13582973
-0.034848846 -0.095424876 0.1550951 -0.020789787 -0.056936055 -0.04957043 -0.00062508887 -0.028146403
0.24994044 0.25825515 0.12001087 -0.1461337 0.057983994 0.049436174 -0.110565655 0.021683464
-0.08434629 -0.06570239 -0.22242342 0.08329258 0.0564192 0.022828095 -0.015936207 -0.20386603
0.21344289 0.12976168 -0.09711239 -0.13369744 -0.05875595 -0.10214591 -0.29078183 0.13917892
00000000: 8ed8 9e3d 8dc1 c0bc c94a 87bd 38b2 323e
00000010: 1878 0ebe 7827 38be c3f6 0fbc 7112 53bd
00000020: d073 fcbd 4385 38be b059 92bd 842f cdbd
00000030: 29b7 a8be bdac 773c 0837 fcbd 0d8d 553d
00000040: 1d6b 1cbd 7422 d7bd 077d 31be 34eb 0f3e
00000050: 417a ac3c 5b69 053c c44d 063e ad41 0a3e
00000060: 7c4f 3e3e 17b6 bc3c dc17 8a3e 2d88 543d
00000070: 9f37 cbbd 0890 cb3d 3994 183e db6a 5dbe
00000080: 3515 163d d291 cc3d dc2e 36bd 2d1f 173d
00000090: ef4f bebc a3c3 7abe 98b5 503d 087c 943d
000000a0: 7175 363d 0d53 af3c a307 b4bc f2fb 5dbe
000000b0: de9e 32be 71fe 1ebd d7d9 82be 66b6 8abd
000000c0: 95b1 193e 8133 c63b 0d19 93bd f8e0 cf3b
000000d0: 6665 81bd ecb6 aabd f120 8fbc 6a24 413e
000000e0: 4047 83bd 30a5 f73d 3542 043e c784 62ba
000000f0: f62d 8fbc 373e 173d 79e4 663d 42c5 c23d
00000100: 852c 81bd 9872 fe3a 005d b0bc 6b99 153e
00000110: 22cb 653d b6a2 323d 90e9 70bd 20c4 5cbd
00000120: 3826 33be c0c4 8e3d 44e5 2e3d 8360 d73c
00000130: 4557 05be cb5b e73d b503 bc3d ebac f4bd
00000140: 1977 cd3d 3b9a 26be f3dc 813d e814 283e
00000150: 7c02 9abb b24d 2b3e 2385 843d 85be d3bd
00000160: dedb 51be 69bb 073d 676a 0ebd eff6 a63d
00000170: 4986 033e e371 c2bd 3302 33be 5e36 4f3b
00000180: 88ed 683d c210 873d b494 55bd 4a29 823c
00000190: ac18 09be 9082 603e eb5a 873d 4b67 053e
000001a0: 42a4 16bd 0119 6d3e 3819 60bd 4a29 c9bd
000001b0: e450 7cbd 4f96 663e 73e8 0b3e 3ff6 5b3e
000001c0: 9b95 b6bd ad11 ecbd 6223 afbc bb20 f13d
000001d0: 997e 53be 60d2 8e3c 7341 5dbc d785 9abc
000001e0: 5029 5d3e d17c 0abe 318b 03be 8578 2f3e
000001f0: 9b2d fd3d 0ae2 eebd 7017 6fbd 61a8 3abe
00000200: d558 06be d527 163d 7af9 2abe 7b29 78bd
00000210: 554b 423e d51e 7cbe de37 863e ae4e 273e
00000220: 8b63 90bd c417 f8bd 9f6f 153e e1be 96bc
00000230: 5be7 ef3d da39 6cbc 7626 dd3c 4a0a 1a3c
00000240: d6f8 b83c 5bf1 a73d 7008 17be 8ed1 2cbe
00000250: 5d8d 853e 6cfa 483e f601 9f3c 16f2 163e
00000260: 7e20 da3d d90d f1be d6ad 61bd 2157 a3bd
00000270: 63e3 00bc b89b 17bd 4f5e 9dbc dfc2 1a3e
00000280: 170d abbd f1d9 ac3c 7616 1e3d fbec 953e
00000290: 98d5 443c 3e13 d23d 9b5f 4e3e 87f5 063e
000002a0: 0759 60bc fcf6 8f3e 179b 013d 6458 b73d
000002b0: 9a38 92bd b6d4 b23d 2009 e3bd 2aef 4fbd
000002c0: 5b7f 203e 4c58 8bbe 0434 6cbd feb2 4b3d
000002d0: ca39 96be f1f4 8fbe 892c 87bc 7457 093e
000002e0: 4ef1 893d 3bcd 31bd 4168 323e b795 7ebe
000002f0: ec36 4e3d 2b1b 3cbe 5d6b 01be 619d 153d
00000300: 8a09 a73d b612 093e 6dca 0bbe 9817 883e
00000310: 5984 0d3d 2da6 c53d a090 73bd c2f7 ea3d
00000320: c7d0 11be c937 5d3e e0f9 99bc 602e 113d
00000330: 6415 bb3c b899 533d 8dd7 1bbe 2d92 abbb
00000340: 535f 97bd fa38 b5bc a9ee 583b ef0f a73d
00000350: 4045 bebd 9403 dbbd d333 fc3d 6681 87bd
00000360: 40a6 0ebd 788a aebc c281 e5bd 086b 0bbd
00000370: a03a bfbd 847e 5bbc 1d90 06be f316 0b3e
00000380: aabd 0ebd 1e6e c3bd 40d1 1e3e 584f aabc
00000390: c835 69bd 5d0a 4bbd 01dd 23ba 4993 e6bc
000003a0: 63f0 7f3e 053a 843e 42c8 f53d 13a4 15be
000003b0: a080 6d3d 967d 4a3d 3f70 e2bd 85a1 b13c
000003c0: bfbd acbd fa8e 86bd f7c2 63be 4d95 aa3d
000003d0: d217 673d fc01 bb3c a68c 82bc 42c2 50be
000003e0: c690 5a3e 3fe0 043e dce2 c6bd fbe7 08be
000003f0: 14aa 70bd e031 d1bd 5be1 94be eb84 0e3e

weight f4 [312, 39]
0.2573642 0.041085914 -0.047769666 -0.13068852 0.11541577 -0.048508182 -0.028510356 0.07939515
-0.10119307 0.18947631 -0.025443874 -0.17585494 0.050695263 0.18673733 -0.056049764 0.027186567
0.1066102 0.09068928 0.18423605 -0.07873224 -0.0239699 0.21497089 0.034422353 -0.22341509
0.04787045 -0.0060727145 -0.028087532 -0.00039809712 0.1021254 -0.07967414 -0.10979174 0.00796139
-0.1815388 0.0128428275 -0.07615876 -0.006343655 0.07956506 0.111066885 0.28452933 -0.02349913
0.05741779 0.06383501 -0.089903645 0.05002615 -0.023162728 0.12201019 0.040553242 0.0018946724
-0.24568605 -0.15530139 0.18865612 0.012911327 -0.12470836 0.11232016 -0.25295538 -0.0794781
-0.09393345 0.060972366 -0.12505302 -0.035786822 -0.108030334 0.0747125 -0.113019004 0.11310952
-0.04258612 0.21145853 0.006287631 0.11934345 0.13504344 0.09852693 0.24894668 -0.10669929
0.063675806 -0.06927921 0.022569204 -0.017680615 0.1345357 -0.037006818 0.24302317 -0.05954815
-0.009227075 0.13610376 0.2314031 0.07687119 -0.046015847 0.056003813 0.0044628973 -0.110395856
0.07063352 0.13838227 0.15167703 -0.013039986 0.010800892 0.04792024 -0.015604509 -0.104977354
0.07750954 0.16812295 -0.33014038 -0.13060251 -0.03515901 -0.11441574 -0.24631338 0.14022999
0.17943087 -0.053470064 -0.10884082 -0.038349606 -0.011651541 -0.014060112 0.07162261 -0.0047979397
0.011305902 0.15532023 0.11227153 -0.17132016 0.17344058 0.040024146 -0.08513044 0.048803188
0.09849687 -0.115944505 0.0015066103 -0.17638113 0.048371732 0.16468607 0.073230386 0.16291493
-0.02096698 -0.10590903 0.19978848 0.19341545 0.07985357 0.0685174 -0.08889229 -0.1755405
-0.12335562 0.030363377 0.09083378 -0.052154794 0.018936126 -0.062248744 0.24155869 -0.27176076
0.010303384 0.006818406 -0.078915104 0.08960113 0.04794556 0.032040663 -0.017337946 -0.10752771
-0.13029054 -0.120634705 -0.1518041 0.1217461 0.13282806 0.23061994 0.059454508 -0.073077716
0.09375846 -0.09351686 0.23855054 0.1447781 -0.0060897307 0.23253818 -0.09195923 -0.013675709
0.042689685 0.19144045 -0.18576384 0.12040711 0.082148835 0.013602287 0.008603913 0.07807599
-0.024278514 0.2809536 0.013917235 -0.15234067 -0.058962826 -0.07180454 0.00570498 0.084030576
0.021998899 -0.0798614 0.08975588 0.020253535 -0.010088608 -0.03127499 0.1010332 0.23398449
-0.106369786 -0.07813179 -0.040638145 0.25591597 0.03402905 0.066396035 0.08806992 0.14262548
-0.019312227 -0.209009 0.102541246 0.21679027 0.15498877 -0.13144997 0.02207677 0.1552067
0.28031215 0.07976722 0.043361336 -0.05979628 0.12612656 0.1455814 -0.075377695 0.11845941
0.042264983 0.16035254 -0.030955764 0.10213142 0.13613014 0.12126744 -0.08677413 -0.02610001
0.12757695 0.115843736 0.043683015 -0.057287134 -0.021949898 -0.15712403 -0.19452344 -0.044115815
-0.056671225 0.11255469 -0.017914359 0.038047325 -0.15855986 0.27258396 -0.012419109 -0.25331143
0.31614316 0.0029621369 0.16628335 -0.018770628 0.066281505 0.08357269 -0.008095423 0.009945183
-0.14085501 0.11158285 0.037926912 -0.14898396 0.09878361 -0.009543965 0.01810721 -0.02745669
00000000: 3ec5 833e b449 283d 20aa 43bd 36d3 05be
00000010: 1a5f ec3d 84b0 46bd 8d8e e9bc ed99 a23d
00000020: 503e cfbd 1406 423e ac6f d0bc 5113 34be
00000030: d6a5 4f3d 1238 3f3e 7094 65bd 5db6 de3c
00000040: 7356 da3d 4dbb b93d 60a8 3c3e 5e3e a1bd
00000050: 865c c4bc 5421 5c3e 74fe 0c3d edc6 64be
00000060: ce13 443d 9ffd c6bb d317 e6bc b1b7 d0b9
00000070: 1f27 d13d 322c a3bd 7eda e0bd 7d70 023c
00000080: 4fe5 39be b96a 523c 20f9 9bbd 6fde cfbb
00000090: 02f3 a23d 0977 e33d d4ad 913e 3f81 c0bc
000000a0: eb2e 6b3d eebb 823d 671f b8bd 38e8 4c3d
000000b0: c3bf bdbc 7ae0 f93d 281b 263d a856 f83a
000000c0: 2095 7bbe 5407 1fbe 122f 413e 088a 533c
000000d0: 1967 ffbd 1d08 e63d 5e83 81be 6ac5 a2bd
000000e0: 2e60 c0bd 29be 793d e60d 00be 3495 12bd
000000f0: 023f ddbd de02 993d 8276 e7bd f7a5 e73d
00000100: c96e 2ebd 9688 583e 7908 ce3b 576a f43d
00000110: d448 0a3e 7dc8 c93d e1eb 7e3e 2885 dabd
00000120: 7668 823d 42e2 8dbd 0de3 b83c f0d6 90bc
00000130: bac3 093e 7694 17bd 11db 783e c3e8 73bd
00000140: 282d 17bc c95e 0b3e eff4 6c3e a46e 9d3d
00000150: 1d7b 3cbd 4164 653d 7f3d 923b 3917 e2bd
00000160: 4fa8 903d 15b4 0d3e 3951 1b3e aaa5 55bc
00000170: 39f6 303c 0348 443d 0eaa 7fbc 5efe d6bd
00000180: 52bd 9e3d 6c28 2c3e 2908 a9be aabc 05be
00000190: e502 10bd cd52 eabd 9339 7cbe 7398 0f3e
000001a0: babc 373e 6d03 5bbd f0e7 debd 7a14 1dbd
000001b0: 1be6 3ebc 625c 66bc e0ae 923d 0938 9dbb
000001c0: 643c 393c 440c 1f3e 9eee e53d 8d6e 2fbe
000001d0: 689a 313e 5cf0 233d de58 aebd dae5 473d
000001e0: bab8 c93d 5074 edbd 7479 c53a 419d 34be
000001f0: 7021 463d 77a3 283e d0f9 953d 2cd3 263e
00000200: f2c2 abbc d5e6 d8bd 5a95 4c3e b30e 463e
00000210: 458a a33d da52 8c3d 290d b6bd e4c0 33be
00000220: dfa1 fcbd 9ebc f83c 1007 ba3d 44a0 55bd
00000230: ef1f 9b3c 8af8 7ebd 295b 773e 3a24 8bbe
00000240: 86cf 283c ef6c df3b 3e9e a1bd cc80 b73d
00000250: 9062 443d 123d 033d 4f08 8ebc 7d37 dcbd
00000260: e26a 05be 540f f7bd 8972 1bbe 0556 f93d
00000270: 1404 083e a227 6c3e 9286 733d c5a9 95bd
00000280: 6f04 c03d c485 bfbd 9846 743e b640 143e
00000290: 5d8c c7bb 7d1e 6e3e 1f55 bcbd 1510 60bc
000002a0: 61db 2e3d f708 443e e038 3ebe 0198 f63d
000002b0: a63d a83d 20dc 5e3c 6df7 0c3c 4ee6 9f3d
000002c0: bce3 c6bc 26d9 8f3e 1d05 643c 31ff 1bbe
000002d0: 0183 71bd 420e 93bd d7f0 ba3b 3918 ac3d
000002e0: 0937 b43c 608e a3bd eed1 b73d beea a53c
000002f0: b04a 25bc 341a 00bd 7fea ce3d a199 6f3e
00000300: 67d8 d9bd 8f03 a0bd 2f74 26bd 6b07 833e
00000310: 0c62 0b3d a5fa 873d 015e b43d 6a0c 123e
00000320: ad34 9ebc 7506 56be 2501 d23d 45fe 5d3e
00000330: 60b5 1e3e d29a 06be 58da b43c 81ee 1e3e
00000340: 1385 8f3e ff5c a33d a89b 313d f2ec 74bd
00000350: 5227 013e 4a13 153e 9f5f 9abd d99a f23d
00000360: 0c1e 2d3d 7533 243e f196 fdbc 472a d13d
00000370: b365 0b3e 105b f83d a3b6 b1bd b0cf d5bc
00000380: 88a3 023e 7b3f ed3d f6ec 323d eaa5 6abd
00000390: 46d0 b3bc 1fe5 20be 2731 47be c9b2 34bd
000003a0: 1620 68bd 1383 e63d 22c1 92bc 83d7 1b3d
000003b0: 845d 22be 2090 8b3e 8579 4bbc 09b2 81be
000003c0: 84dd a13e 6920 423b 2f46 2a3e dcc4 99bc
000003d0: 99be 873d 2928 ab3d aaa2 04bc 1ff1 223c
000003e0: 4c3c 10be 8d85 e43d 4059 1b3d 408f 18be
000003f0: 104f ca3d 4a5e 1cbc 9255 943c daec e0bc

weight f4 [312, 39]
-0.07793931 0.021728143 -0.25438055 -0.07556449 0.06915239 0.066200115 0.07171588 0.23611557
-0.049231242 0.06560655 0.034513805 0.027307091 0.07975833 0.026515573 0.040215094 0.003144164
0.108854346 -0.055834766 -0.014617256 0.10916515 0.003062055 -0.010008973 0.062395073 -0.03015495
0.0074023153 -0.0062316856 -0.0017779503 -0.047851298 -0.008179037 0.09031511 -0.0061324458 -0.22124697
0.111583084 0.013698924 0.23694322 -0.08712968 0.043135516 0.11901671 0.14453892 0.17124103
-0.04509296 -0.043215264 0.1587283 0.16567981 -0.012445516 -0.12172253 0.07875588 -0.11350799
-0.055225242 0.0505307 -0.03215148 0.102734014 0.07747186 0.12306281 -0.048010994 0.15633717
-0.025442624 0.117342 -0.19217211 -0.076641865 0.08353088 -0.0775969 -0.10163163 0.066638984
-0.06428435 0.09040805 -0.019259183 0.025784856 -0.037019182 0.15962884 -0.10878789 -0.091708526
0.16619493 0.03239763 0.056371354 0.05203625 -0.116331056 0.18485074 -0.032606676 -0.15014958
0.18845196 0.011489106 -0.08204612 0.085966244 -0.1506852 -0.016811455 0.11594838 0.0064227236
0.067150325 -0.034287162 -0.10138878 0.14319967 0.04047795 -0.077934965 0.081565395 -0.042886417
0.093125716 -0.13204761 -0.047130346 0.011139329 -0.07928164 -0.00436151 0.079625905 -0.06476779
-0.028075945 0.038636856 -0.03620671 0.19301337 -0.06268178 -0.0362383 0.09779009 -0.0968838
0.047503535 -0.03310821 0.0006069903 0.07872864 0.0033202395 -0.101161756 0.13590759 0.21385488
-0.15335667 -0.016670275 -0.13683674 0.18029946 -0.10185728 -0.0083140675 -0.06600471 0.20169082
-0.13859278 -0.020550843 0.07568473 -0.015275246 -0.040744226 -0.07678913 0.045748193 0.012328812
-0.15417871 0.17697805 -0.03666464 0.068568565 0.16642052 0.025416836 0.20546553 0.05111817
-0.30339196 0.087862425 -0.124793336 0.024437051 0.06851759 0.1769689 0.048788596 0.027102556
0.09928394 0.05881569 -0.08409306 -0.028501065 -0.037363607 0.05984993 0.08480089 -0.03732572
0.028973464 0.015215644 -0.016001683 -0.0063462905 -0.049804907 0.066464484 0.026913371 0.08792851
0.14053573 0.12760366 0.091734305 -0.03975403 -0.027727906 -0.09693817 -0.054204065 0.07630854
-0.095274836 -0.022167146 0.0077008833 0.023673996 -0.111019745 -0.03240564 0.12529574 0.03024136
0.08597606 0.1921273 0.17747304 0.0005278155 0.020807978 -0.027599655 -0.009929192 -0.19022533
0.10476378 0.11861438 -0.008665771 0.09154119 -0.039771866 0.040661 -0.107976146 0.028499383
0.10975931 -0.089102276 -0.14744756 -0.0910659 -0.043360826 0.049239438 -0.25519678 -0.14677796
0.0032447586 0.3057967 0.096569955 0.005947244 0.06705309 -0.02449156 0.14081049 -0.19887288
-0.10166132 -0.017873777 0.09818409 0.18158014 -0.23706672 0.034265544 0.068789355 0.092997104
-0.015558297 -0.03163413 0.019762076 0.11760036 0.19942676 0.093299456 0.05552138 0.077340126
0.057540298 0.027135523 -0.06704278 -0.042769082 0.1280886 -0.13502276 -0.036221597 0.078668036
0.01603824 -0.07079941 0.06032167 -0.021742685 0.06644263 0.06535982 -0.0029666086 -0.07333984
-0.22502087 0.096314885 0.1259443 -0.13876346 0.026555058 -0.11661983 0.13090965 0.0013291761
00000000: a59e 9fbd 38ff b13c 2b3e 82be 8ec1 9abd
00000010: c59f 8d3d ed93 873d c6df 923d 48c8 713e
00000020: b3a6 49bd ba5c 863d 595e 0d3d 1fb3 df3c
00000030: 5658 a33d 3037 d93c 95b8 243d 520e 4e3b
00000040: 07ef de3d ffb2 64bd 377d 6fbc fa91 df3d
00000050: c2ac 483b adfc 23bc fa91 7f3d 8407 f7bc
00000060: 1f8f f23b 2b33 ccbb 1d0a e9ba b9ff 43bd
00000070: 5e01 06bc 21f7 b83d aff2 c8bb 918e 62be
00000080: ac85 e43d 7471 603c 3ea1 723e 0c71 b2bd
00000090: deae 303d 08bf f33d 0302 143e cf59 2f3e
000000a0: 65b3 38bd 7d02 31bd ac89 223e f8a7 293e
000000b0: 47e8 4bbc a949 f9bd c34a a13d e176 e8bd
000000c0: dd33 62bd 47f9 4e3d 45b1 03bd 3666 d23d
000000d0: 91a9 9e3d 5b08 fc3d 2da7 44bd da16 203e
000000e0: 0d6d d0bc 0151 f03d c4c8 44be 69f6 9cbd
000000f0: 3d12 ab3d 20eb 9ebd 3e24 d0bd 057a 883d
00000100: 83a7 83bd db27 b93d 6fc5 9dbc c33a d33c
00000110: 6da1 17bd be75 233e 2fcc debd aed1 bbbd
00000120: 012f 2a3e 61b3 043d a6e5 663d f623 553d
00000130: fa3e eebd 8349 3d3e 948e 05bd d0c0 19be
00000140: 8df9 403e ce3c 3c3c cc07 a8bd 120f b03d
00000150: 394d 1abe 2db8 89bc 5876 ed3d b675 d23b
00000160: 1c86 893d b270 0cbd eca4 cfbd efa2 123e
00000170: 35cc 253d 5e9c 9fbd c20b a73d aba9 2fbd
00000180: b2b8 be3d 7d37 07be c00b 41bd bb81 363c
00000190: 6a5e a2bd ffea 8ebb e812 a33d faa4 84bd
000001a0: 86ff e5bc ae41 1e3d 7d4d 14bd 4ca5 453e
000001b0: 4e5f 80bd 9d6e 14bd 2c46 c83d 046b c6bd
000001c0: 1193 423d 799c 07bd 6e1e 1f3a 7b3c a13d
000001d0: 6098 593b e52d cfbd 5c2b 0b3e c6fc 5a3e
000001e0: 8809 1dbe 1a90 88bc ee1e 0cbe 6ca0 383e
000001f0: 8d9a d0bd ba37 08bc 7a2d 87bd 0a88 4e3e
00000200: 44eb 0dbe 3e5a a8bc 9900 9b3d 0745 7abc
00000210: 6be3 26bd 9f43 9dbd 7562 3b3d c9fe 493c
00000220: 06e1 1dbe bc39 353e a92d 16bd ad6d 8c3d
00000230: 246a 2a3e f836 d03c 8e65 523e 4961 513d
00000240: 3156 9bbe 37f1 b33d a693 ffbd 3630 c83c
00000250: f352 8c3d 5637 353e 8dd6 473d 2e06 de3c
00000260: 6155 cb3d b9e8 703d fb38 acbd 117b e9bc
00000270: 950a 19bd 3325 753d 17ac ad3d dbe2 18bd
00000280: c259 ed3c 094b 793c f615 83bc 8bf4 cfbb
00000290: 3b00 4cbd 881e 883d 6e79 dc3c dd13 b43d
000002a0: 99e8 0f3e 89aa 023e 32df bb3d 1fd5 22bd
000002b0: a225 e3bc 8587 c6bd 1505 5ebd a747 9c3d
000002c0: 741f c3bd e097 b5bc b157 fc3b f8ef c13c
000002d0: 525e e3bd c7bb 04bd 874d 003e bbbc f73c
000002e0: 3714 b03d 05bd 443e 7ebb 353e 195d 0a3a
000002f0: 7e75 aa3c ac18 e2bc 0dae 22bc 6eca 42be
00000300: 658e d63d 19ec f23d e1fa 0dbc f379 bb3d
00000310: d3e7 22bd 268c 263d 9922 ddbd 8a77 e93c
00000320: 7dc9 e03d 417b b6bd 7efc 16be c280 babd
00000330: 1f9b 31bd 4baf 493d 27a9 82be f64c 16be
00000340: 04a6 543b 6391 9c3e 78c6 c53d 19e1 c23b
00000350: 2153 893d 86a2 c8bc a030 103e 55a5 4bbe
00000360: cf33 d0bd 076c 92bc bd14 c93d 25f0 393e
00000370: 9ec1 72be 075a 0c3d 6fe1 8c3d 4475 be3d
00000380: 3ae8 7ebc ca92 01bd 14e4 a13c 75d8 f03d
00000390: 8736 4c3e c913 bf3d 636a 633d 8064 9e3d
000003a0: 60af 6b3d 514b de3c ba4d 89bd a22e 2fbd
000003b0: a829 033e 6843 0abe 195d 14bd b51c a13d
000003c0: a162 833c 48ff 90bd db13 773d b71d b2bc
000003d0: 1313 883d 5fdb 853d 6f6b 42bb 3333 96bd
000003e0: df6b 66be bd40 c53d 8bf7 003e 0218 0ebe
000003f0: fe89 d93c 61d6 eebd 2e0d 063e c037 ae3a

weight f4 [312, 39]
0.19892153 -0.23872857 0.03901238 0.07159393 -0.103377715 -0.094592825 0.13452683 0.040427696
0.13994905 0.07488034 -0.08394596 0.2412152 -0.17852908 0.24934596 -0.08238888 0.14929856
0.19441634 0.18929267 0.13776042 -0.023670135 -0.17489271 0.09703368 -0.20403518 0.13191476
-0.07961434 -0.21124606 0.02531353 0.06591167 0.0071375 0.11309181 0.051032733 0.07761093
0.011463489 0.20428286 -0.28156263 -0.26215488 0.17914394 -0.26469797 0.0144659495 -0.0499033
0.08890775 -0.10534766 -0.07136353 0.29672492 0.19606744 -0.02826916 -0.19281605 0.044760108
-0.00020966864 0.14129747 0.071207836 0.04429105 -0.40736064 -0.15161477 -0.26436415 0.12698272
0.01655177 0.030660791 -0.032678317 0.13676311 -0.35498124 0.025982711 0.037643507 0.12465541
0.038394976 -0.19378956 -0.18226863 -0.4240505 -0.22147653 -0.18342292 -0.1650044 0.18241727
-0.18273507 0.26644602 -0.13542655 -0.0016748426 -0.19049267 -0.15026431 -0.1607055 -0.23241016
0.17233099 -0.0940765 0.19619706 -0.28737116 -0.10367331 -0.08930759 -0.17138422 -0.023464635
-0.05902736 -0.18149489 0.12288844 -0.12841608 0.111722395 -0.28438774 -0.103956476 -0.24493282
0.018805088 0.08647129 -0.08237253 0.048470773 0.07407316 0.014728935 -0.021326292 -0.29327652
-0.22172801 -0.22370648 -0.117231786 -0.15586592 -0.0607109 0.15487534 0.10854964 -0.23318255
-0.09078037 -0.23060252 -0.04920818 -0.20012921 -0.040461015 0.121507764 -0.006093924 -0.10496134
-0.005321599 0.10351558 -0.01451113 -0.01040796 0.019641 0.17294723 -0.21971488 -0.057503123
-0.06267321 -0.13108902 0.21613419 0.014818294 0.25028357 -0.19738328 -0.11870216 -0.016366446
-0.0021109013 -0.1553411 0.0659711 0.15027407 -0.10055942 0.06600583 -0.25629252 -0.1549887
-0.00021085097 0.18365076 0.20906532 0.028487857 -0.07320957 -0.06041698 0.1809942 -0.30015242
-0.27576324 0.039679732 0.011063547 -0.13224272 -0.019054547 -0.03005617 0.06650209 0.1499254
0.13088538 0.30864596 -0.18173505 0.17314833 -0.19880407 -0.12299412 0.18745084 -0.09344308
-0.124605514 0.10172279 -0.04002212 0.076844536 0.1432379 0.02105793 -0.003871417 0.2710262
0.043124277 0.21717878 0.09711487 0.1856637 -0.05474302 0.06654219 0.050539684 0.19185933
0.12337542 -0.09253072 0.06600351 -0.027427882 0.012832195 0.10642178 0.09447279 0.19350988
0.08260829 0.18115886 0.045816425 0.08810239 -0.30084988 0.20032732 0.10947919 0.1626963
-0.37108868 0.16561793 -0.24332194 0.102917925 0.17124744 -0.087761365 -0.32499126 -0.07092415
0.042516254 0.087298006 0.035622716 -0.10367579 -0.11606333 0.09745584 -0.021953035 -0.37256545
0.06794364 -0.10954731 -0.17523034 -0.025773963 -0.1309763 0.16853912 -0.090193965 -0.14887697
-0.019182865 0.053974655 0.13480508 -0.057613857 -0.05612421 -0.20929876 -0.1199247 -0.03015242
-0.14417359 0.18305346 -0.11138949 0.007948343 -0.07249841 -0.09847324 0.19233632 -0.33091184
-0.07382844 -0.16210167 0.07254345 -0.059914112 -0.25843894 -0.28119466 -0.23925129 0.13822149
0.024528995 0.0981904 0.061833877 -0.03968348 0.11064469 -0.059092503 -0.14528263 0.3117735
00000000: 16b2 4b3e 4375 74be 72cb 1f3d d79f 923d
00000010: b2b7 d3bd e2b9 c1bd 67c1 093e 8397 253d
00000020: ce4e 0f3e dd5a 993d dceb abbd 1e01 773e
00000030: 54d0 36be 8c54 7f3e 80bb a8bd b9e1 183e
00000040: 1415 473e f0d5 413e 1111 0d3e dfe7 c1bc
00000050: 1317 33be 98b9 c63d 99ee 50be aa14 073e
00000060: d80c a3bd e350 58be 525e cf3c b3fc 863d
00000070: b1e1 e93b ae9c e73d b307 513d 7bf2 9e3d
00000080: 5cd1 3b3c 872f 513e fa28 90be 2a39 86be
00000090: 8271 373e 7e86 87be 9702 6d3c 6767 4cbd
000000a0: 4415 b63d 84c0 d7bd 0b27 92bd 54ec 973e
000000b0: e7c5 483e ba94 e7bc 9271 45be 6056 373d
000000c0: 7fda 5bb9 49b0 103e 6ad5 913d 886a 353d
000000d0: 9391 d0be e740 1bbe bd5a 87be c207 023e
000000e0: 9497 873c 572c fb3c b3d9 05bd a10b 0c3e
000000f0: 1ac0 b5be b2d9 d43c 1430 1a3d 564b ff3d
00000100: 0d44 1d3d c570 46be a1a4 3abe 261d d9be
00000110: beca 62be 38d3 3bbe eaf6 28be 98cb 3a3e
00000120: e71e 3bbe 9d6b 883e 42ad 0abe 6486 dbba
00000130: 8310 43be e3de 19be fc8f 24be eefc 6dbe
00000140: 8977 303e 2eab c0bd e2e7 483e 5022 93be
00000150: ac52 d4bd e6e6 b6bd 587f 2fbe e838 c0bc
00000160: acc6 71bd ccd9 39be efac fb3d 817f 03be
00000170: b6ce e43d 459b 91be 22e7 d4bd abcf 7abe
00000180: 210d 9a3c dc17 b13d eeb2 a8bd 4a89 463d
00000190: abb3 973d a251 713c 7ab4 aebc 5728 96be
000001a0: ab0c 63be 5013 65be 3817 f0bd 519b 1fbe
000001b0: feab 78bd a497 1e3e 464f de3d 68c7 6ebe
000001c0: 0feb b9bd 1123 6cbe 848e 49bd acee 4cbe
000001d0: 73ba 25bd 10d9 f83d 8aaf c7bb f9f5 d6bd
000001e0: cf60 aebb faff d33d 17c0 6dbc 2686 2abc
000001f0: 2ae6 a03c 1419 313e f0fc 60be 6588 6bbd
00000200: d05a 80bd 333c 06be 4852 5d3e 6ec8 723c
00000210: 2b25 803e d81e 4abe 1e1a f3bd ed12 86bc
00000220: 0c57 0abb bd11 1fbe db1b 873d 72e1 193e
00000230: 19f2 cdbd 112e 873d c638 83be 5cb5 1ebe
00000240: e017 5db9 f20e 3c3e 3815 563e 5e5f e93c
00000250: e6ee 95bd cc77 77bd 8b56 393e 94ad 99be
00000260: d730 8dbe 3787 223d e143 353c a36a 07be
00000270: 4818 9cbc 5b38 f6bc 3f32 883d 0b86 193e
00000280: d106 063e d806 9e3e c118 3abe cc4d 313e
00000290: 4b93 4bbe 57e4 fbbd 1df3 3f3e 165f bfbd
000002a0: 2d31 ffbd 0a54 d03d 3cee 23bd ab60 9d3d
000002b0: f5ac 123e ae81 ac3c 99b7 7dbb f2c3 8a3e
000002c0: 15a3 303d 1d64 5e3e 29e4 c63d a01e 3e3e
000002d0: 383a 60bd 4647 883d b302 4f3d c676 443e
000002e0: 41ac fc3d bf80 bdbd d92c 873d 70b0 e0bc
000002f0: 203e 523c aaf3 d93d f37a c13d 7427 463e
00000300: 892e a93d b581 393e 01aa 3b3d 076f b43d
00000310: ff08 9abe 9b22 4d3e a036 e03d dc99 263e
00000320: 56ff bdbe bf97 293e 6329 79be a2c6 d23d
00000330: 7d5b 2f3e 3bbc b3bd 4165 a6be ae40 91bd
00000340: 8625 2e3d 4cc9 b23d 20e9 113d f953 d4bd
00000350: 9cb2 edbd ed96 c73d dad6 b3bc e6c0 bebe
00000360: 0926 8b3d 575a e0bd 956f 33be eb23 d3bc
00000370: a71e 06be 8595 2c3e 9db7 b8bd 3473 18be
00000380: 6225 9dbc 8714 5d3d 580a 0a3e 82fc 6bbd
00000390: 80e2 65bd 6a52 56be 159b f5bd 3502 f7bc
000003a0: 3ea2 13be 5e72 3b3e 2c20 e4bd c439 023c
000003b0: 0c7a 94bd 57ac c9bd d0f3 443e 476d a9be
000003c0: 5d33 97bd fbfd 25be a991 943d 8068 75bd
000003d0: 1c52 84be bff8 8fbe 4afe 74be ef89 0d3e
000003e0: 08f1 c83c 0c18 c93d 8545 7d3d 258b 22bd
000003f0: af99 e23d fb0a 72bd f8c4 14be c7a0 9f3e

base_weight f4 [5, 78]
0.19889425 -0.117638394 -0.041430645 0.064293854 -0.070080265 0.069086365 0.07707994 -0.118736826
0.014792145 -0.14282739 -0.16211843 0.03085208 0.03703752 -0.106107175 0.029859094 0.21263996
0.028541975 0.096208446 -0.0018230384 -0.12852277 -0.09531533 -0.05881157 0.122243226 -0.104567505
-0.1291477 0.013557792 0.012919636 0.17918883 0.13246873 0.14866291 0.12352227 -0.16791914
0.086477965 -0.035149366 0.22700019 0.022046126 0.14247976 -0.0053297407 0.060683627 0.17259243
-0.061781622 -0.08521306 0.0666361 0.047579423 -0.06922652 -0.09069851 -0.07746257 0.13347207
-0.08616709 0.012955124 -0.06703374 -0.081384085 0.112955704 0.054800138 0.2012468 0.004328576
0.11015083 -0.029559521 0.0243236 -0.1602694 -0.012878504 0.19219288 -0.1114381 -0.109326884
0.017489048 0.056823075 0.19869119 0.15052338 0.044675354 0.12465328 -0.12796165 0.046352815
-0.018201364 0.0806395 -0.030367464 0.20375368 -0.13219406 -0.11925285 0.087193795 0.010580431
0.22445278 0.19082473 -0.16257504 0.09516666 0.27217624 -0.2557139 0.27276698 0.06261115
0.05575535 -0.15445659 0.0899846 0.21895866 0.110067815 0.28796667 -0.12727804 -0.24310379
0.15697373 0.05578124 0.08944578 0.1454823 -0.14353506 0.09254627 0.1619511 -0.061119456
-0.06920354 0.06989388 -0.23542279 -0.07609183 0.21672305 -0.18548995 0.08504911 0.001348321
-0.047346372 -0.1092098 0.10303093 -0.1858474 -0.24559392 0.16065049 -0.08060186 0.23043384
0.06727078 -0.21943755 0.1270657 0.3030903 -0.18245952 0.11052082 0.16762106 0.23361382
-0.18736592 0.16625392 0.26394582 0.16408856 0.27518487 -0.15371612 -0.23837289 0.13709049
0.051934425 0.12259167 0.0457195 -0.25233322 0.08972391 0.025426246 -0.13993713 -0.010425801
-0.040784765 -0.15460132 -0.08528387 0.15653412 -0.06870299 0.20487136 -0.11541281 -0.2011792
-0.11684807 0.17524931 -0.23976064 -0.15603863 -0.0062929187 0.12596019 0.016473219 -0.048906416
-0.093903124 -0.07290696 -0.23307012 0.15956035 -0.17609784 0.12071616 0.117527604 -0.06475319
0.08748249 -0.1540836 0.059102487 -0.15758151 -0.16700268 0.0442515 0.116790056 -0.08941182
0.0938608 0.005620068 0.19032533 0.18935634 -0.043626476 0.12305438 -0.07642767 -0.0061464747
-0.01950312 -0.034516394 -0.10781458 0.042466275 0.093664944 -0.055606935 -0.13789013 -0.10999934
-0.032429226 0.20997876 -0.07935518 -0.059459403 0.15677565 0.16491632 0.035385694 -0.015536526
-0.08454834 -0.2601068 0.0516477 -0.1543273 0.12555337 0.05519595 -0.13848028 0.14325467
0.0067775566 0.09200452 -0.31011125 0.0035488042 -0.08630508 0.11613633 -0.09594343 0.12975766
0.043879934 0.17289793 0.21343398 0.04816054 0.040471736 -0.09201907 0.09526512 -0.13556658
0.140209 -0.14676741 -0.04217048 -0.073808976 -0.1445161 -0.19880536 -0.051962994 -0.14557314
0.106261045 -0.116269656 -0.22272977 0.06417912 -0.07056889 -0.09971898 -0.11347299 -0.1364836
-0.19732438 0.113107055 0.15071528 0.025702052 -0.17109042 -0.027770175 -0.021353874 -0.08893858
-0.105777025 -0.2096098 -0.008560283 0.17166305 -0.11283494 0.09966076 -0.035781365 0.106648944
00000000: efaa 4b3e 66ec f0bd 2eb3 29bd 7fac 833d
00000010: 3e86 8fbd 277d 8d3d 16dc 9d3d 4b2c f3bd
00000020: c15a 723c 5841 12be 6002 26be 80bd fc3c
00000030: a8b4 173d b84e d9bd 0f9b f43c 4abe 593e
00000040: dcd0 e93c ef08 c53d 05f3 eeba 799b 03be
00000050: af34 c3bd 67e4 70bd a85a fa3d 7d27 d6bd
00000060: 4b3f 04be 8021 5e3c e2ac 533c 477d 373e
00000070: e2a5 073e 173b 183e 3ef9 fc3d fff2 2bbe
00000080: 5c1b b13d c8f8 0fbd bd72 683e 149a b43c
00000090: 37e6 113e 1ba5 aebb 658f 783d 12bc 303e
000000a0: ba0e 7dbd 2f84 aebd 8278 883d a4e2 423d
000000b0: a2c6 8dbd 24c0 b9bd b2a4 9ebd e7ac 083e
000000c0: 5f78 b0bd ba41 543c fc48 89bd b3ac a6bd
000000d0: 5255 e73d 1c76 603d a413 4e3e bad6 8d3b
000000e0: c296 e13d cf26 f2bc 4942 c73c a91d 24be
000000f0: 5c00 53bc 36ce 443e a939 e4bd c6e6 dfbd
00000100: 3145 8f3c 50bf 683d b475 4b3e cd22 1a3e
00000110: 81fd 363d 384a ff3d 6108 03be 73dc 3d3d
00000120: 071b 95bc 5226 a53d 30c5 f8bc cea4 503e
00000130: e15d 07be d73a f4bd a992 b23d 8b59 2d3c
00000140: f3d6 653e 8f67 433e 127a 26be bde6 c23d
00000150: af5a 8b3e efec 82be 1da8 8b3e 463a 803d
00000160: b95f 643d de29 1ebe d949 b83d b336 603e
00000170: 3c6b e13d 5e70 933e 2d55 02be 33f0 78be
00000180: b9bd 203e df7a 643d 592f b73d 50f9 143e
00000190: dbfa 12be e688 bd3d 82d6 253e 6558 7abd
000001a0: 96ba 8dbd 8624 8f3d ac12 71be 09d6 9bbd
000001b0: a6ec 5d3e 14f1 3dbe 3a2e ae3d 25ba b03a
000001c0: 45ee 41bd 63a9 dfbd e101 d33d c84e 3ebe
000001d0: f97c 7bbe 9081 243e 9712 a5bd d9f6 6b3e
000001e0: 43c5 893d 3db4 60be 831d 023e a72e 9b3e
000001f0: abd6 3abe bd58 e23d dba4 2b3e 7638 6f3e
00000200: dadc 3fbe 783e 2a3e e823 873e d506 283e
00000210: 08e5 8c3e c267 1dbe 0618 74be 7361 0c3e
00000220: 31b9 543d 5711 fb3d 5f44 3b3d d231 81be
00000230: 2bc1 b73d b44a d03c ae4b 0fbe fbd0 2abc
00000240: ed0d 27bd cf4f 1ebe 4fa9 aebd 7b4a 203e
00000250: 27b4 8cbd ccc9 513e 8d5d ecbd ec01 4ebe
00000260: 0a4e efbd 8e74 333e d083 75be 97c8 1fbe
00000270: d434 cebb b5fb 003e d8f2 863c 1852 48bd
00000280: 4850 c0bd 3f50 95bd efa9 6ebe ca63 233e
00000290: fe52 34be 093a f73d 50b2 f03d 529d 84bd
000002a0: 052a b33d 17c8 1dbe 7315 723d 0c5d 21be
000002b0: c002 2bbe 1041 353d a02f ef3d 8b1d b7bd
000002c0: 173a c03d 8c28 b83b a5e4 423e a1e6 413e
000002d0: adb1 32bd ef03 fc3d 1c86 9cbd 5e68 c9bb
000002e0: 02c5 9fbc 1061 0dbd e4cd dcbd 1ef1 2d3d
000002f0: 68d3 bf3d 19c4 63bd 1233 0dbe 5547 e1bd
00000300: 82d4 04bd ac04 573e f884 a2bd b48b 73bd
00000310: cc89 203e d3df 283e 97f0 103d ea8c 7ebc
00000320: ae27 adbd b82c 85be 8a8c 533d fa07 1ebe
00000330: 1091 003e 2615 623d c6cd 0dbe 5ab1 123e
00000340: 4416 de3b de6c bc3d e7c6 9ebe 0e93 683b
00000350: b8c0 b0bd e2d8 ed3d fd7d c4bd 31df 043e
00000360: 72bb 333d 280c 313e 708e 5a3e fd43 453d
00000370: b1c5 253d 7f74 bcbd 5c1a c33d f7d1 0abe
00000380: f392 0f3e 324a 16be f4ba 2cbd 2929 97bd
00000390: 07fc 13be a293 4bbe 26d7 54bd 2011 15be
000003a0: 649f d93d c91e eebd 4613 64be 5870 833d
000003b0: 6c86 90bd 7739 ccbd 8764 e8bd 5bc2 0bbe
000003c0: 670f 4abe aca4 e73d 1b55 1a3e 1c8d d23c
000003d0: 5432 2fbe 477e e3bc 52ee aebc 6e25 b6bd
000003e0: a0a1 d8bd f4a3 56be 6e40 0cbc 70c8 2f3e
000003f0: 0116 e7bd f11a cc3d 7b8f 12bd c36a da3d
