E-GraphSAGE/netflow/bot-iot/EdgeGATKAN_multiclass_best_model.pth (torch, 292630 bytes, 10 tensors)

weight f4 [128, 16]
000000 35 ef 3e be 9b 22 f2 3d 85 3a 07 be 1b 7c 35 3e
       -0.18645938 0.11823007 -0.13205917 0.17723124
000010 bf 00 45 3e 67 f9 5b be 8b 25 bd 3d e1 ef fb bd
       0.19238566 -0.21481858 0.092356764 -0.12301613
000020 d0 f0 22 3e fe 02 62 be 8a ad 20 be 4c 23 21 be
       0.15912175 -0.22071454 -0.156912 -0.15736121
000030 f9 24 d5 3c d4 83 0a 3e 18 01 74 bc 0c 78 89 bd
       0.026018606 0.13526851 -0.014892839 -0.0671235
000040 d4 58 69 bd 9c f9 2d 3d ea 1a e5 bd e1 4a 4b 3e
       -0.05696948 0.042474374 -0.11186774 0.19852783
000050 96 fc c3 3d 5b a2 10 3e 25 d7 7c 3e 22 ac d9 bd
       0.09569661 0.14124434 0.24691446 -0.10628535
000060 a5 87 00 be 27 da d3 3d 8a 97 3c be 1b ca f0 3d
       -0.12551744 0.10344344 -0.18417183 0.117572986
000070 b0 3e ad 3d 83 5c ea 3d a4 0d f6 3d 2e cd 57 be
       0.08459222 0.114434265 0.120143205 -0.21074364
000080 61 e2 7b 3d fb a8 6b be 57 75 7a be 21 7f ff 3d
       0.06149519 -0.2301368 -0.24458824 0.1247542
000090 de 49 e0 bc 4b 4f 51 be 08 77 bb 3d 31 c0 74 3d
       -0.027378973 -0.20440404 0.09153563 0.0597536
0000a0 4f 5a 2b 3e 73 6b 70 be 29 b2 f6 3d ee d4 70 3d
       0.16733669 -0.23478489 0.120457 0.058796816
0000b0 b0 af 5f be 6b d5 e6 bd 64 02 82 bb 45 35 90 3c
       -0.21844363 -0.11271175 -0.00396757 0.017603526
0000c0 82 46 77 bd f1 54 f2 bd db ac 72 3e 97 3e 62 3e
       -0.060369976 -0.118326075 0.23698752 0.22094189
0000d0 ff e3 28 3e da ef 75 bd ff 5a 62 3e e5 f8 03 3e
       0.16493224 -0.060043193 0.22105025 0.12887914
0000e0 5a c8 52 3e 00 94 7c 3e cf 79 b5 bd 15 79 1f 3e
       0.2058424 0.24665833 -0.08861124 0.15573533
0000f0 4a 33 a2 3d 7e d7 29 3e 90 11 25 3c 0b 1d 12 3e
       0.07919939 0.1658611 0.010074988 0.14268892
000100 e4 02 4c 3e 0f 6c 33 3d b6 8b 5e be 46 c6 9e bb
       0.19922978 0.043804225 -0.21732983 -0.0048454134
000110 82 e5 4b 3e 43 cb cd 3d 9a 84 04 be fb f0 94 3d
       0.19911769 0.10048535 -0.12941208 0.07272526
000120 f5 d9 68 be 81 44 b2 bd da c2 25 be fc 84 c3 bd
       -0.22739394 -0.08704472 -0.16187611 -0.09546849
000130 ec 3f 62 3d 86 83 f4 bd 83 1d b9 3d 3c ca 4f 3e
       0.055236742 -0.119391486 0.09038832 0.2029199
000140 c0 b9 04 bd c2 72 1d 3e 21 3d 04 bc 3f da 16 3c
       -0.032403708 0.15375808 -0.008071215 0.009207307
000150 50 86 27 3d c8 9d 28 3e a0 44 6f bd 68 f3 17 3d
       0.040899575 0.16466439 -0.058415055 0.037097365
000160 b5 56 3a 3e b8 8b c7 3d 3a ca 8f bd 14 4a a3 bb
       0.18197139 0.09743446 -0.070209935 -0.004983196
000170 d5 3d 1a be 47 31 de 3d cf 8c 73 be 8b 53 7e bd
       -0.1506265 0.10849243 -0.23784183 -0.06209139
000180 f6 54 55 3e 9c 07 b8 3d 90 53 8c 3c 20 83 5b bd
       0.20833191 0.089858264 0.01712969 -0.053591847
000190 22 2a 01 be 58 7e 6f be 84 35 3f 3e 50 c3 0c 3d
       -0.12613729 -0.2338804 0.18672758 0.034365952
0001a0 7b 34 2e be e9 11 a7 3d 24 c1 10 be d0 33 06 3d
       -0.17012207 0.08157713 -0.14136177 0.032764256
0001b0 b7 86 7d 3e 68 72 89 bc ec 52 06 3e 89 13 1b be
       0.24758421 -0.016778186 0.1311757 -0.15144171
0001c0 06 58 22 bc 79 26 41 bd f0 7d 71 be 44 cf 4e be
       -0.009908682 -0.04715583 -0.23583198 -0.20196253
0001d0 a1 26 9f bd a6 05 32 be 3a a0 52 be 22 1e 55 be
       -0.0777104 -0.17384967 -0.20568934 -0.20812276
0001e0 e1 86 ec 3d d6 4a 39 bd fb 49 21 be 8d 9b 36 3e
       0.115491636 -0.045237385 -0.15750878 0.17832775
0001f0 b6 17 95 3d 57 39 d8 3d 59 70 84 bc a9 70 bf bd
       0.07279913 0.10557812 -0.016166853 -0.0934766
000200 41 d3 61 3e 1b 24 1b be 16 a2 87 3d 37 ea 28 3e
       0.22053243 -0.15150492 0.06622712 0.16495596
000210 93 75 3a be 19 6a 19 3e 6e bd f4 3d b1 4d 19 3e
       -0.18208914 0.1498188 0.11950193 0.14971043
000220 92 c2 b0 3c 9a fa db 3d 1a 44 70 be 38 00 50 3e
       0.021577153 0.10741158 -0.23463479 0.20312583
000230 18 25 18 3c 16 fc 14 bd 91 0b 03 3e 87 9b 6a be
       0.009286188 -0.03637322 0.12797381 -0.22910891
000240 05 3a 12 be 14 52 8f 3c ad dc ca 3d b7 86 ce bd
       -0.14279945 0.017495193 0.09905372 -0.100842886
000250 fd b2 3b be ef 9c 07 be 25 d6 1f be ac 2f d2 bc
       -0.18329997 -0.13243459 -0.15609033 -0.025657497
000260 90 e4 02 be 9d 79 57 3e 45 c3 38 3e e5 e1 ea 3d
       -0.12782502 0.21042486 0.1804324 0.11468867
000270 25 80 15 be 6b 18 e4 bd c5 43 7a 3e 62 05 89 bd
       -0.14599665 -0.1113747 0.24439915 -0.0669048
000280 f0 55 a2 3d d9 18 7c 3d da a4 39 3e 09 42 6d 3b
       0.079265475 0.061547134 0.18129292 0.003620269
000290 31 bd 2c 3d f2 75 27 3e 11 73 83 3c a4 9a cf bd
       0.042172614 0.16353586 0.016046079 -0.10136917
0002a0 d0 8b 5c bd f7 83 6a 3e 57 95 89 3d 3c d6 17 be
       -0.053844273 0.22901903 0.067179374 -0.14827818
0002b0 f0 b2 63 3e 2b ae 6c 3e 88 b7 d7 bc 9b b4 68 be
       0.22236228 0.23113315 -0.026332632 -0.22725146
0002c0 11 b6 3c 3e dd c5 2b 3e f1 6d 26 3c 7c 2f 08 bd
       0.18428828 0.16774698 0.010158048 -0.03324841
0002d0 af e8 37 3e 3c 08 78 3d 93 09 08 be 5c 8f 56 bd
       0.17959855 0.060554728 -0.13284902 -0.052382812
0002e0 39 9f 2d be 16 88 36 be 9e d7 a4 3d c4 4f c3 3d
       -0.1695527 -0.1782535 0.08048938 0.095366985
0002f0 7d 00 e4 bc fb b6 1e be cb e7 6d 3e c3 ea 8c bb
       -0.027832264 -0.15499489 0.23232953 -0.0043004467
000300 97 36 4d bd ff 8f fb bd df 98 dd bd b9 5b f0 3d
       -0.05010089 -0.122833245 -0.108201735 0.11736245
000310 18 21 59 3e 46 12 1f be 8e be cf bc d5 cb 94 3d
       0.2120403 -0.15534315 -0.025359418 0.072654404
000320 ea d3 c3 bb 02 86 8b bd d5 cc 35 3e e5 59 1a 3e
       -0.00597619 -0.06812669 0.17753918 0.15073355
000330 96 7d 04 be 8a db 3b be 55 63 0e 3d b3 bc 47 be
       -0.12938532 -0.18345466 0.0347627 -0.19505577
000340 9d a2 76 be 11 fb 2d 3e ed a3 32 3e b3 b3 4a 3e
       -0.2408547 0.16990305 0.17445345 0.19795112
000350 11 11 2f be dd 1b b3 3d 0b ef 53 be 5b 75 71 3e
       -0.17096354 0.08745549 -0.20696656 0.23579924
000360 a9 03 10 3c 18 d7 da bc e8 cd ce bd 35 ff 51 bc
       0.008789935 -0.026713893 -0.10097867 -0.012817194
000370 7f 2c 21 be a1 ba a9 bd 60 57 cc bc 88 66 3a be
       -0.1573963 -0.0828755 -0.024944007 -0.18203175
000380 90 6c d8 3d 0e 2e a7 bc 67 0c 72 bd 70 6d 0b be
       0.10567582 -0.020407703 -0.05909386 -0.13615966
000390 18 9f 7b 3e a8 28 04 3e 9c b6 31 bc 2e 8f 14 3e
       0.24572408 0.12906134 -0.01084676 0.14507744
0003a0 c9 aa 8f 3b 86 10 6a 3e a6 54 6d bc 31 9c 7e be
       0.004384373 0.22857866 -0.014485514 -0.2486427
0003b0 db 00 60 be 97 7e d6 bd 23 62 61 bd 55 c5 13 3e
       -0.21875326 -0.10473364 -0.05502523 0.14430745
0003c0 30 ba c7 bd 27 89 35 3d 60 09 9c 3d 5c af 80 3d
       -0.09752309 0.04432025 0.07618976 0.06283447
0003d0 ef b6 52 3e c8 9f d1 3d 27 fb 70 be dd 87 60 3e
       0.20577596 0.10235554 -0.23533307 0.21926828
0003e0 d8 52 60 be d9 ec 6f 3c 9c 43 dd 3d 27 e3 d6 bd
       -0.21906602 0.014643871 0.10803911 -0.104925446
0003f0 c0 b0 95 bd a0 6d 25 be b9 e8 8d bd 49 eb 91 bd
       -0.07309103 -0.161551 -0.06929154 -0.07124955

bias f4 [128]
000000 5b b9 a0 3d c0 c8 71 be f7 06 3d be 15 fa 90 bd
       0.07847854 -0.23611736 -0.18459688 -0.07078949
000010 53 24 85 3d b0 b8 a6 bc 28 08 e1 3d ed 5f 62 3e
       0.06501069 -0.020351738 0.10987884 0.22106905
000020 2a bf f9 bd 51 79 1a be 16 88 25 be bc eb 22 bd
       -0.12194665 -0.15085341 -0.16165194 -0.039775595
000030 51 d5 97 3d 73 66 0d 3e c4 0a 2e 3e c5 42 27 be
       0.07413734 0.13808613 0.16996294 -0.16334064
000040 7f 7f 17 3e 1c 68 29 3e a7 9a 48 3e db b5 0f be
       0.1479473 0.16543621 0.19590245 -0.14034216
000050 22 3d 02 3e d6 62 6f be e2 68 c1 bd 84 c3 5f 3d
       0.12718633 -0.23377547 -0.09443833 0.054629818
000060 fd 36 12 bd 8d e6 49 3d 8b 1d 54 3d 6b 13 76 be
       -0.035696972 0.049292136 0.051785987 -0.24030845
000070 d6 83 6e be c0 66 78 be b4 9b 37 3d 66 72 01 be
       -0.23292479 -0.24257946 0.044826224 -0.12641296
000080 10 47 5b bd d6 c3 fc bd c4 37 1a 3e 49 ae 16 be
       -0.053534567 -0.1234204 0.15060335 -0.14714922
000090 3c 68 f0 bd f0 ba 05 be 42 c8 2a be b1 cd 6e bd
       -0.11738631 -0.13059592 -0.16677955 -0.05830163
0000a0 c4 b5 f8 bd 00 bf 68 3e c8 bc 52 3d 1b 79 80 be
       -0.12144044 0.2272911 0.051449567 -0.25092396
0000b0 69 8f 0c bd fb 7d 5b 3e 8a 8c 38 3d e9 af c6 bd
       -0.034316454 0.21434776 0.045055903 -0.09701521
0000c0 64 52 2d 3e de b8 c1 3d 44 e9 80 be 77 64 1d 3d
       0.16925961 0.09459089 -0.25177968 0.03842589
0000d0 ea ea 6f be 1a 57 e6 bc 24 56 20 3e 73 44 42 be
       -0.23429456 -0.028117705 0.1565786 -0.18971424
0000e0 cd a1 69 3e 6b a5 09 3e ce 82 9e bd 1a 9f 37 3e
       0.22815628 0.13442008 -0.07739793 0.17931786
0000f0 9b f3 2a be 85 ea 95 3d b8 68 5d 3e 7c d5 a2 bd
       -0.1669449 0.07320122 0.21621978 -0.07950875
000100 0c a7 9d bd 29 52 e9 3d ef a8 28 3e 9b 57 b5 3c
       -0.07697877 0.11392624 0.16470693 0.0221365
000110 03 62 a2 bd ef 35 13 be d4 42 df bd 72 03 43 3b
       -0.079288505 -0.14376043 -0.10901418 0.0029756692
000120 eb a5 3d 3e b3 ce a6 3d 8c 68 d0 bd 06 ee 32 3c
       0.18520324 0.081448935 -0.10176191 0.010921007
000130 51 79 f0 3d 9f 44 8d bd b5 e7 4e 3e d1 ad 73 3e
       0.11741889 -0.06897854 0.20205577 0.23796774
000140 37 94 26 be fc de 67 3e 87 77 5c be 5d 5a fd 3d
       -0.16267477 0.22643656 -0.21529971 0.12370751
000150 4b 32 41 3d 30 b2 15 be a7 ca 83 bc d7 48 49 be
       0.047167104 -0.14618754 -0.016087843 -0.19656692
000160 f7 33 37 3e 85 41 37 3e 77 d7 f1 3d a5 79 92 bd
       0.17890917 0.17896087 0.11808675 -0.07152108
000170 22 1c 0d be 92 60 44 3e a8 dc 0f be 94 0a 20 be
       -0.13780263 0.19177464 -0.14049017 -0.15629035
000180 99 91 03 be d2 c1 11 3e cf 8a 13 be e5 68 cd bd
       -0.1284851 0.14234093 -0.1440842 -0.10029773
000190 8d 4b 72 be 89 fe 10 be c0 92 2f 3e a5 c9 21 be
       -0.23661633 -0.14159597 0.17145824 -0.15799578
0001a0 7b e2 10 be ab 6d ce 3d 19 af 48 3e f1 8b b4 3d
       -0.14148895 0.10079511 0.19598044 0.08815754
0001b0 a1 d1 0a 3e fa ed 06 3e d3 46 53 3d af 3e ac 3d
       0.1355653 0.13176718 0.051581215 0.084103934
0001c0 d2 82 9b bc 60 d0 45 3e 73 69 1f be 7d db bf bd
       -0.018983278 0.1931777 -0.1556757 -0.09368036
0001d0 88 2b e9 bd cc da 3d be bd b6 a2 bd 41 36 4e bd
       -0.11385256 -0.18540496 -0.07945011 -0.05034471
0001e0 c1 d3 21 be ed c4 7b 3e b6 7e 2c bd 9c 17 76 be
       -0.15803434 0.2458684 -0.04211303 -0.24032444
0001f0 38 88 78 be 00 18 65 3e 83 23 93 bc 15 b8 f6 3d
       -0.24270713 0.22372437 -0.01796127 0.120468296

weight f4 [128, 136]
000000 49 27 a6 3d a1 75 0b bd 93 e0 d1 bc 16 bd 94 3d
       0.08112962 -0.034047727 -0.02561978 0.07262628
000010 4e 67 41 3c 4f af bc 3c b2 be 92 bd da c4 1d 3d
       0.011804415 0.023032812 -0.071652785 0.03851781
000020 80 11 6b bc 11 51 9d 3d 47 3c af 3d cc 7b 11 bd
       -0.014347434 0.07681478 0.08556419 -0.035518453
000030 6a 2a 95 3d bb a9 a1 3d 76 f9 82 3d 6f 19 82 3d
       0.072834805 0.07893702 0.06395237 0.06352507
000040 8b dc 1c bd 4a c8 6e 3d 5f da 88 3d 81 17 99 bd
       -0.038296264 0.05829648 0.06682276 -0.07475186
000050 76 02 4f 3d e2 08 ae 3c be f9 03 3c 62 00 ad 3a
       0.050539456 0.02124447 0.008055149 0.0013198967
000060 10 cc dc bb d3 44 51 3d c6 1e 62 bd 33 fc f6 bc
       -0.0067381933 0.051091027 -0.05520513 -0.030149555
000070 e4 6d f3 3c 5a de f1 bc 08 23 69 bd f3 79 da bc
       0.029715486 -0.02952497 -0.056918174 -0.026669478
000080 3f fb a2 bd 1c f9 91 3d 1f c1 0d bd 7d 11 20 3c
       -0.07958078 0.07127592 -0.034608003 0.0097697945
000090 82 8e b9 3c 6a 8f 88 3d bf 43 74 3d 4a 79 61 3d
       0.02265096 0.06667979 0.05963492 0.05504731
0000a0 3e 64 5a bd 46 64 fe 3c f9 fb d4 bc 34 fb 49 3d
       -0.053318255 0.031053673 -0.025999056 0.04931183
0000b0 4a e6 01 3d 57 1e 0e bd 47 0d 46 3c 5d 7a 14 3d
       0.03171376 -0.034696903 0.0120881265 0.036249507
0000c0 6b 10 85 3d cc 80 8d 3c b2 7a 1c 3d 24 5c 28 bd
       0.06497272 0.01727333 0.03820295 -0.041103497
0000d0 b8 fa 3a bb 79 41 9e 3d a1 96 97 3c 9f 47 6f bd
       -0.0028530788 0.07727332 0.018504443 -0.058417913
0000e0 8e 7d 77 3d 65 96 fb bc de c6 50 3d 16 fc 98 3c
       0.060422473 -0.030711362 0.050970905 0.018674891
0000f0 58 32 97 3d 7a 3e d3 3c 72 b5 2e bd ee aa e0 3c
       0.07382649 0.025786627 -0.04265351 0.027425256
000100 9a 4c 9b 3d 9e 7e 9d 3d 45 e3 6a 3d 99 b1 8c bd
       0.0758297 0.07690166 0.057345647 -0.068698116
000110 ad c1 00 3d c0 82 45 bd 83 63 8c 3d c2 17 2d bd
       0.031434704 -0.048220396 0.06854918 -0.042258985
000120 15 16 ec bc 2f bd fe 3a 1c 6e fd bc d3 e1 5e 3c
       -0.028819123 0.0019435043 -0.030936293 0.013603645
000130 6f 38 9a 3d c9 24 a8 3d 8b ca a4 3d 29 05 03 bd
       0.07530295 0.08210141 0.080464445 -0.031987343
000140 8e e6 ab bd 18 79 10 3b ca 9b a5 bd 47 96 54 bb
       -0.08393584 0.0022044834 -0.08086355 -0.0032438205
000150 9d 5d 26 bd 61 6f 83 3c f4 73 a5 bd ad 3e 6f 3d
       -0.04061662 0.01604432 -0.08078757 0.05840938
000160 d7 2e 74 3c 1e 36 e2 3c 4e 33 94 bd cc 6d 08 3c
       0.014903746 0.027613696 -0.07236348 0.008326959
000170 85 7e 8d bc d5 81 8f 3d d8 38 dc bc d9 95 9e 3d
       -0.017272243 0.07007185 -0.026882574 0.07743425
000180 cd 2c 66 bd 01 7f a8 3c 13 e2 22 3d f8 ee 89 3d
       -0.05619507 0.020568373 0.039766382 0.06735033
000190 03 09 3a bd e3 60 8c 3d f8 e0 22 bc 64 82 07 3c
       -0.04541875 0.06854417 -0.009941332 0.008270834
0001a0 4a 9e a6 3d 9e 97 19 bd 94 a7 af bd 73 92 96 3d
       0.0813566 -0.03749811 -0.08576885 0.07352152
0001b0 e8 fa 7e 3d 24 20 98 3d 71 f4 d7 3c ae 7f 83 3d
       0.062251 0.07428005 0.026361676 0.06420837
0001c0 e6 45 3c bd 91 20 07 bd 51 b6 02 bc d0 2c 68 3d
       -0.045965098 -0.032990042 -0.007978038 0.05668336
0001d0 2d fc 79 3d 36 76 22 bd dc 85 55 bd dc c9 49 3d
       0.06103151 -0.039663516 -0.05212961 0.049264774
0001e0 6e 0c ab bc 02 d3 2d 3d ec 8c 07 bd 0d 24 d3 bc
       -0.02087995 0.04243756 -0.033093378 -0.025774026
0001f0 59 83 9a bd d1 43 b3 bd 02 01 3a 3d 27 ff 1d 3d
       -0.07544584 -0.08753169 0.045411117 0.03857341
000200 0a 3f 9b 3d 75 7e 3d 3d 76 3c 99 bd c0 1f 55 bd
       0.07580383 0.046263177 -0.07482235 -0.052032232
000210 e2 d4 0a bd 00 d8 25 3d e9 dc c0 3c e4 dd a9 3d
       -0.033894427 0.040489197 0.023542838 0.082942754
000220 a1 3f 9c bb 7d 34 b3 bd 5c 75 81 3d 23 07 1b 3c
       -0.0047683273 -0.08750246 0.06321213 0.009462151
000230 8d 3e 2d 3d 63 8e 84 3c 4e 4b 04 bd f0 ce a6 bd
       0.04229598 0.016181177 -0.03229838 -0.08144939
000240 63 ae 81 bd fd c2 84 bd d3 5f 18 bd 53 c6 89 bd
       -0.0633209 -0.064825036 -0.03720076 -0.067272805
000250 c7 69 05 3d ff 6f ee 3c 40 a1 21 3d 52 c8 03 3d
       0.03257158 0.029106138 0.03946042 0.032173462
000260 c8 ad 44 3d 90 c9 4c bc 7d 94 77 bc 15 4f 77 bc
       0.048017293 -0.012499228 -0.015111086 -0.015094538
000270 95 86 78 bd de 30 5c bd 4c 30 76 bd 97 f7 19 3d
       -0.060675222 -0.05375754 -0.060104653 0.037589636
000280 a1 09 0a bd 18 f9 83 bd 75 1d 07 3c 37 06 ee 3b
       -0.03370059 -0.06443995 0.008246769 0.0072639245
000290 1a 32 94 3d 0b 63 9e bd a3 6e 64 bd 97 6e 86 bd
       0.072361186 -0.07733735 -0.055769574 -0.06564062
0002a0 5f 6f 65 3d 1c 6d bc 3b 5d 39 70 bd 13 d2 8d bd
       0.056014415 0.0057503115 -0.058648456 -0.06924834
0002b0 e8 66 4f 3d 05 a0 68 3d c3 a0 33 bd 5b 39 8c 3b
       0.05063525 0.05679323 -0.043854486 0.0042792982
0002c0 90 e5 4a 3d 62 4e 6f bd 65 8b 0b 3d 4f 46 89 3d
       0.049535334 -0.05842436 0.034068484 0.067028634
0002d0 57 59 42 bd 36 a5 86 3d 10 fc aa bd 50 d1 aa 3d
       -0.047448482 0.0657448 -0.08348858 0.083407044
0002e0 4d 74 a9 3d 18 a1 c4 3b 3b d7 4d bd 7d ef aa 3d
       0.08274136 0.006000649 -0.050254088 0.0834646
0002f0 52 b7 46 3c f2 35 aa bd 41 4f 93 3d 23 0b 56 3d
       0.012128668 -0.083110705 0.07192851 0.052256715
000300 9e 22 ed bc 6a bc 61 bd 3e 02 45 bd 2f 2c c9 bc
       -0.02894717 -0.055111326 -0.04809784 -0.024557201
000310 97 e3 a9 3d dd 76 01 3d c6 9d 94 3d a0 61 8a 3d
       0.082953624 0.031607497 0.072566554 0.06756902
000320 f8 90 e6 3c 66 ce c9 bc 7a c1 f2 3c 56 a9 d0 3b
       0.028145298 -0.024634551 0.029633272 0.0063678427
000330 b0 fb 40 bc 8d 2c 95 bc 76 cb a0 bc 65 27 2a 3d
       -0.011778757 -0.01820972 -0.019628268 0.041541476
000340 a6 ad 89 3d 60 f1 97 bd 42 d3 8c bd b6 21 35 bd
       0.06722574 -0.074190855 -0.06876232 -0.044221602
000350 30 3c 8b 3d 2d 5c 08 bd ab 63 07 3d 7b 90 01 3c
       0.06798589 -0.03329103 0.033054035 0.007907982
000360 e4 36 91 bc ee af d6 3c 38 f3 79 bd e7 d0 71 bd
       -0.01772637 0.026206937 -0.061022967 -0.059037115
000370 19 d8 18 bd 8c a3 01 3c 96 a4 c6 3c ef 1d 8c 3d
       -0.03731546 0.007912528 0.024248403 0.06841647
000380 6a f4 47 bd 09 67 8e bd e7 6c 4f bd 43 8f 7d 3d
       -0.048817076 -0.06953246 -0.050640967 0.061904203
000390 84 eb ba bc 65 18 31 3d 97 5a 04 bc ba 6c 43 bd
       -0.02281738 0.043236155 -0.008078239 -0.04771111
0003a0 54 67 90 bd c2 a8 45 bd 65 50 88 bd 7b 75 57 bd
       -0.07050958 -0.048256643 -0.06655959 -0.052602272
0003b0 71 cc 3a bd 98 a9 2b 3c 9f 1f 9e 3d 61 42 63 3c
       -0.045605127 0.010477446 0.07720875 0.013870806
0003c0 d8 db b5 3c 8f 35 91 bd 18 03 b9 bb 91 fb 8c 3d
       0.022199556 -0.070902936 -0.0056461208 0.0688392
0003d0 fe d5 eb 3c 9b 92 9d bd 84 40 60 3d ed cd 1e bd
       0.028788563 -0.076939784 0.054749027 -0.038770605
0003e0 e3 97 fa 3c f9 8b 91 3d 7a 5d e7 bc 3a 2f ba bc
       0.030590003 0.07106776 -0.028242815 -0.022727598
0003f0 99 87 81 3d eb 68 36 bd 76 fd 91 3d 3a 97 b2 3d
       0.06324691 -0.04453365 0.07128422 0.087202504

bias f4 [128]
000000 e3 ce 57 bd ca 49 56 bd 3a 7a 47 bd 2c 6e c9 bc
       -0.052687537 -0.052316464 -0.04870055 -0.024588667
000010 c7 0a 50 3c c9 2a f4 3c 5e 93 89 3c e6 3b 8d 3d
       0.012697882 0.029805558 0.016793903 0.0689619
000020 08 ea 71 3b 92 39 dc bc 0e 35 75 bd a3 ec 08 3d
       0.0036913175 -0.02688292 -0.05986505 0.0334288
000030 aa 5e c4 bb b6 37 ff bc 78 2f da 3b 6d 9f 81 3c
       -0.00599273 -0.031154495 0.0066584907 0.01582309
000040 64 f1 36 bd 62 92 56 bc b3 2a ea 3c 33 08 a2 3d
       -0.0446638 -0.013096424 0.028584814 0.0791172
000050 78 d5 8d bd f0 1d 17 bb 64 e3 15 3d 65 e6 0d 3d
       -0.069254816 -0.0023058616 0.03659381 0.03464355
000060 60 a6 0b 3d 23 b1 87 bd 49 04 3f 3d 7e 5a e0 bc
       0.034094214 -0.06625583 0.046634946 -0.0273869
000070 b9 e1 24 bd 77 2f 51 bd 1b f8 3b 3d 9c 83 d7 3a
       -0.04025433 -0.051070657 0.04589091 0.0016442421
000080 5f 3e 76 3d 17 00 01 3d 23 84 90 bd 65 23 71 bd
       0.060118075 0.031494226 -0.07056453 -0.058871645
000090 95 72 a7 bd 3b fb 73 bd b2 aa 47 3d f7 89 2c bd
       -0.08176152 -0.059565764 0.048746772 -0.04212376
0000a0 60 19 87 3b 38 7d d0 bc 69 69 f6 3c da 39 50 3d
       0.004122898 -0.025450334 0.03007956 0.05083642
0000b0 c7 b1 9f bd a1 77 ab bd ca e6 a5 bd 0c 23 4d 3d
       -0.0779758 -0.08372427 -0.0810066 0.05008225
0000c0 7b 39 90 bd 68 93 a9 3d 16 cf af bc dc ef 18 bb
       -0.070422135 0.08280069 -0.021461051 -0.0023336327
0000d0 e1 3e 89 3d 53 67 63 3d 34 81 19 bd d5 43 12 3d
       0.06701446 0.05551846 -0.037476733 0.03570922
0000e0 27 21 a2 bd 3f 67 4b 3d e5 2c f7 bc 70 b4 74 3d
       -0.079164796 0.04965901 -0.030172775 0.05974239
0000f0 30 5e 7e bd 91 03 93 3d d8 a7 35 bc ea 6a a7 3d
       -0.062101543 0.071784146 -0.01108738 0.08174689
000100 79 eb c6 3c ac 47 a2 3d ae ec 9e 3d f2 9d e0 bb
       0.024282204 0.079238266 0.07759987 -0.006854766
000110 aa 70 ab bd b6 79 9e bc da f0 0e 3d a8 f4 8d bd
       -0.08371098 -0.019345146 0.034897663 -0.0693143
000120 d3 7a b2 bd 10 1d 32 3d 58 bf dd 3b b6 98 6e bc
       -0.08714833 0.043484747 0.0067671947 -0.014562776
000130 36 ce 4f bd 7c 7b 10 bd 74 8d cd bc fe c2 a0 3a
       -0.050733767 -0.035274014 -0.025091864 0.0012265143
000140 fb 23 37 bd 8a 12 11 bd 8e c9 9d bd a8 df 7f 3d
       -0.044712048 -0.03541807 -0.07704459 0.062469155
000150 ca c6 3e bd a3 8b 8c bd 42 36 db 3c de 33 09 bd
       -0.0465763 -0.06862571 0.02675927 -0.03349673
000160 19 7c 08 bd 0e 08 9e bd 9c 6d 8f 3d db a3 43 3d
       -0.033321474 -0.0771638 0.07003328 0.047763687
000170 04 b8 ee 3c 3a de 8a 3d c1 a8 8f bd 2a 5c 65 bd
       0.02914048 0.067806676 -0.07014609 -0.055996098
000180 4c b1 ed ba 07 05 7b bc 9a ea c8 bc 29 f5 16 bc
       -0.0018134504 -0.015321023 -0.02452593 -0.009213724
000190 9e 54 97 3d 5c 2f f0 3c 7e 2f 29 3d 1b 80 8a bd
       0.07389186 0.029319458 0.041305058 -0.067627154
0001a0 ea 12 5a bc 76 75 70 bd 89 39 30 bd 0d a2 ad 3d
       -0.0133101735 -0.05870577 -0.04302362 0.08478174
0001b0 89 f4 10 3d 5c 34 c4 bc b2 2b 56 3d cc d5 4e bb
       0.035389457 -0.023950748 0.052287765 -0.0031560538
0001c0 64 ff 07 bd 47 a4 91 3d 3f 04 31 3c 97 7d 88 3c
       -0.033202544 0.071114115 0.010804235 0.016661448
0001d0 92 22 6d 3c 98 ec 87 bd a9 fa a1 3d 06 01 ec bc
       0.014473574 -0.066369236 0.07909138 -0.028809082
0001e0 2a 28 3f bd 8d 31 44 3d 3c 19 26 3d 28 20 91 3d
       -0.046669163 0.047898818 0.04055141 0.070862114
0001f0 50 82 0f bd b3 7d ae 3d 9e 39 55 bc ea 35 78 bd
       -0.035036385 0.08520069 -0.013014225 -0.06059829

weight f4 [128, 136]
000000 2e 32 46 3d 74 59 d7 bc 76 d7 7f 3d cd 11 92 3c
       0.0483877 -0.026287772 0.06246134 0.017830754
000010 3a 95 3a 3d 03 0c 75 3c 1f 4b a0 3c 53 99 31 3d
       0.04555247 0.014956477 0.01956707 0.043359112
000020 4e 44 fa bc 49 e9 63 bd 85 47 a3 bd a2 f1 95 3d
       -0.030550148 -0.0556424 -0.07972626 0.073214784
000030 c0 65 82 bd 93 21 43 bd 28 be 2e bc 93 e8 34 3d
       -0.063670635 -0.04763944 -0.010665454 0.044167113
000040 1b 68 f1 3c c2 d2 3d 3d 44 7a 22 3d 5e dd 2d bd
       0.029468587 0.046343572 0.039667383 -0.04244744
000050 9b 1a 3c 3a 72 dc 5a bd a7 6a 9b 3d 2d b1 dc bc
       0.00071755954 -0.05343289 0.07588702 -0.026939953
000060 88 25 26 bd 59 98 8e 3c 01 75 84 bc d0 6c 38 bd
       -0.040563136 0.01740663 -0.016169073 -0.045025647
000070 9a 2b a8 3d fe a1 3d 3c 7f 01 7c bd e1 20 14 bd
       0.08211441 0.0115742665 -0.061524864 -0.03616417
000080 18 88 21 3d 7f c5 96 3d 2e 28 7b bd ab ba ab 3d
       0.03943643 0.07361888 -0.061317615 0.083852135
000090 24 33 62 bd b3 20 a1 3d 18 23 c0 3b c6 23 fc 3c
       -0.055224553 0.07867565 0.0058635585 0.030778777
0000a0 d8 48 32 bd d0 17 af 3d 24 54 6a bc 6e 31 82 bc
       -0.0435265 0.08549464 -0.014302287 -0.01589271
0000b0 5e 29 2f 3c 63 37 7b bc a8 6d 45 3d 8b aa 3b 3d
       0.010691015 -0.015333029 0.04820028 0.04581694
0000c0 d4 55 a3 bd f8 11 97 bc dc c5 b3 3b 7d d6 d7 3c
       -0.07975355 -0.018441185 0.005486233 0.026347393
0000d0 fd e5 2f bd 1e 50 74 3d 0d 49 65 3c d4 a9 5d 3d
       -0.042943943 0.05964672 0.013994467 0.05411704
0000e0 91 d0 76 bd 2e 65 4c bd f0 29 a0 bd 6e 43 14 bc
       -0.0602575 -0.04990118 -0.07820499 -0.00904928
0000f0 d2 e4 8b 3c 6f ee 98 3d b5 d6 80 3d 8f c3 69 3d
       0.017076883 0.074673526 0.06290952 0.057071265
000100 c8 c7 55 3d c3 55 06 bd 53 9e 09 3d 31 2e 5e 3d
       0.05219248 -0.032796632 0.033598255 0.05424327
000110 ae a3 93 3d 36 62 25 3d c9 5e 7e 3d ad d5 6b bb
       0.07208954 0.040376864 0.062102113 -0.0035985515
000120 7c 1c a3 3d 6a fe 56 3d 26 0d 48 bd fc 30 b4 bb
       0.07964417 0.052488722 -0.048840664 -0.0054990035
000130 7a 56 97 3c ee a3 4d 3d 6c bc 94 3d 18 16 86 3d
       0.018473852 0.050205164 0.07262501 0.06547183
000140 1c b0 a7 3c af 29 80 3d 3d b1 8f bd e6 d0 9f 3d
       0.020469718 0.062579505 -0.070162274 0.07803516
000150 68 ec 37 bc 97 02 c5 3c 07 b7 77 3c 79 13 b1 bc
       -0.011225797 0.024049086 0.015119321 -0.02161573
000160 5b d1 8e 3d dd 6f f5 3c 61 c5 b0 bd b4 79 bd 3b
       0.06973525 0.029960567 -0.08631397 0.0057823304
000170 91 40 c7 3c b8 a6 2f 3b 4e 82 6d bd 9e d6 e9 bb
       0.02432278 0.0026802253 -0.057985596 -0.00713618
000180 8e 49 e7 3c 18 3b 17 bd af 80 6b 3d 70 d5 96 3d
       0.028233316 -0.03692159 0.05749577 0.07364929
000190 13 a9 ad bd d3 51 fb bc 42 f0 0f 3d 9e ed 93 3d
       -0.08479514 -0.030678665 0.035141237 0.07223056
0001a0 9b 3b 31 3c 8b 1e 6f 3d 44 86 a1 ba 3a 78 b4 3c
       0.010817434 0.058378737 -0.001232334 0.022029985
0001b0 bf 3d 0e bc 7a a7 4b 3d 1f d2 8b 3d d0 8e 9f 3d
       -0.008681714 0.049720265 0.06827187 0.07790911
0001c0 49 02 ab bd ed cb 88 bd cd e4 d2 3c 32 8a 5c bd
       -0.08350045 -0.06679521 0.025743866 -0.05384273
0001d0 e7 53 f4 3c 46 f9 67 3d 57 1c db 3c 6d d1 30 bd
       0.029825164 0.05663421 0.026746912 -0.043168474
0001e0 ba 37 8d 3d d3 cb 35 3d 95 ff 23 3d 03 2c 95 3d
       0.068953946 0.044383835 0.040038664 0.07283785
0001f0 18 80 ea bb f8 9d a9 bd 7e 1f 37 bc 69 e7 95 3d
       -0.0071563832 -0.08282083 -0.011176942 0.073195286
000200 d8 83 9e 3d a2 f6 56 bd 76 e8 a7 bd 01 03 df bc
       0.07739991 -0.0524813 -0.08198635 -0.027223112
000210 ee f8 c3 bc cc 13 1b bd 45 75 4f bd 01 59 a6 bd
       -0.02392241 -0.037860677 -0.050648946 -0.08122445
000220 5d ea 29 bd 8c 02 89 3d 75 22 98 bc 47 c4 48 3d
       -0.041483272 0.06689939 -0.018571118 0.04901531
000230 6c d6 0a bb e7 10 21 bd 53 46 1c bd c2 1a a9 bd
       -0.0021184934 -0.03932276 -0.038153004 -0.08257057
000240 67 ef 46 3d 63 74 c3 bc 04 ea 3e bd 24 2f f3 bb
       0.048568156 -0.023859208 -0.046609893 -0.007421391
000250 ad 0f ae 3d c6 e9 8b 3d fd 6c 7c bd 0d c7 f3 bc
       0.08499084 0.06831698 -0.061627377 -0.029758
000260 fa cf e2 3c d3 13 f7 3c 44 5a 36 3d 4d 03 7d 3d
       0.027687062 0.03016082 0.044519678 0.061770726
000270 17 11 c8 bc 85 5b 01 bc 70 3a 3e 3d 02 a8 13 3d
       -0.024422212 -0.007895355 0.04644245 0.036048897
000280 55 ac 45 3d 1e 28 7b bd 5e 93 1a 3d f9 5a 5a bd
       0.04826005 -0.061317556 0.037738197 -0.053309415
000290 89 7e 15 3d 86 a9 c0 3b df 36 81 3d 7d 5e b0 bc
       0.036497626 0.005879584 0.06309294 -0.02152943
0002a0 b6 e1 2d ba e7 da fa 3c a6 1a aa 3d 0e a3 b9 3c
       -0.000663306 0.030621959 0.08305864 0.022660758
0002b0 91 5d a5 3d 87 4a d4 bc 81 14 f6 3c 0e d2 df 3c
       0.08074487 -0.025914444 0.030039074 0.027321842
0002c0 1b 2d 91 bd 0a 5b 9e bc 1a ae 83 3d 7d c8 ae 3d
       -0.07088681 -0.01933052 0.064296916 0.08534334
0002d0 84 56 88 3d b2 d0 e1 bc 38 81 d9 3c 72 ce 0c 3d
       0.066571265 -0.027565334 0.026550874 0.03437657
0002e0 4d 2c bf bc 7b c0 fa bc 39 df 88 bc e7 bd f6 3b
       -0.023336554 -0.03060936 -0.016708003 0.0075299623
0002f0 43 fe f0 3b c4 b1 92 3c 35 4c b9 bc 2e 3c 4c 3c
       0.007354529 0.01790703 -0.022619346 0.01246552
000300 9c 94 69 ba ca 19 06 3d 28 57 82 bd 0e 06 2a 3c
       -0.0008910389 0.032739438 -0.0636428 0.01037742
000310 2b 66 5f 3c 3e cd d0 bc c6 08 89 bd a0 58 bf bc
       0.013635199 -0.025488492 -0.066911265 -0.02335769
000320 74 5b a2 bc 51 59 ce bc ca d8 dd 3b 83 21 e3 3c
       -0.019818999 -0.025189074 0.006770228 0.02772594
000330 45 b8 39 3d 5a e1 ad 3d 4f 48 a9 3d 67 a9 8f 3c
       0.04534175 0.08490248 0.08265745 0.017536832
000340 3d df ef bb 33 f7 e8 bc 72 66 69 bd 9e a7 10 bd
       -0.0073203132 -0.028438186 -0.056982465 -0.035316102
000350 a7 5e 90 bd 1f de 86 bd d5 75 3c 3c 79 83 56 bc
       -0.070493035 -0.06585335 0.011502703 -0.013092869
000360 25 55 80 bd 35 3c 9f bd 5e 77 6c bb 74 4e 91 bd
       -0.0626624 -0.077751555 -0.003608189 -0.07095042
000370 b5 69 6e 3d f5 20 52 3d 18 cf 57 3d f0 fd 84 3d
       0.05820628 0.05130096 0.052687734 0.06493747
000380 fd 05 38 bd 1d b4 50 3d 31 98 a1 3d cf 8e bd 3c
       -0.044927586 0.05095302 0.07890356 0.023139386
000390 92 bf 26 bd 61 7f 5c bc 34 dd ba bb b0 a7 7e 3d
       -0.04071004 -0.013458104 -0.005702639 0.062171638
0003a0 c2 91 ae 3d 41 91 a5 3d bf e5 cc bc 6a 10 ee bc
       0.08523895 0.080843456 -0.025011895 -0.029060561
0003b0 f1 51 81 3c 8e 48 92 bd 53 e2 1f bd e6 89 57 3d
       0.015786143 -0.07142745 -0.0390342 0.052621745
0003c0 42 e5 36 3d 25 f1 43 bd 26 fa b1 3d 98 92 4a bc
       0.04465223 -0.047837395 0.0869029 -0.012364052
0003d0 73 59 53 3d 30 97 4f 3c 48 2c b6 3c 22 e7 40 3d
       0.051598977 0.012670323 0.022237912 0.047095425
0003e0 b5 b2 9f bd 1e 4d de 3c aa e8 92 3d fe d9 9c bd
       -0.077977575 0.027136382 0.071732834 -0.07658766
0003f0 7e 92 da 3c 74 77 0f bd 38 26 bc 3b 36 ca 75 3c
       0.026681181 -0.03502603 0.0057418607 0.015001824

bias f4 [128]
000000 e5 07 eb 3c 25 3a 97 3d d3 19 64 3c df db 0c 3d
       0.028690288 0.07384137 0.013922173 0.034389373
000010 e7 2d ff 3c 6b c3 10 bd d3 04 9b bd bf 51 97 3d
       0.031149818 -0.035342615 -0.075692795 0.07388639
000020 7b 18 65 3d 18 d5 4f 3d 6d 59 40 3d 5b b9 69 3d
       0.05593155 0.05074033 0.046960283 0.057061534
000030 f5 6e 11 bc 28 e1 b4 bc 16 4f 1d bd 95 14 05 bc
       -0.008876552 -0.02208002 -0.0384055 -0.008122583
000040 12 de ea bc 47 74 37 3d 17 ee a1 3c 47 ca 27 3d
       -0.028670345 0.044788625 0.01976685 0.04096439
000050 1c ee cf ba c1 2d 2f 3d 64 b8 6e bd ca 61 a3 3d
       -0.0015863809 0.042768244 -0.058281317 0.07977636
000060 d5 b8 1c bd e1 39 7d bc 5a 54 b1 bd 3c d0 38 bc
       -0.038262207 -0.015455694 -0.08658667 -0.011280116
000070 cf 05 88 3d c5 73 a9 bc 79 5d 56 3c 42 fe 65 bd
       0.06641733 -0.020685086 0.013083809 -0.056150682
000080 3d 85 61 bd 93 e8 48 3d 2e 3e 04 3d 77 b9 14 3d
       -0.055058707 0.049049925 0.03228586 0.036309686
000090 b3 54 55 bd ca 21 68 bd fd 29 a2 bd 5a be 7b 3d
       -0.05208273 -0.05667285 -0.07918165 0.06146083
0000a0 47 de 70 bc 1e 94 91 bd fc 30 03 3d 81 c4 d4 3c
       -0.014701433 -0.07108329 0.032029137 0.025972607
0000b0 e6 76 01 3d ab 00 88 3d 4c e3 7f 3d 48 fb e1 bc
       0.03160753 0.066407524 0.062472627 -0.02758564
0000c0 ac e9 92 bc c9 79 a2 3d a9 b6 9e 3b b0 b5 50 3d
       -0.017933689 0.07933385 0.004843552 0.05095452
0000d0 d6 3a c1 3b fb cc 90 bc 2d 47 0f 3b 0d 00 9b bd
       0.0058969064 -0.017675867 0.0021862492 -0.07568369
0000e0 59 37 44 3d 5a 4a a8 bd ab 8b e8 3b 1e 5b f4 bc
       0.047904346 -0.082173064 0.007096728 -0.029828604
0000f0 ad 14 cb 3c 6f 72 2b 3d 58 cb a2 bd 12 52 0b 3d
       0.024790132 0.04185718 -0.07948941 0.034013815
000100 e9 79 83 bd 44 f3 44 3d e1 26 6a bd 1b 93 81 3c
       -0.06419737 0.04808356 -0.057165984 0.015817216
000110 c5 8e a6 3d 8b 0e 51 3d 8c 5e 8c 3d 94 0d 46 bd
       0.081327 0.05103926 0.06853971 -0.048352793
000120 a8 6a 86 bd e2 19 a5 3c 9b 9d 9d bd 25 45 77 3d
       -0.06563312 0.020153943 -0.076960765 0.060368676
000130 6f 80 8b 3b 2e ee 49 3c 9f ad 23 bc c4 3a 1d 3d
       0.004257254 0.012324853 -0.009990125 0.03838612
000140 b8 b0 57 bd 9e d4 63 bd fc be 04 3d d7 77 aa bd
       -0.052658767 -0.05562269 0.0324087 -0.08323639
000150 02 e5 46 3d 2d fd 61 bd 91 2e b0 3d d9 ff b3 3c
       0.048558243 -0.055173088 0.08602632 0.021972584
000160 c8 62 98 bb 13 28 31 3b a9 0f c6 3b 1c 2c 23 bd
       -0.0046504475 0.0027031943 0.0060443473 -0.039836988
000170 7d dc e9 bc e5 ff b3 3c 3d 7a 5a 3d 69 59 8f bc
       -0.02854752 0.021972606 0.05333923 -0.017498689
000180 34 3c 57 ba 33 ee cb bb 65 82 c1 3c 42 c4 2b bd
       -0.000821057 -0.006223464 0.023621747 -0.041935213
000190 7e 71 84 3d fc 9a 86 3d bc 60 93 bd c6 6a 7d bb
       0.064669594 0.0657253 -0.07196185 -0.0038668378
0001a0 d2 c8 37 bd 5a 50 97 3d 33 a3 02 3d 2c be de 3b
       -0.04486925 0.07388373 0.03189392 0.0067975726
0001b0 ee 72 9c 3d 6d 58 ab 3c 7f 2e 7f 3d 79 eb 0b bc
       0.076391086 0.020916188 0.0623002 -0.008540028
0001c0 98 a1 35 39 a7 64 b4 3c 37 71 42 bd b4 61 ae 3d
       0.00017321703 0.022020651 -0.04747125 0.08514729
0001d0 c8 d3 82 3d 2c 5b 7a bd 91 a3 84 bd 85 82 84 3d
       0.0638805 -0.061122105 -0.0647651 0.06470207
0001e0 b4 b5 70 bd f6 c6 a0 3c ef 5f 84 bd 0a 25 5a 3d
       -0.058767036 0.019626122 -0.064636104 0.05325798
0001f0 e4 ed 1e 3d 2f 4c d7 bc 8c 25 eb bc a5 85 6c bd
       0.03880109 -0.026281444 -0.028704427 -0.05774464

weight f4 [128, 256]
000000 aa 4d c3 39 ed df 49 3d 1e 22 f5 bc 7b cd 00 bd
       0.00037251163 0.049285818 -0.029923495 -0.03144596
000010 34 ff 4d 3d b2 e6 3f 3d 97 08 50 bd 96 c1 41 3c
       0.05029221 0.046850868 -0.050789442 0.01182594
000020 d4 81 bf 3c c0 a8 84 3c 6a 01 db bc c2 43 3d bd
       0.023377337 0.016193748 -0.026734073 -0.046207197
000030 39 31 72 bd d1 85 c4 3c 6b 29 64 bd 4b 1c 15 3d
       -0.059128974 0.02398959 -0.05570356 0.036403935
000040 c3 83 0a 3d c1 47 37 bd 70 13 65 bc 1b 2e a6 3a
       0.033817064 -0.044746164 -0.013981685 0.0012678535
000050 57 5d 95 bc 00 56 96 38 7a 17 fd 3b d6 cc 85 bb
       -0.018232984 7.168576e-05 0.007723746 -0.0040832562
000060 e5 64 dc bc 58 05 58 bc d3 be 1f bd 11 0b b9 3c
       -0.026903579 -0.013184868 -0.039000344 0.022588285
000070 07 55 2d 3d b1 11 1d bd 2c 44 ba bc da 86 bf 3c
       0.042317417 -0.03834695 -0.022737585 0.023379732
000080 ad ea 60 bd 58 19 94 3c 3d 49 98 3c dc eb 87 3c
       -0.054911304 0.018078491 0.01858961 0.016591959
000090 9a f2 2b bd 65 73 c6 bc d1 a6 52 bc 93 f1 fe bc
       -0.04197941 -0.024224946 -0.012857155 -0.031121051
0000a0 19 97 61 3d 2a 8c 0a bd 3d b7 35 3d ba 41 d2 bb
       0.05507574 -0.033825077 0.044364203 -0.0064165266
0000b0 d0 00 30 bd 7d 62 5c bd 1f 38 fc 3c 0e 18 86 3c
       -0.042969525 -0.053804863 0.03078848 0.016368892
0000c0 3f e8 76 bd 67 89 13 bc 94 1c e3 bb 54 92 3d 3d
       -0.06028008 -0.009004927 -0.006930897 0.046282127
0000d0 77 a8 61 3d 10 74 ce 3b c4 33 63 3d 5e 04 a6 bc
       0.0550923 0.006300457 0.05546929 -0.020265754
0000e0 79 27 a5 bc 97 70 b0 bb 61 95 de 3c f7 bf 06 3d
       -0.020160424 -0.0053845155 0.027170839 0.032897916
0000f0 5e 71 7c bd f7 b6 59 3d 4c c6 bd ba ac af 01 3d
       -0.061631553 0.053153004 -0.0014478653 0.031661674
000100 f5 01 15 3d d3 06 13 3d bb e0 20 3c 95 4f e5 3c
       0.03637882 0.03589518 0.009819205 0.02799205
000110 86 0f 3f bc 38 d1 30 3d 81 a7 39 3d e6 7d 6f bb
       -0.011661416 0.043168277 0.04532576 -0.0036543547
000120 aa ba 6d bd 0e e9 34 3d 38 a2 01 3d ff 88 71 3d
       -0.058039345 0.04416757 0.031648844 0.05896854
000130 87 8b 45 bd 04 a5 2b bb 34 0c aa 3a 69 9c 64 bd
       -0.048228767 -0.0026190886 0.0012973608 -0.055813227
000140 6f 8f 06 bc 27 5a 14 bd bb 91 20 bd 3f 6c 1f bc
       -0.008212908 -0.03621879 -0.03920148 -0.009730398
000150 72 5e 1c bd 4e 60 ff bc 5c e0 35 3b a2 be 00 bd
       -0.038176008 -0.031173851 0.0027752137 -0.0314318
000160 72 60 58 bc 28 7e 05 3d 68 4a 17 bd cd 54 12 bc
       -0.013206588 0.032591015 -0.036936194 -0.008931351
000170 73 fd 64 bd ab 9e ca 3b b3 4e 20 3c 13 87 f0 3c
       -0.05590577 0.0061834655 0.009784388 0.029361283
000180 a8 39 d0 bc 3f 94 45 3d 45 dc 7a bd 61 73 4b 3d
       -0.025418118 0.04823708 -0.06124522 0.04967058
000190 9f 93 1f 3d 5c 26 f1 bb 4c f7 4f 3d a0 49 53 3d
       0.03895914 -0.007359309 0.05077295 0.051583886
0001a0 9c 0b 20 3c 3b 7f f1 bc c9 1d 3a 3d db 8f 01 3d
       0.009768393 -0.029479614 0.04543856 0.031631332
0001b0 aa 97 c5 3c 8d 31 7a bd 54 c2 21 bd 7c 46 e2 bb
       0.02412017 -0.06108241 -0.039491966 -0.006905375
0001c0 f5 55 1d 3d 57 00 7a bc 61 e1 3d bc 68 3c de b9
       0.038412053 -0.01525887 -0.011589379 -0.00042388146
0001d0 3e 4b 73 3d df 25 05 bd 0f a4 18 3d a0 96 a2 ba
       0.05939793 -0.03250682 0.037265833 -0.0012404509
0001e0 7b 43 24 3d 3e d8 7a bd 6f bb af 3c f1 32 54 bc
       0.040103417 -0.06124138 0.02145168 -0.0129515985
0001f0 99 fb 04 3c db 1d f3 bc ab 6d 09 bd a6 bc 54 bc
       0.008116626 -0.029677322 -0.033551853 -0.01298443
000200 62 da 33 bd 62 61 04 3d b4 fc 19 39 e4 24 b7 3a
       -0.043909438 0.032319434 0.00014685356 0.0013972786
000210 1f 1c 27 bd 8d 1b 12 3d 6d cd 41 bd ac 1b 2d bd
       -0.040798303 0.035670806 -0.04731505 -0.042262718
000220 50 47 01 3d 3d d8 cf 3c 0d f2 69 3c b9 ac 29 bd
       0.03156215 0.025371665 0.014278901 -0.041424487
000230 32 44 7b bb 78 f9 19 3d cf 28 f4 bc 4f 12 4c bd
       -0.0038340208 0.037591428 -0.029804615 -0.049822148
000240 08 5d a7 3b 8c f9 67 bd c3 f6 20 3d e4 7a b7 bc
       0.0051075257 -0.05663447 0.03929783 -0.022397466
000250 17 b6 11 bd f9 ac e3 bb cd 6b 97 3c 48 3b 10 bd
       -0.035574045 -0.00694811 0.01848402 -0.035212785
000260 d7 dc 6f 3d 0a 15 48 3c 96 60 b9 bc 68 12 35 bd
       0.05856022 0.012212047 -0.022629064 -0.044207007
000270 a8 2c 26 3c 7d 58 63 3c aa 16 56 bd ea d3 92 bc
       0.010142483 0.013876078 -0.052267708 -0.017923314
000280 59 75 b8 bc f8 a0 0b 3d b5 35 65 3d e1 63 74 3d
       -0.022516893 0.03408906 0.055959422 0.059665564
000290 86 67 67 3d fb 32 ce bc 0c 9b 76 bd 85 de 1b bd
       0.056495212 -0.025170794 -0.060206458 -0.038054008
0002a0 bf 16 86 bc 58 31 06 3c 0a 37 2f bd 7e 23 95 3c
       -0.016368268 0.008190475 -0.0427771 0.0182054
0002b0 1c dc 52 3d f2 d4 17 3c 5e 69 53 3d 6b d2 23 bd
       0.051479444 0.009267079 0.051614158 -0.039995592
0002c0 a5 ae 76 bc ae 4f 4f 3d 33 3a ed bc 12 0b 19 3d
       -0.015056287 0.050613098 -0.028958416 0.037364073
0002d0 dd 0e 97 bc 06 42 33 bc ab 7f 22 3d d9 f0 be bc
       -0.018439705 -0.010941034 0.039672535 -0.023308204
0002e0 9d de 05 3d 9f fc e5 bc 7e a3 eb bc 61 ca 91 bc
       0.032683004 -0.02807456 -0.028764483 -0.017796697
0002f0 e5 ad 9c 3c e7 d3 3e 3d 08 fd 1a 39 2d e7 db bc
       0.019125888 0.046588805 0.00014780846 -0.026843632
000300 29 5d e3 3b 26 7b fb bb b2 b5 4c 3c 94 83 fe 3b
       0.006938596 -0.0076745925 0.012494491 0.00776715
000310 f1 0e de bc 4a 4a bb bc 5e 17 5e bd 94 31 01 bd
       -0.027106734 -0.022862572 -0.054221503 -0.031541422
000320 68 e8 53 3d 82 70 13 bc 7f 22 d5 bc 89 ac dd ba
       0.05173531 -0.008998992 -0.026017426 -0.0016912381
000330 bf 4d 5b bd 70 76 69 3d c9 7b 1f 3d 5b bd 37 3d
       -0.05354094 0.056997716 0.03893641 0.044858318
000340 b4 b1 3a 3d 02 ba 73 3d 06 4c 2f 3c 1c ad 80 bd
       0.045579627 0.059503563 0.010699278 -0.06283018
000350 ad 8f 69 bd f9 8c 16 3c 82 26 2a 3d 8d 8e 47 3d
       -0.057021786 0.009188884 0.04154063 0.04871993
000360 89 38 d7 3c 5f d1 42 3d c8 26 6f 39 bb 0d 45 bd
       0.026272075 0.047562953 0.00022807263 -0.048108798
000370 9e 80 10 bd b7 29 38 3d a8 d6 82 bd fa 81 d2 3c
       -0.03527891 0.044961657 -0.06388599 0.025696743
000380 9e 9a 5c bd dd a6 4e bd 96 83 3d 3d 6f 75 1b 3d
       -0.053858392 -0.050452102 0.04626807 0.03795379
000390 23 2a 50 bd 0c 2a 27 bd a0 51 31 bc db e3 dd bc
       -0.050821435 -0.040811583 -0.010822684 -0.027086189
0003a0 fe 0f 1b 3c f4 ce 1d bc 90 52 be 3c 70 28 b2 bc
       0.009464262 -0.009631861 0.023232728 -0.021747798
0003b0 e8 f6 34 3d 22 b6 68 3d 61 d0 3d 3c 1a 05 44 3d
       0.04418078 0.05681432 0.011585326 0.047856428
0003c0 e8 bb e5 3c c3 f2 98 3c ab e9 33 3c 04 5d c6 3a
       0.028043702 0.018670445 0.010981004 0.0015133922
0003d0 86 ae 08 3d 1a 5f 81 bd e1 42 0e 3d ad c2 ae 3c
       0.033369564 -0.06316967 0.03473175 0.021333063
0003e0 81 05 79 bd 80 fb fc bc 96 54 47 3d da e3 71 bc
       -0.060796265 -0.030881643 0.04866465 -0.014763797
0003f0 a8 bd 43 3d 61 f6 1d bd 3c 05 35 3d 29 58 86 3c
       0.047788292 -0.038565043 0.044194445 0.01639946

bias f4 [128]
000000 e1 c2 69 bc 72 0c 08 3d 0c 62 21 3d fc ca 57 3b
       -0.014267654 0.033214994 0.039400145 0.0032927385
000010 a3 4d 4e 3b 5e 7f c0 bb 4d f3 28 3c f3 34 24 bb
       0.003147938 -0.0058745584 0.010311914 -0.0025055974
000020 e6 90 dc 3b 07 3c f0 3c d1 91 35 ba 44 9b 72 bc
       0.0067311404 0.029325498 -0.00069263304 -0.014807526
000030 a6 25 25 bd e4 20 3a 3d 6f 10 5e bd e8 7f cd 3c
       -0.040319107 0.045441523 -0.05421489 0.025085405
000040 0a a9 b4 bc 8e 0c fa bc 84 ec 8c bc 4c 34 34 bd
       -0.02205326 -0.030523565 -0.017202623 -0.043995187
000050 65 c4 e0 3c 2a fe 25 bd 9f 27 50 bd 83 53 c4 3c
       0.027437398 -0.040525593 -0.050819036 0.023965603
000060 d9 75 70 3c 45 63 1f 3d ce 41 01 3d 95 71 69 bc
       0.014676535 0.03891303 0.031556897 -0.0142482715
000070 51 a5 54 bd 40 a7 3d bc 9a 0b 6b bc 9d b7 81 3d
       -0.05191547 -0.01157552 -0.014346028 0.063338496
000080 e6 45 09 3d 0c f4 15 3d f8 9d 2a bb fe 7c a2 ba
       0.033513926 0.036609694 -0.0026034098 -0.001239687
000090 e0 90 15 bd 4b c6 75 3d 6b a1 db 3c 36 26 51 3b
       -0.036515117 0.06000356 0.026810369 0.0031913645
0000a0 53 bf 0c bd 5c f1 66 bd 8b 1f 25 bc e1 d8 12 bd
       -0.03436215 -0.056382522 -0.010078321 -0.035851363
0000b0 e7 f1 b5 bc 95 26 76 3d 81 69 da bc 18 49 28 3d
       -0.022210075 0.06009539 -0.026661636 0.041085333
0000c0 d0 dd 65 bd 8b 9b 56 3d 32 50 4b 3d 2b 91 91 bb
       -0.05611974 0.05239443 0.049637027 -0.004442354
0000d0 a9 17 3c bd 8e 9f 71 3d b6 5b 7c bd 45 56 a9 bc
       -0.045921 0.058990054 -0.0616109 -0.02067102
0000e0 d8 ad d7 bc 05 07 43 3d 8b 23 e8 bc fb e9 c3 3c
       -0.026328012 0.047614116 -0.02833726 0.023915282
0000f0 8a 42 0b bd 7f ce 02 bd 07 a4 20 3d cf 91 0f 3c
       -0.033999003 -0.03193521 0.03921893 0.008762791
000100 7a e2 79 3c 92 04 39 3c 0d e2 06 3d aa 76 f7 bc
       0.01525175 0.011292594 0.032930423 -0.03020795
000110 ad 80 43 bb 07 d6 ea bc 2b 95 60 3d 55 71 ba 3b
       -0.0029831335 -0.02866651 0.054829758 0.0056897798
000120 ac 4c 53 bd eb 8c 9e bc 21 03 6f bd 4c e0 07 bd
       -0.051586792 -0.019354304 -0.058352593 -0.03317289
000130 1f 7d 8c 3b 02 14 10 bc 84 50 aa bb 19 05 5a 3c
       0.0042873765 -0.008793833 -0.0051975865 0.013306879
000140 91 e6 7d 3c 86 0f 4a 3d 40 70 11 3d 70 4b ce bc
       0.015496866 0.04933121 0.03550744 -0.025182456
000150 a1 bc 14 bd df f9 f2 3c dd cd cb 3c e2 70 31 3d
       -0.036312703 0.029660163 0.024878437 0.043320544
000160 eb f8 b2 3c 67 ec ca 3c 15 99 fd bc 18 9f 40 3d
       0.021847209 0.024770929 -0.030956784 0.047026724
000170 18 50 31 3d 6b 7b 24 bc 99 8a aa bc b7 2f c2 bc
       0.043289274 -0.010039191 -0.020818042 -0.023704393
000180 84 d0 af 3c d8 e9 cb bb 98 cc f5 3c 3e 98 0b bd
       0.021461733 -0.0062229447 0.030004784 -0.034080736
000190 88 6d 14 bd f0 32 71 3d ee 23 f2 bc be a4 21 bb
       -0.03623727 0.05888647 -0.029558148 -0.0024664844
0001a0 0a 38 85 3c e4 a9 e7 3c e7 65 8c bc b6 5f 6e bd
       0.016262073 0.028279252 -0.017138435 -0.058196746
0001b0 a0 7c db bc b7 de 6b 3d 95 52 88 3c d8 d1 68 3d
       -0.026792824 0.057585444 0.01664094 0.056840748
0001c0 90 b9 34 3c ad a8 e9 3c d7 ee 99 3c 76 3e 95 bc
       0.01103057 0.028522814 0.018790646 -0.01821826
0001d0 c9 99 19 bd 22 16 24 3d 97 7e 20 3d 39 27 22 bc
       -0.037500177 0.04006017 0.039183225 -0.009897047
0001e0 60 97 a1 3c fb 90 09 3d 9f db 45 bd a1 69 02 3d
       0.019725502 0.03358553 -0.04830515 0.031839017
0001f0 a8 fc 80 3d 36 81 38 bd ce a9 d7 bc ac 63 45 3c
       0.0629819 -0.0450451 -0.026326086 0.012047689

weight f4 [5, 256]
000000 5a 06 ae bc a5 59 f5 3c b1 0a 37 bd e6 60 55 bd
       -0.021243263 0.029949972 -0.04468793 -0.052094363
000010 ee 5f 36 3d 09 40 5a 3c 98 87 66 bd 83 c3 60 bd
       0.04452508 0.013320931 -0.056281656 -0.054873955
000020 db d9 51 bd 76 69 5a bd 3b e3 30 bd 72 e9 0f bd
       -0.051233154 -0.05332323 -0.043185454 -0.03513474
000030 ed 0e 89 3c 5e d9 3d 3c 53 8f 20 3d 8e 78 54 bd
       0.01673075 0.011587469 0.039199185 -0.051872782
000040 90 56 cb 3c 40 a4 c5 3c 1a c1 0f 3d 3d b2 9c bc
       0.02482155 0.024126172 0.035096265 -0.01912796
000050 14 b3 83 3c 47 f0 0b 3d ff 70 51 bd 3c 7e 07 3c
       0.016076602 0.034164693 -0.051133152 0.008269843
000060 7b f9 4e 3c c9 25 86 3b 4c a7 7c 3a be c6 c6 bc
       0.012632723 0.00409386 0.0009637966 -0.02426469
000070 84 aa 20 3d 8f 5a 03 3d 12 fa 33 3d 3b 0a 03 bd
       0.039225116 0.032068785 0.043939658 -0.03199218
000080 c8 33 4b bc 20 05 de bc 28 bd 73 bc b1 fd 58 3c
       -0.012402482 -0.027102053 -0.014876641 0.0132440785
000090 c6 33 20 3d 7e 79 c5 3a c1 0f ea 3c 61 b4 47 bd
       0.039111875 0.0015066115 0.028571965 -0.048756007
0000a0 82 86 d4 bb 87 68 54 bd 90 9b 23 3d a4 05 6e bd
       -0.006485761 -0.051857498 0.039943278 -0.058110848
0000b0 82 aa dc bc 47 e1 f9 bc 88 f4 f2 b8 d8 f0 8e 3b
       -0.026936773 -0.030502928 -0.00011585007 0.004362207
0000c0 6f a9 71 bc 09 b0 71 3d 31 02 8f 3c 53 15 03 3c
       -0.014749869 0.05900577 0.0174571 0.00800069
0000d0 fc 20 9e bc e6 b6 a7 3c 05 4d 31 3d 23 d9 96 bc
       -0.019302838 0.020472955 0.043286342 -0.018414086
0000e0 9c 7b 41 3d da 91 18 bd 57 5c ee 3c ac 70 5c 3d
       0.047237024 -0.03724847 0.029096765 0.05381839
0000f0 00 88 38 3d e8 c0 43 bd dc 26 a1 bb 24 4b 60 bc
       0.045051575 -0.04779139 -0.0049179625 -0.01368979
000100 81 18 88 3c e6 c2 5c bd 8a e7 60 3b f2 12 1e 3d
       0.016613247 -0.053896807 0.0034317696 0.038592286
000110 e4 00 01 bd b2 96 b4 bb a1 f7 46 bc 8a be 2c 3d
       -0.03149499 -0.0055111283 -0.012144 0.0421739
000120 ce d6 1f bc 80 03 a3 bc 0b 12 1c bd f6 0d 75 bd
       -0.009755803 -0.01989913 -0.038103145 -0.059827767
000130 db d9 1c bc c1 d5 23 bb d8 8a 35 3c 38 40 68 bd
       -0.009573425 -0.0024999233 0.011080466 -0.05670187
000140 a6 63 2f bb 1d de 38 3d 34 c4 5d 3c 24 09 69 3a
       -0.0026762276 0.0451337 0.013535548 0.00088896067
000150 b7 4b 56 3b a8 77 13 bd 89 dc 47 3c 60 0c 5f bd
       0.0032698938 -0.036002785 0.012198576 -0.05445516
000160 de 60 12 3c 65 31 f1 bc 8f 16 7b bd 72 b8 df 3a
       0.008934228 -0.029442498 -0.06130081 0.0017068519
000170 3b 76 4b 3a 7e 17 71 3d 28 f2 0f bd 92 d7 5d 3d
       0.0007761453 0.058860295 -0.035143048 0.054160662
000180 9a 9c 54 bd 0f 15 a1 bc 3c 6d ef bb 4e bf 20 bd
       -0.05190716 -0.019663362 -0.007306723 -0.039244942
000190 9a 2a f7 3c 88 52 c7 bb 41 80 44 bc cc 0c 2f ba
       0.030171681 -0.0060828365 -0.011993469 -0.0006677627
0001a0 ea 35 19 bd d8 67 e0 3b 2d 44 04 bd c0 37 b3 3b
       -0.037404932 0.0068483166 -0.03229158 0.0054692924
0001b0 74 ff 52 bb 52 c2 52 3d 5d f2 03 3d 4a 2f 2d bc
       -0.003219572 0.05145485 0.032213558 -0.010570357
0001c0 5b c1 34 3d 32 55 69 bc 2e ce 01 3c 80 93 a5 37
       0.04412971 -0.014241504 0.007922692 1.9738218e-05
0001d0 6f ab 61 bc 86 72 92 bc 55 a2 25 bd c2 6f f5 3b
       -0.013773783 -0.017876875 -0.040438015 0.007490129
0001e0 77 68 54 bd d6 11 2c 3d 0c 2a 34 3c 10 c6 77 3c
       -0.051857438 0.042009197 0.010996353 0.015122905
0001f0 9e 77 df 3c 33 17 53 bd 87 29 62 bd b8 75 99 3c
       0.027278718 -0.051535796 -0.055215385 0.01873289
000200 2c c2 09 bd 33 42 de 3c db cc 50 3d e8 ca 83 bc
       -0.033632442 0.027131176 0.050976615 -0.016087964
000210 f2 66 db bc 8e 7a d7 3b ca a0 78 3d 3f e2 56 3c
       -0.026782487 0.006575889 0.060700215 0.013115465
000220 f7 b4 17 bd 48 01 40 bc 8c e3 c8 bb 97 f4 26 3d
       -0.037037816 -0.0117190555 -0.0061306413 0.040760603
000230 58 fc 87 3c 2a 48 13 3d 60 05 97 bc ca 20 6e bd
       0.016599819 0.035957493 -0.01843518 -0.05813674
000240 c4 b0 01 3d e8 79 90 3c 2c 0b 6f 3c c8 29 0b bd
       0.031662717 0.017636254 0.014590066 -0.033975393
000250 8a 2a 75 3d f5 1d 6c bd c7 7d 37 3d 06 d0 6b 3c
       0.05985502 -0.057645757 0.044797685 0.014392858
000260 a6 81 05 bd ae 14 d7 bc bf df 42 bd ef 47 16 3d
       -0.032594346 -0.026254978 -0.047576662 0.036689695
000270 4f 74 78 3c cf c3 65 3d 0e c2 8d bb 4b 9d 62 bd
       0.015164449 0.05609494 -0.0043261116 -0.055325788
000280 06 96 47 3d dd d8 2d bd 7a a5 96 bb 19 5b 89 bc
       0.048727058 -0.042443145 -0.004597363 -0.016767072
000290 e6 54 6b 3d 8f f1 a6 bc 8c 0c 56 3d 48 a1 df 3c
       0.057454012 -0.020378856 0.05225806 0.027298585
0002a0 84 ef 06 3d fb 4f f5 3c fa 11 c8 bc e8 b1 95 bc
       0.032943264 0.029945364 -0.024422634 -0.018273309
0002b0 f4 9c 11 3d 94 05 2e bd e0 19 52 bd 5e 25 b4 bc
       0.035550073 -0.04248579 -0.051294208 -0.021990474
0002c0 ee 13 f0 bc e5 94 14 3d 99 22 f8 bc e4 9b d0 3b
       -0.029306378 0.03627481 -0.030289935 0.00636624
0002d0 45 c7 c0 bc 28 eb 8f bc 57 18 73 3d 01 fa c7 3c
       -0.02353252 -0.017568186 0.059349384 0.024411203
0002e0 37 14 11 bd 10 fa 0b 3b 26 51 13 bd 3d 8d c3 3c
       -0.03541967 0.0021358766 -0.03596606 0.023871059
0002f0 f7 84 3f bd 70 1d 15 bd 8d 8f 4d 3d 8e a8 e3 3c
       -0.046757665 -0.036405027 0.05018573 0.027790334
000300 0c fb 01 bd ef b6 71 3c d2 67 37 3d 27 74 50 3c
       -0.031733558 0.014753087 0.044776745 0.012723005
000310 d6 3e 37 bc e5 45 41 3c 82 ed a2 bb cc 21 28 3d
       -0.011184415 0.011796449 -0.004972161 0.041047856
000320 e2 83 27 bd 44 87 b2 3a db 67 4f 3d b8 cf 23 bc
       -0.040897258 0.0013620635 0.050636154 -0.0099982545
000330 7c 4b 38 3d 7d 60 6c 3c 4b 76 15 3c a5 b4 8d bc
       0.044993863 0.0144273015 0.0091224415 -0.017298052
000340 f7 6f d4 3c 92 4a fd bc e4 20 ec bc 63 27 23 3d
       0.025932295 -0.030919347 -0.028824277 0.039832484
000350 2a de a9 bb 02 7c 78 bd 8a d6 4a bd d2 87 0a bd
       -0.0051839547 -0.060665138 -0.049521007 -0.033820935
000360 cc ee 83 3d b9 b6 cb 3b 94 ab 02 3d 43 27 15 bd
       0.06442031 0.0062168506 0.03190191 -0.036414396
000370 f0 07 2f bc 13 d5 a9 bc b4 d5 c8 bc d7 7b 57 3d
       -0.010683045 -0.020731485 -0.024515964 0.052608337
000380 18 51 1a 3d ce e2 b7 bc 76 ba 6a 3d a4 4f 41 bb
       0.037674993 -0.022447016 0.05730673 -0.0029496932
000390 c0 c3 a1 3c f1 eb 4d bd 60 7a 24 3d 9e 30 81 3c
       0.019746661 -0.05027384 0.04015577 0.015770253
0003a0 cf 35 40 3d ba 62 f8 3c ff 51 e4 3c 23 1d 44 3c
       0.046926316 0.030320514 0.02787113 0.011969837
0003b0 a3 bb 5d 3d 77 02 a5 3b c1 64 46 bd 88 7b 83 3c
       0.054134022 0.005035694 -0.04843593 0.016050115
0003c0 80 cc 71 3d b5 01 82 3b 99 f1 34 3d 66 77 2a 3d
       0.059032917 0.0039674887 0.044175718 0.041617773
0003d0 0e 48 36 bc e0 38 a6 3a 83 c3 98 bc d8 c8 e6 b9
       -0.011125578 0.0012681745 -0.018647915 -0.0004401866
0003e0 4e b2 a7 ba 8a ae 11 bd 36 f9 39 3d f2 d0 92 3c
       -0.0012794228 -0.035566844 0.04540368 0.017921899
0003f0 e6 b1 9e 3c 96 c1 19 3d 1e d8 b5 3c 4f 0e 35 3d
       0.019371938 0.037538134 0.02219778 0.0442031

bias f4 [5]
000000 d1 b8 fe bc 84 a2 3a bb 3a 7c f7 3c c3 07 94 bc
       -0.031093987 -0.0028478215 0.030210603 -0.018070107
000010 0d e3 0e 3d
       0.0348845
