E-GraphSAGE/netflow/bot-iot/EdgeGATKAN_multiclass_v2_best_model.pth (torch, 177817 bytes, 11 tensors)

attn_l f4 [1, 8, 39]
-0.071638845 -0.056730475 -0.120823614 0.15837365 -0.30333126 0.038653776 0.03465915 -0.022003874
0.039705634 0.0094652325 0.16190346 -0.07380598 0.2296006 -0.20930219 -0.09398243 -0.17559958
-0.24806044 0.042626955 0.089597 0.12454577 -0.070407405 0.019564569 -0.050200596 0.05796281
0.06390308 -0.08159588 0.09806832 0.05633239 0.073301636 0.049888052 0.07115128 0.012052564
-0.049318686 -0.07553246 0.08880929 -0.0062456084 -0.0076278527 0.011364513 0.044903874 0.15175708
-0.043297064 -0.07149822 -0.02286786 -0.05186615 0.019389594 -0.034309026 -0.117579915 -0.011555305
-0.071158774 0.02397214 0.31026495 -0.19581594 0.009568404 -0.16718511 0.1265516 0.008613026
-0.06565748 0.060732868 0.04030954 -0.06696606 -0.040322922 0.13259064 -0.20513205 -0.08151967
-0.05932214 0.07988056 0.19499676 0.02794997 0.020222336 0.19356729 0.0515537 0.016027944
0.007905978 -0.06523351 0.043389242 -0.07344124 -0.010985684 0.054578777 -0.02393895 0.020045957
0.080371186 0.18420605 -0.037918404 -0.020276144 0.19213071 -0.08828354 -0.06457461 0.061026044
0.059622575 -0.11588822 0.033785794 0.054638088 0.11121214 0.030989103 -0.026357897 0.12674437
-0.038796768 -0.24562167 0.110551395 0.0153799895 0.025831766 0.1251995 0.18620275 -0.08291099
-0.15869813 0.017225094 0.042804223 -0.19488324 0.022702234 -0.079873204 -0.09579435 0.13121438
-0.039157957 0.088195585 0.03841042 0.009532315 0.16488865 -0.029905913 -0.03966419 -0.16562662
-0.056917217 0.13411789 0.20385674 0.340499 0.007516844 0.07253448 0.042551685 -0.23678616
0.035672694 0.22642198 -0.009366769 0.024661185 0.15396552 -0.044026814 -0.015282052 -0.24375647
0.043945577 0.09227136 0.024034122 -0.010777963 -0.0155406445 -0.0058625964 0.054852024 -0.013311718
-0.046388928 -0.22255105 0.026537621 -0.12672395 0.051792625 -0.043261547 0.038470373 0.06602771
-0.10674736 -0.03363513 0.012478727 -0.10073752 0.0066783847 -0.058060117 -0.11110353 -0.043633815
-0.17769566 -0.004786521 0.012648717 0.048173223 0.15941878 0.024334764 -0.0033162923 -0.07162713
0.0036238872 0.06370276 0.13419022 0.055550735 -0.052364312 -0.15514743 -0.031577576 0.0003435029
0.24199009 0.041730937 -0.06849896 0.0023818235 -0.09298065 0.12033872 0.040863603 0.10814756
0.13069649 0.07991675 0.030850027 0.0825084 -0.1636736 0.045087576 -0.14194144 0.011419676
0.09860523 0.014164484 0.0053950637 -0.018297872 0.034175076 0.13458648 0.08161505 -0.006562137
0.12867582 0.109130226 0.053226 0.09258653 0.15339857 -0.034740455 0.076075144 -0.072811924
0.007588379 -0.15391044 0.053826425 -0.089844085 0.15460166 -0.21685718 -0.008221941 0.0255796
-0.025260907 0.2407038 0.0439417 0.023611661 0.15507837 0.05437733 0.030687826 -0.076318204
0.026915872 0.2029037 0.056641947 -0.095026776 -0.06153905 -0.112393886 -0.0017962985 0.03359013
0.10588527 0.14759848 -0.10723049 0.15728249 -0.042509004 0.16260257 -0.08759732 0.11010234
-0.21520722 0.045568954 -0.1420319 0.18621188 -0.01069487 -0.10338294 0.00466721 -0.15358368
0.29707778 0.055809747 0.09427768 -0.20419335 -0.15070386 -0.023148913 -0.23368587 -0.07331775
00000000: 63b7 92bd 375e 68bd 5f72 f7bd b42c 223e
00000010: 3c4e 9bbe 6c53 1e3d c1f6 0d3d 7841 b4bc
00000020: 60a2 223d 1014 1b3c 05ca 253e 9727 97bd
00000030: 6b1c 6b3e 5053 56be dc79 c0bd 60d0 33be
00000040: 8e03 7ebe 9a99 2e3d a27e b73d da11 ff3d
00000050: c231 90bd e045 a03c 249f 4dbd 696a 6d3d
00000060: 9edf 823d be1b a7bd 0bd8 c83d cbbc 663d
00000070: 2b1f 963d 6a57 4c3d c3b7 913d 1e78 453c
00000080: 6402 4abd c3b0 9abd a5e1 b53d f6a7 ccbb
00000090: 11f3 f9bb 3932 3a3c 20ed 373d 3566 1b3e
000000a0: 4358 31bd a96d 92bd 6155 bbbc 9a71 54bd
000000b0: edd6 9e3c 9f87 0cbd bdcd f0bd 7652 3dbc
000000c0: b1bb 91bd 3961 c43c 0cdb 9e3e f983 48be
000000d0: ccc4 1c3c 9332 2bbe be96 013e a61d 0d3c
000000e0: 6e77 86bd 07c3 783d 9e1b 253d 8025 89bd
000000f0: a629 25bd d7c5 073e 230e 52be c9f3 a6bd
00000100: c6fb 72bd 6b98 a33d 3bad 473e 56f7 e43c
00000110: 50a9 a53c 8136 463e f929 533d 094d 833c
00000120: 1388 013c 2699 85bd ebb8 313d 5c68 96bd
00000130: 4cfd 33bc ff8d 5f3d 9e1b c4bc 6b37 a43c
00000140: a699 a43d 83a0 3c3e 5450 1bbd 281a a6bc
00000150: eabd 443e 00ce b4bd b13f 84bd 72f6 793d
00000160: cd36 743d ce56 edbd f962 0a3d 30cc 5f3d
00000170: 31c3 e33d dcdc fd3c 84ec d7bc 47c9 013e
00000180: 5ce9 1ebd 3f84 7bbe c568 e23d 5afc 7b3c
00000190: 249d d33c 4c34 003e efab 3e3e 3dcd a9bd
000001a0: c381 22be a41b 8d3c 7b53 2f3d 798f 47be
000001b0: 09fa b93c 9094 a3bd d42f c4bd 105d 063e
000001c0: 1864 20bd e39f b43d 3f54 1d3d 6d2d 1c3c
000001d0: 92d8 283e 3ffd f4bc eb76 22bd 069a 29be
000001e0: 0722 69bd 3356 093e d2bf 503e e355 ae3e
000001f0: dc4f f63b f58c 943d ad4a 2e3d 1278 72be
00000200: 881d 123d 2adb 673e 1477 19bc 4106 ca3c
00000210: 23a9 1d3e 7655 34bd 9261 7abc 4c9b 79be
00000220: 4700 343d c4f8 bc3d 35e3 c43c 0e96 30bc
00000230: 309e 7ebc 061b c0bb 84ac 603d 6419 5abc
00000240: 5102 3ebd 6ce4 63be 6d65 d93c ecc3 01be
00000250: 8124 543d 0533 31bd 1c93 1d3d 8939 873d
00000260: 5c9e dabd fdc4 09bd 9373 4c3c 794f cebd
00000270: 5ad6 da3b 72d0 6dbd 3f8a e3bd 5fb9 32bd
00000280: daf5 35be 40d8 9cbb 903c 4f3c 4951 453d
00000290: ad3e 233e b359 c73c 2756 59bb 3fb1 92bd
000002a0: bd7e 6d3b 9876 823d 2969 093e 2b89 633d
000002b0: f67b 56bd f8de 1ebe 7d57 01bd 2e18 b439
000002c0: 40cc 773e 0fee 2a3d 2f49 8cbd 5e18 1c3b
000002d0: a46c bebd 2674 f63d 9860 273d 787c dd3d
000002e0: 4dd5 053e 65ab a33d 32b9 fc3c 2afa a83d
000002f0: 0d9a 27be c0ad 383d 1959 11be 9819 3b3c
00000300: 8af1 c93d 2712 683c 13c9 b03b 6be5 95bc
00000310: 2afb 0b3d 0ad1 093e cb25 a73d 3207 d7bb
00000320: 98c3 033e ab7f df3d 8203 5a3d 029e bd3d
00000330: 8414 1d3e 024c 0ebd 49cd 9b3d 6b1e 95bd
00000340: f0a7 f83b b39a 1dbe 1979 5c3d 2d00 b8bd
00000350: e64f 1e3e cf0f 5ebe 52b5 06bc 4f8c d13c
00000360: f6ef cebc 0f7b 763e 36fc 333d 3e6d c13c
00000370: ddcc 1e3e c3ba 5e3d 0965 fb3c b84c 9cbd
00000380: ad7e dc3c fdc5 4f3e 6301 683d 669d c2bd
00000390: 5f10 7cbd c42e e6bd c771 ebba ce95 093d
000003a0: 60da d83d 0e24 173e a99b dbbd a90e 213e
000003b0: ec1d 2ebd 4a81 263e 3966 b3bd 567d e13d
000003c0: 485f 5cbe 83a6 3a3d cf70 11be 54ae 3e3e
000003d0: 8939 2fbc 6fba d3bd 65ef 983b 0a45 1dbe
000003e0: 941a 983e c398 643d a814 c13d 1018 51be
000003f0: 1d52 1abe caa2 bdbc 594b 6fbe 9e27 96bd

attn_r f4 [1, 8, 39]
0.0142725045 -0.12253711 -0.03144266 0.06394919 -0.08234008 -0.17355722 0.026727278 0.04463355
0.01990235 -0.054779798 -0.09508152 -0.016933057 0.06899577 -0.10312428 0.07155162 0.23117901
0.08811447 -0.095232084 -0.024200333 -0.025165852 0.08441533 -0.049434878 -0.13959602 -0.029056208
0.1666207 0.010247443 -0.26942697 -0.03836491 0.022228235 0.017584775 -0.15788943 0.0021434284
-0.035002127 0.06308788 -0.021139286 0.02545724 0.17219453 -0.14365269 -0.15826842 0.12857303
-0.23899305 0.028026504 0.14274472 0.069155924 0.027633984 -0.027915196 0.06475797 -0.050560627
0.090925954 0.15435193 -0.115974426 -0.1331621 -0.036848694 0.10469408 0.22005075 -0.10720154
0.0963907 0.18695441 -0.123025 -0.07941761 0.1084928 -0.10755962 0.048906904 0.023809424
0.2101522 -0.060487445 -0.064113766 -0.13813893 -0.060115382 -0.08669165 -0.0029871294 0.10141162
-0.08318046 -0.056969084 -0.08769657 0.08839746 0.03951604 -0.028654085 0.10809549 0.01800307
-0.013194487 0.019501753 0.014333406 -0.026279632 -0.059805002 0.11356914 -0.2490881 -0.0032663392
0.1886845 -0.17640626 0.17110355 -0.08566787 0.09154747 0.055311054 0.01808876 -0.05463537
0.10786462 -0.010223288 -0.044046365 -0.09379358 0.038536914 0.050987333 0.021746075 0.046746414
-0.048316613 -0.07743784 0.018615002 0.09638883 0.048874818 -0.13358197 -0.0032999138 0.09895425
0.2348967 -0.14367165 0.014792636 0.056452166 0.14804609 -0.07689631 -0.31351918 0.030155346
-0.053848 -0.07034551 -0.1816855 -0.13981158 0.23506558 -0.07058037 0.0570742 0.010592667
-0.14492744 0.033973265 -0.051643923 -0.029323395 0.041084196 -0.1807994 -0.06534916 -0.071699694
0.11393235 0.3061578 0.13318308 -0.02309618 -0.036618344 -0.024704624 -0.1975861 0.08868888
0.025598738 0.08847682 -0.04237772 0.13824576 0.06510707 0.061114 0.18970956 0.036951244
-0.11955234 -0.2084814 -0.20769098 -0.084565945 0.03284427 -0.051967893 0.10234286 -0.07552829
0.014213018 -0.09615225 -0.013739882 -0.0047769826 -0.03214654 0.14937314 -0.1422964 -0.2518661
0.09253563 0.08486476 -0.12254316 0.078548856 -0.09924067 -0.019973012 -0.08389726 -0.08918671
0.012408756 -0.21493697 -0.049853653 0.013550334 0.08794089 -0.20864983 0.05063064 0.28120825
0.04833391 0.08438497 0.03825679 -0.12706524 0.22569796 0.021641059 0.12070413 -0.0803149
0.06727035 -0.13135879 -0.10009011 -0.062957466 -0.067366056 0.11288431 -0.16939794 -0.059555676
0.14673173 -0.12227148 -0.174034 0.020539619 -0.11345275 -0.034950588 -0.09152482 -0.015639141
-0.030173013 -0.10598135 0.06569376 0.040168487 0.045972582 -0.015724912 -0.03511779 0.10944181
-0.09410637 -0.07717341 0.013006846 -0.15734458 -0.065910995 0.008375987 0.24758063 -0.04233247
0.014679545 -0.011411066 -0.19809361 0.10337338 -0.0128992 -0.029201215 0.05793276 -0.05027217
0.07101876 0.07733955 0.19818534 -0.17958263 -0.025580328 -0.15704629 -0.04513926 0.028265353
0.007882717 0.1020447 0.11030865 0.039142743 -0.025865158 0.07966618 0.114987865 0.018223854
0.02673067 -0.008819622 -0.03653896 0.060242847 -0.16121499 -0.18749349 -0.15388899 0.01654736
00000000: 39d7 693c bcf4 fabd 05ca 00bd cbf7 823d
00000010: eaa1 a8bd fcb8 31be 2af3 da3c abd1 363d
00000020: 410a a33c c860 60bd 1aba c2bd 32b7 8abc
00000030: a74d 8d3d d332 d3bd a889 923d 31ba 6c3e
00000040: 5c75 b43d 0a09 c3bd c73f c6bc 9e28 cebc
00000050: f2e1 ac3d 3a7c 4abd 42f2 0ebe 4907 eebc
00000060: 9e9e 2a3e e4e4 273c 55f2 89be 8624 1dbd
00000070: fd17 b63c f20d 903c c4ad 21be c378 0c3b
00000080: 645e 0fbd 3834 813d 4c2c adbc b48b d03c
00000090: c353 303e b119 13be 1e11 22be a6a8 033e
000000a0: 98ba 74be d797 e53c ac2b 123e 9fa1 8d3d
000000b0: aa60 e23c 69ae e4bc d49f 843d a918 4fbd
000000c0: 6337 ba3d 6f0e 1e3e 0084 edbd a55b 08be
000000d0: a8ee 16bd da69 d63d fc54 613e 7b8c dbbd
000000e0: 7d68 c53d fa70 3f3e 88f4 fbbd b3a5 a2bd
000000f0: 7931 de3d 3848 dcbd 9b52 483d fb0b c33c
00000100: 2332 573e afc1 77bd 144e 83bd 4b74 0dbe
00000110: 8c3b 76bd 648b b1bd b7c3 43bb e5b0 cf3d
00000120: 845a aabd 6a58 69bd 429a b3bd ba09 b53d
00000130: 92db 213d f9bb eabc 2b61 dd3d 2d7b 933c
00000140: b12d 58bc 24c2 9f3c aad6 6a3c 6248 d7bc
00000150: 17f6 74bd f096 e83d f310 7fbe 1410 56bb
00000160: 8236 413e d8a3 34be c535 2f3e a372 afbd
00000170: 3d7d bb3d d88d 623d e12e 943c 56c9 5fbd
00000180: 20e8 dc3d 947f 27bc f669 34bd d916 c0bd
00000190: e2d8 1d3d 18d8 503d d324 b23c 2b79 3f3d
000001a0: a4e7 45bd bb97 9ebd 7d7e 983c 8267 c53d
000001b0: f630 483d b6c9 08be 5e43 58bb 87a8 ca3d
000001c0: c388 703e a91e 13be d05c 723c 633a 673d
000001d0: 6599 173e d07b 9dbd 9685 a0be 5808 f73c
000001e0: b88f 5cbd 4f11 90bd c40b 3abe c42a 0fbe
000001f0: 08b5 703e 718c 90bd a3c6 693d de8c 2d3c
00000200: dc67 14be 8d27 0b3d 9488 53bd 9e37 f0bc
00000210: e747 283d 7a23 39be c8d5 85bd 4ad7 92bd
00000220: 5d55 e93d b7c0 9c3e 2561 083e 3334 bdbc
00000230: 1efd 15bd 5a61 cabc 0354 4abe 84a2 b53d
00000240: 72b4 d13c 5633 b53d 4394 2dbd 4c90 0d3e
00000250: db56 853d ac52 7a3d 3943 423e 305a 173d
00000260: dbd7 f4bd 267c 55be f2ac 54be e930 adbd
00000270: b787 063d 49dc 54bd 2299 d13d 93ae 9abd
00000280: b8dd 683c 79eb c4bd 3e1d 61bc 3c88 9cbb
00000290: 17ac 03bd 46f5 183e 26b6 11be 98f4 80be
000002a0: 5283 bd3d 93cd ad3d e9f7 fabd 39de a03d
000002b0: b13e cbbd 719e a3bc 54d2 abbd 86a7 b6bd
000002c0: 184e 4b3c 7018 5cbe 5833 4cbd 3802 5e3c
000002d0: 5a1a b43d 4da8 55be 1362 4f3d 87fa 8f3e
000002e0: c7f9 453d 07d2 ac3d 27b3 1c3d 641d 02be
000002f0: 5e1d 673e 9748 b13c ba33 f73d 237c a4bd
00000300: 0ac5 893d eb82 06be 0bfc ccbd d8ef 80bd
00000310: 37f7 89bd e42f e73d a776 2dbe a7f0 73bd
00000320: d840 163e 7869 fabd f835 32be b442 a83c
00000330: ea59 e8bd 5928 0fbd 5d71 bbbd a81d 80bc
00000340: 652d f7bc c00c d9bd 738a 863d b687 243d
00000350: bf4d 3c3d 88d1 80bc acd7 0fbd 0723 e03d
00000360: d7ba c0bd 180d 9ebd ab1a 553c f01e 21be
00000370: 58fc 86bd 703b 093c c785 7d3e d064 2dbd
00000380: 7982 703c 7bf5 3abc 0dd9 4abe 6cb5 d33d
00000390: 2b57 53bc 6337 efbc e74a 6d3d 31ea 4dbd
000003a0: 4972 913d 3364 9e3d 19f1 4a3e 82e4 37be
000003b0: d68d d1bc bed0 20be f2e3 38bd be8c e73c
000003c0: 8326 013c d0fc d03d 80e9 e13d 2454 203d
000003d0: 2be3 d3bc 0628 a33d c27e eb3d 314a 953c
000003e0: 47fa da3c 2d80 10bc e0a9 15bd 34c1 763d
000003f0: 8b15 25be 4bfe 3fbe 1395 1dbe 548e 873c

bias f4 [312]
0.0037649127 0.0038872715 -0.0036790096 -0.0013990942 0.0039333506 0.0027350252 0.0040040514 0.003968791
0.0032923415 -0.0037172884 -0.003279964 0.0039944383 -0.0016283868 0.0033491757 -0.0039132643 0.0011075891
-0.00039412122 0.003603694 -0.0039727218 -0.0011397419 0.00058088603 0.0037778537 -0.0039568017 -0.00085567095
-0.003820357 -0.0028098593 -0.0038067563 -0.003909991 0.0034191555 -0.003603919 0.0034938264 -0.0038208463
0.0037624147 -0.00083118473 -0.003929079 -0.003069436 0.0034049344 -0.0039296434 -0.0039351913 0.0037966184
0.0039881617 -0.0038437434 -0.0029267895 0.0040034014 0.0031054225 0.0039512133 0.003975698 0.0034776889
-0.00392987 0.003992649 0.0038703368 0.0038421084 0.0037021968 0.0039108307 -0.0031977522 -0.00056083023
-0.0039673457 -0.003755622 -0.003776364 -0.0040020607 0.00391371 0.0039888555 -0.0038712774 -0.0032616502
-0.003309283 0.00376212 -0.0003511854 -0.0032402445 0.003439562 0.0015799925 -0.0039898106 -0.001436924
-0.0039622057 -0.0039023669 -0.0011634252 0.0034745433 -0.0030666627 -0.0003421579 0.003997338 0.0037143643
0.0038333845 -0.0037451107 0.0039111758 0.0016374649 0.0027587987 0.0037152478 0.0039752475 -0.0039736424
-0.0033124394 -0.0039546196 -0.0016819512 -0.0017773211 0.00064384815 -0.0030240114 -0.00073873013 0.002667178
-0.0003060004 -0.0032478012 0.003907429 0.0039970973 0.0039750445 -0.003991156 -0.003092541 0.0040089223
0.0038782957 -0.0038763015 -0.0034555346 -0.0037957705 -0.0039741164 -0.0038979591 -0.0027337957 -0.0009855952
-0.0039998535 -0.0039377753 0.0039129215 -0.0037820362 -0.003997661 0.0038533888 0.0014520142 0.0010210539
-0.0038275332 0.0038688197 0.0015841301 -0.0030895902 -0.001487715 0.003981374 -0.00042067008 0.0040052366
0.0039941287 -0.002891616 -0.0038102646 0.0038190098 0.0039692484 0.0017625818 -0.003957871 -0.00027250167
-0.00308715 -0.0039923806 -0.0025969183 -0.0037566999 -0.00392768 -0.0033666808 -0.001558662 -0.0038111904
-0.0039839 -0.002242237 -0.003847996 0.0028761765 -0.0034347265 -0.0034033423 -0.00399034 0.0031687238
-0.0039014635 -0.0010446152 -0.0037245168 -0.0037057619 -0.000717305 0.00065472955 0.0039090845 0.0025771707
-0.003508926 0.0038072774 -0.0032057085 -0.0039818524 0.0039828154 -0.003900181 -0.0020742498 -0.0039320844
0.0039830236 0.0035954746 0.0012284608 0.0013197922 0.0021439511 0.0010366763 -0.0039973804 -0.0034266321
-0.003985691 0.0035684733 -0.0034367368 -0.0039422926 -0.003746612 -0.003722935 -0.0032194913 -0.0038887553
-0.0017636748 -0.002644369 -0.003942904 0.00394085 0.0038877535 0.00012566359 0.002610233 -0.0039903526
-0.003924802 -0.003914443 -0.0039000835 0.0038690753 0.00073716947 0.0014074192 0.003970662 0.003873448
0.0035477711 -0.0035884762 0.0040049166 0.004008061 -0.003943662 -0.0015392083 -0.0036360624 0.0035670362
0.003920238 0.0039818306 -0.0010644848 0.0019817138 0.0031212708 -0.0038793352 -0.003364314 -0.0029728469
0.0039750263 0.0039880723 0.0021178217 2.492353e-05 0.003336666 -0.00350454 -0.0039152433 -0.002727268
0.0038997717 0.0012555856 0.003866767 -0.0018839805 -0.0013951063 -0.003954755 -0.0038200675 0.0011597236
0.0011583313 -0.0032599336 0.00068525644 -0.0007982521 -0.0039143213 -0.0023705056 0.0039891135 -0.0039113113
-0.000876002 0.0039571 0.003975972 -0.00383528 -0.0021947327 -0.0021743558 -0.0020770412 0.0031756707
0.00028122886 -0.003663763 0.002847624 0.0023350255 -0.0008226152 -0.0028581924 -0.0039614113 0.003923493
00000000: c1bc 763b 98c1 7e3b 8a1b 71bb d061 b7ba
00000010: 56e3 803b 1c3e 333b 6b34 833b a20c 823b
00000020: 53c4 573b c09d 73bb aaf4 56bb c7e3 823b
00000030: 986f d5ba d87d 5b3b d73a 80bb 862c 913a
00000040: 0ea2 ceb9 f42b 6c3b 9b2d 82bb 6463 95ba
00000050: 9a46 183a de95 773b 0fa8 81bb 1b4f 60ba
00000060: f45e 7abb 9e25 38bb c67a 79bb 621f 80bb
00000070: e913 603b ba2f 6cbb aef8 643b 2a67 7abb
00000080: d892 763b dde3 59ba 81bf 80bb 9728 49bb
00000090: 5225 5f3b 3dc4 80bb c7f2 80bb b0d0 783b
000000a0: 20af 823b 50e7 7bbb 61cf 3fbb f72e 833b
000000b0: 5884 4b3b 2e79 813b 9246 823b f0e9 633b
000000c0: 24c6 80bb c4d4 823b 7aa5 7d3b e2cb 7b3b
000000d0: 8ea0 723b 6d26 803b 6191 51bb ae04 13ba
000000e0: 8200 82bb e220 76bb e07c 77bb b823 83bb
000000f0: 943e 803b f2b4 823b 42b5 7dbb 69c1 55bb
00000100: 8ee0 58bb e68d 763b 4e1f b8b9 485a 54bb
00000110: 466a 613b c017 cf3a f5bc 82bb 2b57 bcba
00000120: 64d5 81bb dabe 7fbb 127e 98ba 2ab5 633b
00000130: 10fa 48bb a863 b3b9 1afc 823b b16c 733b
00000140: 8539 7b3b 8870 75bb 5229 803b 34a0 d63a
00000150: f6cc 343b 847b 733b cb42 823b 5435 82bb
00000160: 8315 59bb c195 81bb eb74 dcba 00f5 e8ba
00000170: ebc7 283a 7e2e 46bb 57a7 41ba d2cb 2e3b
00000180: ae6e a0b9 10d9 54bb e409 803b 15fa 823b
00000190: 1741 823b 3ec8 82bb 3aac 4abb 475d 833b
000001a0: 012b 7e3b 8c09 7ebb 4076 62bb 76c2 78bb
000001b0: 4e39 82bb e774 7fbb 7b29 33bb 162f 81ba
000001c0: 3411 83bb 7408 81bb f737 803b 0adc 77bb
000001d0: d0fe 82bb 2389 7c3b 8351 be3a e2d4 853a
000001e0: 5ad7 7abb 068c 7d3b 96a2 cf3a b97a 4abb
000001f0: 6fff c2ba 3076 823b 628d dcb9 5c3e 833b
00000200: 2ee1 823b 4481 3dbb a2b5 79bb 5a48 7a3b
00000210: 7810 823b 6e06 e73a 07b1 81bb 8ede 8eb9
00000220: c851 4abb 84d2 82bb 0f31 2abb f732 76bb
00000230: c5b3 80bb 88a3 5cbb 054c ccba 2ac5 79bb
00000240: 608b 82bb 7ff2 12bb a92e 7cbb 3c7e 3c3b
00000250: 2619 61bb 9c0a 5fbb 66c1 82bb 5daa 4f3b
00000260: b2af 7fbb 78eb 88ba 0617 74bb 5edc 72bb
00000270: 8609 3cba 28a2 2b3a c717 803b c0e5 283b
00000280: 02f6 65bb 8483 793b dd16 52bb 337a 82bb
00000290: 4782 823b 2e9a 7fbb 23f0 07bb b7d8 80bb
000002a0: 0684 823b 0ea2 6b3b 4e04 a13a e1fc ac3a
000002b0: 8881 0c3b 16e1 873a 75fc 82bb 5991 60bb
000002c0: 669a 82bb 0cdd 693b e03a 61bb 592e 81bb
000002d0: b889 75bb 7cfc 73bb 1afe 52bb 7dda 7ebb
000002e0: 1b2b e7ba 264d 2dbb 7a33 81bb 3f22 813b
000002f0: aec9 7e3b 90c4 0339 7110 2b3b 81c1 82bb
00000300: a09b 80bb ba44 80bb 8b98 7fbb 5090 7d3b
00000310: 9b3e 413a 2779 b83a 541c 823b acd9 7d3b
00000320: b981 683b a42c 6bbb ad3b 833b 0d56 833b
00000330: d639 81bb 43bf c9ba 014b 6ebb f0c4 693b
00000340: 5775 803b 047a 823b 2f86 8bba a4df 013b
00000350: 3c8e 4c3b 723c 7ebb d37b 5cbb 18d4 42bb
00000360: f040 823b 60ae 823b 27cb 0a3b e012 d137
00000370: f7ab 5a3b 6dac 65bb 714b 80bb f7bb 32bb
00000380: 5093 7f3b 7692 a43a 9669 7d3b e5ef f6ba
00000390: 00dc b6ba e496 81bb 195a 7abb de01 983a
000003a0: 26d3 973a 9ca4 55bb c8a2 333a cb41 51ba
000003b0: b543 80bb 7c5a 1bbb 1cb7 823b 752a 80bb
000003c0: 80a3 65ba 90aa 813b df48 823b 5259 7bbb
000003d0: 81d5 0fbb a37f 0ebb f81e 08bb ea1e 503b
000003e0: e671 9339 be1b 70bb 349f 3a3b 3a07 193b
000003f0: c6a4 57ba 8350 3bbb bace 81bb a590 803b

attn_edge f4 [1, 8, 39]
-0.023859298 0.07683362 0.015179876 -0.0360615 -0.096768886 0.17489123 0.23709865 -0.12983398
0.07054855 0.03198394 -0.018921368 0.08136671 0.19658051 -0.14862552 0.1387894 0.07079665
-0.028155249 0.010812428 0.080150455 -0.100293964 0.11215275 0.13262491 0.052667793 -0.059138287
0.034932006 0.055747192 -0.0958048 -0.27795386 0.12931325 -0.2326785 -0.13797887 0.09319108
0.04050284 0.03819323 -0.017336652 -0.051344875 -0.061554145 0.010153678 0.13942374 0.04452708
-0.109027594 0.03389215 0.07228613 -0.111981675 -0.23615138 -0.18582499 0.032400616 0.037729196
0.12072348 -0.19302772 0.062380467 -0.11762639 0.0563419 0.080508605 0.19513889 -0.049779132
-0.090689085 -0.06734553 0.0453977 0.15748447 0.117002524 0.035474565 -0.050685383 -0.035050783
-0.046333726 -0.13246097 0.014995361 -0.07885432 0.022013057 0.074740164 -0.048024397 0.18131539
0.0628298 -0.1076004 -0.052474357 0.028943017 0.047245625 -0.20003504 -0.0027130293 -0.04416078
0.10279838 -0.1281549 0.15949348 -0.0020534308 0.086867005 0.043495122 -0.0544173 -0.097932555
-0.119643204 -0.028197099 0.045603666 -0.22283417 -0.05405651 -0.013015771 -0.0980649 0.06165281
-0.074987225 -0.15980838 -0.045059837 0.11748736 0.07112328 0.041328885 0.2547434 0.004813182
-0.016045038 0.045074664 -0.0537439 -0.14746751 0.13570936 0.11033203 -0.08074473 0.027025748
-0.013200549 0.031880204 -0.078462385 -0.0029127798 -0.05259805 -0.0849982 0.0303262 0.13837685
0.1839222 0.09062444 0.04300948 -0.07154265 0.14943112 -0.10056913 -0.0920849 0.056220826
0.085862055 0.1626167 -0.15720148 -0.08840306 -0.0832331 0.22241189 0.091919705 -0.05125635
-0.039492503 0.14952628 -0.08272856 -0.10268728 0.04349989 0.15995091 0.1520888 0.11499031
0.1023741 -0.13080586 0.030791333 -0.042707276 0.1232501 0.103347056 0.0036660938 -0.03142
0.04677073 -0.024712723 0.059345882 -0.039439164 0.08312398 -0.13930947 0.012823809 -0.06032488
-0.111364625 -0.11379965 -0.047207028 -0.024544144 0.067666814 -0.00866532 -0.106868915 -0.025096867
-0.03993096 -0.14338225 0.28398982 -0.013335477 -0.10249064 -0.0021839433 -0.08644018 -0.15542495
0.05916409 0.069269784 0.05101199 0.062094256 -0.029782454 0.0857403 0.020047689 0.008235297
-0.10699146 -0.24301961 -0.021250946 -0.034492344 -0.01022671 0.10333223 -0.07558898 0.09857211
-0.081742086 -0.0009299632 -0.08336371 0.14755987 0.17830715 -0.14220028 -0.1673134 0.12188039
-0.13717972 -0.047065698 -0.08265529 -0.11058967 0.08603309 -0.039701216 0.04542264 0.19097126
-0.059051078 -0.16597384 0.09981361 0.12041933 0.032664303 0.122080214 -0.009478964 0.062572
0.010417311 0.27998748 0.083038434 0.014659172 -0.04510827 0.1383619 0.07562691 -0.043998882
-0.16543604 0.085139714 -0.12105657 -0.032801915 0.045666017 0.2172798 -0.04426344 0.15557565
0.023031542 -0.09116125 0.017408885 -0.039993607 0.2726302 -0.14155152 -0.114474975 0.060831707
0.077057645 0.07940169 -0.12594694 -0.16880475 0.019082373 -0.20283844 -0.04713118 -0.0723148
-0.06671612 0.14443852 -0.03634996 -0.06422338 0.024204014 -0.04379674 0.034007337 -0.0016720342
00000000: 9374 c3bc f25a 9d3d 04b5 783c 39b5 13bd
00000010: c42e c6bd b016 333e fdc9 723e 33f3 04be
00000020: c27b 903d 9801 033d fc00 9bbc 97a3 a63d
00000030: 674c 493e 4a31 18be cf1e 0e3e d6fd 903d
00000040: d6a5 e6bc 9c26 313c ec25 a43d ec66 cdbd
00000050: 57b0 e53d d3ce 073e 2fba 573d fd3a 72bd
00000060: dd14 0f3d 2b57 643d 4f35 c4bd f84f 8ebe
00000070: b16a 043e 4643 6ebe 554a 0dbe f7da be3d
00000080: 4ee6 253d 8170 1c3d 9805 8ebc 014f 52bd
00000090: 3320 7cbd 9d5b 263c 19c5 0e3e 0762 363d
000000a0: dc49 dfbd 7fd2 0a3d c00a 943d a656 e5bd
000000b0: abd1 71be e848 3ebe 82b6 043d ee89 1a3d
000000c0: df3d f73d 0fa9 45be a982 7f3d 1be6 f0bd
000000d0: c4c6 663d b2e1 a43d 7dd2 473e 34e5 4bbd
000000e0: 33bb b9bd 74ec 89bd f0f2 393d 9c43 213e
000000f0: 059f ef3d c74d 113d 7a9b 4fbd 6991 0fbd
00000100: 6fc8 3dbd d9a3 07be 1aaf 753c 607e a1bd
00000110: ba54 b43c 5f11 993d 3bb5 44bd beaa 393e
00000120: e9ac 803d 995d dcbd 5aef 56bd e819 ed3c
00000130: a184 413d fcd5 4cbe 14cd 31bb efe1 34bd
00000140: f587 d23d 0a3b 03be 4252 233e da92 06bb
00000150: 54e7 b13d f127 323d ade4 5ebd dd90 c8bd
00000160: 7f07 f5bd 9afd e6bc e9ca 3a3d a42e 64be
00000170: 5c6a 5dbd 1a40 55bc 40d6 c8bd a887 7c3d
00000180: e792 99bd cfa4 23be aa90 38bd 379d f03d
00000190: 15a9 913d 7a48 293d ba6d 823e e6b7 9d3b
000001a0: e270 83bc 36a0 383d 9022 5cbd b901 17be
000001b0: 65f7 0a3e c2f5 e13d 7e5d a5bd 1a65 dd3c
000001c0: 1e47 58bc d194 023d e3b0 a0bd 56e4 3ebb
000001d0: 0e71 57bd 8913 aebd a76e f83c a9b2 0d3e
000001e0: 1a56 3c3e 4e99 b93d b52a 303d f484 92bd
000001f0: 7904 193e 30f7 cdbd 0297 bcbd cf47 663d
00000200: 72d8 af3d fe84 263e 6df9 20be aa0c b5bd
00000210: 1e76 aabd f1bf 633e 6640 bc3d 2ef2 51bd
00000220: e4c2 21bd 6b1d 193e 976d a9bd b54d d2bd
00000230: f12c 323d 2cca 233e 2bbd 1b3e 0a80 eb3d
00000240: 83a9 d13d f9f1 05be 1b3e fc3c d3ed 2ebd
00000250: 8c6a fc3d 9fa7 d33d d942 703b 42b2 00bd
00000260: aa92 3f3d 5672 cabc ab14 733d f68a 21bd
00000270: e83c aa3d 24a7 0ebe f41a 523c 3917 77bd
00000280: 2313 e4bd ca0f e9bd 285c 41bd cd10 c9bc
00000290: e694 8a3d fdf8 0dbc 17de dabd f297 cdbc
000002a0: a58e 23bd ccd2 12be 1d67 913e 0b7d 5abc
000002b0: 9de6 d1bd 7d20 0fbb 8d07 b1bd b827 1fbe
000002c0: 0b56 723d 51dd 8d3d f3f1 503d 8c56 7e3d
000002d0: 55fa f3bc 9c98 af3d 0d3b a43c 57ed 063c
000002e0: 571e dbbd 22da 78be 7716 aebc d847 0dbd
000002f0: ee8d 27bc d99f d33d 65ce 9abd 2de0 c93d
00000300: 6568 a7bd c6c8 73ba 98ba aabd ef19 173e
00000310: 2696 363e f39c 11be 3454 2bbe 6d9c f93d
00000320: d778 0cbe f6c7 40bd 2d47 a9bd d67c e2bd
00000330: 1e32 b03d be9d 22bd 170d 3a3d f88d 433e
00000340: 8bdf 71bd 0cf5 29be 146b cc3d 699e f63d
00000350: 01cb 053d 3105 fa3d a84d 1bbc c025 803d
00000360: 5fad 2a3c 855a 8f3e 0e10 aa3d 062d 703c
00000370: 73c3 38bd beae 0d3e 48e2 9a3d 2c38 34bd
00000380: 1168 29be bb5d ae3d 82ec f7bd 4d5b 06bd
00000390: 4a0c 3b3d 997e 5e3e 954d 35bd 394f 1f3e
000003a0: a5ac bc3c c0b2 babd 149d 8e3c 56d0 23bd
000003b0: 3096 8b3e e2f2 10be db71 eabd ab2a 793d
000003c0: 66d0 9d3d 5a9d a23d 3cf8 00be 27db 2cbe
000003d0: a352 9c3c e1b4 4fbe a00c 41bd c819 94bd
000003e0: 76a2 88bd b1e7 133e b2e3 14bd 8c87 83bd
000003f0: 7f47 c63c 3664 33bd 474b 0b3d 2828 dbba

weight f4 [312, 39]
0.0101866685 -0.23867679 -0.19972694 -0.21148053 0.04395672 -0.039153215 -0.13407984 0.11599918
-0.04709663 -0.01810916 -0.12861592 0.08114991 -0.11606076 0.088168174 0.07173359 -0.02880794
0.21038477 -0.10406531 -0.011728603 -0.022444542 -0.059697285 0.029906364 0.116955385 0.15984915
0.005530846 -0.094925486 0.00879152 0.15250605 -0.062411908 0.1955687 -0.15930387 0.14153902
-0.097094975 0.041213308 0.056240838 -0.06716667 -0.032805774 -0.049221344 0.14256908 0.102613814
-0.0155083975 -0.03272295 0.047739662 -0.13039093 0.0031027892 -0.08880087 -0.012823717 0.17464808
-0.16705613 0.06629804 -0.13922396 0.15278924 0.119382046 -0.13179545 -0.032777287 -0.17784244
-0.025502043 -0.011938137 -0.14129016 0.057276085 0.032609325 0.02245337 0.11938735 -0.20832497
-0.1900118 0.038662747 -0.0069221957 -0.039671592 0.1263371 0.087059565 0.09352927 0.08273559
-0.013799113 -0.18880579 0.09437546 0.00038751657 -0.018757898 0.18860213 0.028511018 -0.19757365
-0.0002263299 0.03838453 -0.19991559 0.07877471 -0.17400981 -0.13442497 0.05192808 0.23015028
0.023634823 -0.079931125 0.2245633 0.122173935 -0.03450733 -0.033959877 -0.098010935 -0.24215025
0.09925282 -0.07933292 0.09370776 0.05000246 -0.012086501 0.082870096 -0.08868237 0.1222194
-0.1736746 0.07282561 0.09148613 0.0056740222 0.01927319 0.009743726 -0.029759852 0.10426398
0.04451628 -0.05633584 -0.09391374 -0.09103314 0.19378679 0.04767454 0.045917552 0.12328995
0.15738444 0.022209007 -0.036684982 0.12502213 0.028516836 -0.033645567 -0.06649202 0.034790087
0.022433791 0.082834214 0.097816385 0.082263544 -0.21334347 0.07258539 0.10129791 -0.2578395
-0.00955455 0.16110934 0.1070723 0.07901598 -0.114780776 -0.16695061 -0.033041637 -0.1764732
-0.0050510773 -0.07526 -0.081301495 -0.09955278 0.07765 0.0284944 -0.055188347 0.03623147
0.19767283 0.08287723 -0.0074481005 0.22205518 0.04873393 0.14670062 0.1388121 -0.107556835
0.06215801 0.14189515 -0.017004712 -0.028109392 -0.057680134 0.12891161 -0.031677697 0.0843465
0.10853118 -0.025379185 0.01734907 -0.0269221 -0.051855724 0.04044783 0.051155772 -0.028018972
-0.15334728 0.028979715 0.066328205 -0.0010335064 0.03509867 -0.030452034 -0.026014471 -0.07579012
0.0069116256 0.065216236 -0.11599543 0.116414264 -0.05959935 -0.04029196 -0.023800148 0.03737847
0.20285864 0.07724383 0.019997502 -0.086326465 0.13740657 -0.08553077 -0.0023734756 0.24771877
0.11027935 -0.007783264 0.17995574 -0.08147043 -0.1137334 -0.07628415 -0.07496093 0.104490936
0.093329325 0.022771368 0.045233298 0.116887435 -0.02097516 0.012473715 0.0038504815 0.09168173
0.05675416 -0.063591816 0.102922946 0.068791546 -0.028290689 -0.06856147 0.03138379 -0.13839343
0.06914175 0.008423637 0.030724538 0.08868266 -0.07046288 -0.062999465 0.032361243 -0.1530433
0.13213576 0.13322344 -0.03258562 0.019987935 0.08139141 0.16854264 -0.0010481187 -0.16144471
-0.018748391 0.33032826 -0.14654392 -0.072417766 -0.013568447 0.13039885 0.07126621 -0.0027562594
-0.1091729 0.07852907 -0.073461354 -0.23801859 -0.1289525 -0.09451604 0.021260025 0.23943059
00000000: fce5 263c b067 74be 3885 4cbe 5a8e 58be
00000010: f60b 343d 1f5f 20bd 3a4c 09be fa90 ed3d
00000020: 65e8 40bd a959 94bc e4b3 03be ed31 a63d
00000030: 44b1 edbd 8491 b43d 0fe9 923d a1fe ebbc
00000040: 1b6f 573e 3120 d5bd 5429 40bc 9edd b7bc
00000050: 2485 74bd 31fe f43c 4e86 ef3d 7faf 233e
00000060: 193c b53b 4b68 c2bd 4f0a 103c 8c2a 1c3e
00000070: a1a3 7fbd 2943 483e 8e20 23be 9bef 103e
00000080: bbd9 c6bd 49cf 283d cb5c 663d ae8e 89bd
00000090: 595f 06bd 529c 49bd a1fd 113e 3127 d23d
000000a0: ef16 7ebc 8008 06bd aa8a 433d 3385 05be
000000b0: 2a58 4b3b 3bdd b5bd 911a 52bc f2d6 323e
000000c0: c310 2bbe 44c7 873d ba90 0ebe c874 1c3e
000000d0: 937e f43d 63f5 06be 7a41 06bd 541c 36be
000000e0: a9e9 d0bc 2d98 43bc 5eae 10be 549a 6a3d
000000f0: 5b91 053d 21f0 b73c 5b81 f43d 2453 55be
00000100: 7492 42be d45c 1e3d 96d3 e2bb ae7e 22bd
00000110: 835e 013e 494c b23d 468c bf3d 4771 a93d
00000120: ad15 62bc 4e56 41be ec47 c13d 982b cb39
00000130: 2aaa 99bc eb20 413e f08f e93c bf50 4abe
00000140: f852 6db9 1939 1d3d acb6 4cbe a354 a13d
00000150: a12f 32be b3a6 09be 8ab2 543d 84ac 6b3e
00000160: d19d c13c eeb2 a3bd ecf3 653e 5436 fa3d
00000170: 8f57 0dbd 8319 0bbd f5b9 c8bd 3cf6 77be
00000180: 1045 cb3d 4c79 a2bd dbe9 bf3d 61cf 4c3d
00000190: 7606 46bc ccb7 a93d 1a9f b5bd 2a4e fa3d
000001a0: c1d7 31be 9825 953d 155d bb3d 26ed b93b
000001b0: cfe2 9d3c 26a4 1f3c efca f3bc 5b88 d53d
000001c0: b456 363d 69c0 66bd d955 c0bd 956f babd
000001d0: 0b70 463e 6146 433d 0b14 3c3d 717f fc3d
000001e0: 6329 213e aaef b53c fe42 16bd cd05 003e
000001f0: 249c e93c efcf 09bd f82c 88bd 0d80 0e3d
00000200: 12c7 b73c fca4 a93d f553 c83d ca79 a83d
00000210: b676 5abe a6a7 943d 4775 cf3d 8a03 84be
00000220: b08a 1cbc d9f9 243e b948 db3d 21d3 a13d
00000230: 2f12 ebbd 1af5 2abe ab56 07bd 64b5 34be
00000240: 8283 a5bb ea21 9abd 6681 a6bd 54e2 cbbd
00000250: f706 9f3d 176d e93c 2d0d 62bd 7367 143d
00000260: bf6a 4a3e 8abb a93d 320f f4bb 6f62 633e
00000270: 3b9d 473d b038 163e c224 0e3e c246 dcbd
00000280: 6699 7e3d f64c 113e 774d 8bbc ab45 e6bc
00000290: 0142 6cbd 6801 043e 79c0 01bd dcbd ac3d
000002a0: 9845 de3d 02e8 cfbc a31f 8e3c bc8b dcbc
000002b0: ab66 54bd a0ac 253d b788 513d 0b88 e5bc
000002c0: 1207 1dbe de66 ed3c 15d7 873d b876 87ba
000002d0: 9fc3 0f3d 8b76 f9bc 4d1c d5bc da37 9bbd
000002e0: eb7a e23b 1790 853d 038f edbd 9a6a ee3d
000002f0: 731e 74bd 2f09 25bd 87f8 c2bc 2b1a 193d
00000300: 2dba 4f3e 0332 9e3d cdd1 a33c eecb b0bd
00000310: 4fb4 0c3e c22a afbd 508c 1bbb fda9 7d3e
00000320: 24da e13d c00a ffbb 5146 383e f8d9 a6bd
00000330: 0fed e8bd dd3a 9cbd 1e85 99bd 58ff d53d
00000340: 7223 bf3d 058b ba3c 8d46 393d ae62 ef3d
00000350: 19d4 abbc 8d5e 4c3c 5c58 7c3b a1c3 bb3d
00000360: 0d77 683d 6d3c 82bd 44c9 d23d 95e2 8c3d
00000370: e0c1 e7bc f569 8cbd 4a8c 003d 02b7 0dbe
00000380: 319a 8d3d 4b03 0a3c 07b2 fb3c 419f b53d
00000390: d84e 90bd dd05 81bd 398d 043d 62b7 1cbe
000003a0: 994e 073e ba6b 083e 8078 05bd bdbd a33c
000003b0: 8ab0 a63d 7196 2c3e 0761 89ba c351 25be
000003c0: 3a96 99bc c920 a93e 9c0f 16be c44f 94bd
000003d0: 314e 5ebc 4787 053e 05f4 913d 5ca2 34bb
000003e0: 0b96 dfbd d9d3 a03d e872 96bd 25bb 73be
000003f0: 200c 04be a091 c1bd 8129 ae3c 4b2d 753e

weight f4 [312, 39]
-0.14144143 -0.10684585 -0.10985764 0.029503867 0.06467519 -0.07100051 0.090316825 -0.19672114
0.14485572 -0.05219613 -0.2569919 -0.042965814 0.1467356 0.06625037 -0.038531877 0.120340444
-0.08761104 0.26551133 0.081356145 -0.040312015 0.17701791 0.04651332 -0.07889423 0.05506306
0.17745449 -0.043597613 0.07122775 0.1273358 -0.02878851 -0.14728273 0.06254896 -0.02944658
0.02056593 -0.025765669 -0.20426485 0.099599436 -0.10267738 0.20876426 -0.068284355 0.20720507
-0.057462282 0.17018534 0.09870828 0.02157924 -0.11251935 0.20357989 0.13447706 -0.11373428
0.28484666 0.29803666 -0.1638247 -0.120723896 -0.13341475 0.10217915 -0.008147115 0.0027740132
0.054289035 0.033638496 -0.012218175 0.25381055 -0.080893114 0.03431381 -0.061345465 0.04306301
-0.016118238 0.028730256 0.2008593 0.08467158 -0.03389414 0.08168505 0.17289731 -0.20953913
-0.048852663 0.03860413 -0.15226461 0.024089158 0.15410174 0.019869035 0.018578261 -0.0026196998
0.10348387 -0.18068944 -0.05891771 0.1368063 0.020598805 -0.030275369 0.061267417 -0.033677798
-0.17353988 -0.04640404 0.0073822574 0.034972318 0.114021845 0.0303906 0.037900224 -0.12633406
-0.2380497 0.21043307 -0.025895983 0.07379624 0.08683883 0.1460283 0.0039165 -0.06967147
0.1847428 -0.04792099 0.040111568 0.110361 0.16721249 -0.20214655 -0.17855081 0.077303715
0.020365503 -0.00068126176 -0.01201891 0.18341257 -0.25035837 -0.12225885 0.080940776 0.19452974
-0.05752665 -0.047833804 -0.16483188 0.022859532 -0.122507185 -0.064161696 0.0045157187 0.083439425
0.0044180322 -0.14168602 -0.18029517 -0.023769472 -0.026639339 -0.042605486 -0.060906123 0.024132682
0.05325644 -0.28067416 -0.15964818 0.09955657 -0.052967545 -0.04653517 -0.039291278 0.09390589
-0.04661255 -0.15683183 -0.02281761 0.051620908 -0.010420243 -0.04401163 0.05982185 -0.009756964
-0.12647317 -0.13573773 -0.11284192 0.035215914 0.1711204 0.11673849 -0.027958335 -0.17081022
0.18226355 0.06784482 0.035651818 -0.115493745 0.077473454 0.07218322 0.037426554 0.27964392
0.097847834 0.090998925 0.115897015 -0.13670428 0.09912669 0.043709397 0.028331915 0.1346399
0.011762414 0.019956669 -0.14790154 -0.07237875 0.24448492 0.106659375 -0.09653432 -0.06820607
-0.06747269 0.15066527 -0.22701047 -0.19744517 -0.011531364 0.12722467 -0.07682956 0.034035992
-0.10339294 0.07226005 0.027565585 0.0028983774 -0.11623571 0.13821484 -0.1755316 -0.13438827
0.06300597 0.13472521 0.0026758919 0.111586146 0.15689698 0.18653297 -0.029569136 -0.13983326
0.16677408 -0.066678084 0.12716268 -0.021055005 -0.08307414 -0.12517138 0.022157656 0.10599222
0.12566876 -0.0026812395 -0.0068048383 0.014924894 -0.009347302 -0.11119234 0.123938635 -0.10122037
0.07346381 -0.045464072 0.100719266 -0.050143518 -0.17242542 -0.015224202 0.12736537 -0.16163048
-0.04606891 0.04610736 -0.089814976 -0.030091682 -0.12641414 0.09054823 -0.07130939 -0.04843217
0.1309774 0.0338079 -0.15001318 -0.21757786 0.03418515 -0.08961496 0.050212458 -0.14653847
-0.09801838 -0.06948128 -0.09203651 -0.17362148 -0.11883861 0.11442147 0.062360324 0.08815426
00000000: 06d6 10be ffd1 dabd 0bfd e0bd 18b2 f13c
00000010: 6d74 843d b768 91bd 07f8 b83d 4471 49be
00000020: 0f55 143e 9ccb 55bd 7194 83be ecfc 2fbd
00000030: db41 163e 46ae 873d 9ad3 1dbd 0d75 f63d
00000040: 6b6d b3bd 1af1 873e 0d9e a63d 361e 25bd
00000050: 2f44 353e c084 3e3d 4c93 a1bd ce89 613d
00000060: a1b6 353e 6993 32bd dbdf 913d 5164 023e
00000070: e2d5 ebbc 49d1 16be ab19 803d f439 f1bc
00000080: e279 a83c 8612 d3bc ce2a 51be cafa cb3d
00000090: 8548 d2bd 4cc6 553e abd8 8bbd 912d 543e
000000a0: 925d 6bbd 1145 2e3e 9127 ca3d f2c6 b03c
000000b0: 8c70 e6bd 3f77 503e 5bb4 093e 85ed e8bd
000000c0: 6cd7 913e 4398 983e aac1 27be 173e f7bd
000000d0: e09d 08be 4d43 d13d 7a7b 05bc 38cc 353b
000000e0: 2e5e 5e3d 85c8 093d be2e 48bc 75f3 813e
000000f0: 4aab a5bd a38c 0c3d 6245 7bbd d762 303d
00000100: 650a 84bc b75b eb3c 0fae 4d3e 4b68 ad3d
00000110: 95d4 0abd 7e4a a73d fe0b 313e 6d91 56be
00000120: bb19 48bd 5d1f 1e3d 41eb 1bbe a056 c53c
00000130: d9cc 1d3e 63c4 a23c 7031 983c 45af 2bbb
00000140: 5aef d33d a706 39be b253 71bd f316 0c3e
00000150: d3be a83c 0d04 f8bc 8bf3 7a3d bbf1 09bd
00000160: 70b4 31be 2a12 3ebd dde6 f13b 223f 0f3d
00000170: 4984 e93d b5f5 f83c 443d 1b3d b75d 01be
00000180: 4dc3 73be c47b 573e d023 d4bc 7c22 973d
00000190: 8ed8 b13d 7188 153e fc55 803b eaaf 8ebd
000001a0: 372d 3d3e cd48 44bd 074c 243d f304 e23d
000001b0: c039 2b3e 81ff 4ebe 06d6 36be 6951 9e3d
000001c0: 8ed5 a63c b496 32ba f6ea 44bc 81d0 3b3e
000001d0: f92e 80be d962 fabd 47c4 a53d ce32 473e
000001e0: 11a1 6bbd 61ed 43bd b0c9 28be ea43 bb3c
000001f0: 0ce5 fabd 3567 83bd 98f8 933b 4ae2 aa3d
00000200: 24c5 903b 2416 11be 4c9f 38be 32b8 c2bc
00000210: be3a dabc 1783 2ebd b378 79bd e7b1 c53c
00000220: 6d23 5a3d 86b4 8fbe d07a 23be 51e4 cb3d
00000230: 7ff4 58bd aa9b 3ebd e4ef 20bd bb51 c03d
00000240: cdec 3ebd 8698 20be ffeb babc 7270 533d
00000250: abb9 2abc 8a45 34bd c207 753d acdb 1fbc
00000260: 2f82 01be d5fe 0abe aa19 e7bd 903e 103d
00000270: 303a 2f3e 9714 ef3d e108 e5bc e0e8 2ebe
00000280: 4ca3 3a3e 3af2 8a3d a407 123d fc87 ecbd
00000290: 67aa 9e3d ccd4 933d 964c 193d 7d2d 8f3e
000002a0: 7264 c83d a55d ba3d 6a5b ed3d 35fc 0bbe
000002b0: ef02 cb3d a008 333d 5518 e83c 0bdf 093e
000002c0: 24b7 403c 2b7c a33c 8073 17be 4f3b 94bd
000002d0: 415a 7a3e 3b70 da3d c9b3 c5bd a0af 8bbd
000002e0: 1f2f 8abd ff47 1a3e 6f75 68be 112f 4abe
000002f0: 0cee 3cbc 2f47 023e d158 9dbd 5369 0b3d
00000300: adbf d3bd 14fd 933d 39d1 e13c b4f2 3d3b
00000310: fd0c eebd 3188 0d3e 8ebe 33be 149d 09be
00000320: 4609 813d 68f5 093e 045e 2f3b 4787 e43d
00000330: 9aa9 203e 8002 3f3e f93a f2bc 7330 0fbe
00000340: d3c6 2a3e 858e 88bd ef36 023e 8c7b acbc
00000350: c622 aabd ed2c 00be f983 b53c 7312 d93d
00000360: 50af 003e bcb7 2fbb 1ffb debb 8b87 743c
00000370: 6d25 19bc cfb8 e3bd 8ad3 fd3d a04c cfbd
00000380: 3274 963d 8938 3abd e745 ce3d 4a63 4dbd
00000390: 4a90 30be ee6e 79bc 116c 023e 7682 25be
000003a0: c1b2 3cbd 12db 3c3d eaf0 b7bd d582 f6bc
000003b0: b572 01be 5a71 b93d a80a 92bd d060 46bd
000003c0: f11e 063e 277a 0a3d 0e9d 19be bbcc 5ebe
000003d0: ba05 0c3d 0c88 b7bd 94ab 4d3d 2e0e 16be
000003e0: dcbd c8bd 344c 8ebd a37d bcbd d4c9 31be
000003f0: a861 f3bd ce55 ea3d 8a6d 7f3d 388a b43d

weight f4 [312, 39]
-0.013299066 -0.08814617 -0.102302805 0.040704697 -0.12069595 0.038396414 0.05820576 0.17044875
-0.007594012 -0.06658278 0.004760438 0.19176926 0.05280398 -0.015331904 -0.114628054 -0.05877844
0.009786741 0.00060110126 0.044087492 -0.010084093 0.019302057 -0.08163378 -0.012371711 -0.06857364
-0.08659387 0.034257066 -0.001588278 0.11736114 -0.06415056 0.12168242 0.07055708 0.079939246
0.14814827 -0.051854625 0.08608829 0.005115755 0.14395832 0.02980276 0.0077612177 0.04213849
0.09939698 0.081178084 0.19574499 0.10250471 -0.15411182 0.012930313 -0.072593026 0.21560182
-0.17958647 -0.08592697 0.04062446 -0.09127403 0.033609428 0.07068209 0.018918036 0.054283526
0.095610805 -0.085776605 -0.054972727 -0.016150663 -0.038498845 -0.17560527 0.021073656 -0.24834272
-0.03101089 -0.14798665 0.11385104 -0.111200504 -0.10386104 0.14433613 -0.05389177 -0.042867985
-0.08932835 -0.15645768 -0.09164738 0.17258558 -0.016616244 -0.13425605 0.12230312 0.079248406
-0.072799 -0.012281728 -0.18858106 0.026792616 -0.17010926 -0.0019972266 -0.16897273 -0.05453902
0.100390054 0.16933075 0.03826773 0.09060623 -0.050333086 0.026968852 0.025445417 -0.031180577
0.18646014 0.050020233 -0.046944167 -0.06613328 -0.19815022 -0.14088622 0.010312737 0.040962856
-0.16652507 -0.055685047 0.24015696 0.010014966 -0.05361005 0.020684117 -0.07006593 -0.02332875
0.14921677 0.09246228 -0.0709106 -0.010737948 0.008157313 -0.16207467 0.095791616 0.03126089
-0.24185304 0.18481985 -0.0014581722 0.13244994 0.031536397 0.11341435 0.0023954664 -0.13140076
0.096233144 0.12538187 -0.058873225 0.07584786 0.079837404 -0.072663754 -0.043913696 -0.06092737
0.0826248 0.26923236 -0.033202402 -0.03208775 0.06788125 0.021561913 -0.15443775 0.0065599307
0.06750004 -0.030855574 -0.038463328 -0.117898405 -0.01203239 -0.08115978 -0.08884683 -0.011090971
-0.008953011 0.09866256 0.08430765 0.10721936 -0.0026236416 -0.13903445 0.0060899835 -0.33591962
-0.087367155 0.06077788 -0.027240362 0.027871102 0.19692223 -0.095412806 0.022606967 -0.0760263
0.020195602 -0.1662379 0.09132705 -0.015556422 0.21081169 -0.1173588 -0.16902834 -0.18663687
-0.12644935 -0.06507621 0.0051364903 -0.129104 0.017270917 0.0034050993 0.113994405 0.032127727
-0.057237193 0.12875143 -0.07345835 -0.18377164 -0.010352781 0.041741565 0.07778349 -0.03788865
-0.2040149 0.07662637 0.16785522 -0.027468348 0.2556496 0.034166656 -0.090918824 0.066979855
0.033318117 0.056374896 -0.024083927 0.099408284 0.02238622 0.17776747 0.05419313 -0.14512606
-0.016176378 -0.037583325 -0.010079238 -0.14934185 0.03500284 0.12084561 0.023298172 0.13152118
-0.00867217 0.050464842 0.033781085 0.07612772 -0.064196296 -0.059419572 -0.10679236 0.116467245
-0.050037913 -0.018842705 -0.011628587 -0.024846401 0.03525733 0.023334295 -0.112824105 0.068610966
-0.12953654 0.06382864 0.117205575 -0.053045634 0.16069348 0.0376683 0.059228607 -0.08009246
-0.12751481 -0.07157686 -0.025211167 -0.15024923 0.008603974 0.08209512 -0.1603823 0.2004743
0.09384557 -0.09828687 -0.002726945 0.14022559 -0.07579304 0.163747 -0.06166781 0.028214099
00000000: 53e4 59bc fb85 b4bd 2284 d1bd f8b9 263d
00000010: 702f f7bd 8f45 1d3d 2a69 6e3d 1e8a 2e3e
00000020: 31d7 f8bb 8d5c 88bd 73fd 9b3b 295f 443e
00000030: fc48 583d ab32 7bbc 1dc2 eabd a9c1 70bd
00000040: 9158 203c 3993 1d3a 1695 343d c037 25bc
00000050: 591f 9e3c 9c2f a7bd b8b2 4abc 5670 8cbd
00000060: 2058 b1bd 2351 0c3d c42d d0ba 0a5b f03d
00000070: 5e61 83bd a234 f93d 3b80 903d 30b7 a33d
00000080: 2eb4 173e 8465 54bd 0f4f b03d 10a2 a73b
00000090: cf69 133e eb24 f43c d051 fe3b 6999 2c3d
000000a0: a590 cb3d b240 a63d 6071 483e fded d13d
000000b0: 7dcf 1dbe aad9 533c a7ab 94bd b9c6 5c3e
000000c0: 84e5 37be 7bfa afbd d565 263d e1ed babd
000000d0: 0aaa 093d c6c1 903d fff9 9a3c 6758 5e3d
000000e0: 99cf c33d a5ab afbd 152b 61bd 654e 84bc
000000f0: f7b0 1dbd ded1 33be a9a2 ac3c 8e4d 7ebe
00000100: 8d0a febc d089 17be bc2a e93d 17bd e3bd
00000110: 19b5 d4bd dacc 133e 9ebd 5cbd 5796 2fbd
00000120: c8f1 b6bd 7136 20be 9fb1 bbbd 46ba 303e
00000130: ca1e 88bc 6b7a 09be 0f7a fa3d fd4c a23d
00000140: a417 95bd 4d39 49bc 651b 41be 307c db3c
00000150: 1f31 2ebe e7e3 02bb 3007 2dbe 4f64 5fbd
00000160: 4d99 cd3d 0a65 2d3e a0be 1c3d c28f b93d
00000170: 112a 4ebd c8ed dc3c e872 d03c 696e ffbc
00000180: 68ef 3e3e 04e2 4c3d 8748 40bd e370 87bd
00000190: e4e7 4abe 7a44 10be c1f6 283c abc8 273d
000001a0: 8c85 2abe 0116 64bd b5eb 753e d015 243c
000001b0: 3696 5bbd bd71 a93c ba7e 8fbd ef1b bfbc
000001c0: 48cc 183e dd5c bd3d 9439 91bd 38ee 2fbc
000001d0: 40a6 053c e7f6 25be 652e c43d 6b0b 003d
000001e0: 53a8 77be 6a41 3d3e 2420 bfba f5a0 073e
000001f0: 4f2c 013d c845 e83d 42fd 1c3b ec8d 06be
00000200: e215 c53d 1b64 003e 0d25 71bd 1f56 9b3d
00000210: cb81 a33d bcd0 94bd d9de 33bd fa8e 79bd
00000220: 3137 a93d d3d8 893e 3eff 07bd 726e 03bd
00000230: 5305 8b3d 9ca2 b03c ee24 1ebe b0f4 d63b
00000240: 763d 8a3d d4c4 fcbc b98b 1dbd b874 f1bd
00000250: 8023 45bc 1937 a6bd 54f5 b5bd e7b6 35bc
00000260: a6af 12bc 990f ca3d 7da9 ac3d d395 db3d
00000270: 67f1 2bbb 0c5f 0ebe 7c8e c73b a8fd abbe
00000280: 8ded b2bd 3af2 783d 2e27 dfbc f051 e43c
00000290: fba5 493e ca67 c3bd 3f32 b93c adb3 9bbd
000002a0: 3f71 a53c 453a 2abe ad09 bb3d 5de0 7ebc
000002b0: 05df 573e cf59 f0bd c415 2dbe bc1d 3fbe
000002c0: f07b 01be ad46 85bd 0150 a83b d733 04be
000002d0: bd7b 8d3c 1628 5f3b e675 e93d 5d98 033d
000002e0: 8c71 6abd 6ad7 033e 5571 96bd a22e 3cbe
000002f0: b69e 29bc 34f9 2a3d f34c 9f3d 2131 1bbd
00000300: 48e9 50be 49ee 9c3d 3de2 2b3e 4d05 e1bc
00000310: 81e4 823e 56f2 0b3d a633 babd bc2c 893d
00000320: 9478 083d 5de9 663d a84b c5bc 9296 cb3d
00000330: 4e63 b73c ad08 363e 9ef9 5d3d ed9b 14be
00000340: 5384 84bc f9f0 19bd 6323 25bc 12ed 18be
00000350: 235f 0f3d e77d f73d cfdb be3c 7dad 063e
00000360: b815 0ebc 39b4 4e3d 095e 0a3d dae8 9b3d
00000370: 5979 83bd f061 73bd f4b5 dabd 6186 ee3d
00000380: 8ef4 4cbd 045c 9abc d485 3ebc ae8a cbbc
00000390: fd69 103d 9027 bf3c 5310 e7bd e883 8c3d
000003a0: 3aa5 04be 97b8 823d 7a09 f03d 6146 59bd
000003b0: d58c 243e 134a 1a3d b299 723d 8407 a4bd
000003c0: 3e93 02be e496 92bd a687 cebc efda 19be
000003d0: aff7 0c3c 7c21 a83d 423b 24be 2349 4d3e
000003e0: 1b32 c03d a04a c9bd 8cb6 32bb 4c97 0f3e
000003f0: 6239 9bbd 4bad 273e 6397 7cbd 4121 e73c
