E-GraphSAGE/netflow/bot-iot/SE_multiclass_best_model.pth (torch, 373746 bytes, 20 tensors)

weight f4 [128, 16]
0.0040276316 -0.1877145 -0.013788913 0.16298725 0.100835554 0.08786928 -0.23333602 0.20184837
0.09499165 -0.19478391 0.22916134 0.17174834 0.20822832 -0.1004277 -0.22612788 0.14797413
0.13075483 -0.2296725 -0.00025735112 -0.2204519 0.0043684165 -0.1323976 0.054390665 0.21674375
-0.07098154 0.05689673 -0.17772967 0.16066691 0.018254884 -0.17700222 0.18608245 -0.022085646
-0.121784754 0.002567589 0.21574257 -0.10889579 0.20536123 0.05541563 0.16023485 -0.0013998136
-0.1736591 -0.034620833 -0.23163004 -0.11617652 -0.18196508 -0.24205181 -0.06234038 0.12688865
0.11871131 0.07648398 0.12604094 0.26213843 0.02614178 0.06897845 0.17873567 -0.029931651
0.12731872 -0.23993498 -0.071009584 -0.14558883 -0.059898 -0.07485005 -0.22002782 -0.03146799
0.020397149 0.19852036 0.1761257 -0.020654203 -0.0626831 0.17768732 0.057800792 -0.1774027
0.22560275 -0.21122284 -0.1628874 -0.009450989 -0.14723717 -0.23618346 0.0720946 0.20562375
-0.12957312 0.0191619 -0.20983757 0.24713169 0.21968283 0.2322127 0.15486379 -0.11265653
-0.22564769 -0.18856108 0.12755086 0.2634881 0.14606273 0.26762095 0.024130784 0.28187048
-0.17345311 0.21987148 0.17032455 -0.21231367 -0.056185465 0.17697321 0.16815673 -0.041620042
0.05736725 0.106338196 0.17069724 -0.2833106 0.10551613 0.10126243 -0.09039245 -0.12721014
0.18614726 0.057699163 -0.04619743 0.029952416 0.13660453 0.119140945 0.050553933 -0.09119137
-0.21429853 0.20223103 -0.19961643 -0.19329582 0.11178721 -0.19870746 -0.24834712 -0.012597842
0.23867595 -0.13875625 0.18782455 -0.12674418 0.058516603 -0.07478217 0.074573435 -0.022109916
-0.053977244 -0.13931794 -0.23936838 0.27259848 -0.12860048 0.19199102 -0.25436497 -0.25004643
-0.09034465 0.0021282025 0.19915529 -0.033555932 0.14942034 0.14025621 0.1361384 -0.09635453
-0.041364975 -0.23034066 -0.24709159 -0.2561582 -0.096645005 -0.15260485 0.23488681 0.027975427
-0.057292588 0.16422495 0.11853054 0.010739406 -0.0854058 0.20428869 -0.23801905 0.068155795
-0.009063086 -0.19025487 -0.18012175 0.039631967 -0.18901268 -0.1699951 0.25267705 0.2660969
-0.047545902 0.21027675 0.1213035 0.19658485 0.17226419 0.1160264 0.010221817 -0.12505578
-0.16684842 -0.1418577 0.21759081 -0.15090933 -0.09778889 -0.121977784 0.25948095 0.23061223
-0.016147578 0.049048826 -0.1672162 0.1440986 0.15683384 -0.21166609 -0.1256311 0.14128833
0.12826522 -0.014695446 -0.011928063 -0.2708899 -0.20175168 -0.13591981 0.15639374 0.15248702
-0.03948507 -0.15726326 -0.19477485 0.019732049 0.05737682 -0.13017592 0.06505497 -0.08359955
0.07891355 0.20225298 -0.1510362 0.06999336 0.10065544 -0.2039743 -0.044290785 0.03050986
-0.23777537 0.22544561 -0.19593678 0.15660332 0.12669294 -0.2122788 -0.10779437 -0.10321226
0.256279 0.18365403 0.19233146 0.2104852 0.18405537 -0.23785146 -0.20728464 0.09556474
0.1994124 -0.19179538 0.05550197 -0.1777766 0.20199639 -0.04561409 -0.18006325 0.24261886
-0.10132194 -0.019902337 -0.032288287 0.04906989 0.15734664 -0.14041997 -0.030659586 -0.2272027
00000000: 39fa 833b 3b38 40be e5ea 61bc 21e6 263e
00000010: df82 ce3d cff4 b33d a3ef 6ebe 57b1 4e3e
00000020: fb8a c23d 6f75 47be 45a9 6a3e ccde 2f3e
00000030: ce39 553e 0aad cdbd 118e 67be 8886 173e
00000040: 98e4 053e 452f 6bbe 15ed 86b9 25be 61be
00000050: ef24 8f3b 3d93 07be bfc8 5e3d 13f2 5d3e
00000060: c55e 91bd 8c0c 693d c4fe 35be de85 243e
00000070: 448b 953c 1240 35be 668c 3e3e f5ec b4bc
00000080: 496a f9bd ff44 283b 9feb 5c3e c204 dfbd
00000090: 374a 523e 80fb 623d 9b14 243e f379 b7ba
000000a0: b1d3 31be 93ce 0dbd 6d30 6dbe f5ed edbd
000000b0: 0e55 3abe 6edc 77be a058 7fbd 19ef 013e
000000c0: ea1e f33d a2a3 9c3d e010 013e 0237 863e
000000d0: 4927 d63c 9344 8d3d 7c06 373e 3933 f5bc
000000e0: d75f 023e 84b1 75be 796d 91bd 3d15 15be
000000f0: 9b57 75bd fc4a 99bd f94e 61be 94e4 00bd
00000100: ec17 a73c ec48 4b3e 4c5a 343e 0133 a9bc
00000110: ff5f 80bd aaf3 353e 86c0 6c3d 0ea9 35be
00000120: 6804 673e cd4a 58be f4cb 26be 52d8 1abc
00000130: 57c5 16be 14da 71be 55a6 933d 088f 523e
00000140: d1ae 04be 6bf9 9c3c a9df 56be 1710 7d3e
00000150: 89f4 603e 2bc9 6d3e 9d94 1e3e 78b8 e6bd
00000160: 3010 67be 2816 41be b19c 023e eae7 863e
00000170: 7891 153e 9d05 893e ecad c53c 5451 903e
00000180: b19d 31be fd25 613e 8f69 2e3e c168 59be
00000190: bb22 66bd 7738 353e 4731 2c3e c779 2abd
000001a0: ecf9 6a3d d7c7 d93d 42cb 2e3e 160e 91be
000001b0: d718 d83d ad62 cf3d ad1f b9bd 6043 02be
000001c0: 639d 3e3e f555 6c3d 8439 3dbd c55e f53c
000001d0: 0fe2 0b3e 2b00 f43d a411 4f3d 8ac2 babd
000001e0: 1371 5bbe a715 4f3e 4068 4cbe 57ef 45be
000001f0: b1f0 e43d f879 4bbe b54e 7ebe 2e67 4ebc
00000200: 7867 743e 1e16 0ebe 1455 403e 3ac9 01be
00000210: 1baf 6f3d 6527 99bd f5b9 983d db1f b5bc
00000220: 3e17 5dbd 5da9 0ebe fc1c 75be 0792 8b3e
00000230: d8af 03be 4b99 443e 203c 82be 1606 80be
00000240: 9e06 b9bd 5079 0b3b 5def 4b3e f271 09bd
00000250: a501 193e 539f 0f3e dd67 0b3e 8655 c5bd
00000260: 526e 29bd 6cde 6bbe 9405 7dbe 2b27 83be
00000270: d1ed c5bd 7244 1cbe 2b86 703e b92c e53c
00000280: a2ab 6abd 962a 283e 24c0 f23d 55f4 2f3c
00000290: 3ce9 aebd 0e31 513e 44bb 73be 4495 8b3d
000002a0: 567d 14bc 2cd2 42be d671 38be 2155 223d
000002b0: 8a8c 41be 3213 2ebe e35e 813e da3d 883e
000002c0: 7ebf 42bd ca52 573e f86d f83d 8a4d 493e
000002d0: 0666 303e 409f ed3d 6879 273c 9f0e 00be
000002e0: 50da 2abe 2543 11be 20d0 5e3e fa87 1abe
000002f0: 8b45 c8bd 7dcf f9bd b0da 843e 9d25 6c3e
00000300: ed47 84bc 6ce7 483d b93a 2bbe 958e 133e
00000310: 0d99 203e ffbe 58be 70a5 00be e3ad 103e
00000320: f557 033e 2bc5 70bc ec6d 43bc 15b2 8abe
00000330: fe97 4ebe 902e 0bbe ae25 203e 8f25 1c3e
00000340: 19bb 21bd 9f09 21be 0f73 47be 1ba5 a13c
00000350: f503 6b3d d64c 05be 8a3b 853d 3e36 abbd
00000360: 6d9d a13d 681b 4f3e 3ca9 1abe ae58 8f3d
00000370: 7024 ce3d a4de 50be 416a 35bd d0ef f93c
00000380: 637b 73be 37db 663e a7a3 48be 9f5c 203e
00000390: cbbb 013e 9d5f 59be 4bc3 dcbd f360 d3bd
000003a0: 0037 833e cd0f 3c3e 8af2 443e 6f89 573e
000003b0: 0379 3c3e 558f 73be 6d42 54be 72b7 c33d
000003c0: c432 4c3e 0266 44be 0956 633d 120b 36be
000003d0: 24d8 4e3e d7d5 3abd 8062 38be 1471 783e
000003e0: e181 cfbd 3a0a a3bc b940 04bd 82fd 483d
000003f0: 7a1f 213e 41ca 0fbe d029 fbbc d3a7 68be

bias f4 [128]
-0.15568833 -0.21849328 0.0056565064 -0.024100157 -0.22799978 0.0038931 0.116353914 0.12868626
-0.09137281 -0.2007543 -0.22025506 -0.020766547 -0.05084057 0.017876359 0.07298706 -0.10910935
0.20283543 -0.058595426 -0.17918995 -0.018244036 0.2131565 0.033129305 -0.25787067 0.08825378
-0.18672872 -0.04509617 0.018256582 0.011140843 0.22304438 0.25428954 0.008784515 -0.09964856
-0.07248888 -0.12784031 -0.112963736 -0.03833022 -0.15685359 0.19093554 0.026808243 0.12078427
-0.044650417 -0.11645645 0.17346148 -0.22136204 0.12878165 -0.13756618 -0.21341987 0.01123979
-0.26410624 -0.14327909 -0.1990833 -0.2155702 -0.07477764 -0.033498593 -0.21191841 -0.060348798
0.16556837 0.17634037 0.0036230218 -0.15063626 -0.053386845 0.24729508 -0.12861623 -0.163341
-0.091808304 -0.0829248 0.11284271 -0.16573454 0.17837772 -0.17011033 -0.132011 0.0720693
-0.17678961 0.20135379 -0.23703891 -0.23997234 -0.15278144 0.14107001 -0.13905746 0.02640565
-0.06012732 -0.21897273 -0.045682564 0.2016555 0.08740518 0.22602005 0.002149106 -0.06273821
-0.13725273 -0.22186132 0.08272137 -0.19904238 0.0020744319 -0.14686444 -0.057816483 -0.08453281
0.08418769 -0.06030723 -0.20220856 -0.16156101 -0.037102323 -0.041092284 -0.05401182 -0.12734807
0.045615323 0.23121929 0.19193648 -0.17221776 0.043101583 0.24517286 -0.020884138 -0.09980752
-0.0115438 0.06798596 -0.22975084 -0.05160856 0.026006408 0.0853312 -0.13092004 -0.17058282
-0.10830846 -0.19605228 0.23847513 -0.14756972 0.2224788 0.19103347 -0.21860506 -0.096688166
00000000: c36c 1fbe b4bc 5fbe 375a b93b b16d c5bc
00000010: c678 69be 6123 7f3b f64a ee3d 55c6 033e
00000020: ab21 bbbd 8992 4dbe 8b8a 61be 9b1e aabc
00000030: 343e 50bd 7171 923c 3d7a 953d b974 dfbd
00000040: 17b4 4f3e c201 70bd 927d 37be 8474 95bc
00000050: b345 5a3e 98b2 073d a007 84be 66be b43d
00000060: d035 3fbe c3b6 38bd d48e 953c 1588 363c
00000070: bf65 643e 3d32 823e edec 0f3c 8b14 ccbd
00000080: 0d75 94bd 92e8 02be 8859 e7bd 2600 1dbd
00000090: 3a9e 20be 9b84 433e f69c db3c be5d f73d
000000a0: 5be3 36bd b880 eebd e39f 313e bbac 62be
000000b0: 56df 033e 26de 0cbe bd8a 5abe 1927 383c
000000c0: ef38 87be c1b7 12be 7edc 4bbe 6fbe 5cbe
000000d0: 0525 99bd d235 09bd 2401 59be 4d30 77bd
000000e0: c18a 293e 9292 343e 3870 6d3b 6440 1abe
000000f0: 2aac 5abd ec3a 7d3e f9b3 03be dd42 27be
00000100: fe05 bcbd 7ad4 a9bd 141a e73d 51b6 29be
00000110: a6a8 363e 6731 2ebe e42d 07be 1299 933d
00000120: 5608 35be b02f 4e3e 54ba 72be 4fbb 75be
00000130: bd72 1cbe a874 103e 1465 0ebe a950 d83c
00000140: 1148 76bd 633a 60be a41d 3bbd c87e 4e3e
00000150: 7d01 b33d cd71 673e 04d8 0c3b e47c 80bd
00000160: fb8b 0cbe 9d2f 63be d269 a93d c4d1 4bbe
00000170: 31f3 073b a263 16be fad0 6cbd 8a1f adbd
00000180: 986a ac3d b704 77bd c30f 4fbe 4070 25be
00000190: 9bf8 17bd 6250 28bd 803b 5dbd 8867 02be
000001a0: 22d7 3a3d c0c4 6c3e ff8a 443e da59 30be
000001b0: 498b 303d 980e 7b3e 3615 abbc e367 ccbd
000001c0: 3522 3dbc 393c 8b3d ce43 6bbe 7f63 53bd
000001d0: 640b d53c 20c2 ae3d e70f 06be 43ad 2ebe
000001e0: d3d0 ddbd eec1 48be d332 743e 841c 17be
000001f0: 7cd1 633e 479e 433e 01da 5fbe 7204 c6bd

weight f4 [128, 136]
-0.057640266 -0.048689824 0.07736814 0.05494464 -0.06937099 0.065461256 -0.010175693 -0.019837737
-0.027519913 -0.07234984 0.08689562 -0.08390448 0.018179819 0.09904049 -0.094003804 0.046264075
-0.08086491 -0.07500037 -0.023335123 0.07168726 0.015109836 0.073042095 -0.056623604 -0.013956917
0.071477935 0.02380937 0.07647243 0.06763159 0.040067293 -0.06330253 0.0771335 0.07684451
-0.07826491 0.050961234 0.0478048 0.05467194 -0.009494947 0.043249987 -0.014391094 -0.04427588
-0.05538912 0.056285057 0.11038479 0.028366724 0.03616637 0.0616605 -0.029566364 0.071402214
0.042714655 -0.06751571 0.0022037146 -0.12274494 -0.07184609 0.027973084 0.046869084 0.027316947
0.017104961 0.05085287 -0.049510933 -0.019849844 0.040685084 0.06298552 0.0073579736 0.061598714
0.07010175 -0.015031083 0.079905614 0.015038336 0.076232865 -0.074199505 0.045821942 0.017239703
-0.0048043295 -0.08912159 -0.030565193 0.05268343 0.016802596 -0.030648412 -0.027140338 0.06378951
0.03294168 -0.0012354837 0.030929495 0.029846523 -0.038227145 0.0028302902 0.03750524 -0.037262898
-0.08783523 -0.039447207 -0.023628356 0.021945797 0.081728704 0.027228246 0.054891106 -0.102437735
-0.053937133 -0.047227867 0.02912212 -0.053398978 -0.03419539 -0.06255263 -0.09193689 0.082712665
-0.025838949 -0.031765267 9.270169e-05 0.004874633 0.06989624 0.048569627 0.11152694 0.054031294
-0.08944458 0.023119906 0.04192226 0.0474738 -0.004767392 0.04065853 0.10410824 0.05056412
0.06498328 0.066823944 -0.07655526 0.032881424 0.00028508544 -0.04280885 -0.09273069 -0.048323005
0.008001702 -0.0038508924 -0.0033765098 -0.02108281 -0.06264092 -0.033784613 0.027021984 -0.04971637
-0.036620498 0.03869268 -0.03693298 0.08999461 -0.043758754 0.03294087 0.0018813112 0.07021524
-0.014092874 0.047790885 0.073224574 -0.02271043 0.071917295 -0.0026156672 0.01364057 -0.042570587
0.04360251 0.07137504 -0.05683902 0.04149131 -0.07916615 -0.032271862 0.05931208 0.08443899
-0.07923862 0.03361266 0.06702103 0.07032758 0.0054480964 -0.06275063 -0.020019172 -0.049856085
0.012933822 -0.009292277 -0.0029149782 0.06591835 0.05211837 -0.019170025 -0.0626641 -0.0037486828
0.06752453 0.015701625 0.03637016 -0.022775674 0.058433466 0.04255521 0.014508542 0.100974366
-0.051892307 -0.028622305 -0.019423831 0.06486235 0.10151846 -0.06761437 0.012337039 0.00053191656
0.011984456 0.0067982 -0.074210174 -0.0069684046 -0.05789819 -0.008090832 0.008372392 -0.03843411
0.036809556 -0.0704702 -0.062960275 0.026837904 0.077446975 -0.027560804 0.005257064 0.0035485395
0.023464689 0.06622967 0.03898616 -0.058195226 0.017478902 0.015571834 0.009005531 -0.05689621
-0.042512957 -0.08591588 0.03932515 -0.011780619 -0.013968953 0.09793643 0.041066542 -0.055704605
-0.04979095 0.0044527645 0.07324256 -0.055557717 0.056547213 0.087216765 -0.048717365 -0.07419549
0.06856118 -0.0014799405 -0.021365386 -0.006102704 0.08938428 0.0085855 -0.07052468 0.09143457
0.037265897 -0.07798255 -0.055658706 0.045617957 0.020178722 -0.0066055306 0.08757641 -0.0019155848
-0.058781467 -0.0074716206 0.08278427 -0.018049505 -0.06095352 0.0040961453 0.009020133 -0.044731926
00000000: 3318 6cbd fb6e 47bd 3073 9e3d a10d 613d
00000010: 6112 8ebd 8d10 863d f3b7 26bc c082 a2bc
00000020: 7171 e1bc 272c 94bd 55f6 b13d 1dd6 abbd
00000030: d8ed 943c bed5 ca3d 1185 c0bd 667f 3d3d
00000040: 809c a5bd cb99 99bd 4d29 bfbc c5d0 923d
00000050: 3f8f 773c 1897 953d 27ee 67bd 8eab 64bc
00000060: 0663 923d de0b c33c 949d 9c3d 6e82 8a3d
00000070: 9a1d 243d c2a4 81bd 2bf8 9d3d a860 9d3d
00000080: 5a49 a0bd babc 503d f7ce 433d afef 5f3d
00000090: b290 1bbc e626 313d a0c8 6bbc a05a 35bd
000000a0: b4df 62bd 298b 663d 6c11 e23d 5561 e83c
000000b0: 3023 143d b88f 7c3d 2935 f2bc 533b 923d
000000c0: 90f5 2e3d ad45 8abd 326c 103b b361 fbbd
000000d0: 0b24 93bd cf27 e53c ccf9 3f3d cac7 df3c
000000e0: b41f 8c3c 194b 503d facb 4abd 249c a2bc
000000f0: 67a5 263d 8dfe 803d 281b f13b ef4e 7c3d
00000100: 8291 8f3d ee44 76bc 8ea5 a33d 5a63 763c
00000110: fa1f 9c3d e9f5 97bd caaf 3b3d 473a 8d3c
00000120: a36d 9dbb 6185 b6bd db63 fabc 95ca 573d
00000130: 99a5 893c 6112 fbbc 6a55 debc 13a4 823d
00000140: dbed 063d f4ef a1ba da5f fd3c b280 f43c
00000150: 1194 1cbd 647c 393b 189f 193d fba0 18bd
00000160: f5e2 b3bd 6593 21bd 4190 c1bc acc7 b33c
00000170: 6161 a73d c50d df3c 7fd5 603d e0ca d1bd
00000180: 2fed 5cbd 0272 41bd 8391 ee3c e3b8 5abd
00000190: 7710 0cbd 981b 80bd 6849 bcbd 4265 a93d
000001a0: 34ac d3bc 4c1c 02bd d768 c238 63bb 9f3b
000001b0: c325 8f3d f2f0 463d 3c68 e43d eb4f 5d3d
000001c0: b82e b7bd f565 bd3c adb6 2b3d e373 423d
000001d0: c837 9cbb 8f89 263d b336 d53d 531c 4f3d
000001e0: f415 853d feda 883d 01c9 9cbd acae 063d
000001f0: 8577 9539 5558 2fbd 97e9 bdbd 58ee 45bd
00000200: 9219 033c 415f 7cbb 6f48 5dbb dbb5 acbc
00000210: e249 80bd bc61 0abd 355d dd3c 64a3 4bbd
00000220: 60ff 15bd 377c 1e3d 0947 17bd 184f b83d
00000230: 613c 33bd 01ed 063d 5496 f63a 02cd 8f3d
00000240: cce5 66bc 60c0 433d c4f6 953d 390b babc
00000250: 6049 933d 9d6b 2bbb b37c 5f3c 7f5e 2ebd
00000260: 8c98 323d 142d 923d 08d0 68bd cbf2 293d
00000270: dd21 a2bd 802f 04bd 39f1 723d 59ee ac3d
00000280: dc47 a2bd 6ead 093d 5242 893d e807 903d
00000290: f285 b23b 6783 80bd 3fff a3bc e535 4cbd
000002a0: 62e8 533c a23e 18bc 3809 3fbb 3300 873d
000002b0: 127a 553d 750a 9dbc 0956 80bd 76ac 75bb
000002c0: 4d4a 8a3d b2a0 803c e0f8 143d 0d94 babc
000002d0: ee57 6f3d 5f4e 2e3d 3cb5 6d3c a6cb ce3d
000002e0: 078d 54bd 5379 eabc ba1e 9fbc 8dd6 843d
000002f0: e9e8 cf3d 6779 8abd 4b21 4a3c 5170 0b3a
00000300: 745a 443c 6fc3 de3b 81fb 97bd 3757 e4bb
00000310: a726 6dbd 698f 04bc 5b2c 093c 166d 1dbd
00000320: 9ec5 163d ae52 90bd 51f1 80bd 2adb db3c
00000330: 859c 9e3d 32c7 e1bc 7343 ac3b 9d8e 683b
00000340: 0539 c03c 6ca3 873d f4af 1f3d 1e5e 6ebd
00000350: ea2f 8f3c 0121 7f3c ef8b 133c 000c 69bd
00000360: 1122 2ebd aaf4 afbd 6913 213d 7f03 41bc
00000370: 09de 64bc e592 c83d 6435 283d 832a 64bd
00000380: 98f1 4bbd 7fe8 913b 3200 963d 7d90 63bd
00000390: 0d9e 673d b49e b23d dc8b 47bd cef3 97bd
000003a0: ce69 8c3d 90fa c1ba 7606 afbc 31f9 c7bb
000003b0: 1b0f b73d 32aa 0c3c 3e6f 90bd 0c42 bb3d
000003c0: 20a4 183d 51b5 9fbd 62fa 63bd e5d9 3a3d
000003d0: d94d a53c 3573 d8bb 435b b33d 5c14 fbba
000003e0: d6c4 70bd 7fd4 f4bb cd8a a93d 8edc 93bc
000003f0: 66aa 79bd f538 863b 2ec9 133c d338 37bd

bias f4 [128]
0.0045317877 0.028451765 0.030483931 -0.042162046 -0.007078223 -0.01646082 -0.05231635 -0.0043423055
0.05603559 0.026170308 0.09945469 -0.06633624 0.019423665 0.0939878 0.060944997 -0.049588397
-0.014969649 -0.01731745 0.046122897 -0.036216408 -0.008694623 0.020019516 0.076940484 0.053532314
-0.018397365 -0.030530093 0.08640218 -0.04406603 -0.06951598 -0.014715084 0.09243953 0.034257837
0.035770215 -0.054603033 -0.06966916 0.022202732 0.05075745 0.093718156 0.027945051 0.02120776
0.06706718 -0.028956356 0.0082422355 0.07632177 -0.020324279 -0.03918814 0.08830859 -0.07459405
0.06765787 0.08529622 -0.031148639 0.081738174 0.061282165 -0.018445732 -0.050883733 -0.025131417
-0.0230919 0.088111974 -0.054983683 0.022812853 0.06948886 -0.08988508 0.09396311 0.00048471335
-0.040722303 -0.017545218 0.035976604 -0.053472944 0.010137691 0.074521475 0.067473345 0.09436383
-0.044991933 -0.014994498 -0.024535757 -0.03092181 -0.034687817 0.064578265 0.046181604 0.036130592
-0.07322085 0.06823551 0.054705527 0.08262857 0.010098228 0.0020793257 0.09678124 -0.006349587
0.03159709 0.042965405 0.022848524 0.013205243 -0.057870563 -0.06725982 0.0033881385 0.023922483
0.03331949 -0.051992036 0.05811014 0.014745609 -0.06782733 -0.04355695 0.053524278 -0.021161586
-0.05392763 -0.044250477 -0.06303856 0.055141903 0.045334812 0.024861222 -0.0033021737 0.08398375
0.03385958 -0.010027159 0.015115148 -0.0074659837 0.026626894 -0.013348264 0.10387308 0.020023685
-0.03403557 0.07827135 0.032813624 -0.043093335 0.0016540182 0.0015992448 0.09893877 -0.022693556
00000000: 647f 943b ad13 e93c 70b9 f93c 1cb2 2cbd
00000010: 70f0 e7bb d7d8 86bc ab49 56bd e649 8ebb
00000020: 9385 653d 1d63 d63c e7ae cb3d 4bdb 87bd
00000030: 611e 9f3c ad7c c03d 76a1 793d 341d 4bbd
00000040: 4243 75bc 53dd 8dbc 5deb 3c3d a857 14bd
00000050: e473 0ebc f8ff a33c f992 9d3d b344 5b3d
00000060: 12b6 96bc 3f1a fabc a0f3 b03d 957e 34bd
00000070: 655e 8ebd 8917 71bc f050 bd3d f251 0c3d
00000080: ca83 123d 6ea7 5fbd b4ae 8ebd 81e2 b53c
00000090: 0be7 4f3d 4eef bf3d 05ed e43c e5bb ad3c
000000a0: 855a 893d e135 edbc 710a 073c 974e 9c3d
000000b0: 1a7f a6bc be83 20bd 22db b43d c4c4 98bd
000000c0: 3690 8a3d c9af ae3d 6e2b ffbc 5866 a73d
000000d0: 0203 7b3d 811b 97bc 766b 50bd 67e0 cdbc
000000e0: 392b bdbc 0d74 b43d 9236 61bd 05e2 ba3c
000000f0: 2d50 8e3d ab15 b8bd bb6f c03d 2021 fe39
00000100: 6ecc 26bd fdba 8fbc 345c 133d 7206 5bbd
00000110: 8f18 263c b79e 983d 772f 8a3d d341 c13d
00000120: 7649 38bd 7cab 75bc 36ff c8bc bc4f fdbc
00000130: d014 0ebd 9c41 843d ec28 3d3d acfd 133d
00000140: d0f4 95bd 0fbf 8b3d e712 603d 2b39 a93d
00000150: 0a73 253c 4c45 083b 3e35 c63d 3210 d0bb
00000160: f36b 013d 7efc 2f3d d42c bb3c ce5a 583c
00000170: af09 6dbd 84bf 89bd 880b 5e3b 15f9 c33c
00000180: 047a 083d 9af5 54bd e604 6e3d 9197 713c
00000190: 0ee9 8abd c668 32bd 463c 5b3d 105b adbc
000001a0: 38e3 5cbd fd3f 35bd 5c1a 81bd 7adc 613d
000001b0: ffb0 393d c3a9 cb3c 4869 58bb acff ab3d
000001c0: 58b0 0a3d f448 24bc 87a5 773c 36a5 f4bb
000001d0: a520 da3c adb2 5abc 69bb d43d b608 a43c
000001e0: e268 0bbd bb4c a03d 9467 063d a382 30bd
000001f0: a4cb d83a c09d d13a 69a0 ca3d d6e7 b9bc

weight f4 [8, 128]
-0.033367608 0.012079108 -0.023553144 -0.06594232 0.06405301 0.073421635 0.07505184 -0.073645465
0.04387371 0.047660287 -0.013099314 -0.04092146 -0.018285716 0.04126737 0.032264054 0.033343352
-0.01147096 -0.009428503 -0.015786987 0.029126327 -0.04096487 0.057270695 -0.03741972 0.08751221
-0.07182514 0.06339602 -0.050391026 -0.022323268 0.068467565 -0.046789788 0.050596554 -0.03244775
0.038379066 0.07337046 -0.023723576 0.026829503 0.013504482 0.005446068 0.033004954 0.053390235
-0.032013007 -0.028610365 -0.06380892 0.06961168 0.016330175 -0.04758497 -0.020482136 -0.07405235
0.065210015 -0.07549198 0.07262332 0.028570294 0.021399546 -0.027102815 0.01879152 -0.07161032
0.049881764 0.015066128 -0.08486077 -0.039019827 0.021800837 0.05386715 -0.0322975 0.0066279816
-0.049670123 -0.028974494 0.020719169 0.0395374 0.005963684 0.01871418 -0.041779242 -0.04286521
0.06825271 -0.028877767 0.07469672 -0.018057723 -0.05220728 0.08209445 0.052907676 0.014596138
-0.06985462 0.068009764 -0.06741924 -0.059179686 -0.08123607 -0.024984252 -0.030189028 -0.06963593
0.0088782655 -0.07027623 0.044216607 0.015892344 0.0018591923 -0.038340155 0.005015812 0.06927513
-0.06660312 0.07586652 0.022026839 -0.06678954 0.06721696 -0.076257974 0.03021302 -0.08103464
-0.08349295 -0.0068020164 -0.04531176 -0.033811085 -0.009215345 0.030545833 -0.0755398 -0.06260543
0.07377249 0.003603429 0.06991683 0.071794845 -0.055761985 0.037712924 0.07547386 -0.07321097
-0.019027067 0.0023712132 0.08389044 -0.06065413 0.010672794 -0.032971565 -0.0131150875 -0.08685943
-0.047045786 0.057859644 -0.014945388 0.0075960318 0.033493806 0.054542016 0.053481493 0.08712073
-0.06468338 0.030649746 0.04081352 -0.068312556 0.023844063 -0.0033236055 0.06560474 0.0719965
0.087947406 0.034315057 -0.03834456 0.026597537 0.033822518 -0.06227679 0.0344649 0.08576305
0.025865426 -0.04315674 -0.004696444 -0.007942678 0.039274454 0.076644294 0.032298975 0.08542035
-0.06576855 -0.063016325 0.0046224133 -0.03688712 -0.06089346 0.08398446 -0.011445514 -0.07566199
0.017451344 -0.011968335 0.033314068 -0.027018374 -0.0037604999 -0.015621624 -0.030737212 0.076082066
0.08677707 0.016986243 0.062428143 -0.032913033 0.060423933 0.059420627 -0.0146610765 -0.07619203
0.051242832 -0.056671895 -0.0259142 0.07615301 -0.05314691 -0.005391435 -0.06006184 -0.01933297
-0.007583493 0.033461887 -0.016391098 -0.03805731 -0.0057496834 -0.054851044 -0.08113751 0.042466678
0.008570741 -0.013891591 -0.02640048 0.012533788 0.08203449 -0.009317688 -0.0008694684 -0.05498089
0.008825708 0.018418858 0.036366396 -0.06947783 -0.07818211 0.013037654 0.046700813 0.042512346
0.04290703 0.023026772 -0.07981813 0.03818338 -0.08044202 -0.054566976 -0.05478597 0.0013239273
-0.00027226863 0.005011819 0.07847383 -0.028196115 0.012510122 -0.07090773 0.08542611 -0.06433407
0.033669557 0.04340978 0.03148989 -0.06288724 0.058426395 -0.06452183 0.054822553 0.053699497
0.050628394 0.07742057 -0.072002366 0.026057478 -0.07551676 -0.062571675 0.0020402446 0.0002662627
0.07339165 0.028456604 0.029751081 -0.036069453 0.0037961665 0.063001454 0.011813877 -0.06899871
00000000: 79ac 08bd 73e7 453c 86f2 c0bc c40c 87bd
00000010: 392e 833d 155e 963d c7b4 993d 6fd3 96bd
00000020: ebb4 333d 6f37 433d 819e 56bc 439d 27bd
00000030: edcb 95bc f907 293d 5027 043d 0a93 083d
00000040: b2f0 3bbc 027a 1abc b653 81bc 569a ee3c
00000050: c8ca 27bd ad94 6a3d 6c45 19bd 9a39 b33d
00000060: 0f19 93bd c6d5 813d d266 4ebd 49df b6bc
00000070: b938 8c3d a6a6 3fbd 553e 4f3d efe7 04bd
00000080: 5e33 1d3d 4043 963d f257 c2bc 8cc9 db3c
00000090: e741 5d3c ee74 b23b 3430 073d b8af 5a3d
000000a0: 1220 03bd 4960 eabc 40ae 82bd 9290 8e3d
000000b0: dcc6 853c 75e8 42bd 27ca a7bc c2a8 97bd
000000c0: d48c 853d 8a9b 9abd 89bb 943d 400c ea3c
000000d0: 1a4e af3c b906 debc acf0 993c 6ea8 92bd
000000e0: d250 4c3d ecd7 763c 7ccb adbd 41d3 1fbd
000000f0: ab97 b23c cda3 5c3d 624a 04bd 8a2f d93b
00000100: e672 4bbd eb5b edbc 3fbb a93c f8f1 213d
00000110: 026b c33b 7b4e 993c b620 2bbd 6e93 2fbd
00000120: 14c8 8b3d 1191 ecbc 98fa 983d caed 93bc
00000130: 4dd7 55bd 2321 a83d b8b5 583d a424 6f3c
00000140: f00f 8fbd b448 8b3d 1913 8abd 6666 72bd
00000150: 195f a6bd c6ab ccbc fb4e f7bc 489d 8ebd
00000160: 2576 113c fcec 8fbd 791c 353d a930 823c
00000170: 24b0 f33a 910a 1dbd ae5b a43b 1fe0 8d3d
00000180: 3767 88bd e85f 9b3d a171 b43c f4c8 88bd
00000190: 0ca9 893d 242d 9cbd 4c81 f73c 7df5 a5bd
000001a0: 5afe aabd 73e3 debb d398 39bd 7e7d 0abd
000001b0: f5fb 16bc 413b fa3c 9cb4 9abd 4737 80bd
000001c0: 0816 973d 8227 6c3b 8e30 8f3d 2d09 933d
000001d0: ae66 64bd de78 1a3d 0a92 9a3d a2ef 95bd
000001e0: a7de 9bbc 5b66 1b3b c0ce ab3d 7770 78bd
000001f0: f1dc 2e3c 310d 07bd aae0 56bc 5be3 b1bd
00000200: 15b3 40bd 3cfe 6c3d 80dd 74bc 22e8 f83b
00000210: cd30 093d 7367 5f3d 690f 5b3d 5a6c b23d
00000220: b878 84bd 2d15 fb3c 142c 273d 74e7 8bbd
00000230: a054 c33c d9d0 59bb c75b 863d e772 933d
00000240: c51d b43d f28d 0c3d 2f0f 1dbd 14e3 d93c
00000250: 7b89 0a3d f315 7fbd 112b 0d3d 8aa4 af3d
00000260: bbe3 d33c 1fc5 30bd a1e4 99bb 0222 02bc
00000270: 40de 203d aff7 9c3d ee4b 043d ddf0 ae3d
00000280: a9b1 86bd b40e 81bd 9d77 973b f316 17bd
00000290: 6c6b 79bd 0b00 ac3d f785 3bbc acf4 9abd
000002a0: 1ff6 8e3c d616 44bc 5574 083d a355 ddbc
000002b0: b872 76bb d7f1 7fbc 9bcc fbbc ead0 9b3d
000002c0: 2db8 b13d bc26 8b3c a7b4 7f3d d1cf 06bd
000002d0: 167f 773d 0b63 733d 0335 70bc 910a 9cbd
000002e0: 01e4 513d ca20 68bd 044a d4bc 1cf6 9b3d
000002f0: 93b0 59bd a3aa b0bb 6703 76bd 2d60 9ebc
00000300: f37e f8bb 550f 093d a046 86bc fbe1 1bbd
00000310: d767 bcbb 7dab 60bd 6c2b a6bd 8af1 2d3d
00000320: 4b6c 0c3c 8e99 63bc d245 d8bc 845a 4d3c
00000330: b301 a83d 37a9 18bc 09ed 63ba a433 61bd
00000340: b499 103c 25e3 963c eef4 143d 644a 8ebd
00000350: f11d a0bd e29b 553c 5a49 3f3d 6d21 2e3d
00000360: 48bf 2f3d a4a2 bc3c b077 a3bd 2d66 1c3d
00000370: c9be a4bd 9f81 5fbd 4167 60bd a187 ad3a
00000380: 47bf 8eb9 2f3a a43b e3b6 a03d 8afb e6bc
00000390: 41f7 4c3c 1238 91bd e2f3 ae3d 95c1 83bd
000003a0: 17e9 093d 74ce 313d 8bfb 003d 06cb 80bd
000003b0: 8450 6f3d 0524 84bd 9d8d 603d 01f4 5b3d
000003c0: b85f 4f3d ad8e 9e3d fa75 93bd 7e76 d53c
000003d0: 88a8 9abd 9425 80bd a0b5 053b 2d99 8b39
000003e0: 5d4e 963d d31d e93c 8ab8 f33c 90bd 13bd
000003f0: 1bc9 783b e806 813d fe8e 413c 324f 8dbd

bias f4 [8]
-0.004188954 -0.01517571 -0.017263485 -0.06453663 -0.014866931 -0.04153266 0.05073434 0.030969124
00000000: 7e43 89bb 8ba3 78bc 276c 8dbc c82b 84bd
00000010: 6e94 73bc 271e 2abd d0ce 4f3d f6b2 fd3c

weight f4 [128, 8]
-0.2687121 -0.055605516 -0.16638485 0.15732267 -0.300828 0.090997405 -0.0025981846 -0.13786218
-0.010347683 0.15247402 0.07068519 0.20967813 -0.19425242 -0.28152734 -0.031811133 0.25166258
-0.008555683 -0.15010697 -0.05530147 0.10129207 0.24800812 -0.07044762 -0.116728015 0.22731481
0.23106635 -0.31990466 0.302004 -0.030520555 -0.18271413 -0.10960625 -0.06305843 0.14691965
-0.2951048 -0.35298076 0.073113024 -0.01528624 0.12359812 -0.0607806 0.09730198 0.314743
-0.08381596 -0.046922464 0.1681776 -0.043322027 -0.345245 -0.1970114 0.14979933 0.32277104
-0.09264016 0.25528416 0.17103343 -0.05421994 -0.15296398 -0.08738668 0.16962373 -0.21350864
-0.2563037 0.31688914 -0.2588321 -0.10483417 -0.05492712 -0.2388013 -0.075491875 -0.34805477
-0.22104205 -0.18252337 -0.2731483 -0.31609112 0.17217535 0.019084472 -0.15872043 0.010103568
-0.18856685 -0.19244651 -0.20466694 0.05747085 0.11033821 0.32417098 -0.33999753 -0.03293578
0.26633865 -0.28036395 -0.10016135 -0.17567919 0.0032912053 -0.033407025 0.29215175 -0.22327411
-0.117107674 0.04539755 0.3173083 0.18719873 -0.23251203 0.1443803 0.25133666 -0.14903462
-0.0380181 0.16685562 0.3091184 0.020812323 0.14081633 0.292209 -0.017577048 -0.20439325
0.24394962 0.2214105 0.15246412 0.017212056 0.10299927 -0.2833873 -0.09661655 -0.146251
0.007217774 -0.25008494 0.027626079 -0.29039666 0.15384093 -0.15163328 0.3135181 -0.14547293
-0.08648992 -0.13508697 0.30938816 -0.20617147 -0.09833458 0.09979851 -0.23246545 0.022999324
0.3010787 0.19135436 -0.041237824 -0.19038823 0.17131181 0.12602422 0.11385486 0.20642231
-0.2123713 -0.13833387 -0.23743102 -0.017537473 0.3170398 -0.2647469 0.031331293 0.19466339
-0.02039975 0.23211719 0.10830547 -0.22238629 0.16537204 -0.1352169 0.25683826 0.2652929
-0.13709922 -0.052598212 0.11198544 0.20019454 -0.16707098 -0.0111647425 -0.034296535 -0.12786557
0.10401349 0.016457332 -0.3162456 -0.2724106 -0.24973811 0.18074824 0.24210186 -0.27946
-0.18256518 0.21266444 0.06918287 0.20314392 -0.2347848 0.18718241 0.35221586 0.09736887
0.01961017 -0.25773108 -0.26939815 0.2868823 0.31053314 0.04633089 -0.17003775 -0.27674228
0.17226112 0.12357734 -0.14853902 0.34628382 -0.057040703 0.15761665 0.27575216 0.17195295
0.26979542 0.14856085 0.27856934 -0.017283536 0.22344442 -0.22537997 0.2766597 -0.32390547
-0.18980339 0.1394928 -0.21783514 0.34211445 0.29719752 0.236482 -0.21735968 0.124979526
0.30037585 -0.35286114 0.14362204 0.3004857 -0.06849929 0.26150727 0.020185053 0.012554956
0.23964427 0.10088868 -0.14260441 0.27028707 0.05626465 -0.24831186 0.13892646 -0.22732657
0.23169471 0.25190976 0.33676815 0.2668021 0.15444548 -0.25309482 -0.29639184 0.2077341
-0.05910105 0.159918 -0.20642531 0.05907555 0.3213833 0.25564384 0.2507552 0.09461091
0.017287584 -0.16784734 0.34313035 0.23913118 -0.033175427 0.15303415 0.10324406 -0.3086244
-0.29626167 0.29058215 0.16561516 0.010126033 0.24376397 0.27467856 -0.32914516 0.09989338
00000000: a294 89be 9cc2 63bd ca60 2abe 3219 213e
00000010: 2106 9abe d95c ba3d 4e46 2abb be2b 0dbe
00000020: 5489 29bc 2622 1c3e 66c3 903d ddb5 563e
00000030: 1bea 46be 5a24 90be 644c 02bd ebd9 803e
00000040: 232d 0cbc a4b5 19be cb83 62bd 3772 cf3d
00000050: d7f5 7d3e d746 90bd 190f efbd 37c5 683e
00000060: a89c 6c3e 8bca a3be 45a0 9a3e 3e06 fabc
00000070: 6a19 3bbe 3e79 e0bd c724 81bd 1b72 163e
00000080: fa17 97be e5b9 b4be 48bc 953d 2373 7abc
00000090: 0321 fd3d 14f5 78bd 4346 c73d ff25 a13e
000000a0: b4a7 abbd c531 40bd c036 2c3e 7072 31bd
000000b0: f4c3 b0be 5bbd 49be ff64 193e 3f42 a53e
000000c0: 20ba bdbd 9bb4 823e 6323 2f3e ba15 5ebd
000000d0: 97a2 1cbe caf7 b2bd d8b1 2d3e 02a2 5abe
000000e0: 3d3a 83be 4b3f a23e a485 84be 4cb3 d6bd
000000f0: 43fb 60bd 5488 74be 7c9b 9abd 3c34 b2be
00000100: d958 62be 68e7 3abe 18da 8bbe b2d6 a1be
00000110: bc4e 303e 0a57 9c3c 9c87 22be 7089 253c
00000120: ab17 41be b310 45be 3694 51be 8e66 6b3d
00000130: 00f9 e13d bdf9 a53e 2814 aebe abe7 06bd
00000140: 8a5d 883e dd8b 8fbe 6521 cdbd 3fe5 33be
00000150: 43b1 573b ced5 08bd ea94 953e f8a1 64be
00000160: 26d6 efbd c8f2 393d 3c76 a23e 06b1 3f3e
00000170: a217 6ebe 6ed8 133e 33af 803e 889c 18be
00000180: deb8 1bbd 33dc 2a3e c444 9e3e 9b7e aa3c
00000190: 2832 103e 6b9c 953e befd 8fbc 774c 51be
000001a0: eecd 793e 6fb9 623e 8e1f 1c3e 4c00 8d3c
000001b0: 48f1 d23d 2418 91be e6de c5bd d2c2 15be
000001c0: 1483 ec3b 220b 80be 1650 e23c dfae 94be
000001d0: 7a88 1d3e c145 1bbe 7285 a03e dbf6 14be
000001e0: a121 b1bd 3d54 0abe 2068 9e3e 9d1e 53be
000001f0: a463 c9bd 2963 cc3d 6c0b 6ebe 1469 bc3c
00000200: fd26 9a3e 66f2 433e fee8 28bd 22f5 42be
00000210: 5d6c 2f3e 7e0c 013e bd2c e93d 5f60 533e
00000220: dd77 59be 65a7 0dbe 1e21 73be bfaa 8fbc
00000230: 0a53 a23e e88c 87be 3e55 003d d755 473e
00000240: 601d a7bc 21b0 6d3e 42cf dd3d 3bb9 63be
00000250: 4a57 293e 4d76 0abe 4e80 833e 79d4 873e
00000260: bd63 0cbe 3971 57bd 9f58 e53d ccff 4c3e
00000270: a814 2bbe 53ec 36bc 867a 0cbd 31ef 02be
00000280: 0605 d53d 87d1 863c f1ea a1be 6779 8bbe
00000290: 59bb 7fbe 1116 393e 8de9 773e 6215 8fbe
000002a0: 5ef2 3abe b5c4 593e c0af 8d3d f604 503e
000002b0: 6d6b 70be bfac 3f3e a355 b43e 5569 c73d
000002c0: 82a5 a03c 54f5 83be 8eee 89be 3de2 923e
000002d0: 33fe 9e3e 76c5 3d3d 601e 2ebe 2ab1 8dbe
000002e0: 3865 303e 1e16 fd3d 9d1a 18be 1d4c b13e
000002f0: 83a3 69bd 4266 213e 632f 8d3e 6f14 303e
00000300: a022 8a3e 5620 183e a4a0 8e3e 3496 8dbc
00000310: 9dce 643e 02ca 66be 57a6 8d3e f0d6 a5be
00000320: d25b 42be 33d7 0e3e 2d10 5fbe a029 af3e
00000330: 462a 983e 5628 723e 8993 5ebe 44f5 ff3d
00000340: ddca 993e 37aa b4be a811 133e 43d9 993e
00000350: 5b49 8cbd 48e4 853e 205b a53c 4db3 4d3c
00000360: 4f65 753e b99e ce3d e406 12be 1163 8a3e
00000370: c375 663d 7745 7ebe bd42 0e3e 4cc8 68be
00000380: 6141 6d3e 51fa 803e e06c ac3e 499a 883e
00000390: f526 1e3e a595 81be acc0 97be 3fb8 543e
000003a0: f113 72bd 8bc1 233e 2861 53be 34f9 713d
000003b0: 5a8c a43e c0e3 823e fc62 803e 5dc3 c13d
000003c0: b19e 8d3c 2ce0 2bbe c8ae af3e cede 743e
000003d0: f5e2 07bd fcb4 1c3e 9f71 d33d 0404 9ebe
000003e0: 9caf 97be 2fc7 943e 0597 293e a9e7 253c
000003f0: 439d 793e aba2 8c3e b785 a8be e794 cc3d

bias f4 [128]
0.29167566 0.2654669 0.34764844 0.05823527 -0.09231158 0.1357705 -0.25213683 0.26237252
-0.14787588 0.11287052 -0.21715473 0.12556376 -0.023494802 0.17614992 0.2682245 -0.22501194
0.056464847 0.2878431 -0.20897701 0.2382659 -0.15803589 0.3385008 0.2937343 0.30485502
-0.26196042 0.07782744 0.07049132 0.061126206 0.13535005 -0.15401997 0.077179685 0.28138444
-0.17693427 -0.33673418 0.06703174 0.1322601 0.09778743 0.109362304 -0.35020828 -0.26691583
-0.14833297 0.03715148 -0.15183052 0.33699352 -0.3321974 -0.093744285 -0.20744766 0.22973205
0.04292648 -0.0638684 -0.2596378 0.27449566 0.34770373 0.060534842 0.010261578 0.1914315
0.11996814 0.08414007 -0.34698522 -0.0078068185 -0.24658906 -0.014515922 -0.07388832 0.041837446
-0.16677174 0.18486041 0.063590445 -0.320585 0.33132723 -0.05169804 0.31468636 -0.019683253
-0.34808496 -0.17641915 -0.2572324 0.34297794 0.047164936 -0.011277653 -0.1230135 0.097479925
0.25072518 0.24912918 -0.08476068 -0.33338356 0.12594266 -0.23867162 -0.07651018 0.11375763
0.07051766 -0.07312183 0.1293698 -0.18621872 0.2917875 0.054662608 -0.17250098 -0.018306946
0.012826424 -0.0501679 0.23917775 0.11468781 0.029454451 0.14502713 -0.15288824 -0.33602446
0.2082222 -0.2639553 0.15162674 -0.035460588 0.20698945 -0.34684876 0.003187271 0.10680821
0.14960395 -0.20451349 0.28171182 0.024110356 -0.34594163 0.3038609 0.29471385 -0.25994885
-0.17101268 -0.18397778 -0.016074976 -0.33752927 -0.0039669033 -0.03161612 0.06538325 0.118561566
00000000: 8356 953e 47eb 873e fafe b13e 1b88 6e3d
00000010: db0d bdbd 6c07 0b3e 1418 81be b155 863e
00000020: c66c 17be a928 e73d cf5d 5ebe c993 003e
00000030: 2c78 c0bc a560 343e b954 893e 8869 66be
00000040: af47 673d 2c60 933e 12fe 55be fafb 733e
00000050: 29d4 21be fa4f ad3e 5864 963e f515 9c3e
00000060: ad1f 86be fe63 9f3d c15d 903d 795f 7a3d
00000070: 3499 0a3e 69b7 1dbe 6210 9e3d 9f11 903e
00000080: 422e 35be 6c68 acbe f047 893d 316f 073e
00000090: c744 c83d 58f9 df3d 804e b3be 31a9 88be
000000a0: 99e4 17be 262c 183d 7679 1bbe 6a8a ac3e
000000b0: c715 aabe 01fd bfbd 296d 54be e13e 6b3e
000000c0: add3 2f3d 70cd 82bd 3fef 84be b28a 8c3e
000000d0: 3906 b23e 62f3 773d 2d20 283c 9e06 443e
000000e0: dbb1 f53d a151 ac3d 0ca8 b1be 57d0 ffbb
000000f0: d881 7cbe 31d4 6dbc c252 97bd be5d 2b3d
00000100: 36c6 2abe 0c4c 3d3e b53b 823d b823 a4be
00000110: b9a3 a93e 53c1 53bd 921e a13e c63e a1bc
00000120: 3138 b2be 39a7 34be f7b3 83be ce9a af3e
00000130: 0530 413d e8c5 38bc 80ee fbbd 8ea3 c73d
00000140: 0d5f 803e b81b 7f3e 0297 adbd 40b1 aabe
00000150: 1df7 003e 5566 74be 5fb1 9cbd c3f9 e83d
00000160: 906b 903d e6c0 95bd 8479 043e 1fb0 3ebe
00000170: 2c65 953e e6e5 5f3d 19a4 30be 73f8 95bc
00000180: ec25 523c db7c 4dbd 03eb 743e 71e1 ea3d
00000190: 764a f13c fe81 143e bc8e 1cbe 660b acbe
000001a0: 3338 553e 2625 87be 0a44 1b3e 1f3f 11bd
000001b0: 0bf5 533e 2996 b1be 89e1 503b 43be da3d
000001c0: c731 193e fc6b 51be 883c 903e 1583 c53c
000001d0: 431f b1be a893 9b3e bce4 963e 0418 85be
000001e0: f31d 2fbe ac64 3cbe abaf 83bc a3d0 acbe
000001f0: ccfc 81bb e87f 01bd a7e7 853d 68d0 f23d

weight f4 [128, 136]
0.06484189 0.051687635 0.061213184 0.01722772 -0.015501857 -0.08394828 -0.081642024 0.09868984
-0.00076967076 0.06957859 -0.009446667 0.0198723 -0.025075125 0.03886709 0.11286824 -0.060066327
-0.0010137248 0.085333474 -0.047249466 0.0599179 0.05358795 -0.06536857 0.02283207 0.048574273
0.08344121 0.07966604 -0.06380558 0.0061258357 -0.029882753 -0.054757446 0.07962042 -0.070603475
0.03502361 0.045921776 0.013647979 0.024831008 0.07591147 -0.07419387 0.017321168 -0.0046317074
0.040013824 0.05903864 0.08025837 0.028515717 0.044963345 -0.10503111 0.02750724 0.079444855
0.08269442 0.06792795 0.017066432 -0.07391708 0.051475357 0.033213798 -0.034010615 0.05290471
-0.025512842 -0.071293846 -0.027042996 -0.002116783 0.0087098135 -0.050234556 0.06992272 -0.04088546
0.045917127 -0.03118045 -0.013140395 0.032947805 0.021483239 -0.07413569 -0.06865262 -0.06090145
0.08004881 -0.06264002 0.007860618 0.039225392 0.024441281 -0.003397033 0.03885676 0.023179147
0.02418849 0.09799489 0.04342084 -0.071165174 -0.011891439 0.03829023 0.017645262 -0.04088301
-0.036984276 -0.06886876 -0.055586617 0.018584222 -0.054386407 -0.02726387 -0.006274011 0.049588155
0.023830755 0.026845701 -0.05098532 0.04791066 -0.0337058 0.051725116 0.09523193 -0.08842415
0.016767258 0.028530227 0.043728534 -0.038079157 -0.048122443 -0.070539184 -0.003707104 0.00489067
-0.030306734 0.09790149 -0.009201298 0.020315716 0.04071448 -0.033322938 0.053432804 -0.00024597836
0.086122796 -0.030150777 -0.065507635 0.031301886 -0.022004956 -0.084174946 0.058210693 0.030711416
-0.088896625 -0.044937287 -0.08962614 0.1023357 0.060003318 -0.056182392 -0.020531222 0.093027934
-0.04116786 0.067814976 0.039275907 0.05215918 0.026658185 -0.0408476 -0.05436016 0.023597654
-0.0142522715 -0.015889209 0.06465462 0.010912672 -0.03936435 -0.08059646 0.11192636 -0.082884386
0.06680468 0.10118836 -0.001445224 -0.05724725 -0.054555565 0.019243788 -0.013819941 0.08194109
-0.06787261 -0.01813958 -0.044438224 -0.014262161 0.0011843244 -0.046489157 0.047115933 -0.035915706
-0.016465738 -0.080865175 -0.045405652 -0.053077705 0.009428566 -0.048977718 0.0031365019 0.0693198
-0.022623813 0.040629443 -0.01629132 -0.022763675 -0.036344163 0.016207486 0.08495576 0.049397573
0.02372691 -0.06679962 0.08604455 0.009337252 0.008387879 -0.019336069 0.0043753954 -0.07286052
0.054558486 0.041533567 0.023480015 0.00825585 -0.07199951 -0.037484203 0.037812266 -0.079237565
-0.04277762 -0.008609651 -0.029381415 0.0426292 0.031526085 0.09917698 0.067386046 -0.06207179
0.08560881 0.03561451 -0.04826848 0.05170271 0.0976873 0.013123827 0.082762875 0.032666676
-0.011506652 0.07807681 -0.014995277 0.060799204 0.068945885 0.054679032 -0.020807972 0.0945819
0.08038035 0.025159173 -0.05286162 0.10803038 -0.08353205 0.008484057 -0.07508888 0.030325972
-0.010241984 0.046750505 -0.03875865 0.039893836 0.05646178 -0.020187601 0.08924981 0.026965626
-0.05331204 -0.051250894 0.053529907 0.030498454 0.038679972 0.038486995 0.04961747 0.023571193
0.08938509 0.035894882 0.047075067 -0.0090431925 -0.014463142 -0.044247825 0.10495314 0.04908349
00000000: d3cb 843d 6ab6 533d adba 7a3d 2621 8d3c
00000010: 80fb 7dbc 13ed abbd ef33 a7bd e61d ca3d
00000020: bbc3 49ba 387f 8e3d 31c6 1abc 3ccb a23c
00000030: 596a cdbc 1933 1f3d 7727 e73d 1c08 76bd
00000040: f6de 84ba 51c3 ae3d a888 41bd 796c 753d
00000050: 0a7f 5b3d f5df 85bd 520a bb3c d1f5 463d
00000060: 3ae3 aa3d f327 a33d 80ac 82bd 3cbb c83b
00000070: adcc f4bc 5849 60bd 0810 a33d 8e98 90bd
00000080: eb74 0f3d 7918 3c3d c69b 5f3c 666a cb3c
00000090: 7977 9b3d f5f2 97bd 1fe5 8d3c 94c5 97bb
000000a0: 89e5 233d 80d2 713d 805e a43d cb99 e93c
000000b0: 7c2b 383d 8d1a d7bd dd56 e13c fcb3 a23d
000000c0: b15b a93d cf1d 8b3d e7ce 8b3c d761 97bd
000000d0: d3d7 523d 310b 083d b74e 0bbd 9cb2 583d
000000e0: 4f00 d1bc 8202 92bd 4689 ddbc bab9 0abb
000000f0: 9bb3 0e3c c0c2 4dbd a533 8f3d 8377 27bd
00000100: 9913 3c3d 256e ffbc d04a 57bc 47f4 063d
00000110: 9efd af3c 74d4 97bd bf99 8cbd cd73 79bd
00000120: a1f0 a33d 6949 80bd d2c9 003c ceaa 203d
00000130: 1539 c83c c2a0 5ebb 4428 1f3d 32e2 bd3c
00000140: f126 c63c 8bb1 c83d 0dda 313d 0cbf 91bd
00000150: 4fd4 42bc 37d6 1c3d cc8c 903c f174 27bd
00000160: d37c 17bd 100b 8dbd cbae 63bd f03d 983c
00000170: 48c4 5ebd 7b58 dfbc 3896 cdbb f31c 4b3d
00000180: b738 c33c 84eb db3c fcd5 50bd f83d 443d
00000190: 180f 0abd b7dd 533d f508 c33d b917 b5bd
000001a0: 7d5b 893c 39b8 e93c b11c 333d e4f8 1bbd
000001b0: 0a1c 45bd d976 90bd e2f2 72bb ea41 a03b
000001c0: d445 f8bc 9480 c83d 0ac1 16bc 256d a63c
000001d0: 3ac4 263d a27d 08bd 5bdc 5a3d a8f6 80b9
000001e0: 2661 b03d c3fe f6bc de28 86bd 6836 003d
000001f0: bd43 b4bc ea63 acbd 566e 6e3d 8296 fb3c
00000200: 6f0f b6bd 2910 38bd e98d b7bd 6195 d13d
00000210: 0ac6 753d 821f 66bd 1831 a8bc 6e85 be3d
00000220: a19f 28bd 94e2 8a3d c6df 203d dda4 553d
00000230: 4462 da3c d04f 27bd c2a8 5ebd de4f c13c
00000240: 5c82 69bc 162a 82bc a469 843d 10cb 323c
00000250: 833c 21bd c20f a5bd a639 e53d 4abf a9bd
00000260: e4d0 883d d83b cf3d ac6d bdba 187c 6abd
00000270: a875 5fbd 26a5 9d3c 096d 62bc bbd0 a73d
00000280: cc00 8bbd 7599 94bc db04 36bd d7ab 69bc
00000290: 553b 9b3a 6a6b 3ebd a3fc 403d 591c 13bd
000002a0: 28e3 86bc a49c a5bd 47fb 39bd 0268 59bd
000002b0: 467a 1a3c dc9c 48bd c58d 4d3b 8af7 8d3d
000002c0: 9355 b9bc 0f6b 263d 6075 85bc e37a babc
000002d0: 9edd 14bd 90c5 843c 49fd ad3d 1c55 4a3d
000002e0: f05e c23c 3dce 88bd 2038 b03d 46fb 183c
000002f0: 506d 093c ad66 9ebc 7a5f 8f3b e537 95bd
00000300: b878 5f3d 1a1f 2a3d 2959 c03c 8b43 073c
00000310: 7b74 93bd 0989 19bd 09e1 1a3d 4e47 a2bd
00000320: 9637 2fbd 7e0f 0dbc 4bb1 f0bc f59b 2e3d
00000330: 7f21 013d 4d1d cb3d b201 8a3d fd3e 7ebd
00000340: ac53 af3d 85e0 113d 2bb5 45bd 39c6 533d
00000350: 4710 c83d 5205 573c 957f a93d 7ecd 053d
00000360: 6686 3cbc bce6 9f3d c0ae 75bc 9608 793d
00000370: 8033 8d3d 1ff7 5f3d 7b75 aabc 28b4 c13d
00000380: 749e a43d 9c1a ce3c 6d85 58bd 083f dd3d
00000390: da12 abbd b700 0b3c 33c8 99bd 2c6e f83c
000003a0: ffcd 27bc 757d 3f3d 64c1 1ebd b867 233d
000003b0: 7844 673d 7860 a5bc 9bc8 b63d 04e7 dc3c
000003c0: ba5d 5abd 75ec 51bd 2d42 5b3d e5d7 f93c
000003d0: e46e 1e3d 8aa4 1d3d b03b 4b3d 6018 c13c
000003e0: 880f b73d 8306 133d c9d1 403d e629 14bc
000003f0: d0f6 6cbc 353d 35bd acf1 d63d c50b 493d

bias f4 [128]
-0.07773797 0.025453566 -0.042173564 -0.058899 -0.05863873 -0.03756483 -0.034145314 0.09526849
0.020725457 -0.061692894 -0.10855824 -0.06334653 -0.05673663 0.025235947 -0.03349752 -0.0049072993
-0.008708345 -0.025871687 -0.042359587 0.09129473 -0.0019972282 -0.06520741 -0.03628885 -0.040132374
0.048431072 0.032349855 0.043588355 -0.036194067 0.033638313 -0.042264532 -0.09607139 -0.09309089
-0.100341685 -0.022258302 -0.022257056 0.09552138 0.01845604 -0.0684308 0.059841566 -0.06116589
-0.023628369 0.048897624 0.07341626 -0.0777544 0.0077795316 -0.030093487 -0.005534814 -0.02240916
0.047489677 0.05990191 -0.023708664 -0.0967828 -0.039004177 0.0702761 -0.03988705 -0.07093101
-0.033413336 0.05588958 -0.032863252 0.03543173 0.03544233 0.04380894 -0.10634744 -0.053331204
0.06246957 -0.06583753 0.024156354 0.010319899 -0.020077147 -0.048860803 0.09739793 -0.023030188
0.035644263 -0.026686288 0.040157992 0.045441188 0.03650819 0.084931985 0.0034460237 0.080376714
0.07426066 0.026656566 0.0651252 -0.045530528 -0.08376937 -0.040326767 -0.007232837 0.018800894
-0.009113955 0.018800346 0.06070038 0.01693801 -0.04528049 -0.020872824 0.10031891 0.040196378
0.031940445 0.019620584 -0.030359132 0.042968754 -0.0126986485 -0.025715677 0.00917165 -0.0125848055
-0.022644171 0.0098198345 -0.015275824 -0.02898417 -0.08642095 -0.06578043 0.008638881 -0.061355907
0.07316812 -0.0032513503 0.04227495 -0.025360007 0.045136977 -0.09472631 -0.019503865 -0.023406716
0.053033054 0.06535436 0.08605536 -0.08250554 0.062039137 0.09298054 -0.0017925494 -0.05229173
00000000: 1635 9fbd ff83 d03c 30be 2cbd 1440 71bd
00000010: 2a2f 70bd 94dd 19bd f5db 0bbd 201c c33d
00000020: 6fc8 a93c b0b1 7cbd c853 debd d3bb 81bd
00000030: ab64 68bd 9ebb ce3c b234 09bd 69cd a0bb
00000040: 72ad 0ebc dcf0 d3bc 3f81 2dbd bbf8 ba3d
00000050: eee3 02bb 768b 85bd 9ea3 14bd d861 24bd
00000060: a95f 463d 4881 043d b489 323d 3b40 14bd
00000070: 54c8 093d 931d 2dbd 14c1 c4bd 70a6 bebd
00000080: f17f cdbd 0b57 b6bc 6e54 b6bc b7a0 c33d
00000090: 1f31 973c 7325 8cbd 6e1c 753d 1689 7abd
000000a0: 4890 c1bc e048 483d 445b 963d b33d 9fbd
000000b0: 71eb fe3b 9e86 f6bc 635d b5bb 6a93 b7bc
000000c0: 8984 423d b55b 753d ac38 c2bc 1036 c6bd
000000d0: d8c2 1fbd eaec 8f3d 9a60 23bd 4744 91bd
000000e0: 6cdc 08bd 79ec 643d 9e9b 06bd dd20 113d
000000f0: fa2b 113d 0171 333d b0cc d9bd d271 5abd
00000100: 18e0 7f3d d4d5 86bd 8ce3 c53c cb14 293c
00000110: d478 a4bc 4422 48bd 9178 c73d cea9 bcbc
00000120: b8ff 113d 349d dabc b57c 243d 8a20 3a3d
00000130: 9d89 153d d2f0 ad3d afd6 613b 8c9c a43d
00000140: f915 983d df5e da3c 5c60 853d 387e 3abd
00000150: 478f abbd ae2d 25bd 6f01 edbb 5504 9a3c
00000160: b352 15bc 2f03 9a3c f6a0 783d 95c1 8a3c
00000170: 0978 39bd 7cfd aabc 0074 cd3d f5a4 243d
00000180: fcd3 023d 59bb a03c b7b3 f8bc 0100 303d
00000190: fe0d 50bc afa9 d2bc b044 163c 8030 4ebc
000001a0: 4580 b9bc 5fe3 203c 7347 7abc 3670 edbc
000001b0: 78fd b0bd e4b7 86bd 188a 0d3c 5550 7bbd
000001c0: 2bd9 953d 9b14 55bb 7f28 2d3d cabf cfbc
000001d0: 8de1 383d deff c1bd 92c6 9fbc 71bf bfbc
000001e0: 3039 593d 82d8 853d cb3d b03d aaf8 a8bd
000001f0: c01c 7e3d 956c be3d faf3 eaba da2f 56bd
