E-GraphSAGE/netflow/ton-iot/binary_best_model.pth (torch, 289284 bytes, 10 tensors)

weight f4 [128, 16]
0	0x3e09a524	0.13441902
1	0x3d5bee25	0.05369391
2	0x3e42de54	0.19030124
3	0x3d104f45	0.035231847
4	0xbcbe5c48	-0.023237363
5	0xbe4214ec	-0.18953294
6	0x3e57c1d0	0.21070027
7	0x3cc2c490	0.023775369
8	0xbe83622d	-0.2566084
9	0xbea54c17	-0.32284614
10	0x3e80a00c	0.25122106
11	0xbd9b3e3c	-0.0758023
12	0xbd473113	-0.048630785
13	0x3dbd03be	0.092292294
14	0xbea4cd80	-0.32188034
15	0x3d9b50d9	0.0758378
16	0xbdf43434	-0.119240195
17	0xbd9b0259	-0.07568807
18	0xbd75f4a1	-0.06004775
19	0x3ccbf340	0.024896264
20	0xbce859e4	-0.028363176
21	0x3e2f154d	0.1709797
22	0xbdfdef7b	-0.12399193
23	0xbe3bf201	-0.18354036
24	0x3e2fa74b	0.17153661
25	0x3e40a0ae	0.18811294
26	0xbd678dfa	-0.056531884
27	0xbe6f2136	-0.23352513
28	0x3d000fb0	0.03126496
29	0x3ddb7e8c	0.10717496
30	0xbc1310be	-0.00897616
31	0x3e1a9d16	0.15098986
32	0x3e13613b	0.14392559
33	0x3e395029	0.18096985
34	0x3e63067d	0.22170444
35	0xbe4a638d	-0.19764538
36	0x3dfab18e	0.12240897
37	0x3dd76dbd	0.10518978
38	0x3d70369a	0.058645822
39	0xbe1365f7	-0.14394365
40	0xbd399c1c	-0.045314893
41	0xbe909b67	-0.28243563
42	0x3e476326	0.19471416
43	0x3d30a66c	0.043127462
44	0xbd9ca124	-0.07647923
45	0x3e3c7e6d	0.18407603
46	0xbe92eff1	-0.28698686
47	0xbe0417a1	-0.12899639
48	0x3d950893	0.07277026
49	0x3e21d2d5	0.15803082
50	0x3e3611b9	0.17780198
51	0xbe069223	-0.13141684
52	0x3e53397d	0.20627399
53	0xbd52b1c6	-0.05143907
54	0xbdedd1b5	-0.11612264
55	0x3e11f231	0.14252545
56	0x3dbf155d	0.093302466
57	0x3cb221a1	0.021744551
58	0xbe697bff	-0.22801207
59	0xbe6b7e8c	-0.22997493
60	0xbe32bad8	-0.17454088
61	0x3df6b328	0.1204589
62	0x3e930ad8	0.2871921
63	0xbe327a3a	-0.17429438
64	0xbd73f21b	-0.05955706
65	0xbe86511e	-0.26233763
66	0x3e39b5e7	0.18135796
67	0x3e0eba4b	0.13938253
68	0x3e641779	0.22274579
69	0xbe2cc345	-0.16871364
70	0x3def7888	0.116929114
71	0x3de3f122	0.11129977
72	0x3d3d2bf4	0.046184495
73	0x3e049d12	0.12950543
74	0x3d864b2f	0.06557309
75	0xbd0aea75	-0.033915002
76	0xbd5df7e2	-0.054191478
77	0x3e6e3864	0.23263699
78	0x3eafdb7c	0.3434714
79	0x3e83929d	0.25697795
80	0xbe6e1507	-0.23250209
81	0x3dac4a85	0.08412651
82	0xbddc82af	-0.107671134
83	0x3d98a2a5	0.07452897
84	0x3d65f8ac	0.056145355
85	0x3d5dab7c	0.05411862
86	0xbd8fa797	-0.07014387
87	0xbdbb0517	-0.0913183
88	0xbe631862	-0.2217727
89	0xbe94a2eb	-0.29030547
90	0x3e712270	0.23548293
91	0x3e0eacdd	0.1393313
92	0xbdd7f0b8	-0.1054396
93	0x3dea6ad0	0.11446154
94	0x3d687cf6	0.056759797
95	0xbe7cc3cc	-0.24684066
96	0x3e5b0bcc	0.21391219
97	0x3e671310	0.22565866
98	0x3e522c96	0.2052482
99	0x3e2934fa	0.16524115
100	0xbe2d448e	-0.16920683
101	0xbe38f1c2	-0.18060973
102	0xbe60fca8	-0.2197138
103	0xbe796e9c	-0.243586
104	0xbddfb3b4	-0.109229475
105	0x3d157749	0.036490712
106	0xbcaa8765	-0.020816514
107	0xbe77feed	-0.2421834
108	0xbea0b768	-0.31389928
109	0xbe444561	-0.19167091
110	0x3e34f760	0.17672491
111	0x3e03392b	0.12814777
112	0x3e095905	0.13412865
113	0x3e579d4a	0.21056095
114	0xbd7aeb41	-0.06125951
115	0xbda41636	-0.08012049
116	0xbdb027e6	-0.0860136
117	0xbe67db98	-0.22642362
118	0xbd127a38	-0.035761088
119	0x3e5cf298	0.21576917
120	0x3e24efee	0.16107151
121	0x3cabe8b9	0.020984994
122	0x3c6ef423	0.014584574
123	0xbe6d54f1	-0.23176934
124	0xbd015439	-0.03157446
125	0x3e66f529	0.22554459
126	0xbdf5d9a9	-0.12004406
127	0xbe72a1ef	-0.23694585
128	0xbc7cf438	-0.015439086
129	0x3db0c2d0	0.086309075
130	0xbe3c2003	-0.18371587
131	0xbe77b593	-0.24190359
132	0x3e63d0a9	0.22247566
133	0xbda19ed4	-0.07891622
134	0x3d11f21f	0.035631295
135	0x3d96da58	0.073658645
136	0xbe0915dc	-0.13387245
137	0xbe4f542d	-0.20246954
138	0xbe69c610	-0.22829461
139	0x3902eafc	0.00012485305
140	0x3e65162c	0.22371739
141	0x3d50f86f	0.051018175
142	0x3ec83572	0.39103276
143	0x3eb62591	0.35575536
144	0x3e6d5b87	0.23179446
145	0xbdb2f058	-0.08737248
146	0xbd0d9468	-0.03456536
147	0x3d927f08	0.071531355
148	0xbe15e607	-0.1463853
149	0x3d2b2350	0.041781723
150	0xbdd8f734	-0.10594025
151	0x3dd71ca8	0.105035126
152	0xbda15a76	-0.07878582
153	0xbe8331c5	-0.2562391
154	0x3e2ef030	0.17083812
155	0xbddea392	-0.10871042
156	0xbf2193b2	-0.6311599
157	0x3c403ff9	0.011734002
158	0xbe43d103	-0.191227
159	0xbf0360a0	-0.51319313
160	0xbdecd005	-0.11563114
161	0xbda2fe35	-0.079586424
162	0x3e143ba8	0.14475882
163	0xbd9ac6c5	-0.075574435
164	0xbe80543f	-0.25064275
165	0xbe841d61	-0.25803664
166	0x3d118963	0.035531413
167	0xbd9b273d	-0.075758435
168	0xbe23761b	-0.15963022
169	0xbe25032c	-0.16114491
170	0x3e0a9903	0.13534932
171	0xbe52e7a7	-0.20596181
172	0xbe966b30	-0.29378653
173	0xbe339add	-0.17539544
174	0xbe9b586c	-0.30340898
175	0xbe951019	-0.29113844
176	0x3ddef7e3	0.108871244
177	0x3d1cd5af	0.038289722
178	0xbdc0f281	-0.09421254
179	0xbc765287	-0.0150343245
180	0x3d99e273	0.07513895
181	0x3e2803b6	0.16407666
182	0x3e28130e	0.16413519
183	0xbc70afc5	-0.014690344
184	0x3df57ac3	0.119863056
185	0x3e9f4ccf	0.31113288
186	0xbdbf5d17	-0.09343927
187	0x3e4640ea	0.193607
188	0x3e2139cd	0.15744705
189	0x3dd727d5	0.10505644
190	0xbe512c56	-0.20427069
191	0x3e10a75f	0.14126347
192	0xbdf6d80d	-0.12052927
193	0xbd4f6978	-0.050637692
194	0x3d9f9923	0.077928804
195	0x3dbd3f2b	0.09240564
196	0xbe548614	-0.20754272
197	0x3e58daaa	0.21177164
198	0x3dbc3207	0.091892295
199	0x3d579ca8	0.052639633
200	0x3e99ddfc	0.30052173
201	0x3e1dc0fa	0.15405646
202	0xbe0de68e	-0.13857481
203	0x3e8643f7	0.26223728
204	0xbd8a91c1	-0.067660816
205	0x3e30a8e0	0.1725192
206	0xbe22bb36	-0.15891728
207	0xbdd7c115	-0.10534874
208	0xbe20db80	-0.15708733
209	0xbe56117a	-0.20905104
210	0x3e2dbdec	0.1696698
211	0xbdb17c91	-0.08666337
212	0xbe4e278c	-0.20132273
213	0x3d9e42aa	0.07727559
214	0x3dc8aaeb	0.09798225
215	0xbcec833d	-0.028871173
216	0xbd190345	-0.037356634
217	0xbe16fab0	-0.14744067
218	0xbd5a66bb	-0.053320628
219	0x3e3adf46	0.18249235
220	0xbe6d47af	-0.23171876
221	0xbd9498b2	-0.07255687
222	0xbebe4569	-0.3716233
223	0x3e0d11a6	0.13776264
224	0x3e05caa9	0.1306559
225	0xbdf2c0bd	-0.11853168
226	0xbbbd5055	-0.0057773986
227	0xbd2360f1	-0.039887372
228	0xbe4477c9	-0.1918632
229	0x3d95fbc7	0.07323413
230	0xbe1c193f	-0.15244006
231	0xbe563d43	-0.20921807
232	0xbe6f139e	-0.23347327
233	0xbe7eaf03	-0.24871449
234	0xbdbe5ab0	-0.09294641
235	0xbd283696	-0.041067682
236	0xbebefec5	-0.3730375
237	0x3df9e9d0	0.12202799
238	0xbea9e237	-0.331804
239	0xbe843959	-0.25825003
240	0xbdff33a0	-0.124610186
241	0xbe527082	-0.20550731
242	0x3c57a92e	0.013162894
243	0xbe1e6496	-0.15468058
244	0xbe15fff8	-0.14648426
245	0x3d80365a	0.06260367
246	0xbdb1ce30	-0.08681905
247	0x3dad7760	0.084700346
248	0xbdcea47e	-0.10089968
249	0xbe30cec3	-0.17266373
250	0x3e459037	0.19293295
251	0x3e84c6d1	0.25932935
252	0x3db3dd99	0.08782501
253	0xbe5522e3	-0.2081409
254	0xbea3bc6f	-0.319797
255	0x3e0ea784	0.1393109

bias f4 [128]
0	0xbcd35e12	-0.025801692
1	0xbdee75a3	-0.11643531
2	0x3e03c099	0.12866439
3	0xbd1a2fc8	-0.037643224
4	0xbcfd995b	-0.030956915
5	0x3e7502a5	0.2392679
6	0xbe2d2c2c	-0.16911381
7	0xbb817501	-0.0039507155
8	0xbd0958e7	-0.03353205
9	0x3d1eb3f0	0.03874582
10	0xbe6672e9	-0.22504772
11	0x3e2c8cf1	0.1685064
12	0x3c988aec	0.01862093
13	0x3e138e59	0.1440977
14	0x3e5f6c7f	0.21818732
15	0x3d67ed6c	0.056622908
16	0xbe2ae0cb	-0.16687314
17	0xba729f97	-0.0009255348
18	0x3e6d68fe	0.23184583
19	0xbd3913a2	-0.04518474
20	0xbd151214	-0.036394194
21	0xbd04fd9d	-0.032468427
22	0x3dfce2a0	0.12347913
23	0x3bacb778	0.0052708946
24	0xbb4b172a	-0.0030989149
25	0x3e617cdf	0.22020291
26	0x3e14f04f	0.14544795
27	0x3d42fb9d	0.04760324
28	0xbd932c69	-0.07186205
29	0xbd0d9eb4	-0.03457518
30	0xbd9b10fa	-0.075715974
31	0x3e4cdf5c	0.2000708
32	0xbdf8ed02	-0.12154581
33	0x3dca3b2d	0.09874568
34	0x3dd6ce0d	0.1048852
35	0x3cb08d15	0.021551648
36	0xbdd91dcb	-0.10601386
37	0x3e718ecd	0.2358963
38	0x3c302430	0.010750815
39	0xbdee8296	-0.11646001
40	0xb9c119fe	-0.00036831194
41	0xbe535317	-0.20637165
42	0xbe645caf	-0.22300981
43	0x3e127ebf	0.14306162
44	0xbe503e34	-0.20336229
45	0x3d07437a	0.033023335
46	0x3e60997d	0.21933551
47	0xbe0eeb4d	-0.13956948
48	0x3dfe976d	0.12431226
49	0x3cddf008	0.027091995
50	0xbe792d32	-0.24333647
51	0x3d13234c	0.035922334
52	0x3dcf83a3	0.101325296
53	0xbd5a7a2a	-0.05333916
54	0x3d307c18	0.043087095
55	0x3e6145cf	0.21999286
56	0xbe32b6c5	-0.17452534
57	0x3da296ca	0.07938917
58	0xbe2bbf22	-0.1677213
59	0x3b93330c	0.0044921692
60	0xbd78a365	-0.0607027
61	0xbc585684	-0.013204221
62	0xbd418e71	-0.047254983
63	0xbdb0de55	-0.086361565
64	0xbe78e3c3	-0.24305634
65	0x3cebefec	0.028800927
66	0xbc7e378a	-0.015516171
67	0xbe3c3fda	-0.18383732
68	0x3d0c242c	0.034214184
69	0xbd4cb1d7	-0.04997429
70	0x3df8baee	0.12145029
71	0x3e7c98ef	0.24667715
72	0xbb8beae2	-0.0042699436
73	0x3e2de66d	0.16982432
74	0x3ccbf247	0.0248958
75	0xbdebc866	-0.11512832
76	0xbe581f19	-0.21105613
77	0xbdf6509a	-0.12027092
78	0xbe08c42c	-0.13356084
79	0x3c971a8c	0.018445276
80	0x3e2432f9	0.1603507
81	0xbdcc915c	-0.099886626
82	0x3c9269e3	0.017872756
83	0x3e5b67d7	0.2142633
84	0x3d56ba78	0.052423924
85	0xbe52161d	-0.20516248
86	0xbc91d614	-0.017802276
87	0x3e0cd8bc	0.13754553
88	0x3e0dd6b2	0.13851431
89	0xbe5e3336	-0.21699223
90	0x3bd27486	0.006422582
91	0xbe26e244	-0.16297251
92	0xbafe61f7	-0.0019407858
93	0x3cac7482	0.021051649
94	0xbceea091	-0.029129298
95	0x3d622cf9	0.05521867
96	0xbde8f8eb	-0.11375602
97	0xbdc4d2ee	-0.09610544
98	0x3da2bcbf	0.07946157
99	0xbe030bd2	-0.12797478
100	0xbd78a825	-0.06070723
101	0x3de23ea9	0.11047108
102	0xbdecac7b	-0.115563355
103	0x3d8c4dc8	0.06850773
104	0x3e0f2431	0.1397865
105	0xbe0819ae	-0.13291046
106	0xbdbeef9d	-0.09323046
107	0xbe0f457a	-0.13991347
108	0x3d34b260	0.044115424
109	0x3c36d4b0	0.011159107
110	0xbd7fb6f0	-0.062430322
111	0xbe1c2461	-0.15248252
112	0x3d89b482	0.06723882
113	0xbe56442f	-0.20924447
114	0xbd9e3f0d	-0.0772687
115	0xbca627b5	-0.020282606
116	0xbe5b7c8c	-0.2143423
117	0x3e5b2d7c	0.2140407
118	0x3e565867	0.2093216
119	0xbe83f70f	-0.25774428
120	0xbe4315fc	-0.19051355
121	0xbd5f24dd	-0.054478515
122	0xbc50ab05	-0.012736087
123	0xbe5d755d	-0.21626802
124	0xbe732944	-0.2374621
125	0xbe14aa12	-0.14518002
126	0x3e66e893	0.22549658
127	0x3e58b7a2	0.211638

weight f4 [128, 136]
0	0xbd8c4f51	-0.06851066
1	0xbd895f15	-0.067075886
2	0x3d598bbf	0.053111788
3	0xbd004111	-0.031312052
4	0xbd8abc42	-0.067741886
5	0x3b59b62a	0.003322015
6	0x3d98b54b	0.07456454
7	0x3c65c682	0.014024379
8	0x3df22c6d	0.1182488
9	0xbcf0004d	-0.029297018
10	0x3d9b002e	0.07568394
11	0xba5c2ed1	-0.000839931
12	0xbd49ccd2	-0.049267597
13	0x3deabdb0	0.11461961
14	0x3dce16f0	0.10062969
15	0x3d46e99c	0.04856263
16	0x3df87d36	0.12133257
17	0x3d9298e3	0.07158067
18	0x3d2a2e11	0.04154784
19	0x3cdf425b	0.02725332
20	0xbd20f44e	-0.039295487
21	0x3d103c38	0.03521368
22	0x3d4a1964	0.04934062
23	0xbb0d287a	-0.0021539018
24	0xbd0e7bc2	-0.034785993
25	0xbd62c96c	-0.055367872
26	0x3d87859f	0.06617283
27	0xbcf7cfb1	-0.030250402
28	0x3d84ee99	0.064908214
29	0xbc4dea60	-0.012568086
30	0x3d87c53c	0.06629416
31	0x3d864177	0.06555455
32	0x3dbe87e2	0.09303261
33	0xbc827086	-0.015922796
34	0x3c9d0ae4	0.019170232
35	0x3d4285d7	0.04749092
36	0x3c728b16	0.0148036685
37	0x3de707c7	0.1128078
38	0x3d22f200	0.03978157
39	0xbd3ef112	-0.04661662
40	0xbc9bb45b	-0.019006899
41	0xbd9fa6b9	-0.07795472
42	0xbd4d54c4	-0.050129667
43	0x3d5e47cd	0.054267693
44	0xbd93de81	-0.072201736
45	0xbc6b41c5	-0.014358942
46	0x3da22028	0.079162896
47	0x3d020521	0.031743173
48	0xbd1f77c7	-0.038932588
49	0xbd8c35e2	-0.06846215
50	0xbd96709c	-0.07345697
51	0x3d3c8ad2	0.046030827
52	0x3c95986a	0.018261153
53	0xbd17e552	-0.03708393
54	0xbd4cef73	-0.050033044
55	0xbd7a04ab	-0.061039608
56	0xbd9df20b	-0.07712182
57	0x3d4a7d0c	0.04943566
58	0x3ce127fc	0.027484886
59	0xbcfde239	-0.03099166
60	0x3d16294c	0.036660478
61	0xbcc25ea8	-0.023726776
62	0xbd07ce55	-0.033155758
63	0xbc48420e	-0.01222278
64	0x3df06924	0.11738804
65	0xbd7af889	-0.061272178
66	0x3df006be	0.11720036
67	0x3b0602fc	0.0020448556
68	0x3ca8f04e	0.020622399
69	0xbd63f701	-0.055655483
70	0xbc9c6926	-0.019093107
71	0xbca44845	-0.020053992
72	0xbd3b985e	-0.045799606
73	0x3d6d1bc0	0.057887793
74	0x3df6c841	0.12049914
75	0xbcdb00ca	-0.026733775
76	0xbc650a28	-0.013979472
77	0xbca20ded	-0.019782031
78	0x3b491331	0.0030681605
79	0x3dc981e2	0.09839226
80	0x3d1fa577	0.03897616
81	0xbcbbe212	-0.022934947
82	0xbd0c6fa4	-0.034286156
83	0x3b05600b	0.0020351436
84	0x3d79e9b7	0.061013903
85	0xbcf136b8	-0.029445037
86	0x3ca88f6e	0.020576205
87	0xbc0baf66	-0.008525705
88	0xbc9bc92b	-0.019016823
89	0xbcdcabb8	-0.02693735
90	0xbc608d9c	-0.013705637
91	0x3bbe1c5e	0.0058017215
92	0x3d8327e4	0.06404093
93	0x3cd23be6	0.025663327
94	0x3a7da736	0.00096761005
95	0x3d690651	0.05689079
96	0x3d92ac5d	0.07161782
97	0xbd6c3595	-0.057668287
98	0x3d296023	0.04135145
99	0x3c7453a3	0.014912519
100	0xbd0f02cc	-0.034914777
101	0xba3630da	-0.00069500285
102	0x3d8ef98c	0.06981191
103	0xbde40eeb	-0.11135658
104	0x3d8accd4	0.06777349
105	0xbdb3dfd7	-0.087829284
106	0xbc5e06bd	-0.013551411
107	0xbc72c173	-0.01481663
108	0xbd17996c	-0.03701155
109	0x3d8929e1	0.06697441
110	0xbcb612cd	-0.022225762
111	0x3dd1749f	0.10227322
112	0xbd9b5f31	-0.07586516
113	0xbd1826a2	-0.037146218
114	0x3d43f26d	0.047838617
115	0xbd1be15a	-0.03805671
116	0xbc816c5d	-0.015798742
117	0x3d5d5d36	0.05404397
118	0xbdc2e3df	-0.09516119
119	0x3d290dc3	0.04127289
120	0x3dc66979	0.09688086
121	0x3d8279eb	0.0637091
122	0x3e02a6f8	0.12759006
123	0xbcc03e22	-0.023467127
124	0x3d5c65f0	0.053808153
125	0xbdb7e10a	-0.0897847
126	0xbd5fb4ea	-0.054615892
127	0xbd86707a	-0.06564422
128	0xbd7e38ba	-0.062065817
129	0x3cfd3d51	0.030913027
130	0x3bc46232	0.005993151
131	0x3d1edba7	0.038783696
132	0x3c979fce	0.018508818
133	0xbdb21ee1	-0.08697296
134	0xbb89d3fd	-0.004206179
135	0x3d4aa775	0.049476106
136	0xbc981d07	-0.018568529
137	0x3d8946cf	0.06702959
138	0x3cfe8a56	0.031071823
139	0x3bdba1d9	0.0067026434
140	0x3c59debc	0.013297733
141	0xbda71a45	-0.081593074
142	0xba6e3b17	-0.00090877846
143	0xbd673ee7	-0.056456473
144	0xbcb0b6d9	-0.021571564
145	0x3db12789	0.08650119
146	0xbd83f2a5	-0.06442765
147	0x3dab1041	0.083527096
148	0x3d208891	0.03919274
149	0x3badb299	0.0053008315
150	0x3cb27f99	0.021789359
151	0x3d9c4884	0.07631019
152	0x3d13945f	0.03603017
153	0x3cff83e2	0.031190816
154	0x3c99f859	0.01879518
155	0xbdc55a78	-0.09636396
156	0xbd838f60	-0.06423831
157	0xbd989505	-0.07450298
158	0x3bd76747	0.006573591
159	0xbd5650b4	-0.05232306
160	0xbcecfab8	-0.028928146
161	0xbbf7f1b3	-0.0075666546
162	0x3bf61b64	0.0075105894
163	0xbcd81117	-0.026375337
164	0xbbf100e2	-0.0073548416
165	0xbbe1f76b	-0.0068959496
166	0x3d95b224	0.07309368
167	0x3aa557d1	0.0012614672
168	0xbd96934b	-0.07352313
169	0xbd1a2f98	-0.037643045
170	0xbcb27426	-0.0217839
171	0xbdc3e119	-0.09564418
172	0xbc61c5e6	-0.013780093
173	0xbdb35e3d	-0.08758209
174	0xbd47f83e	-0.048820727
175	0xbd3f15c4	-0.046651617
176	0xbd5eba3e	-0.054376833
177	0xbdc6c5b7	-0.0970568
178	0x3cac1460	0.02100581
179	0xbd6b043d	-0.05737709
180	0x3bb12fbf	0.005407303
181	0x3d4468fd	0.047951687
182	0xbd083929	-0.033257637
183	0xbb8c3176	-0.004278357
184	0x3d1b1b32	0.037867732
185	0xbd4cbdae	-0.04998558
186	0xbdc9b6d8	-0.09849328
187	0xbdb826cd	-0.08991776
188	0xbd2baa51	-0.041910473
189	0xbcf3943a	-0.029733766
190	0x3ca929dd	0.020649845
191	0x3c36e18c	0.011162173
192	0xbd47c850	-0.048775017
193	0x3d823055	0.06356875
194	0x3c54af36	0.012981227
195	0xbb4ac54e	-0.0030940357
196	0x3cd3af35	0.025840381
197	0x3c35490b	0.011064778
198	0xbc1155f9	-0.008870595
199	0xbcde8cb4	-0.027166702
200	0xbd03bf4c	-0.032164857
201	0xbc1cd625	-0.00957254
202	0xba3f4498	-0.0007296293
203	0xbd257e62	-0.04040373
204	0x3e09c1c1	0.13452817
205	0x3d5049ad	0.050851513
206	0x3d8b3519	0.06797237
207	0x3ddb3d44	0.10705045
208	0xbda9b430	-0.08286321
209	0x3d4c6daf	0.04990929
210	0x3d4799c2	0.04873062
211	0xbd2c5065	-0.042068858
212	0xbd075b81	-0.03304625
213	0x3d7ed911	0.06221873
214	0x3cc4dc93	0.02403096
215	0x3e06524a	0.13117328
216	0x3d7504fe	0.059819214
217	0xbbcc109e	-0.006227567
218	0x3d6252ce	0.05525475
219	0x3cc25456	0.023721855
220	0xbcd8fa54	-0.026486553
221	0xbda2824d	-0.07935009
222	0x3db26996	0.08711545
223	0xbd8fc267	-0.07019501
224	0x3da14514	0.07874504
225	0x3ca2e03d	0.019882316
226	0x3c34451d	0.011002806
227	0xbd6030cc	-0.054734036
228	0x3d20b899	0.039238546
229	0x3c54c3b8	0.012986116
230	0xbd6dadc9	-0.058027063
231	0x3d619366	0.05507221
232	0x3dbce2cc	0.092229456
233	0x3c146ab2	0.009058641
234	0xbe008eda	-0.12554494
235	0xbd5ec6fc	-0.054388985
236	0xbced9545	-0.029001841
237	0x3d2d5eac	0.042326614
238	0x3da1f5a2	0.07908179
239	0xbdd2b7d8	-0.10288972
240	0x3c6ec2a4	0.014572773
241	0xbc927726	-0.01787908
242	0x3c4d20a9	0.012519994
243	0x3d5a369b	0.053274732
244	0xbc44c4a2	-0.012009772
245	0xbdbe085b	-0.092789374
246	0x3d0125c3	0.031530153
247	0x3cf9ca1a	0.030491877
248	0xbd821615	-0.06351868
249	0xbd8bdcbe	-0.068292126
250	0xbd9345a3	-0.071910165
251	0xbc378a43	-0.011202398
252	0xbc3984b2	-0.011323141
253	0x3dab17d4	0.08354154
254	0xbbf6953b	-0.007525114
255	0x3d4a3d28	0.04937473

bias f4 [128]
0	0xbd41dd5c	-0.047330245
1	0xbd6b999f	-0.05751955
2	0xbc2d42b1	-0.0105749825
3	0x3c041dee	0.008063776
4	0xbe41c169	-0.18921436
5	0xbd766f72	-0.060164876
6	0xbd234acf	-0.039866265
7	0x3c601477	0.013676754
8	0x3c774dea	0.01509426
9	0x3d1f4dee	0.03889268
10	0xbdaac5e7	-0.08338528
11	0xbd2f66da	-0.042822696
12	0x3d9df025	0.077118196
13	0x3d489d78	0.0489783
14	0xbc8cf0c7	-0.017204655
15	0xbd71bb82	-0.059016712
16	0x3d921995	0.07133786
17	0xbd2295d4	-0.03969367
18	0x3d024622	0.031805165
19	0xbb90155d	-0.004397078
20	0xbb1a5876	-0.0023551262
21	0x3da22805	0.07917789
22	0x3c2a6918	0.010401033
23	0xbcdf89d1	-0.027287396
24	0xbda16bf1	-0.07881916
25	0xbc0effb8	-0.00872796
26	0xbda1e371	-0.07904709
27	0x3d9a2dac	0.075282425
28	0x3a2c053e	0.00065620604
29	0xb92641bb	-0.0001585548
30	0x3da56c7d	0.08077333
31	0x3d98ed92	0.07467188
32	0xbccebfde	-0.025237974
33	0xbcbb112b	-0.022835335
34	0x3d80afc1	0.062835224
35	0xbd02aa83	-0.031900894
36	0x3d43e240	0.04782319
37	0x3d26708f	0.040634688
38	0xbc814d10	-0.015783817
39	0x3d5939fe	0.05303382
40	0x3d02b523	0.031911027
41	0x3c9c3e1e	0.019072589
42	0x3d15aee6	0.03654375
43	0xbbba1b9c	-0.005679561
44	0xbcc8ce71	-0.024512501
45	0xbd994491	-0.07483781
46	0xbd46f04e	-0.048569016
47	0xbd2db4c1	-0.04240871
48	0xbcaf503f	-0.021400569
49	0xbcae9d78	-0.021315321
50	0x3cad0788	0.021121755
51	0x3cdfa772	0.027301524
52	0x3b298999	0.0025869368
53	0x3d8989a7	0.06715708
54	0x3bff6196	0.0077936156
55	0xbb91e4d7	-0.0044523287
56	0xbd2a4ae7	-0.04157534
57	0xbd4d0baf	-0.05005997
58	0x3da6959d	0.08134005
59	0xbd3ae9fc	-0.0456333
60	0x3d848145	0.06469969
61	0xbd7beb39	-0.061503623
62	0xbd474a19	-0.04865465
63	0x3cca8ecd	0.024726296
64	0x3d5a9b76	0.053370915
65	0x3d733337	0.059375014
66	0xbc295abf	-0.010336577
67	0x3d8ab410	0.067726254
68	0x3cdf6245	0.027268538
69	0xbd61a693	-0.0550905
70	0xbcabb9de	-0.020962652
71	0x3d14bffc	0.036315903
72	0x3d69cf7d	0.057082642
73	0xbdd00464	-0.101570874
74	0x3bc46489	0.00599343
75	0xbcf1e1c9	-0.029526608
76	0xbda5cd0b	-0.080957495
77	0x3d91eb41	0.07124949
78	0x3c5fbf9a	0.013656521
79	0x3d74f24e	0.059801392
80	0xbc216f54	-0.009853203
81	0xbda4660c	-0.080272764
82	0x3d1965aa	0.03745047
83	0x3d30a886	0.043129466
84	0xbcc5739a	-0.024102975
85	0xbb99fb6e	-0.004699162
86	0x3cd4dcfa	0.025984276
87	0x3d50308f	0.05082756
88	0xbda46502	-0.08027078
89	0xbe05f9be	-0.1308355
90	0xbb9bc350	-0.0047535077
91	0xbb126f07	-0.002234401
92	0xbd89c5b7	-0.06727164
93	0xbcff2443	-0.03114522
94	0x3d77cfbd	0.06050085
95	0x3c9f2458	0.01942651
96	0xbd188876	-0.037239514
97	0xbb0d89cd	-0.0021597028
98	0xbe00835e	-0.12550113
99	0xbd95c69d	-0.07313273
100	0x3da84ef0	0.08218181
101	0xbd0da156	-0.03457769
102	0x3cfd07f6	0.030887585
103	0xbb45a86d	-0.0030160204
104	0x3d982d17	0.07430475
105	0xbd401640	-0.04689622
106	0x3d018d2c	0.031628773
107	0xbd9a4dad	-0.07534347
108	0x3dad5e7d	0.08465288
109	0xbcb7b868	-0.022426799
110	0x3d174edd	0.036940444
111	0x3ae9c52a	0.0017835249
112	0xbd49b01f	-0.049240228
113	0xbd39ea07	-0.0453892
114	0xbdcc26fb	-0.099683724
115	0xbd755496	-0.05989512
116	0xbe01f368	-0.12690508
117	0x3a7ae14d	0.00095703156
118	0x3d92c45c	0.07166359
119	0x3c1b355d	0.009473172
120	0x3d9a119d	0.07522891
121	0x3cbfb563	0.023401922
122	0x3d43b233	0.047777366
123	0x3d54cd41	0.051953558
124	0x3d07298f	0.032998618
125	0x3d46af53	0.048507046
126	0xbd459fcc	-0.048248097
127	0x3d9cdaff	0.07658958

weight f4 [128, 136]
0	0xbc6402f4	-0.01391672
1	0xbd6ea233	-0.058260154
2	0x3b9ff531	0.004881524
3	0x3bebdd96	0.007198046
4	0xbe21adeb	-0.15789
5	0xbde84d9c	-0.11342928
6	0xbe033314	-0.12812454
7	0xbd5c28b9	-0.053749774
8	0x3cafaf24	0.021445818
9	0xbdd537e5	-0.10411052
10	0x3da54522	0.08069827
11	0xbdbabd47	-0.09118133
12	0x3d839c4c	0.06426296
13	0xbe6e9be1	-0.2330165
14	0xbdb6c56e	-0.089243755
15	0xbd5d87dd	-0.054084647
16	0x3c1591d0	0.009129003
17	0xbc46240e	-0.012093557
18	0xbd5af0e9	-0.053452406
19	0xba82bfc2	-0.0009975361
20	0xbd042e89	-0.032270942
21	0xbd5b2e83	-0.053511154
22	0x3bc82977	0.0061084586
23	0xbded79e1	-0.11595512
24	0x3ded76fd	0.11594961
25	0xbdbe5414	-0.092933804
26	0x3d845f4f	0.06463491
27	0xbd892bef	-0.06697833
28	0x3da4fbed	0.080558635
29	0xbdac6aa3	-0.08418777
30	0xbe1ca28d	-0.15296383
31	0x3d36f6e3	0.044669043
32	0xbd1fa448	-0.03897503
33	0xba784bbe	-0.00094717357
34	0x3cbcf42c	0.023065649
35	0xbc993809	-0.018703477
36	0xbb2cdcd5	-0.0026376743
37	0x3db5ae7a	0.088711694
38	0xbc93ab7c	-0.018026106
39	0xbe30e352	-0.17274216
40	0xbd984fec	-0.07437119
41	0xbd6c1185	-0.057633895
42	0x3c9d9869	0.019237714
43	0x3d5b0d25	0.053479332
44	0x3d8cec44	0.068810016
45	0xbe4d7bbc	-0.20066732
46	0xbde70981	-0.112811096
47	0x3d91436e	0.07092939
48	0xbe280b50	-0.16410565
49	0x3d722d3e	0.059125178
50	0x3d1dd5ce	0.03853398
51	0xbcfeecb3	-0.031118726
52	0xbcb35598	-0.0218914
53	0x3c082dbf	0.008311688
54	0x3d0c30b4	0.034226134
55	0xbd52f34b	-0.051501554
56	0xbcb85754	-0.022502579
57	0x3cf80a49	0.030278342
58	0xbd894cdd	-0.06704114
59	0x3d39ae72	0.04533238
60	0x3c5d9657	0.013524613
61	0x3bf90ba5	0.007600265
62	0xbde2c54b	-0.11072787
63	0x3d70032d	0.05859678
64	0x3d86e8f3	0.065874
65	0xbb401d77	-0.0029314437
66	0xbd1db0ef	-0.038498815
67	0xbd0e5bac	-0.034755394
68	0xbcc685d1	-0.02423373
69	0x3c139ae5	0.009009098
70	0xbd45d758	-0.04830107
71	0xbe1b1b4c	-0.15147132
72	0xbd8b5e12	-0.06805052
73	0x3e0e7df7	0.1391524
74	0x3cc89092	0.024482999
75	0xbe22de16	-0.15905032
76	0x3dd13c8d	0.10216627
77	0xbcacea1d	-0.021107728
78	0xbd298e44	-0.04139544
79	0xbdea5b17	-0.11443155
80	0xbd680191	-0.05664212
81	0x3da91960	0.08256793
82	0xbdbd8245	-0.092533626
83	0x3e2b4ad6	0.16727766
84	0xbbefa957	-0.007313888
85	0xbb369c6b	-0.0027864228
86	0x3c6041e8	0.013687588
87	0xbd3b0778	-0.04566142
88	0xbcce5fa0	-0.025192082
89	0x3dcb4789	0.099257536
90	0xbe44c916	-0.19217333
91	0xbd8e10b7	-0.06936782
92	0xbc5a4554	-0.013322193
93	0xbcc3524a	-0.02384295
94	0xbe24bbe2	-0.16087297
95	0xbdc3d291	-0.09561647
96	0x3d693646	0.056936525
97	0x3dc8ae2d	0.097988464
98	0xbcceeeae	-0.025260296
99	0xbc96c41f	-0.018404065
100	0xbd962f15	-0.07333199
101	0xbd14ae94	-0.036299303
102	0x3d147e4d	0.036253262
103	0xbdbf11bf	-0.09329557
104	0xbcec63b7	-0.028856141
105	0xbc3f0185	-0.011658077
106	0x3da417f3	0.080123805
107	0x3ca6f50d	0.020380521
108	0x3d6dabd9	0.058025215
109	0x3c755c26	0.014975583
110	0xbe1391dc	-0.1441111
111	0xbdef1ab7	-0.11675017
112	0x3cd1391c	0.025539927
113	0x3db784d6	0.08960883
114	0xbdbf924c	-0.09354076
115	0xbe07a9d5	-0.1324838
116	0x3de0e34a	0.10980852
117	0x3d1c4945	0.038155813
118	0xbe224e70	-0.15850234
119	0xbd8b1885	-0.06791786
120	0xbd7ff206	-0.06248667
121	0x3ceef7cc	0.029170893
122	0xbd54f4f7	-0.05199143
123	0x3cf50d8c	0.029913686
124	0xbdb3de04	-0.087825805
125	0xbe0bd443	-0.1365519
126	0x3d3491cd	0.04408436
127	0xbd829f29	-0.06378014
128	0x3cdaaf65	0.026694963
129	0xbd85747d	-0.06516359
130	0x3c9c6322	0.019090239
131	0x3d78712c	0.060654804
132	0xbedd2d40	-0.43198586
133	0xbda695e4	-0.08134058
134	0xbd65259b	-0.055944066
135	0xbe4b3b24	-0.19846779
136	0x3c1d6eed	0.009608966
137	0xbda6e791	-0.081496365
138	0x3d4885e0	0.0489558
139	0x3d9906d0	0.074720025
140	0xbcd9b307	-0.026574625
141	0x3d0a6e58	0.03379664
142	0xbde4062e	-0.11133991
143	0xbcd46aaa	-0.025929768
144	0xbd2ff6a7	-0.042959835
145	0xbde731dd	-0.112888075
146	0xbcbc703c	-0.023002736
147	0xbe14842e	-0.14503548
148	0xbd914b36	-0.070944235
149	0xbe53cc79	-0.20683469
150	0xb9f94569	-0.00047544696
151	0x3ad54360	0.001627069
152	0x3d7f6870	0.06235546
153	0xbdc92814	-0.098220974
154	0x3d9358ea	0.071946934
155	0x3ca068e5	0.019581268
156	0xbd0ecf79	-0.03486583
157	0x3c52e474	0.01287185
158	0xbd889c48	-0.06670433
159	0xbd1e6109	-0.03866676
160	0x3e50c7a2	0.20388654
161	0xbe1d0608	-0.15334332
162	0xbda23876	-0.07920925
163	0xbd759dda	-0.059964992
164	0xbd055f39	-0.032561515
165	0xbdc99dc6	-0.09844546
166	0xbe202f5f	-0.1564307
167	0xbd8f3786	-0.06993012
168	0xbc8fa3d5	-0.017534176
169	0xbd948f67	-0.07253914
170	0x3df92887	0.12165933
171	0xbcb11efb	-0.021621218
172	0x3db4c33d	0.08826301
173	0x3da800f2	0.08203305
174	0xbd6b1288	-0.05739072
175	0xbd1e4be2	-0.038646586
176	0x3c0980d4	0.008392531
177	0x3d888618	0.06666201
178	0x3d134706	0.035956405
179	0xbd566575	-0.05234285
180	0xbcad0160	-0.02111882
181	0xbe3ed2ad	-0.18635054
182	0xbda43d37	-0.08019488
183	0xbd71d6d2	-0.05904276
184	0xbd4d7b6b	-0.05016653
185	0x3d7d0c3d	0.06177925
186	0xbd317a17	-0.043329325
187	0xbd91d343	-0.07120373
188	0xbaaaa458	-0.0013018949
189	0x3c8f0c3c	0.017461888
190	0xbc497ca8	-0.012297787
191	0xbe21d949	-0.15805544
192	0xbdc6585f	-0.09684824
193	0x3d76d8e2	0.06026543
194	0xbcaf10f0	-0.021370381
195	0xbc533b83	-0.012892607
196	0x3b6d5d04	0.0036218772
197	0x3ccd16f3	0.025035357
198	0xbdbdbadd	-0.09264157
199	0xbc120135	-0.008911421
200	0x3dae37a5	0.08506707
201	0x3ce1fc6d	0.027586186
202	0x3db266ee	0.087110385
203	0xbdb3b0b6	-0.08773939
204	0x3b59c2da	0.0033227713
205	0xbbb67d98	-0.005569171
206	0xbcf39f37	-0.029739005
207	0xbe04b195	-0.12958367
208	0x3d6810a1	0.056656484
209	0x3e1d091a	0.15335503
210	0x3cd9adc6	0.02657212
211	0xbce8dc38	-0.028425321
212	0x3db3419c	0.08752748
213	0xbcfe249b	-0.031023314
214	0xbd05338d	-0.032519866
215	0x3c14d9c4	0.0090851225
216	0x3d1e9c9d	0.038723577
217	0xbc9b77ac	-0.018977962
218	0xbd80559e	-0.0626633
219	0x3e2aa071	0.16662766
220	0x3a69aacc	0.00089136953
221	0xbd32206c	-0.04348795
222	0xbd2229a2	-0.039590485
223	0xbddfe249	-0.10931832
224	0xbdbacaa2	-0.091206804
225	0x3d0635ac	0.03276603
226	0xbe0b41c6	-0.1359931
227	0x3d12c10f	0.035828646
228	0xbc620920	-0.013796121
229	0xbdd66ea7	-0.10470324
230	0xbe2d484d	-0.16922112
231	0x3bfe4eae	0.007760844
232	0x3d98067c	0.07423112
233	0xbc41df3f	-0.011833011
234	0xbbc85e96	-0.006114791
235	0xbc42cb36	-0.01188927
236	0x3d711186	0.058854602
237	0xbd2ee0ff	-0.04269504
238	0xbc02df0a	-0.007987747
239	0xbe20a76c	-0.15688866
240	0x3d232b1e	0.03983604
241	0xbcefeb8c	-0.029287122
242	0xbb8a5140	-0.0042211115
243	0xbdeec47d	-0.11658571
244	0x3cb22a7f	0.02174878
245	0xbc252308	-0.010079153
246	0xbcb9089e	-0.022587117
247	0xbdd56f48	-0.10421616
248	0x3d0e5961	0.034753207
249	0xbbd459ad	-0.0064804167
250	0xbdf8e4d9	-0.12153024
251	0xbdeb27d4	-0.11482206
252	0x3dbb0d64	0.091334134
253	0x3db1bcc6	0.08678584
254	0xbe225bb2	-0.15855291
255	0xbdabe640	-0.08393526

bias f4 [128]
0	0xbd03c919	-0.032174204
1	0x3cc5348e	0.024072912
2	0x3d117a38	0.035516948
3	0x3d9c94b7	0.076455526
4	0x3d97935b	0.07401153
5	0x3dc0acb8	0.094079435
6	0x3c356877	0.01107227
7	0xbdbd9c48	-0.09258324
8	0xbd9dbe95	-0.07702366
9	0xbda98d76	-0.08278935
10	0xbacd48f4	-0.0015662
11	0xbcaf4cf3	-0.021398997
12	0x3d8343be	0.06409405
13	0xbc9b1e11	-0.018935235
14	0x3dd1039a	0.10205765
15	0x3cf94715	0.030429402
16	0x3a7111fd	0.0009196101
17	0x3c5e9438	0.013585143
18	0x3d15b3ed	0.036548544
19	0xbd569973	-0.052392434
20	0xbd25473a	-0.04035113
21	0xbbd479e7	-0.0064842585
22	0x3cb1a5e4	0.021685548
23	0xbd7a79bf	-0.061151262
24	0x3cfb4f15	0.030677358
25	0x3d119bc7	0.03554895
26	0xbd058cd0	-0.032604992
27	0xbc852bd1	-0.016256245
28	0xbdc1edb5	-0.09469167
29	0xbca0d13a	-0.019631017
30	0xbd76071a	-0.060065366
31	0x3cdfe790	0.027332097
32	0xbdb745e1	-0.08948875
33	0x3c6232f5	0.013806094
34	0xbd353a14	-0.04424484
35	0xbc3dad69	-0.011576989
36	0x3c153637	0.009107164
37	0x3d1e375f	0.038627025
38	0xbd63e2ea	-0.055636324
39	0xbda72464	-0.08161238
40	0x3d89a653	0.06721177
41	0x3c7715ea	0.015080908
42	0xbd175675	-0.036947686
43	0xbc19f38f	-0.009396448
44	0xba99338d	-0.0011688337
45	0x3d13c9d1	0.03608114
46	0x3d8a6bd0	0.06758845
47	0xbd7aa649	-0.061193738
48	0xbcea50bf	-0.028602956
49	0x3d633883	0.055473816
50	0xbdb83107	-0.08993726
51	0xbd6c71a1	-0.057725552
52	0x3c44dfea	0.012016276
53	0x3d433b4a	0.047663964
54	0x3a2ad6c6	0.0006516989
55	0x3cfe16de	0.031016763
56	0xbd8afda5	-0.0678666
57	0xbd017e87	-0.031614807
58	0xbda64d92	-0.08120264
59	0xbdd4a9b3	-0.1038393
60	0x3d1384a7	0.03601518
61	0xbd1bfe2c	-0.038084194
62	0xba9faea6	-0.0012182787
63	0x3b0fb12b	0.0021925669
64	0x3d5556db	0.052084785
65	0xbdac704f	-0.08419859
66	0x3ce6208c	0.028091691
67	0xbd39bf7b	-0.045348626
68	0xbd6f3179	-0.05839679
69	0x3dc2618a	0.0949126
70	0x3d81d242	0.063389316
71	0x3d8b4047	0.06799369
72	0xbcc4edd9	-0.024039196
73	0x3dce7b58	0.1008212
74	0xbd133356	-0.03593763
75	0xbce5eae6	-0.02806611
76	0xbd27ed14	-0.04099758
77	0x3c8f16db	0.017466953
78	0xbd4e004b	-0.05029325
79	0xbc8b72fe	-0.017022606
80	0x3d89b870	0.06724632
81	0xbd4f8098	-0.050659746
82	0x3d1b1777	0.037864175
83	0xbc1eb833	-0.009687471
84	0x3d71e43f	0.059055563
85	0xbd34b8fa	-0.04412172
86	0x3d8b8110	0.06811726
87	0xbd5ac8e3	-0.053414237
88	0x3da3cadc	0.07997677
89	0x3d93e33a	0.072210744
90	0xbd2de196	-0.042451464
91	0xbdab403b	-0.0836186
92	0xbb995476	-0.004679258
93	0x3c4814a8	0.012211956
94	0x3ce98aa3	0.02850849
95	0xbd99f2c0	-0.07517004
96	0xbd9cd88a	-0.07658489
97	0x3d7feec3	0.06248356
98	0xbb314ac1	-0.0027052613
99	0x3d47734f	0.04869395
100	0xbd8417ac	-0.064498276
101	0x3d0e0c60	0.03467977
102	0x3ceec25e	0.029145416
103	0xbd6fed16	-0.058575712
104	0x3d310f8e	0.043227725
105	0x3c90750d	0.01763394
106	0xbc731751	-0.014837102
107	0xbd76ff2b	-0.06030194
108	0xbda4d2f2	-0.08048047
109	0xbddbc767	-0.10731392
110	0xbcfad944	-0.030621178
111	0xbceda259	-0.029008077
112	0x3d45f846	0.048332475
113	0x3dbeb266	0.093113706
114	0x3ba1a84d	0.004933393
115	0x3dac2c19	0.084068485
116	0xbd692c5b	-0.056927066
117	0xbd138b6b	-0.03602163
118	0x3bf75480	0.007547915
119	0x3dbe5ea5	0.09295396
120	0xbd9dc59f	-0.07703709
121	0xbc9f26a5	-0.019427607
122	0xbd5b5cc0	-0.05355525
123	0xbd8b55b9	-0.0680346
124	0x3d5e8756	0.054328285
125	0xbd71c5e4	-0.059026614
126	0x3d350264	0.044191733
127	0xbc82a401	-0.015947344

weight f4 [128, 256]
0	0xbccef8e1	-0.02526516
1	0x3cd900eb	0.026489696
2	0xbd533dcf	-0.051572617
3	0xbcce7f80	-0.025207281
4	0x3d345f30	0.04403609
5	0x3cedf760	0.029048622
6	0xbd209264	-0.03920211
7	0x3bb82441	0.005619556
8	0xbc88ab86	-0.016683351
9	0xbb929815	-0.004473696
10	0x3c8af89e	0.016964253
11	0x3d2da106	0.042389892
12	0xbc3229af	-0.010874196
13	0xbd16fb70	-0.036860883
14	0x3d9a7ce6	0.07543354
15	0xbc2355e6	-0.00996921
16	0x3d7eb963	0.062188517
17	0x3d7d9030	0.061905086
18	0x3d062028	0.03274551
19	0x3cd7fd70	0.026365966
20	0x3c922cbf	0.017843602
21	0xbc4c85b7	-0.012483052
22	0xbcd716d0	-0.026255995
23	0xbd2dd4a0	-0.042439103
24	0xbd944289	-0.07239253
25	0x3cab7b16	0.020932715
26	0xbca1142b	-0.019662937
27	0xbc3a1604	-0.011357788
28	0xbb90d6cf	-0.0044201384
29	0xbc9c9718	-0.019115016
30	0xbd16131b	-0.036639314
31	0x3bb96c93	0.005658695
32	0xbd4f4799	-0.05060539
33	0x3d531268	0.051531225
34	0xbde71f0e	-0.1128522
35	0xbcbb5071	-0.022865506
36	0x3d015e71	0.031584207
37	0x3d9ebb90	0.077506185
38	0x3cad769c	0.021174721
39	0x3e023db0	0.12718844
40	0xbd9eb05f	-0.07748484
41	0xbb42aa24	-0.0029703462
42	0xbd8d5e31	-0.06902731
43	0x3cf7c5bf	0.03024566
44	0xbd269209	-0.040666614
45	0xbd469fdc	-0.048492298
46	0x3d4f2a0e	0.050577216
47	0x3d110d9a	0.035413362
48	0x3d003b76	0.031306706
49	0x3d8ad92b	0.06779703
50	0xbc297c78	-0.010344617
51	0x3d3c2c5d	0.045940746
52	0x3c784f1c	0.01515558
53	0xbcb86185	-0.022507438
54	0xbd13facf	-0.03612786
55	0x3ceffa4a	0.029294152
56	0xbd59d5dd	-0.05318247
57	0x3d23e8da	0.040016986
58	0x3c1edb6a	0.009695867
59	0xbcc48cff	-0.023993013
60	0xbcb85944	-0.022503503
61	0x3db729f8	0.08943552
62	0x3b2da39f	0.002649523
63	0xbbc29c6a	-0.005939056
64	0x3d9eb0fc	0.07748601
65	0x3cbd9165	0.023140619
66	0xbd3b3961	-0.045709018
67	0x3c162692	0.009164469
68	0x3a078baa	0.0005170653
69	0xbc44d87e	-0.012014506
70	0xba251194	-0.000629687
71	0xbbc8f66c	-0.0061328914
72	0xbc564c97	-0.013079784
73	0xbd0ca0bc	-0.034332976
74	0xbccbf83f	-0.024898646
75	0x3d558969	0.052132998
76	0xbcad427e	-0.02114987
77	0x3da94ef2	0.08267011
78	0xbcd64acf	-0.026158718
79	0xbd3118d7	-0.04323658
80	0xbc28ce14	-0.010303039
81	0x3ceeeda0	0.029166043
82	0xbbca1baa	-0.0061678486
83	0xbe08ce04	-0.13359839
84	0x3c1a2e2f	0.009410425
85	0x3dc3d0ec	0.09561333
86	0x3d8aa501	0.06769753
87	0x3d0b1d4c	0.033963487
88	0x3b8cb6b8	0.0042942427
89	0x3c042cd2	0.008067327
90	0x3c8bdb41	0.017072322
91	0x3d2325dc	0.039831027
92	0x3d67aa46	0.05655887
93	0xbd1d610c	-0.03842263
94	0x3cd1ea69	0.02562447
95	0xbcf74937	-0.030186279
96	0xbd29a772	-0.041419454
97	0x3ca6e3b2	0.020372245
98	0x3d4c460f	0.0498715
99	0x3c0859f1	0.008322225
100	0xbd867c01	-0.065666206
101	0x3db80385	0.08985046
102	0x3c2aefbf	0.0104331365
103	0x3bbdb1b7	0.0057890075
104	0x3d8a401f	0.067505114
105	0x3d7ec02f	0.062195
106	0xbcb46ec0	-0.022025466
107	0x3da41b04	0.08012965
108	0x3d3f9536	0.046773158
109	0xbcaa4941	-0.020786883
110	0x3d5d9a8b	0.05410246
111	0xbd5884ca	-0.052861013
112	0x3ce6604e	0.028122094
113	0x3bd70d61	0.006562874
114	0x3d85ae47	0.065273814
115	0x3d251b1b	0.040309053
116	0xbd735669	-0.05940858
117	0x3d94d9d4	0.0726811
118	0x3d353776	0.044242345
119	0xbca8b75d	-0.020595247
120	0xbcca35ae	-0.0246838
121	0x3d8d6753	0.06904473
122	0xbc36a176	-0.011146894
123	0x3d5aa40b	0.0533791
124	0x3d1fa00b	0.03897099
125	0xbcb47e3e	-0.022032853
126	0x3d0c556f	0.034261163
127	0x3d2579b0	0.040399253
128	0xbd169f37	-0.036772933
129	0xbcf51e0d	-0.029921556
130	0x3a069182	0.00051333767
131	0x39acb190	0.0003293869
132	0x3d0f2ccd	0.034954835
133	0x3b472d13	0.0030391857
134	0xbd3c6c4e	-0.046001725
135	0xbd852f92	-0.06503214
136	0xbd0a475a	-0.033759452
137	0xbd0fa5c7	-0.035070207
138	0x3dc2696e	0.09492765
139	0x3df2c45c	0.11853859
140	0x3d0a3d8e	0.03375011
141	0xbd043152	-0.032273598
142	0x3b757aa4	0.0037457133
143	0x3b1c4b93	0.0023848757
144	0xbc6475f3	-0.013944137
145	0xbc2bff3f	-0.010497867
146	0x3d357756	0.04430326
147	0x3b1dc5b3	0.0024074137
148	0xbd12ffb5	-0.035888392
149	0xbc378d33	-0.011203098
150	0xbd3c09cd	-0.045907784
151	0xbd40893b	-0.047005873
152	0xbd96eb36	-0.07369082
153	0xbc8c0209	-0.017090814
154	0xbd47226d	-0.048616815
155	0x3d180480	0.037113667
156	0x3d0e97ec	0.034812853
157	0x3d4415f8	0.047872514
158	0x3c086c23	0.008326563
159	0x3cd8b480	0.026453257
160	0x3ce755b6	0.028239112
161	0x3d73b6f0	0.059500635
162	0x3d4427a1	0.047889356
163	0x3ce1348c	0.027490877
164	0x3b09f8b7	0.0021052787
165	0x3bf49a7c	0.007464705
166	0xbca9d683	-0.02073217
167	0x3c18460c	0.009294044
168	0x3d305bed	0.043056417
169	0xbd111d11	-0.03542811
170	0x3d46d0e4	0.048539057
171	0x3c8a84c9	0.01690902
172	0x3d00964e	0.03139334
173	0xbc22c587	-0.0099347895
174	0x3d241576	0.04005953
175	0x3d9cac1e	0.07650016
176	0x3d760548	0.06006363
177	0xbc8c147c	-0.017099611
178	0x3d95919e	0.07303165
179	0xbc847d9d	-0.016173178
180	0xbd6fb4eb	-0.058522146
181	0xbc93dc60	-0.018049419
182	0xbd6a8cad	-0.057263065
183	0xbcf7e324	-0.030259676
184	0x3c9b9a44	0.018994458
185	0xbd10228c	-0.035189196
186	0x3d0b6e83	0.03404094
187	0xbc86ad63	-0.0164401
188	0x3c90b925	0.017666409
189	0x3a7ddadc	0.00096837967
190	0x3b3b6ddf	0.0028599424
191	0xbce7cfd5	-0.028297344
192	0xbd5efc32	-0.05443973
193	0x3d918f94	0.071074635
194	0x3d86eec7	0.06588512
195	0x3d30c779	0.043158982
196	0x3c9dd062	0.019264404
197	0xbcff95f2	-0.03119943
198	0xbcbabb55	-0.022794405
199	0x3ccce109	0.025009649
200	0x3d52ef8d	0.051497985
201	0xbc03ff3e	-0.00805646
202	0xbc8f69f4	-0.017506577
203	0x3d73b797	0.059501257
204	0xbcde3df8	-0.027129158
205	0xbc1c84e2	-0.009553166
206	0xbccb3eeb	-0.024810275
207	0xbda93d6a	-0.08263667
208	0x3ccdb00c	0.02510836
209	0x3d5be82d	0.053688217
210	0xbd98c136	-0.07458727
211	0xbd49ce42	-0.04926897
212	0xbd16ff92	-0.036864825
213	0xbd44fe84	-0.048094288
214	0xbbcc0f11	-0.006227382
215	0x3d575328	0.05256954
216	0xbdcb47dc	-0.099258155
217	0xbd87c5ab	-0.06629499
218	0xbd469ada	-0.04848752
219	0xbd6829d5	-0.05668052
220	0xbd4346cb	-0.047674935
221	0x3d3025c9	0.043004785
222	0xbcac8a64	-0.021062084
223	0x3de3f91b	0.111314975
224	0x3cd2b665	0.025721738
225	0x3d195d33	0.037442397
226	0x3dcb5242	0.09927799
227	0xbce2d8cb	-0.027691266
228	0x3d1e988b	0.038719695
229	0x3d56ccc0	0.05244136
230	0x3d00f76c	0.03148596
231	0x3d2059c6	0.039148115
232	0x3c18cb27	0.009325779
233	0xbc8ffa92	-0.017575536
234	0xbdd5c44c	-0.10437831
235	0xbd180936	-0.03711816
236	0x3dc75a1b	0.09733983
237	0x3d957702	0.072980896
238	0xbd02a371	-0.03189415
239	0xbcec47a1	-0.02884275
240	0x3c4c555e	0.012471525
241	0x3c6c4e9f	0.014423042
242	0x3d8114e8	0.06302816
243	0xbd126a9e	-0.03574621
244	0xbc6ab9e3	-0.014326545
245	0x3bdabab9	0.006675091
246	0xbd1e0746	-0.038581155
247	0xbb959a10	-0.004565485
248	0x3cbd69fa	0.023121823
249	0x3d9aff18	0.075681865
250	0x3cf8d6b8	0.030375823
251	0x3ca53cd1	0.020170601
252	0x3da2ae90	0.079434514
253	0x3d11a229	0.03555504
254	0x3d6805ee	0.05664628
255	0x3c24841e	0.010041265

bias f4 [128]
0	0xbbd33f1c	-0.006446732
1	0x3c003e14	0.007827301
2	0x3d567bab	0.052364033
3	0x3d10d273	0.03535695
4	0x3cfa535e	0.03055733
5	0xbc8fd8de	-0.017559465
6	0xbd50a49d	-0.050938237
7	0x3c6bf56b	0.014401774
8	0x3ce49492	0.027902875
9	0xbd86ae8a	-0.065762594
10	0x3d05c3da	0.03265748
11	0x3d138d91	0.03602368
12	0x3d834e72	0.06411447
13	0x3b89ed67	0.004209209
14	0x3d82a278	0.06378645
15	0x3d5b1f2f	0.053496536
16	0xbbc85239	-0.0061133173
17	0x3ce68f23	0.028144425
18	0x3d3c38d6	0.04595264
19	0x3d497e31	0.04919261
20	0x3d5fe22e	0.05465906
21	0x3d6e60ef	0.05819791
22	0x3c43fab9	0.011961632
23	0xbd32ac60	-0.04362142
24	0x3d3e526a	0.046465315
25	0xbd6d95a8	-0.05800405
26	0xba2022a3	-0.0006108677
27	0xbbfe797b	-0.0077659464
28	0x3cc9bf21	0.02462727
29	0xbb04c57f	-0.0020259318
30	0x3c716226	0.014732873
31	0x3cfaa845	0.030597815
32	0xbc9f6d07	-0.019461168
33	0x3c0fce8c	0.008777272
34	0x3d0e3b89	0.034724746
35	0xbc908bb9	-0.01764475
36	0xbcf0c8af	-0.029392568
37	0xbbd68ee6	-0.0065477965
38	0x3caa877d	0.020816559
39	0x3c81d6ac	0.015849434
40	0x3d51e12d	0.051240135
41	0x3a3995d9	0.0007079519
42	0x3ce30193	0.027710712
43	0x3d7b5507	0.061360385
44	0xbcaa0d24	-0.020758219
45	0xbcf9c307	-0.030488504
46	0xbd390695	-0.045172293
47	0x3d1e743d	0.038685072
48	0x3c481360	0.012211651
49	0x3c641e51	0.013923244
50	0x3d2760b2	0.0408637
51	0xbc11fc9b	-0.0089103235
52	0x3d3273e3	0.04356755
53	0x3d8be5c4	0.06830934
54	0x3ca38f84	0.019965895
55	0xbb2c9513	-0.0026333972
56	0x3c26537d	0.010151741
57	0x3d443e8c	0.04791121
58	0xbd03759c	-0.032094583
59	0x3c027bcc	0.007964086
60	0x3cee6364	0.029100128
61	0x3db8d572	0.090250865
62	0x3c1ceeb1	0.009578393
63	0xbcfaf83a	-0.030635942
64	0x3ba1c110	0.004936345
65	0x3d645232	0.05574245
66	0x3d2054b8	0.039143294
67	0x3cc83645	0.02443994
68	0x3cd1256f	0.025530545
69	0x3db26b16	0.08711831
70	0x3c1ff22d	0.009762329
71	0x3db5ec61	0.08882976
72	0x3da638e9	0.081163235
73	0x3ceba061	0.028762998
74	0xbc8daae0	-0.017293394
75	0xbd280e0a	-0.041029014
76	0xb9f17ee8	-0.00046061655
77	0xbc81f6c7	-0.015864743
78	0xbc16281e	-0.009164838
79	0xbd348103	-0.044068348
80	0x3d9b2336	0.07575075
81	0x3d9de406	0.07709508
82	0xbd2a6539	-0.04160044
83	0x3d0072e6	0.031359576
84	0xbd2eec75	-0.04270597
85	0x3da411ee	0.08011232
86	0xbd63fdc9	-0.05566195
87	0x3b8860cb	0.0041619292
88	0xbc33cf5b	-0.01097473
89	0xbd0be320	-0.03415215
90	0xbd13df3a	-0.036101557
91	0x3d83a2d6	0.06427543
92	0xbe08ca21	-0.13358356
93	0xbcb7df8e	-0.022445466
94	0xbd653eaa	-0.055967964
95	0x3cbdce4f	0.023169665
96	0xbcf7c97c	-0.030247442
97	0x3d30a498	0.04312572
98	0x3d89e1a6	0.06732492
99	0xbd25955a	-0.040425636
100	0xbd4c063c	-0.049810633
101	0x3db9151d	0.0903723
102	0xbd3ae7b8	-0.04563114
103	0x3d1a804d	0.037720013
104	0xbd8de1b5	-0.06927816
105	0x3d75c8b0	0.060005844
106	0xbca3f865	-0.020015905
107	0x3c1f4482	0.009720923
108	0xbd04f33e	-0.032458536
109	0x3d0c4f0a	0.034255065
110	0x3d0903a9	0.033450756
111	0xbd048777	-0.03235575
112	0x3b9c4962	0.00476949
113	0xbd2fb1ae	-0.042894058
114	0xbde02366	-0.10944252
115	0x3cf7294c	0.03017106
116	0xbc506eff	-0.012721776
117	0x3d52f82a	0.0515062
118	0xbd92da5c	-0.07170555
119	0xbd402fc7	-0.046920564
120	0xbd403dfa	-0.046934105
121	0xbc6511db	-0.013981308
122	0x3d051cf9	0.032498334
123	0x3bd8fee5	0.0066221827
124	0xbd5ee5f0	-0.054418504
125	0x3d1c2754	0.038123444
126	0x3c0923ed	0.008370382
127	0x3dac7916	0.08421533

weight f4 [2, 256]
0	0x3d734508	0.059392005
1	0x3ca7bef1	0.02047679
2	0xbbe66ef6	-0.0070322705
3	0x3c73c647	0.014878816
4	0x3def434c	0.11682758
5	0xbc9ae0a8	-0.018905953
6	0x3da8fdbc	0.08251521
7	0x3b6793d3	0.0035335913
8	0x3d97d255	0.074131645
9	0xbcfe0cf8	-0.031012043
10	0xbd40a3f8	-0.047031373
11	0x3bf19fd6	0.0073737903
12	0xbd9c3000	-0.07626343
13	0xbd87e443	-0.06635334
14	0xbd651b32	-0.05593414
15	0x3db23e3d	0.08703277
16	0xbbe14981	-0.0068752174
17	0xbc147f17	-0.009063504
18	0x3dd0cc8c	0.10195264
19	0x3d4acccf	0.049511727
20	0x3aa309ef	0.0012438874
21	0xbd60f328	-0.054919392
22	0x3db7c27f	0.08972644
23	0xbb8239c7	-0.0039741728
24	0xbd29bd53	-0.04144032
25	0x3d8162d6	0.063176796
26	0x3cdce378	0.026963934
27	0x3cdac28a	0.026704092
28	0xbc9af80f	-0.018917112
29	0x3dbf19fd	0.09331129
30	0x3dc4e264	0.09613493
31	0xbd0bf75b	-0.034171443
32	0xbd0afa46	-0.033930086
33	0x3e1a7298	0.15082777
34	0xbc4e3062	-0.012584778
35	0x3d8ce8a5	0.06880311
36	0x3d98a669	0.07453615
37	0x3d868955	0.06569163
38	0x3d10f61c	0.03539096
39	0x3d6700c4	0.056397215
40	0x3d9cc4b1	0.076547034
41	0x3d6dcd98	0.058057398
42	0xbb8e6712	-0.004345783
43	0xbc920242	-0.017823342
44	0x3d3f9692	0.046774454
45	0xbce2320f	-0.02761176
46	0x3cea6ed3	0.028617298
47	0x3dd06b35	0.10176698
48	0x3d8373a3	0.0641854
49	0x3dabd137	0.08389514
50	0xbcb14d1a	-0.02164321
51	0x3d8e2bb3	0.06941929
52	0xbd812cf0	-0.06307399
53	0x3dd83ba9	0.10558254
54	0x3be02417	0.0068402397
55	0x3d5ea8f3	0.05436034
56	0x3dd17bae	0.10228668
57	0x3be71342	0.0070518563
58	0xbd8b18cb	-0.06791838
59	0xbd374c94	-0.044750765
60	0xbdae0811	-0.08497632
61	0xbd3393eb	-0.043842237
62	0x3d05c140	0.032655
63	0x3d91b589	0.07114703
64	0xbdc336ef	-0.09531962
65	0xbda5b28d	-0.080906965
66	0x3d47db09	0.048792873
67	0x3d8a2214	0.06744781
68	0x3d97e675	0.07417003
69	0xbba31e3b	-0.004977969
70	0x3ca76341	0.02043307
71	0x3cb82bb3	0.022481775
72	0xbd5161bd	-0.0511186
73	0xbc582a1f	-0.013193636
74	0x3aa20ffe	0.0012364385
75	0xbd59dfa6	-0.053191803
76	0x3d5bbcf5	0.053647
77	0x3db6cf24	0.08926228
78	0x3d199218	0.03749284
79	0xbd7eadf1	-0.062177602
80	0x3ccde567	0.025133802
81	0x3c7f96c6	0.015599912
82	0x3d8899dc	0.06669971
83	0xbc10ad51	-0.008830384
84	0x3cf9fbcb	0.030515572
85	0xbda9381d	-0.08262656
86	0x3d934295	0.07190434
87	0x3bcf0108	0.0063172616
88	0xbcee85f3	-0.029116606
89	0x3dde5de2	0.108577505
90	0x3be389b1	0.0069439043
91	0x3d3407b0	0.043952644
92	0xbeb0d0db	-0.34534344
93	0xbda1eda7	-0.07906657
94	0x3d0a4bbb	0.03376363
95	0x3de5c72f	0.11219632
96	0xbd26c71c	-0.04071723
97	0xbdfdce1c	-0.12392828
98	0xbdbfa3a4	-0.09357384
99	0xbaf66d19	-0.0018800824
100	0xbcaf3a4a	-0.0213901
101	0xbd945e94	-0.07244602
102	0x3cd2b27e	0.025719877
103	0x3db961a0	0.090518236
104	0xbe29869b	-0.16555254
105	0x3a2b38af	0.0006531579
106	0x3da90f0b	0.08254822
107	0xbb8fccfe	-0.0043884506
108	0xbcf09f85	-0.02937294
109	0x3cba928a	0.022774953
110	0xbd08cb18	-0.03339681
111	0xbd1e4157	-0.03863653
112	0xbb418b74	-0.0029532583
113	0x3d55ae27	0.052168038
114	0xbddfff2b	-0.10937341
115	0x3c5a0c08	0.013308533
116	0x3da07df1	0.078365214
117	0xbd9b1a42	-0.07573368
118	0x3daf268f	0.08552276
119	0x3d81cb53	0.06337609
120	0x3de85e6e	0.11346136
121	0x3aed8a4b	0.001812288
122	0x3c9a3eb8	0.018828735
123	0x3d47008d	0.04858451
124	0xbd4bfd66	-0.049802206
125	0xbd5d3a25	-0.05401053
126	0x3da6cde4	0.08144739
127	0xbd8252df	-0.06363463
128	0x3c37e1d3	0.011223274
129	0x3dabc3d9	0.08386964
130	0xbca2319c	-0.019799046
131	0x3c7f0182	0.015564324
132	0x3d60f6e8	0.05492297
133	0xbd9a875a	-0.075453475
134	0x3bd50c4a	0.006501709
135	0x3d777a16	0.060419165
136	0x3c66cf42	0.0140875
137	0x3d4d0d62	0.05006159
138	0xbd26e1d7	-0.04074272
139	0x3d53fea9	0.051756535
140	0xbcb57633	-0.022151088
141	0x3c9d1df5	0.019179324
142	0xbd417529	-0.047230873
143	0xba3f6ed8	-0.0007302589
144	0xbd8db5fe	-0.06919478
145	0xbb016d0d	-0.0019748837
146	0xbc3efa33	-0.011656332
147	0x3d99d442	0.07511188
148	0xbd9451df	-0.07242178
149	0xbb6a2bd5	-0.0035731692
150	0x3d9cd81b	0.07658406
151	0xbd241b73	-0.04006524
152	0xbca987e4	-0.02069468
153	0x395dd3ac	0.00021155056
154	0x3d51223e	0.051058047
155	0xbd496526	-0.04916873
156	0x3bf18c17	0.0073714363
157	0x3dc0306e	0.09384237
158	0x3e293f6e	0.16528103
159	0xbd8e6239	-0.06952328
160	0xbca7b89f	-0.020473776
161	0x3de9ee7b	0.1142244
162	0xbc71b047	-0.0147515
163	0x3de63e67	0.11242371
164	0x3dc52900	0.09626961
165	0x3deb0d1f	0.11477112
166	0x3d0182eb	0.031618994
167	0x3d8d0b3b	0.06886908
168	0x3dad7641	0.08469821
169	0xbd02d3b4	-0.031940177
170	0x3db70602	0.08936693
171	0xbdcb707a	-0.099335626
172	0xbd0cc242	-0.034364946
173	0xbda6c26a	-0.0814255
174	0x3c6ca9d7	0.01444479
175	0x3d9f53eb	0.07779678
176	0x3d233e70	0.039854467
177	0x3d8a8cf7	0.06765168
178	0x3d3ae20e	0.04562574
179	0x3d970c24	0.073753625
180	0xbd4baaae	-0.04972332
181	0x3d1b66ec	0.03793995
182	0x3d8eb159	0.0696742
183	0xbb6982ef	-0.003563102
184	0x3da781cb	0.08179053
185	0x3ceb35aa	0.028712112
186	0xbbe3106c	-0.006929448
187	0xbd52bdc4	-0.051450506
188	0xbd06241a	-0.032749273
189	0xbd3a4b4c	-0.045481965
190	0x3b90c522	0.0044180313
191	0x3ca8ea5d	0.020619566
192	0xbd226cdc	-0.039654598
193	0xbdb38afb	-0.08766743
194	0x3d3d01d1	0.04614431
195	0x3d81b867	0.06334
196	0x3dd4256b	0.103586994
197	0xbd556d42	-0.05210615
198	0x3cc5b220	0.024132788
199	0xbd6e8b24	-0.058238164
200	0xbd9a6fd5	-0.075408615
201	0x3c80deb0	0.015731186
202	0x3d1f515c	0.03889595
203	0x3bf48f00	0.007463336
204	0x3da082f5	0.07837478
205	0xbc1c3c17	-0.009535811
206	0x3d205a0a	0.039148368
207	0xbc3df9ca	-0.011595199
208	0xbdae384b	-0.08506831
209	0xbd2fd2a6	-0.0429255
210	0x3da143f9	0.07874293
211	0xbd02b021	-0.03190625
212	0x3c5d8d01	0.0135223875
213	0xbd76fb2c	-0.06029813
214	0x3e0b5ec0	0.13610363
215	0xb9d64adb	-0.00040873032
216	0x3d7a8cd6	0.061169468
217	0x3d928f69	0.071562596
218	0xbc4229b4	-0.011850763
219	0x3d104f8a	0.035232104
220	0xbe973e39	-0.2953966
221	0xbd3c5f64	-0.04598941
222	0x3cc61874	0.024181582
223	0x3dba1fed	0.090881206
224	0xbd0e23b2	-0.03470201
225	0xbdc809b6	-0.09767477
226	0xbcf4dc12	-0.029890094
227	0x3d4db0ee	0.05021756
228	0xbd53e0c7	-0.051728036
229	0x3a9bb546	0.0011879585
230	0xbd847888	-0.06468302
231	0x3d04ed2d	0.03245275
232	0xbe3d999f	-0.18515633
233	0xbca91bef	-0.020643203
234	0x3d1c92f2	0.038226075
235	0x3df2938d	0.11844549
236	0xbc069445	-0.008214061
237	0x3dcfabe7	0.1014021
238	0xbd229959	-0.039697025
239	0xbd7904ae	-0.06079548
240	0x3d5d7924	0.054070607
241	0x3d63af20	0.055586934
242	0xbe482968	-0.19547045
243	0x3d5085df	0.05090892
244	0x3d9a1b14	0.07524696
245	0xbdb7e5e1	-0.08979393
246	0x3deb3756	0.11485164
247	0x3d063c69	0.032772455
248	0x3dfd0169	0.123537846
249	0x3d950b4f	0.072775476
250	0x3dc0d581	0.09415723
251	0x3d43f1ed	0.04783814
252	0x3d3d46be	0.046210043
253	0x3cfba196	0.030716699
254	0x3c1ce6e9	0.009576538
255	0xbd35a145	-0.04434325

bias f4 [2]
0	0xbcd21bbf	-0.025647996
1	0xbca184e9	-0.019716697
