E-GraphSAGE/netflow/ton-iot/binary_best_model.pth (torch, 289284 bytes, 10 tensors)

weight f4 [128, 16]
000000 30 a4 27 be a6 04 30 be 7a e0 34 3e 0e 97 73 be
       -0.16371226 -0.17189273 0.17663756 -0.23788092
000010 2c 04 21 3e da 8e 50 be f6 c7 27 3e c9 a4 db bd
       0.15724248 -0.20366994 0.16384873 -0.1072479
000020 49 5e 35 be 8c 4b fb bd 40 d0 7d 3e 2b 3b 60 bb
       -0.17711748 -0.12270269 0.24786472 -0.0034214954
000030 8b 38 e3 3d dc 18 52 bd 67 24 67 3e f3 37 71 3e
       0.11094769 -0.05129324 0.2257248 0.23556499
000040 73 17 ab bd b4 ad 83 3e 6a 3e 31 3b bf f6 92 3c
       -0.08354082 0.25718462 0.0027045258 0.017939923
000050 30 a6 67 3e a2 b6 81 3e be c0 2a 3e e4 aa 4e 3e
       0.22621989 0.2533465 0.16675088 0.20182377
000060 00 e9 1b 3e 09 b1 98 3e 5a d5 e0 bc ec 03 67 3e
       0.15225601 0.29822567 -0.027445484 0.2256009
000070 a8 8a 46 be 96 24 be 3d e8 0e 84 3e a6 e0 80 3d
       -0.1938883 0.09284322 0.25792623 0.06292848
000080 c4 62 40 3e 2a 97 12 be de f9 06 be b8 da 30 3e
       0.18787676 -0.14315477 -0.13181254 0.17270935
000090 42 cd 43 3e 18 af 17 bd 7a 60 59 be 80 23 4f 3d
       0.19121268 -0.037032217 -0.21228209 0.050570965
0000a0 41 c9 49 3e 7e dd 77 bc b3 15 f5 bd e4 f2 74 be
       0.19705679 -0.015128491 -0.119670294 -0.2392078
0000b0 31 ec 85 3d 1a 61 17 be 5d 5c 12 be f6 7e 5d bc
       0.065391906 -0.14783135 -0.14293046 -0.013519039
0000c0 2f 2e 51 be 35 3b 79 3e b1 94 03 be 22 0f 03 3e
       -0.20427774 0.24338992 -0.1284969 0.12798741
0000d0 a7 75 46 be 87 8c 22 be 91 af 6c be 60 96 35 bd
       -0.19380818 -0.1587392 -0.23113848 -0.044332862
0000e0 80 41 be 3c 19 6f 7a 3e b6 77 c5 3d 90 31 18 3e
       0.023224592 0.24456443 0.09641974 0.14862657
0000f0 5e 4f 3f 3d df 1c 77 3e a4 63 45 be bf 5d 14 3e
       0.04670655 0.24132107 -0.19276291 0.14488886
000100 5b 09 74 3e 82 6f d2 3d bb 31 70 3e 8b 4d 07 be
       0.23831694 0.10275175 0.2345647 -0.13213174
000110 33 8a 02 be 5e d3 88 bd 73 bf 17 be 62 6f f0 bc
       -0.12748031 -0.0668094 -0.14819126 -0.029349986
000120 4b c7 1e 3e 53 2c 9e 3d 4d 1e 5d 3e c6 fe 6e be
       0.15505712 0.07723298 0.2159359 -0.23339376
000130 80 cc 86 3d df 87 83 3e af e1 83 bd 77 41 b7 bd
       0.06581974 0.256896 -0.0643953 -0.08948033
000140 1e c5 39 be c0 21 12 bd 94 71 70 3e 32 b2 7b 3e
       -0.181416 -0.035676718 0.23480827 0.24579695
000150 a3 a9 9a 3d b8 28 32 be 00 ea 25 3e fc 3d 52 be
       0.07551887 -0.17398345 0.16202545 -0.20531458
000160 e9 aa 4f 3e 26 6c be bd 71 a9 b4 bd 4f 4c 82 3d
       0.20280041 -0.092979714 -0.08821381 0.06362211
000170 36 24 65 3e 00 d1 ab 3b 86 ec 3c bd f7 d7 2e 3e
       0.22377095 0.0052434206 -0.046124004 0.17074572
000180 43 05 ee 3c 2e 5c 37 3e 02 19 9a 3d de bd 72 3e
       0.029055243 0.17906258 0.07524301 0.23705241
000190 8e 42 0a be 6b 58 fd 3d 92 d9 f7 bd 64 f2 39 be
       -0.13501951 0.1237038 -0.12102045 -0.18158871
0001a0 d2 df 34 bc d5 6f 6e bd 50 b0 70 3e 7d d0 19 be
       -0.011039691 -0.05821212 0.23504758 -0.15020938
0001b0 83 20 16 3e c4 2a 15 3d ec b8 43 be 2a 5c 38 be
       0.1466084 0.036417738 -0.19113511 -0.18003908
0001c0 1a f5 7c 3e 1f d7 71 3e 57 b7 13 bd bf 2c 53 3e
       0.24702874 0.23617218 -0.03606352 0.20622538
0001d0 2c f8 b7 3d 4b df 47 be 39 7f 47 be 17 26 43 be
       0.08982882 -0.19518773 -0.19482125 -0.19057499
0001e0 bc 27 8b 3d 92 1b eb bd 66 20 13 3e 1e 31 85 3d
       0.06794688 -0.11479868 0.14367828 0.06503509
0001f0 78 f5 ac bd 83 1b 8d bd 40 e8 f7 3d 49 3d fd 3c
       -0.08445257 -0.06890013 0.12104845 0.030913012
000200 7c b7 09 3e c7 84 fd bb 82 ca 78 be 73 32 99 bc
       0.134489 -0.0077367756 -0.24296 -0.018700814
000210 30 9e 07 3e 5e ff a7 3c b2 73 3f 3a 2d 2c 33 bd
       0.13243937 0.02050751 0.0007303312 -0.0437433
000220 48 e9 60 3e 84 c3 e9 3d 5d 91 a2 3d 17 13 1d 3e
       0.2196399 0.11414245 0.07937882 0.15339313
000230 1e 3e ef 3d cd 6a 99 bc 26 44 62 3e 5b 65 5d 3e
       0.1168177 -0.018727684 0.22096309 0.21620695
000240 f2 34 04 3e ea 0e 0b be df c1 8c bd 09 52 e5 3d
       0.12910822 -0.13579908 -0.068729155 0.111972876
000250 2a 84 17 be f9 13 b3 3d a9 9f 90 3d fc 56 48 3e
       -0.1479651 0.08744044 0.07061703 0.19564432
000260 25 41 4f 3e 9d 34 d6 bd 1b 2b 62 be 52 ac 83 be
       0.20239694 -0.10459254 -0.22086756 -0.25717407
000270 1e 2a 5b be f9 1e 53 be 81 ab af 3d a1 14 26 be
       -0.21402785 -0.20617284 0.08577634 -0.16218807
000280 b7 0b c5 ba c1 ac 6b be 97 a6 15 bc b6 72 0e bc
       -0.0015033399 -0.23015119 -0.009133956 -0.008694341
000290 97 9d 51 bc c1 b8 31 be 83 3c 1a 3e 7d e5 41 3e
       -0.01279392 -0.17355634 0.15062146 0.18935199
0002a0 24 89 17 3e 5f b4 04 be 58 22 89 3e 15 73 91 be
       0.14798409 -0.12959431 0.26784015 -0.28408113
0002b0 0e 45 37 3e 4e 2f 2f bd 12 03 60 be 64 61 80 be
       0.17897436 -0.042769723 -0.21876171 -0.25074303
0002c0 cf 42 44 3e 12 c3 9f 3d cf 81 1d be 1e c1 ad bd
       0.1916611 0.078008786 -0.1538155 -0.084841
0002d0 fc d6 eb 3b ed 24 43 be be df dc 3d 4a ef ab bc
       0.007197259 -0.19057055 0.10784863 -0.020988125
0002e0 a2 7d 94 bd 7f ca 90 be 14 19 82 be dd 7b 22 3e
       -0.07250525 -0.28279492 -0.25409758 0.15867563
0002f0 48 57 92 3d 59 2a 16 3d f4 40 1d be ff 87 c4 bd
       0.07145554 0.03666148 -0.15356809 -0.09596252
000300 85 db 0c be f2 79 e5 3d 7f 5d 60 be 31 db 14 be
       -0.13755615 0.112049 -0.21910666 -0.1453674
000310 fa 0e cc bd 3a 44 e8 bd f1 a1 c9 3c d6 cb 98 3d
       -0.09963794 -0.11341138 0.024613352 0.074607536
000320 c6 04 df 3d ee 4f 7c 3e 17 c5 29 3c cb 3f 8f bd
       0.10889582 0.24639866 0.010361931 -0.069945894
000330 56 b4 fd 3d 09 74 cf 3d c4 1b 0f be f3 03 ee 3d
       0.12387912 0.10129554 -0.13975435 0.11621847
000340 a5 f6 e8 3d 2c a1 1c be 24 70 3e be 84 f3 32 3e
       0.11375169 -0.15295857 -0.18597466 0.17475706
000350 e3 1f e4 bd 10 1a 67 be 86 36 33 3e 18 d9 50 be
       -0.111388944 -0.22568536 0.17501268 -0.20395315
000360 38 3e 1d be 27 57 3c 3e d4 46 0a 3d 02 50 5c be
       -0.15355766 0.18392621 0.033758953 -0.21514896
000370 67 20 c4 bd b5 87 0e 3e 45 ff 8f bd 82 06 bc 3d
       -0.09576493 0.13918956 -0.07031111 0.09180929
000380 b1 8b e8 bd c4 98 69 be 1e 07 59 be 86 fb 38 be
       -0.11354769 -0.22812182 -0.21194121 -0.18064699
000390 f4 87 ae bd b1 2e 27 bc 5c 7e 2d 3e 05 9a 8b 3d
       -0.08522025 -0.010204003 0.16942734 0.06816486
0003a0 00 39 00 be 7b 6d 95 3e 26 d5 19 be e3 4a 2d bd
       -0.12521744 0.2918509 -0.15022716 -0.042307746
0003b0 ed 43 b9 bd ab 89 d9 3d 36 97 15 3e 78 ec 13 3e
       -0.09046159 0.10621961 0.14608464 0.14445674
0003c0 61 7f 2a 3c 17 5a 10 3e d8 90 ce 3d 3e 6b e9 3c
       0.010406346 0.14096867 0.100862205 0.02849352
0003d0 c4 5e dc 3d 31 35 26 3e f0 a1 d9 bd cc 63 f1 bd
       0.107602626 0.16231228 -0.1062659 -0.11786613
0003e0 13 e3 22 3e df af 25 3d cc 7f ae 3d e0 12 91 3d
       0.15906934 0.040450927 0.08520469 0.07083678
0003f0 d9 c3 95 bc c3 40 68 3e 76 3e f6 3d 0a 02 2b 3e
       -0.018281864 0.22680955 0.12023632 0.16699997

bias f4 [128]
000000 02 8f 9a bc d7 4f 68 3e bf 69 9c 3d 40 87 ad 3d
       -0.01886702 0.22686706 0.07637357 0.084730625
000010 9f d9 52 be 04 a4 d5 bd fe 71 28 be 1d 02 e4 3d
       -0.20590828 -0.10431674 -0.16449735 0.111332156
000020 b8 26 2a 3e c2 60 41 3d c7 96 6e 3e 04 88 d8 bd
       0.16616333 0.047211416 0.23299704 -0.10572818
000030 cd 6c 5e be be 70 5a be 58 22 46 be 91 bf cf bd
       -0.21721192 -0.2133207 -0.19349039 -0.1014396
000040 cf cb 85 3d 37 db 0a bd 65 6e 8d bc d0 17 68 3e
       0.06533014 -0.033900466 -0.017264554 0.22665334
000050 a8 77 6f 3d 14 b6 2a 3e 03 6a 55 be 94 da 46 bc
       0.058463722 0.1667102 -0.20841222 -0.012137074
000060 e5 da e6 bd 98 29 62 be fa 0f 58 bd 9b 70 5e be
       -0.112722196 -0.2208618 -0.05274961 -0.21722643
000070 54 f7 f5 3d 05 be 2e 3d 9e 14 4d be ed 31 77 be
       0.12010065 0.042661685 -0.20027396 -0.24140139
000080 2a d0 50 3e a9 75 ae bd 55 f6 4e 3e d1 c1 d6 bd
       0.20391908 -0.08518536 0.20211156 -0.10486186
000090 a2 80 75 be ea 73 18 be 5b 3c 19 be 17 6f 62 bd
       -0.23974851 -0.14887968 -0.1496443 -0.055281725
0000a0 6c b7 22 be 32 96 45 3e d1 a5 49 be e6 d1 25 3e
       -0.15890282 0.19295576 -0.1969216 0.16193351
0000b0 1e 38 bb bc 3f 05 a1 3d 86 fd 59 be ee 98 32 be
       -0.022853907 0.07862329 -0.21288118 -0.1744115
0000c0 2f 30 29 3e 94 e8 13 3e d9 d9 2d bc f6 2a cc bd
       0.16522287 0.1444419 -0.010611021 -0.09969132
0000d0 ac 79 66 be bd ee 72 3e 7b 4f 1b 3e 54 a8 e5 bd
       -0.22507352 0.23723884 0.15167038 -0.11213747
0000e0 b3 24 c5 3d 25 7a a3 bd 3e d9 69 be a3 a8 16 be
       0.096261404 -0.079822816 -0.22836778 -0.14712767
0000f0 19 6f f1 bd 63 a8 a5 bd 87 af 66 3d c4 a2 a0 bd
       -0.11788768 -0.08088758 0.05631974 -0.07843545
000100 89 1e ee 3b 96 ed df bd 87 c5 ea 3d 82 d2 79 3d
       0.0072668237 -0.10933988 0.114634566 0.06099177
000110 9c 5c 95 bd 63 84 b7 3d aa f4 68 be 1d 2c ed bd
       -0.072930545 0.08960798 -0.22749582 -0.115806796
000120 ac c0 39 be 7d e1 16 3e 4f 23 32 be ee 13 36 3e
       -0.18139905 0.14734454 -0.17396282 0.1778104
000130 2f 9a bd bd 16 46 3b 3e 4c 56 eb bc 31 69 77 be
       -0.09257924 0.18288454 -0.028727673 -0.24161221
000140 fd 44 aa bc 81 ee 54 be 89 69 12 be e2 79 70 3e
       -0.02078485 -0.20794107 -0.14298071 0.23483995
000150 f9 d3 69 3e 09 61 38 be 25 22 1e 3e bd 24 d3 3d
       0.22834767 -0.18005766 0.15442713 0.10309742
000160 3a 80 1c 3d b1 63 b1 3d cb e9 5e be 04 3a 6b 3e
       0.038208224 0.08661593 -0.21768872 0.2297135
000170 41 f6 1e 3d 9d 40 1d 3d 6b da 23 be 3a 85 1a 3e
       0.038809065 0.0383917 -0.16001289 0.15089884
000180 a6 a5 e6 bd cc ad 20 3e 1d b6 5d bd 00 ac 4a 3e
       -0.11262064 0.15691298 -0.054128755 0.19792175
000190 d2 1d 7d bd 62 bc 0a 3e b0 1d a4 bd 28 c5 b2 3d
       -0.061796017 0.13548425 -0.08013475 0.08729011
0001a0 34 72 8d 3d 67 71 3c 3e 0e 69 3a be b0 e2 77 3c
       0.06906548 0.18402635 -0.18204138 0.01512973
0001b0 22 4d 27 be 45 b1 40 3d 17 b2 7c be b6 80 00 3e
       -0.16338018 0.047044057 -0.24677311 0.125491
0001c0 eb 79 6f 3e b7 65 f0 bd d4 04 5f be 09 c7 2e be
       0.23386352 -0.117381506 -0.21779186 -0.17068113
0001d0 cb 8d 48 3e fc 0f ed 3d 19 6a eb bd c7 ec 04 3e
       0.1958534 0.115753144 -0.11494846 0.12980948
0001e0 23 66 03 3e 9a 56 3e be ad 0b fd 3d 96 e9 94 bb
       0.12831931 -0.18587723 0.123557426 -0.004544447
0001f0 26 3d ef 3d bb 12 85 bd c8 d9 01 3d 71 d1 b1 3d
       0.11681585 -0.06497713 0.031701833 0.08682526

weight f4 [128, 136]
000000 92 68 60 bd ed b8 9d 3b ab c7 b3 bc be 6c d6 bb
       -0.054787226 0.0048133046 -0.021945795 -0.006543725
000010 15 70 87 bc 47 7e 9c 3c 2f a3 de 3c 73 b7 98 bc
       -0.016532937 0.019103182 0.027177421 -0.018642163
000020 8a 2f 89 3d d0 ab 17 3d 62 da 79 3d 06 59 d1 3c
       0.066985205 0.037029088 0.06099928 0.025555145
000030 a0 86 48 bd 52 63 8d 3d 9b d1 b7 bd bb 31 9a bd
       -0.048956513 0.069037095 -0.08975526 -0.075290166
000040 ef b5 54 bd 52 93 1f bd 44 67 9d bc e8 85 78 bd
       -0.051931318 -0.038958855 -0.01921428 -0.060674578
000050 28 06 5f bc 41 74 1d 3b 43 23 a5 bd 38 76 37 bd
       -0.013612308 0.0024025592 -0.08063366 -0.044790477
000060 55 e5 ff 3c d1 09 5e bd 68 31 83 bd 0c 1e 3f 3d
       0.031237284 -0.05420858 -0.06405908 0.046659514
000070 11 d2 1f 3d 2b 6b e4 bc 53 cf 02 3d 69 13 2a bc
       0.039018694 -0.027883133 0.031936 -0.010380604
000080 18 10 77 bd 8d 33 9e bd 3b b2 b8 3d 9c b8 05 bd
       -0.060318083 -0.07724676 0.0901837 -0.03264676
000090 1c 32 9e bd 33 ca cd 3d 03 a9 8a bd a0 b6 4e bc
       -0.07724401 0.10048332 -0.06770518 -0.012616783
0000a0 05 44 6e bc a9 ca 04 3d 9e 95 99 bc 49 36 de bc
       -0.014542584 0.032419834 -0.0187481 -0.027125495
0000b0 08 22 68 bc de b9 a8 3d 56 7f 2c 3d 73 e3 85 3c
       -0.01416827 0.08238576 0.042113625 0.016343808
0000c0 78 b0 b8 bd ca 8f eb bc bc ee 04 3d be de 6b 3c
       -0.09018034 -0.028755087 0.032454237 0.014396368
0000d0 8b d1 2e bc 47 ca 98 bc 23 71 86 3d 80 19 b1 3c
       -0.010670076 -0.01865114 0.06564548 0.021618605
0000e0 1d a8 b8 bd 69 6a 53 bb 20 6c 1b 3c 71 92 cb 3d
       -0.0901644 -0.003225947 0.009486228 0.09940041
0000f0 81 8d a9 3c e1 74 87 bc 00 83 8f 3d 8f 72 a5 bc
       0.020697357 -0.016535224 0.07007408 -0.020196227
000100 b4 71 d7 3d 72 01 91 3d 57 fa 22 3d 84 33 97 bb
       0.10519734 0.07080354 0.039789524 -0.0046142954
000110 36 22 ed bc 5a 97 21 bd 04 09 9d bc 49 71 67 bd
       -0.028946977 -0.03945098 -0.019169338 -0.05650452
000120 11 2a 98 bd e0 1d 81 3d 72 85 fd bc 78 16 ba 3d
       -0.074298985 0.06304526 -0.03094742 0.09086317
000130 80 be 2c 3d ab 71 c1 3d cf bf 5a bd 18 6c 1e 3d
       0.042173862 0.094455086 -0.05340558 0.038677305
000140 18 3b dd 3c 6c ad 44 bd 6f b7 12 3c 9d 7b 89 3c
       0.027005717 -0.04801695 0.008954867 0.016782576
000150 82 ff 0d 3d 9c ef 31 bd 4d 38 97 bd a8 68 d9 3d
       0.0346675 -0.0434414 -0.073837854 0.10615665
000160 e3 cc e1 bd 6e a6 fb 3c f6 19 83 3d 16 78 16 bb
       -0.11025407 0.030719008 0.06401436 -0.002295976
000170 47 95 9c 3d 2d ea dd bd 0d 1f 4f bc fe 97 b9 bc
       0.0764566 -0.10835681 -0.01264168 -0.022655483
000180 1f d9 6f bd 0d f8 41 3c 35 68 3a bc 63 c4 a7 3d
       -0.058556672 0.011838925 -0.011377384 0.08191755
000190 48 3d 4a bd 6b 1d 5a bc 6f fd 89 3d 1d 05 51 3d
       -0.04937485 -0.013312678 0.06737792 0.051030267
0001a0 e0 5e 54 bc 4a 21 d4 3d e5 85 ce bc 03 cb 22 3c
       -0.012962073 0.10357912 -0.02521033 0.009936097
0001b0 53 17 fb 3c a0 a3 85 bc 74 4e 28 bb cb 9d 9b 3d
       0.03065077 -0.016313374 -0.0025681527 0.07598456
0001c0 1f 9d c2 bd e3 52 07 3d e4 90 53 3d 2d 68 8b 3c
       -0.09502625 0.03303803 0.05165185 0.017017448
0001d0 1b d8 8e bd 37 79 d9 bc e2 2b db 3c fa 80 d6 3d
       -0.069748126 -0.026547058 0.026754323 0.10473819
0001e0 97 62 7e 3b f4 5d 95 bd cd f6 95 3b aa 4b b3 3c
       0.0038816088 -0.07293311 0.00457654 0.021886665
0001f0 45 33 af 3d 90 bd 3a 3d 9b ab 02 3d 57 12 aa 3c
       0.08554701 0.045590937 0.031901937 0.020760698
000200 3d 5c 5c bd 9b c1 cb 3c 21 f5 a0 3d 80 98 85 3d
       -0.053798903 0.024872592 0.07859255 0.06523228
000210 a7 c1 98 3d 5b d9 d1 bc ff 9d 29 bc 86 b7 70 bd
       0.07458811 -0.025616338 -0.010352611 -0.05876877
000220 94 78 69 3d 43 51 a1 bd 3a 11 8b bd 78 cc 62 bd
       0.056999758 -0.078768276 -0.06790395 -0.055370778
000230 49 57 d6 bc 44 e6 45 3d 9f 86 8f bd c6 5f 53 3d
       -0.026164668 0.0483153 -0.07008099 0.05160501
000240 be 4c 3b bd c2 b8 db bc 84 0a d7 bc ca 38 16 bd
       -0.045727484 -0.026821498 -0.026250131 -0.036675252
000250 18 68 c4 bd 0a ec 6e 3d e1 1d e5 3c e9 52 4f ba
       -0.09590167 0.058330573 0.027968349 -0.0007908778
000260 8a b6 33 bd 32 f2 95 3d 47 6e 8b bd e6 34 4a bd
       -0.043875255 0.07321586 -0.06808143 -0.049366854
000270 47 cc 52 3d db de 54 bd c1 98 ac 3d db 7e 88 3d
       0.051464345 -0.051970344 0.08427573 0.06664821
000280 82 ea 1f 3d 99 00 c3 bc fa 6f 77 bd b3 e6 a6 3d
       0.039042003 -0.023803996 -0.060409524 0.08149471
000290 3d 35 97 bd 45 2d 18 bd 31 40 8e 3d 35 31 88 3b
       -0.07383201 -0.037152547 0.06945837 0.0041562566
0002a0 54 fd 24 bd ca e8 26 3d 14 86 c9 39 78 9e ad bb
       -0.040280655 0.04074935 0.00038437604 -0.005298432
0002b0 3d f6 96 3c e4 7a 41 3d e1 8b d9 3c 95 dd 81 3d
       0.018427962 0.04723634 0.026555957 0.063410915
0002c0 b9 78 c8 3c 3b 9f 42 bc d0 54 22 bd b1 bf c3 bc
       0.024471628 -0.011878784 -0.039631665 -0.023895117
0002d0 c7 3d 6e 3d ba 72 9a bd e0 8c 66 3d 39 6b b7 bb
       0.058164384 -0.075414136 0.056286693 -0.0055974987
0002e0 11 9d c3 3c bc 70 94 3c cd 5b 38 3d 15 9e ab 3d
       0.023878606 0.018120162 0.045009423 0.08379761
0002f0 ca f5 ed bb 71 bd a0 3d df 98 75 3d 90 b1 ce 3b
       -0.0072619664 0.07848633 0.059960242 0.006307788
000300 37 c4 aa bb 83 90 a2 3b 99 c9 73 3d cc 77 9c 3d
       -0.005211379 0.004961075 0.05951843 0.07640037
000310 90 d8 eb 3b 19 88 5c 3d 9d 76 da 3c 04 c9 be 3c
       0.007197447 0.05384073 0.026667887 0.023289211
000320 87 7f cf bc cd ee ba bc db eb 41 bd 77 f8 8e 3d
       -0.025329364 -0.022818947 -0.04734407 0.06980985
000330 66 aa db 3c 65 40 94 bc c2 0b f8 b9 de 4b 6f 3d
       0.02681465 -0.018097112 -0.00047311006 0.058421962
000340 04 5b 78 3b 91 11 49 3d 54 0c 11 3d 38 76 ba bd
       0.0037896046 0.04908902 0.035412148 -0.0910458
000350 8b 62 68 bd 14 94 78 3d 44 3d 26 3d 20 97 ba bd
       -0.056734603 0.060688093 0.04058577 -0.09110856
000360 58 50 a7 bd 31 c5 c9 3c 53 bc 61 bd 1d f2 61 3d
       -0.08169621 0.024630161 -0.05511124 0.055162538
000370 d8 12 9f 3d 86 c2 a4 3c 43 c6 81 bd 6a d0 5f bd
       0.07767266 0.020112287 -0.063366435 -0.05464212
000380 e6 44 13 3d 73 df 95 3c 0d 56 1d b9 07 fe dc 3c
       0.03595438 0.018295025 -0.00015004743 0.026976598
000390 14 8f a9 3d fd 1f 80 3d d9 f5 67 3d 79 b0 45 3d
       0.08279243 0.06256101 0.056630943 0.048264
0003a0 a9 95 da bc 43 40 78 3d 9f 42 48 3c c1 73 3b 3d
       -0.026682692 0.06060816 0.012222915 0.04576469
0003b0 4f 26 31 3c 2c 41 aa bc 28 46 4d 3d 6f 70 7e 3d
       0.010812356 -0.02078303 0.050115734 0.062118944
0003c0 76 07 70 3d e2 2e b1 ba 8f 54 0c bd af c3 26 3d
       0.058600865 -0.0013518 -0.03426033 0.040713962
0003d0 6c 4f 1f 3c cd 53 63 bb b5 b4 60 3d f8 3e 42 bd
       0.0097235255 -0.00346874 0.054859836 -0.047423333
0003e0 81 58 36 bd 5a f5 5a 3d 41 88 89 3d 0d a6 68 bd
       -0.044517998 0.05345664 0.067154415 -0.056798983
0003f0 12 aa 0f 3d 6e c1 25 3d ec a0 56 3d 28 a0 29 bd
       0.0350743 0.040467672 0.05239956 -0.041412503

bias f4 [128]
000000 4d 42 17 bd bb 22 21 3d 05 99 13 3d 75 d3 f1 bc
       -0.036928464 0.039339762 0.036034603 -0.029519776
000010 dc fd 4c bd ed 2e 56 bd 8a 98 66 bd 93 d4 ac 3d
       -0.050046787 -0.052290846 -0.056297816 0.08438983
000020 d2 aa 32 bd 3e e6 87 3d 08 89 87 bd da 84 a9 bc
       -0.04361994 0.06635712 -0.066179335 -0.020693231
000030 ba a7 bf bc 5f 5b 92 bd 32 ae 95 bd 02 1e 07 bd
       -0.023395408 -0.07146334 -0.07308616 -0.032987602
000040 49 bf 85 bc 89 c0 7b bc b9 c3 58 bc dd 10 ed 3c
       -0.016326563 -0.015365728 -0.013230258 0.028938705
000050 c8 6d 13 3d b0 6d 51 3b ed 55 47 3d ba d1 69 3d
       0.035993367 0.0031956248 0.04866593 0.057084776
000060 4c 38 02 bd 5b 04 80 3d 57 6f a6 3d 2c 05 75 3d
       -0.03179197 0.06250831 0.08126705 0.059819385
000070 9e ee 25 bc 97 e6 ea bc 53 bb 8c 3d 71 11 ad bd
       -0.010127692 -0.028674407 0.06871667 -0.08450592
000080 a7 4d 5d bc 16 23 a9 3b cb ba 31 bd cc ff b4 3d
       -0.013507283 0.0051616533 -0.04339103 0.08837852
000090 f2 50 cb 3d 97 7e 73 bd 5b d8 3f 3c f8 4b 07 3d
       0.099275485 -0.059446897 0.011709298 0.033031434
0000a0 c9 d0 20 bd 0c 3f b0 3d d7 17 83 bd 90 b0 91 3d
       -0.039261613 0.08605775 -0.064010315 0.07113755
0000b0 13 46 8d bd e3 e8 8e bc 6f b6 07 bb d5 1b 8c bc
       -0.06898131 -0.017445033 -0.0020708104 -0.017103115
0000c0 6d 6c ca bc c0 81 4c bd 0e 74 86 3d 41 3b 81 3d
       -0.024709905 -0.049928427 0.065651044 0.0631013
0000d0 83 29 84 bd 2a c7 8f 3c 93 0a b6 3d 91 cf fb bc
       -0.0645323 0.017551024 0.088887356 -0.030738624
0000e0 c1 f1 8e 3c 9f 5e 97 bd bf 6e 85 bd a1 42 8b 3d
       0.017449262 -0.073910944 -0.06515264 0.06799818
0000f0 5e 9a ee 3c 9e 11 84 bd 0d 5e 09 3d ae cf b9 3c
       0.029126342 -0.06448673 0.03353696 0.022682037
000100 06 2b 80 bd 62 b3 10 3c 5c 35 80 bd 4f 32 88 3d
       -0.06258206 0.008831831 -0.062601775 0.066502206
000110 2b ee 66 bd 39 cb cb 3b a5 fa b4 3b c1 45 8c 3d
       -0.05637948 0.0062192944 0.005523043 0.06849242
000120 6c cc 28 3d f9 ed b1 3d 7a 92 a5 bc f2 8e 12 bd
       0.041210577 0.08687968 -0.020211447 -0.035780855
000130 63 75 5e 3d 9c 5b 0a 3c 76 f7 46 bc a0 c3 8d bd
       0.054311167 0.008444693 -0.01214396 -0.06922078
000140 7b 55 3d bd 8f a7 e0 bc f8 7f f2 bc a8 54 0e bd
       -0.0462241 -0.027423648 -0.029602036 -0.034748703
000150 b4 ea 81 3c a7 b7 94 3d e0 09 ee 3c 8a 2d 48 bd
       0.015858985 0.072615914 0.029057443 -0.048871554
000160 c1 f8 98 bd 0f f9 80 3d 2a 96 c0 bd 4a 31 42 bc
       -0.07469321 0.06297504 -0.094036415 -0.011852572
000170 f1 6b ba bd b8 4b 99 3d 13 8c a9 3d c4 9c 11 bd
       -0.091026194 0.07485145 0.0827867 -0.035549894
000180 82 60 74 3d 45 23 b3 3d 5f 77 dd 3c 97 27 a4 3d
       0.05966235 0.087469615 0.02703446 0.08015364
000190 7e c6 50 3d b2 1d 6b bd 17 61 81 3b c0 9e d5 bc
       0.050970547 -0.057401367 0.0039483416 -0.026076674
0001a0 2b d2 38 bc cf 60 65 bd bb 30 f0 3b 73 3f 9c bd
       -0.011280577 -0.056000527 0.007330028 -0.076292895
0001b0 7c 95 9b bd c3 d5 87 bd 87 e8 ff 3c e0 08 93 3d
       -0.07596871 -0.06632569 0.031238807 0.07179427
0001c0 ac d6 cc bc 69 e8 5b 3d 96 9f 7c 3d f2 7a 4d 3d
       -0.025004707 0.05368844 0.06167563 0.050166078
0001d0 f2 47 a8 bd 23 cd cb bb d8 ba 92 3c 1b b9 6b b7
       -0.082168475 -0.0062195226 0.01791136 -1.405019e-05
0001e0 46 45 a7 bd 19 55 1f 3c 44 0b e8 3b 5c 3c 3b bd
       -0.0816751 0.009724879 0.007081421 -0.04571186
0001f0 b1 16 11 bd 81 e8 75 3d 13 ca a2 3c 8f 07 6c bd
       -0.03542203 0.060036186 0.019871747 -0.057624396

weight f4 [128, 136]
000000 88 67 c4 3c 39 59 1b 3d a2 dd 99 3d 4e 87 54 3b
       0.023975149 0.037926886 0.07512976 0.003242928
000010 8f a8 d3 3b 90 01 96 bd af 58 94 bd 69 f1 d1 3c
       0.0064593027 -0.07324517 -0.072434776 0.025627809
000020 d7 65 50 3c 4d 2d 3c bd 97 4b 47 3c 1a 19 83 3d
       0.012719593 -0.04594164 0.012164018 0.06401272
000030 78 72 1f 3d f7 31 06 bd c4 0f 1d bd 79 81 8c 3a
       0.038927525 -0.032762494 -0.038345113 0.0010719738
000040 44 c3 63 3d 3a 6d 5b 3d b4 bb ca bc 2f 1f 9a bb
       0.05560614 0.053570963 -0.024747707 -0.0047034244
000050 54 09 cd bc 51 45 af bb d1 99 8c 3d 65 60 30 3d
       -0.025028862 -0.0053488393 0.06865276 0.04306068
000060 24 e4 d6 bc 26 3b 57 bd 18 6d 4a bd f5 40 74 bd
       -0.026231833 -0.052546643 -0.049420446 -0.05963226
000070 b1 2c 2a bd 23 5c 78 3d ce 7c a0 bc 3d a9 b6 bd
       -0.041546527 0.060634743 -0.019590762 -0.089189984
000080 9e 6d 01 bc 4e be c8 bc 7e db 3b 3d 4f aa 3e bd
       -0.00789967 -0.024504807 0.04586362 -0.046549138
000090 84 1d 9b bd 26 f4 17 3d fa 2c b0 3d 0d fa bf bd
       -0.07573989 0.037098072 0.086023286 -0.09373865
0000a0 87 53 35 3c 82 66 b0 ba be 4b d8 3c 78 dd 50 bd
       0.011067278 -0.0013458284 0.026403304 -0.05099246
0000b0 ef c4 79 3d cb 7e e7 3c fa e1 2b 3c 9e 3d 20 bb
       0.060978826 0.028258702 0.010490889 -0.002445079
0000c0 fa 86 8d bd 38 44 e6 3d 54 f1 1e bd fb 39 12 bd
       -0.0691051 0.112434804 -0.038804367 -0.035699826
0000d0 e9 fc 22 3c c2 37 9a bd df d3 41 bd 50 6b 94 bc
       0.009947994 -0.07530166 -0.047321197 -0.018117577
0000e0 5b 1a 5b 3d 4c a0 c8 3c 88 b8 0e bd 51 f3 99 bc
       0.05349193 0.024490498 -0.03484395 -0.01879278
0000f0 63 cc 1b bd c8 51 28 bc d7 e2 04 bd fe 7e 7d 3d
       -0.038036715 -0.010273404 -0.032442894 0.061888687
000100 fc cf b7 3c 6e 5d 52 bd e3 f7 b0 bd 27 e3 2c 3d
       0.022438042 -0.051358633 -0.08641031 0.042208817
000110 53 80 98 bb 4b 8d 2c bd 9e 30 40 3d b5 17 75 3d
       -0.0046539693 -0.042126935 0.046921365 0.059837062
000120 e1 12 9a bd 6d 72 f3 3c 64 14 3a 3d 69 3b 00 3c
       -0.07523132 0.029717648 0.045429602 0.0078266645
000130 63 22 0e 3d 7c 20 9d 3d 7b 15 4f bd 37 f5 a3 bc
       0.034700762 0.076722115 -0.050557595 -0.020014388
000140 32 fb 7a 3c 41 28 59 3d 4a 41 4b bd 0f 5f 38 bd
       0.015318679 0.053016905 -0.04962281 -0.04501253
000150 20 af 45 bd 97 7e 0b 3d 67 1e 01 bd 74 67 8d bd
       -0.048262715 0.034056272 -0.031523135 -0.06904498
000160 34 70 e9 bc ac de 3f 3d d2 fa 24 bb 4a b0 77 3d
       -0.028495885 0.046843216 -0.0025173915 0.060470857
000170 de 98 ae 3c ab 04 88 bd 0e 6b 3f 3d 09 12 ec bc
       0.021313127 -0.06641515 0.046732955 -0.028817194
000180 7a 03 71 bb c9 80 1e 3b 6f 43 28 bd 39 37 17 3d
       -0.0036775754 0.0024185649 -0.041079935 0.0369179
000190 b5 bb a0 3c 09 47 45 bc 2e 37 69 3d 64 96 4f bd
       0.019620756 -0.012040862 0.05693739 -0.050680533
0001a0 72 6d 09 3d 8c 1d 18 bd 0b 74 41 3d 03 39 91 bb
       0.03355164 -0.037137553 0.047229808 -0.004431845
0001b0 02 ad 49 3d 15 38 ad bd 54 d5 ae 3d d3 38 95 bc
       0.04923726 -0.084579624 0.08536783 -0.018215572
0001c0 3b 68 52 3d 32 bb 7b 3b 63 55 85 bd 9c 09 a6 3d
       0.051368933 0.0038411138 -0.06510427 0.081073016
0001d0 1d d9 93 3d 6a 8a a3 3d b8 0f 9b bd eb 7c 84 3d
       0.072191454 0.07985385 -0.075713575 0.06469139
0001e0 a6 01 44 3d 4c 82 a3 3d 4e 9f 92 bd 52 b5 50 bd
       0.047853135 0.079838365 -0.07159291 -0.05095417
0001f0 49 d6 91 bd f7 82 a8 bc b5 c8 a9 3d 26 e6 3b bd
       -0.0712095 -0.020570261 0.08290235 -0.045873784
000200 4f 5a 90 3d 6e e5 65 3c cc b5 cc bb b9 19 d0 3d
       0.07048475 0.014031751 -0.006247258 0.10161156
000210 be 63 b7 bc 08 51 5f 3d 6f 3e 5e 3d e4 9f 77 3d
       -0.022386428 0.054520637 0.05425876 0.060455218
000220 95 15 04 bd 8c 01 4c bd 0e bf ec bc cc d9 8e 3c
       -0.032247145 -0.049806163 -0.028899696 0.017437838
000230 26 19 13 bd 25 52 71 bd f0 59 a6 3a 4f 0d 4e 3b
       -0.035912655 -0.05891623 0.0012691598 0.0031441038
000240 68 14 58 3d f4 b0 cc bc 24 b5 50 3d 4b d0 8f bd
       0.052753836 -0.024986722 0.050954 -0.070221506
000250 e3 42 ae 3c 1d b0 87 3c e8 75 95 bc 2e f8 72 bd
       0.021272128 0.01656347 -0.018244699 -0.059318714
000260 0d 4c 5b bd 8b 87 93 3d 0b 0f 5d 3c e0 76 d1 3d
       -0.053539325 0.07203587 0.013492356 0.10227752
000270 06 b5 ab 3d b2 2d 7d bb ff 0a dc bd 90 a3 8c bd
       0.08384137 -0.0038631973 -0.10744285 -0.068671346
000280 86 f8 79 3d 38 ca a0 bd 48 38 88 bd b0 e9 a0 3c
       0.061028026 -0.0785107 -0.0665136 0.01964268
000290 1f f6 8f bc 16 e2 16 bd 1a bc 76 3b 92 1f 34 bc
       -0.017573414 -0.036836706 0.0037648738 -0.010993855
0002a0 70 f7 80 3d 4b 59 8c 3d ff 91 4b 3d 2a e5 df bc
       0.06297195 0.06852969 0.04969978 -0.027330954
0002b0 eb f9 e9 bc 51 1c d9 bb 4b 3c d7 bc 2f 77 a0 3b
       -0.028561553 -0.00662569 -0.026273867 0.0048970203
0002c0 34 a9 76 bd 77 5d cd bc 77 f1 40 bd b3 b9 ce 3b
       -0.06021996 -0.025068982 -0.04710528 0.006308758
0002d0 66 6d 03 3c e8 6a 04 3d fe 4d 73 3b 58 32 43 bd
       0.008021688 0.032328516 0.0037125344 -0.047655433
0002e0 f9 f0 0e bd b7 6d 30 bd ab 8f 65 3d 15 bd ca 3c
       -0.03489778 -0.043073382 0.056045216 0.024748364
0002f0 bc fe 08 bd 13 7e a8 bd 45 fc 88 bd d1 ac 74 3d
       -0.03344606 -0.08227172 -0.066887416 0.059735123
000300 40 b4 4a 3d be ff ac bd d9 fa 90 bd 8b a9 03 3c
       0.049488306 -0.084472165 -0.070790954 0.008036028
000310 9a 1d 66 bd 6d be a3 bd e2 d4 d5 3c e6 ee d7 bc
       -0.056180574 -0.07995305 0.026102487 -0.026359033
000320 78 ae 42 3c 72 ee 8b bd 80 0d 99 bd 56 84 01 3d
       0.011882417 -0.06832589 -0.07473278 0.031620346
000330 09 4d 98 bd 46 20 30 bd 51 49 e0 bb 03 f8 11 3d
       -0.07436568 -0.04299953 -0.0068446775 0.035636913
000340 25 ba 94 bd 69 3b 4b bd f7 24 c3 bd aa 60 05 3d
       -0.07262067 -0.049617205 -0.09528535 0.03256289
000350 3c 58 68 3d 7a 4a 37 bd 90 5a af bd 05 34 c5 bd
       0.05672477 -0.04474876 -0.08562195 -0.096290626
000360 4f 51 6d 3d f1 7b aa 3b d1 94 6a bd 18 f9 c4 bc
       0.05793887 0.0052027632 -0.05727083 -0.024044558
000370 0e 06 4c bd 40 c3 4e bc 85 d3 d1 3c 7e 32 8d 3d
       -0.04981046 -0.012619793 0.025613556 0.06894396
000380 27 4b ae 3d 57 da de bd 33 14 58 ba 7b c7 be 3c
       0.08510428 -0.10881489 -0.0008242756 0.02328848
000390 7c b5 a8 bd 0a 12 c0 3d 65 f0 50 bd db 49 33 bb
       -0.082377404 0.09378441 -0.051010508 -0.0027357254
0003a0 dc 48 69 3d c2 13 39 3d c7 43 c9 bc 24 ad e7 3c
       0.05695425 0.04518486 -0.024568452 0.028280802
0003b0 43 72 d5 bd a1 44 0f 3d 1f e0 ac bc 7c dd 68 bd
       -0.10422184 0.03497756 -0.021102963 -0.05685185
0003c0 42 bb 8c 3d f3 5d e3 bc 5c 7a c2 3c c8 97 d7 bc
       0.06871654 -0.02775476 0.023739986 -0.026317492
0003d0 e0 d7 c4 bd 1d d0 a6 bd 23 8b 86 bd db 93 24 3d
       -0.096114874 -0.08145163 -0.06569507 0.04018007
0003e0 ff 09 20 3d 2b 74 b5 bb 6f 0e 46 bd b8 73 36 bd
       0.039072033 -0.00553753 -0.04835361 -0.04454395
0003f0 04 c1 ea 3b 4e 55 a8 bd bc b3 2a bd 16 4d 9d 3d
       0.0071641225 -0.082193956 -0.041675314 0.076807186

bias f4 [128]
000000 a1 52 9a 3d 45 c1 81 bd 5c f2 3c 3a f1 76 80 bd
       0.075352915 -0.06335691 0.0007207745 -0.06272686
000010 fa a9 92 bd 1b ec 88 3c 53 a6 3a 3d 0c b2 32 3d
       -0.07161327 0.016714146 0.045568775 0.04362683
000020 e2 71 b1 3d e1 bd fd bc 7c c1 65 3c 94 dd 9e 3b
       0.086642995 -0.03097433 0.014023181 0.0048481915
000030 d4 5a 75 bd 8c 40 32 bc 41 55 b7 3d d6 97 c0 3c
       -0.059901074 -0.010879647 0.08951808 0.023509901
000040 46 28 df bc 16 6c b9 3d 93 7a 91 3d ba 9a cd 3b
       -0.027240884 0.09053819 0.07103457 0.0062745484
000050 ba 4a 8e 3d c3 2f 04 3d 3e 8b b5 bc f9 1e 4a 3d
       0.06947847 0.03227211 -0.022161122 0.049345944
000060 b9 0d 19 3d 6c 91 bf bd d5 ea e4 3c 65 ed 36 bd
       0.037366603 -0.09353909 0.027944008 -0.04465999
000070 d2 9e 4d bd 10 b7 de 3c 80 e0 18 bd bf 2b 07 bd
       -0.05020029 0.0271869 -0.037323475 -0.033000704
000080 04 a1 3b 3d c1 79 92 bc 03 1c 9f bd b2 4d dd bc
       0.045807853 -0.017880322 -0.07769015 -0.027014587
000090 40 83 5c 3c 37 6f 8f bd 03 91 94 bd f4 4e b0 bd
       0.013459027 -0.070036344 -0.07254221 -0.08608809
0000a0 3e 8e 5b bd 6a c9 4e 3d a2 c6 f2 bc 61 52 2d bd
       -0.05360245 0.050485052 -0.029635731 -0.04231489
0000b0 e3 c0 6e bd 7e 71 78 bc 46 21 a3 bc 07 15 9e 3d
       -0.05828942 -0.015163777 -0.019913327 0.077188544
0000c0 97 e0 b0 3c bb 9e 7c 3a 2e cb 40 bd cb d6 d1 3d
       0.021591468 0.000963669 -0.047068767 0.10246047
0000d0 21 e4 80 bd fd 95 d1 3c 79 18 8c 3c dd 90 61 3d
       -0.06293512 0.025584215 0.017101513 0.055069793
0000e0 24 f0 06 3d 26 25 59 3d 59 ea 8a bd a1 5d a4 bd
       0.03294386 0.053013943 -0.067829795 -0.08025671
0000f0 18 2f 87 bd 25 c7 e7 bc e5 df f5 3c 87 d9 bb 3b
       -0.06600779 -0.028293202 0.030013988 0.0057327184
000100 07 20 1b 3d 4d 2f b0 bc df 73 95 3d 50 8e c7 bd
       0.03787234 -0.02150693 0.07297491 -0.09743941
000110 7c 2b a8 3c dc 40 8b 3d dc d7 c9 3d 48 a8 97 bd
       0.020528547 0.0679948 0.09855625 -0.07405144
000120 66 2e 24 3d 4f e4 94 3d 69 72 3d bd 71 c4 0a 3d
       0.04008331 0.07270109 -0.04625169 0.033878747
000130 39 7d df 3c 05 fd 0b 3d fc 4e 85 bc bf 79 0d 3d
       0.02728139 0.034176845 -0.016273014 0.034539934
000140 d6 3b 08 bb d9 a2 3b bd a7 2c 8b bd a0 bf d1 3c
       -0.0020787618 -0.0458096 -0.06795626 0.02560407
000150 58 e4 ae 3c db 9b 94 3d 45 99 a4 bd 1b a8 1b 3d
       0.021349117 0.072562896 -0.08037046 0.038002115
000160 60 89 e4 bb 87 a6 ac bd bc 9f 6b 3d 1f 66 8e 3d
       -0.006974384 -0.084302 0.05752538 0.06953072
000170 61 47 37 3d 7f 3c 39 bc b3 ed 3b 3b 63 5e 10 3c
       0.044745807 -0.011305927 0.0028675615 0.008811566
000180 38 6f 75 bd 80 c1 1f bd c8 0c 7a bd d8 56 c8 bc
       -0.05992052 -0.039002895 -0.061047345 -0.024455473
000190 d5 10 5d 3c 4e c6 21 bd 33 bf 14 3d d9 f3 ed bc
       0.013492783 -0.03949576 0.036315154 -0.02904694
0001a0 9c 48 a7 bd da 7a e0 bc 7b 4c 2b 3d dd 4b 82 3d
       -0.08168146 -0.02740233 0.041820984 0.06362126
0001b0 40 2d 1a bd ad c7 a1 bc 9f f1 92 bd f4 e8 a4 bd
       -0.03764081 -0.019748533 -0.07174992 -0.08052245
0001c0 e3 2a 3a 3d b4 a0 90 bb 52 73 a4 3d 30 ce 65 3d
       0.045451056 -0.0044136886 0.08029808 0.05610484
0001d0 70 fc 41 bd 45 8a 9e bd d7 ea d8 3b 6b 11 f3 bc
       -0.047359884 -0.077412166 0.006619792 -0.029671391
0001e0 86 2f eb bc e0 3d 2e 3d 61 02 8a bd 29 bf be bd
       -0.028709184 0.042539477 -0.06738735 -0.09313805
0001f0 01 a0 b7 bd d4 fd 03 3d b2 89 ce bd 0b c2 6a bd
       -0.08966065 0.03222449 -0.10084857 -0.05731396

weight f4 [128, 256]
000000 48 29 86 bc 8e ab 90 3c 95 75 52 bd d9 1c 5f 3d
       -0.016377106 0.017659929 -0.051381666 0.05447087
000010 c8 a9 69 bc c0 25 ff 3c 2e 34 87 3d c8 53 80 bd
       -0.01426167 0.03114593 0.06601749 -0.0626598
000020 04 bf 8a 3c d7 84 11 3d 99 71 36 bd a0 3a ff 3b
       0.016936786 0.035527077 -0.04454193 0.007788971
000030 90 9b 17 3d 00 6a 5e 3d 63 40 9f bc ec 5a 07 bd
       0.03701359 0.05430031 -0.019439882 -0.033045694
000040 69 a2 8b 3c 6f d7 12 bc fa cd 2f 3c b6 93 07 3d
       0.017045217 -0.008962496 0.010730261 0.033099853
000050 eb 4b ce 3c b7 4c bf bb ee 96 ae bb 09 8c 81 bc
       0.025182685 -0.0058380025 -0.005328051 -0.015813844
000060 c6 82 b9 bc a2 fa 77 bc 20 95 c6 bb e1 d3 82 3d
       -0.022645365 -0.015135439 -0.0060602576 0.06388069
000070 3f 35 e9 bc 66 a1 f5 bd 35 93 6c 3d 3c 63 87 bb
       -0.028467773 -0.11993675 0.057757575 -0.0041317027
000080 07 d3 d7 bc a0 87 2a 3d 65 21 4a bd 2c be 68 bd
       -0.026345743 0.04163325 -0.049348254 -0.056821987
000090 5e 83 35 3d 56 a5 9e bc 09 96 d7 ba 3d 16 e2 bb
       0.044314735 -0.019365948 -0.0016447912 -0.0068996237
0000a0 96 f0 eb 3c aa d7 0f bd 5c 76 71 bc 3e 41 7a bc
       0.028801244 -0.035117783 -0.014737692 -0.015274344
0000b0 3a 7d 50 bd a5 d9 2c 3d 23 be 01 3d 22 39 e5 bd
       -0.050900675 0.04219975 0.03167547 -0.11192538
0000c0 29 2c c9 bc 5d 11 c3 3d b0 37 4b 3d 63 d6 e4 bc
       -0.02455719 0.09524796 0.049613655 -0.027934259
0000d0 62 eb 69 bc da fc 44 3d d8 7a 93 3d 88 7d d6 3b
       -0.014277311 0.0480927 0.07201165 0.006545726
0000e0 89 60 e2 3c f6 54 02 3d 51 31 e8 bb 8e 68 d4 bc
       0.027633922 0.031819306 -0.007085957 -0.025928762
0000f0 b5 a9 7c bd db 5e c3 3d 08 6f 81 bc 5e 20 a1 3d
       -0.061685283 0.095395766 -0.015800014 0.07867502
000100 4b 96 b9 3d e7 9a 2b 3d c9 be ea bb 6e 20 5a bd
       0.09061869 0.041895773 -0.0071638566 -0.053253584
000110 84 4d 2f 3d 96 f9 46 bd d4 1e 86 3c ea 51 8e 3c
       0.042798534 -0.048577867 0.016372122 0.017373044
000120 b3 7a 28 bd 69 03 0b 3d 19 13 a7 3c 86 12 af 3d
       -0.04113264 0.0339388 0.020394849 0.08548455
000130 50 37 34 3d 11 e9 1f bd a6 94 00 bd 87 af 56 3d
       0.043998063 -0.03904063 -0.031391762 0.05241349
000140 54 d0 1c bd cd e0 34 bc 5d e0 39 bd 0f 5d ba 3c
       -0.038284615 -0.011039925 -0.045379985 0.022749452
000150 4e 5d a8 bc a1 7e fe 3c 71 4a 3e 3d c2 b8 6c 3d
       -0.020552304 0.03106624 0.04645771 0.057793386
000160 a1 27 ff 3d c2 fe 32 3d a5 d4 66 bc d5 24 86 3c
       0.124587305 0.043699987 -0.014088784 0.016374985
000170 09 76 e7 3c 8c 1b 07 3d 16 ba 55 bd 47 19 be 3b
       0.028254526 0.032985255 -0.05217942 0.005801353
000180 4f c1 e5 3c a4 b1 1d be c0 42 22 3c 02 96 66 b9
       0.028046278 -0.15399796 0.00990361 -0.00021990392
000190 18 6a 81 bd d9 4e 92 bc 00 54 44 3d 7a 4d 47 bd
       -0.06319064 -0.017859863 0.04793167 -0.04865787
0001a0 23 80 1e bd 37 c3 07 3d 57 87 7a bd 60 0e 0b bc
       -0.03869642 0.033145156 -0.061164226 -0.008487314
0001b0 0d c3 47 3b 3e b3 8a 3d ba e7 4a 3d 4c b3 cc 3c
       0.003048125 0.06772469 0.049537398 0.02498784
0001c0 42 db cb 3d 7b a2 4c bd 2e be ba 3c a2 65 43 3d
       0.099539295 -0.04995964 0.022795763 0.047704346
0001d0 02 c8 0c 3d 0d 22 55 bd ae a3 c6 3c 17 82 f8 bc
       0.03437043 -0.052034426 0.02424797 -0.03033547
0001e0 ea af 27 bd 63 69 09 bd 77 b8 6f 3b 97 b6 7e bd
       -0.04093925 -0.03354777 0.0036578455 -0.06218585
0001f0 db 45 fa bc 61 9c 4a bd 8e 40 e6 3c 98 02 3c 3d
       -0.030550888 -0.04946554 0.028106954 0.04590091
000200 b7 6b d4 bc a9 17 b7 bc 67 a3 66 3c d8 e1 e6 bb
       -0.025930269 -0.02235015 0.014077044 -0.0070459656
000210 13 24 92 3c b0 c2 b2 bc cd e2 34 3c 94 69 74 3d
       0.017839467 -0.02182135 0.011040402 0.059671
000220 2c 7c dd bc be e6 54 bd b8 1a a3 b9 3e a6 4f 3d
       -0.027036749 -0.051977865 -0.0003110969 0.05069565
000230 48 61 14 bc bb c8 80 3c fb e7 42 3d 65 17 b1 3b
       -0.009056397 0.015720716 0.047584515 0.0054044
000240 62 2b 45 bc e1 e1 03 bd 3b c6 b1 3c c1 1e 72 bd
       -0.012034269 -0.032197837 0.021700969 -0.05911136
000250 dc 80 61 3d 70 df b7 3d a2 d4 94 bd 1c a5 b2 bb
       0.05505453 0.08978164 -0.07267119 -0.0054518115
000260 08 55 91 bd a9 61 97 3d 29 2f 6a 3c 1e 3d bb bd
       -0.070962965 0.07391674 0.01429347 -0.091425166
000270 c7 01 8d 3b 85 7a 7b bc 53 95 65 3d 9c 16 11 bd
       0.0043031904 -0.015349035 0.05605061 -0.035421953
000280 81 73 5b 3d 95 45 ec bc de 9c 94 3b c9 53 24 3d
       0.05357695 -0.028841773 0.0045353016 0.040118966
000290 8f 7f 8a 3c 7a 3e ae 3c d2 68 0e 3c bc 71 00 bb
       0.016906528 0.021270026 0.008691983 -0.001959904
0002a0 1f 50 1e bd 6e ff 8c 3d 6e eb 86 3d ae ec 22 3d
       -0.03865063 0.06884657 0.065878734 0.039776497
0002b0 88 81 90 3d 58 fa ff bc 8f 2b 32 bc e9 7d 3e bc
       0.07055956 -0.031247303 -0.010874643 -0.011626699
0002c0 96 74 93 3c 05 19 0b 3d 05 6c a0 3b 29 16 24 3d
       0.017999928 0.033959407 0.0048956894 0.040060196
0002d0 f7 56 df 3c cd c3 5a 3c 19 c4 a9 3d c2 f8 fc 3c
       0.027263148 0.013352347 0.08289356 0.030880336
0002e0 0d 16 bd bd e1 5d 53 bd b8 6d 79 bd d7 d5 bf 3d
       -0.092327215 -0.0516032 -0.06089565 0.093669586
0002f0 8b 09 34 bc ff 04 7b bd 1a 96 30 bb 2c d5 ac bc
       -0.010988603 -0.06128406 -0.0026944936 -0.021097742
000300 77 ee 85 3b 56 6e ba 3c d7 56 42 bd 44 1c a8 bc
       0.004087265 0.02275769 -0.0474461 -0.02052129
000310 31 70 8f bd 1e 62 49 3d 67 62 9b 3c cf ff 25 3c
       -0.07003821 0.049165837 0.01896782 0.01013179
000320 bd 56 4c 3d c6 f9 61 bc ca 32 82 bd 68 92 72 bb
       0.049887408 -0.013792461 -0.063573435 -0.0037013534
000330 13 a8 2d 3d 65 d4 f0 3a b6 8c 2a 3d bd 04 e6 3c
       0.042396616 0.0018373845 0.0416381 0.028078431
000340 c0 c9 da 3c 54 8c 32 3b 27 12 43 3b da b5 8d 3c
       0.02670753 0.0027244287 0.0029765458 0.017298628
000350 aa bf 09 3d 0c 16 49 bd d3 0a 1d 3d bb 87 8b bc
       0.03363005 -0.04909329 0.0383404 -0.017032495
000360 c6 da 86 ba 74 82 b5 3c 2d dc 76 bd 7b 14 04 3c
       -0.0010288588 0.022156931 -0.06026857 0.008061524
000370 9c c1 43 bd cd 9a 80 bc 7d e0 02 bd a6 17 53 bd
       -0.047792062 -0.015698815 -0.03195237 -0.051536225
000380 ab f5 83 bd a4 fe 82 3d 08 61 b8 3c 43 fc 94 bd
       -0.06443342 0.06396225 0.022507206 -0.072746776
000390 81 14 7d 3d 4c 74 e2 3c ea 8b 3d bc 8e 5f 4a bd
       0.061787132 0.027643345 -0.011569003 -0.049407534
0003a0 5c b3 2e 3d aa bb 32 bd db b9 83 bc f7 cc ed 3c
       0.04265152 -0.043636 -0.016079834 0.029028399
0003b0 f7 f3 76 3c 63 2d 25 3d 7b 8c 31 3d 61 a5 c6 bc
       0.015072814 0.040326487 0.043346863 -0.02424878
0003c0 08 7b c8 bc 75 66 ad bd 35 d6 84 bd 3e 24 73 bc
       -0.024472728 -0.08466808 -0.06486169 -0.014840184
0003d0 d1 04 a8 bd 35 97 0f 3c 98 78 41 bd 65 cb 45 bd
       -0.08204044 0.008764078 -0.047234148 -0.048289675
0003e0 7d fb 40 bb e3 04 43 bd 46 17 73 bc 6f 6c 10 3d
       -0.0029446774 -0.047612082 -0.014837092 0.03525966
0003f0 77 3d a5 bc dd c7 de 3c e3 0b 00 3d eb 14 9f bd
       -0.02017091 0.027194912 0.031261336 -0.07767662

bias f4 [128]
000000 f3 84 74 3d 97 74 af 3c 0f ae 40 3d 3e 0a 8e 3c
       0.059697103 0.021417899 0.047040995 0.017338868
000010 0f 9c 1e 3d 5d 2b 57 bd 9c d0 4f bd 33 b1 a1 bb
       0.038723048 -0.05253159 -0.050736055 -0.004934454
000020 64 33 be bb 3c 24 95 3d 35 f6 d1 3c 95 82 b5 3c
       -0.005804466 0.07282302 0.025630096 0.022156993
000030 b1 18 23 bd ab a6 38 bc 30 88 88 3d eb 73 51 bd
       -0.03981847 -0.0112702055 0.06666601 -0.05113594
000040 d5 30 37 3d 22 6d c0 3c c7 e8 a4 bb c0 bc ad 3c
       0.044724304 0.023489539 -0.005032632 0.021208167
000050 13 b2 a7 3c 62 2b 0c bd 9c d7 61 bd 1d bd 62 3c
       0.020470655 -0.03422106 -0.05513726 0.013839033
000060 aa 0d d2 bc ec 9e e4 ba 5e 81 aa bb 1d 61 eb bb
       -0.025641281 -0.0017442382 -0.00520341 -0.0071832077
000070 a6 10 52 3c 64 b3 96 bd 2c 91 11 3d ad 5b 1a bd
       0.012821352 -0.07358435 0.035538837 -0.037685085
000080 c4 73 55 bd b6 10 94 3d 74 aa 34 bd 2f 57 26 3d
       -0.052112356 0.0722975 -0.04410787 0.04061049
000090 f3 13 8d 3d 45 fe 3c bd ad f5 d8 3c 40 c3 85 bd
       0.06888571 -0.046140928 0.026484335 -0.065313816
0000a0 c6 92 52 bd 20 80 4d 3d 04 eb 99 3d db fd 59 3d
       -0.051409505 0.050171018 0.07515529 0.05322061
0000b0 33 26 9b 3d c4 80 55 bd f2 7d 8e 3d 42 56 6f bd
       0.07575645 -0.052124754 0.06957616 -0.05843187
0000c0 95 97 fb bb a7 50 c4 ba d2 de 01 bc e1 f4 a4 3c
       -0.007677982 -0.001497765 -0.00792666 0.020136299
0000d0 3c 70 2c bc 48 01 12 3c ec 0e 83 3d 76 44 23 3c
       -0.010524806 0.008911438 0.063993305 0.009965053
0000e0 72 b1 4c bc 87 2b 1d bd b1 7f bc 3c c3 4f 96 3c
       -0.012493478 -0.03837159 0.023010107 0.01834858
0000f0 c1 ae 9c 3d c2 1a 96 bc 42 32 6e bd 28 71 ea bb
       0.07650519 -0.018323306 -0.0581534 -0.0071546026
000100 7c 9f 2f bd c3 3a b0 bc 7c a5 f8 bc 81 5a 3d 3d
       -0.042876706 -0.021512395 -0.030352347 0.04622889
000110 71 9b cd bb 6b fc 92 3d dc 45 0a 3d 9d 5c b0 3c
       -0.0062746336 0.07177051 0.03375803 0.021528536
000120 90 0a 1e 3d ae 44 a1 ba bb eb 7f 3d 4f 98 43 bd
       0.038584292 -0.0012303793 0.06248067 -0.047752675
000130 d9 7c e6 bb b3 c5 05 3d 6c 40 f5 3c 96 23 1d 3d
       -0.007033926 0.032659244 0.029937945 0.038364016
000140 5c 96 09 3d 14 38 8e bd 94 45 8e bc 98 a4 b8 bc
       0.03359066 -0.0694429 -0.017367162 -0.022539422
000150 24 2a 8a bd 7d ea 14 bd de 3e 92 bc 54 b1 25 bd
       -0.06746319 -0.036356438 -0.017852243 -0.040452316
000160 43 7d a4 bc 81 31 5f bc 06 ba 5f 3d df f3 91 3d
       -0.02007926 -0.0136226425 0.054620765 0.07126593
000170 1e b9 f3 bc df 96 f7 bc 5e b5 09 3c f8 ae 8a bd
       -0.029751357 -0.030223308 0.008405058 -0.06771654
000180 0a 32 93 3c c8 24 9e bc 69 5c ca 3c 5d 32 21 bd
       0.017968196 -0.019304648 0.024702268 -0.03935467
000190 15 3c 7b 3d 6a 28 a1 bc 09 59 98 bd e7 6c 2c ba
       0.061336596 -0.019672591 -0.07438857 -0.0006577507
0001a0 b6 3e 05 3c 1e 81 05 3d a3 a3 0d bd 9f 9e 82 3d
       0.008132627 0.03259384 -0.034579884 0.06377911
0001b0 04 2b 10 3d c5 5d 8d bc a4 51 eb 3b 4c 31 be bb
       0.035197273 -0.017256627 0.007181363 -0.0058042165
0001c0 16 43 1f bb 9a 08 0f bd bf dd 83 3c 63 71 09 bd
       -0.002430146 -0.034920312 0.016096948 -0.0335554
0001d0 21 c1 d6 3a f8 e1 39 3d 8e 0e 96 bb cc 28 74 bd
       0.0016384461 0.045381516 -0.004579372 -0.05960922
0001e0 8c d4 1c bd ae 59 23 bd 3b 46 03 3b 4e 2b e8 bc
       -0.038288638 -0.039880447 0.0020030874 -0.028340962
0001f0 d8 68 1f bd 07 58 ba bc fe 50 41 3d fa 86 4d 3c
       -0.038918346 -0.022747053 0.04719638 0.012544388

weight f4 [2, 256]
000000 73 92 35 3d 01 20 29 bc 5c d5 03 bd 7b d5 52 3c
       0.044329118 -0.010322572 -0.032185897 0.0128682805
000010 6e e9 b1 3a 34 e1 47 3d 23 d9 18 3d b8 13 15 3d
       0.0013573596 0.048798755 0.037316453 0.03639576
000020 2d 6a f1 bb 4f a5 8d bd 4c 4b 06 3d 5b c1 59 bd
       -0.0073673935 -0.06916296 0.032786652 -0.053162914
000030 84 c6 e0 bb 58 f5 97 3d 51 46 ec bc c7 d6 62 bc
       -0.0068596024 0.074198425 -0.028842123 -0.013845152
000040 50 a2 ec 3c 9b a0 e0 bc 0e f2 22 bd c4 00 e6 bc
       0.02888599 -0.027420333 -0.039781623 -0.028076537
000050 5b 38 2a 3d e2 2e a7 3d b8 b5 0e bd be 0c 0b bd
       0.04155765 0.08163239 -0.03484127 -0.0339477
000060 59 a1 8b bd eb 99 00 bd 58 4b 6d 3d 04 31 ee bc
       -0.06817884 -0.031396788 0.05793318 -0.029076107
000070 d0 1e a4 bc a9 2d 85 bd 21 2d e9 3c 38 ac b5 3d
       -0.020034224 -0.065028496 0.028463902 0.08870739
000080 45 fe 86 3d b7 78 64 bd 7d cf d1 bc 39 07 84 3d
       0.06591467 -0.055779185 -0.025611633 0.0644669
000090 d8 e1 5d bd e5 7c 00 3d 1a d4 e5 bb f9 85 0b bc
       -0.05417046 0.03136911 -0.00701381 -0.008515828
0000a0 a5 4d 14 3d 7f 1b 3b 3d 41 d8 5d bd 8c 46 46 bd
       0.03620686 0.04568052 -0.054161314 -0.048407122
0000b0 93 c3 1f bd 78 71 3e 3d e0 52 5c bd 1c 27 eb bc
       -0.039004873 0.04649493 -0.053789973 -0.028705172
0000c0 eb 5f 6e 3c 1e 84 58 3c 7c 92 9d 3b d1 ae e0 3c
       0.014549236 0.013215093 0.004808722 0.027427109
0000d0 81 c2 55 bd 94 a4 62 3c 0b 90 80 3b b4 ae 64 3d
       -0.052187447 0.013833184 0.0039234213 0.055830672
0000e0 2a ff 80 bd ef 83 26 3d eb e3 c6 bc ef 24 42 bd
       -0.06298669 0.040653165 -0.024278602 -0.047398504
0000f0 cb 0e e2 bc fa ff 6a 3d 38 6c 16 3d 06 d5 09 bd
       -0.027594944 0.057373025 0.0367243 -0.03365042
000100 9b 72 40 bd 74 96 01 bd 0b 26 fd 3c 30 ed 71 bd
       -0.046984296 -0.031637624 0.03090193 -0.05906409
000110 42 ce 92 bd b9 80 92 bc f2 73 f2 3b 09 f7 e4 bc
       -0.07168247 -0.017883645 0.0073990757 -0.027949827
000120 53 e7 79 3d 56 76 0b bd 80 87 88 bc 2a 8d 49 bd
       0.061011624 -0.0340484 -0.016666174 -0.04920689
000130 63 e2 a5 bc f2 0f 1d 3c e4 de 43 bd ec b7 80 bd
       -0.020249551 0.009586321 -0.047819987 -0.0628508
000140 06 8b 76 3d f0 5e 9e bd df 30 a4 bc f2 ba 0c bd
       0.060191177 -0.07732952 -0.020042835 -0.034357972
000150 11 90 47 3d 92 14 1a bd d4 8f 42 bd 65 cf f5 ba
       0.048721377 -0.037617274 -0.047500446 -0.0018753825
000160 78 15 9a bc bc c9 51 bd 32 7e b8 3c 6f 39 90 bb
       -0.018809065 -0.05121778 0.022521112 -0.004401378
000170 d5 77 92 3d 9a 1b 6c bd e2 4c b4 3c ee 60 04 bd
       0.071517624 -0.05764351 0.022009317 -0.032319
000180 59 d1 98 3d cc 84 19 bd 7a cc 8f 3c ce 34 14 bd
       0.07461805 -0.03748016 0.017553557 -0.03618317
000190 9f f8 1d bd ea a0 f1 3b 5f f1 ba bc 95 ad b2 3c
       -0.03856718 0.007373919 -0.022820173 0.021811286
0001a0 97 e2 93 3d 7a 25 83 bc 9a e6 84 bc f5 84 23 bc
       0.07220953 -0.016009081 -0.01622324 -0.00998043
0001b0 0f 9b 6a 3d 65 e1 4e bd a8 c8 7d 3d e6 a7 60 3c
       0.05727678 -0.05050792 0.06195894 0.013711905
0001c0 c0 38 d5 bc 30 ea 30 3d 15 6c d8 3c cf 80 fd 3c
       -0.026028037 0.04319209 0.026418725 0.03094521
0001d0 83 d7 c2 bb 20 0c 97 bd 49 07 a0 3d be d4 2c bd
       -0.005946101 -0.073753595 0.078138895 -0.042195074
0001e0 33 61 6f 3d cd 87 18 bc c9 a0 06 bc 8c 10 93 3d
       0.058442306 -0.009309721 -0.008217045 0.071808904
0001f0 55 f7 9a bc e0 e6 88 3d 1b fb 16 3d 32 c1 5a 3d
       -0.018916765 0.06684661 0.036860567 0.0534069
000200 9b 93 76 3d 77 d6 03 3c e3 f9 8b bd 94 2a 88 bd
       0.06019936 0.008046738 -0.068347715 -0.06648746
000210 74 6e 61 3b e5 8f 80 bc 08 b0 e3 bc 7e e7 85 3d
       0.003439811 -0.015693614 -0.0277939 0.06538294
000220 70 53 52 bd ad 1b 2b bd d5 74 44 3d 3a 46 82 bc
       -0.051349103 -0.04177444 0.047962982 -0.015902627
000230 0d 0a 5c 3d c0 91 34 3d b7 64 d5 3c d1 a6 b5 3b
       0.053720523 0.04408431 0.026049001 0.0055435677
000240 b5 30 66 3d b9 05 75 bc a4 38 46 bd db 10 bd bc
       0.056198794 -0.014954978 -0.04839386 -0.023079326
000250 6b e3 35 bd 00 2e 8f bc 15 4a 94 3c c5 07 f9 3c
       -0.044406336 -0.01747799 0.018101731 0.030399213
000260 c0 ab 02 3d f3 2e 89 3c 38 56 7f 3b 1d 53 27 3d
       0.031902075 0.01674602 0.0038961302 0.040850747
000270 46 25 b1 3d 82 b8 cb bd 91 f3 72 3b 6e e5 1a 3c
       0.086496875 -0.099473014 0.0037071446 0.009454114
000280 54 59 9b 3b f5 d4 4c bd ab a1 46 3d ee ce 84 3d
       0.0047408734 -0.05000778 0.048494022 0.06484781
000290 0e e4 41 bd 9b e0 4b bc 8a da e9 3c f8 ec 5f bd
       -0.04733663 -0.012443687 0.02854659 -0.05466935
0002a0 75 3c f4 3c 18 d9 28 3d fd ca 1b bd 8d 0c ef bc
       0.029813984 0.04122266 -0.03803538 -0.02918079
0002b0 63 8d 69 3c dc 54 91 3d 7f d3 14 3c c6 63 dd 3c
       0.014254901 0.07096264 0.009083628 0.027025115
0002c0 31 ea 5d 3d 71 f2 83 bd 78 f7 91 3d 41 c2 64 3d
       0.05417842 -0.064427264 0.07127279 0.055849317
0002d0 a5 c3 58 3b c6 90 9a 3c 18 43 7b bc e9 00 75 3c
       0.0033075598 0.018867861 -0.015335821 0.01495383
0002e0 83 5e 68 bc 6c 26 3f 3d ae 7b 56 3d 58 0c 38 bd
       -0.01418269 0.0466675 0.052364044 -0.044933647
0002f0 c0 93 72 bd 50 97 79 3c 26 6c 55 3d 03 a3 20 3d
       -0.059222937 0.01523383 0.05210509 0.03921796
000300 42 8e 0b bd d3 0e 39 3d bc bc 4a bc d4 58 8d bc
       -0.034071214 0.045180153 -0.012374099 -0.01725427
000310 a1 de 0a 3d 39 e0 91 bd 1c d8 4e 3d fa 20 b7 3c
       0.03390372 -0.07122845 0.050499067 0.022354592
000320 c2 55 fa bc 06 55 7a 3d fa 50 6d 3c 5c bf 88 bc
       -0.03055847 0.06111624 0.014484638 -0.01669281
000330 b3 f6 3a bd c6 36 87 3d fd 47 a4 bc 6b 67 39 bd
       -0.045645427 0.06602244 -0.020053858 -0.045264643
000340 ae 5e 22 3d 77 c8 e5 3c 6a ea 3e 3b 03 e5 a0 3d
       0.039641075 0.02804969 0.002913142 0.078561805
000350 2d 5d 87 3d 8a 46 82 bc f0 07 67 bd 06 dd 7b 3b
       0.06609569 -0.015902776 -0.056404054 0.00384313
000360 cc f9 1f 3c 41 20 86 bc a2 19 67 3d 5a 44 b7 bc
       0.009764146 -0.016372802 0.05642093 -0.02237146
000370 92 25 42 3d 3d fc 82 3d 7b 19 72 3d 4a d3 60 bd
       0.04739911 0.06395767 0.05910633 -0.054889
000380 68 86 84 3d e2 c1 e2 3c 78 bd a1 bd b2 f5 36 3d
       0.064709485 0.027680341 -0.078974664 0.044667907
000390 19 e5 a0 bd f9 ef 78 3d 90 2b 2c 3d c8 07 2a bd
       -0.07856197 0.06077573 0.042033732 -0.041511327
0003a0 1b bb 0c 3d 3a de 8e 3d e8 22 fb bc 4f d0 4e bb
       0.034358125 0.0697598 -0.030656293 -0.0031557267
0003b0 7d b5 d5 3c f8 a3 53 3c e5 f2 fd bc 1e bc 2b 3d
       0.026087517 0.012917511 -0.03099961 0.04192745
0003c0 a2 2b 4c bc ab 3f 32 bd 4a 9f b4 3c a8 b2 2f 3d
       -0.012461575 -0.04351775 0.022048611 0.04289499
0003d0 37 0e b4 3c a2 5a 39 3b 09 77 7a bb ff 7c 81 3d
       0.021979434 0.002828278 -0.0038217923 0.06322669
0003e0 7f 0f 8e 3d 57 d8 90 bc 91 7d 88 3d dd 4b 0f 3d
       0.069365494 -0.017681284 0.06664575 0.03498446
0003f0 b2 df 45 3d 6c f3 21 3d 43 98 96 bd cf 40 2b bd
       0.048309036 0.039538786 -0.0735326 -0.041809853

bias f4 [2]
000000 c8 5f 60 bd 6c 6b 69 3d
       -0.054778844 0.05698721
