E-GraphSAGE/netflow/ton-iot/EdgeGAT_multiclass_best_model.pth (torch, 55390 bytes, 16 tensors)

attn_l f4 [1, 8, 8]
0	0xbe7fc15f	-0.24976109
1	0x3e35052c	0.17677754
2	0xbc5e9102	-0.013584377
3	0x3d4156a2	0.04720176
4	0x3d3b0173	0.04565568
5	0xbe04136a	-0.12898031
6	0xbc524811	-0.012834565
7	0x3e55eb15	0.20890458
8	0xbe95115b	-0.29114804
9	0x3e3ae242	0.18250373
10	0x3e2e2a93	0.17008428
11	0x3d8c8efc	0.068632096
12	0xbda0b939	-0.078478284
13	0x3ce20fdc	0.027595453
14	0xbcafce67	-0.021460725
15	0xbe739c83	-0.23790173
16	0x3e81a8c1	0.25324062
17	0x3ea00cad	0.3125967
18	0x3e44c17c	0.19214433
19	0xbed0ec47	-0.40805265
20	0xbd0d54e8	-0.0345048
21	0x3e30f59c	0.17281193
22	0xbed5716f	-0.41688105
23	0xbea69076	-0.3253209
24	0xbd9da1ee	-0.07696901
25	0xbd15ada0	-0.036542535
26	0x3d1fc644	0.03900744
27	0xbec00370	-0.37502623
28	0x3d761f17	0.060088243
29	0x3eb50de5	0.35362163
30	0xbdcf0d61	-0.10109974
31	0xbdc65d0f	-0.09685718
32	0x3e80d424	0.2516185
33	0x3c3200a3	0.01086441
34	0xbdb3dc79	-0.08782286
35	0xbe75d724	-0.24007851
36	0xbd85fecf	-0.065427415
37	0x3e07f635	0.13277514
38	0x3cb29dcb	0.021803757
39	0x3e536ea8	0.20647681
40	0xbd25e925	-0.040505547
41	0xbe282bb6	-0.16422924
42	0xbe4a2469	-0.19740452
43	0xbd0e77f2	-0.034782358
44	0x3dadc6a9	0.08485157
45	0x3e6754d9	0.2259096
46	0x3d546514	0.051854208
47	0xbdce6753	-0.10078301
48	0xbe06e087	-0.13171588
49	0x3e87f59f	0.26554582
50	0xbeaded4b	-0.33970103
51	0x3d0b0b06	0.03394606
52	0xbe20bdb1	-0.15697362
53	0xbe51f509	-0.2050363
54	0xbe232da0	-0.15935373
55	0x3cb3b873	0.021938538
56	0x3eaed788	0.34148812
57	0x3e1db3c5	0.15400608
58	0xbe6366bf	-0.22207163
59	0xbe700245	-0.23438366
60	0x3c5d64cf	0.013512804
61	0xbe3c0b47	-0.18363677
62	0xbd74c72d	-0.05976026
63	0x3eca53e7	0.39517137

attn_r f4 [1, 8, 8]
0	0xbe6949d1	-0.22782065
1	0x3e3c55e8	0.18392146
2	0x3e9bfaab	0.30464682
3	0xbe53cc05	-0.20683296
4	0xbdf89750	-0.121382356
5	0xbd4ee90b	-0.050515216
6	0x3eab0258	0.33400226
7	0x3d575bf4	0.052577928
8	0x3e357eee	0.17724201
9	0x3e98c9ec	0.29841554
10	0x3e9c29b1	0.30500558
11	0xbeafeb8f	-0.34359404
12	0xbe819dc0	-0.25315666
13	0x3e2a5ab5	0.16636164
14	0x3e2d419d	0.1691956
15	0x3c667f0e	0.014068378
16	0x3e03690d	0.12833042
17	0xbeff1352	-0.49819428
18	0xbdf50f82	-0.119658485
19	0x3e12528b	0.142893
20	0xbd16e3e8	-0.036838442
21	0xbc32b090	-0.010906354
22	0x3f12bfb0	0.5732374
23	0xbc2c4496	-0.010514399
24	0xbe1d6c07	-0.1537324
25	0xbe9dc8e8	-0.30817342
26	0xbdb94499	-0.09046287
27	0xbe92d3e1	-0.28677276
28	0x3de202d8	0.11035699
29	0xbcec98c2	-0.028881434
30	0x3e41bef0	0.18920493
31	0x3ecfaf96	0.4056365
32	0x3ea48be3	0.32137975
33	0xbe1aae6d	-0.151056
34	0x3d70c0e2	0.058777697
35	0x3e58bd4e	0.21165964
36	0x3d9b3618	0.07578677
37	0xbe896d08	-0.26840997
38	0xbf286af0	-0.65788174
39	0xbd6055f0	-0.054769456
40	0xbdf4438a	-0.119269446
41	0xbf109b1b	-0.5648667
42	0xbeb8a507	-0.36063406
43	0xbb0401c6	-0.0020142659
44	0x3e4e14e7	0.20125161
45	0x3f1bcdb5	0.6086076
46	0x3d130af8	0.035899132
47	0xbea3c636	-0.3198716
48	0xbec32a02	-0.38117987
49	0xbe65037a	-0.22364607
50	0x3eb2369f	0.34807298
51	0xbcc26926	-0.02373178
52	0xbe15ff93	-0.14648275
53	0x3e23cf17	0.15996967
54	0x3da5b947	0.080919795
55	0xbdfb1684	-0.12260154
56	0xbd0bca25	-0.034128327
57	0x3d64ace5	0.055828948
58	0xbe6e5d95	-0.23277886
59	0x3d1b99f5	0.03798862
60	0x3e18e05a	0.14929333
61	0x3e6de382	0.23231319
62	0x3e688752	0.2270787
63	0xbe814a2a	-0.25251895

bias f4 [64]
0	0xbb2ee80c	-0.0026688604
1	0xbd030dcb	-0.031995576
2	0x38afb734	8.3787745e-05
3	0x3d3f8d78	0.046765774
4	0x3d4d9aea	0.050196566
5	0x3d17d716	0.037070356
6	0xbbdf2001	-0.006809235
7	0x3d76af4b	0.060225766
8	0x3ae462e3	0.001742449
9	0xbd086667	-0.033300783
10	0x3d5d6dbf	0.05405974
11	0xbc631a9f	-0.013861327
12	0xbcacfb5f	-0.021115957
13	0x3ccff602	0.02538586
14	0xbc4a2588	-0.01233805
15	0x3d835ac6	0.06413798
16	0x3a1beb4e	0.0005947844
17	0xbd287393	-0.041125845
18	0xbca22147	-0.019791258
19	0x3cdd594b	0.027020117
20	0xbc5bb480	-0.013409734
21	0x3b3a22f0	0.0028402172
22	0xbc323108	-0.010875948
23	0xbc2b6f36	-0.0104635265
24	0x3cf6065b	0.030032327
25	0xbd116895	-0.035500128
26	0x3c751da5	0.014960681
27	0x3d1384f6	0.036015473
28	0x3cedbe78	0.029021487
29	0x3d6403a0	0.05566752
30	0xbc93087c	-0.017948382
31	0xbacfdcb7	-0.0015858625
32	0xbc50c616	-0.01274254
33	0x3cad5a9c	0.02116137
34	0x3c8b56bd	0.017009133
35	0x3d535d1c	0.051602468
36	0xbc5f2c3f	-0.013621389
37	0x3d69c069	0.057068262
38	0xbd024937	-0.031808104
39	0x3b9fbea1	0.0048750197
40	0xbb8db52a	-0.004324575
41	0x3d6d6ebf	0.057966944
42	0xbcb5dbb8	-0.022199497
43	0x3cbd105d	0.023079092
44	0x3c852742	0.016254071
45	0x3d2ef691	0.042715613
46	0xbc3403ae	-0.010987205
47	0xbbd56b4b	-0.0065130345
48	0xbae863ca	-0.0017729935
49	0xbc8192da	-0.015817095
50	0x3c7ec6ec	0.015550356
51	0x3d64d184	0.055863872
52	0xbbf83479	-0.0075746146
53	0x3d591423	0.05299772
54	0xbd3c9e91	-0.04604966
55	0xbc9f508c	-0.019447587
56	0xbcaef9dd	-0.021359378
57	0x3d011052	0.031509705
58	0x3d292257	0.041292515
59	0x3c084ff7	0.008319846
60	0xbc1db52b	-0.009625713
61	0x3d49516c	0.049149916
62	0xbc645eb0	-0.013938591
63	0x3d5b0b29	0.05347744

attn_edge f4 [1, 8, 8]
0	0xbeecf107	-0.4627764
1	0x3e35846b	0.17726295
2	0x3e8ff1aa	0.28114063
3	0x3e503103	0.20331196
4	0xbe61b0a9	-0.22040047
5	0xbe514851	-0.20437743
6	0x3db19d8a	0.08672626
7	0xbedefcaa	-0.43552142
8	0x3e27fb54	0.16404468
9	0xbe9167dc	-0.2839955
10	0xbe41a89d	-0.18911977
11	0xbe0e21b9	-0.13880052
12	0xbeaa2086	-0.33227938
13	0x3e913ae8	0.28365254
14	0xbe8a436a	-0.27004558
15	0x3f086481	0.53278357
16	0xbe17da6a	-0.14829412
17	0xbc1bad20	-0.009501725
18	0xbdab2481	-0.08356572
19	0x3e4915c7	0.19637214
20	0xbe14a500	-0.14516068
21	0xbec6a95b	-0.38801083
22	0xbe7b2727	-0.24526654
23	0x3d9d6f25	0.07687215
24	0xbd98c095	-0.07458607
25	0x3e800e37	0.25010845
26	0xbeb53f3b	-0.35399804
27	0xbe018c32	-0.12651137
28	0x3e4174fd	0.18892284
29	0x3d2fc7e6	0.042915247
30	0xbc891094	-0.016731538
31	0xbe215272	-0.15754107
32	0x3e8d7a04	0.27632153
33	0x3df70af3	0.12062635
34	0x3db1a78d	0.08674536
35	0x3d76d9e1	0.06026638
36	0xbeaef902	-0.34174353
37	0xbd3ac2bb	-0.045595866
38	0x3e905057	0.28186294
39	0xbf03decf	-0.51511854
40	0xbead4070	-0.33838224
41	0x3ea7024d	0.32618943
42	0x3d813020	0.06308007
43	0x3ee9dc42	0.45675856
44	0xbdc42c59	-0.09578771
45	0x3e581285	0.21100815
46	0xbe953427	-0.29141352
47	0xbe82cf60	-0.2554884
48	0xbdd94252	-0.10608353
49	0x3e740531	0.23830105
50	0x3e18f730	0.14938045
51	0xbeb09559	-0.34488943
52	0x3cffd61a	0.031230021
53	0x3ef9f48f	0.48819396
54	0x3e4572b5	0.19282039
55	0xbde5d8a2	-0.1122296
56	0xbec421f5	-0.38307157
57	0xbc6524c4	-0.013985816
58	0xbe022a6d	-0.12711497
59	0xbe05731d	-0.13032193
60	0x3ba9d554	0.0051829014
61	0x3c917e9a	0.017760564
62	0x3e90fd14	0.28318083
63	0xbe8b14cb	-0.271643

weight f4 [64, 8]
0	0x3e242a30	0.16031718
1	0x3b4f468a	0.0031627738
2	0xbe69db9a	-0.22837678
3	0xbe45d1da	-0.19318333
4	0xbe4373ba	-0.19087115
5	0x3c865500	0.016397953
6	0x3e9ab831	0.30218652
7	0x3c94f033	0.018180942
8	0xbcc40dc9	-0.023932355
9	0xbdda11d7	-0.10647934
10	0xbc8799c3	-0.016552811
11	0xbe41dd1a	-0.18932
12	0xbe0d411c	-0.13794369
13	0x3f1f12bd	0.6213797
14	0xbdff02fb	-0.1245174
15	0xbe454444	-0.19264323
16	0xbe256302	-0.1615105
17	0xbe754c54	-0.23954898
18	0x3ea2408e	0.31689876
19	0x3b8175e9	0.0039508236
20	0xbf1b44bc	-0.60651755
21	0xbd164787	-0.036689308
22	0xbeaf1981	-0.34199145
23	0x3dbbe481	0.09174443
24	0x3e8c00d4	0.27344382
25	0xbb804495	-0.0039144256
26	0x3eb9019e	0.36134046
27	0x3eddd54a	0.4332679
28	0x3e9b9186	0.30384463
29	0x3e6a5aaf	0.22886156
30	0xbc77a5a4	-0.015115175
31	0xbdaebbf1	-0.08531941
32	0x3d952849	0.072830744
33	0x3eec80d9	0.46192053
34	0xbdd30a90	-0.10304749
35	0xbd742479	-0.059605096
36	0x3e78fd85	0.2431546
37	0xbccf5e0b	-0.025313398
38	0x3e36aa82	0.17838481
39	0xbe954259	-0.29152182
40	0x3b91f7aa	0.0044545727
41	0xbe869dd1	-0.2629228
42	0x3de15f60	0.110045195
43	0x3eb1d4ba	0.3473261
44	0xbecb999b	-0.3976563
45	0x3d5f9560	0.054585814
46	0xbebee52c	-0.3728422
47	0xbd75916a	-0.05995313
48	0x3d289d74	0.041165784
49	0xbe812e0e	-0.2523045
50	0xbd6bfda2	-0.05761493
51	0xbeca3775	-0.39495435
52	0xbc648273	-0.013947117
53	0xbdeb8f19	-0.11501903
54	0xbcd4e06f	-0.025985925
55	0xbe2fef59	-0.17181148
56	0x3e139167	0.14410935
57	0x3e917c69	0.2841523
58	0xbd0b1880	-0.033958912
59	0xbea845ff	-0.32865903
60	0x3ea47937	0.3212373
61	0x3eca8927	0.39557764
62	0x3eed1482	0.4630471
63	0xbe565388	-0.20930302
64	0xbe305397	-0.17219387
65	0x3f2be348	0.6714368
66	0x3e8dce08	0.27696252
67	0xbea95986	-0.33076113
68	0x3e5fe6fd	0.21865459
69	0x3e1b6039	0.15173425
70	0x3dc2d72a	0.095136955
71	0x3d2dd338	0.042437762
72	0x3dc3f28b	0.09567746
73	0xbc691e14	-0.014228363
74	0x3dc01619	0.09379215
75	0x3e49c4f0	0.19704032
76	0x3d8bad1b	0.068201266
77	0xbd252033	-0.04031391
78	0x3ea70ccb	0.32626948
79	0xbe98ab93	-0.298184
80	0xbe32a4ad	-0.17445631
81	0xbe506b25	-0.20353372
82	0x3e81b0f2	0.2533031
83	0x3ea4f66e	0.3221926
84	0x3e6d6f2f	0.23186944
85	0x3da46faf	0.080291145
86	0xbc655f86	-0.013999825
87	0xbe62e7c3	-0.22158723
88	0xbe35ac60	-0.17741537
89	0x3d325a8e	0.04354339
90	0xbe528734	-0.20559388
91	0xbe670baf	-0.2256305
92	0xbe315c3a	-0.17320338
93	0xbccbdbb1	-0.02488503
94	0x3de68ef1	0.11257733
95	0x3d139915	0.036034662
96	0xbde0f67b	-0.109845124
97	0x3dd7492d	0.10512004
98	0x3bac6632	0.005261206
99	0x3e12aa1f	0.14322709
100	0xbe773e68	-0.241449
101	0xbd3ab9fd	-0.04558753
102	0x3d656f37	0.056014266
103	0x3ec367ef	0.38165233
104	0xbe66e57e	-0.22548482
105	0xbda8db28	-0.08244926
106	0x3b791cd6	0.0038011572
107	0x3de70b62	0.11281468
108	0x3e052681	0.1300297
109	0x3db99708	0.0906201
110	0x3e61ac36	0.2203835
111	0x3e97b9fb	0.2963408
112	0xbde48ff4	-0.111602694
113	0xbe5b60c4	-0.21423632
114	0xbdc22b0c	-0.09480867
115	0xbcfe94b4	-0.031076767
116	0xbdebb682	-0.1150942
117	0x3dd050c8	0.10171658
118	0xbe5f9848	-0.21835434
119	0xbe9e40f9	-0.30908945
120	0xbe9a1585	-0.30094543
121	0x3c410c68	0.011782743
122	0x3d969e7d	0.07354448
123	0x3dc37899	0.095444866
124	0xbeabdfae	-0.33569092
125	0x3ed7fabb	0.4218348
126	0x3d5bf816	0.05370339
127	0x3edea470	0.4348483
128	0x3c30b015	0.010784169
129	0x3d718401	0.05896378
130	0xbd5fcd95	-0.054639418
131	0x3e17f6d6	0.14840254
132	0xbe3d4522	-0.18483403
133	0x3eb9350e	0.3617329
134	0xbcd74315	-0.026277104
135	0x3deb3925	0.11485509
136	0xbe36c14b	-0.17847173
137	0xbe00a3b7	-0.12562452
138	0xbe68ad6e	-0.22722408
139	0x3ecbc4db	0.39798626
140	0xbdc1268e	-0.09431182
141	0xbf0aa43b	-0.54156846
142	0x3dd367c3	0.10322525
143	0x3ef05dcc	0.4694656
144	0xbedc6756	-0.4304759
145	0x3ee37309	0.44423702
146	0x3dde6101	0.10858346
147	0x3d937933	0.07200851
148	0xbe92a1fa	-0.28639203
149	0xbe314dde	-0.1731486
150	0xbdb380ae	-0.08764778
151	0xbdafa6a3	-0.08576705
152	0xbe1c8eb6	-0.15288815
153	0x3ea82c3a	0.32846242
154	0xbc26ea20	-0.010187656
155	0x3dda97b3	0.106734656
156	0xbef63029	-0.48083618
157	0x3e349b50	0.17637372
158	0x3ec47543	0.38370714
159	0xbe4ef7aa	-0.20211664
160	0xbed6bbc1	-0.4194012
161	0x3d854506	0.06507306
162	0x3ea8d2b2	0.32973248
163	0x3e124b0b	0.14286439
164	0xbe47bba4	-0.19505173
165	0x3e220a7b	0.1582431
166	0xbd1a6200	-0.037691116
167	0x3e82cb07	0.25545523
168	0x3e84fa49	0.25972202
169	0xbeaecbda	-0.341399
170	0xbeb3c870	-0.3511386
171	0xbd528ae5	-0.05140199
172	0x3ded0799	0.11573715
173	0xbe52e53a	-0.20595255
174	0x3ed29b70	0.41134214
175	0xbe047c1a	-0.12937966
176	0x3cc7fea2	0.02441341
177	0xbe0a5933	-0.1351059
178	0x3e08e824	0.13369805
179	0x3d89452b	0.06702646
180	0xbe59db72	-0.21275118
181	0x3e587298	0.21137464
182	0xbd915959	-0.0709712
183	0x3dd88729	0.10572655
184	0x3e9f16b4	0.3107201
185	0xbe7d0367	-0.24708329
186	0x3d296e53	0.04136498
187	0xbe18328b	-0.1486303
188	0xbea46be1	-0.32113555
189	0x3cc71d49	0.024305956
190	0x3e76ca05	0.24100502
191	0x3d73e487	0.059544113
192	0xbea1e043	-0.3161641
193	0x3e7f498f	0.24930404
194	0xbcff760f	-0.031184224
195	0x3dcdaaa2	0.10042311
196	0x3e950edd	0.29112902
197	0x3d64167f	0.055685516
198	0x3ebe307b	0.37146363
199	0x3babb772	0.0052403742
200	0x3edd570a	0.43230468
201	0xbcf5838b	-0.029969951
202	0xbe996787	-0.29961798
203	0xbe13bee0	-0.14428282
204	0xbeb63874	-0.35589945
205	0xbeadc64d	-0.33940354
206	0x3e00654a	0.12538639
207	0x3d5c2322	0.053744443
208	0x3e6e8eef	0.23296712
209	0x3c75fafd	0.015013454
210	0xbe083b25	-0.13303812
211	0x3dde81b4	0.10864583
212	0x3c01555e	0.007893888
213	0x3e5518d4	0.20810252
214	0x3e049102	0.12945941
215	0x3e053157	0.13007103
216	0xbe32757f	-0.17427634
217	0xbdd3a97a	-0.103350595
218	0xbe89026b	-0.26759657
219	0xbc846252	-0.016160164
220	0x3ef2c0cd	0.4741272
221	0x3cc1053f	0.023562072
222	0xbd5af484	-0.053455845
223	0x3e11a7f0	0.1422422
224	0x3d93dfee	0.072204456
225	0x3e93b950	0.2885232
226	0x3d93b39e	0.07211994
227	0xbe085767	-0.13314591
228	0xbe3a4a7e	-0.18192479
229	0x3ece8dd2	0.40342575
230	0xbcd4308e	-0.025902059
231	0x3e278b19	0.16361655
232	0x3e48262c	0.19545811
233	0x3e4859c9	0.195655
234	0x3cca6b8e	0.02470949
235	0x3bc5b270	0.0060332343
236	0x3ef54c68	0.47909856
237	0x3d58d064	0.05293311
238	0xbe10be3f	-0.14135073
239	0xbe3c5c68	-0.18394625
240	0x3e391efb	0.18078224
241	0x3d0014ff	0.031270023
242	0x3deb8a13	0.11500945
243	0xbe03cb05	-0.12870415
244	0x3f141a0b	0.5785224
245	0x3df39661	0.11893917
246	0x3e3fd0e3	0.18732028
247	0x3d83e3fa	0.064399675
248	0xbe83e79b	-0.25762638
249	0x3eca75bd	0.39542952
250	0xbefef5f7	-0.4979703
251	0xbdb94c74	-0.090477854
252	0x3c8a80b4	0.016907074
253	0xbf0b8f63	-0.54515666
254	0xbdb78796	-0.08961408
255	0x3d800a4e	0.062519655

weight f4 [64, 8]
0	0x3eabe426	0.335725
1	0x3e15596d	0.14584894
2	0x3e217d76	0.15770516
3	0xbe208425	-0.15675409
4	0x3e89a87a	0.2688635
5	0xbd8ec60b	-0.069713674
6	0xbed2cd42	-0.41172224
7	0xbd2f9c2a	-0.04287354
8	0x3dcf5bb5	0.101249136
9	0x3e5b9c0d	0.21446247
10	0x3dfe72e8	0.124242604
11	0x3e8ef193	0.27918682
12	0x3e70898c	0.2348997
13	0xbe8a1b19	-0.269738
14	0xbbd90f96	-0.0066241724
15	0xbdd22d35	-0.10262529
16	0xbdc7078e	-0.09718238
17	0x3dbfd306	0.093664214
18	0xbe14a2e9	-0.1451527
19	0x3e3a89da	0.18216649
20	0x3e87fbb9	0.26559237
21	0xbdd0a3e0	-0.10187507
22	0xbdf7cf0c	-0.12100038
23	0xbd43138b	-0.04762606
24	0x3d4fe140	0.050751925
25	0x3ea7b114	0.32752287
26	0x3d290e78	0.041273564
27	0xbea42560	-0.32059765
28	0xbddd9b28	-0.10820609
29	0x3efa9e3d	0.4894885
30	0x3e586adb	0.21134512
31	0x3eec42c7	0.46144697
32	0xbe04ea78	-0.12980068
33	0x3ea579aa	0.32319385
34	0x3ce2a6e4	0.02766747
35	0xbe6dac13	-0.23210172
36	0xbde44e00	-0.1114769
37	0xbd514c72	-0.051098295
38	0x3c90d177	0.017678006
39	0xbd472c1b	-0.048626047
40	0x3e6f0e1e	0.23345229
41	0x3d913a15	0.070911564
42	0x3d5554ac	0.052082703
43	0xbe67a91d	-0.22623105
44	0xbe922a59	-0.28547934
45	0x3d44234f	0.047885235
46	0xbe852ae8	-0.26009297
47	0x3d34003d	0.04394554
48	0xbc67d9d0	-0.014151052
49	0x3eda8fbb	0.42687783
50	0x3e05f815	0.13082917
51	0xbe3b3178	-0.1828059
52	0x3f053eaa	0.5204874
53	0x3cdcda05	0.026959429
54	0x3d568ad6	0.052378498
55	0x3ea15423	0.31509504
56	0xbe8e6bda	-0.2781666
57	0x3e03f20f	0.12885307
58	0x3df1cdc5	0.118068255
59	0x3f203e26	0.6259483
60	0xbd32f351	-0.043689076
61	0x3e343057	0.17596565
62	0x3d81abc7	0.06331592
63	0xbf002c77	-0.5006785
64	0x3d19d565	0.037557025
65	0xbda11419	-0.078651614
66	0x3e9ce7f2	0.3064571
67	0xbd29c97e	-0.041451924
68	0x3db06ba3	0.0861428
69	0x3ea73844	0.32660115
70	0x3dccc306	0.09998135
71	0x3e121f23	0.1426969
72	0xbca0ed17	-0.019644303
73	0xbe834d0e	-0.25644726
74	0x3db04b1f	0.08608078
75	0x3d565704	0.05232908
76	0xbe2c3759	-0.16817988
77	0x3d9113b4	0.07083836
78	0x3e85f4c8	0.26163316
79	0xbdc8baf5	-0.09801284
80	0xbe32a79e	-0.17446753
81	0xbd8a8646	-0.06763892
82	0xbdbf09f8	-0.09328073
83	0x3e54f453	0.20796327
84	0x3edd6f12	0.43248802
85	0x3ea9a2f8	0.33132148
86	0xbc935080	-0.017982721
87	0xbc8b9492	-0.017038617
88	0x3e88f182	0.26746756
89	0xbd9b1293	-0.07571902
90	0x3e8cd032	0.2750259
91	0xbe079ad3	-0.13242655
92	0x3d7f82d2	0.06238062
93	0x3ea1245b	0.3147305
94	0xbe8c66c0	-0.27422142
95	0x3d801603	0.062541984
96	0x3e74cf2e	0.23907158
97	0x3e405d11	0.18785502
98	0x3e772e10	0.24138665
99	0x3ec3dee0	0.38255978
100	0x3cf53541	0.02993262
101	0xbef17a2e	-0.47163528
102	0xbdb2ddcd	-0.087337114
103	0xbe94027c	-0.28908145
104	0xbe9507f1	-0.2910762
105	0xbdf876ec	-0.121320575
106	0xbd56aa11	-0.05240828
107	0x3c07a3a1	0.008278758
108	0x3e50d364	0.20393139
109	0x3e7fca61	0.24979545
110	0xbec9f03a	-0.3944109
111	0xbe09c2c2	-0.134532
112	0x3e27d00e	0.1638796
113	0x3e8d247d	0.275669
114	0xbcd802b1	-0.02636847
115	0x3ec07a05	0.37593094
116	0xbd831997	-0.06401365
117	0xbe6f8524	-0.23390633
118	0x3dd31ab2	0.10307826
119	0xbeb93eaa	-0.3618062
120	0x3d25cccc	0.040478513
121	0xbd0ad9f1	-0.03389925
122	0x3d91d30f	0.07120334
123	0xbe812335	-0.25222173
124	0xbe3a7afe	-0.1821098
125	0x3e602dc5	0.2189246
126	0x3e0dc7d7	0.13845764
127	0x3e9b8f2d	0.30382672
128	0x3eaf5694	0.3424574
129	0xbd900a08	-0.07033163
130	0x3e858f11	0.26085714
131	0x3e078756	0.1323522
132	0xbebe905c	-0.37219512
133	0xbe3ba340	-0.18323994
134	0x3eeea90f	0.46613356
135	0x3e3d44a6	0.18483219
136	0x3de954a5	0.11393098
137	0xbf03792b	-0.5135676
138	0x3d2d747b	0.042347413
139	0x3ea681f3	0.32521018
140	0x3cf6f058	0.030143902
141	0xbe385daf	-0.18004487
142	0xbda9e5d0	-0.082957864
143	0x3dc4c125	0.09607152
144	0x3e42e0e4	0.19031101
145	0x3d979539	0.07401509
146	0xbe559266	-0.20856628
147	0xbe09853f	-0.13429736
148	0xbe381455	-0.17976506
149	0xbe9ccf4d	-0.30626908
150	0x3eff1396	0.4981963
151	0x3e38a36e	0.18031093
152	0xbee2e2ed	-0.44313756
153	0x3e6177f4	0.22018415
154	0x3e991763	0.29900655
155	0xbd2aee0e	-0.041730933
156	0xbd9040f3	-0.07043638
157	0xbd440cd8	-0.04786381
158	0x3ea666aa	0.325002
159	0x3de0735f	0.10959505
160	0xbd4487b1	-0.047980968
161	0x3e3e38b5	0.1857632
162	0x3ea448e1	0.32086852
163	0x3d3dfdc2	0.04638458
164	0x3ed0ff25	0.4081966
165	0xbde66279	-0.11249251
166	0xbd3cbd10	-0.04607874
167	0xbebb2945	-0.36554924
168	0xbd8e4d04	-0.06948283
169	0x3e955ab9	0.29170778
170	0xbdf45a7b	-0.1193132
171	0xbe6ac835	-0.22927935
172	0xbe073a5f	-0.1320586
173	0x3dd39dc3	0.10332825
174	0xbcb3c3c5	-0.021943936
175	0xbe9f714b	-0.31141123
176	0xbe5ac6bb	-0.21364872
177	0xbd9903cb	-0.074714266
178	0x3e6fa878	0.2340411
179	0x3de6476c	0.112440914
180	0xbd610f3b	-0.054946166
181	0xbe1728b0	-0.14761615
182	0xbdcd6370	-0.10028732
183	0xbc337e49	-0.010955402
184	0xbe4d14f4	-0.20027524
185	0x3e00c100	0.12573624
186	0xbd9aa1b4	-0.07550374
187	0x3c241f17	0.010017178
188	0xbebd97e2	-0.3702994
189	0x3d5fac96	0.05460795
190	0xbdb5e81b	-0.08882161
191	0x3e306769	0.17226948
192	0x3e5c4ae7	0.21512948
193	0xbcc8b8fe	-0.024502274
194	0xbd539528	-0.05165592
195	0xbe1895ec	-0.1490094
196	0x3e112bd5	0.14176877
197	0xbef27a07	-0.47358724
198	0xbd6ba941	-0.05753446
199	0xbebe7246	-0.3719656
200	0x3e75fdd5	0.2402261
201	0x3f1d44eb	0.61433285
202	0xbe3b61b2	-0.18298987
203	0xbd8cc39a	-0.068732455
204	0x3cfa5605	0.030558595
205	0xbe2699ea	-0.16269651
206	0x3ddaa40b	0.1067582
207	0x3f27be71	0.65524966
208	0xbc8f42a8	-0.017487839
209	0x3e24664a	0.16054645
210	0x3e94cd30	0.29062796
211	0x3e055ace	0.1302292
212	0xbee3722f	-0.44423053
213	0x3e4326e6	0.19057807
214	0xbec686ed	-0.38774815
215	0x3ea2d9c8	0.3180678
216	0x3da68099	0.08129997
217	0xbeb748c8	-0.35797715
218	0x3e3da6c0	0.18520641
219	0x3db6cc3f	0.089256756
220	0x3e19778b	0.14987008
221	0xbe053956	-0.13010153
222	0x3e51c28d	0.20484371
223	0x3ea7f66d	0.32805195
224	0xbe0b1f80	-0.13586235
225	0xbe0323f5	-0.12806685
226	0x3d871091	0.06594957
227	0x3e167e8f	0.14696716
228	0x3ec6c98b	0.3882564
229	0xbe9175bf	-0.28410146
230	0xbdf421f8	-0.119205415
231	0x3ebfb3c5	0.3744184
232	0x3ebccbe6	0.36874312
233	0xbe0de1c3	-0.13855653
234	0x3eaa1d54	0.332255
235	0x3e205194	0.1565612
236	0xbe9d41a2	-0.30714136
237	0xbe034393	-0.12818746
238	0x3e7a5d81	0.24449731
239	0x3db22f6f	0.087004535
240	0x3d50f67f	0.051016327
241	0xbca17c23	-0.019712513
242	0xbd8f2bee	-0.06990801
243	0x3e90bddd	0.28269854
244	0xbe312882	-0.17300609
245	0x3dda5a94	0.10661808
246	0xbda71902	-0.08159067
247	0xbcfcedb7	-0.03087507
248	0x3ed7d1e1	0.42152312
249	0x3eab38fc	0.33441913
250	0x3dc868a5	0.09785584
251	0xbea17b3a	-0.31539327
252	0x3c0da344	0.008644883
253	0xbe9bd036	-0.3043229
254	0x3d83e763	0.06440618
255	0xbe351eb4	-0.17687494

weight f4 [64, 8]
0	0xbcb7ae9e	-0.022422131
1	0x3d7eac57	0.062176075
2	0x3ef58c71	0.4795871
3	0x3daf19bb	0.085498296
4	0x3e91ddbb	0.2848948
5	0xbd769ddb	-0.060209136
6	0xbdbc7490	-0.0920192
7	0x3d43d177	0.047807183
8	0xbeb33454	-0.3500086
9	0xbe2c45d1	-0.16823508
10	0xbd12ae65	-0.035810847
11	0xbd519c93	-0.05117471
12	0x3eb980e3	0.36231145
13	0x3c5a1b61	0.013312192
14	0xbdccc723	-0.0999892
15	0xbe0897a6	-0.133391
16	0xbec3b5df	-0.38224694
17	0x3eac4989	0.33649853
18	0xbdf632a3	-0.12021377
19	0x3e9df072	0.30847508
20	0x3e32283a	0.17398158
21	0x3e188954	0.14896137
22	0x3e533558	0.20625818
23	0x3e35ce73	0.17754535
24	0xbe1789f7	-0.14798723
25	0xbdc975cc	-0.09836921
26	0x3e8e5c9a	0.27805024
27	0xbdfd2f5f	-0.12362551
28	0x3eb80000	0.359375
29	0x3e6063c9	0.21913065
30	0x3e3e133c	0.18562025
31	0xbded7d3f	-0.115961544
32	0x3cf03010	0.029319793
33	0x3e4dee40	0.20110416
34	0xbee89d2c	-0.45432413
35	0x3ca58844	0.020206578
36	0xbef99263	-0.48744497
37	0xbcc7abf7	-0.024373991
38	0xbeced2e8	-0.40395284
39	0xbda0786b	-0.07835468
40	0xbe3178f4	-0.17331296
41	0xbdce3a40	-0.10069704
42	0xbc3585d6	-0.011079272
43	0xbe69334e	-0.22773477
44	0x3e26189c	0.16220325
45	0xbce4a24d	-0.027909422
46	0xbe62eedf	-0.22161435
47	0x3e1562fb	0.1458854
48	0xbe22095e	-0.15823886
49	0x3eab6d88	0.33482003
50	0x3e358edc	0.17730278
51	0x3ebf4762	0.37359148
52	0xbe873768	-0.2640946
53	0xbddf9265	-0.109165944
54	0xbc3ae6a3	-0.011407527
55	0x3e8ef84a	0.27923805
56	0x3ec58d1a	0.38584214
57	0xbe98d9ac	-0.2985357
58	0xbede3946	-0.4340307
59	0xbdf5abd6	-0.11995666
60	0x3e888589	0.2666438
61	0xbd2e5539	-0.042561743
62	0x3e2e39f4	0.17014295
63	0xbd8120cf	-0.06305086
64	0xbed7b80d	-0.42132607
65	0xbecda10b	-0.4016193
66	0xbe878d81	-0.26475146
67	0x3e1e11b2	0.15436438
68	0x3e23ebff	0.16007994
69	0xbeac0c33	-0.33603057
70	0xbef44bb1	-0.47713998
71	0x3eb238fb	0.34809098
72	0xbe462d64	-0.19353253
73	0x3e06ca10	0.13163018
74	0x3e905d3b	0.2819613
75	0xbeb08916	-0.34479588
76	0xbe186ed6	-0.1488603
77	0xbe0cc751	-0.13747908
78	0xbc10a309	-0.008827933
79	0x3f22c9ac	0.63588977
80	0xbf00bdf1	-0.5028983
81	0x3ea9a0ec	0.33130586
82	0x3bb108a4	0.0054026414
83	0xbea5d48c	-0.32388723
84	0xbd18c648	-0.03729847
85	0xbd83b070	-0.06430137
86	0xbe90a75b	-0.28252682
87	0xbc353ec8	-0.0110623315
88	0x3d18544b	0.037189763
89	0x3d07f8f8	0.03319642
90	0x3d9240ab	0.07141241
91	0xbe843a38	-0.25825667
92	0xbe4dfc80	-0.20115852
93	0xbdabdc1e	-0.083915934
94	0xbdf44ff0	-0.11929309
95	0xbed049e7	-0.40681383
96	0x3dc86cc0	0.097863674
97	0xbe087cfa	-0.13328925
98	0x3e6334ec	0.22188157
99	0xbd7083c5	-0.058719415
100	0xbdda860c	-0.10670099
101	0x3e59face	0.2128708
102	0xbeb83c05	-0.3598329
103	0xbe99026a	-0.29884654
104	0x3db8fdc4	0.09032777
105	0xbef587d9	-0.47955206
106	0x3e27a957	0.16373192
107	0xbdee189a	-0.11625786
108	0x3e145d47	0.14488707
109	0xbe1b21cd	-0.15149613
110	0xbe104531	-0.14088894
111	0xbe74075b	-0.23830931
112	0xbe63a551	-0.22231032
113	0x3e84fabe	0.2597255
114	0xbdb52fbe	-0.08846997
115	0x3e2e8689	0.17043509
116	0xbd909d01	-0.07061196
117	0xbea12ad4	-0.31477988
118	0x3dee7203	0.1164284
119	0xbd985233	-0.07437553
120	0x3ed57c75	0.41696516
121	0xbe81431d	-0.25246516
122	0x3ddc1c86	0.10747628
123	0xbc8cd7e9	-0.017192798
124	0x3de0df04	0.10980037
125	0x3dbc8455	0.09204928
126	0xbbec8394	-0.007217834
127	0x3e187254	0.14887363
128	0x3e6ad7db	0.22933905
129	0xbe509abd	-0.20371528
130	0xbf12280f	-0.57092375
131	0x3e6d1d82	0.23155788
132	0x3e21f16e	0.15814754
133	0x3dabbf7b	0.083861314
134	0x3e828a9f	0.25496385
135	0xbc7840f6	-0.015152207
136	0x3e1081a6	0.14111957
137	0x3e599728	0.21249068
138	0x3d9ac724	0.07557514
139	0x3d5c4e14	0.0537854
140	0xbdee136c	-0.11624798
141	0xbe839297	-0.25697777
142	0x3e69846b	0.2280442
143	0x3a3c5650	0.00071844924
144	0x3e9e3810	0.30902147
145	0xbe7563cd	-0.23963852
146	0xbd944014	-0.072387844
147	0xbe0ee4ac	-0.13954419
148	0xbe1df471	-0.15425278
149	0xbdb1f169	-0.086886235
150	0xbdf800d4	-0.12109533
151	0xbe946c3a	-0.2898882
152	0x3d1803f4	0.037113145
153	0x3e62179c	0.22079319
154	0x3e2ec198	0.17066038
155	0x3ee462ad	0.44606534
156	0x3effc47c	0.49954593
157	0xbdc813d3	-0.09769406
158	0xbe7d6c5f	-0.24748372
159	0xbe812e91	-0.2523084
160	0x3dec8756	0.11549251
161	0x3dab3075	0.08358852
162	0xbea1e45f	-0.31619546
163	0x3e791664	0.24324948
164	0xbdd56012	-0.104187146
165	0xbe92fc96	-0.28708333
166	0xbdd0a932	-0.101885214
167	0x3e5fa017	0.21838413
168	0x3e895bc3	0.2682782
169	0x3ddcbe77	0.10778516
170	0xbd1d2f4d	-0.038375188
171	0xbe8a3ece	-0.2700104
172	0xbe1dbb37	-0.15403448
173	0x3e02d93d	0.12778182
174	0xbe1f5883	-0.15561108
175	0x3d9399a2	0.072070375
176	0xbe842c25	-0.2581493
177	0x3ec19645	0.3780996
178	0xbe310ed2	-0.1729081
179	0xbed1e4b7	-0.40994808
180	0xbd1d1b09	-0.03835586
181	0x3eb02fa7	0.34411356
182	0x3e1a40f9	0.15063848
183	0x3ec0f473	0.376865
184	0x3d3d8c37	0.046276297
185	0xbd21b935	-0.039483268
186	0x3e4e4560	0.20143652
187	0x3dd3a649	0.10334451
188	0xbe937f0f	-0.28807876
189	0x3e080058	0.13281381
190	0xbe0a8f06	-0.13531122
191	0xbc98d060	-0.018654048
192	0xbee4c494	-0.44681227
193	0xbf2c83c3	-0.6738855
194	0xbca1305e	-0.019676384
195	0xbd54e864	-0.051979437
196	0x3e019e65	0.12658079
197	0xbcc84991	-0.024449142
198	0xbea93dc0	-0.33054924
199	0xbec820c1	-0.3908749
200	0xbdb1f242	-0.08688785
201	0x3ddeb279	0.10873885
202	0x3ea0197c	0.31269443
203	0x3e89aaf8	0.2688825
204	0xbd091ce8	-0.033474833
205	0x3e8515be	0.2599315
206	0x3da15975	0.07878391
207	0xbe2fe95a	-0.1717886
208	0xbc75d599	-0.015004539
209	0x3d9e2a95	0.07722966
210	0xbd3457bc	-0.044028983
211	0xbdc5fcd2	-0.09667362
212	0x3e5a16fb	0.21297829
213	0x3e4659cd	0.19370194
214	0x3d8a3c08	0.06749731
215	0xbe16f8a0	-0.1474328
216	0x3d00df33	0.03146286
217	0xbdd6cbd3	-0.10488095
218	0x3e564e4d	0.20928307
219	0xbe9b2262	-0.3029967
220	0x3f0ac160	0.54201317
221	0xbe10cf7b	-0.14141648
222	0xbeb91d9f	-0.36155412
223	0x3e335e66	0.17516479
224	0xbecf874c	-0.4053291
225	0xbe0570bb	-0.13031285
226	0xbeb18b4a	-0.34676582
227	0x3c9d82c3	0.019227391
228	0xbe434f00	-0.19073105
229	0xbe0dcb16	-0.13847002
230	0xbddb8d58	-0.107203186
231	0x3d954bb7	0.07289832
232	0x3ccb28e7	0.024799777
233	0xbe89bd30	-0.2690215
234	0x3e041bff	0.12901305
235	0xbca3a688	-0.01997687
236	0xbea6f869	-0.32611397
237	0xbed3f254	-0.4139582
238	0x3ddb26ac	0.107007354
239	0xbeaf7998	-0.34272456
240	0xbe9255ee	-0.28581184
241	0xbf04bf91	-0.5185481
242	0x3d255c06	0.040370964
243	0xbe139452	-0.14412048
244	0x3cc83253	0.024438059
245	0x3df52c05	0.11971287
246	0x3dbce8a8	0.09224063
247	0x3ec65a6b	0.38740858
248	0x3da2eb2e	0.07955013
249	0xbd889eb7	-0.066708975
250	0x3e4df220	0.20111895
251	0xbd217c1d	-0.039425004
252	0x3e397981	0.18112756
253	0xbe171f1c	-0.14757961
254	0xbeb93769	-0.36175087
255	0x3e1b6ff1	0.15179421

attn_l f4 [1, 8, 39]
0	0x3dc3ae68	0.0955475
1	0xbe2c65fc	-0.16835779
2	0x3e19e766	0.15029678
3	0xbc89c1f0	-0.01681611
4	0xbc95ea94	-0.018300332
5	0xbd646ea6	-0.055769585
6	0xbcf86b34	-0.030324556
7	0xbd899121	-0.06717134
8	0xbd819b92	-0.06328501
9	0xbe2c5774	-0.16830236
10	0x3dae7e34	0.08520165
11	0xbdd64027	-0.10461455
12	0x3da35168	0.079745114
13	0x3b96ed84	0.004605951
14	0xbc122eac	-0.00892226
15	0xbe569672	-0.20955828
16	0xbd63dd87	-0.055631187
17	0x3cd9af9e	0.026572999
18	0x3dba7810	0.09104931
19	0xbdeca3a4	-0.115546495
20	0xbc40c0bf	-0.011764704
21	0x3e16a33e	0.1471071
22	0xbe680505	-0.22658165
23	0x3d603d53	0.054745983
24	0xbd9642d8	-0.07336968
25	0xbe2ff95f	-0.17184971
26	0xbd667bf6	-0.056270562
27	0xbe234658	-0.15944803
28	0x3e178d90	0.14800096
29	0xbe1e0bbc	-0.15434164
30	0x3d64e3e1	0.055881385
31	0x3d759629	0.059957657
32	0xbc8cdc07	-0.017194761
33	0xbd13296f	-0.035928186
34	0xbd7fe80d	-0.06247716
35	0x3d14309c	0.03617917
36	0xbe3221f6	-0.17395768
37	0xbd1d71d4	-0.038438633
38	0xbe4b4aed	-0.198528
39	0xbc5ac81a	-0.013353372
40	0xbd8f115b	-0.06985732
41	0xbe58b320	-0.21162081
42	0xbe36a440	-0.17836094
43	0xbdf70b76	-0.12062733
44	0x3bd53486	0.0065065054
45	0x3e3d9024	0.18512017
46	0xbc282cfd	-0.010264632
47	0x3d527271	0.05137867
48	0xbdd3adb1	-0.103358634
49	0x3db81fe5	0.089904584
50	0x3d039f43	0.032134306
51	0xbd603109	-0.054734264
52	0xbe27cd80	-0.16386986
53	0xbd271668	-0.040792853
54	0x3bd07295	0.0063613155
55	0x3db35c0e	0.087577924
56	0x3dcf9f46	0.10137801
57	0xbdacd663	-0.084393285
58	0xbd2f5928	-0.042809635
59	0xbc25f950	-0.0101302415
60	0x3e0ae636	0.13564381
61	0x3d2ad1ba	0.041703917
62	0x3dc0293b	0.09382864
63	0xbdd92179	-0.106020875
64	0xbca7967c	-0.020457499
65	0xbce883a3	-0.028383082
66	0x3c81dbaf	0.015851824
67	0xbe240765	-0.16018446
68	0x3e051cb7	0.12999235
69	0x3dd4b9f7	0.103870325
70	0xbc31c08b	-0.0108491285
71	0xbda856cc	-0.0821968
72	0xbe16dbc1	-0.14732267
73	0xbda8489b	-0.082169734
74	0x3dd48616	0.10377137
75	0x3c59ee60	0.013301462
76	0x3d81c598	0.06336516
77	0x3bbc87e9	0.0057535064
78	0xbd5fc57d	-0.0546317
79	0x3de7b233	0.11313286
80	0x3e0dd88d	0.13852139
81	0x3add791c	0.0016897055
82	0x3d285357	0.041095104
83	0xbdd14be2	-0.102195516
84	0xbd325396	-0.043536745
85	0xbe096245	-0.13416393
86	0x3d61736a	0.055041708
87	0xbd6b5379	-0.057452653
88	0x3df53c86	0.119744346
89	0xbe8f58ef	-0.27997538
90	0xbe0fb988	-0.14035618
91	0x3dc88f10	0.09792912
92	0x3cc36e33	0.023856258
93	0x3da313d9	0.0796277
94	0x3d0a0247	0.033693578
95	0xbb866b3f	-0.00410214
96	0x3e17840c	0.14796466
97	0xbe3bb1de	-0.1832957
98	0x3e2a1c76	0.1661242
99	0xbd7f2ff1	-0.06230158
100	0x3db3177d	0.087447144
101	0x3e1b333a	0.1515626
102	0x3c50f2f8	0.012753241
103	0x3d90c736	0.070692465
104	0x3e59d8a3	0.21274047
105	0xbd4f23a8	-0.050571114
106	0xbe23b4b5	-0.15986903
107	0x3d390255	0.04516824
108	0x3deb96d0	0.115033746
109	0x3d5f30db	0.05448995
110	0x3cc757b4	0.024333812
111	0xbd345289	-0.044024024
112	0xbe0e65f4	-0.1390608
113	0xbd051bb3	-0.03249712
114	0x3d4e8ef7	0.05042931
115	0x3e71929c	0.23591083
116	0x3e39e098	0.18152082
117	0x3ceb0830	0.028690428
118	0xbd1934fb	-0.03740404
119	0x3de7be73	0.11315622
120	0xbdad9ea7	-0.08477526
121	0x3e4ead99	0.2018341
122	0x3ce01b2d	0.027356708
123	0xbda66da9	-0.08126385
124	0x3d72fd90	0.059323847
125	0xbe95cb79	-0.292568
126	0xbb8da46b	-0.0043225787
127	0xbdcc8c59	-0.09987707
128	0xbd752e5e	-0.059858672
129	0xbdcb02a9	-0.09912617
130	0x3d184da9	0.037183437
131	0x3d032504	0.032017723
132	0x3da0d743	0.07853558
133	0xbe289106	-0.16461572
134	0xbc903c2a	-0.017606813
135	0xbe2f1c5c	-0.17100662
136	0x3e0cb6f5	0.13741668
137	0x3de020fd	0.10943792
138	0x3aae2acc	0.0013287901
139	0xbd849b66	-0.064749524
140	0xbda73be0	-0.08165717
141	0xbdad0647	-0.08448463
142	0xbdb1f0a5	-0.086884774
143	0x3d7adc63	0.061245333
144	0x3b8e06cc	0.0043343063
145	0x3e047938	0.12936866
146	0x3c179df3	0.009253967
147	0x3a039b1b	0.0005020366
148	0xbd43c55f	-0.04779565
149	0x3da5ace1	0.08089615
150	0x3da530ee	0.08065973
151	0x3dccc327	0.0999816
152	0xbdea0223	-0.11426189
153	0xbdcf9fd0	-0.10137904
154	0x3cf40070	0.029785365
155	0x3dcac94e	0.09901677
156	0x3dbe9743	0.09306195
157	0x3d49c771	0.049262468
158	0xbdf982f2	-0.12183179
159	0x3d188c7e	0.03724336
160	0x3d8664fd	0.06562231
161	0x3e1a7aa2	0.15085843
162	0xbe41b917	-0.18918262
163	0x3bb6f62f	0.0055835466
164	0x3d218174	0.039430097
165	0xbde73d20	-0.112909555
166	0x3d6ff974	0.058587506
167	0xbdfab2cc	-0.12241134
168	0x3c4edcce	0.012625886
169	0xbdc619dd	-0.09672902
170	0xbdda9a5b	-0.10673972
171	0xbd33711d	-0.043809045
172	0x3c544e08	0.012958057
173	0x3c627a55	0.013823112
174	0xbd4877af	-0.048942264
175	0xbdb6de96	-0.08929174
176	0xbd987589	-0.07444293
177	0x3d891e68	0.06695253
178	0xbe2443d0	-0.16041493
179	0x3b1bfc5a	0.0023801536
180	0x3c7dfce6	0.01550219
181	0xbe0835bc	-0.13301748
182	0x3c60e376	0.013726106
183	0xbd00ce07	-0.031446483
184	0x3dea08c8	0.11427456
185	0x3e000001	0.12500001
186	0x3db02a38	0.086018026
187	0x3d3df8a6	0.046379708
188	0x3d96fa1c	0.07371923
189	0x3dbf85fe	0.09351729
190	0xbd89a9f1	-0.06721867
191	0xbde2f87a	-0.110825494
192	0x3d1c610a	0.03817848
193	0x3dc6c323	0.09705188
194	0xbd2a7ab7	-0.041620936
195	0x3df102f0	0.117681384
196	0xbe36a4df	-0.17836331
197	0xbd91e878	-0.07124418
198	0x3b23ec94	0.0025012838
199	0x3cf2dd1d	0.02964645
200	0xbd7703d3	-0.06030638
201	0xbde83e52	-0.11340012
202	0x3e09f177	0.13471018
203	0x3da8f640	0.082500935
204	0xbc4e87f0	-0.012605652
205	0x3e81c754	0.25347388
206	0xbd940ab9	-0.07228608
207	0x3e695c7e	0.22789189
208	0x3ddd95c8	0.10819584
209	0xbd8ab37c	-0.06772515
210	0xbe53ba5d	-0.2067656
211	0x3d655d2b	0.055997055
212	0x3d25c2ca	0.04046897
213	0xbdeaa02f	-0.11456334
214	0xbe2146fd	-0.15749736
215	0xbdc51a2f	-0.09624135
216	0xbc2f853c	-0.010712918
217	0x3d757688	0.059927493
218	0xbe0b129e	-0.1358132
219	0xbe2f6bde	-0.17130992
220	0xbd308b26	-0.043101452
221	0xbe004dc8	-0.12529671
222	0xbe2ee722	-0.17080358
223	0xbd01cd14	-0.03168972
224	0x3cdaf028	0.026725844
225	0xbd83b3e8	-0.06430799
226	0xbe5836b8	-0.21114624
227	0xbc213166	-0.009838438
228	0xbd8c53b3	-0.06851902
229	0x3d8abe46	0.06774573
230	0x3e5a8c43	0.21342568
231	0x3c96fc39	0.018430816
232	0x3d09d491	0.033649985
233	0xbd422bef	-0.04740518
234	0x3d8ca224	0.06866863
235	0x3d8680dc	0.06567547
236	0x3e3acf41	0.18243124
237	0xbd8dddbc	-0.06927058
238	0x3cd957d8	0.026531145
239	0xbd8044f6	-0.06263153
240	0x3e64a248	0.2232753
241	0xbd6a25c4	-0.057164922
242	0xbdb924bb	-0.09040209
243	0xbda1dc20	-0.07903314
244	0xbd23dcf0	-0.040005624
245	0x3e19e962	0.15030435
246	0xbe6168fe	-0.22012708
247	0x3e7177b9	0.23580827
248	0x3e626ade	0.22111079
249	0xbe466ce1	-0.19377472
250	0x3d36412f	0.044495758
251	0xbdd34565	-0.1031597
252	0x3d75e404	0.060031906
253	0xbe430814	-0.1904605
254	0xbe368a4e	-0.17826197
255	0xbbee98e9	-0.007281412

attn_r f4 [1, 8, 39]
0	0x3e123790	0.14279008
1	0xbd337c34	-0.04381962
2	0x3d9fa469	0.077950306
3	0xbdcbdcdc	-0.09954235
4	0x3e29cdbd	0.16582389
5	0x3d55202b	0.05203263
6	0x3d3870d5	0.04502948
7	0x3d54caa0	0.05195105
8	0x3e462729	0.19350876
9	0xbe3e8540	-0.18605518
10	0xbd034a04	-0.03205301
11	0x3dde0ed1	0.1084267
12	0xbd2e1b3e	-0.04250645
13	0xbd90fa1f	-0.07078957
14	0xbe19535b	-0.14973204
15	0xbdf41a0b	-0.1191903
16	0xbcbca9bb	-0.023030153
17	0xbdf48dd9	-0.11941118
18	0x3c728bef	0.014803871
19	0xbe356d1d	-0.17717405
20	0x3e02970d	0.12752934
21	0xbd44f3db	-0.04808412
22	0xbd6c1f58	-0.05764708
23	0x3e2a0f62	0.1660743
24	0x3e1d77ba	0.15377703
25	0x3c84d082	0.016212706
26	0x3ded514f	0.11587774
27	0xbda219bc	-0.07915065
28	0x3e01fb4c	0.12693518
29	0x3c039269	0.008030512
30	0xbd2c5776	-0.042075597
31	0xbd99c1ca	-0.075076655
32	0x3db83635	0.08994714
33	0x3e045410	0.12922692
34	0xbcfadb5a	-0.030622173
35	0x3e1e7116	0.15472826
36	0xbdbbf690	-0.091778874
37	0x3db273e3	0.0871351
38	0xbd83e6c0	-0.064404964
39	0xbd435d10	-0.047696173
40	0x3d29d8a3	0.041466366
41	0xbd4a9434	-0.049457744
42	0xbd98c606	-0.07459645
43	0xbde18061	-0.110108145
44	0xbe45f553	-0.19331865
45	0xbdf9db6a	-0.12200053
46	0x3dd616b1	0.10453547
47	0xbcc11477	-0.023569329
48	0x3d883252	0.06650223
49	0x3d0a8d45	0.03382613
50	0xbdbac40d	-0.09119425
51	0xbcf02fa0	-0.029319584
52	0x3c90c16d	0.017670358
53	0x3c0110bf	0.007877528
54	0xbe13945f	-0.14412068
55	0x3c664abd	0.014055905
56	0x3da26509	0.07929427
57	0x3db28562	0.08716847
58	0x3d11d671	0.035604898
59	0x3db6bcaa	0.089227036
60	0x3ba06f18	0.004896056
61	0x3db10ff9	0.08645625
62	0xbd4ced83	-0.050031196
63	0xbdfa4484	-0.122200996
64	0xbd658fc9	-0.056045327
65	0xbcaf7fc8	-0.021423236
66	0xbdb84832	-0.08998145
67	0xbcc67650	-0.024226338
68	0xbd99c43b	-0.07508131
69	0x3dc610bd	0.09671161
70	0xbe63bcc3	-0.22239976
71	0xbda1cef9	-0.07900805
72	0xbe3c23be	-0.1837301
73	0xbdd0ed6a	-0.10201533
74	0xbdf6e2b1	-0.12054957
75	0x3d82b30b	0.06381806
76	0x3c7c0677	0.015382401
77	0xbdeba9dc	-0.115070075
78	0x3d626425	0.055271287
79	0x3d464b70	0.048411787
80	0x3d2b7557	0.04185995
81	0xbe4fa261	-0.20276786
82	0x3ce382eb	0.027772387
83	0x3e0ea389	0.13929571
84	0xbd9d38a4	-0.07676819
85	0xbdd47296	-0.10373418
86	0x3dbca9ac	0.0921205
87	0xbdcb90fb	-0.09939762
88	0xbda480c8	-0.080323756
89	0x3dd5d850	0.10441649
90	0xbd33d9f0	-0.043909013
91	0x3c2722b0	0.010201141
92	0x3e0e1fd2	0.13879326
93	0xba6ff404	-0.00091534876
94	0x3dc8ae98	0.09798926
95	0x3e00aad4	0.12565166
96	0x3d19853c	0.037480578
97	0x3dbd3d9f	0.09240269
98	0xbce44fe1	-0.02787012
99	0x3e78a43d	0.24281402
100	0xbe395fbe	-0.18102929
101	0xbd2f3bba	-0.04278157
102	0x3dc2cb9e	0.09511493
103	0xbd3208d7	-0.04346546
104	0xbe6de683	-0.23232464
105	0x3cc94697	0.024569793
106	0x3db7cdcd	0.089748
107	0x3dc7bfc6	0.09753375
108	0xbcb4dcd4	-0.022077955
109	0xbde47d68	-0.11156732
110	0x3d5e63ee	0.05429452
111	0x3e8acdd3	0.27110156
112	0xbe0a6d3c	-0.13518232
113	0x3b8847c2	0.004158945
114	0x3cf22bf8	0.029561982
115	0xbdc9e2b1	-0.09857691
116	0x3d1b16bb	0.037863474
117	0x3c5c6eda	0.013454163
118	0x3da0ac16	0.07845323
119	0xbd0c25e2	-0.034215815
120	0x3e0cac19	0.13737525
121	0xbe630d6e	-0.22173092
122	0xbd330ec6	-0.04371526
123	0x3e1d61db	0.1536936
124	0x3da9c857	0.08290165
125	0xbd723d45	-0.059140462
126	0xbced3d1f	-0.028959809
127	0xbd6293bc	-0.05531667
128	0x3b010465	0.0019686457
129	0xbd043942	-0.032281168
130	0x3d5ae78d	0.05344348
131	0xbd04db4e	-0.032435708
132	0x3cd1783b	0.025570026
133	0x3d90a839	0.07063336
134	0x3d6613f0	0.056171358
135	0x3d12a544	0.03580214
136	0xbc2a8bbc	-0.010409292
137	0x3d99ca15	0.07509247
138	0x3dd1bc0f	0.102409475
139	0x3d8c14dd	0.06839917
140	0x3d0ddacb	0.034632485
141	0x3d84a32e	0.064764366
142	0xbdcd4167	-0.1002224
143	0x3c54c53a	0.012986476
144	0xbd5a72a4	-0.053331986
145	0x3da3470d	0.07972536
146	0xbe2ffa02	-0.17185214
147	0x3e092ef8	0.13396823
148	0xbdc20d32	-0.09475173
149	0x3e0abf3a	0.1354951
150	0x3e24364e	0.1603634
151	0x3d948bbd	0.072532155
152	0xbd68fa50	-0.05687934
153	0xbe11b6b5	-0.14229853
154	0x3db67a9a	0.08910103
155	0x3dc33cc9	0.09533078
156	0x3d2145e3	0.03937329
157	0xbc15d56c	-0.009145122
158	0xbe617348	-0.22016633
159	0x3dfa0e2c	0.12209734
160	0x3d946e1b	0.072475635
161	0xbcecee44	-0.028922208
162	0x3e238020	0.15966845
163	0xbd027b74	-0.031856015
164	0xbe46ae77	-0.1940249
165	0x3d874345	0.066046275
166	0xbe5a65a1	-0.21327831
167	0xbe2a77db	-0.16647284
168	0x3ea25b19	0.31710127
169	0xbdd5e802	-0.104446426
170	0x3dcc1014	0.09964004
171	0xbd81350e	-0.063089475
172	0xbd696dc1	-0.056989435
173	0x3d5e3d64	0.054257765
174	0xbd97424f	-0.07385694
175	0xbdb71a44	-0.08940557
176	0xbdfbc835	-0.12294046
177	0xbd37f87e	-0.044914715
178	0x3da5e737	0.08100741
179	0x3db2b28d	0.08725462
180	0x3d5fced4	0.054640606
181	0x3e2f4cf5	0.171192
182	0xbd175b6a	-0.036952414
183	0xbdf6d315	-0.120519795
184	0x3d791738	0.06081316
185	0xbd65f422	-0.056141026
186	0x3ba48c5b	0.0050216145
187	0xbcdb5bd5	-0.026777187
188	0xbd807077	-0.06271451
189	0xbcfc1609	-0.030772226
190	0x3d23a218	0.039949507
191	0x3e2d0d74	0.16899663
192	0x3d1650f2	0.03669829
193	0x3c1f7938	0.009733491
194	0x3d81873c	0.06324622
195	0x3ce6020b	0.028077146
196	0x3def8aec	0.11696419
197	0x3d3b5722	0.045737393
198	0xba80a360	-0.0009814315
199	0xbc1acea7	-0.009448684
200	0x3dc65660	0.096844435
201	0xbd1ab31b	-0.037768465
202	0xbd1e4efe	-0.03864955
203	0x3db2771c	0.087141246
204	0xbe0b27ab	-0.13589351
205	0xbd77a599	-0.06046066
206	0x3df71233	0.12064018
207	0x3df9dc50	0.122002244
208	0x3e389a6e	0.1802766
209	0x3996f850	0.00028795237
210	0xbd9c418c	-0.076296896
211	0xbdc6a1a1	-0.09698797
212	0xbdd2763f	-0.1027646
213	0x3daca215	0.08429352
214	0xbc442d39	-0.011973673
215	0xbe19f7ec	-0.15035981
216	0x3d53cd52	0.05170948
217	0xbd967c68	-0.07347947
218	0x3c64684b	0.013940881
219	0x3d34c9c9	0.04413775
220	0x3c09ae22	0.008403333
221	0xbccf42b2	-0.025300357
222	0x3dbbcb39	0.09169621
223	0xbd2b757b	-0.041860085
224	0xbe364246	-0.17798719
225	0xbe5d5238	-0.21613395
226	0x3b08b69a	0.0020860792
227	0x3db7d32f	0.08975827
228	0x3dcc456e	0.0997418
229	0x3c7ad52f	0.015309616
230	0xbd650d9a	-0.055921175
231	0xbd8a40b8	-0.06750625
232	0x3d8a9937	0.06767505
233	0x3de3213a	0.11090322
234	0xbc14667f	-0.00905764
235	0xbd9b6846	-0.07588248
236	0x3e112c0d	0.1417696
237	0x3d691ead	0.05691402
238	0x3d547bfe	0.05187606
239	0xbdcdf9eb	-0.10057434
240	0x3e68f8df	0.22751187
241	0xbe11287e	-0.14175603
242	0xbc26ba19	-0.010176205
243	0x3db92105	0.09039501
244	0x3ca59c23	0.020216053
245	0xbe20dea9	-0.15709938
246	0xbd2a0d13	-0.041516375
247	0xbdd2d97f	-0.1029539
248	0x3df701e4	0.120609075
249	0x3cb013d4	0.02149383
250	0x3d43588d	0.04769187
251	0xbd8d7932	-0.06907882
252	0x3d37443e	0.044742815
253	0x3a72383e	0.0009239948
254	0xbdd10a54	-0.10207048
255	0xbdb04b96	-0.08608167

bias f4 [312]
0	0x3d1bbab0	0.038019836
1	0x3d81da7b	0.063405
2	0xbcc55a74	-0.024090983
3	0x3d59813c	0.053101763
4	0x3d24462c	0.040105984
5	0xbce50127	-0.027954651
6	0x3cd7e7f5	0.026355723
7	0xbcbf24de	-0.02333301
8	0x3d746a58	0.05967173
9	0x3d626d59	0.055280063
10	0xbd5c17b6	-0.05373355
11	0xbd43b8bc	-0.0477836
12	0x3d65553c	0.05598949
13	0xbd53a635	-0.05167218
14	0x3c3b2353	0.011421996
15	0xbccbf31b	-0.024896195
16	0x3bd52f70	0.006505899
17	0x3d7e9fae	0.062164
18	0x3bcaaa60	0.006184861
19	0x00000000	0.0
20	0x3d3f4cb7	0.04670402
21	0xbd3a0122	-0.045411237
22	0xbcf6df8f	-0.030135898
23	0xbd6fe1ff	-0.058565136
24	0xbd015868	-0.03157845
25	0x3d51d912	0.051232405
26	0x3bad3211	0.0052855094
27	0xbd39b8bc	-0.045342192
28	0x3c506035	0.01271825
29	0xbd15016f	-0.03637832
30	0xbb80d44f	-0.003931559
31	0x3d34c7d1	0.044135872
32	0x3d1a85cb	0.03772525
33	0xbd0c0555	-0.034184773
34	0x3d4aaece	0.049483113
35	0xbd51e69a	-0.05124531
36	0x3d578505	0.05261709
37	0x3c7224b0	0.014779255
38	0xbc52faa5	-0.012877141
39	0xbd40f66a	-0.04711
40	0xbc8757b4	-0.016521312
41	0x3c7cd33e	0.015431223
42	0x3d7c33db	0.06157289
43	0x3d89ed41	0.06734706
44	0xbd658e4c	-0.056043908
45	0xbc80c4be	-0.015718814
46	0xbbe423db	-0.006962282
47	0x3d6f48c4	0.058419004
48	0xbc8146f9	-0.015780913
49	0x3c2cf09c	0.010555413
50	0x3d3ef8b1	0.04662389
51	0xbbcac2c9	-0.006187771
52	0x3d82d095	0.0638744
53	0x3cb1a73e	0.021686193
54	0xb9bb6818	-0.00035744975
55	0xbc8c11a2	-0.017098252
56	0xb92bb939	-0.00016376832
57	0xbbd6937f	-0.0065483446
58	0xbd295fdd	-0.041351188
59	0x3c1344cc	0.00898857
60	0x3d8244b9	0.06360764
61	0xbcb6c138	-0.02230893
62	0xbd5fb0b3	-0.054611873
63	0xbd088939	-0.03333399
64	0xbd327ad8	-0.043574184
65	0xbd337053	-0.043808293
66	0x3d6e75e9	0.058217917
67	0x3cb62575	0.022234658
68	0xbd2d2b0c	-0.04227738
69	0x3bf2497d	0.0073940144
70	0x3d5a3465	0.053272624
71	0x3cce4b9b	0.025182536
72	0x3d83950c	0.06424913
73	0xbb3d5ec6	-0.00288956
74	0xbd136a81	-0.035990242
75	0x3d5f2595	0.0544792
76	0xbc6742fa	-0.01411509
77	0x3d16b8dd	0.036797393
78	0x3b1964d9	0.0023406057
79	0xbc036829	-0.008020439
80	0xbd224c9f	-0.039623853
81	0xbcc2a7d4	-0.023761667
82	0xbca4f907	-0.020138277
83	0xbcea54d5	-0.028604904
84	0xbbc3f69c	-0.005980326
85	0xbba5ebdc	-0.005063517
86	0xbc6c9146	-0.014438933
87	0xbc9d7692	-0.019221578
88	0xbc823fe1	-0.0158996
89	0x3d8cc5eb	0.06873687
90	0xbae47918	-0.0017431108
91	0x3d6b4966	0.057443045
92	0xbcb10abf	-0.02161157
93	0x3cf3bd9b	0.029753497
94	0x3c5221f3	0.012825477
95	0x3d664048	0.056213647
96	0xbcc1bbfd	-0.02364921
97	0x3d48aad3	0.048991036
98	0xbc37b07c	-0.011211511
99	0x3d2c5fcf	0.042083558
100	0xbc9532ea	-0.018212754
101	0x3c182a17	0.009287379
102	0xbcd516dc	-0.026011877
103	0x3d73ad82	0.05949164
104	0x3d5ae99b	0.05344544
105	0x3d53511b	0.05159102
106	0x3c363f5e	0.011123506
107	0x3cbd01d3	0.023072159
108	0x3d3d20dd	0.04617392
109	0x3c77b8ad	0.015119714
110	0x3d417a40	0.047235727
111	0x3a1d825c	0.00060085
112	0x3d885d1b	0.066583835
113	0xbcb8fbce	-0.022581007
114	0x3d855070	0.06509483
115	0x3d0d3c9f	0.03448164
116	0x3d1999dc	0.037500247
117	0x3d13959a	0.036031343
118	0x3d54145b	0.051777225
119	0xbc6a52ae	-0.014301939
120	0xbc789889	-0.015173086
121	0x3ce5677f	0.028003452
122	0x3c09f248	0.008419581
123	0x3cb4bc9c	0.022062592
124	0xbd580d8b	-0.05274729
125	0x3d55a8a4	0.05216278
126	0xbd09c2e7	-0.03363314
127	0x3d7dc03a	0.0619509
128	0xbd426cb5	-0.047466952
129	0xbd64399e	-0.05571901
130	0xbd088e9e	-0.033339135
131	0x3bc40f0a	0.005983238
132	0x3bdb6c76	0.006696279
133	0xbab91552	-0.0014120734
134	0x3d1da856	0.038490616
135	0xbcf8a9d0	-0.03035441
136	0x3bc79160	0.006090328
137	0xbce26ab3	-0.027638769
138	0x3d5d158f	0.053975638
139	0x3ca67b6e	0.020322528
140	0xbd006875	-0.031349618
141	0x3d6bf225	0.057603974
142	0xbc7136a4	-0.0147225
143	0xbd3fb928	-0.046807438
144	0xbcb817c7	-0.022472275
145	0xbcdf3a69	-0.027249532
146	0x3cc9d124	0.024635859
147	0xbc78ad41	-0.015178026
148	0xbc304ba3	-0.010760221
149	0x3ce4870e	0.02789643
150	0xbcb09f2c	-0.021560274
151	0x3d7025b0	0.05862969
152	0xbcca3d1f	-0.024687348
153	0x3d5279ea	0.051385798
154	0xbd1c8385	-0.038211364
155	0xbbbb27d8	-0.005711537
156	0xbd594756	-0.053046547
157	0xbc19e3b7	-0.00939267
158	0xbd21e7fe	-0.039527886
159	0xbd350f08	-0.044203788
160	0x3d583412	0.052784033
161	0xbba97460	-0.0051713437
162	0x3d3d016d	0.046143938
163	0x3ca67eb0	0.020324081
164	0x3d2eae88	0.042646915
165	0x3d824f2c	0.06362757
166	0x3cbc4af6	0.022984963
167	0xbd03b003	-0.03215028
168	0x3cfe0156	0.031006496
169	0xbd553492	-0.052052088
170	0xbc7077d4	-0.014677007
171	0x3c9fabe4	0.019491144
172	0x3c85ba5b	0.016324213
173	0x3d81ece3	0.06344011
174	0x3baefb6e	0.0053400313
175	0xbd16f148	-0.036851197
176	0xbbe99e18	-0.007129442
177	0x3d54f317	0.05198964
178	0x3d576502	0.052586563
179	0xbd44d453	-0.04805405
180	0xbd19ef35	-0.03758164
181	0xbb396122	-0.0028286655
182	0xbc9ab4e1	-0.018885078
183	0xbcfc5afe	-0.030805107
184	0xbbc2a060	-0.0059395283
185	0xbd66a02c	-0.056305096
186	0xbc8e44f2	-0.01736686
187	0x3d73260b	0.059362452
188	0x3d85bd22	0.06530215
189	0xbc8986cf	-0.016787915
190	0x3d1d0955	0.038338978
191	0xbd559b94	-0.052150324
192	0x3d796f09	0.060896907
193	0xbc948074	-0.018127657
194	0x3c8e78d8	0.017391607
195	0x3d54dd3a	0.05196879
196	0xbd3d2a27	-0.046182778
197	0xbd38650b	-0.045018237
198	0x3d84c81d	0.06483481
199	0xbd0b2a11	-0.033975665
200	0xbcb19bc8	-0.021680728
201	0x3b3e779f	0.0029063
202	0xbd09af1b	-0.03361426
203	0x3bb9e03f	0.005672484
204	0x3d770aa9	0.0603129
205	0x3cddea97	0.0270894
206	0xbd008792	-0.03137929
207	0x3d13f587	0.036122825
208	0x3d8496c1	0.064740665
209	0xbbb93c90	-0.0056529716
210	0xbcebfc09	-0.028806703
211	0xbcb7d164	-0.022438712
212	0x3ba6ae61	0.0050867056
213	0x3d72a579	0.05923984
214	0xbcc438b6	-0.023952823
215	0x3be2a8c0	0.006917089
216	0x3d5500ba	0.052002646
217	0xba1fe80a	-0.0006099945
218	0xbcac4423	-0.021028584
219	0xbd01aa54	-0.03165658
220	0x3d88e9dc	0.0668523
221	0x3c567950	0.013090447
222	0xbd69dc86	-0.057095073
223	0xbd648339	-0.055789206
224	0xbd21bf3b	-0.039489012
225	0x3bb6844a	0.0055699693
226	0xbc9d7565	-0.019221017
227	0xbc666002	-0.014060976
228	0x3d51a9c5	0.051187295
229	0x3d64dd20	0.055874944
230	0xbd3b7c56	-0.045772873
231	0x3d78c81a	0.060737707
232	0xbd0d9262	-0.03456343
233	0xbb4b45fc	-0.0031017056
234	0x3d200b8e	0.03907352
235	0x3b02382e	0.0019869911
236	0x3d78c197	0.060731497
237	0xbbb791d0	-0.005602099
238	0x3cbcca81	0.02304578
239	0xbd44b6af	-0.048025783
240	0xbcbb6d88	-0.022879377
241	0x3ca87c9a	0.020567227
242	0x3d585680	0.052816868
243	0x3d710d0c	0.058850333
244	0x3cd4a475	0.025957325
245	0xbbeb8307	-0.0071872505
246	0x3d7e9c9e	0.06216108
247	0x3d8447dd	0.06459019
248	0xbd3b46f9	-0.04572198
249	0xba683a67	-0.00088588
250	0xbbb61f9c	-0.0055579673
251	0x3c0063b7	0.007836274
252	0xbabb48ee	-0.0014288703
253	0xbd0cc237	-0.034364905
254	0xbcb69785	-0.022289047
255	0x3d6d0fdd	0.057876457
