E-GraphSAGE/netflow/ton-iot/EdgeGAT_multiclass_best_model.pth (torch, 131418 bytes, 9 tensors)

attn_l f4 [1, 8, 128]
000000 5c 90 25 be 64 4d b3 3c c9 73 bc 3d d4 39 47 3d
       -0.1616835 0.021887489 0.09201772 0.048639134
000010 d6 40 55 3d 66 f3 9b 3d 2c b9 cf 3d ae 07 2f bc
       0.052063785 0.07614784 0.101427406 -0.010682983
000020 17 0c 6d bd 4f 26 82 bb 25 a3 c5 bd 2f 6e f3 bc
       -0.057872858 -0.003971852 -0.09650258 -0.029715626
000030 a7 3d 05 bd c5 48 8d bd 51 06 e2 bd 30 08 84 3c
       -0.0325295 -0.06898645 -0.11036361 0.016117185
000040 85 a9 6e 3c c1 38 d2 bd 20 51 41 bd ac 3d 65 bc
       0.014566784 -0.10264731 -0.047196507 -0.0139917545
000050 03 cf 5b bd be 14 61 3c 23 eb 56 3d 50 5f 62 3d
       -0.05366422 0.0137378555 0.052470338 0.05526668
000060 97 5d b9 ba 9f b6 9f bd f0 f5 63 3d cd 31 59 bd
       -0.0014142272 -0.07798504 0.055654466 -0.05302601
000070 e2 7d 93 bc df 6e d2 bd ce 61 a8 3d c3 0d 14 be
       -0.018004362 -0.10275053 0.0822178 -0.14458375
000080 7f fb 84 3d a3 db 6a bd f2 e7 86 bd 14 9f 0d 3d
       0.064932816 -0.05733837 -0.06587209 0.034575537
000090 0e 22 e9 3b bb ec f9 3d 44 86 26 bd 45 f6 38 bd
       0.0071146553 0.12203356 -0.04065539 -0.045156736
0000a0 63 6c d2 3b ef ae 65 bd bd 16 cc bd 82 86 e3 ba
       0.006421612 -0.056075033 -0.099652745 -0.0017358812
0000b0 ca 60 e8 bd 56 78 d4 3b 2a ac be 3a 40 5a 73 3c
       -0.11346586 0.0064840717 0.0014547158 0.01485306
0000c0 da 4f ee bd eb 4c af 3c 70 c5 f6 bb d1 cc 77 bc
       -0.11636324 0.021398982 -0.0075308606 -0.015124516
0000d0 29 e8 df bc 54 84 30 bd a3 78 03 bc 25 26 83 bd
       -0.027332382 -0.043094948 -0.0080243675 -0.0640376
0000e0 22 64 05 3d 1a ca e3 3c c1 49 10 bc fe ed 97 bc
       0.032566197 0.02780633 -0.008806647 -0.0185461
0000f0 d7 7a f0 3b 8f fc 91 3c 74 01 c9 bd fc a1 71 bc
       0.0073388624 0.017820625 -0.0981473 -0.014748093
000100 a2 a5 20 3d ce 64 98 3d 85 56 0c 3c 0a 6f d8 bc
       0.03922046 0.07441102 0.00856555 -0.026420135
000110 24 ee 95 3d a9 80 e1 bc 2c 32 6d bd 04 b1 a4 bd
       0.07320812 -0.02752717 -0.057909176 -0.080415756
000120 15 e1 d0 bd 75 03 9f bd bc a6 fe 3d 69 57 88 bc
       -0.10199181 -0.07764331 0.12434146 -0.016643243
000130 15 82 ed bc 04 a8 e1 bb c1 b2 cd 3d 1d c0 5d bd
       -0.028992692 -0.006886484 0.1004386 -0.05413829
000140 56 cc 72 3c 3c f3 a5 3d 99 14 94 bb b9 69 e0 bc
       0.014819225 0.08103034 -0.004519057 -0.027394162
000150 3b ae 02 be 1f 07 2b 3c f8 19 63 3d 50 11 26 bb
       -0.12761776 0.0104387095 0.055444688 -0.002533991
000160 32 5f a2 bd 92 1b 20 bd 50 66 92 bd bb 59 13 3e
       -0.07928313 -0.039088793 -0.07148421 0.14389698
000170 8f 88 8b bd cb ef 98 3c 98 1c 30 bc 83 b3 87 bd
       -0.06813156 0.01866903 -0.010749005 -0.06626036
000180 48 c8 8d bd a8 a8 89 bd 5c fe 34 bd 13 c8 34 bd
       -0.06922966 -0.06721622 -0.04418789 -0.04413612
000190 f8 d1 d8 ba a1 87 f2 bc f2 a4 97 bd b6 93 07 3d
       -0.0016542068 -0.029605689 -0.07404508 0.033099853
0001a0 2c 68 ba 3b 1a 10 5d bd eb f7 47 bd da 66 c3 39
       0.005688688 -0.053970434 -0.048820417 0.0003726993
0001b0 38 39 c0 bd ed 62 f1 bd 31 a0 e8 bd 7f 9f 99 b9
       -0.093859136 -0.11786447 -0.11358679 -0.00029301268
0001c0 32 de bc bd 8a 85 49 bd a4 12 71 3c 63 c4 3e bc
       -0.09222068 -0.04919962 0.014713917 -0.011643502
0001d0 70 75 b7 bd 11 7e c5 3c 29 73 c1 3c 18 e3 99 bd
       -0.08957946 0.024107965 0.023614483 -0.07514018
0001e0 e7 d4 72 3d af 62 39 3d 13 79 32 bd 4c 0e ed bc
       0.05928507 0.045260128 -0.043572497 -0.028937481
0001f0 6f d4 fa bc 0f 71 ac bd 0d a2 52 3d 06 9a 40 3d
       -0.030618874 -0.08420002 0.051424075 0.04702189
000200 e3 7f 86 bc de 8f b8 3d 1b 98 a8 bd e9 2c 19 bd
       -0.016418403 0.090118155 -0.08232137 -0.037396345
000210 3c 2e cf bd c2 56 23 bd e8 24 14 3d 89 7f a6 bd
       -0.101162404 -0.03987766 0.03616801 -0.08129794
000220 94 f5 f7 bc 0f a5 c7 bd 37 2d 3d bd 4e f3 22 3d
       -0.030268468 -0.09748279 -0.0461857 0.039782815
000230 09 41 33 bd 24 69 da bd ac 40 38 bd b8 6c dc 3d
       -0.043763194 -0.10664585 -0.04498355 0.10762924
000240 1b 5d e9 3c 87 5b c3 3b 50 04 17 3d 4b 5a 67 3d
       0.028486779 0.0059618386 0.036869347 0.056482594
000250 9f b5 1f 3d 3a 88 37 bc e6 2c e7 bc 09 f0 f1 3d
       0.038991567 -0.011201913 -0.028219651 0.11813361
000260 1a 07 4d 3d ce 15 81 bc fb 34 ac bc a3 f2 b5 3d
       0.0500556 -0.015757468 -0.021021357 0.0888417
000270 32 b4 b9 3c a0 24 57 3d 6c 8e cf bc d8 72 9a bd
       0.022668932 0.052525163 -0.025336467 -0.07541436
000280 d3 94 32 3c 08 4d 3b 3c 72 b1 81 3d b4 0c e2 bb
       0.01089974 0.01143194 0.06332673 -0.006898487
000290 f1 6e fe bc 52 18 69 3a 6a b1 08 3d f3 3e 99 bd
       -0.03105876 0.00088918686 0.03337232 -0.0748271
0002a0 66 fb 96 3d c5 f2 be bc d1 c3 9f bc ff 09 b2 bd
       0.07372169 -0.02330912 -0.019502552 -0.08693313
0002b0 ee 28 28 bd a0 34 44 bd 5e fd a5 3d 8e f2 a7 bd
       -0.04105466 -0.04790175 0.081049666 -0.082005605
0002c0 3b d4 80 bd e0 b4 0b 3d 7b 66 05 bd 6b af 65 bd
       -0.0629048 0.034108043 -0.032568436 -0.056075495
0002d0 be 62 10 bd 8a 3a 1b bd f6 3e 80 3d 3c 94 3b 3d
       -0.035250418 -0.037897624 0.06262009 0.045795664
0002e0 df 25 2c be 2c 52 06 bc 2e a7 0b 3d 2b 22 eb bc
       -0.16811322 -0.008198302 0.03409498 -0.028702816
0002f0 88 13 aa 3c dd 33 e5 3c 5c cd 03 3e 0d 44 e7 bc
       0.020761266 0.027978832 0.12871307 -0.028230691
000300 81 a3 97 bd ee 97 61 3d 49 da 2b bc a8 3a b3 bc
       -0.07404233 0.055076532 -0.010489055 -0.021878555
000310 02 45 61 3c 96 a1 b0 bd 27 fb 1f bb bb 58 d0 bd
       0.013749363 -0.0862457 -0.0024411173 -0.10173174
000320 dd 45 3f bd 49 fe 4b bd 92 bb 5d bd 72 47 11 bd
       -0.046697486 -0.049803052 -0.05413396 -0.035468526
000330 df 1e 24 bd 9b 33 9c bd 82 60 3e 3d 55 11 85 3d
       -0.040068503 -0.076270305 0.046478756 0.064974464
000340 6a 4f 27 bd 89 40 f3 3c e3 5e e9 bc df d6 5a bc
       -0.04084722 0.029693859 -0.028487628 -0.013356893
000350 69 fb 4b bc c1 01 10 bc 87 39 e1 3b e6 c0 1c 3d
       -0.012450078 -0.008789481 0.006873313 0.0382699
000360 9c 3f 25 bd ff f8 2b bd cb f6 b5 bb 94 93 d7 3d
       -0.040343866 -0.041985508 -0.0055531017 0.10526195
000370 58 33 ae 3d 9d 64 48 bd 58 40 2e 3d d1 86 90 bd
       0.08505887 -0.048924077 0.04254183 -0.07056964
000380 30 59 b4 3c 6e 0b 16 3d 5d 7e d0 bc e0 9e 45 3c
       0.022015184 0.036631994 -0.02545088 0.0120618045
000390 c8 4b e2 3b 8b ca bc bc de 5a 63 bb cf 70 07 3e
       0.0069060065 -0.023045799 -0.0034691612 0.13226627
0003a0 12 23 c9 bc 81 04 99 bd f2 3c a2 3d fa b2 12 bc
       -0.024552856 -0.07471562 0.07921781 -0.008953804
0003b0 80 cd 2e bd 2d 4f 57 3d a9 08 23 bd ae 9b d4 bd
       -0.04267645 0.052565742 -0.03980318 -0.10381256
0003c0 81 ff 18 3d 5c c0 bf 3b ff 18 86 bd 3c 1e 04 bd
       0.037353043 0.0058517884 -0.065477364 -0.032255396
0003d0 12 3c c4 3c 40 de 01 bd 43 55 28 bc a8 31 b5 3d
       0.023954425 -0.031706095 -0.010274234 0.08847362
0003e0 04 b1 36 bc 86 72 9a bc b5 09 34 3c 0b 2f a2 3d
       -0.011150602 -0.018853437 0.010988642 0.07919129
0003f0 a5 6b 85 bd cc 37 37 bd 2c 6c bc 3d 9b cc a2 bd
       -0.06514672 -0.044730946 0.0920032 -0.07949182

attn_r f4 [1, 8, 128]
000000 ff 2b ea 3d 72 89 74 bd 97 ca 8b 3d 01 6c d2 bb
       0.11434173 -0.05970139 0.0682575 -0.0064215665
000010 e4 1f 86 3d f7 57 bf bd f4 9b 89 bc 23 d8 06 3d
       0.065490514 -0.0934295 -0.016797997 0.032920968
000020 04 8b a8 bd e8 99 a8 3d 3e be 89 bc 68 be 2b bc
       -0.0822964 0.0823248 -0.016814347 -0.010482408
000030 5f ed 41 bc 72 4b c6 bd 3d 8d a0 bd 83 ec aa 3d
       -0.011836379 -0.09682359 -0.07839439 0.08345892
000040 c4 1b e8 3c bb fe 35 bd af 3b 4a 3d ad e3 da 3d
       0.028333552 -0.044432383 0.049373325 0.10687957
000050 da 1d b6 bd 71 14 38 3b 8c 9c 93 3d 06 71 5c bb
       -0.088924125 0.0028088356 0.07207593 -0.0033636703
000060 c4 93 fc bd b3 9a f9 3b 04 1a 37 bd 0e 9b 31 bc
       -0.123328716 0.0076173185 -0.044702545 -0.010840191
000070 b9 e3 af 3d 98 f5 d5 bd e4 b6 a5 bd 13 49 bc 3b
       0.085883565 -0.10447234 -0.08091524 0.005746016
000080 60 99 1e 3d 57 ed 30 bd 5b d9 35 3d 00 7f 78 bd
       0.03872049 -0.043195095 0.04439674 -0.06066799
000090 43 66 1e bd 47 11 12 bd f6 e6 23 3c 64 b5 00 bd
       -0.038671743 -0.03566101 0.010003796 -0.031422988
0000a0 ac 7a d8 3d ba e9 91 ba 4a c0 70 3d fb df 3c 3d
       0.10570273 -0.0011132278 0.05877713 0.046112042
0000b0 81 89 3d 3c d1 85 3f bc 9b f4 65 bc b9 d0 fc 3b
       0.011568428 -0.011689619 -0.014035369 0.0077153114
0000c0 16 71 8b bc c6 0b 71 3c c5 61 45 3c d4 86 4d 3d
       -0.017021697 0.01471228 0.012047236 0.05017741
0000d0 0e 5e 4a 3d a9 bc 64 bd 8d f0 dc 3b 02 be 76 bb
       0.049406104 -0.055843983 0.006742543 -0.0037649875
0000e0 ab 0c c2 3c 86 e0 08 bd 26 aa 63 bd ba a5 eb bc
       0.023687681 -0.033417247 -0.055582188 -0.028765548
0000f0 c2 60 b4 3d c9 62 85 bc 24 4c 97 bd cb a9 8e bc
       0.088075176 -0.016282456 -0.073875695 -0.017414948
000100 e1 6d db 3c 1b 5c 3b bd 15 70 7c bb fe 7d ed bd
       0.026785793 -0.045742135 -0.0038518955 -0.11596297
000110 0a 0e f8 bc 04 d4 2f ba 3e d4 ae bb 6b 0f da bc
       -0.030280132 -0.0006707313 -0.00533536 -0.02661868
000120 08 72 89 3b d5 da 31 3b 4f c1 db 3c 94 38 87 bd
       0.004194502 0.002713849 0.026825575 -0.06602588
000130 d0 71 fb bc 7b 14 07 bd a2 ee 1d bd 87 fa 2b bd
       -0.030693918 -0.032978516 -0.038557656 -0.04198697
000140 8d 94 9f 3c ad 26 78 bc cc 3d 06 bd 27 09 b5 3d
       0.019480014 -0.01514594 -0.032773778 0.08839636
000150 f7 7d 54 bd 1c e1 66 3d ac 74 78 bd d1 81 65 3d
       -0.051877942 0.056367025 -0.060658142 0.056032006
000160 d9 c4 c6 bd 89 c3 33 3b e8 6e f7 bb 95 69 06 3d
       -0.097055145 0.002742978 -0.007551063 0.032815535
000170 b9 ec ea 38 83 da 2e bd 52 12 90 3c 15 4e 92 bd
       0.000112020825 -0.042688858 0.01758686 -0.07143799
000180 e1 6c 99 3c f8 77 e5 3d 6a 46 ce bb e5 b3 cc bc
       0.018728675 0.11204523 -0.006295015 -0.024988124
000190 52 f8 e0 bc ed 44 af 3c 35 69 9b bd 08 93 af 3d
       -0.027462158 0.021395171 -0.07588426 0.08572966
0001a0 b1 71 0c bc 77 77 3a bc ff 64 8f 3d 58 75 aa 3d
       -0.008572028 -0.011381022 0.07001685 0.08323163
0001b0 99 ae 86 bc 3e 91 51 bc a7 37 35 bd 53 8f 6b 3d
       -0.016440677 -0.012790976 -0.044242527 0.05750973
0001c0 02 e5 0b bd ac f0 64 bd a0 96 fa bb fb bb 99 3d
       -0.034153946 -0.055893585 -0.0076473504 0.075065576
0001d0 25 67 25 bd 9f 74 d1 3c 31 a0 c2 bc de 04 1f 3e
       -0.04038157 0.025568305 -0.023758026 0.155292
0001e0 87 c2 65 bc e1 43 38 3d ba 02 48 bd c4 e3 20 3e
       -0.01402343 0.04498661 -0.048830725 0.15711886
0001f0 12 e4 d3 3b 09 2d 87 3c 3c 9f 88 bc b3 b2 7c bd
       0.006466397 0.016500967 -0.016677491 -0.06169386
000200 15 96 a9 bc 50 63 37 3d 3b ab ff 3d 78 9d d0 b8
       -0.020701448 0.044772446 0.124838315 -9.947544e-05
000210 51 d2 08 bc c4 5b 8f 3d 6d c7 6e bd 53 fd 3a 3c
       -0.008350925 0.06999925 -0.058295656 0.011412936
000220 d0 f1 b4 bd 18 73 4c bc 2d d0 d0 bd 38 dd 78 3c
       -0.088351846 -0.012478612 -0.101959564 0.015189461
000230 bc e0 6f 3d 1f 47 3d bd 26 98 db bd 55 d7 5d 3d
       0.058563933 -0.046210404 -0.107223794 0.054160435
000240 e8 d6 f1 3c 0f fa 4a 3d b4 72 72 3d 2b 92 b5 3d
       0.02952142 0.04955488 0.05919142 0.0886577
000250 8c 29 7e 3c f0 58 ca bd ef ea 45 3b 22 7a 2c bd
       0.015512835 -0.09880245 0.0030199846 -0.042108662
000260 b7 78 8a bb 1f 05 01 bd c7 ca a5 bc 84 5f 12 3d
       -0.004225816 -0.031499024 -0.020238293 0.035735622
000270 1c 3f eb 3d 39 f4 6b 3d 73 22 de 3d 68 af 6b 3d
       0.114866465 0.057605956 0.108464144 0.057540327
000280 8f 33 25 3d 1d 33 fc 3c ab 4c 83 3d 98 9d 22 bd
       0.040332373 0.030786091 0.06411108 -0.039701074
000290 b8 d7 ae bd 8b 79 e4 3d da c4 c5 3d 17 8c 05 bc
       -0.08537239 0.11155995 0.09656687 -0.008151076
0002a0 96 6a 26 bd 02 1f aa 3d 4d 55 58 bd 37 07 32 bc
       -0.040628992 0.083066955 -0.052815724 -0.010865978
0002b0 f2 05 9c 3d 57 d0 ae bc a3 ef 0d 3e d5 38 7e bc
       0.076183215 -0.021339579 0.13860945 -0.0155164795
0002c0 66 34 b0 3d 10 9b 86 3b 3b 9b 77 bc e4 82 80 bd
       0.08603744 0.0041078404 -0.015112693 -0.062749654
0002d0 bb a3 cf 3d e2 7b 53 3d c5 8b 8f bd 2b e4 36 bd
       0.10138651 0.051631816 -0.07009081 -0.04465119
0002e0 09 de 0d 3d 73 83 79 3c 0a 53 92 3d bc a3 1a bd
       0.034635577 0.015229094 0.07144745 -0.037753806
0002f0 01 b2 63 bd db 9b 7e 3d e5 02 b5 3c 62 98 68 3d
       -0.05558968 0.062160354 0.022096107 0.05678595
000300 cf ec ea bb 74 3f 1a bb 73 60 e5 3d a5 81 95 bd
       -0.007169343 -0.0023536356 0.11200037 -0.07300118
000310 4a ff 4f bc 56 97 85 bc 2f 2e 0e 3d c1 7e 12 be
       -0.012695143 -0.016307514 0.034712013 -0.14306165
000320 f1 44 92 bd f0 dd ab bd ec 09 b1 bd 33 0e 5b 3b
       -0.07142056 -0.083919406 -0.086444706 0.0033425211
000330 09 cc 6a 3c c8 f9 4b bd 89 d6 94 3d 7c ae 9f bd
       0.014330872 -0.049798757 0.07267482 -0.07796952
000340 d1 5a a6 bc 57 ad 95 bd 81 dd a3 bc b6 6c 7e bd
       -0.020306977 -0.073084526 -0.020003082 -0.062115394
000350 e3 11 31 bc 83 5e 00 3d e1 5e 6d bd 09 28 1d be
       -0.010807487 0.031340133 -0.05795181 -0.15347303
000360 b8 b3 6b 3d 25 98 85 3d 18 46 66 bc d4 5e 07 3c
       0.05754444 0.0652316 -0.014054798 0.008262355
000370 d3 72 89 3c 78 11 13 3a a4 9f 11 bd a6 f4 f4 3d
       0.016778385 0.0005610208 -0.035552636 0.119607255
000380 76 48 26 bd 2d 83 63 3d 2e 77 a5 bd ad a1 0a 3d
       -0.040596448 0.05554502 -0.08079372 0.033845592
000390 48 53 3f 3d 87 69 c2 3d 62 9c 0f bd 4f 9d b6 3c
       0.046710283 0.09492784 -0.035061248 0.022291807
0003a0 ce 4b 92 3d e8 a2 81 bc 78 b3 99 3c 82 f6 c0 3c
       0.07143365 -0.01582475 0.018762335 0.023555044
0003b0 9c 81 ac 3b 44 31 f8 3d 17 11 a5 bd e0 9d eb 3b
       0.005264474 0.12118772 -0.080599 0.007190451
0003c0 4f c5 a7 3d c2 66 db 3b 73 09 4e 3d 22 32 12 3d
       0.081919305 0.0066955993 0.05030198 0.03569234
0003d0 4a c6 0e 3c ab dd 9e 3d 61 f5 4d 3d 9f 6b 95 3d
       0.008714268 0.077571236 0.05028284 0.07295918
0003e0 a0 1a ec bc 44 5b 14 bb d0 a8 8a 3d bc a9 99 3d
       -0.02882129 -0.0022637406 0.0677048 0.075030774
0003f0 8b 8a 93 3c 8c 8f ee bc 10 ec db 3d d2 64 da 3c
       0.018010398 -0.029121183 0.10738385 0.026659403

bias f4 [1024]
000000 d5 7e a3 bb 2c c4 e9 bb 3b 56 c7 bb a0 80 31 bc
       -0.004989485 -0.007133981 -0.0060832775 -0.010833889
000010 09 f4 aa bb 5b 46 53 3c 2c d6 19 3b 4d 2a 66 bb
       -0.0052170795 0.012895192 0.0023473604 -0.0035120428
000020 4b 07 1c 3b ac d1 91 3c 4a b1 28 bc 83 59 60 bc
       0.0023808058 0.017800175 -0.010296175 -0.013693216
000030 82 c8 a0 3a 4f 66 7c 3b 61 a8 44 3c 4d 06 29 bc
       0.0012266787 0.003851313 0.012003035 -0.010316444
000040 f0 0c 2c bc 27 58 a0 3c fd 06 76 bc 4a e8 81 bc
       -0.010501131 0.019573284 -0.015016315 -0.015857834
000050 c8 20 63 3c 0c 7c 21 b8 3a 3a 47 bc 65 2f fa bb
       0.013862796 -3.850092e-05 -0.012159878 -0.0076350444
000060 81 c1 fb bb 30 f3 8c 3c ac 39 a2 bb 83 a7 aa 39
       -0.0076829796 0.017205805 -0.0049507227 0.00032549733
000070 c3 aa 9e 3c e6 cf 99 bb 7c 94 39 3c a3 a9 3d bc
       0.019368535 -0.004693973 0.011326905 -0.011576089
000080 e8 f2 0d bc ee 37 70 3c 0a 0a d3 3b c8 cd dc bb
       -0.00866387 0.014661772 0.0064404057 -0.006738398
000090 00 91 56 3c cd 21 a2 3c 76 3b 78 3c 28 6e f0 bb
       0.013096094 0.019791508 0.015150895 -0.0073373504
0000a0 51 4f 00 3b d9 bd 4a bc 6b cc 8c bc 75 21 66 3b
       0.0019578526 -0.012374365 -0.017187318 0.0035115157
0000b0 75 7b 7d bc 24 5a 94 3b dc 14 54 bc 84 ab 7a bc
       -0.015471329 0.004527347 -0.012944426 -0.015299682
0000c0 57 ae 42 bb 45 72 ac 3b ca 1b b8 bb fa 09 48 3c
       -0.0029705965 0.0052626454 -0.005618547 0.01220941
0000d0 b4 a4 52 bb e3 a1 90 3c 00 00 00 00 7d 0b 2f 3c
       -0.0032141628 0.017655319 0.0 0.010683891
0000e0 6e 33 98 bc da 63 4f 3b 16 0f 0d bc bd 1e 08 3c
       -0.018579211 0.003164521 -0.008609554 0.00830811
0000f0 e4 4b 56 bc b4 4f ce b9 44 99 10 bc 93 16 0f bc
       -0.013079617 -0.00039350765 -0.008825604 -0.008733409
000100 0f b8 15 bb dc 8d bd bb 8b 8f e4 3b 7f a1 35 bc
       -0.0022845303 -0.005784733 0.0069751195 -0.011085867
000110 01 c5 00 bb c5 e6 8d b9 0a b0 48 3c 71 b7 36 3c
       -0.0019648673 -0.00027065552 0.012249002 0.011152134
000120 fd a7 08 3a 35 72 c0 bb 52 10 97 bc 4a 86 73 3c
       0.00052130205 -0.0058729895 -0.0184404 0.01486356
000130 eb 14 72 3c 98 19 4a bc c7 8e 85 bc 48 c6 9a 3c
       0.014775495 -0.012335204 -0.016303433 0.018893376
000140 ec 49 87 3c 74 11 43 bb 44 6f 98 bc 23 35 5a bc
       0.01651474 -0.0029765042 -0.018607743 -0.013318333
000150 e3 bc 42 3b 87 a5 95 39 17 3a 8d 3c 98 cc 96 bc
       0.0029714636 0.00028542822 0.017239613 -0.018408105
000160 61 d2 9a bc 6b 22 00 3c 0f d0 30 3c f0 0b 33 3b
       -0.018899145 0.007820706 0.0107917925 0.0027320348
000170 32 94 8d bc 80 09 87 bc 00 00 00 00 74 50 57 bc
       -0.01728258 -0.016484022 0.0 -0.01314174
000180 1d 3a f2 bb 26 10 97 3b 2c 16 3e bc ad 0c b2 bb
       -0.0073921815 0.0046100793 -0.011601966 -0.00543364
000190 c0 9c 1f bb c1 25 25 bc ff b7 5b bb 2d c7 a2 b9
       -0.0024354905 -0.010079802 -0.0033526418 -0.00031047445
0001a0 e6 9c a0 3b cb 02 0c bc f4 61 1b bb 29 81 82 3c
       0.0049015163 -0.008545588 -0.0023709508 0.015930729
0001b0 e3 a3 08 bc ea 12 96 3b ea 02 9f 3c 28 52 97 bc
       -0.008339855 0.0045798915 0.01941057 -0.018471792
0001c0 fc b5 b7 3b 92 6b 98 bc b9 c6 1d bc 44 a9 8e bc
       0.005606411 -0.018605981 -0.009629899 -0.017414697
0001d0 c6 a4 91 bc 49 b8 e5 3b 00 00 00 00 3d 60 5a bc
       -0.017778765 0.007010494 0.0 -0.013328609
0001e0 a7 dd 6f 3c 00 00 00 00 0a 16 99 3c 55 4f 39 ba
       0.014640248 0.0 0.018687267 -0.00070690113
0001f0 9d 59 71 bc 41 cc 95 3c 17 6f a2 3b b8 c4 5e bc
       -0.014730838 0.018285872 0.0049570906 -0.013596706
000200 13 62 c3 bb 6a ca 98 3c 64 8a 05 3c 0e 45 11 ba
       -0.005962619 0.018651206 0.008150671 -0.0005541601
000210 bd b8 8d bc cd 0c 45 3b 79 be 37 bc 2f bc 8c bb
       -0.017300004 0.0030067444 -0.011214846 -0.004294894
000220 5d a4 2c bc 37 c0 9c 3c 3a aa 0e bc 32 76 60 bc
       -0.010537234 0.019134624 -0.008707577 -0.013700055
000230 79 0d 16 bc 52 da 76 bb 5a 49 93 bb 62 3d 2a bc
       -0.009158486 -0.003766675 -0.004494828 -0.010390611
000240 ef 2c 18 bc 86 4f 26 3c 32 b2 35 ba 39 d7 6d 3b
       -0.009288057 0.010150796 -0.0006931155 0.0036291613
000250 c7 40 eb bb 70 cc 36 bc 5f ae 94 3b 63 5f 9a ba
       -0.007179353 -0.01115714 0.004537388 -0.0011777695
000260 ba c8 54 bc 53 14 03 bb 67 79 6a 3c c8 6a 04 3c
       -0.01298731 -0.0020001128 0.014311171 0.008082099
000270 af 1d 05 bc 18 9c aa bb 63 ca 20 3c 0f d7 0a 3c
       -0.008124753 -0.005206596 0.009813878 0.0084741255
000280 0d e8 03 bc 84 fa 67 3c dd 54 91 bc a3 56 79 bc
       -0.008050931 0.014158849 -0.017740661 -0.01521841
000290 65 4d 8d bc 88 5c 53 3c 2b b5 bd bb 8d 44 99 bb
       -0.017248819 0.012900479 -0.005789419 -0.0046773613
0002a0 4d 31 db bb b7 b2 4f bc 3f 97 1c 3b 7c 6b 50 bc
       -0.0066892267 -0.012676886 0.002389386 -0.012720939
0002b0 6a 03 84 3a 55 7a 2d bc 1d f6 7d bc 6a ad f0 bb
       0.0010071818 -0.010588248 -0.0155005725 -0.0073448913
0002c0 b6 c4 3d bc 33 4d 7a bc e9 19 03 bb 27 89 41 bc
       -0.011582544 -0.015277195 -0.0020004457 -0.011812485
0002d0 f4 e1 76 bb 37 94 2f 3c 83 7d 93 bc 1c 5e 27 bc
       -0.00376713 0.0107164895 -0.018004185 -0.0102153085
0002e0 40 ae 7d 3c 71 5f 56 bc eb 9d 10 bc d9 c7 fa bb
       0.015483439 -0.013084278 -0.008826713 -0.007653218
0002f0 26 88 86 3a a4 9c 2c ba 5c 18 6f bb 04 1c 4d bc
       0.0010263964 -0.00065846206 -0.0036483025 -0.0125188865
000300 7d 48 52 3c e7 91 45 bc 4b 45 08 bb f7 9d 27 bc
       0.012834665 -0.012058712 -0.0020793255 -0.010230533
000310 4a df 88 bc 6d d7 4c bc 00 00 00 00 23 18 2a bc
       -0.016708035 -0.012502533 0.0 -0.010381731
000320 88 ba 4a bb f2 8e d0 bb 58 17 79 3c 87 b4 97 bc
       -0.0030933935 -0.0063646967 0.0152033195 -0.0185187
000330 a9 05 90 3c 8a 9b 44 bc a5 ab 86 bc 76 1f f6 39
       0.017580824 -0.011999974 -0.016439268 0.00046944217
000340 dd 3a 87 3c b5 44 8d bb 14 1f 89 bc 71 97 dd bb
       0.01650756 -0.004311169 -0.016738452 -0.006762438
000350 00 ff ff bb 2a ff a0 3c 83 93 38 bc 63 23 30 bc
       -0.007812381 0.019652922 -0.011265638 -0.010750624
000360 44 59 9d bb 67 ed da bb 00 00 00 00 39 32 83 3b
       -0.004801901 -0.0066811326 0.0 0.0040037897
000370 0c f4 87 bc 07 e7 79 bc 28 6d 44 bc 60 0e 30 bc
       -0.016595863 -0.015252835 -0.0119889155 -0.010745615
000380 e2 72 86 bc ba 3e 2e bc ef 66 12 3b 82 74 13 bc
       -0.016412202 -0.010635072 0.0022339185 -0.008999946
000390 93 70 ae 3a b9 72 67 bc 19 36 01 3c 64 b9 29 bc
       0.0013308696 -0.014126473 0.007886433 -0.010359142
0003a0 54 70 bd bb d6 38 1c 3c df 69 f0 bb 56 59 62 bb
       -0.005781213 0.009535035 -0.0073368396 -0.0034538112
0003b0 ff bd 6a bc 67 fd d7 3b d4 1f 80 bc a4 c8 4f bb
       -0.014327525 0.006591487 -0.015640177 -0.0031705284
0003c0 0e 5a 65 3b 86 c4 8c bc 2b 5e 29 3c 7b 85 96 bc
       0.0034996304 -0.017183553 0.010337393 -0.018374195
0003d0 4a 5c 55 bc cc 42 5c 3c 3f c2 16 ba 66 a4 b0 3a
       -0.013022492 0.01344366 -0.0005750991 0.0013476729
0003e0 0c 04 72 3c f7 38 9f ba f9 d0 4e bc 99 dd 32 ba
       0.014771473 -0.0012147714 -0.012623065 -0.0006823182
0003f0 08 36 87 3c 4f c2 10 bc 95 b9 aa 3b 0e f5 14 bc
       0.016505256 -0.008835389 0.0052101114 -0.009091629

attn_edge f4 [1, 8, 128]
000000 16 27 9d 3d ad 8c 02 3e db ea b2 3d ce 70 c2 bd
       0.07673471 0.12748976 0.087362014 -0.09494172
000010 eb df 9c bd 36 54 4c be b5 8a 09 3d 02 56 24 3d
       -0.076598965 -0.19953999 0.033579547 0.040121086
000020 85 9b 8b 3c 06 24 d4 39 19 07 13 bd d7 55 82 bc
       0.01704193 0.0004046263 -0.03589544 -0.015910072
000030 bb cd 37 bb c3 f5 8d bd 4a b9 f4 bd e4 8f fb 3c
       -0.002804621 -0.06931641 -0.119494036 0.03070826
000040 b5 0c 31 bd a7 92 f4 3c 2c 26 cf 3b d3 a5 6c bc
       -0.04322501 0.029855086 0.006321689 -0.014443832
000050 36 64 c2 3d 39 30 5f 3d 94 60 ad bc 04 0a 42 bd
       0.0949177 0.054489348 -0.021164216 -0.047372833
000060 83 40 42 bd 15 58 63 3c 97 ad 21 bd 69 d4 d5 bc
       -0.047424804 0.013875981 -0.03947219 -0.026102262
000070 48 2b 2b 3d ec dd 75 bc fe a6 4e 3b 99 1d f1 bd
       0.041789323 -0.015006524 0.003153264 -0.117732234
000080 c0 52 05 be 80 d7 d2 bd 9f 6b 83 3c e8 b6 14 3c
       -0.13019848 -0.102950096 0.016042529 0.009076811
000090 a5 e3 98 3d f3 c4 3e bd 82 bf 1d 3d f3 31 34 3d
       0.07465295 -0.046574544 0.038512714 0.043992948
0000a0 05 be f9 b9 0d f6 a0 bd dc e4 96 3d d9 e2 63 bd
       -0.00047634557 -0.078594305 0.0736787 -0.05563626
0000b0 55 97 2d bd 09 ec 4d 3d bc 50 64 3d 02 9d 84 bd
       -0.04238065 0.05027393 0.055741057 -0.06475259
0000c0 35 1e 2b 3e 97 96 ad bd ac 5a d0 3b 6a 3c 5c 3d
       0.16710742 -0.08475988 0.006358465 0.053768553
0000d0 06 9c 97 3c 6c 23 a7 bd 2f 93 3a bd 7e 8c ca 3d
       0.018507015 -0.08161053 -0.04555052 0.09890078
0000e0 81 84 e9 3d 8b a8 30 3d 7d b1 82 3d 9f 2f 96 bd
       0.11402226 0.043129485 0.063815095 -0.07333302
0000f0 29 8e 3e be f9 de 0a 3d ad 5e 4c 3d ac 44 1d bc
       -0.18608917 0.03390405 0.049894977 -0.009598892
000100 df cc b2 bc 04 fc 43 bd 51 86 92 3b 27 3b 32 bd
       -0.021826206 -0.047847763 0.004471578 -0.043513443
000110 2b dd 20 3d 5b 17 43 bd 0d bf 0c 3d 63 fa ba bd
       0.039273422 -0.047629695 0.034361888 -0.09129789
000120 ab 5a 0d be 83 7e a5 bd 76 19 35 3d c9 1e d0 3b
       -0.13804118 -0.08080771 0.044213735 0.006351326
000130 38 89 12 3c c0 aa be 3c 52 e0 ee 3d ad 7a 83 bb
       0.008943848 0.02327478 0.116638795 -0.004012427
000140 87 6c 1f 3d 08 1b 29 bc 5a 34 83 bd cd ad c6 3d
       0.03892186 -0.010321386 -0.0640647 0.097011186
000150 b9 33 ed 3c 05 65 5f 3d f6 16 6d 3d b9 77 f3 bc
       0.028955327 0.0545397 0.057883225 -0.029720174
000160 f3 da 68 3c 8d a4 b5 3d 82 f1 69 ba 53 bb 3c bd
       0.014212358 0.08869276 -0.0008924232 -0.046077084
000170 b9 fc b0 3c 98 5a b7 bc c9 c2 a8 3b f9 c0 29 bd
       0.021604883 -0.022382066 0.0051501733 -0.0414438
000180 ca f0 cf bd 55 94 8b 3d 1d 5c 2d bb e8 98 36 3c
       -0.10153349 0.068154015 -0.002645261 0.011144854
000190 18 e7 ae 3b 0d 13 9d 3c ec a0 e5 3c a2 a4 da bb
       0.005337607 0.019174123 0.028030835 -0.006672458
0001a0 a8 c2 fe 3d 3f 7e 05 bb 71 99 31 39 00 f6 99 3c
       0.124394715 -0.0020369438 0.00016937197 0.01879406
0001b0 ba 03 4d bc 68 d6 8d 3c fc ea f2 b8 7c 19 5b bd
       -0.0125130955 0.01731415 -0.000115832285 -0.0534911
0001c0 9a 3c ed bb 2d c5 c7 3d e7 10 45 3d 9f 9f 40 bc
       -0.0072398903 0.09754405 0.048111822 -0.011756807
0001d0 db ec ce 3d b2 da 82 3d 7e 41 93 3c 7e 10 10 be
       0.1010377 0.06389369 0.017975565 -0.14068791
0001e0 93 af 39 bd 20 e5 54 bc 6b b6 1a 3d 1d c9 35 3c
       -0.045333456 -0.012994081 0.037771624 0.011095312
0001f0 11 ac 88 3c bf 63 1e be 55 f8 36 3e 00 7c 84 3d
       0.01668361 -0.15467738 0.17868169 0.064689636
000200 80 91 01 3c 34 d8 c6 bc e6 c0 9d bd 26 5b 01 3d
       0.007908225 -0.024273016 -0.07702808 0.031581067
000210 6d 06 61 bd 48 78 0e 3c 5e 77 8f bc 92 42 9f 3d
       -0.05493777 0.0086956695 -0.017512973 0.07776369
000220 5d 67 92 bd ae 80 d6 bd 28 3b e8 3c 67 e5 73 3d
       -0.07148621 -0.104737625 0.02834852 0.059544947
000230 27 cc 0a 3c bb 6e ad bc 0e 57 23 be 3a ea bb bd
       0.008471525 -0.021170964 -0.15951177 -0.091755345
000240 be 71 21 bd c9 22 83 bd 2c d1 12 3d fc d4 5e bd
       -0.039415114 -0.06403119 0.035844013 -0.054402336
000250 b8 6b 87 bd 65 45 fd bc 94 4a be bc f2 0b 62 3d
       -0.066123426 -0.030916879 -0.023228921 0.055187173
000260 7c 95 30 bd 58 69 c5 3d 80 0a ca 3c 5f ed d9 3d
       -0.04311131 0.09639233 0.02466321 0.10640978
000270 8b dd 86 3d 19 4f 8d 3d 80 2e 78 3c b1 49 98 3d
       0.06585225 0.06899852 0.015147805 0.074359305
000280 0d 58 05 be 14 54 67 3a 98 3e 0c 3d 85 85 ba 3d
       -0.1302187 0.00088244793 0.03423938 0.09107498
000290 87 d9 d8 3d b3 1b cb bc 20 3a 2e bd 24 c1 2b 3d
       0.10588365 -0.024793481 -0.0425359 0.04193224
0002a0 7b 90 20 3d 7b 5d 2d bd e8 90 e1 bb 7a 77 37 bc
       0.039200287 -0.042325478 -0.0068837292 -0.011197919
0002b0 8b 25 56 3d 73 1c a9 3c 5d cf 94 bd cd 4a 37 3d
       0.052281898 0.020643448 -0.07266114 0.04474907
0002c0 43 cc 9e 3d f1 01 4b 3d b9 5d ba 3b 00 45 a3 3d
       0.077538036 0.0495624 0.005687442 0.07972145
0002d0 5b 9b 8b bd d4 b7 40 3d 3d 04 59 3c f4 25 f1 bc
       -0.06816741 0.047050312 0.013245639 -0.029437043
0002e0 92 b7 8a 3d 7e bb bd 3d 0d 8f 9a bc 4c e2 1a 3d
       0.067732945 0.09264277 -0.01886704 0.03781347
0002f0 a2 aa b1 3d d4 61 5b 3d db e8 6a bc 68 2c 34 3c
       0.08675124 0.053560093 -0.014337744 0.010996915
000300 d3 79 a6 3b df a5 a0 3d 30 6e 7b 3d 20 c5 a9 3c
       0.0050804405 0.078441374 0.06138438 0.02072388
000310 b2 32 23 bc 2a c9 aa 3d 0a 31 80 bc 4a 25 16 bd
       -0.009960817 0.0833915 -0.015648384 -0.036656655
000320 69 b7 63 bd b0 ed ef 38 8b f9 e8 bd c5 50 df bb
       -0.055594835 0.00011440681 -0.113757215 -0.0068150484
000330 ef 05 11 3c 24 5a be bd ba ee ac 3c 68 0a 96 bd
       0.008851512 -0.09294537 0.021109927 -0.073262036
000340 19 bd 4c bd 09 72 c1 bd aa 77 80 3d 65 c4 8b bd
       -0.049985025 -0.094455786 0.06272824 -0.06824569
000350 3d 7a 85 bd 0f fb f0 bc e2 2d a4 3d 44 3d 8b 3d
       -0.06517456 -0.029416589 0.08016564 0.06798795
000360 60 15 18 bd 81 3f 8a 3d 5c 6d 34 bc 2a 67 b3 bd
       -0.03712976 0.06750394 -0.011012401 -0.08759911
000370 c4 c2 d4 bc 27 ae 21 bd 0a 84 bb bb 18 cf e9 bd
       -0.025971778 -0.039472725 -0.0057225274 -0.11416453
000380 3b 07 ec bd d2 99 38 bd b1 d3 88 bc ab 73 ac 3d
       -0.115248166 -0.04506857 -0.016702505 0.084204994
000390 fb 8e 85 bb 4e 7a 28 3d bd db d9 bc f0 2e 5a bb
       -0.0040758825 0.041132264 -0.026594037 -0.0033292137
0003a0 fc a3 82 3c ea af 48 3d 0d 10 cd 3d 0c 82 67 3c
       0.015947334 0.04899589 0.10012827 0.014130127
0003b0 5e c6 a4 3c d9 88 1a bd fc a8 e5 bb 19 50 50 3d
       0.02011412 -0.037728164 -0.00700867 0.050857637
0003c0 5f c3 6f bd 4f 81 aa bd be a5 d8 3d fc 45 56 b9
       -0.05853593 -0.08325445 0.10578488 -0.00020434702
0003d0 2b 7e a9 bc da ae 2b bd 50 d5 07 3d bc d5 13 39
       -0.020690044 -0.0419148 0.033162415 0.00014098635
0003e0 bd 0f 7b 3d 1c 47 62 3c f0 c7 22 bb 6e 12 3d 3b
       0.061294306 0.013810899 -0.002483841 0.0028850096
0003f0 d8 0b 9c 3d f2 79 c9 3d ee 31 f6 3c d0 89 86 3d
       0.076194465 0.09837712 0.030053105 0.065692544

weight f4 [1024, 8]
000000 4b 66 bb 3d 55 05 b5 3d 68 0b 8d bd 57 84 ac bd
       0.0915037 0.08838908 -0.06886941 -0.08423679
000010 7e 35 d5 3d f8 aa 65 3d 6f e4 0c bc 4d 16 d2 3b
       0.104105935 0.05607125 -0.008599385 0.00641135
000020 a5 97 b8 bc d7 3e 05 be 92 4d 4d 3c 2d 98 c6 3d
       -0.022533247 -0.13012253 0.012530701 0.09696994
000030 ab ce 66 bd a2 a5 01 3d e9 09 96 bd 90 4a 1e bd
       -0.056349438 0.0316521 -0.07326109 -0.038645327
000040 c8 0f 00 be d5 35 8d 3c a1 83 44 bd bc 68 73 bc
       -0.1250602 0.017237583 -0.047977094 -0.014856514
000050 7d 0b c3 bc d1 03 ae bc 42 04 34 3d 57 c2 5a bd
       -0.023809189 -0.021242054 0.043949373 -0.053407993
000060 49 22 95 bc 50 c8 ea bd db 98 76 bd c5 25 23 3d
       -0.018204825 -0.11463988 -0.060204368 0.03983094
000070 d7 ba 72 bc 71 43 3f 3d 1b ee 84 3d 34 f9 27 bd
       -0.014815054 0.046695177 0.064907275 -0.041009143
000080 fa bc 95 bd b5 46 5a bb ce 47 80 bd 0a d6 a9 bd
       -0.07311435 -0.0033306305 -0.06263696 -0.08292778
000090 a9 7e 03 ba fa 12 67 3d 6b 64 a4 3d e7 07 92 bd
       -0.0005016127 0.05641458 0.08026966 -0.071304135
0000a0 9e c7 1f 3d 33 8d bd bd bc d4 98 3c 19 a4 c3 3d
       0.03900873 -0.09255447 0.018656127 0.095527835
0000b0 07 52 27 bd 3d 7d 25 3d 1f 9e 57 bc bf eb a8 3d
       -0.04084971 0.04040264 -0.013160258 0.0824809
0000c0 1e ad 56 bd 94 88 8d 3c d3 ad 65 bd bf 1a 65 bc
       -0.05241119 0.01727704 -0.056073975 -0.013983428
0000d0 13 91 68 3d d9 2b 3c 3d 45 61 65 3d ea 9e f6 bc
       0.05677898 0.045940254 0.056000967 -0.030105073
0000e0 48 f2 81 bd 97 d9 9d bd 8a a3 53 3d 04 7d 10 3d
       -0.063450396 -0.077075176 0.051669635 0.035275474
0000f0 9a bc 38 3d f2 06 02 bd fe de d9 3c 3b 74 96 3d
       0.04510174 -0.031744905 0.026595589 0.07346388
000100 21 ea 94 bc 74 d8 9e bc ce 77 54 bd 29 b3 5f 3d
       -0.018178048 -0.019390322 -0.051872067 0.05461422
000110 37 7b 45 bd 6e 05 1c 3e e8 7d c9 3c 13 79 b8 3d
       -0.04821321 0.15236446 0.02459617 0.09007468
000120 29 36 78 bd ec d9 26 b9 a0 dc 2a bd 80 a4 c6 3d
       -0.060598526 -0.00015912176 -0.04171431 0.09699345
000130 b1 3b 16 3d bd 92 b3 3c f2 05 c5 3d 51 d3 71 3c
       0.03667802 0.021920556 0.096202746 0.014759854
000140 82 bd 96 3c 98 bf 96 bc 10 80 8a 3d f6 31 1e bd
       0.018400911 -0.018401906 0.06762707 -0.038621865
000150 f1 a6 69 3d e2 e4 83 3c 2a f7 d0 bc 53 a6 3e 3b
       0.057043973 0.01610035 -0.025508482 0.0029090836
000160 18 0a a3 3d 65 b7 1e bd b9 c1 2f 3d 91 40 3c bd
       0.079609096 -0.038749117 0.042909358 -0.045960013
000170 fd b5 42 3b 1d 1c 90 bd eb 08 0c 3d c4 36 ce 3a
       0.0029710524 -0.07036612 0.034188192 0.0015732874
000180 df 7d 99 3c 22 19 a7 bd 15 50 a4 bc 95 cd eb bc
       0.018736778 -0.081590906 -0.020057717 -0.028784553
000190 e6 0c d9 bc 8b a6 8e 3d 90 92 b8 3d 52 01 99 bd
       -0.026495408 0.06965359 0.090123296 -0.07470955
0001a0 1b 40 2f 3d 70 e7 4f 3c 3f 4a 33 3d 68 de bb bd
       0.042785745 0.012689456 0.04377198 -0.0917328
0001b0 a2 fb d5 3d 88 72 c7 bb e3 97 55 3d af 3c 72 3c
       0.10448386 -0.0060866512 0.052146804 0.014784976
0001c0 6e 10 8b 3d 39 23 be 3d 5b 9b cc 3d 32 02 f8 3c
       0.06790243 0.09284062 0.09990569 0.030274484
0001d0 39 6a 1c 3b dc 9e 27 bc 19 2e 8e 3d cb 17 e9 bd
       0.0023867025 -0.010230746 0.06942386 -0.11381491
0001e0 49 81 d2 bc 41 f9 92 bd 3b 7c cd bc d1 87 00 3d
       -0.025696414 -0.07176448 -0.025083652 0.031379525
0001f0 68 f2 67 3c 29 62 fc bd 2c 92 15 bd c6 3c 17 3e
       0.014156915 -0.1232341 -0.036516353 0.14769277
000200 24 34 88 ba d3 0b 03 3d d8 b7 cf bc 2d dc 8f bd
       -0.0010391516 0.0319937 -0.025356218 -0.07024417
000210 61 a2 22 bd 1e c1 2c bc 45 e3 0e bc 63 22 98 3d
       -0.039705638 -0.01054409 -0.0087211775 0.07428434
000220 85 59 09 bd 63 40 0f be a2 75 29 be 08 9f b0 bb
       -0.033532638 -0.13989405 -0.1654878 -0.0053900518
000230 07 1d 6d bc eb 57 22 bd 74 7d 57 bd f6 b2 23 3d
       -0.014472253 -0.039634626 -0.052609876 0.039965592
000240 da 21 82 bd 6f 49 a3 bc fd fb 97 3d 96 5e 11 bd
       -0.06354113 -0.019932477 0.0742111 -0.035490595
000250 34 42 8d 3c e6 86 8d 3c 0f 7f 9d 3d 79 cd bf bd
       0.017243482 0.017276239 0.0769025 -0.09365363
000260 8d 41 3b 3c d2 d5 b0 bd a9 39 07 3d de b4 51 bb
       0.011429203 -0.08634533 0.033013973 -0.0031998674
000270 04 14 66 bc 49 42 5a 3c da e2 9d bd c6 db 00 bc
       -0.014042858 0.013321468 -0.07709284 -0.007864898
000280 38 14 6d bb d7 52 37 3d ff 4a 74 bd d4 18 74 3b
       -0.0036175381 0.044756737 -0.059641834 0.0037246244
000290 86 0f e6 3c c9 8e ad 3d a6 9e 8e 3d 7f 69 9d 3d
       0.028083574 0.084745 0.069638535 0.076861374
0002a0 ff 2c a4 bc f7 95 10 bd b2 67 ae bb 03 ec f5 3d
       -0.020040987 -0.035299268 -0.00532242 0.12007906
0002b0 8e b3 ff bb 7b 04 a3 bc 7f 01 79 3d 51 31 6e 3b
       -0.007803387 -0.019899597 0.060792442 0.0036345313
0002c0 8b ec 72 bd 32 91 86 3d f8 12 01 3e 65 ad 39 bc
       -0.059307616 0.065706626 0.12604892 -0.011332844
0002d0 df 8b 08 3d 17 3b 43 bd f1 a7 c9 3c d0 25 f8 bd
       0.033336516 -0.047663774 0.024616214 -0.12116587
0002e0 c6 18 0d 3d d3 a6 15 bd 4b 72 9f ba 18 90 7d bd
       0.034447454 -0.03653605 -0.0012164799 -0.061904997
0002f0 2a 07 4b bc 2a 82 9d 3d 04 ce 62 bc e9 aa 62 3d
       -0.012391845 0.076908424 -0.013843063 0.055338774
000300 81 35 60 3b 9a 7b c5 3c 31 0b d4 bd 9d 79 27 3d
       0.0034211578 0.02410679 -0.10353697 0.040887464
000310 e1 88 89 bd 95 0f 67 3b 8c f7 8c 3d 69 c5 2d 3b
       -0.06715561 0.003525709 0.06883153 0.002651537
000320 02 85 86 3d 73 8a c3 3c 38 42 5d bb c0 e7 75 3d
       0.06568338 0.023869729 -0.0033761393 0.060035467
000330 b9 8b af 3d 9b 52 a9 3c 3a bd 25 bd c9 53 87 3d
       0.08571572 0.020669272 -0.040463664 0.066077776
000340 94 1a 44 3d f4 b1 12 3d 91 ca 9b bd 6b ec a0 3d
       0.04787691 0.03581424 -0.07606996 0.07857593
000350 78 e2 ac bc ab 42 74 bd 8d 4b 77 3d e9 52 2c 3d
       -0.021104082 -0.059633892 0.060374785 0.042071257
000360 c6 bd b9 3c e9 4e 16 be 32 d0 1f bb 6b 13 bc bd
       0.022673499 -0.1467854 -0.0024385569 -0.09183391
000370 11 b5 b4 bd 93 fa bf bd 36 f0 82 3d 9a 2b d1 bc
       -0.08823598 -0.09373965 0.06393473 -0.025533486
000380 00 24 d8 39 43 27 0f bd fa 27 8b 3c 9b db 73 3d
       0.00041225553 -0.034949552 0.016986836 0.059535604
000390 f8 2f b3 bd 44 f0 9e bd 13 44 90 3d 7d d2 db 3d
       -0.08749384 -0.07760671 0.07044234 0.10733507
0003a0 4b b8 5f 3c bb 5d 8e 3d f7 19 04 3d 55 5e 35 3d
       0.013654779 0.069514714 0.032251325 0.044279415
0003b0 bb e2 8a bd 46 29 0c 3e 99 6f 11 bd bb d7 05 ba
       -0.06781527 0.1368762 -0.03550682 -0.00051056937
0003c0 26 cd 54 bd 77 39 2e bc 19 0e be 3d 6d 14 5f bc
       -0.051953457 -0.010633818 0.09280033 -0.01361571
0003d0 6c 5e 4c bd 9e b1 30 be dc 21 bc bd c3 38 2c bd
       -0.049894735 -0.17255256 -0.09186146 -0.04204632
0003e0 c8 95 bd 3c 9c 82 e5 3c 6e 2e 95 bc bc 19 d1 bc
       0.02314271 0.028016381 -0.018210616 -0.025524966
0003f0 de 32 08 bd 51 ff c2 bd f8 22 2c 3c 3b 15 49 3d
       -0.033251636 -0.09521354 0.010506384 0.049092513

weight f4 [1024, 8]
000000 28 a1 a4 bd fd 47 04 3d 2f fd 7f bd 00 01 7f 3c
       -0.080385506 0.032295216 -0.062497314 0.015564203
000010 d6 76 c8 bd ba 83 cc bc 26 18 c1 bc 6b 61 02 bd
       -0.09788291 -0.024965156 -0.023571085 -0.031831186
000020 58 6c 83 bd 75 23 9e 3d 64 d0 18 bd 00 7d 27 bd
       -0.06417149 0.07721607 -0.03730811 -0.040890694
000030 cf 21 09 3c ad 04 e8 bc a1 d8 48 ba ec 75 47 38
       0.008369877 -0.028322542 -0.0007661675 4.755512e-05
000040 73 b0 ac 3c 8d e0 d3 bc ac a9 d8 3c bc 20 2f bd
       0.021080231 -0.02586391 0.026448093 -0.042755827
000050 c9 7c cf bd 53 7a ff 3c 77 14 01 3d 54 42 2b bd
       -0.10131223 0.031186258 0.031513657 -0.041811302
000060 b3 ee e9 bd b4 61 c5 3c a9 35 71 bb f8 60 ae bd
       -0.114224814 0.02409444 -0.0036805666 -0.08514589
000070 5b 16 1b bc 1c ae 15 bd 81 a1 77 3d 24 87 9c 3c
       -0.009465779 -0.036542997 0.060456757 0.019107409
000080 e3 be bc bc 8c 96 09 3d 03 e2 a9 bb 9c 0a 74 bd
       -0.02304024 0.03359084 -0.0051844134 -0.05958043
000090 f9 ad 5d 3a d6 e2 eb ba ce 35 b0 3c fc 17 17 3d
       0.0008456405 -0.001799668 0.021510031 0.036888108
0000a0 61 91 df 3d 78 c7 04 bc e5 8c 82 3d d7 53 07 bd
       0.10916401 -0.008104198 0.0637453 -0.03303894
0000b0 8a 85 f4 bd 41 64 52 bc e5 25 15 3d 9d 31 e0 3d
       -0.11939533 -0.012841285 0.036413092 0.10946963
0000c0 5f c3 ab 3c 76 ae 89 bd 15 98 d7 3c cf 94 7c 3d
       0.020967184 -0.06722729 0.026317636 0.061665352
0000d0 34 6f 5e bb ad 1b 46 3d 75 c6 47 bd 8a 3f 62 bd
       -0.0033940794 0.048366237 -0.048773248 -0.055236377
0000e0 25 0d 02 3c 47 bc 15 be b5 29 b5 bd c5 5a 38 3d
       0.007937704 -0.14622603 -0.088458456 0.04500844
0000f0 3f 25 04 be 92 41 f7 3c 50 21 a8 bc 77 22 17 be
       -0.12904833 0.030182634 -0.020523697 -0.14759241
000100 66 76 4d bc 54 b2 a2 3d 50 7b 1e 3d 8c e0 53 3c
       -0.012540435 0.0794417 0.03869182 0.012931954
000110 50 12 03 3e 8c 55 62 3d 80 4a 43 bc 24 ac 8c bb
       0.12799954 0.055257365 -0.011919618 -0.0042929817
000120 ef 9c 84 3d a8 d6 25 3b 0c f0 56 bd 64 74 b2 3d
       0.06475245 0.0025304947 -0.05247502 0.08713606
000130 8f 8d de bd 7d f7 d9 3d af 32 74 3d 16 f9 1f bc
       -0.10866844 0.10642908 0.05961865 -0.009763977
000140 99 03 c2 bd 49 76 6e 3d e5 19 f1 bd 45 e1 d6 3d
       -0.094733424 0.058218274 -0.11772517 0.104921855
000150 f3 71 4a 3c 56 31 15 bd 2d 47 6c 3c de 35 eb bd
       0.012356269 -0.036424004 0.0144212665 -0.11484884
000160 17 9e ea 3c cf 21 bd 3c 47 68 b5 bd d7 91 47 3d
       0.028639836 0.02308741 -0.0885778 0.048723068
000170 07 db c0 3c 12 7c 12 3c dd be 35 bd 4a 66 3d 3c
       0.02354194 0.0089407135 -0.044371475 0.011560032
000180 cb 55 01 be 12 58 11 be d0 0c 95 3c 6c 63 9e 3d
       -0.12630384 -0.14193752 0.018194586 0.07733807
000190 22 e7 8f bd d3 f6 9d bd af 1f d8 3c b6 ce ec bc
       -0.07026507 -0.077130936 0.026382295 -0.028907161
0001a0 f9 c9 0a bd 3a c8 bd bd 15 e0 55 3d 12 64 a0 3d
       -0.033884022 -0.09266706 0.052215654 0.07831587
0001b0 f2 6d 25 3d 50 31 d4 3c 68 8c e0 bd a6 79 74 bd
       0.040388055 0.02590242 -0.1096428 -0.059686325
0001c0 4c 60 b9 3a 8e e7 6d 3d 6e 77 ad bd e1 95 05 bb
       0.0014143079 0.058082156 -0.08470045 -0.0020383524
0001d0 95 9d 0d 3d 48 31 13 be ab f1 e4 3d 57 43 de bc
       0.03457411 -0.14374268 0.11178907 -0.02713172
0001e0 ff 2d 89 3d a6 df a5 bd 3c 07 22 bd 7d 6a a5 3d
       0.06698226 -0.08099298 -0.03955768 0.08076952
0001f0 3a 9b d7 bc 2d 07 69 3d c1 fa 3d bd 70 67 e3 3a
       -0.026319135 0.05689161 -0.046381716 0.0017349552
000200 f5 0c 82 bd 6e f3 08 bd a5 77 10 3d b5 2b af bc
       -0.063501276 -0.033435278 0.035270352 -0.021383146
000210 95 24 35 3d d1 e6 8d bd 55 51 83 bd 86 c5 1c 3c
       0.04422434 -0.0692879 -0.06411997 0.009568578
000220 ae 76 3a bb 11 bb b6 3d 2a 79 60 3d 89 e3 92 bd
       -0.0028452086 0.08922399 0.05480305 -0.07172305
000230 e4 c7 50 bc 3e ed 59 3d dc 0f 82 3d 71 92 26 bc
       -0.01274297 0.053204767 0.06350681 -0.01016675
000240 6f 86 04 bd bc 78 86 bd 8d ff 4d 3c ae 7b 3d 3a
       -0.03235477 -0.06565997 0.012573135 0.00072282075
000250 58 33 ef bb 31 31 b6 bd a5 60 aa 3d f1 55 e4 bd
       -0.007299822 -0.08896101 0.08319215 -0.111492045
000260 ca de ae bd 3c 1f ba bd 9e df 61 3c a1 8f 41 be
       -0.085385874 -0.09087989 0.013786225 -0.18902446
000270 a8 85 67 bd e5 3a 07 bd e2 1f c3 bc 34 a8 3c 3b
       -0.05652395 -0.03301515 -0.023818914 0.002878678
000280 05 a3 4c bd 8d 0d a5 3c 7a 7a b7 bd f7 b5 17 3d
       -0.049960155 0.020148063 -0.089589074 0.03703877
000290 df 2c f4 3c 92 80 26 bc c2 a8 bc bd 65 42 d3 bb
       0.029806552 -0.0101624895 -0.092118755 -0.006447124
0002a0 45 b8 06 3d df 2e a6 bb 52 08 58 3d 2e 48 05 3c
       0.032890577 -0.0050715054 0.05274231 0.008134885
0002b0 d8 70 48 bb bb aa 3d be 4b 2e 55 3d 4d 70 9f bb
       -0.0030584838 -0.1852216 0.0520461 -0.004865682
0002c0 14 ba 25 bd 03 a4 e7 bc 0c f6 7e bd 1c ca 09 bc
       -0.04046066 -0.02827645 -0.062246367 -0.008410003
0002d0 93 07 08 3d c0 13 08 3a 9c 75 22 ba ef d9 ee bc
       0.03321035 0.0005190931 -0.0006197335 -0.029156653
0002e0 4a 64 c7 3d b6 a5 09 bd ec 6a 02 3d e0 0a 48 bd
       0.097359255 -0.0336053 0.03184025 -0.048838496
0002f0 bd 59 37 bc 14 b7 5d 3d b4 a1 4c 3d 08 06 66 bb
       -0.011190829 0.054129675 0.0499589 -0.003509881
000300 40 c9 3f bd 01 a2 56 3d 31 1b 89 bc 42 c6 7e bd
       -0.046822786 0.052400593 -0.016736599 -0.062200792
000310 18 bc 24 3d 89 11 a6 bd db ce bb 3c e0 0a 7c bd
       0.040218443 -0.08108813 0.022925785 -0.06153381
000320 42 9b ec 3b dc 1f 8e 3d f6 a7 1e bd b4 a7 56 bd
       0.0072206566 0.069396704 -0.0387344 -0.052406028
000330 52 5c 1c 3d 2d ef be bd 5a 52 c0 3d 5e a0 54 3c
       0.03817398 -0.09322963 0.09390707 0.012977688
000340 94 2c a1 3c 90 0a 1b 3d 10 e5 ca b9 00 6f a3 3c
       0.019674577 0.03785187 -0.00038699107 0.01995039
000350 22 9d 5a 3d 98 8b bc 3c 47 61 93 bd 7a e3 d2 bc
       0.05337251 0.023015782 -0.071962886 -0.025743235
000360 4a ab 24 3e ca fd f8 bc ef 4d 0d 3d 53 60 82 3d
       0.16080967 -0.030394454 0.03449815 0.06366029
000370 6d 82 51 bd 1f 2c a0 bd 91 45 14 3d c7 16 c2 ba
       -0.051149774 -0.078209154 0.036199156 -0.0014807814
000380 ce 87 71 3d 11 47 60 bc cc 35 82 3d a7 f4 8b 3d
       0.058967404 -0.013688819 0.06357917 0.06833773
000390 2b 29 e1 3d 38 64 d8 3c 47 46 c7 ba c4 84 01 3c
       0.1099418 0.026414976 -0.0015203439 0.007905189
0003a0 02 b0 43 bd ca 7f ee bd da 93 cd 3c 5a ed 91 3d
       -0.047775276 -0.116454676 0.025094915 0.07125349
0003b0 b3 e7 11 be d7 90 81 3c 9a 3c e0 bd 41 a9 74 3d
       -0.14248542 0.015816135 -0.10949059 0.059731726
0003c0 76 57 92 3d 73 b3 1e 3c f4 70 c7 3c 80 80 95 3d
       0.07145588 0.009686339 0.024345852 0.072999
0003d0 e0 64 2f 3e 51 ef c1 3d e8 a3 6f bd a2 ff 54 bd
       0.17128325 0.09469474 -0.058505923 -0.052001603
0003e0 49 80 41 3d 7d 08 34 3d 31 bc bc 3c 14 20 6e 3d
       0.047241483 0.043953408 0.023038955 0.05813606
0003f0 cf d7 86 bc 83 49 04 bd 86 36 c3 bd 01 00 11 bd
       -0.016460327 -0.03229667 -0.09531884 -0.035400394

weight f4 [1024, 8]
000000 f4 1a 95 3d 37 54 e6 bc 72 f7 58 bd cc e1 b8 3d
       0.072805315 -0.028116329 -0.052970357 0.09027442
000010 47 2a 77 bd 46 17 f7 3d 79 ea 1e bd e8 a6 b5 bd
       -0.060343053 0.12064986 -0.03879783 -0.088697255
000020 02 93 d0 bb b6 7a 43 bd ae e1 79 bd 19 83 8b bd
       -0.006365181 -0.04772445 -0.06100624 -0.06812114
000030 6a 14 f9 bd b4 fa cf bc da 79 81 bc 17 66 58 3a
       -0.12162097 -0.0253881 -0.015805174 0.00082549587
000040 6a 70 c3 3d 20 c0 27 bd 6f ae 8d 3d 68 fd 20 3b
       0.09542926 -0.04095471 0.06918036 0.0024565104
000050 7a 6d 92 3d 0f f0 a3 3c 9a d6 1c 3d e6 66 01 bd
       0.07149787 0.02001193 0.038290597 -0.031592272
000060 69 46 fb bc f0 73 2b 3c f4 9b 0b be e6 0f 1a 3d
       -0.030673223 0.010464653 -0.1363371 0.03761282
000070 b0 70 79 3d b5 c5 07 ba e2 52 51 bd 32 00 ac bd
       0.060898483 -0.0005179302 -0.051104434 -0.08398475
000080 3d 8e 86 bc 99 88 b0 3c 09 9b 77 3d 52 e4 94 3c
       -0.016425246 0.02154951 0.060450587 0.018175278
000090 0a 60 be 3c af ba d8 3d 53 1f 7a 3d 8e 4a cf bc
       0.023239154 0.10582482 0.06106503 -0.025304105
0000a0 77 39 10 3e 47 2e ac 3c 13 40 51 3d 6e b5 63 3d
       0.14084421 0.02101816 0.051086497 0.055592947
0000b0 c2 5f 96 3d ec e6 b7 bd a8 99 3a 3d 27 3f b1 3d
       0.07342483 -0.08979592 0.045556694 0.086546235
0000c0 79 53 78 3d ce 1b 54 bd a3 1d 25 3d 0c 51 2c bc
       0.06062648 -0.05178433 0.040311467 -0.01051737
0000d0 ed 03 7d bd 63 c9 75 3d b3 3c 7d 3c 6e e4 8f bd
       -0.061771322 0.06000651 0.015456366 -0.070259914
0000e0 af 6b 35 3d ea 54 52 3d f4 b1 ff bc 09 26 1e 3c
       0.04429215 0.05135051 -0.031212784 0.009652623
0000f0 01 14 21 3e 4d 95 a7 bc 82 89 34 bc a8 75 cf bd
       0.15730287 -0.020456934 -0.011019113 -0.10129863
000100 77 b2 5f 3c 0d 1d 9a bd d0 2a a5 bd 9a 39 25 be
       0.013653389 -0.07525072 -0.080648065 -0.16135255
000110 a2 51 ae bd 86 29 06 bd e4 fe a8 3d 7a 91 81 bb
       -0.08511664 -0.032754444 0.082517415 -0.0039541097
000120 e6 dc ef 3d 1c f9 47 3d d2 f0 14 bd f6 21 e9 ba
       0.11712055 0.048821554 -0.036362477 -0.001778661
000130 f0 92 1e be 38 2c a4 3d 7f 08 3d 3c 46 83 10 bd
       -0.1548574 0.080162466 0.01153767 -0.035281442
000140 0e 9d c4 ba 13 a7 30 3d 79 3d b5 bd 97 8b c4 3d
       -0.0015000419 0.043128084 -0.088496156 0.09596937
000150 f2 c2 2e 3c 8d 6f 2a 3d d1 df 87 bd b6 44 25 be
       0.010666596 0.04161029 -0.066344865 -0.16139492
000160 b8 7c 5c bc 12 01 2e bc 0a b3 ea 3c f7 05 2a 3d
       -0.01345747 -0.010620372 0.028649826 0.041509595
000170 91 71 45 bc 69 72 da bc a4 a1 13 3d 48 02 17 3d
       -0.012051002 -0.026665883 0.036042824 0.03686741
000180 3d 46 fb bc 54 b2 0b 3e 8e 01 39 3c 8f 81 49 bd
       -0.03067314 0.13642246 0.011291875 -0.049195822
000190 58 3c 0e bc 29 c2 80 3d c1 56 67 bd 3a 04 8b 3d
       -0.008681379 0.06287033 -0.05647922 0.067879155
0001a0 8f 64 9a bd da 51 0f 3c b1 c0 eb bc 95 f2 0c 3c
       -0.07538711 0.008747542 -0.028778406 0.008602758
0001b0 2c bd 28 bc 78 94 54 bd fc 53 47 3c da 7c 18 be
       -0.010299008 -0.051899403 0.0121660195 -0.14891377
0001c0 55 06 15 bd ed 0d 50 bd 0f f9 f2 3c f8 0b 14 3c
       -0.03638299 -0.05079453 0.029659776 0.009036057
0001d0 6d 7e 96 3d 78 a1 07 bd a0 ac 06 3e e6 71 8f bd
       0.073483326 -0.033112973 0.13151789 -0.07004146
0001e0 6b 51 82 3d 31 b6 45 bd c5 37 b0 bc 4a 08 57 bc
       0.063631855 -0.048269454 -0.021510968 -0.013124535
0001f0 d4 16 3b 3d 85 10 44 3d 65 73 3b 3d 39 6a 47 bc
       0.045676067 0.047867317 0.045764346 -0.012171322
000200 ed f1 91 3c 23 0a 23 3d fe 2f a8 bd e9 e0 4a 3d
       0.017815555 0.03980459 -0.08212279 0.049530897
000210 34 0c 98 bd 4b 60 eb 3a 7c 92 23 3a 36 98 93 3d
       -0.074242026 0.0017957775 0.00062397844 0.07206766
000220 6e 1d f0 3d 8e 82 0e bd c2 d8 ee bb d7 7a bc 3c
       0.11724363 -0.034792475 -0.007289023 0.023007793
000230 88 62 3d bd 77 d7 c4 3d 9e b6 33 3d b9 41 20 3e
       -0.046236545 0.09611409 0.04387533 0.15650071
000240 98 bb b7 3d 3b 5c 89 bd 67 ce a2 3d ab b4 5c be
       0.089713275 -0.06707045 0.079495244 -0.21553294
000250 32 f9 cf bd 00 9f b0 bc 18 db dc 3d ac da 5a bd
       -0.10154952 -0.021560192 0.10783976 -0.053431198
000260 a3 0e 19 bd c7 79 de bd 63 9e 8d ba 21 a3 c9 bd
       -0.037367474 -0.10863071 -0.0010804649 -0.098455675
000270 7d 93 0a bc 64 b4 4b 3c 93 cd 88 bc 5d 60 a9 bd
       -0.0084580155 0.012433145 -0.016699588 -0.08270333
000280 03 c9 2b 3d 2b 1e 26 3d 5c 16 77 3d bb ea d3 bd
       0.041939747 0.040556114 0.060324058 -0.10347506
000290 cc 18 32 3d 75 7c c7 bd d1 8a 65 3d d0 9b fe bc
       0.04348068 -0.09740535 0.05604059 -0.031080157
0002a0 a9 07 d4 bd a1 ce d0 bd 23 27 f1 bd f4 e6 a1 3c
       -0.103530236 -0.10195661 -0.11775043 0.019763447
0002b0 a9 30 3d bd 4b ae 10 3d 57 00 55 3d 32 a0 d2 bd
       -0.046188984 0.03532247 0.052002277 -0.10284461
0002c0 e2 2d 87 bd e5 d0 ea 3c 11 a6 37 3d 66 30 9b 3a
       -0.06600548 0.028664062 0.044836108 0.0011839985
0002d0 7c f6 d4 bc 80 b8 c2 3d 8a 5b 82 3d b2 6f 59 3d
       -0.02599644 0.09507847 0.06365116 0.053085037
0002e0 26 6a 7b 3d dd bc 5d bb f4 2d 2b bd 20 5f 06 be
       0.061380528 -0.0033834495 -0.04179187 -0.13122225
0002f0 56 6b 74 3d c9 8b c0 bc 60 7d cd 3d 99 fc dd 3c
       0.059672676 -0.023504155 0.10033679 0.027097987
000300 5d 51 cc bb f0 9f 06 bd ce 1f 81 3d d6 61 59 bd
       -0.006235285 -0.032867372 0.063048944 -0.05307182
000310 cd 96 ce bc ad 99 a2 bd 7b d4 0c bd 71 b9 17 3d
       -0.025218392 -0.079394676 -0.034382325 0.037042085
000320 9d 45 92 3d 5d 0c b2 bd f7 9b c1 bc 87 ac 84 bc
       0.07142184 -0.08693764 -0.02363394 -0.016195549
000330 45 78 bd 3d 57 85 fb 3b de de 93 bd f5 fd f5 bd
       0.09251455 0.0076758075 -0.07220243 -0.12011329
000340 04 24 e0 bd a4 ba 1d bc 93 a4 9c bc 9e 12 52 bd
       -0.109443694 -0.009627018 -0.019121444 -0.051287286
000350 f5 5d c5 bd 5a 0d cd bd 5e 7e 7b 3d 98 46 67 3d
       -0.096370615 -0.10012312 0.06139981 0.056463808
000360 b5 cf 98 bd 89 14 0f bd 1d 02 0c 3d 90 ab 3c 3d
       -0.07461492 -0.034931693 0.034181703 0.046062052
000370 a7 e0 8b 3c 3a be cb bc 28 3f 1b bd 18 2b 28 3e
       0.017074896 -0.02487098 -0.037902027 0.16422689
000380 15 b1 d0 3c d5 6c 53 bd 4c 4c ca bc 9b 1c 33 bd
       0.025475064 -0.051617462 -0.024694584 -0.043728452
000390 34 41 90 3c c0 ec 0a bb 19 ee 95 bb 55 17 c9 3d
       0.017609216 -0.0021198243 -0.0045755026 0.09818903
0003a0 44 e1 80 bd d3 70 36 3d d0 39 ac 3c ab 78 3e bd
       -0.06292966 0.04454119 0.02102366 -0.046501797
0003b0 95 9f 14 3b c5 5b 29 be 03 27 82 bd b8 e6 91 bc
       0.0022678126 -0.16538914 -0.06355097 -0.01781021
0003c0 dc c0 13 bc fe a6 a1 3d 18 6c e1 bd 71 0a a4 ba
       -0.009018149 0.07893179 -0.11006945 -0.0012515319
0003d0 27 39 03 3d 5a 11 a3 3d 7c 6b 88 3d f9 59 23 bd
       0.032036927 0.07962294 0.06661126 -0.039880726
0003e0 e2 d6 51 bc 7e 31 a8 bc ae e1 80 3d 52 de 01 bd
       -0.01280758 -0.020531412 0.06293045 -0.03170616
0003f0 3b bf 62 bc 6a f4 8f bd a9 82 67 3d 82 ba 63 bd
       -0.013839538 -0.0702904 0.05652109 -0.05559779
